output/train_16_12_23_part-1/unet_tgs_salt.pth (torch, 248279 bytes, 26 tensors)

weight f4 [16, 3, 2, 2]
000000 24 a8 47 3e 46 2c 23 3d bc c5 80 be d4 6a 76 bd
       0.19497734 0.039837144 -0.2515086 -0.060160473
000010 9d 5f 10 be 63 77 13 3e 35 85 0f bd 0d 50 8a be
       -0.14098974 0.14401011 -0.035039145 -0.270142
000020 83 d7 d2 bd c0 11 71 3d d3 e4 58 3d 61 40 90 be
       -0.10295012 0.05885482 0.0529526 -0.28174117
000030 65 c9 0f 3e be fd f4 3d 61 c4 81 3e b8 32 d0 3d
       0.1404167 0.1196246 0.25345138 0.10165924
000040 64 d3 87 bd 77 a8 e4 3d 4c 7d c5 bd 4f e8 b1 3d
       -0.066321164 0.111649446 -0.09643039 0.086868875
000050 9d dc 95 3e 06 86 2a 3f 5e ef 79 3e 56 36 fb 3e
       0.29269877 0.66610754 0.24407718 0.49064893
000060 ac 62 08 3e 3d 62 9e 3d 5a 42 c3 bd 04 d4 b9 3d
       0.1331889 0.07733581 -0.0953414 0.09073642
000070 82 18 6c be da ea 34 3e e4 16 70 3e ae 7b 3e 3e
       -0.23056224 0.17667714 0.23446232 0.18601868
000080 f2 b3 9c be 9e 16 ba be f9 d3 18 3e 6b 09 f0 bd
       -0.30606037 -0.3634538 0.14924611 -0.11720546
000090 a5 2a f9 be 65 a6 8a bc 0d d4 39 be e4 e4 c9 3e
       -0.48665348 -0.016925046 -0.18147297 0.39432442
0000a0 e4 96 3c be da ec 73 be 62 af a2 bd 11 fc 7f be
       -0.18416935 -0.2382082 -0.07943608 -0.249985
0000b0 30 de 8b 3c d2 e3 18 3f ff 96 d3 3e 0e 79 4d 3f
       0.01707372 0.59722626 0.41326138 0.8026284
0000c0 f0 ad a3 3d e2 cc 9a be 50 7b 95 be 05 88 12 3e
       0.0799216 -0.30234438 -0.29195642 0.143097
0000d0 95 06 bf 3d da ca 55 3e 45 11 05 be a9 e8 32 be
       0.09327427 0.20878163 -0.12994869 -0.17471565
0000e0 3d 3e 2a be d8 a8 a0 bd 19 03 0b 3c ad af 0f bd
       -0.16625305 -0.078447044 0.008484625 -0.035079647
0000f0 e9 3e d5 be 5c 9d f9 bc fa 8f 32 be 3a 25 4f bd
       -0.4164956 -0.030470543 -0.17437735 -0.05057261
000100 87 6d ab 3d aa e2 30 3e 0d ef 9e be ae 42 81 3e
       0.083705 0.17273965 -0.31041756 0.25246185
000110 8e 67 9f bd 6d ef e2 3e b9 1b 05 be 05 d5 2a 3e
       -0.07783423 0.44323292 -0.12998857 0.16682823
000120 fe e4 30 be 1f 76 54 be 1b ce 85 be 50 a7 9e be
       -0.17274854 -0.20748185 -0.26133808 -0.30987024
000130 07 d5 bd be 58 8a cb be 25 93 cb be 34 c5 9b bd
       -0.3707659 -0.39753985 -0.397607 -0.07605973
000140 c9 a8 30 3f 67 7f 3c 3f 82 ae 20 3f c2 f6 58 3f
       0.69007546 0.736319 0.6276628 0.8475152
000150 dc 37 36 3e d5 5e a5 be 66 82 5d 3d c4 e5 1e 3e
       0.17794746 -0.32298914 0.054079436 0.15517336
000160 10 21 8f be 06 3a 42 3d c2 46 83 bd b2 e4 b1 be
       -0.27954912 0.047418617 -0.0640998 -0.34744793
000170 35 b2 63 bd 65 3d 50 be 32 98 9c be d5 a0 62 be
       -0.055589873 -0.2033592 -0.30584866 -0.22131665
000180 e8 a5 1a be cc 3c 5c bc 7c 11 07 3e c4 96 65 be
       -0.1510235 -0.0134422295 0.13190264 -0.22420794
000190 8d 27 6e 3d 5e 31 9f bc e8 eb 10 bd 23 2f 15 3e
       0.058143187 -0.01943272 -0.035381228 0.14568762
0001a0 7f be 18 be 70 44 ce bc 3b ee 79 3e a4 0f 9b 3d
       -0.14916418 -0.025179118 0.24407284 0.075713426
0001b0 cd 1c 59 be 2c c3 60 3e cd 24 57 be 7a 30 b8 3d
       -0.21202393 0.21949452 -0.21010132 0.08993621
0001c0 e5 d1 a4 3d 06 d7 b5 3d b1 ec 0f be 91 06 f6 bd
       0.08047847 0.08878903 -0.14055134 -0.12012971
0001d0 b8 3b 3b 3f e1 f9 19 3f 27 62 c0 3e da c0 9f 3e
       0.73138 0.6014691 0.37574884 0.31201822
0001e0 7c d3 5b bf e0 b6 66 bf 70 36 4a bf 9d 86 1f bf
       -0.85869575 -0.90122795 -0.78989315 -0.6231478
0001f0 74 86 26 bf 64 ca 9e be e9 3a 08 bf b4 54 99 be
       -0.6504891 -0.31013787 -0.5321489 -0.29947436
000200 d3 89 21 3f 17 00 11 3e 9c c0 18 3f e4 b9 8f 3c
       0.6310093 0.1416019 0.596689 0.017544694
000210 dc c2 1f 3e 22 51 39 3f 4f 10 6d bd 9c 09 83 3e
       0.15601677 0.72389424 -0.05787688 0.2559327
000220 a3 13 91 bf 9b dc e7 be cf dd 57 bf d4 22 2d bf
       -1.1334118 -0.45285496 -0.8432283 -0.6763127
000230 f1 67 45 bf 86 9b 07 3f cf 9a 43 bf 04 08 87 3e
       -0.77111727 0.52971685 -0.76408094 0.26373303
000240 ef 81 29 be 6d 00 92 bc c7 38 ad bc 04 74 bc bd
       -0.16553472 -0.017822469 -0.021145238 -0.09201816
000250 05 72 b8 3d 8e 09 0c 3e 9a 06 99 be 1b 69 57 3e
       0.090061225 0.1367552 -0.2988785 0.21036188
000260 b1 95 b1 bc ee dc 30 be f5 bc 6d 3d 2e 8e 4f 3c
       -0.021677824 -0.17271778 0.05804153 0.012668176
000270 36 df 28 be 88 0a 38 3d 37 11 bf bd 40 0b 19 be
       -0.16491398 0.04493192 -0.09329455 -0.14945698
000280 d2 59 90 bc a4 4b 1c be c8 b4 5b 3e cc 4f 32 ba
       -0.017620955 -0.1526323 0.21455681 -0.0006802052
000290 de f5 b7 bd 83 2a 45 3e b9 19 1f be 3c 44 a7 3d
       -0.08982442 0.19254498 -0.15537156 0.081673115
0002a0 19 68 0e 3f ed 0c 88 3e 5a f5 fe 3e 10 9c f2 3d
       0.5562759 0.26572362 0.49796563 0.11846173
0002b0 e0 ad 29 bf 2b 79 59 bf b6 00 20 bf b2 e0 f3 be
       -0.6628094 -0.8495051 -0.62501085 -0.47632366
0002c0 ef 45 cc 3e 0b 66 af 3e 71 fb e3 3e 20 bb 24 3e
       0.39897105 0.3425754 0.44527772 0.16087008
0002d0 65 6f 3f 3e 2f 06 24 3e 46 f1 66 3e 15 b1 42 be
       0.18694837 0.16017984 0.22552976 -0.19012864
0002e0 aa 8b 12 bf 1d a2 07 bf c7 5b 37 be 3f 90 82 be
       -0.5724436 -0.5298174 -0.17906104 -0.25500676
0002f0 09 e5 88 be f7 6d 1e 3e 0b f3 5e bd 87 17 4b 3e
       -0.2673724 0.15471636 -0.054431003 0.19833194

bias f4 [16]
000000 34 73 a8 bd 86 68 8b be 6d 6f b6 be f7 21 2d 3f
       -0.08225098 -0.27228183 -0.35631886 0.6762995
000010 5b 0c c5 bd 4d 4b 06 bf 9c 41 f9 3d 2d e5 ca bd
       -0.09621497 -0.5245865 0.12170717 -0.09906993
000020 45 ff 71 be d3 41 52 bf 74 31 21 3d b9 5d 4a be
       -0.23632534 -0.8213169 0.039353803 -0.19762315
000030 56 47 ad be 15 1d a6 be 4b b7 2a 3e 96 90 d5 bc
       -0.33843488 -0.32444063 0.16671483 -0.02606992

weight f4 [16, 16, 2, 2]
000000 49 00 80 3d 07 4d 40 3c 72 8b e2 3d b0 99 d5 bc
       0.062500544 0.011737115 0.11061753 -0.02607426
000010 a4 3a f5 bd 99 de 13 3f 95 bf e2 bd e9 4a 0b 3f
       -0.119740754 0.5776153 -0.110716976 0.5441118
000020 91 60 8a 3e f0 78 a7 3d 8f af 1f 3e f6 90 8a 3e
       0.270268 0.08177364 0.15594314 0.2706372
000030 0c 9e 4c be 75 1b 72 bd ae cb 19 be 87 3a 9c 3d
       -0.19982165 -0.059108216 -0.15019104 0.07628351
000040 4a 14 2a 3d 39 b4 a8 bd a3 de b0 3d 1f 83 3d 3c
       0.041523255 -0.082375 0.086362146 0.011566906
000050 48 f3 31 3d e9 4c 7c bd c5 e3 18 bd 12 1d ce 3c
       0.0434449 -0.061596785 -0.037326593 0.025160346
000060 f9 11 0b bd 35 a4 a0 3e 30 46 c6 bd 85 03 08 3f
       -0.033952687 0.3137528 -0.09681356 0.5313037
000070 cf 29 d6 bd 8a 42 07 be 7f e7 92 3c c3 8d 2d bd
       -0.10457193 -0.13208976 0.017932652 -0.042371523
000080 b4 28 f6 bd 0e 29 97 bc d9 ae 56 bd 86 ad a4 3d
       -0.12019482 -0.018452194 -0.05241284 0.080409095
000090 a0 f6 60 bb a4 28 a7 3e 63 5f a0 3d 17 ad 84 3e
       -0.0034326687 0.32648194 0.078306936 0.25913307
0000a0 df eb 8e be 50 a4 21 be f0 0d 7a be 45 26 57 be
       -0.2791433 -0.15785336 -0.24419379 -0.21010692
0000b0 8d 73 ef 3d 07 4a 33 3d d2 42 9e 3e e7 53 2f 3d
       0.116919614 0.04377177 0.30910355 0.042804625
0000c0 33 81 37 3d de bb fb bc cc 25 aa 3d ba 52 1a 3d
       0.04480095 -0.03072923 0.083079904 0.03767655
0000d0 da 72 01 3e fa 09 14 3e 1b 4c 0e 3e a1 fd 56 bd
       0.12641469 0.14456931 0.1389622 -0.052487973
0000e0 70 db a3 be 3f 71 b1 3e b0 db 6b be 53 d7 d6 3e
       -0.32003355 0.34656712 -0.23033023 0.41961154
0000f0 3c e4 4a 3d 82 37 c9 bd 46 c4 2b 3d 48 d7 11 3d
       0.049534068 -0.098250404 0.041935228 0.0356057
000100 0a 81 18 3d 09 c9 65 3d b2 ba 08 3e 82 b0 c7 3d
       0.037232436 0.056099925 0.13352469 0.09750463
000110 53 75 73 be 64 38 ab 3c c2 f2 1f bd b9 65 bf bd
       -0.23775224 0.020900913 -0.03904987 -0.09345574
000120 b6 f9 87 3e 10 ea 27 3e 43 22 40 3e 5b a8 43 3e
       0.26557702 0.16397882 0.1876307 0.19107191
000130 cf 0a 29 be d6 1b 08 bf 6b 23 bf be f8 a2 28 bf
       -0.1650803 -0.53167474 -0.3733171 -0.6587367
000140 55 22 a0 3c 58 4e a2 bd 53 0d 87 bd 27 a3 cd 3d
       0.01954762 -0.07925099 -0.06594338 0.100408845
000150 b0 e2 0c be a0 e9 2b 3d 33 97 31 be bc a5 86 3d
       -0.1375835 0.04197085 -0.17342834 0.0657458
000160 26 50 d7 be 4c ef e7 be 97 5c c2 be a5 52 b4 be
       -0.42053336 -0.45299757 -0.37961265 -0.35219303
000170 82 d5 08 bc a1 8a 3c bd 31 f1 dc bd 59 e2 85 bd
       -0.0083516855 -0.046030644 -0.10788191 -0.06537313
000180 c6 9b b2 3d 16 ab f3 ba a9 9d f7 bb 19 5a 78 bc
       0.08721118 -0.0018590416 -0.0075566364 -0.0151582
000190 b0 3a 70 3e 11 1c 80 bd 36 ef 39 bd a2 37 98 bc
       0.23459888 -0.06255353 -0.045394145 -0.018581215
0001a0 96 7a 49 be 15 97 e9 be c1 04 f6 be 68 2b 09 bf
       -0.19675669 -0.4562308 -0.48050502 -0.5358186
0001b0 d3 49 ec be ad ac ac be 31 d4 92 be 1f 71 34 be
       -0.46150073 -0.3372549 -0.28677514 -0.17621277
0001c0 54 a3 cb bc 52 f1 16 3e 65 45 36 bc c3 80 c0 bc
       -0.024858154 0.14740494 -0.011124943 -0.023498898
0001d0 98 1f 24 3e d8 2d 37 3e c2 48 b0 3d f3 b6 eb 3d
       0.16027677 0.17888582 0.086076275 0.11509504
0001e0 c2 a2 86 be e0 e1 05 be 81 1d f6 bd 86 c4 c4 3d
       -0.2629605 -0.13074446 -0.12017346 0.09607796
0001f0 b2 d2 36 bc dd 7b 20 be 88 60 08 bd 67 a5 be bd
       -0.011158632 -0.1567225 -0.033295184 -0.09308892
000200 23 40 47 3e 25 74 a0 3d 6f fb 79 3d 27 b4 12 3e
       0.1945806 0.07834653 0.0610308 0.14326535
000210 b2 8e 4a be 1f 18 50 3e a3 14 7e bd c1 89 cb 3e
       -0.19780996 0.20321701 -0.0620314 0.39753535
000220 b9 7d 54 3e a4 c9 4d 3e 47 4b 91 3e 6d 4e 3c 3e
       0.20751084 0.20096451 0.28377745 0.18389292
000230 f2 63 dd be 6a a2 33 3e ac 4e 9f be 5e 46 ae 3d
       -0.43240315 0.17542425 -0.3111471 0.08509515
000240 7c f9 ea 3d e8 04 9d bd b1 28 d8 3d c3 fc 67 3d
       0.114733666 -0.076669514 0.10554636 0.056637537
000250 65 70 14 be 84 9d 8d bd 98 f9 0d bd 7d 21 25 bd
       -0.14496 -0.06914809 -0.03466186 -0.04031514
000260 79 98 2d bf 29 10 9b 3e 11 bf c2 be 90 c5 09 3f
       -0.6781078 0.30285767 -0.38036397 0.5381708
000270 ec 49 95 3d b4 53 d8 3d 26 63 88 bd dd 85 fa 3c
       0.0728949 0.1056284 -0.06659536 0.03058141
000280 cb a7 9e bc 99 d0 8f bd e9 a6 9b 3d 6d b6 d6 3d
       -0.01936712 -0.07022209 0.07600195 0.10484014
000290 00 76 e2 bd c0 16 89 bc 97 1f 20 be ed 8e 25 3d
       -0.11057663 -0.01673448 -0.1563705 0.040419508
0002a0 73 f3 cb be ac 9d b6 be 3a e7 e0 be 0e 8f e1 be
       -0.39834175 -0.3566717 -0.43926412 -0.44054455
0002b0 eb 74 f7 3e 2a ef cf 3d 85 c9 1c 3f cb a9 90 3e
       0.4833139 0.10153039 0.61244994 0.28254542
0002c0 ee 6d f8 3c 4c 02 4f 3e 5a 9e 11 3e 5c 76 3c bc
       0.030325856 0.2021572 0.14220563 -0.011502828
0002d0 7a e1 21 3e 2b 07 53 3c e8 0e bb 3d 2f a7 d5 3d
       0.15808669 0.012880127 0.091337025 0.10432278
0002e0 20 f4 89 be 2d 45 fa 3d f2 9e 3e be 94 3c 49 3e
       -0.26944065 0.122202255 -0.1861532 0.19652015
0002f0 25 a7 1c bc 9d 69 c2 3c 80 ef 0b bc 3b 8d b7 bd
       -0.009561335 0.023732001 -0.008540988 -0.089624844
000300 96 b5 02 3d 49 3f 11 3d 20 c8 e9 bc 61 42 71 3d
       0.031911455 0.035460744 -0.02853781 0.058901194
000310 91 f8 9b be 80 d8 4b 3d eb ad a5 bd 39 b7 e2 3e
       -0.3046308 0.049767017 -0.08089813 0.44280413
000320 8b 3c 27 3e ea 5c 5a 3e 14 fe b0 3d d3 80 83 3e
       0.16331689 0.21324506 0.086422116 0.25684223
000330 fd f4 b7 bd 7b d4 56 3d 1b a4 03 3c 84 f1 88 3e
       -0.08982275 0.05244873 0.008034731 0.26746762
000340 4b 39 88 bd ed f9 f1 bc e0 76 12 3d c7 9a 9c bd
       -0.06651553 -0.02953812 0.0357579 -0.07646709
000350 c7 f6 39 be 45 f2 13 be a5 90 2a bd 7c 97 87 3c
       -0.18160544 -0.14447887 -0.04164185 0.016551726
000360 74 34 4a be d8 89 bd 3e 4f fa 81 be 05 ad c9 3e
       -0.19746572 0.3701923 -0.25386283 0.39389816
000370 b0 a9 c2 bd 2e 23 c7 bd db 85 03 be 07 7a 89 3d
       -0.095050216 -0.09723507 -0.1284403 0.06712728
000380 d4 0e 0c 3d c9 4c b0 bd 1e 16 bc 3d bf 10 fe 3d
       0.03419383 -0.086083956 0.09183906 0.12405538
000390 53 c6 fb be 1c 42 a2 bd f1 87 85 3c 38 42 84 3e
       -0.49174747 -0.079227656 0.016300173 0.2583177
0003a0 ac 11 e8 bc 6a da 80 3d de 92 cb bd 7a 09 e6 bd
       -0.02832874 0.06291659 -0.09940122 -0.11232276
0003b0 3d 0c 11 3f af 3e 7d 3e 47 0a d2 3e 89 38 08 3e
       0.566593 0.24730943 0.41023466 0.13302816
0003c0 f7 7a 42 3e f3 93 27 3e b1 e0 82 3c e6 25 9c bc
       0.1899222 0.16365032 0.015976282 -0.01906104
0003d0 6e 0a 2a 3e e8 5e cc 3d 7b 87 f3 bc e4 9b 97 3d
       0.16605541 0.099790394 -0.029727688 0.07402781
0003e0 d5 e6 c9 bd 56 6b ba 3e ec 3c 32 3c d6 b1 c2 3e
       -0.09858481 0.36410016 0.010878783 0.38026303
0003f0 0f d8 01 be 8e 71 1c bd e0 e1 78 3d 6b 97 b3 3d
       -0.12680076 -0.03819423 0.060762286 0.08769115

bias f4 [16]
000000 b5 6d 50 bd 6f 3e 8d be 66 92 ea 3d b6 98 1e 3e
       -0.050885875 -0.27586696 0.114537045 0.15487942
000010 c9 b2 ec bd 5a 79 1d be ce 40 0e be be ee f1 3d
       -0.11557538 -0.15378323 -0.13891909 0.118131146
000020 dd ce 9f bc be c5 ba 3e 6b bc 9b be 17 d8 b3 bd
       -0.01950782 0.3647899 -0.3041719 -0.0878145
000030 7c 6b 6a 3e d0 82 a6 3d 6f 89 13 3c 01 75 52 3d
       0.22892565 0.08130419 0.009004935 0.051381115

weight f4 [32, 16, 2, 2]
000000 9e 54 a1 3b 3e 85 11 3a bf 33 22 bd 88 6c 5a bc
       0.0049234172 0.00055511657 -0.03960013 -0.01333154
000010 00 52 1c 3d fe 21 d2 bd 44 48 82 3d 27 97 02 3e
       0.03816414 -0.1026039 0.0636144 0.12752973
000020 7d 0a 1e 3b 8f 68 1c 3d 22 3b 94 bd 9e 5c 0d be
       0.0024115138 0.038185652 -0.07237841 -0.13804862
000030 a8 67 5a bc f9 c3 e1 3c 07 79 2b 3d 7f d3 88 3d
       -0.013330378 0.027559267 0.041863468 0.06680965
000040 a5 02 9f 3d 3a c8 d1 bd 59 a3 db bc 6b 29 b4 bd
       0.07764176 -0.10243268 -0.026811289 -0.08796962
000050 eb 48 7b 3e 2c 31 c7 3d 8b 04 18 3e ec 96 85 3e
       0.24539535 0.09726176 0.14845483 0.26091707
000060 e9 e4 43 3c 7a 49 2f bd 43 9e ef bd 30 0b c1 3d
       0.011956432 -0.042794682 -0.11700108 0.09425962
000070 7c ca 91 bd 31 3d 0b bc f8 6b c7 3c 12 63 38 3d
       -0.07118699 -0.008498476 0.024343476 0.045016356
000080 50 c4 f9 bc 50 d0 6b bd 84 fc ca bd 06 4d da bd
       -0.030489117 -0.05757171 -0.09911445 -0.10659222
000090 0a 62 83 be 87 9b 3d be fe 80 b7 be 55 a6 1a be
       -0.25660735 -0.1851636 -0.358406 -0.15102513
0000a0 5d b6 21 be d2 5e 12 be e3 ee 93 bd f7 c7 92 be
       -0.15792222 -0.14293984 -0.072232984 -0.28668186
0000b0 60 68 c1 bd 1a 96 e8 3d b4 1f c5 bd 8e 72 f4 3d
       -0.09443736 0.113567546 -0.096251875 0.11935912
0000c0 a5 cc 32 3e e3 51 9b 3e 72 af af 3e a2 75 15 3e
       0.17460878 0.30335912 0.34313542 0.14595655
0000d0 c7 05 26 3e c2 98 f4 3d d7 0d ae 3d 37 93 1a 3c
       0.16213141 0.11943199 0.084987335 0.009434513
0000e0 1e f7 25 bc 84 d3 96 bd da a6 3a bd 12 5c b0 3d
       -0.010129718 -0.07364562 -0.04556928 0.08611311
0000f0 b0 f4 09 3e ec 92 ef 3d a2 30 09 3e a7 b3 22 3d
       0.13472247 0.11697945 0.13397458 0.03972211
000100 52 99 e6 3e ef 21 f3 3e c0 c8 04 3f 5b 59 a4 3e
       0.4503885 0.47486827 0.5186882 0.32099423
000110 6b 07 22 3f 1c a4 2f 3f f8 a1 37 3f af c6 33 3f
       0.6329257 0.68609786 0.7173152 0.7022504
000120 a7 9c 52 3c 7a 2c 23 bd 9c d9 db bd c1 a3 5d 37
       0.012854732 -0.039837338 -0.10734865 1.3210753e-05
000130 9a 91 5d bf 9d 68 89 be fd db 13 bf 97 b7 0a bd
       -0.86550295 -0.26837626 -0.5775755 -0.03386649
000140 ff 55 07 3f ad 46 0b 3f 47 ec 11 3f e9 07 12 3f
       0.52865595 0.5440472 0.57001156 0.5704332
000150 4e 16 3a ba ae cd c6 bd 0f 41 1c 3d c0 b2 4d be
       -0.00070986606 -0.09707199 0.038147982 -0.20087719
000160 45 14 c7 3e 2e 32 75 3e 54 c9 0e 3e ff 74 10 3e
       0.38882652 0.23944923 0.13943988 0.1410713
000170 72 a5 dd be 9f a9 d1 be bc 8d 9d be 6d a2 90 be
       -0.43290287 -0.40949723 -0.30772197 -0.2824892
000180 61 c1 33 be 40 fc ec bd 52 e1 c9 bd f9 8c 85 be
       -0.17554237 -0.1157155 -0.098574296 -0.26084116
000190 ef 12 c4 be b5 13 f0 bc 17 cd 0d be d7 b7 14 3e
       -0.38295695 -0.029306272 -0.13847767 0.14523254
0001a0 c2 58 4a bd 97 1f 92 bd f9 ae 88 bd 6b d4 95 3c
       -0.049401052 -0.071349315 -0.066739984 0.018289765
0001b0 f8 35 46 bd 25 5a ac be 87 f5 9c bd ff 02 79 be
       -0.048391312 -0.33662525 -0.07664018 -0.24317549
0001c0 9e fe df 3e 14 eb c0 3e 4b bd de 3e cd 0c de 3e
       0.43748945 0.3767935 0.43503794 0.4336914
0001d0 06 22 90 bd 76 de a6 bc e0 49 ba 3d 91 6d 05 3e
       -0.070377395 -0.02036975 0.09096122 0.13030078
0001e0 cb df 27 3e 25 39 10 3e ee b7 6d 39 89 95 0c 3e
       0.16393964 0.14084299 0.000226706 0.13728918
0001f0 f9 23 5b 3f 65 bb 74 3f 97 ce b2 3e fd 87 4a 3f
       0.85601765 0.9559844 0.3492324 0.7911375
000200 6c 58 0a 3f 92 29 d0 3e 91 03 07 3f 94 02 19 3f
       0.5404117 0.40656716 0.52739817 0.5976956
000210 7d d6 26 3f 5d 55 18 3f cd 22 25 3f 7e 43 01 3f
       0.65171033 0.59505254 0.64506227 0.5049361
000220 26 8e 93 be 34 76 3d be dd 96 96 be 12 ff 82 be
       -0.28819388 -0.18502122 -0.29411975 -0.25585228
000230 46 af 00 bf ec 07 b2 be 47 18 09 bf 74 b1 ec be
       -0.50267446 -0.3477167 -0.5355267 -0.46229136
000240 46 2b 8a 3e 73 c8 9a 3e 81 dd a6 3e bb 07 95 3e
       0.2698614 0.30231056 0.3259087 0.2910746
000250 70 55 50 3d 88 77 31 3f 5e 85 2f 3f cf 29 06 3f
       0.05086273 0.69323015 0.6856288 0.52407545
000260 90 63 2c be 23 77 53 be da e7 70 be 3c 7b 49 be
       -0.16834855 -0.20650916 -0.23525944 -0.19675916
000270 6c 2a 56 bf b3 55 3e bf 57 0f 3a bf a8 56 4f bf
       -0.8365848 -0.74349517 -0.72679657 -0.809916
000280 7a 5f 49 be e3 fc 58 bd 78 a6 e5 bd da 65 94 3d
       -0.19665328 -0.052975547 -0.11213392 0.07245989
000290 bb 43 4a bf e3 cd 7e be a1 f3 43 bf 54 20 56 bf
       -0.790096 -0.24883227 -0.76543623 -0.8364308
0002a0 24 27 01 be eb b0 36 bd 03 dc 57 be 5f bc d2 bd
       -0.12612587 -0.044602316 -0.21080022 -0.10289835
0002b0 52 46 ae bd 26 57 a8 3c 45 99 dc 3b 1b 93 c7 3d
       -0.08509506 0.020549368 0.0067321383 0.09744855
0002c0 31 be 55 3e 65 99 fc 3d 24 fb 11 3e 82 79 e8 3d
       0.20873334 0.12333945 0.14255959 0.11351301
0002d0 62 e8 57 3e b3 79 86 3e 6f 64 f2 3d c4 21 20 3e
       0.21084741 0.26264724 0.118355624 0.1563788
0002e0 27 71 42 be 1a 89 8f 3e 05 30 2a 3e 66 32 bf 3e
       -0.18988477 0.28034288 0.1661988 0.37343138
0002f0 4a a1 e4 3e a9 3a 28 3f 97 75 1c 3f 33 92 08 3f
       0.44654304 0.6571451 0.6111693 0.5334808
000300 98 62 55 3d 26 7a 86 3d 0b f1 68 bd 89 8b 3a bd
       0.05209598 0.06566267 -0.0568705 -0.045543227
000310 d6 f2 99 3a 95 d7 7f 3d 08 1e 81 3d 8f 5c b6 3d
       0.0011745344 0.062461454 0.06304556 0.08904373
000320 0f 6f ab 3d 71 18 66 bd 02 1a d4 bd ad 63 cb 3d
       0.08370792 -0.056175653 -0.10356523 0.09931121
000330 d4 12 25 bd 1c 24 88 bd dd cf f5 bd 5a f8 a9 bc
       -0.04030116 -0.06647512 -0.120025374 -0.020748306
000340 47 cb a5 bd 23 e4 d1 3c 6e 76 9e bd 2f a1 24 39
       -0.08095413 0.02562148 -0.077374324 0.00015700304
000350 8b b3 d7 3d f8 e6 98 3d a4 a1 d5 3c 08 72 2a 3d
       0.10532292 0.07465929 0.026078053 0.041612655
000360 bd 83 1b be f7 33 98 3c 6f e8 92 3d ed c3 cc bd
       -0.15186973 0.018579466 0.071732394 -0.099983074
000370 a4 ac 15 3d d4 c0 89 3d f0 5a 49 bc b4 83 11 3e
       0.036541596 0.06726232 -0.012289748 0.14210397
000380 f7 57 bd 3d 58 26 ba 3d 68 42 94 3d 84 a4 29 3d
       0.092452936 0.09089345 0.072392285 0.04141666
000390 7e 3c 6a 3d 30 d6 00 3e 1f 88 d1 3d 33 a7 c1 3d
       0.057186596 0.12581706 0.10231041 0.09455719
0003a0 e6 f3 d6 bd 93 a7 cc bd 43 eb fa bd 23 14 70 be
       -0.10495739 -0.099929 -0.12251904 -0.23445182
0003b0 34 bd ce 3d fc 90 c5 3d 72 63 db bd 81 48 08 3d
       0.100946814 0.09646794 -0.10712327 0.03327227
0003c0 88 96 b0 3c 84 21 06 bd a0 dd 37 3a 18 a0 96 3d
       0.021556154 -0.032746807 0.00070139207 0.07354754
0003d0 36 88 24 bd f2 a1 78 bd 82 34 34 3d 4d 5c 92 3b
       -0.040168963 -0.060701318 0.043995388 0.0044665695
0003e0 2e a5 0d be 48 7b 84 bd 9a aa a1 3d 3d a7 98 3d
       -0.13832542 -0.064688265 0.07893868 0.07453773
0003f0 e7 0d 98 bd 5b 94 7d 3d a7 57 ee 3d f9 c3 16 3e
       -0.07424527 0.06190906 0.11637812 0.14723195

bias f4 [32]
000000 64 d7 e8 3c 01 58 7e 3e f8 1b 4c 3e e6 c6 9b bc
       0.028423019 0.24838258 0.19932544 -0.01901574
000010 5d 83 1b be 3d 8a ba bd 1e ce 8c 3e 35 4f 2b bd
       -0.1518683 -0.09108398 0.27501005 -0.041823585
000020 ce 36 be 3d e6 6a cb 3e a1 97 c9 3e 9b 7a ce 3e
       0.09287797 0.39729995 0.39373496 0.40327916
000030 83 df 69 be 8e 64 85 bd 60 ee 09 bf ac 8e 87 3e
       -0.22839169 -0.0651332 -0.53879356 0.26476038
000040 80 1f 94 3e 10 02 c2 3d 3d 73 51 3e c8 89 93 3e
       0.28930283 0.0947305 0.20454116 0.28816056
000050 7d 13 6e be 9a 14 b4 bd 81 53 6f bd fd 79 60 3e
       -0.23249622 -0.08792992 -0.058429245 0.21921535
000060 15 ea b2 3e 64 22 bb bc 0d f7 1a 3d 2f 65 17 be
       0.34944215 -0.022843547 0.037833262 -0.14784692
000070 7d 57 71 bc 3e 84 5d 3d 74 bc 2a 3e 72 11 70 3c
       -0.0147303315 0.054081194 0.16673452 0.014652597

weight f4 [32, 32, 2, 2]
000000 11 c1 63 3e 71 80 d2 3d a7 74 1a 3e 50 3c b1 3d
       0.22241618 0.102784045 0.15083562 0.08654082
000010 21 f3 dd be fa f3 a4 be ab 6d 8d be d8 0a 83 be
       -0.43349555 -0.3221739 -0.27622733 -0.2559421
000020 ca b1 00 bf 40 29 a8 be d0 0a 7d be ee 2d ab be
       -0.50271285 -0.3284397 -0.24711156 -0.3343348
000030 f3 6b 62 3c ac 25 c2 3c c1 20 7b bd 1c b3 a4 3d
       0.013819682 0.023699604 -0.061310533 0.08041975
000040 01 13 4d bd 45 d9 86 bd cb e9 62 bc cd 0c 29 bc
       -0.05006695 -0.065844096 -0.013849686 -0.010317993
000050 d2 9e 9e be 55 b6 cc be 2a df f1 bd be 9b 91 be
       -0.30980545 -0.39982858 -0.11810143 -0.28439134
000060 1c d2 ef be 91 6b 0b bf 97 f5 02 bf 62 1b ff be
       -0.46839988 -0.5446101 -0.5115599 -0.4982558
000070 28 29 89 be 1b 3b d5 bc f0 ca b4 bd 11 d1 03 be
       -0.26789212 -0.02602916 -0.0882777 -0.12872721
000080 52 c4 a6 be 16 fc 74 be a7 66 a9 3c 8e f8 9c bd
       -0.32571656 -0.23924288 0.020678831 -0.076645955
000090 af f1 be be d5 b6 3c be 07 0f 06 be 4a a6 80 be
       -0.37293765 -0.1842912 -0.1309167 -0.25126868
0000a0 ec fa 94 be ce 95 c1 be 5b 33 6d bd 5c ec 45 be
       -0.29097688 -0.37809604 -0.057910305 -0.19328445
0000b0 e9 31 fb be e8 c1 d1 be 07 9c 29 be 12 25 7e be
       -0.49061516 -0.4096825 -0.16563426 -0.24818829
0000c0 de 4d 00 be d8 4e 05 be 59 3f 58 bd 79 ad 2d be
       -0.12529704 -0.13018358 -0.052794788 -0.16960706
0000d0 e7 a3 af bc a2 a9 c1 bc e1 07 49 3d 31 b4 5b 3d
       -0.02144046 -0.023640458 0.04907978 0.05363864
0000e0 bb 9a a8 3c 91 f7 5b 3d 10 e2 74 3d 7c 44 1b bd
       0.020581594 0.053702895 0.059785903 -0.03790711
0000f0 b8 34 b5 3d b6 20 18 3e 9b 97 13 3e c6 46 a4 3d
       0.08847946 0.14856228 0.14413302 0.080213115
000100 c9 61 2a bf 6b 8a 10 bf b5 14 06 bf 5e 3d fe be
       -0.6655546 -0.5646121 -0.52375346 -0.49656194
000110 dc 82 ea be 75 fd b4 be 20 c2 99 be b8 f9 87 be
       -0.45802963 -0.35349622 -0.30030918 -0.26557708
000120 8a 5f a8 3d 4f 13 17 3d e0 65 66 3d f0 d5 3d 3d
       0.08221348 0.03688365 0.0562495 0.046346605
000130 2c f8 e8 be 0c fb 02 bf 08 6f ec be 5b ee cd be
       -0.4550184 -0.5116432 -0.4617846 -0.40220913
000140 c1 fd cc 3d 21 78 48 3b 30 bc 25 3e 4b f1 84 3d
       0.10009337 0.003058918 0.16185069 0.064913355
000150 d2 4f f4 be 9b 5f 04 bf 9b f2 eb be c2 32 f3 be
       -0.47717148 -0.5170838 -0.4608353 -0.47499663
000160 92 31 6f bd ff 32 09 3c 1b 1c 4d 3d b6 49 66 bd
       -0.058396883 0.008373975 0.05007563 -0.05622264
000170 1e 34 e4 bb 89 25 35 3e 24 f0 ea 3d 8b e6 aa 3d
       -0.0069642207 0.176901 0.114715844 0.08344754
000180 4c 0e 28 3e 66 9b a2 3e 15 cb 23 3e 05 0e 6b 3e
       0.16411704 0.31759185 0.15995438 0.22954567
000190 08 31 70 bd 36 27 62 bd f5 51 11 bd ab 8a 35 3d
       -0.05864051 -0.055213176 -0.03547855 0.044321697
0001a0 71 1e 83 be 97 19 be be 4c c8 d5 be ae 1a c3 be
       -0.25609162 -0.37128899 -0.41754377 -0.38106292
0001b0 a8 af 17 bf a2 2e 28 bf b2 00 20 bf fd 4a 40 bf
       -0.59252405 -0.65696156 -0.6250106 -0.75114423
0001c0 10 b5 bb bb ef 54 20 3d 48 2b 56 3d d4 82 0c bd
       -0.0057283714 0.0391435 0.05228737 -0.034304455
0001d0 3a d9 ac 3d 24 a5 3c 3e 86 9e 25 3e be ad 5f 3e
       0.0843987 0.18422371 0.16173753 0.21843621
0001e0 f8 2b fd be 50 d9 d1 be ca 7c 6c be 26 2e 93 be
       -0.49447608 -0.4098611 -0.23094478 -0.28746146
0001f0 da 6d ae be 4f 94 91 be 9b 3f 0a be 7b 81 e6 bd
       -0.34068185 -0.28433463 -0.13500826 -0.11255165
000200 d7 2d 83 be e3 59 88 be 06 a1 84 be ae a7 59 be
       -0.2562091 -0.26631078 -0.259041 -0.21255371
000210 43 c4 d1 bd a9 f9 1f be 3e 86 be bd 8b 46 23 be
       -0.10242512 -0.15622582 -0.093029484 -0.15944879
000220 9d de 43 bd 0b c1 30 be 95 5e bb be 82 1f a7 be
       -0.047819722 -0.1726114 -0.36595598 -0.32641226
000230 d5 d4 ab 3d 20 d1 53 3b 7e 89 5f bc f7 90 8a 3d
       0.08390204 0.0032320693 -0.013643621 0.06765931
000240 9b bc 95 bd 65 6b 78 bc 34 34 83 3d 83 a7 e3 bc
       -0.07311364 -0.015162324 0.06406441 -0.027789837
000250 7d fc e3 3e 36 dd 02 3f ea 1b 86 3e 8a 1a bd 3d
       0.4452857 0.5111879 0.26193172 0.092335775
000260 2d e9 61 be 9e c7 1b be 41 d1 5c be c7 1a 96 be
       -0.22061606 -0.15212867 -0.21564199 -0.29317304
000270 a2 5c a9 3c e2 e9 35 be 25 5f ab bc 3e ef 0e be
       0.020674054 -0.17765 -0.020919392 -0.13958451
000280 d9 f1 2f be 0d 7b 3d be 03 05 75 be c7 6e 91 be
       -0.17182101 -0.18503971 -0.23927693 -0.2840483
000290 02 10 02 bf e4 9e a7 be 5c 96 c4 be da ff d4 be
       -0.50805676 -0.3273841 -0.38395965 -0.4160145
0002a0 15 b3 85 be 62 10 75 be 27 4b b9 be 19 89 d7 be
       -0.2611319 -0.23932031 -0.3619015 -0.42096785
0002b0 95 84 43 3e 61 16 21 3f 52 b4 b4 3e 9a 24 e1 3e
       0.19093545 0.6292477 0.35293823 0.43973237
0002c0 a3 a6 17 3d 95 34 9e bd 8f 4e 16 3e 67 48 a9 3c
       0.03702415 -0.07724873 0.14678405 0.020664407
0002d0 88 0f 52 3b 28 9f 19 bd b3 e5 19 3d 48 83 83 3d
       0.0032052714 -0.0375053 0.037572574 0.06421524
0002e0 53 b4 9f bc 99 25 85 3d 4a cd a8 bc ae a3 b8 3b
       -0.019495165 0.06501312 -0.020605702 0.0056347465
0002f0 59 21 93 be 4d b9 34 be c9 e4 83 be 60 00 94 be
       -0.2873638 -0.17648812 -0.25760487 -0.28906536
000300 72 fe 8c be 15 4d d8 be 42 b6 4e be 23 11 01 bf
       -0.27537876 -0.4224631 -0.20186713 -0.50416774
000310 2d ec 18 be c9 02 9d bd 2c 45 84 bd 0a 59 16 bd
       -0.14933844 -0.07666547 -0.06458506 -0.036706008
000320 4a 64 8c bd db 19 56 be a1 2a 5a be 48 f3 5a be
       -0.06855066 -0.209083 -0.21305324 -0.21381867
000330 80 8d 8b bd 63 45 14 bd d9 fd e8 3d 46 f6 27 bd
       -0.06814098 -0.036198985 0.113765426 -0.04100635
000340 e9 61 14 be 3c 3f 02 be f0 99 ef bd a9 3b 13 bd
       -0.14490475 -0.12719434 -0.11699283 -0.03594557
000350 74 af 57 bd 4b 08 0d 3d 56 b6 e3 bc 89 5d e8 3d
       -0.05265756 0.034431737 -0.027796905 0.113459654
000360 9b d7 af bc f7 d5 af 3d a1 03 3f bd 83 a2 a5 3c
       -0.021465113 0.085857324 -0.04663432 0.020219093
000370 dc fa 13 bf 92 50 01 bf bd 04 10 bf 8c c4 04 bf
       -0.57804656 -0.50513566 -0.5625723 -0.51862407
000380 7c c7 97 be 7a fe 84 be 88 79 a2 be ca b0 c3 be
       -0.29644382 -0.259754 -0.31733346 -0.38220817
000390 c3 8e 25 bc b0 12 e0 bc 64 5f 19 bd fb ab 8e 3d
       -0.010104838 -0.02735266 -0.037444487 0.069663964
0003a0 00 2b cf bd 1d a8 ae bc 6e 6a 78 bd 65 86 d3 3c
       -0.101156235 -0.021320397 -0.060648374 0.02582092
0003b0 e5 d9 8e 3e 5d 27 a2 3e c0 bd a2 3e 85 05 84 3e
       0.27900615 0.31670657 0.31785393 0.2578546
0003c0 1a 5c f5 bb c0 50 91 bc 29 15 9c 3c de 1d bd bd
       -0.007487786 -0.0177387 0.019053059 -0.09234212
0003d0 16 5a 42 be db 12 5b be c4 2b 41 be 47 81 3b be
       -0.18979678 -0.21393912 -0.18864352 -0.18311034
0003e0 bd 7c 5a bd 1f ba 9a be 54 d1 c0 be 3d 0c d4 be
       -0.053341616 -0.30220124 -0.37659705 -0.41415587
0003f0 e8 a1 2a 3f a7 c2 53 3d 69 bc 6f 3e ee a3 3d be
       0.666533 0.051699307 0.23411717 -0.18519565

bias f4 [32]
000000 fc 44 4a 3e ee 9b ab be 43 23 f0 be fc 5c d7 be
       0.19752878 -0.33517402 -0.46901903 -0.4206313
000010 8f f5 ba 3e c4 47 bc be 45 ab b7 3e 05 f0 b9 be
       0.3651547 -0.36773503 0.35872856 -0.36315933
000020 63 cd ab be c4 c1 bf be 43 d1 0f be 80 9f c1 be
       -0.33555135 -0.3745252 -0.14044671 -0.37817
000030 10 bc 81 3e 7e bc a4 be 6b c5 43 3e 7a 02 54 3e
       0.25338793 -0.32175058 0.19118278 0.2070407
000040 a1 7e 94 be 0f af b7 be 9d 63 b3 3e bc 71 9c be
       -0.2900286 -0.35875747 0.35036936 -0.30555522
000050 55 f8 80 be e4 44 a4 3e b2 16 c3 be 70 e2 8e be
       -0.25189462 0.3208381 -0.38103253 -0.27907133
000060 aa 76 ae 3e 40 84 c0 be 35 c2 48 be a1 75 ad be
       0.34074908 -0.376009 -0.19605334 -0.33878806
000070 f7 1b b8 be 18 43 f0 be 26 67 be be 5b ed 42 3e
       -0.35958835 -0.46926188 -0.3718807 0.19035856

weight f4 [64, 32, 2, 2]
000000 fd 56 db bb 9a bd a9 3a 62 96 74 bd f8 16 81 bb
       -0.0066937194 0.0012950182 -0.05971373 -0.0039395057
000010 b0 b5 be 3d d2 43 9c 3d 38 d5 84 bd 47 6f 5a 3d
       0.09311998 0.07630123 -0.06485981 0.05332878
000020 0e d9 6a 3d 8a b8 8b 38 59 69 d8 3d e5 85 66 3b
       0.057335906 6.6624096e-05 0.105669685 0.0035175022
000030 d3 a5 38 bc 55 1a a4 3c 9e 3c d1 3d f2 db 1d 3d
       -0.011270004 0.020032087 0.1021664 0.038539834
000040 b6 51 83 3c cb 5b 8d 3d dd cb 8c 3d 25 cd 91 bd
       0.016030174 0.06902274 0.06874821 -0.07119206
000050 93 c3 87 3d c7 9a f4 3c 65 a1 d4 bb 9a 41 67 3d
       0.066291 0.02985896 -0.0064889663 0.056459047
000060 24 59 43 bd a3 b2 a3 bd 47 77 82 3d cb ed 5f 3d
       -0.047692433 -0.079930566 0.063704066 0.054670136
000070 35 0a 4e bd 91 29 b4 3d 2b 8b b1 3d 65 40 6d bd
       -0.050302703 0.08796991 0.08669122 -0.05792274
000080 49 11 24 3d 79 bc 0c bd 2f b9 5e bc 9d e8 a1 bc
       0.040055547 -0.03435943 -0.013593956 -0.019764239
000090 7d 0f a5 3d dc 97 19 bd d2 83 b7 bd 3a d8 65 3d
       0.08059595 -0.03749834 -0.089606896 0.056114413
0000a0 48 76 73 bc b8 f9 f6 3b d8 85 be 3c ef 0a d8 bd
       -0.014859743 0.007537093 0.023257181 -0.105489604
0000b0 d7 34 68 bd 99 da d6 3c a6 42 03 3d 08 7d 55 bd
       -0.056691017 0.026227282 0.032045983 -0.052121192
0000c0 79 2a 44 3c 89 12 91 3d 74 01 ea b9 e7 2c c9 bd
       0.011973017 0.070836134 -0.0004463304 -0.098230176
0000d0 cf ee 80 bd b2 63 81 bd 24 f3 a8 3d a3 41 49 3d
       -0.06295549 -0.063178435 0.082495004 0.04913486
0000e0 18 19 b6 bc 43 19 f2 3b b0 cd a0 3d b5 12 59 3d
       -0.022228763 0.0073882653 0.07851732 0.052996356
0000f0 51 24 80 bd 17 d3 9f 3d 1d a5 50 3d be 2f 15 3c
       -0.06256927 0.07803934 0.050938714 0.009105621
000100 f6 87 1a 3d aa 81 5a 3d 7e 7f 5f 3c 87 4a 14 3b
       0.03772732 0.053346314 0.013641236 0.002262743
000110 d2 0f 38 3b e3 a2 37 bd b7 5c 87 3d 97 46 96 3d
       0.0028085602 -0.044833075 0.06609481 0.07337683
000120 8b f6 18 bc 48 7f b7 bd a1 9b d9 3c 56 c6 a6 bd
       -0.009336124 -0.08959824 0.026563467 -0.08143298
000130 92 68 34 bb f7 d4 05 bc 2d 6c 8a bc fa 49 ce 3d
       -0.002752815 -0.008168451 -0.016897285 0.10072704
000140 81 b9 95 bd a2 9f c6 bc 8f 1d 89 ba b2 aa fc bd
       -0.07310773 -0.02424604 -0.001046108 -0.12337245
000150 46 b6 0f 3d 2f 49 87 bc 9d d5 3e 3d fe 17 2a 3d
       0.03508594 -0.016514389 0.046590436 0.041526787
000160 e3 6b ca 3d e9 b9 4e 3d f2 8a 3b bd 03 d1 81 bd
       0.09883859 0.050470266 -0.045786805 -0.06338694
000170 2d 45 ba 3d 32 5e a3 3d 1f 67 a2 3b e1 61 7c bc
       0.090952255 0.07976951 0.0049561406 -0.0154041955
000180 85 9a 74 bd f6 33 ef 3c 73 e9 3c 3d 61 b9 9a 3d
       -0.059717674 0.029199582 0.046121072 0.075548895
000190 0f 52 9e 3d ca a3 eb 3a 69 71 c2 bb 0f 66 3c b9
       0.07730495 0.001797789 -0.0059339297 -0.00017967097
0001a0 98 33 af bd f0 f0 8d 3c 3b e4 0e bd da 74 11 bd
       -0.085547626 0.017326802 -0.034885626 -0.03551183
0001b0 15 57 b3 3d a2 08 55 bd 68 0c 59 bc d4 4b 6c ba
       0.08756844 -0.052010186 -0.013247587 -0.0009013985
0001c0 4d b0 7a bd 13 ff 87 bd e6 af 54 bb 98 1c 81 bd
       -0.06120329 -0.066404484 -0.0032453476 -0.06304282
0001d0 14 1f 17 3d 5c e1 8e 3d 37 7d cc 3d c3 cc 80 bd
       0.036894873 0.06976578 0.0998482 -0.06289055
0001e0 06 5f 2b 3c 70 cb 2b 3d 3b 06 09 bd 36 57 b6 3b
       0.010459667 0.04194206 -0.033453207 0.0055645956
0001f0 08 38 e9 bc 27 a8 a7 3d e1 ff 90 3d 39 ba 52 3d
       -0.0284691 0.081863694 0.07080055 0.051447127
000200 ab 5d 82 3c 4d 1d a3 bd 9f e3 8c 3d 5d cb 74 3d
       0.015913805 -0.07964573 0.06879353 0.059764255
000210 2d 48 ae 39 39 93 53 bd fd 17 b3 bc ac 2d 1c bd
       0.0003324164 -0.051654074 -0.021862024 -0.038129494
000220 c2 fd 86 bc 1f a4 71 bd 60 39 c0 3c 15 39 d4 3d
       -0.016478423 -0.05899441 0.023464859 0.1036245
000230 11 5b 2d bd 38 9a 85 3d 92 6a e2 3d 2d 2b ed 3d
       -0.042323176 0.065235555 0.11055483 0.11580501
000240 6d b9 c3 bd 03 03 84 bd a1 c2 17 3d c3 8a 0c 3d
       -0.095568515 -0.06445887 0.037050847 0.03431202
000250 e3 5e b0 3d fc e7 59 3d f6 e2 dd bc ca 34 48 3d
       0.08611848 0.053199753 -0.027085762 0.04887847
000260 3e ac 9e bd e4 a5 d9 bd 01 49 cd bc 9a 90 d5 bd
       -0.07747696 -0.10627344 -0.025059225 -0.10427971
000270 81 fc 2e bd 10 af 0a 3d 5b 2b 5f 3d 35 92 b9 3d
       -0.042721275 0.03385836 0.054484706 0.0906109
000280 41 38 46 bd 99 92 a0 bd 19 fa a6 3b c3 b9 5b 3d
       -0.04839349 -0.07840461 0.005095732 0.053643953
000290 7a 0e 66 3d af 2b 34 3d 41 26 20 3d 4f 21 9f 3d
       0.05616615 0.043986972 0.03909898 0.07770025
0002a0 0d d8 83 bd 62 58 d8 3c 91 f7 fc bc 55 2b b5 bc
       -0.06437693 0.026409332 -0.030879768 -0.022115389
0002b0 7c 7f 5e bc 90 c0 c0 3d 48 4c a4 3d af 42 46 bd
       -0.013580199 0.094117284 0.08022362 -0.04840344
0002c0 89 7e b8 bc c1 46 27 3d c0 17 62 3d 2e 4a 93 3c
       -0.022521274 0.04083896 0.05519843 0.017979708
0002d0 4d b1 78 bd 56 1c 75 bd 00 dc 4e bd 72 12 5f bd
       -0.060715962 -0.059841476 -0.050502777 -0.05446095
0002e0 f2 88 7e 3d 5d 4c 22 bd 42 3f 3f 3c b9 b7 12 3d
       0.06214232 -0.039623607 0.011672797 0.035819743
0002f0 ad a8 7c bd 5b 06 b9 bc 87 06 61 3d 22 03 cb 3d
       -0.0616843 -0.022586038 0.054937866 0.09912707
000300 1e 25 3b 3d 93 e4 8c 3c df ab de 3d 76 83 10 bd
       0.045689695 0.017198836 0.108726256 -0.03528162
000310 e1 d4 9d bd ad 59 da bc d6 dc c6 3d a5 73 6d 3a
       -0.07706619 -0.026654089 0.0971009 0.0009058065
000320 93 b0 cd bc a1 6c a4 bd f2 0a 05 bd 18 6c fc bc
       -0.025108611 -0.08028532 -0.03248114 -0.030813262
000330 3f 87 23 3d 4d fa 6e 3c 04 49 12 3c ef 01 8a bd
       0.039923903 0.014586044 0.008928541 -0.0673865
000340 f0 c0 2e bd 68 8c 54 3d b8 0c 41 bd 7e 7a 09 bd
       -0.04266447 0.051891714 -0.04713127 -0.033564083
000350 b3 06 04 3d 88 b1 0f bd 8f 32 37 bd 2d 51 b6 bd
       0.03223295 -0.035081416 -0.04472595 -0.08902202
000360 bd 82 ba 3d 41 6e 7c 3d ff fa 93 3d 15 de d4 3c
       0.091069676 0.061628584 0.07225608 0.025984803
000370 7a 62 3a bd c1 23 e8 3b 1f 99 76 bd 18 17 0d bd
       -0.04550407 0.0070843403 -0.06020462 -0.034445852
000380 d7 85 2c bd a9 61 d9 bd 89 72 c7 bd fb 91 25 3d
       -0.042119827 -0.1061433 -0.09738643 0.04042242
000390 03 58 1b 3d e3 5f 4b 3d b3 e6 00 bd 1c 1f 26 3d
       0.03792573 0.04965199 -0.031470012 0.040557012
0003a0 b3 be 05 bd 46 a7 38 bd e1 33 1d bd 78 0e b3 bd
       -0.032652568 -0.0450814 -0.038379554 -0.08742994
0003b0 c4 43 f3 3c c8 ab 9c 3d 19 e7 b4 3c 40 08 c9 3d
       0.0296954 0.07649952 0.022082852 0.09816027
0003c0 94 e4 b5 bc 3e 26 a2 bd 46 4f 84 bb 93 8f 14 bd
       -0.022203721 -0.0791745 -0.0040377704 -0.036269736
0003d0 bb a3 72 bd 0a d0 a8 3d 6c 70 78 3d 06 da 48 bd
       -0.059238177 0.08242805 0.06065409 -0.04903605
0003e0 bc 6f 68 bb 2e bf 1d 3d b9 61 09 bc 89 4f 88 bc
       -0.003546699 0.0385124 -0.008385115 -0.016639488
0003f0 6d 5c 96 3c 38 9c a1 bd 2f 69 9d bd 0a 8f 5f 3b
       0.018354619 -0.078911245 -0.07686078 0.0034112358

bias f4 [64]
000000 07 d9 21 3d 5e 4b b4 ba 72 35 36 be ee de 2a 3c
       0.039513614 -0.0013755371 -0.17793825 0.010429127
000010 0b 4e 83 bd 30 54 75 3d fb 59 d5 3e 23 69 17 3c
       -0.0641137 0.05989474 0.41670212 0.009241375
000020 09 0c a3 bd df 5d 12 3d 61 f6 df be 87 51 59 bd
       -0.0796128 0.035734054 -0.4374266 -0.053056266
000030 98 c0 0a 3d 46 93 0f bf 56 c6 85 bd 40 f9 be be
       0.033875078 -0.56084096 -0.0653197 -0.37299538
000040 76 2d 32 3f f1 03 93 bd c2 b2 fd bd 61 73 4c 3e
       0.6960062 -0.07178486 -0.12387611 0.19965889
000050 9b 36 31 3f 8f 87 75 bc 4e c2 0c 3e 9a 41 8a 3c
       0.69223946 -0.014985933 0.13745996 0.016876984
000060 c5 b4 fd 3c c0 4e d8 3e 3e a6 4c be 0a e4 b2 bd
       0.030969987 0.4224758 -0.19985291 -0.08734901
000070 82 5d b0 be 7a 02 30 3d 19 e4 b3 be ee 92 99 3e
       -0.3444634 0.04297111 -0.35134962 0.2999491
000080 36 fc f1 3e 6e 0b b3 bd 0e 41 98 bb 85 f7 a4 be
       0.47262734 -0.087424144 -0.004646427 -0.32220092
000090 e7 71 ae bd 89 d0 5a 3d 69 90 00 3c 09 cf 7f be
       -0.08517819 0.05342153 0.00784693 -0.24981321
0000a0 8c 89 9d bd ec 78 80 be 6d 1b cd be b6 26 a9 3e
       -0.076922506 -0.25092256 -0.40059987 0.33037347
0000b0 9f 42 84 3b 8e 72 6c 3c a8 f1 45 3d bb 65 ca be
       0.004036262 0.014431609 0.048326164 -0.3953074
0000c0 c4 72 ad bd 85 bc b9 3e 3a 17 c3 be 29 e9 b7 bc
       -0.084691554 0.3627664 -0.38103658 -0.022450047
0000d0 b7 25 f3 3b 71 ca 0e 3e 96 a8 81 bd 67 f2 02 bd
       0.0074202674 0.13944413 -0.06330983 -0.031969454
0000e0 74 7c b0 be 5f b4 c5 be 88 a4 e1 bd f1 bd e1 3b
       -0.3446995 -0.38614175 -0.1101771 0.006889098
0000f0 0d c5 35 bc d3 78 f8 3e 7d df 12 be 32 aa 46 3d
       -0.011094344 0.48529682 -0.14343067 0.048502155

weight f4 [64, 64, 2, 2]
000000 52 e0 86 3c 03 be 87 3c e8 59 f6 bc 56 17 93 bc
       0.016464386 0.016570097 -0.030072168 -0.017955463
000010 1c db 50 bd 87 f7 ec 3c d7 61 60 3d 33 71 d6 bb
       -0.05099021 0.028926624 0.054780807 -0.006544256
000020 47 96 02 3d 84 7a 3d 3a 8f 1e 16 3d d6 8c e5 bd
       0.031881597 0.0007228034 0.036650237 -0.11208503
000030 2b 0f 34 3d 10 85 56 3c af 15 39 3a d8 a9 e3 bc
       0.043959778 0.013093248 0.0007060421 -0.027790949
000040 53 e2 a6 bb e9 ad d5 3c a2 f8 90 3d a5 12 e8 3c
       -0.005092898 0.026083903 0.07078673 0.028329203
000050 82 9f e4 3c f7 08 6a 3d 0a 7a d5 bb 35 0f 11 3d
       0.02790809 0.057137456 -0.0065147923 0.035414893
000060 e9 f1 ef 3e 86 a6 bb 3e 77 c5 01 3f ec 09 fc 3e
       0.4686425 0.36650485 0.5069193 0.4922632
000070 44 dd 9e bc 4c c9 ae 3c c1 4b 60 bc c6 5c 0f bd
       -0.019392617 0.02133622 -0.013689936 -0.035000585
000080 38 93 e6 3b 1e 33 42 3d 6d a5 72 3c fb c8 a0 3d
       0.007036593 0.04741203 0.014809948 0.07850834
000090 91 e8 53 3d 01 7b 28 3d e5 ad ac bc 75 3d 69 3d
       0.051735464 0.04113293 -0.021079013 0.056943376
0000a0 b2 54 ce 3e a7 00 cd 3e 78 34 ef 3e 7d a6 ed 3e
       0.40298992 0.4003956 0.46719718 0.46416083
0000b0 20 f2 eb 3c f8 b0 81 39 dc 4c 99 3a 10 9f 86 3c
       0.028801978 0.0002473665 0.001169588 0.016433269
0000c0 25 78 ae bc 40 fa 67 b8 97 70 c0 3a 96 88 be bc
       -0.021297524 -5.5307755e-05 0.0014681992 -0.023258489
0000d0 93 2d 1c 3e d1 c6 4e 3e 95 a2 6c 3e 7e f2 73 3e
       0.1525176 0.2019303 0.23108895 0.23822972
0000e0 6a 90 c1 3e f3 b5 fd 3e e5 16 f7 3e b0 26 d1 3e
       0.37805492 0.4955288 0.48259655 0.4084983
0000f0 73 9f 5e 3e 6b 27 34 3e 48 ad 0b 3e 8b 61 37 3e
       0.21740513 0.17593162 0.1364032 0.17908303
000100 eb 24 ba 3e b1 39 86 3e fb 48 3e 3f 41 66 00 3f
       0.3635629 0.2621589 0.7433011 0.5015603
000110 f0 2f 2d 3d b2 07 21 bd fc 01 1a 3c 68 60 02 bd
       0.042282045 -0.03931398 0.009399887 -0.03183022
000120 5c 0b b8 3d c8 6e af 3c 54 28 f8 3c 03 35 9a 3d
       0.08986542 0.02141513 0.030292667 0.075296424
000130 34 f6 af 3e ec e7 23 3e 65 f4 1d 3f 0f 71 fe 3e
       0.34367526 0.1600644 0.6170104 0.49695632
000140 5b 28 cf 3e 6d d5 8c 3e 66 9f 1e 3f ca b1 e3 3e
       0.40460476 0.2750658 0.6196197 0.4447158
000150 34 3c 67 bd d6 6b 65 bd b0 94 7c 3c 38 63 0f bc
       -0.0564539 -0.056011043 0.015416309 -0.008751683
000160 6c d2 0d 3e f4 fc 38 3e 65 08 5e 3e 5b 70 93 3e
       0.13849801 0.18065244 0.2168289 0.28796658
000170 02 a9 21 39 6e b2 76 3d 2d d5 81 3d 9e 20 e0 bb
       0.00015417117 0.060228758 0.06339488 -0.006839826
000180 08 ed 3a bd ec 7f c5 3b 39 0b 3c bc a9 82 88 3d
       -0.045636207 0.0060272124 -0.011477285 0.066655464
000190 4a 0e e5 3e 36 18 ef 3e 03 62 e5 3e 71 c2 c9 3e
       0.44737464 0.4669816 0.4480134 0.3940616
0001a0 e0 b8 de 3e a9 3d d1 3e 00 72 d8 3e ad 2f d7 3e
       0.43500423 0.40867355 0.42274475 0.4202856
0001b0 38 ca 16 bd 9d 46 8c 3c fc dd 4a bb 99 f4 86 bc
       -0.036813945 0.017123515 -0.0030955067 -0.016474055
0001c0 f2 5f ff 3d 8e 2f 58 3d b3 4a 10 3e 5e f8 e2 3c
       0.12469472 0.052779727 0.14090995 0.027706321
0001d0 11 a1 90 3e 9b a3 97 3e d5 d5 ae 3e 34 9b a2 3e
       0.28247884 0.2961701 0.34147516 0.31759036
0001e0 a7 f9 a0 3e 24 aa b1 3e 31 f7 cd 3e 5c 72 c1 3e
       0.3144047 0.3470012 0.40227655 0.37782562
0001f0 3b fa 65 3e 49 1e ab 3d 5c d5 ec 3e 0d 73 76 3e
       0.22458737 0.08355386 0.4625653 0.24067326
000200 8e e7 d8 3e 17 e3 82 3e 9d e1 2a 3f c1 fa fc 3e
       0.42364162 0.2556388 0.6675051 0.4941006
000210 3e 6d 71 bc 51 84 76 3b 88 bc 09 3d cb a5 bf bc
       -0.014735518 0.0037615488 0.033627063 -0.023394486
000220 94 a6 aa 3b bb d9 3d 3d 15 9f ee bc 95 00 93 3d
       0.005207846 0.046350222 -0.02912859 0.071778454
000230 e0 8c dd 3e 65 1d 1a bb f5 50 f1 3e 92 0d b8 3b
       0.43271542 -0.0023516056 0.47132078 0.005616852
000240 b3 9a 3a 3d 41 e1 19 3d 56 81 f2 3c 4a 68 78 3d
       0.04555769 0.037568334 0.029602688 0.060646333
000250 12 20 a9 3e af a1 16 3e 56 24 e0 3e 72 e0 c7 3d
       0.3303228 0.14710115 0.43777722 0.097596064
000260 5c b3 8b 3c 8a 3d ba 3b 2b 32 8f 3d d3 a6 df bc
       0.017053299 0.0056836056 0.06991991 -0.027301228
000270 21 45 51 3e 31 e2 a2 3e 2a c8 8f 3e 13 df a4 3e
       0.20436527 0.31813195 0.280824 0.32201442
000280 f7 f6 56 bc a6 20 8a 3d 31 cc 4b 3d 10 e9 10 3d
       -0.013120404 0.067445084 0.04975528 0.035378516
000290 41 42 90 3e 8a a1 8c 3e 1a 7b ca 3e 47 bc a0 3e
       0.28175548 0.27466995 0.39547044 0.31393644
0002a0 7e 5b 57 3e 34 5e 46 3e 2b 82 8a 3e 5d 34 2a 3e
       0.21030995 0.19371873 0.27052435 0.16621538
0002b0 4c 8c c4 3e 2b 13 6b 3e cb ce 22 3f 68 70 a9 3e
       0.38388288 0.22956531 0.6359679 0.33093572
0002c0 5f 14 5c 3c d1 76 3e 3d 15 05 6b bc f1 d6 8e 3d
       0.013432591 0.04650003 -0.014344473 0.069745906
0002d0 2d 11 1c 3d 98 be 46 3d 29 9f 25 3d 9b 4f 36 bd
       0.038102318 0.048521608 0.04043499 -0.04450951
0002e0 21 45 e9 bc 13 8a ad bc d1 35 6e 3d ff 32 c5 3a
       -0.028475346 -0.021184003 0.058156792 0.0015045105
0002f0 fb ac bf bc de 15 32 3d f9 b0 49 3d ad 8f 80 3d
       -0.023397913 0.043477885 0.04924104 0.06277404
000300 37 04 af 3e 95 7e d5 3e 70 d1 e5 3e 96 33 d7 3e
       0.34182903 0.41698137 0.4488635 0.42031544
000310 d0 9f 4b bc 40 38 0d be 19 f5 bd 3e a8 b2 b9 3d
       -0.012428239 -0.13790989 0.37101057 0.09067279
000320 2d 5c 16 3e a6 2b ad 3d 86 07 f0 bc c8 8c 76 bc
       0.146836 0.08455591 -0.029300462 -0.015048213
000330 d5 8b b7 3c 6e 0a 57 3d 4d 4a 0c 3d be 89 65 3d
       0.022405544 0.05250018 0.034250546 0.056039564
000340 73 6c 94 3b 40 5f 61 3d a2 9d a3 3b bf ad 16 bd
       0.0045295297 0.055022478 0.0049931565 -0.03678679
000350 b6 44 14 3e 64 d3 e0 3d 80 40 c5 3e 05 d1 a2 3e
       0.14479336 0.109778196 0.38525772 0.31800094
000360 cd 07 11 bd bb 07 f5 3c e9 df cd bc 0a f8 e6 3c
       -0.03540783 0.029910913 -0.025131183 0.028194446
000370 89 b1 2c bd 49 a5 4c 3d 31 97 63 3d 7b 32 69 3d
       -0.0421615 0.049962316 0.05556411 0.056932908
000380 60 4e af 3d 67 5b 17 3e 41 31 f6 3d 92 fa fc 3d
       0.08559871 0.14780961 0.12021113 0.1235248
000390 a5 72 8d 3e 88 3f cb 3e b9 22 c1 3e 3d 53 af 3e
       0.2762653 0.39696908 0.37721804 0.34243193
0003a0 a6 19 b6 3c 45 22 a5 3d 55 c0 85 bc 73 53 87 3c
       0.022229027 0.08063177 -0.016327063 0.016519284
0003b0 a3 99 4d 3c 16 b9 93 3b 02 f7 88 3d 65 92 0e bd
       0.012548837 0.004508148 0.06687738 -0.03480758
0003c0 a2 3a 89 3c 32 54 1a 3d f7 f1 10 bc e8 a2 03 3b
       0.016751591 0.03767795 -0.008846751 0.0020086113
0003d0 eb 57 39 3e aa df e1 3e 32 69 e3 3e 84 8b dc 3e
       0.18099944 0.44115955 0.44416195 0.43075192
0003e0 1b c9 23 bd a9 ee 9b ba 16 14 4a bd 6b 87 2e bd
       -0.03998671 -0.0011896688 -0.04933556 -0.042609613
0003f0 ad 12 e0 3e 4e af de 3e 49 5d e7 3e 8b 7d 02 3f
       0.43764248 0.43493122 0.45188358 0.50972813

bias f4 [64]
000000 ea ce 15 3d 60 b0 c6 bc 61 35 13 3d 91 ce da 3c
       0.03657428 -0.024254024 0.035939578 0.026709827
000010 1e 4e 0f 3d 7b eb 6a 3d c4 ca 2f 3b d2 98 08 3d
       0.034986608 0.057353478 0.0026823739 0.033348866
000020 fa b9 84 3d cb bf 2a 3e e0 9d 62 3d 52 07 86 3d
       0.06480785 0.16674726 0.055326343 0.06544365
000030 39 77 91 bb 74 59 69 3c ae bb e3 bd eb 25 32 be
       -0.0044392613 0.014242519 -0.111197814 -0.17397277
000040 af 08 a6 3d c1 2c ec 3d c3 5f 8a bd c9 0b 4a bd
       0.08107125 0.11531974 -0.06756546 -0.049327645
000050 f5 6e be bd c0 62 de 3d 9c 19 9e 3b 8a 0d ac ba
       -0.09298507 0.10858679 0.00482483 -0.0013126594
000060 96 35 9b 3d 6f 95 be 3d 03 d6 4d bd c8 dd d8 3c
       0.0757858 0.09305846 -0.050252926 0.026472941
000070 62 35 0b be 03 6d b1 3d 9e 78 da 3d 73 51 ae 3d
       -0.13594583 0.086633705 0.10667537 0.08511629
000080 26 af 18 bd fe 04 2f bd 4b 27 69 3d 88 64 07 bd
       -0.03727641 -0.04272937 0.05692224 -0.03305486
000090 9d c6 3d bd f4 de ad 3b 36 7a 24 bd fd c7 64 3d
       -0.04633199 0.005306119 -0.040155612 0.055854786
0000a0 06 b8 ad 3c 8b 0d 09 3e 1f 1f ab bb df 68 f8 3b
       0.021205913 0.13384072 -0.005222216 0.007580861
0000b0 37 be 68 3d a3 2d bb 3d 9b 43 82 bd e5 b7 03 3d
       0.056822028 0.09139564 -0.06360551 0.032157797
0000c0 92 83 c4 bd cc a9 a9 bd a3 d2 2c bc 9c 8b 10 3d
       -0.095954075 -0.08284339 -0.010548267 0.035289392
0000d0 e5 51 83 bd 7e 79 ad 3d e6 e8 1d bd c2 63 bc bb
       -0.064121045 0.084704384 -0.038552187 -0.0057491967
0000e0 68 2b b9 3d 83 56 ea bc d1 53 2c be 48 89 37 be
       0.09041482 -0.028605705 -0.16828848 -0.17923462
0000f0 8f fa 6c 3c 1c 50 1e 3d ff 9d 13 be 69 2d 03 3d
       0.014464035 0.038650617 -0.1441574 0.03202573
