output/train_17_12_23_part-7/unet_tgs_salt.pth (torch, 248279 bytes, 26 tensors)

weight f4 [16, 3, 2, 2]
000000 d8 4a fd be 33 7c 45 bf 3a d6 03 bf da c9 9d bf
       -0.49471164 -0.7714264 -0.5149876 -1.2327225
000010 40 97 de 3e 44 a1 d6 3c 0a 07 79 3e 12 81 12 bd
       0.4347477 0.026199944 0.24319091 -0.035767622
000020 4f 05 2a 3f d1 0d 8f 3d 79 a6 d7 3e 83 af 83 bd
       0.6641435 0.06985057 0.42119196 -0.064299606
000030 d7 cd c8 be f4 f7 f1 be 27 cf 0a 3e 3e 76 98 bd
       -0.39219543 -0.47259486 0.13555585 -0.07444428
000040 8e cb f0 be 69 b7 b4 be 48 6c bd 3d 18 1f 00 be
       -0.470303 -0.3529618 0.09249169 -0.12511861
000050 5e bd a3 be 1b 3f 0f bc 62 8b f0 bd d1 bd 31 be
       -0.31980413 -0.008743073 -0.11745335 -0.17357565
000060 48 2f b5 3e f4 62 90 3e 9e c7 bf 3c cf 10 e6 3d
       0.35387635 0.28200495 0.023410615 0.11233675
000070 53 6f fa 3e 1f 03 ae 3e 3e 70 05 3f a0 fd bf 3d
       0.4891306 0.33986756 0.52124393 0.09374547
000080 ef 27 b9 be 30 2c 3d bf 70 6f a3 be 8e 18 32 bf
       -0.3616328 -0.7389555 -0.31920958 -0.6956872
000090 8c 4b 92 bc d6 ec 17 3e 26 70 9d bc d8 43 1a be
       -0.01785829 0.1483644 -0.019218516 -0.15064943
0000a0 e8 78 ac bd 64 0d 36 be 01 ff bf bd a6 47 6b be
       -0.084214985 -0.17778546 -0.0937481 -0.2297655
0000b0 95 2b 9a be 11 e8 4f be 8b 04 cc bc 4b 8c 65 3e
       -0.30111375 -0.2030337 -0.02490451 0.22416799
0000c0 8e f8 82 bf 41 6c b2 bf 6c 06 81 bf 2c 1e a6 bf
       -1.0232103 -1.3939286 -1.0080085 -1.2977958
0000d0 1b db 9e 3e d1 ad 80 3e 2b d4 12 3f 71 33 ac 3e
       0.3102654 0.2513261 0.5735499 0.33632997
0000e0 43 97 c0 bd ac 0b 8c ba 6a 5f 16 bd 58 f8 53 bd
       -0.09403851 -0.0010684631 -0.036712088 -0.05175051
0000f0 82 e7 c1 bd e7 08 19 3e 7d 2e 1f be b0 67 92 3c
       -0.09467985 0.14944802 -0.15545078 0.017871708
000100 2f 72 39 3e 88 15 87 be 05 d3 ed 3d 0e b1 74 3d
       0.18109964 -0.26383615 0.116125144 0.059739165
000110 e3 80 af bd 92 4b 35 be 8c 0f 7c bc e0 ad 01 3d
       -0.08569505 -0.17704609 -0.015384566 0.03165996
000120 55 f3 7b be ef ef 08 be 1e 4c 5d be 6e f9 aa 3c
       -0.24604543 -0.13372777 -0.21611068 0.02087089
000130 fa 06 5e bd 85 10 90 3d e1 f2 11 be 52 78 1f be
       -0.054205872 0.07034401 -0.14252807 -0.15573242
000140 c8 c2 63 be f9 5e 2d 3d fd 39 91 3e 1c d4 2d 3e
       -0.22242272 0.0423269 0.28364554 0.16975445
000150 a2 7a 8d 3e 2b 5b 18 be 67 97 c0 3c b1 97 c0 3b
       0.27632624 -0.14878528 0.023509694 0.005877458
000160 5b ce 8a be 9f 94 6c be df 9a 3c be 7a 9c 3b be
       -0.27110562 -0.2310357 -0.18418454 -0.1832141
000170 81 fb 90 bd f8 c1 8b 3e e6 32 66 be 73 23 2d be
       -0.070792206 0.27296424 -0.22480354 -0.16908054
000180 19 fe 8e 3c 28 ce 45 3e 1a 50 4e be 6b 35 f4 3d
       0.017455148 0.19316924 -0.20147744 0.11924251
000190 63 e7 39 be 5e d0 22 be 41 67 60 bd d0 74 24 be
       -0.18154673 -0.15899798 -0.05478597 -0.16060185
0001a0 18 a4 e3 bd be 89 91 3e 79 0f 29 bc 92 0b b8 bd
       -0.11115283 0.284254 -0.01031863 -0.08986582
0001b0 63 d6 36 be 33 29 50 3d ed dc cb be 78 8c 17 3e
       -0.1785522 0.05082054 -0.3981699 0.14799678
0001c0 af 4f 7b be a4 ea 76 bb 05 a4 a2 be 0d 72 09 be
       -0.24542116 -0.0037676478 -0.31765762 -0.13422413
0001d0 00 6f 53 be d8 b5 b6 be f0 10 98 be e5 2a c0 be
       -0.20647812 -0.3568561 -0.29700422 -0.37532726
0001e0 0c 93 15 3f b5 f9 51 3f 96 eb 1e 3f 97 67 b8 3e
       0.584275 0.8202165 0.62078226 0.36016533
0001f0 df ee 88 be 10 f8 be be 37 36 07 bf 44 87 a7 be
       -0.26744744 -0.37298632 -0.528171 -0.32720387
000200 9a 74 e1 be 70 5c ee be 32 aa 78 3d fa 7c 22 be
       -0.44034272 -0.465549 0.060709186 -0.15867987
000210 94 ce db 3e 87 9d bd be cd b8 16 be a7 05 91 be
       0.42931044 -0.37034246 -0.14718933 -0.28324625
000220 71 a4 53 3f 69 ca f9 be 85 b3 d7 bd 4b 0a 2d 3d
       0.8267279 -0.4878724 -0.105322875 0.042246144
000230 91 aa 8a 3f 82 3e 44 bf 6a af 4c 3e 58 62 dc be
       1.0833303 -0.7665788 0.1998879 -0.4304378
000240 4b d7 f6 bd c8 44 f8 3c dd 0f bb be 88 ef f7 be
       -0.120527826 0.030306235 -0.3653554 -0.48424935
000250 c5 24 f6 3e 51 d9 6c 3e 58 0a 19 3f ff 4b 3d 3f
       0.48074928 0.23129775 0.5978141 0.73944086
000260 68 55 81 3d 03 3b 34 3e 01 16 68 be ad c9 ec 3d
       0.06315118 0.17600636 -0.22664644 0.11561904
000270 4c cc b0 3c d0 24 8f 3e d1 5c 3f be 20 6d 51 be
       0.021581791 0.27957773 -0.1868775 -0.20451784
000280 cf 02 1e bf 8c b1 16 bf f1 d9 80 be ae d3 ee be
       -0.61723036 -0.58864665 -0.25166276 -0.46645874
000290 09 6d 07 3e af 4b fe 3e 2c bc 77 3e e0 d3 da 3e
       0.13225187 0.49667117 0.24192876 0.42739773
0002a0 a6 6c 05 be a9 81 96 be 8f f6 0d 3e bc e5 be be
       -0.13029727 -0.29395798 0.13863586 -0.37284648
0002b0 c2 db 1f 3f a7 8b 3a bd ed ff 21 3f ee 91 7c 3e
       0.624447 -0.04554334 0.63281137 0.24665043
0002c0 ad 75 8d be e6 1d 6b bf 52 dd 18 bf 50 83 80 bf
       -0.27628842 -0.91842496 -0.5971271 -1.0040073
0002d0 ec cf de be cc a5 79 bd a7 08 cb 3d c0 51 09 be
       -0.43518007 -0.06094913 0.0991376 -0.13410091
0002e0 a7 b8 10 3f 8e fe 13 3f 9f 04 94 3e 08 41 bb 3e
       0.5653176 0.57810295 0.28909776 0.36573052
0002f0 9f 10 27 bf 6d ca 83 be 49 aa 04 bf 00 d0 89 be
       -0.65259737 -0.25740376 -0.51822335 -0.26916504

bias f4 [16]
000000 f9 a9 4c 3e 3e fd 56 be 30 ab 5e 3d b6 fa 8b bd
       0.19986714 -0.20995042 0.054362476 -0.06834929
000010 0e 0d 0a 3e 17 b3 78 be 92 9c 8b be af 1c 2b be
       0.13481542 -0.24287067 -0.2726789 -0.1671016
000020 c9 a0 68 be c7 36 07 be ba bf 05 3c 12 df 3d bc
       -0.22717585 -0.1320449 0.008163387 -0.011588829
000030 68 65 db be 62 26 e6 3e cc ee 23 3e dd 2c 88 3e
       -0.42850804 0.4495116 0.16009063 0.26596728

weight f4 [16, 16, 2, 2]
000000 85 4f 6f bd f5 98 d3 bd 52 2f 2f 3e 75 48 e9 bd
       -0.058425445 -0.103319086 0.17107895 -0.11390773
000010 66 2d 1c be 16 95 f1 bd a4 3d 58 3c e2 7e c1 3c
       -0.15251693 -0.11796014 0.01319829 0.023620073
000020 3d 08 82 3d 9d 22 f3 3c 05 9c f3 3d 2d e2 38 3d
       0.063492276 0.02967959 0.11894993 0.045137573
000030 ef 9d 49 3d 0f ed 77 bd 68 e7 5d 3d 15 77 c8 3d
       0.049222883 -0.06052881 0.054175764 0.09788338
000040 11 8b 57 bd 07 f4 c4 bd 76 d9 c9 bd 2e 85 0f bd
       -0.05262286 -0.09616857 -0.098559305 -0.03503912
000050 75 16 0a be 90 c4 78 bd e9 63 92 bd cc b0 de bd
       -0.13485129 -0.06073433 -0.071479626 -0.10873565
000060 1c fe 67 3d 88 c8 77 bd 80 ab e2 bb c8 bb a4 3c
       0.056638822 -0.060493976 -0.006917417 0.020109072
000070 80 92 7d bb 4e b9 d5 bd 28 b6 8e 3d 90 39 37 3c
       -0.0038692057 -0.10435735 0.06968337 0.011183158
000080 70 88 35 3d 16 f9 da bd cc 44 09 bd fa df 86 bd
       0.04431957 -0.106920406 -0.033512875 -0.06585689
000090 3a f0 8b 3e 0c eb f0 3d 77 8b 6f 3e 2e 36 09 3e
       0.27331716 0.11763582 0.23393045 0.13399574
0000a0 4c 6d 14 be 57 ca 9e bd 7f e2 c2 bd 38 db bb bd
       -0.14494818 -0.07753437 -0.09515857 -0.09172672
0000b0 77 1c bd bf 7d fe ea bf 52 42 a1 bf 95 36 fe bf
       -1.4774312 -1.8358914 -1.2598364 -1.9860407
0000c0 d7 f3 44 3e dd eb 30 be 5a 58 37 3e 88 f8 c6 be
       0.19233643 -0.17277475 0.17904797 -0.3886149
0000d0 3b 5b bb bc e6 10 1f be bb 54 a2 bd 7a ab 00 3c
       -0.02287065 -0.1553379 -0.07926317 0.007853383
0000e0 8e 4c 40 be 05 a0 14 3f 7b 0e 90 be 46 da 0a 3f
       -0.18779203 0.5805667 -0.28136048 0.5423931
0000f0 fc 08 47 bf 1e dd 9c be 26 4e 14 bf 3a 52 05 be
       -0.77748084 -0.3063745 -0.57931745 -0.13019648
000100 62 d4 b9 3e 63 a4 5c be 04 f8 01 3e 6c a2 90 bd
       0.36294848 -0.21547084 0.12692267 -0.070622295
000110 3a d4 4a be 62 8e 53 be 8a a9 b8 3d db d2 88 3d
       -0.1980752 -0.20659783 0.09016712 0.066808425
000120 ed d6 ab 3e e4 2c ea 3e c5 f0 97 3e 69 5f ee 3e
       0.33562413 0.45737374 0.2967588 0.46557167
000130 eb 95 a7 3c ba ad 89 bd 9a 42 d6 bc b3 1f c4 bc
       0.020457229 -0.06722589 -0.026154805 -0.023940897
000140 3d 2c b0 3d ec b5 6c be 25 cd 81 3d 3f e1 9c 3d
       0.08602188 -0.23116273 0.06337956 0.0766015
000150 6f 07 9f 3d 46 77 5e bd 32 c3 a9 bc 69 31 33 bd
       0.0776509 -0.054312967 -0.02072296 -0.043748293
000160 90 cf bf 3d 8c 7d 2d bd b8 1f be 3d 8c 15 c5 3d
       0.09365761 -0.04235606 0.092833936 0.0962325
000170 00 98 98 bc 90 7f b8 bd 40 37 c2 bc 78 75 a9 bd
       -0.018627167 -0.090087056 -0.023707986 -0.082743585
000180 06 e3 b9 bd ee c9 8a bd 64 57 90 3d b0 fe a8 3c
       -0.090765044 -0.06776796 0.070479184 0.020629257
000190 a7 cd c9 3d 2c b9 e3 3d 7f 2c cc 3d 59 57 5b 3e
       0.09853678 0.11119303 0.099694245 0.21420039
0001a0 43 06 cb be df 3f 20 be 00 3b a3 be 83 80 7c be
       -0.39653215 -0.15649365 -0.3188095 -0.24658398
0001b0 2d cf 40 bf e1 6e a4 be 53 73 17 bf cd 87 39 3e
       -0.75316125 -0.32115844 -0.59160346 0.1811821
0001c0 18 67 97 3e a5 c1 22 bd e0 1e ea bc 80 d6 47 be
       0.29570842 -0.039735455 -0.028579175 -0.19515419
0001d0 fb c2 19 bd 23 bb 90 3d fb 04 bc bc a5 e9 42 3d
       -0.037539463 0.070669435 -0.022951594 0.047586102
0001e0 5d 04 2e be a9 62 2f 3e f0 ca 8d 3d 40 ef c6 3e
       -0.16993852 0.1712748 0.06923473 0.38854408
0001f0 0a af 3b bf f5 88 18 bf 9d ab cf be c4 d6 1b be
       -0.73313963 -0.5958398 -0.40560618 -0.15218645
000200 cc f1 d5 be 71 a9 15 3e f6 55 c3 bd 98 e7 c8 3e
       -0.4178604 0.14615418 -0.0953788 0.39239192
000210 3d e8 a1 bd 3c 9b b2 bd 36 3e 31 be 16 3a 07 be
       -0.07905624 -0.08721015 -0.17308888 -0.13205752
000220 d7 fd 4f be 7a 84 37 be 2b 26 9b bd 93 51 b2 3d
       -0.20311676 -0.1792163 -0.07575639 0.08706965
000230 87 ef f2 3c 42 be 16 bc f8 10 98 3d 63 75 eb 3c
       0.029655231 -0.009200634 0.074251115 0.028742498
000240 d2 5e 8e be e2 c6 a0 3e 77 b3 8f 3e e0 b5 71 3f
       -0.27806717 0.31401736 0.28066608 0.94418144
000250 34 0d bd 3d f6 d2 7b bc f8 03 96 bd 86 00 9a 3d
       0.09231034 -0.015370121 -0.07324976 0.07519631
000260 b4 5c 8e 3d a6 52 ee bd 14 90 38 bd be ad bf 3d
       0.069512755 -0.11636858 -0.04505928 0.093593106
000270 9c 3f ec bd b8 5f 6e bd 58 82 09 bd b0 ec f7 3c
       -0.1153557 -0.058196753 -0.03357157 0.030264229
000280 e0 43 bf bc a4 6a f0 bd 38 40 85 bc 10 09 1a bd
       -0.023347795 -0.1173909 -0.016265973 -0.0376063
000290 39 e2 9c bc a6 83 98 3c 8e db 99 bc d7 1e 2a bd
       -0.01915084 0.018617462 -0.01878145 -0.041533317
0002a0 06 ec 9d 3e c1 ed 77 bd 97 2e d5 3e 95 21 92 be
       0.30844134 -0.060529474 0.41637108 -0.28541246
0002b0 b6 1e 08 3f dd a0 be 3f f9 bf 4b be c7 71 bd 3e
       0.5317186 1.4892842 -0.1989745 0.37000868
0002c0 79 f5 65 be d8 be d5 bd 3f 82 4e be ce 93 20 be
       -0.22456922 -0.10436791 -0.20166872 -0.15681383
0002d0 5c 39 08 3f 02 af 32 3e a4 c3 71 be 03 db fa be
       0.53212523 0.17449573 -0.23609787 -0.48995218
0002e0 87 64 95 bc 8a 6b 7a 3e 8e 7d e6 3b 08 60 db bc
       -0.018236412 0.24455085 0.0070340103 -0.02677919
0002f0 eb 3f 23 3e f5 ba 20 bd 2c 6a 5b 3d 70 29 80 3e
       0.15942352 -0.039240796 0.05356805 0.25031614
000300 00 df 1b bf a6 90 f2 be 17 ef 81 be 1a b7 0d be
       -0.60887146 -0.47375983 -0.25377724 -0.13839379
000310 a0 cc 17 be 14 d6 90 3d 21 05 d1 3c 09 24 e3 bd
       -0.14824152 0.07072082 0.025515141 -0.110908575
000320 ab 4c a0 be d5 1d a1 be 3c 90 7f be b3 ef a7 be
       -0.31308493 -0.31468073 -0.24957365 -0.32800063
000330 1f 0b 2c bd a8 c9 e0 bc 29 37 09 be 32 d3 42 3d
       -0.042002793 -0.027439907 -0.13399948 0.047564693
000340 83 ac f1 3d 80 23 7c bb aa 8a 0f 3e 04 48 f6 3c
       0.11800482 -0.0038473308 0.1401774 0.030063637
000350 cc a2 5e 3d 2c b9 50 bd fb e7 b7 bd 77 fa ab bd
       0.054354474 -0.050957844 -0.08979794 -0.08397382
000360 66 c7 b0 3d d2 d6 dd 3d a0 ec fd 3b 96 2f b5 bd
       0.08631782 0.10831989 0.007749155 -0.08846967
000370 be 1b a3 bd fa 29 fe bd da 91 9e bd b0 66 26 3d
       -0.07964276 -0.1241035 -0.07742663 0.040625274
000380 20 12 9e bb be b7 96 3d a4 a3 fc bd 2a 3e c6 3d
       -0.004823938 0.07359265 -0.123358995 0.096798256
000390 e3 57 d3 bd de 83 25 bd 96 26 d2 3d 09 48 b8 bd
       -0.103194974 -0.04040896 0.10261266 -0.089981146
0003a0 f1 a8 29 3f e9 85 69 3e c4 f0 27 3f fe 78 01 3f
       0.6627341 0.22804989 0.65601754 0.50575244
0003b0 43 4d 02 3f c0 19 0a 3f 7f 52 34 3d aa bd 3b 3e
       0.5089914 0.5394554 0.044023987 0.1833407
0003c0 66 21 79 3d 16 ad 6f 3e 1b d7 84 3d dc 26 55 3e
       0.060822867 0.23405871 0.064863406 0.20815605
0003d0 63 77 19 be c0 90 5a 3e ab 7e e7 bd 1e ff d2 3e
       -0.14986949 0.2134428 -0.11303457 0.41210264
0003e0 e2 c9 a9 bd 6a f3 6b 3e c5 65 f3 3d 49 66 b1 3e
       -0.08290459 0.23042074 0.118846454 0.3464835
0003f0 d1 04 41 3d a5 19 8a 3c 62 80 eb 3d 92 4e 6b 3d
       0.047123734 0.016857931 0.114990965 0.057447977

bias f4 [16]
000000 80 8f aa 3e 4f d3 e1 3d a2 61 45 3c e9 80 3b bd
       0.33312607 0.11026632 0.012047203 -0.045777235
000010 ca bb 83 bd 0f fc c3 be c6 c6 47 be 9a 7c 82 3e
       -0.06432302 -0.38278243 -0.1950942 0.25485688
000020 63 14 f6 3b 09 f8 88 3e d2 90 89 bd 0e fd d4 3c
       0.0075097545 0.26751736 -0.067170754 0.025999572
000030 e4 40 c9 3c dd 77 41 3e ba 51 d0 3d 9d 71 85 bd
       0.024567075 0.1889338 0.10171838 -0.06515811

weight f4 [32, 16, 2, 2]
000000 0d fa 8d bc b8 2c 55 3d f2 ca 5d 3e cf 61 9c bb
       -0.017331148 0.0520446 0.21659449 -0.004772402
000010 36 78 1c be a1 c7 9a bd 13 8c 88 bd b1 dd 01 3b
       -0.15280232 -0.075576074 -0.06667342 0.0019815976
000020 2f 21 39 bd f7 f2 c2 3c 6e c5 58 bd 1b f7 99 3d
       -0.045197662 0.023797495 -0.05292266 0.07517835
000030 92 6a c4 bd a9 00 f5 3d 2c 63 90 bd 7d 23 2f bd
       -0.09590639 0.119630165 -0.070501655 -0.042758454
000040 1f 9c 4c 3c 95 66 9b bd 20 94 6a bc c7 76 a2 3d
       0.012488394 -0.07587925 -0.014317542 0.07932811
000050 86 c3 3f 3e 04 b7 0b 3e 6e 18 64 3b 8b e3 54 3d
       0.1872693 0.13644034 0.00348046 0.051974814
000060 1e 75 85 3d db 2f ac 3d 9a 08 6b bd e9 02 bf bd
       0.06516479 0.08407565 -0.05738125 -0.09326727
000070 9a 9a 12 3e 4f c2 36 bd 88 c4 67 bd 8f 04 12 3e
       0.14316788 -0.0446189 -0.05658391 0.14259551
000080 bb 09 e9 3d 10 97 f7 bd fc c4 85 3d 1f d8 ab bd
       0.11378809 -0.1208936 0.065317124 -0.08390831
000090 ad df 60 3c 90 46 88 bd f7 6d 77 3d 09 12 31 bd
       0.013725203 -0.06654084 0.060407605 -0.04323009
0000a0 3e fd 8b 3d 19 ee 8b bd 67 64 0c 3c 0c 52 9d 3d
       0.068354115 -0.06832523 0.00856886 0.07681665
0000b0 ba 99 f6 3d 81 b7 a4 bd 82 6c 40 bd 8f f4 df bd
       0.1204104 -0.08042813 -0.04697848 -0.10935318
0000c0 a7 65 7c be bf 09 02 bc 21 e6 5c be 7f e6 37 be
       -0.24648152 -0.007936894 -0.21572162 -0.17959021
0000d0 97 02 50 3d 03 e5 08 3d 13 86 a4 bd 9c b4 7d 3d
       0.05078372 0.033421528 -0.08033385 0.06193982
0000e0 77 ec 7a bd 54 5b ad bd e1 1f 2c 3d d1 be ed bc
       -0.061260667 -0.08464685 0.04202259 -0.029021652
0000f0 70 e7 06 3e 03 de 40 3e b6 bc 41 3e 38 2d 97 3d
       0.13174224 0.18834691 0.18919644 0.07381672
000100 42 e4 4b be d2 61 1a be 34 28 26 be 78 3d f0 bd
       -0.19911292 -0.15076378 -0.16226274 -0.11730474
000110 6c 2b a8 be 14 63 37 be c2 ec a3 be ad b7 b0 be
       -0.32845628 -0.17908889 -0.3201657 -0.34515134
000120 68 76 2f be 50 af 8c bd 48 2f c9 bd c9 e5 fb bd
       -0.17135012 -0.06869376 -0.09823471 -0.122996874
000130 58 ab 38 be 0b 15 e5 bd 5e 1b 00 be 39 3b 1f be
       -0.18034112 -0.11185654 -0.1251044 -0.15549935
000140 4f c8 a1 3d 4f 39 1b 3e f8 0f 34 3e 4b 71 23 3e
       0.07899534 0.1515858 0.17584217 0.15961187
000150 84 e9 ce bd bb a0 e5 bc cd 27 4d be 24 65 9f bd
       -0.10103133 -0.028030744 -0.20034714 -0.07782963
000160 35 17 6c 3e 0e 3c 04 3c be 22 2d 3e ff 04 36 3e
       0.23055728 0.008070959 0.16907784 0.17775343
000170 32 30 70 be e5 81 2e be 59 66 27 be e1 77 51 be
       -0.23455885 -0.17041738 -0.16347636 -0.20455886
000180 95 1a 41 bd 78 91 5c be 83 35 c0 bc 18 77 73 be
       -0.04714449 -0.21539867 -0.023463016 -0.237759
000190 08 f5 4c 3c 96 b0 d6 3d a2 d9 e1 3d 6a 5d 38 3e
       0.012509592 0.104829 0.11027838 0.18004385
0001a0 69 ce 96 3e 20 e5 16 3e e6 43 98 3e e7 da 8e 3e
       0.29454353 0.14735842 0.29739302 0.27901384
0001b0 9b 9e 14 be 35 e7 3d 3e 2b f4 b3 bd 6d 41 fc 3b
       -0.14513628 0.1854523 -0.08786806 0.007698229
0001c0 e0 52 9a be c1 e8 1e 3e 7d b1 a0 be e0 25 ba be
       -0.30141354 0.15518476 -0.31385413 -0.3635702
0001d0 5e cd 24 bd 94 1c 51 be 7d 8b d6 bd 52 cf f5 3b
       -0.040234916 -0.20421058 -0.10475824 0.007501521
0001e0 88 8d 6c be 3d 91 3e be 23 86 29 be 32 83 2d be
       -0.23100865 -0.18610092 -0.16555075 -0.16944578
0001f0 61 8b 61 bd 30 aa 5f be 99 28 3b be 81 22 18 be
       -0.055064563 -0.21842265 -0.18277206 -0.14856912
000200 d5 88 9a 3d 78 23 d2 3d aa 66 11 3e d8 d3 12 3d
       0.0754563 0.102606714 0.1419932 0.03584656
000210 98 85 f7 bd ee 29 24 bd 3a ec f4 3b 72 6c 29 be
       -0.12086028 -0.04007905 0.0074744495 -0.16545275
000220 ae cd 78 3d af 2e 46 3d f2 de aa 3d 4f 8c 18 3e
       0.060743026 0.048384365 0.08343305 0.14897273
000230 69 22 68 3d 5f 35 e8 3d ba 87 0e 3d 9d f3 ea 3d
       0.05667344 0.11338305 0.034797408 0.11472247
000240 79 1f 0c 3e 31 db 02 bc 46 ab d9 3d e8 a1 9c 3d
       0.13683881 -0.00798683 0.10628371 0.07648069
000250 dd d5 b9 3d db ca 25 3e e6 f4 0a 3e b4 e3 4f bd
       0.09073994 0.16190664 0.13569984 -0.050754264
000260 b2 a9 29 bd 40 1b ca bd 44 1b c7 bd ca 34 69 bb
       -0.0414216 -0.09868479 -0.097219974 -0.0035584443
000270 6f 82 9b bd 45 37 8d 3d 07 c2 a9 bc 80 67 4d bc
       -0.075932376 0.068953075 -0.020722402 -0.012536883
000280 14 86 b6 3c bb 9a 9c bc e3 ce 97 bc a7 07 aa bd
       0.02228073 -0.01911675 -0.018531268 -0.08302241
000290 64 c3 08 be 98 f2 92 bc 77 2c 37 3c cf 6e 07 be
       -0.13355786 -0.017937943 0.011180035 -0.13225864
0002a0 af 10 4d bd c5 02 ea bd 1e 02 75 3b 20 db 2e 3d
       -0.05006474 -0.114263095 0.0037385295 0.042689443
0002b0 9e 12 66 3d 26 a3 56 3d 41 9b 61 3d 1d e8 d3 3d
       0.0561701 0.052401684 0.055079702 0.103470065
0002c0 01 da 05 be e1 8e d0 bc 4b f6 83 3c cb d4 9d bd
       -0.13071443 -0.025458755 0.016108653 -0.07706603
0002d0 2b 72 3b bd d8 a5 05 3c c6 43 91 bd 30 a0 54 bd
       -0.045763176 0.008157216 -0.07093005 -0.05191058
0002e0 3c 4e 15 bb 51 a7 fc 3d a0 f1 d4 bd 76 14 19 3d
       -0.0022782227 0.123366006 -0.10397649 0.03737303
0002f0 5b d2 40 3d 4d d2 32 3c b0 1c 9a 3d 75 a5 0a 3d
       0.04707561 0.010914397 0.07525003 0.0338492
000300 11 aa 2d 3c d7 3c f3 3d 78 fe fa 3d 8f 62 33 3d
       0.010599629 0.11876839 0.12255567 0.043795165
000310 b8 86 b1 bd 57 d7 fe bd a7 61 6d bd 7c 43 78 3d
       -0.08668274 -0.124434166 -0.057954457 0.060611233
000320 84 27 be 3d de 8b 0f 3e 5e 7b 7e bd 4a 5f 96 bd
       0.09284881 0.14018199 -0.06212937 -0.07342394
000330 3d 8e be 3c 99 42 eb bc 69 cf 8c 3c 6e 31 c4 bd
       0.023261184 -0.02871828 0.017188745 -0.095797405
000340 9d a1 49 3d 01 52 c6 3d de 0a 5c bd d8 1e d8 3d
       0.049226392 0.0968361 -0.0537213 0.10552758
000350 4d b0 21 3e b2 b1 05 3d ee 90 e7 3c de 29 4e 3d
       0.1578991 0.032640167 0.02826735 0.050332896
000360 f0 7d 9d 3c 13 4d 08 3e 7d e0 89 3d 23 ef 98 3d
       0.01922509 0.13310651 0.06732271 0.07467487
000370 0c 0a 30 be 04 8e 0b be a6 6e 34 3d 73 ce 2c 3d
       -0.17191333 -0.13628393 0.044050835 0.042189073
000380 42 53 06 bc 11 a8 40 3c 65 7d 15 3d ec 1d 29 be
       -0.008198561 0.01175882 0.03649654 -0.1651532
000390 19 2a 8e bc ce 07 f6 bd 8c 5a 94 bd f5 b1 8b 3c
       -0.017354058 -0.120132074 -0.07243833 0.01705263
0003a0 5b e8 5c 3d 89 79 44 bd 0a 37 57 bd 40 41 36 bd
       0.05393253 -0.047967467 -0.052542724 -0.04449582
0003b0 55 81 81 3d 9d 2c 9a bc 8e ec fc bd 89 91 9e bd
       0.06323496 -0.018820101 -0.12349807 -0.077426024
0003c0 8b e5 cb 3b ea 32 a5 bb 99 28 41 bd 13 50 1e be
       0.006222432 -0.00504147 -0.047157858 -0.15460233
0003d0 17 e1 2b bc cf d2 ae bd 84 3c 0e bc 6b 2e 75 39
       -0.010490677 -0.08536302 -0.00868142 0.00023382313
0003e0 93 d6 c4 3c 24 a6 f2 bd bb fb 39 3d b8 e9 ee bb
       0.024028098 -0.11848095 0.045406085 -0.007291045
0003f0 9c e4 37 bd e6 a5 62 3c 30 68 c1 bd 45 e0 d0 3d
       -0.044895753 0.013833499 -0.094437 0.10199026

bias f4 [32]
000000 49 1b 90 3b c0 be 89 be 2e dc 24 3d 62 cd 77 bd
       0.004397784 -0.26903343 0.040249042 -0.060498603
000010 73 97 fd be 2b a9 ca bc ec 59 07 bc 4b 04 99 be
       -0.4952961 -0.024738869 -0.008261185 -0.29886088
000020 19 95 8d 3d 91 68 5a 3d 44 ec dc bd d6 ae 59 bc
       0.06913204 0.05332238 -0.107872516 -0.013286313
000030 45 eb 13 be a0 49 7b be 45 99 d8 bd a5 6b e9 bd
       -0.14445217 -0.24539804 -0.10576109 -0.11397485
000040 b6 54 b3 bc c5 c2 8b bd 19 2c 5c bd 4b a3 d1 be
       -0.02189098 -0.06824259 -0.053752992 -0.40944895
000050 80 91 0a 3c f6 88 2f 3c b8 72 cd 3c b0 dd 8e be
       0.0084575415 0.010713806 0.025079116 -0.2790351
000060 18 11 f1 bd bb 86 bd be 05 7b ef bd c9 ee 1d 3d
       -0.117708385 -0.37016854 -0.11693386 0.0385578
000070 d4 ac 8e 3c 0d 4d 11 be 26 d5 52 bd 26 a9 83 3c
       0.017416395 -0.14189549 -0.051472805 0.016071867

weight f4 [32, 32, 2, 2]
000000 8a 54 ad 3d c5 88 26 bc cf 17 72 bc 02 a8 b7 bc
       0.0846339 -0.010164444 -0.014776184 -0.02241898
000010 be f7 05 be 5d 02 4d be 0a 68 a5 bd 24 5c 03 be
       -0.13082787 -0.20020433 -0.080764845 -0.12828118
000020 59 4f 69 3d 6c d8 26 bd 12 f1 c2 3d 71 d5 f9 bc
       0.056960437 -0.04073374 0.09518637 -0.030497285
000030 9d f3 70 bc e5 26 07 bd 8e a0 f6 3b 03 6a 98 bc
       -0.014706519 -0.032996077 0.007526464 -0.018605238
000040 58 1b 86 be 4b e7 ae be e0 d5 7e be e5 0e 89 be
       -0.26192737 -0.34160838 -0.24886274 -0.26769176
000050 ee a1 83 be 5b 5b 82 be ec 36 53 be 2d 5e 3b be
       -0.2570948 -0.25460324 -0.2062642 -0.18297644
000060 01 45 b6 3d d0 81 9b bc 58 8e a0 bd ba 92 ff 3c
       0.0889988 -0.018982798 -0.0783965 0.031197894
000070 67 a9 47 be 17 e9 09 be 4e 1b 53 be 61 31 dc bd
       -0.19498216 -0.13467823 -0.20615885 -0.10751606
000080 cb 2c f3 bd f0 4b f1 bd 48 34 64 be 95 ff 45 be
       -0.11873778 -0.11782062 -0.22285569 -0.19335778
000090 45 8e a4 3c f4 b1 73 bd c0 c3 af bd cc 1f fe 3c
       0.02008737 -0.05949588 -0.08582258 0.031021021
0000a0 3e e6 a0 3b 3c e4 4d bd 18 13 dd 3b cc 1b 84 3c
       0.0049102595 -0.05026649 0.006746661 0.016126536
0000b0 58 5e 49 3d 3a e7 d9 bc b6 32 51 3d bc bb 19 bc
       0.04916224 -0.026599515 0.051073752 -0.009383138
0000c0 10 9b fa 3c 94 2b 01 bc 9c aa 26 bc 38 b5 f6 3d
       0.030591518 -0.007883925 -0.010172512 0.120462835
0000d0 24 9d dd bd ed bd d3 bd d8 bc 3d be 3f a8 21 be
       -0.10820988 -0.1033896 -0.1852907 -0.15786837
0000e0 8b 2b ec bd 88 9f 16 bd df ec 50 be 22 c6 32 be
       -0.11531743 -0.036773235 -0.20402859 -0.17458394
0000f0 23 99 15 bd ac ea b8 3d d2 cf cd bb 7a 56 87 3c
       -0.036522996 0.09029135 -0.0062808776 0.016520727
000100 53 85 63 bd 18 b4 d8 bc f6 f5 b7 bc c7 72 bd 3c
       -0.05554707 -0.026453063 -0.02245615 0.02312602
000110 56 8d 14 be 96 c9 bb bd 17 61 07 be 12 8f f1 bd
       -0.1450704 -0.09169309 -0.1322063 -0.117948666
000120 a1 96 0c 3d d3 bb 15 3e fd 8f 87 3d 94 61 33 3e
       0.03432334 0.1462243 0.066192605 0.17517692
000130 14 7d 44 be 48 38 50 bd 97 6c 96 bc b6 46 27 be
       -0.19188339 -0.050834924 -0.018362327 -0.16335568
000140 82 3b 63 3d cc 21 ce 3c f6 3f 96 3d c3 80 c8 bc
       0.055476673 0.0251626 0.07336418 -0.02447546
000150 65 77 b9 3d 99 a5 15 3d ef 67 0c bd 43 ea a2 3d
       0.09055976 0.03653488 -0.034278806 0.07954838
000160 c0 9a b3 3c 3d 82 40 3d 4c 0d 07 bd 2f e8 12 3d
       0.021924376 0.046999205 -0.032971665 0.03586596
000170 52 36 e5 bd f2 da 14 be a7 72 30 be b6 a8 ba bd
       -0.111920014 -0.14536646 -0.17231236 -0.0911421
000180 b7 03 16 be 31 7c 0b be 9d af 16 be e0 60 d4 bd
       -0.14649855 -0.13621594 -0.14715429 -0.1037004
000190 02 e7 d2 bd 29 ff e5 bd f7 5f 19 be 13 84 47 be
       -0.102979675 -0.112303086 -0.14978014 -0.19483976
0001a0 37 e3 02 be 2f 6f a0 bc af fc 8f bd 68 de 1a bd
       -0.12781988 -0.019584266 -0.070306174 -0.03780976
0001b0 93 2a 8c be b5 03 c3 be 95 4e 8d be 5d 18 c5 be
       -0.27376232 -0.38088766 -0.27599016 -0.3849515
0001c0 ba 6f 39 be dd 35 99 be 4b 63 a3 be 6c 7e 68 be
       -0.18109027 -0.29923907 -0.31911692 -0.22704476
0001d0 a6 96 f5 bd bb af 0e be af 49 22 be 25 37 61 be
       -0.119916245 -0.13934223 -0.1584842 -0.21993692
0001e0 64 76 2f bc 66 00 b8 3d aa 92 86 bd ac 1f 6c b9
       -0.010709379 0.08984451 -0.06570943 -0.00022518513
0001f0 64 22 2b 3d fa 47 46 bd e0 f4 60 3d 7b 08 aa 3d
       0.041780844 -0.048408486 0.05492103 0.08302399
000200 53 c5 01 3e 60 a9 09 3e 52 71 97 3d ef 74 cd 3d
       0.1267293 0.13443518 0.07394661 0.10032069
000210 29 0c 3e 3e 6b 52 fc 3d a2 e6 28 3e b8 68 9e 3d
       0.18559326 0.123204075 0.1649423 0.07734817
000220 b3 4f 72 3e 31 b5 ac 3d ab da 90 3d fd 5c 0b 3e
       0.23663215 0.08432997 0.070729576 0.13609691
000230 81 dc 00 3e 91 73 96 3d 7f 4e 47 bc c3 40 88 3d
       0.12584116 0.07346261 -0.012164711 0.06652977
000240 0b 28 58 3d 1e df 09 3d c8 02 03 3e a3 86 45 3c
       0.052772563 0.033660047 0.1279403 0.012056026
000250 61 30 88 3d 0e 49 b7 3c 4d 4a a1 3d 87 74 3d 3e
       0.066498525 0.022373702 0.078755 0.18501483
000260 1f f3 bd 3c ec 5a c4 bd 1d 88 d4 bb 7f 42 81 bd
       0.023187218 -0.095876545 -0.0064859525 -0.06311511
000270 c5 f9 42 3e 63 09 88 3e 57 c7 0e 3e 4c 5f 6b 3e
       0.19040592 0.26569661 0.1394323 0.22985572
000280 8b 56 13 3e 0e 5f 1d 3e 41 c3 eb 3d d0 a6 58 3e
       0.14388482 0.15368292 0.11511851 0.21157384
000290 1a 18 4b 3e 9e 1a 20 3e 88 88 31 3e e2 79 66 3e
       0.19833413 0.15635154 0.17337239 0.22507432
0002a0 41 2b db bd 8a e6 b9 3c e3 d4 ef bd 7c 5d 18 bd
       -0.107016094 0.022692937 -0.11710527 -0.03719853
0002b0 cd de ee 3d 80 1f 6e 3e d3 82 54 3e 95 31 69 3e
       0.116635896 0.23254204 0.2075303 0.2277282
0002c0 f8 76 f8 3d f9 1d c5 3c 42 3f f7 3d 4e 96 10 3d
       0.121320665 0.024062144 0.12072612 0.03529959
0002d0 56 a5 ee 3d 21 bd 06 3e cb 4c fa 3d de 0a cc 3d
       0.11652629 0.13158084 0.12221678 0.0996301
0002e0 2c 1a 43 3d 37 87 52 3e d0 39 f4 3d 79 cc 2b 3e
       0.04763238 0.20559393 0.11925089 0.16777219
0002f0 81 51 0e 3d ca 0e 06 3e e2 a2 0c 3e 94 93 02 3e
       0.034745697 0.13091579 0.1373401 0.12751609
000300 6b 6d 0e 3e 54 ee 3e 3e 16 00 aa 3d 14 0c 2d 3e
       0.13908927 0.18645602 0.08300798 0.16899139
000310 9f 9f 12 3e ec f3 3e 3e be cf 47 3e b4 1f 2a 3e
       0.14318703 0.18647736 0.19512841 0.16613656
000320 17 86 01 3e 64 c4 b8 3d 86 77 a8 3d 55 55 fa 3d
       0.12648807 0.090218335 0.08225922 0.12223307
000330 c4 10 5a be ec 53 91 bd 90 08 08 be 95 2f bd bd
       -0.21295458 -0.07096085 -0.13284516 -0.09237591
000340 78 a7 af 3d db b1 4a 3e ec 42 65 3e 2e dd 55 3e
       0.08576864 0.19794409 0.2238881 0.20885155
000350 02 9e 1f bc f3 46 24 bd 6a 26 1f bd ec 4c 41 3c
       -0.009742262 -0.040106725 -0.038854994 0.011798125
000360 7b 11 54 3c 84 a5 af bc f8 b9 a0 3d a7 c1 17 bc
       0.012943621 -0.021441229 0.07847971 -0.009262479
000370 4b 8d 92 bd 1a d6 04 3d c1 93 c3 bb d4 16 cb bd
       -0.07155856 0.032430746 -0.0059685414 -0.099164635
000380 17 19 05 3e b8 2a 2f 3e 48 b4 12 3e ae 75 09 3e
       0.12997852 0.1710614 0.14326584 0.13423797
000390 29 56 21 3e e4 30 10 3e 65 24 f5 3d 15 3e 30 3e
       0.15755524 0.1408115 0.11969832 0.17211182
0003a0 cf fb 51 3d 94 a9 10 3d 63 75 5b 3e 7c dd 2a 3e
       0.051265534 0.035317972 0.21431498 0.16686052
0003b0 8f cd ef 3d 53 6d 1b 3e d5 d4 77 3e 1f be 5e 3e
       0.11709129 0.15178423 0.24202283 0.21752213
0003c0 bd 3c 35 3e 88 f0 3c 3e 41 56 1c 3e 14 aa 82 3e
       0.17698951 0.1845113 0.15267278 0.25520384
0003d0 72 e4 21 3e 76 75 64 3e 92 81 39 3e 6d 68 10 3e
       0.15809801 0.22310433 0.18115833 0.14102335
0003e0 f8 a2 39 3d 0b e6 8c bc 7e 16 08 bb df f0 15 3d
       0.045321435 -0.017199537 -0.002076536 0.036606666
0003f0 45 2a 9d 3b 3d d7 fd bb 1b 1c b1 bd 81 b4 cb bd
       0.0047962987 -0.0077466057 -0.08647939 -0.09946538

bias f4 [32]
000000 db 4d 2e be 98 a7 aa 3d 7a 18 da 3d 20 3f 20 3e
       -0.17021887 0.08332747 0.106492 0.1564908
000010 36 ad 69 3d 3d f9 e2 3c d7 61 df bd 78 83 1f bc
       0.057049952 0.027706737 -0.10907333 -0.009735934
000020 47 0d 8b 3d 59 91 1d 3d 79 93 03 bd a0 ce 4e 3d
       0.06789642 0.038468692 -0.032123063 0.05049002
000030 e6 66 da bd 28 2c 90 3d 3c 5b 88 bd e1 68 d4 bd
       -0.106641576 0.07039672 -0.066580266 -0.103715666
000040 2c a8 1f bd 9c 4c 20 bd 7a 57 5c 3d eb ff 29 bd
       -0.03897874 -0.03913556 0.05379436 -0.041503828
000050 7f b9 d9 bd f2 b7 68 bc 22 75 57 bc 1d 41 8a bc
       -0.10631084 -0.014204012 -0.013150485 -0.016876752
000060 4e 52 1e 3c 10 43 bc bd 9a 8e 3b 3c 8c 78 96 bd
       0.009663178 -0.09192479 0.011447573 -0.07347211
000070 4c 29 b2 3d a9 45 5d 3d 61 6b 0a 3d 32 64 9f 3d
       0.08699283 0.05402151 0.03379381 0.077827826

weight f4 [64, 32, 2, 2]
000000 12 e2 2e bd 25 79 49 bd 5e 3a cb bb e1 61 75 bd
       -0.042696066 -0.049187798 -0.0062020263 -0.059907798
000010 9a fa 05 be 73 10 02 be 07 29 f6 bd 74 01 2b be
       -0.13083878 -0.12701587 -0.12019544 -0.16699773
000020 af 1b 9c 3c d7 16 ef 3d 84 07 b8 3d a6 d8 e9 3d
       0.01905617 0.11674278 0.089858085 0.114182755
000030 37 60 a3 3c 78 93 47 3d a9 c9 c8 bc 2c 21 75 3b
       0.01994334 0.04872462 -0.024510222 0.0037403805
000040 79 e6 ae bd f1 d9 12 be 09 ed 06 be b2 c2 d5 bd
       -0.08540053 -0.1434095 -0.13176359 -0.10437526
000050 cc c3 1d 3e 4a 92 e5 3d 6f 2c e1 3d 1d a9 27 3e
       0.15406722 0.11209543 0.10994803 0.16373105
000060 38 3d 65 3d 02 4a 2f 3e f9 b1 49 3e cf 54 84 3d
       0.055966586 0.17118075 0.19696797 0.064614885
000070 bc b4 07 3e 06 85 ad bc 2b 33 1f bc 51 66 ac 3d
       0.13252538 -0.021181595 -0.009716789 0.08417953
000080 55 12 ef 3d 6f de c4 3d 2d 70 a6 3d d5 a9 bf 3d
       0.116734184 0.09612738 0.081268646 0.09358565
000090 74 19 b3 3c f3 4c 8c bd dd 7b ab 3c 0a 33 29 bd
       0.021862723 -0.068506144 0.020933086 -0.04130844
0000a0 3b 5c 02 3d dc 15 05 bd 8e e9 da bd 05 7d 5f bd
       0.03182624 -0.03249155 -0.10689078 -0.054562587
0000b0 02 4d 3f be a1 4a e0 bd f5 d0 2d be e7 1f 39 be
       -0.1868172 -0.10951734 -0.16974242 -0.18078576
0000c0 ff c2 94 3d 93 40 37 3e 68 56 f8 3d 93 16 4e 3e
       0.07263755 0.17895727 0.12125856 0.20125799
0000d0 57 54 27 be fe d4 35 be 73 5d 34 bd 26 b4 6e bd
       -0.16340767 -0.17757031 -0.044034433 -0.05827727
0000e0 b8 7b 78 bd 69 a8 e4 bd 0a 6e 1f bd 76 17 83 bd
       -0.060664862 -0.11164934 -0.0389233 -0.06400959
0000f0 24 56 0b 3e 57 24 b1 3c 30 be 37 3c bd ba f3 3c
       0.13607079 0.021623774 0.011214778 0.02975213
000100 5a 51 37 3e 01 30 5e 3e 7b 86 01 3e 43 42 00 3e
       0.17902127 0.21698 0.12648956 0.12525277
000110 47 7f 30 3d d9 84 48 3c 18 d9 82 3c 30 67 11 3e
       0.04309013 0.012238705 0.015972659 0.14199519
000120 09 20 38 3c d2 ff c7 3c 68 8d 82 bc e1 63 b7 bc
       0.0112381065 0.024413977 -0.015936568 -0.022386493
000130 65 86 49 3e 2d 5f 0e 3e 10 9c 08 3e aa 72 98 3d
       0.19680174 0.13903494 0.13340783 0.074437454
000140 9a 4b 5b bc 85 f6 af bd f3 88 d8 bd 27 b3 b4 bd
       -0.013384724 -0.08591942 -0.10572996 -0.08823233
000150 1c 84 be 3d 07 ad d9 3c 95 7f ac 3d 7c 87 ae 3d
       0.093025416 0.026571764 0.08422772 0.08521935
000160 96 1c 48 3e 88 59 db 3d f7 0d 36 3e ad 93 13 3e
       0.19542155 0.10710436 0.17778765 0.14411803
000170 bf 8f 34 3d c4 85 70 3c 62 02 54 3d 48 5c 4c 3d
       0.0440824 0.01468033 0.051760085 0.049892694
000180 3a 3c 8e 3d f8 58 98 3d df a6 8c 3d 31 ab 12 3e
       0.06945081 0.074388444 0.06867766 0.14323117
000190 e5 d6 44 b9 1e bb 90 3d a6 02 9d bb 1a 9b 3d 3d
       -0.00018772071 0.0706694 -0.0047915755 0.046290495
0001a0 62 e5 0b be e4 6b a1 bd 1a ea 97 bd 47 1d 02 ba
       -0.13661721 -0.07881907 -0.07417698 -0.0004963469
0001b0 28 6b 05 3c 24 d2 52 bd 3f 01 11 3b a7 a7 f7 bd
       0.008143224 -0.051469937 0.0022125987 -0.12092524
0001c0 60 4e ed bd 33 c1 c8 bd be 2e 27 be 6c ca 09 be
       -0.115872145 -0.09802475 -0.16326424 -0.13456124
0001d0 c3 6e 85 be b1 41 17 be d8 b3 e6 bd 3e bc 31 be
       -0.26061067 -0.14771153 -0.11264771 -0.17356965
0001e0 f4 75 77 bd fe 28 f9 bd 7d b1 ab bd 86 14 86 bd
       -0.060415223 -0.12166022 -0.083834626 -0.06546883
0001f0 f2 a3 0c be 00 ca ad bc 11 11 c9 bd 05 ae d3 bc
       -0.13734415 -0.021214485 -0.09817708 -0.025839815
000200 88 f3 0e bd 12 d1 a9 3c 37 be 2a 3d 38 0c cd 3d
       -0.03490022 0.020729575 0.04168531 0.10012096
000210 67 18 d8 bd 59 77 1f be 13 57 ce bd 94 6c 29 be
       -0.105515294 -0.15572871 -0.10075202 -0.16545326
000220 45 d4 3d 3d 52 c7 82 bd cc 0a 3a 3d b6 ad 17 3d
       0.046345014 -0.063856736 0.045420453 0.037030898
000230 a8 29 f4 bd 24 c1 e6 bd 76 24 2d bc f4 2c 1f 3d
       -0.11922008 -0.112673074 -0.010567775 0.03886123
000240 67 c8 c7 bb e9 68 98 bd e7 bf 76 bc 62 3b be 3c
       -0.006096888 -0.07441885 -0.0150604015 0.023221675
000250 ab 0c b3 bd 06 cd 92 bd 3b f1 3d bd 1f 18 18 bd
       -0.087426506 -0.07168011 -0.046372633 -0.03713238
000260 2c c4 0a bd fd 23 a4 3d 69 b6 bf 3d 4e f3 c3 3c
       -0.03387849 0.08014677 0.09360964 0.023919728
000270 8d 3f 46 3d de ec d1 bd 89 ab 6e 3c f9 c4 1d bd
       0.04840045 -0.10250257 0.014567264 -0.038517926
000280 01 58 a3 3b 85 d6 31 3d 11 86 d1 3c 53 f8 4f 3c
       0.004984856 0.043417472 0.025576623 0.012693482
000290 92 06 e3 3c fa bf 12 bd 6d 71 94 3d 57 d3 d6 b9
       0.027713094 -0.035827614 0.07248197 -0.0004097472
0002a0 ae 1b 95 bc 91 67 98 3c 36 b9 d3 ba 99 fb 45 bd
       -0.018201675 0.018604072 -0.001615322 -0.048335645
0002b0 0f cc 09 3c f7 88 b7 bd be dd a5 bd 6f 60 4e bd
       0.008410468 -0.08961671 -0.080989346 -0.050384935
0002c0 e2 4b e8 3d 4d 18 2c 3e 2c 7f 05 3d 83 33 8b 3d
       0.113425985 0.16806145 0.032591984 0.067969345
0002d0 b5 2e 2d 3d 4b ec 02 bd 5c 4e 8e 3c ed 73 61 3b
       0.04228087 -0.031963628 0.017371349 0.0034401373
0002e0 b9 32 a6 3d 3f 76 6e bc 8f 43 f1 3d 37 18 dd 3d
       0.08115143 -0.014554559 0.11780464 0.10795634
0002f0 a1 43 f4 bc 1a a6 01 3e d3 55 b5 3d 7a f8 ca 3d
       -0.029817404 0.12661019 0.0885426 0.099106744
000300 58 a5 2a 3e 36 2d 0d 3e 31 b6 9d 3d 16 ec 77 3d
       0.16664636 0.13786778 0.07700766 0.060527883
000310 36 3a 44 bd dd c3 09 3d 90 fe 3c 3d 34 72 b9 3c
       -0.047907077 0.033634055 0.046141207 0.022637464
000320 7e c4 8d bd d0 6e ec bd c7 0d b4 bd 1d 7f 64 bd
       -0.069222435 -0.11544573 -0.0879169 -0.055785287
000330 53 19 b1 bc e1 b8 f9 3c e9 3d 1c 3d 2d 0c c0 3c
       -0.02161852 0.030483665 0.03814498 0.023443306
000340 b4 68 b9 3d cb c5 cc 3d 19 d6 c8 3d c2 f9 fd 3d
       0.09053174 0.099986635 0.09806461 0.12401153
000350 32 50 66 bc a2 48 b2 3d a6 eb 10 3d 41 74 15 3d
       -0.014057206 0.0870526 0.03538098 0.03648782
000360 8f 70 4c bb 64 29 b5 3d bb e7 86 3d 0b 24 56 3d
       -0.003119502 0.08845785 0.06587168 0.052280467
000370 10 ec cd bd 8d 4b c6 bc 87 f6 9d bc f8 77 18 bb
       -0.10054791 -0.024205947 -0.019282592 -0.0023264866
000380 ce b9 b6 3d ec 3d 0d bd e2 7a 00 3d 7e 69 98 3c
       0.08922158 -0.03448288 0.03136719 0.01860499
000390 1a 7d 9a 3c 2d b5 19 3d d6 ef 03 3e 0d a0 44 3d
       0.018858481 0.0375263 0.12884459 0.0480042
0003a0 ee e8 da 3c db 20 f8 bc c4 b1 f0 bc 47 3b 7d bd
       0.026722398 -0.030289104 -0.02938164 -0.06182411
0003b0 25 e3 6b 3d be ea 16 bd 63 bc a8 3d b3 97 09 bd
       0.05758967 -0.03684496 0.08239057 -0.033591937
0003c0 1a 4e 20 3d 78 c9 b0 3c c4 81 88 3c 3f f2 72 bd
       0.039136983 0.021580443 0.01666344 -0.059313055
0003d0 05 33 f6 bc 2b 14 b7 bd fc d6 bb bd a5 ed b0 3a
       -0.030053625 -0.089393936 -0.091718644 0.0013498558
0003e0 e6 8b 29 3d f9 0b 91 bd 8a 8a 8c bd b7 13 f7 bc
       0.041393183 -0.07082362 -0.06862362 -0.030160768
0003f0 06 af d7 bd c7 af a4 bd 3a 68 44 bb 7d af 9d bc
       -0.1053143 -0.08041339 -0.002996935 -0.019248718

bias f4 [64]
000000 88 9f 29 be 30 94 bc bb 8d 09 42 bd a3 8d f8 bd
       -0.16564763 -0.00575497 -0.04737239 -0.1213639
000010 9b bc 74 3c 97 86 2c bd 69 3a cc bd 23 2b 5b bd
       0.014937545 -0.042120542 -0.09972078 -0.053507935
000020 6d 50 28 be d4 fc 03 be b7 5e bb bd bc 06 24 bd
       -0.1643693 -0.12889415 -0.09148925 -0.040045485
000030 6d 1f e3 bc c3 00 56 be 04 2f 16 be d0 ec 86 bd
       -0.027724946 -0.20898728 -0.14666373 -0.06588137
000040 3d e5 dc bc 9d 42 f6 3b 37 ef b3 bd 0e 57 96 3c
       -0.026964778 0.007515265 -0.08785861 0.018352058
000050 4a f9 48 be 4b 82 33 be f0 93 0f be 44 ee 00 be
       -0.19626346 -0.17530172 -0.14021277 -0.12590891
000060 fd f5 52 be 0b f5 c8 bc ef f5 1a 3d 78 57 5e bb
       -0.2060165 -0.024530908 0.037832197 -0.0033926647
000070 58 29 4f 3c 30 d7 4f be 86 89 41 3d 6d da 5a be
       0.012644134 -0.20296931 0.047250293 -0.21372385
000080 8c 65 0a be 0b 38 b4 bd f4 b1 21 be f6 b5 1a bd
       -0.135153 -0.08799752 -0.1579054 -0.037771188
000090 cb 9c 86 bd f7 73 ed 3d 8d 84 b3 3a 7e 86 14 be
       -0.06572875 0.11594384 0.001369612 -0.1450443
0000a0 72 eb 9b be 18 56 05 be 71 e6 24 bd f3 7a 3b be
       -0.30453068 -0.13021123 -0.04025883 -0.1830862
0000b0 9a cf 08 3e f8 8f 39 3e 75 32 cb 3c 81 7a a9 be
       0.13360444 0.18121326 0.024804333 -0.33101276
0000c0 91 34 28 be 8c 4d 94 3c 81 25 3a be a4 f1 8b 3d
       -0.16426302 0.018103383 -0.18178369 0.06833199
0000d0 40 6b d0 bd 73 4a ee bc 53 17 ad 3d 16 e2 a5 be
       -0.10176706 -0.029088235 0.08451714 -0.32399052
0000e0 a6 84 e3 3d f8 f0 22 bc 33 a3 c1 bd 80 f5 6f bc
       0.11109285 -0.009945147 -0.09454956 -0.014645934
0000f0 9a 81 a1 3d 26 9e 55 bd 68 99 4b 3d 2c 00 e8 3c
       0.07886048 -0.052152775 0.049706846 0.028320394

weight f4 [64, 64, 2, 2]
000000 87 dc 08 3e 3a d0 40 3e 31 69 de 3d 43 fa 3a 3e
       0.13365375 0.18829432 0.108599074 0.1825953
000010 ac c2 44 bd c8 20 a0 3b 06 20 be bb 5c 32 14 bd
       -0.048037216 0.0048867203 -0.0058021573 -0.03618084
000020 a6 87 f6 3c a5 58 ef bc 25 53 0a bd b5 75 0c bd
       0.03009398 -0.029217074 -0.0337707 -0.03429194
000030 fe f9 f4 bd 31 89 b8 bc b3 a8 09 be e0 bc 0c bd
       -0.11961745 -0.022526355 -0.1344326 -0.034359813
000040 f4 49 81 3d d9 88 df 3c 4f f0 29 3d 0b 53 a0 3d
       0.063129336 0.027286934 0.04148894 0.07828339
000050 77 c1 93 3e ea c5 8d 3e 36 6e a4 3e cb 2f 52 3e
       0.2885854 0.2769006 0.32115334 0.20526044
000060 7e 24 aa 3c 52 22 9b 3d d7 99 f2 bc ff 54 8f 3d
       0.020769354 0.075749055 -0.029614372 0.069986336
000070 ec 7a 46 3d cf 75 65 3d 8f 42 49 bb e6 6f c1 bc
       0.04845707 0.056020554 -0.0030709838 -0.023612928
000080 99 fc aa 3d d5 68 1b 3d b4 3d 47 3d 3f d1 2c 3d
       0.083489604 0.037941772 0.04864283 0.04219174
000090 6a 8f c8 bd 81 bd 8a bd d4 cf 83 bd c3 2e 0f be
       -0.09792979 -0.06774426 -0.064361244 -0.13982682
0000a0 8b 02 34 3d ba ac c9 bc 21 0b 94 3c 70 de 62 3c
       0.043947738 -0.024618495 0.018071713 0.013846979
0000b0 41 dc 45 bd 7e 83 fa bb 68 d2 d0 3c 05 aa 68 bb
       -0.048305754 -0.0076450696 0.025490955 -0.003550173
0000c0 4b c4 8a bc 71 d8 3a 3c 11 bc 27 3c f5 4e ea bc
       -0.016939303 0.011404143 0.01023771 -0.028602103
0000d0 36 c0 8d 3d ed 69 c6 3d f9 bd a7 3d 26 5f 51 3d
       0.06921427 0.096881725 0.08190531 0.05111613
0000e0 38 e5 13 3d fd 3e df 3c 5b 4c ea 3d 8e 61 a3 3d
       0.036107272 0.027251715 0.11440345 0.079775915
0000f0 8d a5 d8 3b 53 55 01 bd b4 71 74 3d ce f5 59 3d
       0.006611532 -0.031575512 0.05967875 0.053212933
000100 e1 33 13 3e 51 81 26 3e 8f 6a 22 3e bf 51 b1 3d
       0.14375259 0.16260268 0.15860961 0.0865817
000110 49 a1 50 bb 5e e3 3d 3d c6 be a6 3c f3 df 6f 3c
       -0.0031834415 0.046359412 0.02035464 0.014640796
000120 7e 64 14 bc 1a 76 13 bc 80 82 17 3d d8 0b 9e bb
       -0.009057162 -0.009000326 0.03698969 -0.004823189
000130 c4 42 41 3c 49 b0 a0 3d aa c0 5a 3d d8 09 be 3c
       0.011795703 0.07846124 0.053406395 0.023198053
000140 57 79 d5 3d b1 e1 1e 3d 71 29 c3 3c 12 be f6 3d
       0.10423534 0.038789455 0.023823472 0.12047972
000150 c3 28 88 bc aa fd 6f 3d 11 dc d4 bb 3b 66 98 ba
       -0.016621 0.058591522 -0.0064959605 -0.0011627147
000160 e3 6a 01 3e 5d ac 06 3e 30 0e da 3d 65 56 d0 3d
       0.1263843 0.13151689 0.10647237 0.101727284
000170 a1 f8 cd 3b 9f b0 72 3d 64 e2 02 3c 8b 40 48 bb
       0.0062857424 0.05925047 0.007988546 -0.0030556049
000180 25 84 3d bd 3e 13 86 3c 80 9f 13 bd 42 c9 21 3d
       -0.0462686 0.016366597 -0.036040783 0.039498575
000190 95 d2 1a 3c f1 30 90 bc a9 d4 82 3d 93 39 00 3d
       0.009449621 -0.017601462 0.06388218 0.031304907
0001a0 bd 1c 46 bd a2 32 f6 3c 0d 37 9c 3c 98 74 8b 3d
       -0.04836725 0.03005344 0.019069219 0.06809348
0001b0 0a 34 52 3c b7 24 0b 3e 97 4c a8 3d bb d4 cb 3d
       0.01282979 0.13588224 0.08217733 0.099526845
0001c0 63 83 5f 3d f4 73 d6 bb 7e 62 7e bd 4d 0c 77 bd
       0.05456866 -0.0065445844 -0.06210565 -0.060314465
0001d0 28 e1 17 bd 1a 9e ff b8 a2 7c 43 3d 4b 27 0c 3d
       -0.03707996 -0.00012188796 0.04772628 0.03421716
0001e0 a4 bf 0d 3e 14 6e e9 3d 6c fd 09 3e 9a 2e b5 3d
       0.13842636 0.11397949 0.13475579 0.08846779
0001f0 45 90 b5 bd c4 bf 92 bd ba 9b 14 be a2 21 e0 bd
       -0.08865408 -0.07165483 -0.1451253 -0.10943915
000200 64 f1 49 3e b8 54 4d 3e 6e f8 53 3e 66 b2 2d 3e
       0.1972099 0.20051849 0.20700237 0.16962585
000210 f6 bc 96 bd 4d a7 1f bd 2e fa b8 bd 4e 0a 0c be
       -0.0736026 -0.03897791 -0.09032093 -0.13675806
000220 2b 8f dd 3d 19 01 84 3d f1 42 9f 3c 82 38 4d 3c
       0.10818323 0.06445522 0.0194411 0.01252568
000230 33 5e a5 bc 0a c5 2b 3d 28 46 74 bc 4a 09 87 3c
       -0.02018652 0.041935958 -0.014909305 0.016483922
000240 43 67 9e bc b7 9e 80 ba e1 1f d6 bc 76 dc a1 bc
       -0.019336348 -0.0009812926 -0.026138248 -0.019758444
000250 eb 5a d8 bd 70 32 d2 bd 1e 31 46 bc 0a 26 6f b9
       -0.10564216 -0.102635264 -0.012096671 -0.00022806987
000260 ad 4d 97 3c d9 d7 21 3d 46 d3 e8 3b 29 72 ca 3c
       0.018469656 0.03951249 0.007105264 0.024712639
000270 a9 6a 64 3d c4 ed ca 3c 98 de 2e 3c c5 c5 96 3b
       0.05576578 0.024771579 0.010673188 0.0046012127
000280 b4 9b 76 3e df 39 21 3e de 5e 1d 3e 67 b4 61 3e
       0.24082834 0.15744732 0.1536822 0.22041474
000290 63 c3 dc bc 3d d1 7d bd 77 24 08 3d 14 35 97 bc
       -0.026948636 -0.061967123 0.0332379 -0.018457927
0002a0 28 df 92 bc 2e 95 73 3d 41 91 ae bc 1d 17 49 bd
       -0.017928675 0.05946844 -0.021309497 -0.04909431
0002b0 c7 89 8f 3d 81 e1 fc 3d 91 0b 9a 3d f5 36 d9 3c
       0.07008701 0.12347699 0.07521737 0.026515463
0002c0 b2 8a 0a 3e b4 1a 33 3e 22 5e 21 3e 15 d9 8c 3d
       0.1352947 0.17490655 0.15758565 0.068773426
0002d0 11 c1 6c 3e 3b 18 70 3e 10 b1 46 3e c6 eb 51 3e
       0.23120524 0.23446743 0.19403481 0.20500097
0002e0 7c 03 4e 3d e9 3e 19 bd 1c 6b 16 bb 9e cb 28 bd
       0.05029629 -0.03741351 -0.0022952026 -0.04120981
0002f0 2d e0 b4 3d 8a e6 42 3e 92 ba 2c 3d 04 e9 23 3e
       0.08831821 0.19033256 0.042170115 0.16006857
000300 75 88 bb 3d 4a d2 09 3d 5f a8 a3 3c a6 30 93 3d
       0.091568865 0.033647813 0.019977747 0.07187013
000310 29 a6 81 3d 25 04 29 bd 02 fb a1 3c ce d7 78 3b
       0.06330521 -0.04126372 0.01977301 0.0037970426
000320 8c 6a 52 bc 14 66 fc 3c a8 c6 8c 3d db 15 6f 3d
       -0.012842786 0.030810393 0.06873828 0.058370452
000330 6f 2b 82 bd 37 ad 1b 3d cc b5 ef bc ff b2 60 bb
       -0.063559406 0.038006987 -0.029261492 -0.0034286377
000340 bd c4 36 bd bd fc d2 bd 0d 58 26 be 89 e6 9b bd
       -0.044621218 -0.10302112 -0.16244526 -0.076123305
000350 87 d7 3e bd b7 10 3d 3d ba ca ba bc 09 51 1b bd
       -0.04659226 0.04615852 -0.022801746 -0.037919078
000360 e4 df d5 bb 8a 12 2c 3d 9b 45 6e 3d 5c c2 84 3c
       -0.006526934 0.042009868 0.05817185 0.016205959
000370 73 19 10 3e b2 53 0a 3d 45 b3 b5 3c 6d 8a 7b 3d
       0.14072208 0.033771224 0.022180209 0.06141131
000380 a6 8f 25 3e b9 f5 ad 3d 64 5d f1 3d aa 72 cd 3d
       0.16168079 0.084941335 0.11785391 0.10031636
000390 d2 b1 15 3b 76 7a 28 3d b0 87 38 3c 5e 74 3c 3d
       0.0022841585 0.041132413 0.011262819 0.046009414
0003a0 17 5b a3 3d 8f a6 f8 3d 61 59 18 3e 5f a4 8e 3d
       0.079763584 0.121411435 0.14877845 0.06964945
0003b0 3f dd 53 bd 64 c3 bd bd ea 11 9e bd d8 31 47 bd
       -0.05172467 -0.092657834 -0.077182606 -0.04863152
0003c0 90 53 2d 3e 30 54 1e 3e 16 f6 22 3e 8e 4a 5a 3e
       0.16926408 0.15461802 0.15914187 0.21317503
0003d0 ef 7d 1f be 9c cc 1f be 5d 9b 03 be 26 6e e9 bd
       -0.15575384 -0.15605396 -0.12852235 -0.11397962
0003e0 58 40 4b bc e9 f5 2e bd d5 5d d4 3c c6 33 47 3d
       -0.012405477 -0.042714987 0.025923649 0.04863336
0003f0 bf 18 66 bd 37 2c 96 3d 54 13 83 bc 2c 10 68 3c
       -0.056175943 0.07332652 -0.016000427 0.014164012

bias f4 [64]
000000 05 cd ac ba 27 53 4c 3d 52 c5 98 bc a0 4b 7e 3e
       -0.0013183659 0.049883988 -0.018648777 0.24833536
000010 8a 4b 64 3d 8e 77 9e bd cc 27 c4 bb 4b cb 0e 3c
       0.055736102 -0.07737647 -0.0059861895 0.008715461
000020 c5 e4 79 3e 49 0f 6e 3d 60 3e 83 3c 5d d1 9b 3c
       0.24403675 0.058120046 0.016020954 0.01902073
000030 76 2f c2 3c 92 6b 3f 3e 1b 73 e1 bc fe cd 42 3d
       0.023704272 0.18693379 -0.027520707 0.04755973
000040 2a 85 95 3d 36 f2 84 bd d8 b9 c2 bb cf b2 22 be
       0.0730079 -0.064915106 -0.0059425645 -0.15888523
000050 fd d9 24 bc 49 9d d3 bc 4e 91 14 3d 4d 0d 31 bc
       -0.010061738 -0.025831835 0.036271386 -0.010806394
000060 57 cf fc 3b 04 18 ee bb 7b b2 cd 3c 28 f8 0e bd
       0.0077151465 -0.0072660465 0.02510952 -0.03490463
000070 20 91 c9 bd c9 ad dd 3c fd 7d 41 be 9a 77 b8 3c
       -0.098421335 0.027060406 -0.18895717 0.022517968
000080 13 a6 56 bd 1e 94 66 3d d4 3c 15 bd 1b 2e 86 bc
       -0.052404474 0.0562936 -0.036434963 -0.016379407
000090 5f 8f 19 3b dc 75 16 3d e0 e6 da 3c 58 93 9b bc
       0.0023431403 0.036733493 0.026721418 -0.018991157
0000a0 b0 93 83 3c b8 a4 d6 bc 92 e0 20 bd 19 1d 4d bd
       0.016061634 -0.02620159 -0.039276667 -0.050076578
0000b0 5a f2 2a 3d 23 c4 3b 3c fb 41 31 be 21 8b e7 3c
       0.04173503 0.011460337 -0.17310326 0.028264584
0000c0 3d 61 0c 38 5f d9 b0 3c 4d 05 46 3d f8 e7 cb bd
       3.346916e-05 0.021588026 0.0483449 -0.09956354
0000d0 b0 c5 06 bd 6f 50 bc 3c f4 da d6 3c d7 26 d0 3d
       -0.032903373 0.022987572 0.026227452 0.10163658
0000e0 be 27 b3 bc e1 cc e6 3c 10 d1 c9 bc e3 f5 94 bd
       -0.021869536 0.028173866 -0.024635822 -0.07273462
0000f0 f4 ad 54 3d 81 b7 27 3d 78 2b d9 bc 06 19 0d bc
       0.051923707 0.040946487 -0.026509985 -0.008611923
