output/binaire-0/unet_tgs_salt.pth (torch, 245783 bytes, 25 tensors)

weight f4 [16, 3, 2, 2]
000000 ba 85 81 be ea 24 86 3e 8d 73 92 3e 2d cf 5a be
       -0.25297338 0.26200038 0.28603783 -0.21368094
000010 da fc 92 3e 62 aa 37 3e d4 0f 7d 3e 2f cf 8b 3e
       0.28708535 0.1793609 0.24713069 0.27306506
000020 27 a9 b8 bd 8b 87 47 3e 80 1d 10 3d 13 4d 5e 3b
       -0.09016638 0.194853 0.035184383 0.0033920452
000030 37 24 79 bd 20 ae 40 3e b8 ec 1f bd f5 3c cc 3d
       -0.060825553 0.18816423 -0.039044112 0.09972564
000040 b2 b5 5c 3e 36 f7 63 be 92 cd 03 bc 5d 04 1d 3e
       0.21553686 -0.22262272 -0.008044617 0.15333696
000050 f4 75 6a be 27 a8 ca bd 3e 23 91 be 9d ca 90 3e
       -0.22896558 -0.09895354 -0.283472 0.28279582
000060 df 85 91 be 8a 78 8e 3e a7 8f 94 be 27 47 20 3e
       -0.28422448 0.2782634 -0.29015848 0.15652142
000070 23 25 07 be 68 9f f1 bb b4 7e f9 3c 60 63 66 be
       -0.1319776 -0.007373739 0.030455925 -0.22498846
000080 c0 8f 6a be 53 1e 71 3d 2a 0e 46 be 42 fd c5 bc
       -0.22906399 0.05886681 -0.1934134 -0.024168614
000090 b5 0c 1f 3e 64 1b 08 bd 54 3c e6 bd 68 6e 8e bc
       0.15532191 -0.033229247 -0.112419754 -0.01738663
0000a0 ad 3e a4 3c 96 33 5b bd 5e a3 ca bd 5f 02 c1 bd
       0.020049417 -0.053515993 -0.09894441 -0.094242804
0000b0 8b 94 54 3e e1 8e a6 bc 16 d3 4d be 55 16 27 3e
       0.2075979 -0.020331802 -0.20100054 0.16317113
0000c0 5a 96 8c be 4d 6a 3f be d3 2d 56 3d 5c da 36 be
       -0.2745846 -0.18692894 0.052289795 -0.17856735
0000d0 6a c5 f9 3d f9 37 65 be a8 d0 91 be 1e 65 65 be
       0.12195857 -0.22384633 -0.28479505 -0.22401854
0000e0 a6 34 a6 bd 30 97 28 be ac 83 d8 3d 15 6b 95 3e
       -0.08115511 -0.16463923 0.105719894 0.2918326
0000f0 d2 b9 9b bc e4 f9 46 be d3 87 b6 bd 6f 65 7b be
       -0.019009504 -0.19431263 -0.08912625 -0.24550413
000100 e0 79 64 be 53 d0 56 be 4f da e1 3d 06 66 2a 3e
       -0.22312117 -0.20977907 0.11027967 0.16640481
000110 08 7f 15 bd 96 d3 52 be 50 3f 02 be 3d 68 93 3e
       -0.0364981 -0.20588526 -0.12719464 0.28790465
000120 79 63 1a be 6b 1b eb bd bb 75 af 3d d8 7c a6 bc
       -0.15077008 -0.11479839 0.08567377 -0.020323202
000130 92 79 03 3e fc a7 0f be 56 3b 4a be 62 8d d5 bd
       0.12839344 -0.14028925 -0.19749197 -0.10427357
000140 7b f6 e2 3d ce 48 7b 3d b5 f2 81 3e c4 c7 44 be
       0.11082169 0.06134873 0.25380483 -0.1921683
000150 75 0a 81 3e d6 44 a5 bc e6 44 3a 3e 90 02 4e 3e
       0.2520329 -0.020174425 0.18190345 0.20118165
000160 9d 78 6a be 95 25 82 3e 99 1d 04 3e a1 e0 90 bd
       -0.22897573 0.25419298 0.12901916 -0.070740946
000170 71 ab ba 3c 52 62 82 3e ff 85 86 be fe 68 56 be
       0.022786828 0.25465637 -0.26274106 -0.20938489
000180 97 e2 04 3e 54 60 26 3e 39 05 a5 be 6f c8 b4 bd
       0.12977062 0.16247684 -0.32230547 -0.08827292
000190 0e 5a 09 be 12 4a 4c 3e 99 92 b6 bd 7d 86 fc 3d
       -0.1341326 0.1995013 -0.0891468 0.12330339
0001a0 b7 97 29 3d d6 f3 44 be 87 fe 10 3d 22 bc 60 bd
       0.041404452 -0.19233641 0.035398986 -0.054866917
0001b0 1f 33 37 be 88 1c dc bd a9 d2 92 3e 42 45 8d 3e
       -0.17890595 -0.107476294 0.28676346 0.27591902
0001c0 e7 ec fa bd ef 61 c9 bc f1 c6 91 3e be c9 05 be
       -0.12252217 -0.024582831 0.28472093 -0.1306524
0001d0 8e 36 71 3d c7 27 50 3e d4 47 67 bd e9 92 25 be
       0.058889918 0.20327674 -0.056464985 -0.16169323
0001e0 42 69 b1 3d 1d 78 04 be 47 f1 86 3d 4e 86 65 3e
       0.086626545 -0.12936445 0.06588989 0.22414514
0001f0 76 91 34 3e b4 e3 8e 3e 95 14 9a bd 9d 40 29 be
       0.17633614 0.279081 -0.07523457 -0.16528554
000200 08 c5 d8 3d 85 f5 eb 3c e4 4f 5b 3e 38 2b 52 3e
       0.10584456 0.028803596 0.21417195 0.20524299
000210 6c b6 38 be 94 a1 e8 3d f0 62 be 3d f1 21 07 3e
       -0.18038338 0.113589436 0.092962146 0.13196541
000220 e1 b2 10 3e b5 f2 1c 3e 01 b4 dc bc d7 0f 71 be
       0.14130737 0.1532696 -0.026941301 -0.23541199
000230 67 4a 75 be e6 ae 81 be c0 05 3a bc 9d 92 a9 bd
       -0.23954163 -0.2532875 -0.01135391 -0.082799174
000240 47 69 25 be 6f 9d 3b 3e d1 39 19 be 12 8f 5a 3e
       -0.16153441 0.18321775 -0.14963461 0.2134364
000250 c1 e9 46 3e d8 d1 09 be 56 64 7a be d6 33 68 be
       0.19425108 -0.13458955 -0.24452338 -0.22676024
000260 a8 45 5c 3e b3 2a 31 bd 0c 5e 26 bc d2 ac 83 be
       0.21510947 -0.04325361 -0.010154258 -0.2571779
000270 ca f6 28 3d 43 f1 1b bd 61 05 43 3e 6b 37 45 bc
       0.04125098 -0.038071882 0.1904502 -0.012037138
000280 db 34 31 3e 1f bf 35 be 25 a9 95 3e b7 c4 85 3d
       0.17305319 -0.17748688 0.2923061 0.06531661
000290 35 57 32 bd 04 c5 b4 bd 37 73 27 be c2 da 66 bc
       -0.0435402 -0.0882664 -0.16352545 -0.014090242
0002a0 83 a9 8a be 88 18 21 3d a3 0e 05 3e 3e d4 78 3e
       -0.27082452 0.039330035 0.12993865 0.24299714
0002b0 99 6c 5c 3e 93 f4 d4 3c 66 c5 87 bd 4d a8 48 3e
       0.21525802 0.025995528 -0.06629448 0.19595452
0002c0 ee 2a cc bd cd 71 7f bd dc 68 50 3e f7 59 7f be
       -0.09969126 -0.06236439 0.203525 -0.24936663
0002d0 27 9c 32 3e 5d 32 39 3e 0f 16 08 be 0d 30 0c 3e
       0.1744238 0.18085618 -0.13289665 0.13690205
0002e0 2b c7 c4 3d 12 10 05 be 8a f5 e4 bd ef cd fc 3d
       0.09608301 -0.12994412 -0.11179645 0.12343966
0002f0 ed c5 36 3d 7a 14 51 bd df 34 79 3e c0 6b 26 be
       0.04462235 -0.05104492 0.24336575 -0.16252041

bias f4 [16]
000000 1b d3 41 be 0d 8b 3d 3e cf 51 97 3e be 4f 5e 3d
       -0.18928187 0.18510075 0.29554603 0.054275267
000010 34 42 a3 3c 61 4e 84 be 85 d4 86 3e 0f 19 39 be
       0.019929029 -0.25841048 0.26334015 -0.18075965
000020 d3 51 7d 3e 0d ef 48 3e 38 f4 0a be f9 ba 59 3e
       0.24738245 0.1962244 -0.13569725 0.2126273
000030 48 87 13 3e 98 9d 8a 3e 9c be 12 3e a4 c6 a9 bd
       0.14407074 0.2707336 0.14330524 -0.08289841

weight f4 [16, 16, 2, 2]
000000 c8 c4 0a 3c 98 fe da bd 5b 76 6d 3c a2 3e ce 3c
       0.008469768 -0.10693091 0.01449355 0.02517635
000010 01 af 8f 3d 52 fc 83 bd cb 8d d0 bd 0f c7 75 3d
       0.07015801 -0.06444611 -0.10183295 0.06000429
000020 34 eb cf bc b5 b6 05 3c a9 7f c9 bd 9a cb 22 bd
       -0.025380708 0.0081612365 -0.09838802 -0.03974495
000030 2f 75 cd bd 64 7f 62 3d 53 01 e9 3d 74 fa a4 bc
       -0.100321166 0.05529727 0.11377206 -0.020138957
000040 70 83 f5 3d 8c 8f 0d bd 76 59 7d bd 16 f5 d1 bd
       0.1198796 -0.034560725 -0.061852895 -0.102518246
000050 f8 8e 95 3c 00 32 03 ba f6 76 df bd 64 69 12 3d
       0.01825665 -0.0005004704 -0.10911362 0.03574504
000060 2a e1 db 3d f9 7b 75 3d 05 33 00 3e 83 54 0e 3e
       0.10736306 0.059932683 0.12519462 0.13899426
000070 6a 31 d4 bd 8a ff d1 3c e0 1d 18 3d b4 6d be 3d
       -0.103609875 0.025634546 0.037137866 0.09298268
000080 44 eb 3a bd f2 05 d0 3d ae 3c c0 bc b5 49 b5 bd
       -0.045634523 0.10157384 -0.023466434 -0.08851949
000090 9e f4 6d bd 5a 93 ac 3d 6d 65 af 3d 2d 5d 2b 3d
       -0.058094613 0.084265426 0.08564267 0.041836906
0000a0 d2 07 58 3d a9 a2 8e bd 0f 13 d8 bd 22 27 01 be
       0.052741833 -0.06964619 -0.1055051 -0.12612584
0000b0 cf 52 c2 bd 14 36 3c 3d 75 46 a4 bc a0 75 69 3c
       -0.09488451 0.04595001 -0.020053128 0.014249235
0000c0 13 dc 63 3c a8 fb 2e be 46 98 97 bd 2f d8 42 bd
       0.01390745 -0.17088187 -0.07402091 -0.04756945
0000d0 4d a4 c6 3d 8c 47 90 bd 06 00 00 bd 56 6e cc 3d
       0.09699307 -0.070448965 -0.031250022 0.099819824
0000e0 49 ab da bd 1b 01 5d bd ce 06 da bc 9e c1 78 bd
       -0.10677201 -0.053956132 -0.026614573 -0.060731523
0000f0 d2 e7 cc 3d 7c 4a b2 3d 7b 2f 94 3d cd 4e f0 3d
       0.10005154 0.08705613 0.07235619 0.1173378
000100 14 ec 9e 3d b1 ea 06 3e da e0 76 3d ea b1 9e 3d
       0.07759872 0.13175465 0.06027303 0.07748778
000110 c6 ea 74 bd 4f e8 35 3d 21 50 84 3d fd c5 81 3c
       -0.05979421 0.044411 0.06460596 0.015841478
000120 4b 30 3b 3d 31 9b 2c bd 14 da ba 3c d7 fc 25 be
       0.045700353 -0.04214019 0.022809066 -0.16209732
000130 da ab cc bc 4f 3a a0 bc 27 0a 90 bd 03 94 b5 3d
       -0.024984289 -0.019559054 -0.070331864 0.088661216
000140 27 00 ad 3a bc 76 0c bd 9a 2b 0e be 37 2a 2a bd
       0.0013198898 -0.03429292 -0.1388382 -0.041544165
000150 0a 41 8e 3d c8 67 88 bc 14 29 ca bd 7c b5 9c bd
       0.06945999 -0.01665105 -0.09871116 -0.07651803
000160 bd a6 df bd db f7 cf 3c a0 92 51 3d c7 4c df bd
       -0.10920475 0.025386741 0.051165223 -0.10903316
000170 44 e8 3e bc 50 d9 34 3c 8b 55 9d 3d 0b d1 12 bd
       -0.011652056 0.011038139 0.07682332 -0.03584389
000180 a0 21 a4 3d 28 0f 0b bd e5 04 17 3b 18 4d 8d bd
       0.08014226 -0.03395 0.002304369 -0.0689947
000190 ec 69 ce 3d c3 68 48 3d db db ad 3c 30 24 e3 bc
       0.10078797 0.048928034 0.021223 -0.027727216
0001a0 0c d3 e6 3d e8 3f 88 3d 87 15 13 3e 83 80 56 3d
       0.11270723 0.06652814 0.14363681 0.052368652
0001b0 00 81 e6 3c 1d 55 d9 bc 56 b3 aa bc 78 71 28 3d
       0.028137684 -0.026529843 -0.020837467 0.041123837
0001c0 e8 14 d7 bc 17 26 5c be fb 40 a4 3c d0 a2 fc bc
       -0.026255086 -0.21498905 0.020050516 -0.030839354
0001d0 25 ef 02 bd ce 9d 81 3d 8c 8c 8c bc 54 ea 99 3d
       -0.031966347 0.06328927 -0.017156862 0.07515398
0001e0 a3 c7 07 3e f0 75 04 3e a4 b6 60 3d f0 0a 62 3d
       0.13259749 0.12935615 0.05486168 0.055186212
0001f0 c8 c5 e6 bb a4 65 a6 bd da 78 e5 3d cc 8b a6 bd
       -0.0070426203 -0.08124855 0.11204691 -0.08132133
000200 02 29 8e bc ee bf da 3c bc 69 13 3e 82 c3 f3 3d
       -0.017353538 0.026702847 0.14395803 0.119025245
000210 a4 a2 9d 3d cb 76 8d 3c 47 20 eb 3d 2c 74 f2 bd
       0.07697037 0.017268559 0.11480766 -0.11838564
000220 a2 fe 58 3d 2a 87 eb 3a a3 da f9 bd 25 a7 35 be
       0.05297721 0.0017969359 -0.12199905 -0.17739542
000230 cb e3 01 3e 0b 8b d9 3d e5 a8 ce 3d c5 ff 12 3e
       0.12684552 0.106222235 0.10090808 0.14355381
000240 b7 36 8d bd 33 8f bc 3d 31 19 89 3b c7 99 27 bd
       -0.06895202 0.092070006 0.0041839113 -0.040918138
000250 20 87 84 3b 70 61 33 bc 38 47 88 3d b4 56 53 3d
       0.0040444285 -0.010948524 0.06654209 0.05159636
000260 9f 2d 9e bd ac 1e 7c bd 0b 4a a7 3d 91 77 4d 3d
       -0.07723545 -0.06155269 0.081684195 0.050162856
000270 62 06 73 3c 92 12 0e 3e b9 4f 3e bd be f5 9f bc
       0.014833065 0.13874272 -0.04646275 -0.019526359
000280 0f 1f 85 bd 33 bb 9c bc e6 dd db 3d e8 f8 cf 3d
       -0.065000646 -0.019132232 0.10735683 0.10154897
000290 07 b2 44 3d 81 d0 5a 3d a8 26 96 3d 5e 0b f0 bc
       0.048021343 0.0534215 0.07331592 -0.029302295
0002a0 cf 01 2b 3d b3 2c 19 b8 6b 37 15 bd da 07 8b bc
       0.04174977 -3.6519672e-05 -0.036429804 -0.016971517
0002b0 34 79 46 bd a9 9e 62 3d 91 bc 4f bd 8c 54 5c bd
       -0.048455432 0.05532709 -0.05071694 -0.053791568
0002c0 e3 6d 19 be b6 da 3f bd 91 32 f0 bd 2e b4 25 bd
       -0.14983325 -0.04683944 -0.11728395 -0.040455036
0002d0 2a be df 3d 2d 82 c5 3d 4c 02 16 3d 90 33 e7 3d
       0.10924943 0.0964397 0.036623284 0.11289132
0002e0 88 76 66 bc 13 4a bd bd 33 2b b6 3d 74 9c f8 3d
       -0.014066346 -0.09242644 0.08894958 0.12139216
0002f0 6f c5 b0 bc af 3e 94 3d 68 c8 f5 3d 69 fc 28 bc
       -0.021578519 0.072385184 0.12001115 -0.0103140855
000300 50 0d 66 3d e6 93 9c 3c 5e fd a4 3c ce de 6c bd
       0.05616504 0.019113492 0.020140346 -0.05782967
000310 f5 46 15 bd 94 58 d2 3c 6c b7 3f 3c 98 19 45 bc
       -0.036444623 0.025677003 0.011701446 -0.012030028
000320 5e a7 30 bd 38 2d 8f 3c 85 4d 04 3e 96 8d 37 3d
       -0.043128364 0.017477617 0.12920196 0.04481276
000330 70 de da 3d 44 be 4d 3d 0d ab 7a 3c ad 7b cf 3d
       0.10686958 0.05023028 0.015299571 0.10131011
000340 10 72 66 bd 14 bd d8 3d 53 7c fc bd 8e 30 ac bd
       -0.056261122 0.10582939 -0.123284005 -0.084076986
000350 5c dd 38 3d c8 ea f6 3d 68 8c 42 bd e4 6d 87 3d
       0.04513298 0.120565 -0.047497183 0.06612757
000360 db db d7 3d 52 d4 a9 39 68 4b 02 3d 04 01 b7 bd
       0.10539981 0.00032392383 0.031810194 -0.089357406
000370 c4 ba 95 3c 9f a5 e0 3d eb b1 8d bd e5 76 56 bd
       0.018277533 0.1096909 -0.06918701 -0.05235948
000380 03 f8 ac bd 75 fb 9d 3d 1c 45 f9 3d b8 85 5e bc
       -0.08445742 0.07713977 0.12171385 -0.013581686
000390 38 26 a7 bd 93 3c 58 3d b5 42 b8 3d c3 ed 25 3d
       -0.081615865 0.052792143 0.08997098 0.04050995
0003a0 ec c3 6e ba 80 cd 24 3e 56 b4 8b 3d 08 9c b5 3d
       -0.0009108174 0.16094017 0.06821506 0.08867651
0003b0 b1 88 d8 bd ae 94 d5 3d 4f e6 0f bd f8 11 dd 3d
       -0.10572947 0.10428749 -0.03513175 0.10794443
0003c0 62 66 0d 3d 1f 84 39 3e e7 ff 8e 3e a8 94 8e 3e
       0.034521468 0.18116806 0.27929613 0.2784779
0003d0 2b 87 57 3d 2e 85 f0 3d 9d 86 ad bd 76 aa 51 bd
       0.05261914 0.11744152 -0.08472941 -0.051187955
0003e0 85 5c 0b 3d fa f7 6e bd 68 69 3f 3d 64 43 71 3b
       0.03402378 -0.058341958 0.046731383 0.003681385
0003f0 a4 eb 94 bd d9 ab 9e 3d 37 1e 61 3d 0e 80 73 bd
       -0.072715074 0.07747621 0.054960456 -0.059448294

bias f4 [16]
000000 a5 d8 90 3d a1 a9 cf 3c 61 fc 97 bd 04 85 92 bd
       0.07072572 0.02534944 -0.07421184 -0.07154277
000010 24 7a c1 3d 79 3f 4d 3c 32 3b 5d 3d ac 7b 09 be
       0.094471246 0.01252734 0.05401153 -0.13426083
000020 a9 fc 42 bd 8e 6c 94 bd c0 9c b5 3d 21 c2 c7 3d
       -0.047604237 -0.07247268 0.08867788 0.09753824
000030 17 16 51 3d a5 32 3a 3d bd 34 2c 3d 34 4a 8d 3d
       0.051046457 0.045458455 0.042042483 0.06898919

weight f4 [32, 16, 2, 2]
000000 81 67 cb bd d8 44 c9 3d 08 d0 80 bc 77 1e 63 3d
       -0.09931851 0.09827584 -0.015724197 0.055448975
000010 4e b4 d6 bd 61 93 ca bc 74 b6 6e 3c ff 2f a3 bd
       -0.10483609 -0.024728479 0.014569867 -0.07968139
000020 85 8a d7 bc 05 cd 86 3a f5 80 83 bd 7c ad f2 bd
       -0.026311168 0.0010284489 -0.06421081 -0.11849496
000030 38 fe 03 bd f3 56 53 bd d0 76 66 bb 70 99 ee bc
       -0.032224864 -0.051596593 -0.0035166033 -0.0291259
000040 06 5e d3 bd de 8d af 3d 7c 78 de 3b 97 e9 ec 3d
       -0.10320668 0.08571981 0.006789265 0.11567991
000050 98 95 03 be 10 e0 14 be 59 d0 6f bd 05 e4 2b be
       -0.12850034 -0.14538598 -0.058548305 -0.16786201
000060 ce d0 bb 3d e6 83 ad bd 9e 3f 9d 3d e5 ae 8b bd
       0.09170686 -0.08472423 0.0767815 -0.06820468
000070 0b 47 f7 3d 8e 56 08 bc 6c 01 40 bd 91 05 82 bd
       0.12074097 -0.0083214175 -0.046876356 -0.06348718
000080 77 4e 41 3d 5b 24 d6 bd 37 77 7f 3d 58 94 dd 3d
       0.04719397 -0.10456153 0.06236955 0.1081931
000090 8a 3f 01 bd e0 ee e4 bd 73 28 77 bd b2 1d d9 3c
       -0.031554736 -0.11178374 -0.06034131 0.026503418
0000a0 53 a3 86 3c 5a ac 8b bd 3a 81 88 bd 47 0d ca 3d
       0.016435301 -0.06819983 -0.06665273 0.09865814
0000b0 9a 39 f9 3c ea 8f 42 bd 4b 6e b1 bd 35 11 c8 3d
       0.030422974 -0.04750053 -0.08663615 0.09768907
0000c0 7e 85 ea bd 4a bf eb bd fc d4 bb bd ec 16 d8 3d
       -0.11451243 -0.11511095 -0.09171483 0.10551247
0000d0 ea 6a 24 3d 8a f0 97 bd de d6 5b 3d 6a 52 aa 3d
       0.040141024 -0.07418926 0.05367171 0.083165005
0000e0 06 d3 58 3c eb 9d ec 3d 5a 31 a1 bd 23 02 f3 3c
       0.013233906 0.11553558 -0.07870741 0.029664105
0000f0 07 0c 01 bd 14 20 6b 3d e8 bd 3c 3c 3e 06 79 bd
       -0.03150561 0.05740364 0.011519887 -0.06079697
000100 90 e2 4c 3d 19 3e b4 3d ad e3 ca 3d 8f 35 d4 3d
       0.050020754 0.08800907 0.09906707 0.10361778
000110 84 24 ad 3d 62 5d 36 3c 96 d7 a5 bd f0 bf 38 3d
       0.084542304 0.011130663 -0.080977604 0.04510492
000120 a2 fa 1d 3d 46 6a a0 3d 99 c5 e4 3d 93 dc de bc
       0.0385691 0.0783277 0.11170501 -0.027204787
000130 2d c1 f4 bc 4e 71 05 bc ab 86 2f bd 1e d3 e7 bd
       -0.02987727 -0.00814469 -0.04285304 -0.11319564
000140 ff 79 d2 3d 76 e4 64 bd c6 28 d2 bd d4 a8 ec bc
       0.10277175 -0.05588194 -0.10261683 -0.028889097
000150 81 78 39 3d 83 d1 cf bd 38 cf 7c 3d de 85 08 be
       0.045280937 -0.10147383 0.061721057 -0.13332316
000160 d4 4c af 3c 09 73 24 bd ca 5c 4c bc 54 6d 2e 3c
       0.02139894 -0.04014877 -0.0124732945 0.010646183
000170 23 47 0d be f3 ad ac 3d 20 2c ee 3c d5 f7 86 3b
       -0.13796668 0.08431616 0.029073775 0.0041188993
000180 ba 3a 51 bb b5 2e 06 be 2b df 08 be 77 76 5c bd
       -0.0031925873 -0.13103755 -0.13366382 -0.053823914
000190 c5 5a 88 3d 53 63 c6 3d 68 e2 7a bc 7e 38 ca 3d
       0.06657938 0.09686913 -0.0153127685 0.09874056
0001a0 48 12 ca bd 46 03 65 bd 34 a6 58 3d 71 15 d1 bd
       -0.09866768 -0.055911325 0.05289288 -0.10209168
0001b0 f0 e2 b6 3d 0b b3 9c 3d 84 2b a6 bd 5e f1 cf bb
       0.08930004 0.07651337 -0.08113769 -0.006345912
0001c0 c5 f8 e7 bd ef 1a fc bc 0b 54 0b 3d 57 58 e8 3d
       -0.11326746 -0.030774562 0.034015696 0.113449745
0001d0 b4 b6 02 be 2f fd d3 3b ae ed 13 be 6b cf 1e bd
       -0.12765008 0.006469391 -0.14446136 -0.038772028
0001e0 6e 3d 9c 3d 33 39 a3 3d 03 76 cf bd ed 3e 3c bb
       0.07628904 0.07969894 -0.10129931 -0.002872403
0001f0 15 16 06 bd f8 64 b5 bd 25 68 b2 bd 7e 58 ec bc
       -0.032735903 -0.08857149 -0.0871127 -0.02885079
000200 7f 8a 1f be bf b8 b8 bd 8c 98 b8 bd 0d 28 04 3c
       -0.15580176 -0.090196125 -0.09013471 0.0080661895
000210 84 90 21 bd 94 fd ba bd 81 64 44 3c b6 ba ca 3d
       -0.03944446 -0.091303974 0.011986853 0.098988935
000220 af 35 8f bd 13 0b 81 bc ea 20 30 3d ef 52 05 bd
       -0.06992661 -0.01575235 0.04300014 -0.032549795
000230 b1 fb 3b 3d d5 7b 0d bc 12 bb 8e 3d bc de 18 3c
       0.04589433 -0.008635481 0.069692746 0.009330448
000240 7b a8 ae 3c a9 42 5f bd 4f 1f 4b 3d d1 ed a6 3d
       0.021320572 -0.05450693 0.049590405 0.08150829
000250 dd 07 62 3d aa ad 06 bd 9a 58 62 bd a5 87 fc bc
       0.05518328 -0.032880463 -0.05526028 -0.0308264
000260 de ae a1 3d fc 90 f2 bc fb 93 b1 bd 5b f3 48 3d
       0.078946814 -0.02961015 -0.08670803 0.049060207
000270 17 e9 71 bb 91 48 9c 3d c6 6f d8 3d 11 cf d6 3d
       -0.0036912614 0.076310284 0.10568194 0.104887135
000280 49 5c 5c bd 36 14 c4 3d bc 58 b2 3d 0d 78 d3 bc
       -0.053798947 0.095741674 0.08708331 -0.02581408
000290 6c 0c 87 bc 9d 11 9b bd a6 cb 8d 3c f0 21 36 3d
       -0.016485415 -0.07571719 0.017309021 0.04446596
0002a0 74 64 47 bd f4 eb eb bd e6 27 d9 3d 99 3c cd 3d
       -0.048679784 -0.11519614 0.10603313 0.10021324
0002b0 36 c2 95 bd 8a 6a 17 3d 62 1c 1b 3d 72 f8 2b 3c
       -0.073124334 0.036966838 0.037868865 0.010496246
0002c0 cb a7 13 bb a8 42 c1 3d 39 6a ce bc 21 c9 a3 bd
       -0.0022530432 0.09436542 -0.025197135 -0.07997347
0002d0 97 ff b4 bd cf 22 ca bd 96 db 94 bd 71 ca da 3d
       -0.088378124 -0.098699205 -0.07268445 0.10683144
0002e0 3d 90 cf 3d d8 9c b1 bc 94 60 6b bc bd 29 b0 3d
       0.10134933 -0.021681234 -0.014366288 0.08601711
0002f0 56 88 be bd 91 6a 02 bd 67 92 b0 3d 6e a5 c3 bd
       -0.09303348 -0.03183991 0.08621674 -0.095530376
000300 0a 47 ea 3d ae 31 30 bd 2c d2 14 3c 6c fb 00 3e
       0.11439331 -0.04301613 0.009083312 0.1259591
000310 71 0b d0 3d 4b d6 ce bd bc 7d f1 3c de 73 8b bd
       0.10158432 -0.10099467 0.0294789 -0.06809209
000320 1a 0a 1a 3d 87 38 2e bd ee f4 ad 3c 12 32 ec 3d
       0.03760729 -0.042534377 0.021234956 0.11532988
000330 aa 95 09 3b ba c7 8a bd f8 5c 0e 3e 88 56 6c bd
       0.0020993748 -0.06776376 0.13902652 -0.05769971
000340 d3 aa d8 bd 31 db b2 bc 7a f4 9e 3c 9d b8 0f 3c
       -0.10579457 -0.021833034 0.019403685 0.008772043
000350 98 db 93 bd 9c fa 14 3c 79 8c 95 3d b2 e8 56 bc
       -0.072196186 0.009092953 0.07302184 -0.013117002
000360 97 2c 14 3d 5b 31 0a be 9f dd 7b 3d 86 ed 8d 3c
       0.036175337 -0.1349539 0.06149065 0.017325174
000370 6a 9f 28 bd 16 ea ca 3d ef 31 99 3d e5 1b 80 bd
       -0.041167654 0.099079296 0.07480227 -0.062553205
000380 97 1d 85 3d b2 1f 23 3e 1d 82 25 3e 64 83 2d 3e
       0.064997844 0.1593006 0.16162916 0.16944653
000390 df 79 b0 3d 72 7d 26 3d 66 59 1c bd ab 0f 65 3d
       0.08616995 0.040646978 -0.038171194 0.055923145
0003a0 be e6 82 3c 6f 97 ce bd f7 8a b5 bc 4a 2f db bd
       0.015979167 -0.100874774 -0.02216099 -0.10702379
0003b0 df ab 26 3c 0c ef 5b bd 83 db 42 3d ce c4 08 3c
       0.010172813 -0.05369477 0.047572624 0.008347703
0003c0 98 08 2f 3c 0c c8 f7 bd ea 3a 21 bd a2 51 9e 3a
       0.010683201 -0.12098703 -0.039362825 0.0012078772
0003d0 ce 5b 88 3d 4b 70 07 3e df a9 6b bd 80 e8 74 3c
       0.06658135 0.1322643 -0.05753505 0.01494801
0003e0 b7 26 af 3d 53 0e 05 3e 16 24 f4 bd 07 c7 8b 3d
       0.08552306 0.12993746 -0.11920945 0.06825071
0003f0 23 55 e2 3d ad 83 a1 bd 3f 4b 90 3d 9c 87 a9 3d
       0.11051395 -0.07886443 0.07045602 0.082778186

bias f4 [32]
000000 32 4c e4 3d a2 51 a4 3c 4f 61 a4 3c c6 97 c2 3b
       0.111473456 0.020058457 0.020065932 0.005938503
000010 7e 5e ff 3c a4 8e e4 3d 68 ae 26 bd 03 f3 ad bd
       0.031172987 0.11160019 -0.04069367 -0.084936164
000020 b6 21 78 3d 1d b3 bd bd c6 50 8c bd 0a 84 bc 3d
       0.060579024 -0.09262679 -0.06851344 0.09204872
000030 74 ce 2f 3d 55 8a 18 3d c2 67 86 3c ab 28 d0 3c
       0.0429215 0.0372413 0.016406897 0.025410017
000040 82 42 f1 bd 4f 50 31 bd ea 13 8b 3b ac d7 75 3d
       -0.117802635 -0.04328948 0.0042443173 0.060020134
000050 c7 73 66 bd 5b df 01 be e4 1a 9b 3d b3 4c d2 bd
       -0.056262758 -0.1268286 0.07573488 -0.102685355
000060 6f 50 e3 3d af c3 2f bd eb 66 59 bc 5a 69 9d 3b
       0.11099326 -0.042911228 -0.013269166 0.0048038187
000070 81 fb a8 3d 45 fa fb bc df e8 05 be 30 f1 12 bd
       0.082510956 -0.030758986 -0.13077115 -0.035874546

weight f4 [32, 32, 2, 2]
000000 54 7d 2b 3d 55 c4 e6 3a 5b f1 af 3c 86 3b ab 3d
       0.04186757 0.0017606119 0.021477392 0.083609626
000010 ed bd a1 bd 5c bf 42 bd 58 43 3a bd c4 1d 99 3d
       -0.078975536 -0.047545776 -0.04547438 0.074763805
000020 63 ab a3 bc b8 54 a9 bd 2b cf 83 bd 5d dd 25 3c
       -0.019979184 -0.08268112 -0.064359985 0.010123578
000030 d4 e4 f2 bd bf 0e a6 bd f4 09 cf bd 0e e0 c0 bd
       -0.11860052 -0.08108281 -0.1010932 -0.09417735
000040 ea 69 22 3c 21 19 db 3c 63 d6 7c bd 33 e1 7a bd
       0.009912947 0.02674538 -0.061727893 -0.061249923
000050 50 d2 39 bd c5 0e 9e bc 98 c4 3e bd 3c f5 5b 3d
       -0.045366585 -0.019294152 -0.046574205 0.05370067
000060 ba f4 56 3d 0c b0 b9 3d b7 23 b4 3c f0 17 5a bd
       0.052479483 0.090667814 0.021989686 -0.053245485
000070 e8 75 17 bd 9a dd 11 bd 7b 4e 20 3c 3a a6 e3 3c
       -0.03697768 -0.035611726 0.009784336 0.027789224
000080 eb dc 84 bc 4c 55 5e bc 90 c7 21 3d 6f 3c 3b 3d
       -0.016218623 -0.013570141 0.03949696 0.04571193
000090 98 57 a2 bc bf cd 15 3d c2 15 33 bd b9 6e 18 bd
       -0.019817159 0.036573168 -0.04372192 -0.03721497
0000a0 47 f2 38 3b 61 d4 69 bd ae 59 40 bd f4 46 b0 3d
       0.002822058 -0.057087306 -0.046960525 0.08607283
0000b0 e5 c0 c9 3d 71 9b bc 3c 69 eb c7 3b 53 a0 ed 3d
       0.09851245 0.023023339 0.006101061 0.11602845
0000c0 02 29 86 bd 96 7a 2d bd 1d 7c 5b 3d 6c 16 16 3d
       -0.0655079 -0.042353235 0.05358516 0.036642477
0000d0 88 ea 24 3c c5 d4 5a 3c d9 8b b0 3b 29 ba 8a bc
       0.010065682 0.013356392 0.005387765 -0.016934471
0000e0 3f ba 93 bd bf 99 bd 3c 1a 89 6e 3d c6 5d 6a 3d
       -0.07213258 0.0231446 0.05823622 0.057218336
0000f0 8d 55 9b bd 70 90 0a bd 8f 7c 85 3d 13 1f 9f 3c
       -0.07584677 -0.033829153 0.06517898 0.019423997
000100 8f ba 81 3d 12 0b 7c bc 8a ca 23 bc 01 af 9f 3d
       0.06334411 -0.015383499 -0.00999702 0.07797051
000110 8d a5 77 bd 3c 70 da 3b b6 ac 54 3d 91 95 9c bc
       -0.060460616 0.0066662114 0.051922522 -0.019114288
000120 cc 04 88 3d 7d 8e a5 3c d6 3a 44 3d 62 93 24 bd
       0.0664154 0.020209545 0.047907673 -0.040179618
000130 05 9f 31 3d 33 a3 64 bd a9 91 22 3d bf 1f 69 3c
       0.043364543 -0.0558197 0.039689694 0.01422876
000140 7d a7 97 bd 3c 5b 2e 3d c9 fe ca bd 2c b8 df bd
       -0.07404993 0.042567477 -0.09911878 -0.109238
000150 7e 7b 47 bc 75 1d b0 3b c1 38 24 3d 03 74 a2 3d
       -0.012175439 0.0053746053 0.040093187 0.07932284
000160 6a 18 13 bd 96 77 2a 3c cb ff 96 bd 1f 41 98 bd
       -0.035911955 0.010404488 -0.073730074 -0.07434296
000170 bc 90 10 3d fc d4 b9 3b 30 b0 b4 3b 5b 75 f9 bc
       0.03529428 0.0056711417 0.0055141672 -0.030451467
000180 57 87 b5 bc 49 fb 24 bd aa 96 43 3d 24 51 07 3b
       -0.022159262 -0.040278707 0.047751106 0.0020647729
000190 35 af 80 bd db 44 1e 3d 64 d1 69 bc ac 77 b4 3d
       -0.06283418 0.038639884 -0.014271114 0.08811888
0001a0 15 3c 84 bd 4b 7b d6 bd c8 e3 07 be 06 f5 01 be
       -0.06456772 -0.10472735 -0.13270485 -0.12691125
0001b0 77 3f 89 3d fc ed aa 3d 72 fd 3e 3d 7f 7a df 3c
       0.06701558 0.08346173 0.046628423 0.02728009
0001c0 78 8e 61 bc 8d eb 1b bd 21 db b6 3c 69 8c 06 be
       -0.013766877 -0.038066436 0.022321286 -0.131395
0001d0 cf 7e 13 3d b4 ff c0 3c 1e b5 5b bd 17 ef 98 bd
       0.036009606 0.023559429 -0.053639524 -0.07467478
0001e0 73 d7 99 bd c1 e5 61 3c 72 29 89 3d fa 9a 27 3d
       -0.07511797 0.013787688 0.06697358 0.04091928
0001f0 58 3c 84 bd ea 6c e8 3a 13 a9 d9 bb fb ca 9a 3d
       -0.06456822 0.0017732654 -0.0066424697 0.07558247
000200 38 9a 88 bd 00 76 60 bc ef b4 28 ba d0 bd 4b bd
       -0.0667004 -0.013700008 -0.00064356526 -0.049741566
000210 99 5f ff 3c 1d a5 48 3d 5b df 57 bd dd 0d 9c bd
       0.031173514 0.04898559 -0.052703243 -0.07619832
000220 64 45 8d 3d 5b a7 a8 bd 64 30 9e bd 19 bd 99 3d
       0.06898001 -0.082350455 -0.077240735 0.07506771
000230 59 5c 75 bd bb 8d 90 bd a8 b0 a7 bc d2 06 72 3d
       -0.059902523 -0.07058283 -0.020469978 0.059088536
000240 cd 33 d7 3c b3 dc 7f bd 32 ab f8 3c 17 6f ad 3b
       0.026269818 -0.062466335 0.03035507 0.005292784
000250 36 6b a9 bd 3c ef 39 bd d9 13 08 bd 69 5b 1c 3d
       -0.08272402 -0.045394167 -0.033222053 0.038173113
000260 4e fb 30 bd 7d c2 7c 3d 04 49 57 bd e8 9f 6d bd
       -0.043208413 0.061708916 -0.052559868 -0.058013827
000270 ef df 80 3d 5d 53 9f 3d db 32 b8 bd b0 c8 ad 3c
       0.06292712 0.07779572 -0.08994075 0.02121386
000280 f2 68 87 3d c1 7a 10 3d 5b 9d b0 39 1b 59 98 bd
       0.066118136 0.035273317 0.00033686575 -0.074388705
000290 fb 6a 75 bd 82 0c 16 3d a6 19 05 bd 03 f4 d5 3d
       -0.059916478 0.036633022 -0.032495163 0.10446932
0002a0 f9 f1 33 bc d4 7f a9 3d 64 ac b7 3b 5b 74 2e bd
       -0.010982984 0.082763344 0.0056052674 -0.042591434
0002b0 83 6f 10 3d 1c 68 46 3d f6 80 9c 3d e3 8b 85 bc
       0.035262596 0.04843913 0.07641785 -0.016302055
0002c0 70 98 9d bd 78 7a a3 3c b5 65 fc bc 03 a8 26 bd
       -0.07695091 0.019955859 -0.030810216 -0.040687572
0002d0 d3 e1 be bc 43 42 84 bd b9 53 29 3c 77 8d 33 3d
       -0.02330104 -0.06457951 0.010334902 0.043836083
0002e0 6a 1b c3 3c 3f 97 74 bd 9a 8b 7c 3d 12 1b 31 bd
       0.023816783 -0.059714552 0.061656572 -0.043238707
0002f0 85 aa 5d 3d 6a 0b 85 bd f8 9e cc 3c 87 b8 83 3d
       0.0541177 -0.06496318 0.024978146 0.0643168
000300 5b 24 84 3c 23 6c 7e bd f6 2e 73 bc 14 33 25 bd
       0.016130617 -0.062114846 -0.014842739 -0.040331915
000310 82 0a 61 3c 6c a4 a9 3d d3 cf 26 3d a4 c4 6b 3d
       0.013735415 0.08283314 0.04072554 0.057560578
000320 6d 4f e1 bc ea a6 ef 3c 69 a4 4a 3d 3f d5 70 3d
       -0.027503693 0.029254396 0.0494732 0.058797117
000330 6b 50 83 3d 9c 94 84 bd d7 df 9f ba 6f 16 98 bd
       0.06411823 -0.064736575 -0.0012197447 -0.07426154
000340 fa 77 54 3c 86 53 8d 3c ff 71 58 bd ac 15 e4 bb
       0.012968058 0.017251741 -0.05284309 -0.0069605913
000350 f4 0f b0 bc 76 c0 ae 3d a3 59 d9 bc 58 f8 94 39
       -0.021491982 0.08532803 -0.026532 0.0002841379
000360 7a 35 f8 3b 07 14 55 bd c1 b7 e5 3c 90 d4 a6 bd
       0.0075747343 -0.052021053 0.028041722 -0.08146012
000370 e0 2e 35 3d 4f b3 2a 3c 9d cd f3 bc 28 03 3d bd
       0.044234157 0.010418727 -0.02976113 -0.04614559
000380 94 f2 59 3c 1d a8 fb 3c 71 8d 89 bd 96 22 79 3c
       0.013302464 0.030719811 -0.06716431 0.015206
000390 51 02 07 3c b7 cf 7c 3d f1 44 e6 bb 7e b6 9b bd
       0.008240298 0.06172153 -0.0070272614 -0.07603167
0003a0 c4 cd 3e bd b6 52 89 bd 41 00 01 bd ad c8 3f bd
       -0.046582952 -0.06705229 -0.031494383 -0.04682224
0003b0 71 a7 64 3d 75 4c c1 3c a3 98 1a bd ae fc 1c bd
       0.055823747 0.023596028 -0.037743222 -0.03832691
0003c0 0d c0 58 3c 97 51 82 bb 19 ab 1b 3d bc 85 2e bd
       0.013229382 -0.0039770114 0.03800497 -0.042608008
0003d0 c9 34 b7 3a 33 22 d0 3d 9c 78 f2 3c 11 57 a6 3d
       0.0013977523 0.10162773 0.029598527 0.08122075
0003e0 c3 59 e3 bb 28 82 05 3d 2e bf 9e bc 87 a1 f4 bc
       -0.0069381907 0.03259483 -0.019378271 -0.029862178
0003f0 5c 50 d8 3c 55 62 24 3d 2e e5 6e 3c f5 95 25 3d
       0.026405506 0.04013284 0.014581008 0.040426213

bias f4 [32]
000000 cb 04 9d 3d 57 af 14 3c 70 8c b4 bc 67 67 8b bd
       0.0766693 0.009075007 -0.022039622 -0.06806832
000010 b5 db 17 bd 57 01 a5 3b d2 10 a5 bd f2 5e ae bd
       -0.037074763 0.00503556 -0.08059849 -0.08514203
000020 57 a7 25 bd fa 12 85 bd 13 f4 2b ba bd 6f 60 3d
       -0.04044279 -0.0649776 -0.0006559502 0.054794062
000030 f7 4f 8c 3d 5f 4e 41 3d cb 17 82 bd 92 d3 a5 ba
       0.068511896 0.04719388 -0.063521944 -0.0012651554
000040 d1 e2 b7 bd 76 16 f8 3c e8 cc 15 3d 30 b9 ba bc
       -0.08978809 0.030284148 0.036572367 -0.022793382
000050 ed 44 d4 bc ed 21 34 bd ee ce 8d bb d5 f7 6e bd
       -0.025911773 -0.043977667 -0.0043276465 -0.05834182
000060 39 0d 63 3c e3 e8 35 3d 37 3b f0 bc 07 69 b6 bc
       0.013858133 0.04441155 -0.02932511 -0.022266878
000070 b6 0e 95 bd aa c6 98 bd 6f 50 f6 bc b8 54 9d 3d
       -0.072781965 -0.07459767 -0.03006765 0.076821744

weight f4 [64, 32, 2, 2]
000000 8e b9 f7 bc a2 45 70 bd a0 2e a4 3d b7 01 06 bc
       -0.030239847 -0.058660157 0.080167055 -0.00817912
000010 d1 a7 62 bc a8 ac 42 3d 28 b3 67 bc c6 07 ae 3d
       -0.013833956 0.04752794 -0.014141835 0.084975764
000020 5e 93 13 3c 94 a4 c5 3d e8 f3 31 3d 14 88 3a 3d
       0.009007303 0.096505314 0.043445498 0.04553993
000030 f2 a4 63 3d 37 03 a0 3c fc e4 29 bd 10 ec 1c 3c
       0.055577226 0.019532783 -0.041478142 0.009577766
000040 4e 95 cf 3c b9 9a d4 bd 86 96 52 3d b5 b3 24 bd
       0.025339749 -0.103810735 0.05141308 -0.040210444
000050 b3 93 e0 3d eb 4b 25 bc 0f 53 b1 ba 66 a0 f2 bb
       0.109656714 -0.010088901 -0.0013528782 -0.007404375
000060 e9 29 0f 3d 7a ad 89 bc 74 aa 3b bb d4 a2 99 3d
       0.034952078 -0.016806353 -0.0028635534 0.0750176
000070 0f 65 8e bc d6 a6 f0 bd 72 19 0b bd ba 4f fb bd
       -0.017382173 -0.117505714 -0.033959813 -0.12271066
000080 a1 61 0f 3d 7b c1 e6 bc ca 60 a7 3d 82 42 91 3c
       0.035005216 -0.02816843 0.08172758 0.017731909
000090 7a 78 79 3b f6 ae 65 bd 60 b3 dc 3b bc a7 4a bd
       0.0038066194 -0.05607506 0.0067352504 -0.04947637
0000a0 71 11 55 bd 93 66 0c bd 6d dc 02 3d c3 62 1c bd
       -0.052018587 -0.03427751 0.031948496 -0.038180124
0000b0 1b b4 08 bd 49 d6 a1 3d 9a ec a4 3b 54 be 9f 3d
       -0.033374887 0.079022 0.005033088 0.07799974
0000c0 f4 f0 11 3e 14 59 e7 3d 33 51 81 3c ad a7 ab 3d
       0.14252073 0.11296287 0.01578579 0.08381591
0000d0 79 f9 8d bd c6 d4 f1 bb 9f 41 00 3d a9 af 1c bd
       -0.06932349 -0.007380101 0.03131258 -0.03825346
0000e0 04 b9 85 3d 9e 28 93 bd f4 17 cd 3c 8f 88 69 3d
       0.065294296 -0.071854815 0.025035836 0.057014998
0000f0 72 26 b6 3d c2 85 93 bb 26 68 ca 3b c5 3c 6c 3d
       0.088940516 -0.004502029 0.0061769662 0.05767514
000100 a8 ea de bb fc b0 e7 3c e2 cb 38 3d 55 a0 fe bc
       -0.0068028755 0.028282635 0.045116313 -0.031082312
000110 88 ab 14 bd bd 94 29 bd b7 4d 80 bd f6 a1 80 bd
       -0.036296397 -0.041401614 -0.06264823 -0.062808916
000120 a9 aa a3 bd 21 e7 5c bd 8e a7 08 bd e4 75 76 bd
       -0.07991535 -0.05393136 -0.033362918 -0.060171023
000130 d6 a5 27 3c 9a b4 9f 3c 48 95 b2 3d 3b e2 c6 3c
       0.010232409 0.019495297 0.087198794 0.024277797
000140 2c 76 78 bd e5 35 47 bd 5a 43 95 bd 85 26 d9 3c
       -0.060659572 -0.048635382 -0.07288237 0.026507625
000150 d3 7b f6 bc db f9 96 bd 76 10 73 3d b6 d6 3d 3d
       -0.03008834 -0.07371875 0.05934187 0.046347342
000160 6d 19 46 3d f1 0b 12 bd 7e 4a 8c 3d da ec 36 bd
       0.04836409 -0.03565592 0.06850146 -0.044659473
000170 0c 7b 4b bd 57 9b 0d 3c ca 8e 91 3d 2e 75 46 3d
       -0.049677894 0.008642993 0.07107313 0.048451595
000180 32 e1 d7 bc 3e 79 43 3d a0 c5 05 3d 5b cd 88 3d
       -0.026352499 0.047723047 0.032659173 0.066797934
000190 ef f4 5f 3d 2a 61 8e 3c 66 b8 db bc 97 5f b6 3d
       0.054676946 0.017380316 -0.026821326 0.08904951
0001a0 3f c4 8f 3c 9c 0d ee 3b 84 5d 22 bd d8 e3 c1 bb
       0.017549632 0.007264806 -0.039639965 -0.0059170537
0001b0 70 c7 78 bc 35 be 36 bd 67 ef 75 bd f0 93 5b bd
       -0.015184268 -0.04461499 -0.060042765 -0.05360788
0001c0 36 26 bd bc ba 4a b1 3d 62 8d 81 3d 88 00 84 3d
       -0.02308951 0.08656831 0.06325795 0.06445414
0001d0 b0 b5 88 bc b2 45 57 bd 01 2d be 3d 78 76 5c 3d
       -0.016688198 -0.0525567 0.092859276 0.053823918
0001e0 68 98 90 3d 3f 48 d0 bd 2b 40 df 3d 4c 9f 0b bd
       0.07060319 -0.1017003 0.10900911 -0.034087464
0001f0 6f f3 48 3d c7 6e ea bc 71 54 53 3d 69 9e 59 3d
       0.04906028 -0.028617276 0.0515942 0.053129587
000200 d5 05 a8 bd 1d c7 ac bd f7 08 bd bc ac 6a f7 bd
       -0.08204237 -0.08436415 -0.023075564 -0.12080893
000210 75 d4 f9 bd d8 40 07 bc e7 03 88 3b 09 12 b4 3c
       -0.12198726 -0.008255206 0.004150856 0.021981256
000220 e3 b3 b0 bd 84 61 85 3d 2f 2e 34 3d e3 3f 8b bd
       -0.08628061 0.0651274 0.043989357 -0.06799295
000230 99 33 f3 3b b9 07 15 3e f6 74 44 bc 7c b1 f5 3d
       0.0074219224 0.14553727 -0.011990776 0.11996743
000240 12 c3 5d 3d ce 0b 0d 3d 86 49 98 bd c5 73 15 3e
       0.05414111 0.034435086 -0.074358985 0.14594944
000250 90 8e 49 3d d7 03 1b 3e d2 99 e1 bc 87 5f 21 bc
       0.049208224 0.15138184 -0.027539168 -0.009849436
000260 d2 c2 08 3e 8d 90 04 3d 6e d4 a7 3d ea 91 d3 3c
       0.13355568 0.032364417 0.081948146 0.025826413
000270 75 25 40 bc 4e 3e 38 bc 94 5c 8c bd a9 40 cc 3d
       -0.01172768 -0.011245323 -0.068535954 0.099732704
000280 2f 09 46 3d da ea 2a 3e b5 d2 96 bb 99 8d cc 3d
       0.048348602 0.16691151 -0.004602755 0.09987945
000290 39 59 bf 3c 87 76 c4 3d 66 79 a2 bc c9 0f c7 3d
       0.023357974 0.0959292 -0.019833278 0.09719808
0002a0 b5 7c 9f 3d 85 8b 00 bd 0e 49 a0 3d 12 c5 47 3d
       0.07787458 -0.031383056 0.07826434 0.048771925
0002b0 54 65 98 3d 4a d0 8b bd b8 54 2f 3d 0f ea 07 bd
       0.07441202 -0.06826837 0.042805403 -0.0331822
0002c0 89 31 e7 bd b9 20 66 bd 9a 65 2b 3b f9 b0 a9 bc
       -0.11288745 -0.05618355 0.0026153089 -0.02071427
0002d0 9a c0 02 3c d1 84 69 3d c0 dc 23 bc 4f d0 a6 bd
       0.00798049 0.05701143 -0.010001361 -0.081452005
0002e0 18 00 bc 3c a2 1e 3c 3c 93 ff 9e 3d 39 55 ce 3d
       0.022949263 0.011481913 0.07763591 0.10074849
0002f0 eb 4f 6c bd ae 13 0c b9 b7 b9 88 3d 92 40 50 3d
       -0.057693403 -0.00013358772 0.06676047 0.05084283
000300 d4 6f 48 bd c3 fc 18 3e 3b 51 13 3d 99 cb 8b 3c
       -0.048934773 0.14940171 0.03596614 0.017064856
000310 6f 36 fd bb 62 d4 5e 3d a0 5a c2 3d 80 6a a4 3c
       -0.0077274363 0.054401763 0.094899416 0.020070314
000320 d0 9a 65 bd 45 4f e3 bd d3 cd eb 3c 02 72 54 3d
       -0.056055844 -0.11099104 0.028784668 0.05186654
000330 ab 8e 4d 3d f4 18 50 3c 70 18 c4 3c a6 f3 21 3e
       0.050184887 0.012701262 0.023937434 0.15815601
000340 56 d0 19 3c f5 e2 b6 bd 5e ce 6f bd 8a 6a 33 bd
       0.00938805 -0.08930007 -0.058546416 -0.043802775
000350 7b ae 00 3e 7b 5f d5 3c eb 30 9b 3d 1a 80 10 3e
       0.12566559 0.026046505 0.0757769 0.14111367
000360 d1 27 6b 3d 61 f1 5e 3d 6e 6b 73 bc c2 4e c6 bc
       0.05741102 0.054429416 -0.014857156 -0.024207477
000370 2f 32 3b 3d c9 c7 91 3d 16 74 37 3d 53 95 69 3d
       0.045702156 0.07118184 0.044788443 0.057027172
000380 f6 73 ec bc 6a 2b c5 bd ab 40 3c 3d 2e 68 40 bd
       -0.028863888 -0.09627421 0.04596011 -0.046974353
000390 3e 6c 06 bd 12 53 b2 bd e7 39 8f 3d ae 48 6c bd
       -0.03281807 -0.08707251 0.06993466 -0.0576865
0003a0 98 39 0b 3d 85 2a 82 bd ba e5 53 bc 0d 94 9d 3b
       0.033990473 -0.06355766 -0.012933189 0.004808909
0003b0 1f aa 0a 3d 33 5e e7 bc 6b d7 46 bd 77 0f 2e 3d
       0.033853646 -0.02824316 -0.048545282 0.042495217
0003c0 70 0a 94 3d d7 6d 7c bc 33 49 19 3d b5 2f 9a 3d
       0.07228553 -0.015407047 0.037423324 0.07528631
0003d0 de bd a3 3c b9 88 d8 3d 15 9c 46 3d ce bd 06 3e
       0.019987997 0.10572953 0.048488695 0.13158342
0003e0 bf 42 16 3d 3d 2e e3 3d fe 4c 0e 3b 03 4c 2b 3e
       0.036684748 0.110928036 0.0021713371 0.16728215
0003f0 64 4a b8 bd e1 5d 81 3d dc d5 85 bd 26 3b 03 bd
       -0.08998564 0.06316734 -0.06534931 -0.03203883

bias f4 [64]
000000 3a bf 46 bd e9 2a ae 3c 45 d0 cf 3c be 63 8e 3d
       -0.04852221 0.021260696 0.025367865 0.06952618
000010 84 5b 99 3d 47 2d 7c bd a2 09 67 3d 0d e6 cc 3c
       0.07488158 -0.061566617 0.05640567 0.02501204
000020 cb 8e a6 3c f6 c2 83 3d 4c d1 ab 3c 6e 4c 01 bd
       0.02033176 0.0643367 0.020973824 -0.03156703
000030 4b 8c 7b bd 09 b2 cf 3d 08 ea 4e bd 37 cb 18 3d
       -0.06141309 0.101413794 -0.05051616 0.037303176
000040 cf 85 b3 3c ad cf 75 3d 1b fc 8e bd c9 36 21 bd
       0.02191439 0.06001251 -0.06981679 -0.039358888
000050 4a 4d d1 bd 7c 9e 3a 3c 51 4d 81 bd bb e5 2b bd
       -0.1021982 0.011390325 -0.06313575 -0.041967135
000060 75 01 f4 3b 00 ee 58 3d 1e bf c4 bd 92 66 10 bd
       0.0074464628 0.05296135 -0.09606765 -0.03525407
000070 5a fe 3f bd 50 70 06 3c e2 25 74 3d b7 25 87 3d
       -0.046873428 0.008205488 0.05960644 0.065989904
000080 cc f3 9a 3c 0f ff d3 3d a6 1d a7 bd 11 68 a5 bb
       0.01891508 0.10351383 -0.08159952 -0.005047806
000090 fe 51 ef 3b d0 7f 36 bd d0 59 b9 3d 12 7f 93 bd
       0.0073034754 -0.044555485 0.090503335 -0.07201971
0000a0 07 0d 49 3d c1 7a f9 3b c4 7e 7e 3c b1 14 48 bd
       0.04908469 0.0076135104 0.015533153 -0.048847858
0000b0 b1 4f 8e bd c5 b8 0d 3d 78 0a 88 3d 0a ec 59 bd
       -0.06948794 0.034600038 0.06642622 -0.05320362
0000c0 e7 db 39 3d 06 e3 eb bc 99 5e 60 bd 20 4b 8a bd
       0.04537573 -0.028794777 -0.054777715 -0.0675261
0000d0 74 4a a5 bd 3a c4 47 3d 57 93 a1 3d 71 af a0 3d
       -0.080708414 0.04877112 0.07889431 0.07845963
0000e0 45 1f 1b 3d c5 bd 98 3d 1e e3 9d 3a d7 61 7d bd
       0.037871618 0.07458071 0.0012045836 -0.061860885
0000f0 ff b1 4a bd 66 37 81 bd 9f 12 b4 3d 80 14 a6 bd
       -0.049486157 -0.063093945 0.08792614 -0.08109379

weight f4 [64, 64, 2, 2]
000000 a4 5d 4d 3d 7d 61 a5 3c 29 ba 56 3d bc 7a 3e 3c
       0.05013813 0.020188088 0.05242363 0.011625942
000010 42 60 ed bc 98 2a 89 3d 3d 82 76 3c d3 4f bd 3d
       -0.028976563 0.06697577 0.0150457 0.09243741
000020 0d e1 ea 3c e4 ca 1e 3d e4 13 84 3d 68 43 18 3d
       0.028671766 0.03876771 0.06449106 0.03717366
000030 99 99 3b bd bf 5a a0 bd 61 27 9e bd be 2d 77 bd
       -0.04580078 -0.078298084 -0.07722355 -0.060346358
000040 81 5c 9c 3d 8b 1f c1 3d ba 94 9b 3d c0 bb 8e 3d
       0.07634831 0.094298445 0.07596727 0.06969404
000050 47 7d 95 3d e8 15 75 3c e5 5c 90 3d 49 f5 89 3c
       0.072992854 0.014958836 0.07048968 0.016840594
000060 eb 84 5f bd 29 88 40 bc df 52 ec 3c 7a fc 5c 3c
       -0.05457012 -0.011751213 0.02884811 0.0134879295
000070 25 fe 12 bd 3a ed 14 bd d8 cd 76 bd 1a a7 8d bd
       -0.035886902 -0.03635905 -0.0602549 -0.06916638
000080 74 fc 28 3d 91 52 0e 3d a5 b4 83 bc 13 e7 9f bc
       0.041256383 0.03474671 -0.016077349 -0.019519364
000090 62 d5 14 bd d0 90 88 b9 f8 4e 00 b9 33 f7 0b bd
       -0.03633631 -0.00026047835 -0.0001223645 -0.034171294
0000a0 3b f0 6b 3c c0 bb 04 3c bb e8 9a bd 94 c3 47 bd
       0.014400537 0.008101404 -0.07563921 -0.048770502
0000b0 a9 ac 46 bd d8 0f 2a 3d 4c ed 94 39 a3 9f 6f 3d
       -0.048504505 0.041519016 0.0002840556 0.05850185
0000c0 9d c5 58 3d f4 f7 f1 b9 49 66 57 bd fa 04 e7 3c
       0.052922834 -0.00046151842 -0.05258778 0.028200615
0000d0 86 72 06 3c b8 8c a3 bd c7 38 38 bc 6c 40 c7 3c
       0.008206015 -0.07985824 -0.0112440055 0.02432271
0000e0 e7 f1 39 3d 6d 39 ac bc 98 a1 a6 3c 9b b5 66 bc
       0.04539671 -0.021023476 0.020340726 -0.014081384
0000f0 45 2b 29 3d 1c 1d 1c 3c 0f 93 4c bd af 5a 1f bd
       0.04130103 0.009528425 -0.049944934 -0.038904842
000100 23 96 94 bc 20 98 1d bc 33 ec 2c bd ca c2 57 3d
       -0.018137997 -0.009618789 -0.042217445 0.052676
000110 16 83 bc 3c 4c cc d0 3c 23 73 11 bb b6 28 a2 bd
       0.023011725 0.025488041 -0.002219387 -0.07917921
000120 b5 58 00 3d b6 fb 70 3d 17 e0 a9 bc 5f b4 fb 3c
       0.031334598 0.0588338 -0.020736737 0.030725656
000130 73 bd 98 bd b9 ca 44 bd 9f 8c 04 bd b5 8f bd bc
       -0.074580096 -0.048044894 -0.03236067 -0.023139814
000140 b8 5b 74 bc 9d 3f 22 3d 09 2e bb bc e5 de 99 3b
       -0.014914446 0.039611448 -0.0228491 0.0046957606
000150 d4 90 a2 3d 76 b5 50 3e c0 1b a2 3d d3 9a 0e 3e
       0.0793778 0.20381722 0.07915449 0.13926248
000160 69 b9 04 3d 6a d6 43 3d 46 8a c3 3b ac 7c 41 3b
       0.032403383 0.047811903 0.005967411 0.0029523773
000170 08 57 d6 3b cc 6a ce 3b 78 c3 20 bc 00 1b 40 3d
       0.0065411367 0.0062993523 -0.009812228 0.04690075
000180 0d a8 1d bd 1d 0a 5c 3d 51 c3 77 bc c4 1e 86 3d
       -0.038490344 0.053720582 -0.015122251 0.06548837
000190 08 b6 40 3d a2 8b 61 3c 75 44 34 bd 1a be e2 3c
       0.0470486 0.013766201 -0.0440106 0.027678538
0001a0 5c 92 a7 3c 03 0d 37 3b ab c4 f4 bb 75 0b 08 bc
       0.020455532 0.002793134 -0.0074697337 -0.008303513
0001b0 5f 36 e9 bc 83 d1 27 bd 19 08 4e 3c ee 08 8a 3c
       -0.028468309 -0.04097129 0.012575173 0.016849961
0001c0 ac 6b fe bc 5c 85 1e 3d a5 fa 4e 3c d5 37 45 bc
       -0.031057201 0.0387014 0.0126330005 -0.012037237
0001d0 9d 9e 87 bd 26 54 cd 3b 52 a2 33 bd 1b a5 a1 3c
       -0.0662205 0.006266135 -0.043855973 0.019732049
0001e0 f4 aa 62 bd c5 2d 93 bd 16 79 50 bd d7 f4 0b bd
       -0.055338815 -0.07186464 -0.050896727 -0.034169044
0001f0 66 aa 85 bd b6 a5 1a bc 8c fb cb bd be dc 88 bd
       -0.065266415 -0.009438923 -0.09960088 -0.06682728
000200 f6 07 37 bd 1a 77 80 bc 1a 1d 20 bc 6a 6e e4 39
       -0.044685327 -0.015681792 -0.009772563 0.00043569814
000210 99 9d 26 3c eb 3f 5c bd 1d f1 6f bc b4 61 d3 bc
       0.01016941 -0.053771894 -0.014644888 -0.025803424
000220 ce ae f9 3c 72 d8 80 3c aa 66 64 3b fe 43 5b 3c
       0.030478861 0.01572821 0.0034851232 0.01338291
000230 94 5b d2 3d e8 e2 b5 3c 8d fd 93 3d c1 4c b7 b8
       0.102713734 0.022202924 0.07226095 -8.7404165e-05
000240 fb 50 2e bc 12 a3 fa bc 2e 00 7f 3d 87 e2 17 3c
       -0.010639424 -0.030595336 0.06225603 0.009270317
000250 0a 6c 2a 3c 61 13 4b 3b 2a 6b ce bc 9e a1 1f bd
       0.010401735 0.0030986893 -0.025197584 -0.03897249
000260 37 ed a8 bc 04 f3 24 bd 7d f0 4e bc 0d 5e 65 bd
       -0.020620925 -0.04027082 -0.012630579 -0.055997897
000270 82 5d 3d 3c 50 1b 1c 3a 78 c0 ae bc 8d 3f 17 bd
       0.0115579385 0.00059549976 -0.02133201 -0.03692584
000280 31 35 91 b8 93 eb d3 3c 64 0f 84 bb fe 39 95 3c
       -6.9240465e-05 0.025869166 -0.004030155 0.01821613
000290 97 7a 77 bd d4 ff 3b 3c 0e d8 96 bb 5e bd 27 3d
       -0.060419645 0.011474568 -0.0046033924 0.04095208
0002a0 c8 8f 52 3d e4 39 68 bd f7 ea 3e 3a 35 a1 6f 3a
       0.05140665 -0.056695834 0.00072829373 0.0009141148
0002b0 d9 bb a4 bd 4c 03 06 3c 70 f6 5b 3c 38 e8 c6 3c
       -0.080436416 0.008179497 0.0134254545 0.024280652
0002c0 f8 59 b0 3c 86 e6 c7 bd 35 db aa 3a d0 03 95 3c
       0.021527275 -0.09760766 0.00130353 0.018190295
0002d0 59 0a 2d bd c0 3c 78 bc 39 e2 f6 bc f3 7a bc bc
       -0.042246196 -0.015151203 -0.030137168 -0.023007846
0002e0 08 11 f0 bc 72 ac 10 bd a2 48 09 bc b1 17 7a 3b
       -0.029304996 -0.035320707 -0.008379133 0.0038161094
0002f0 97 4e 01 bd 76 5d 12 3d b3 bc ee bc 2e 77 34 bd
       -0.03156909 0.035733663 -0.029142713 -0.04405897
000300 9c d9 85 bd f5 88 05 3c af 0d 5a bd 6e b3 61 bd
       -0.06535646 0.008150329 -0.053235706 -0.055102758
000310 ac 71 65 3c cf 79 84 bc 64 b1 80 3d 56 8e 05 bc
       0.014004152 -0.016171364 0.062838346 -0.008151611
000320 04 2f c0 bc f0 fb c5 bc 9e 69 93 bd fa 0d 45 bd
       -0.023459919 -0.024167985 -0.07197879 -0.048109032
000330 22 a8 7a 3d 6b 2a 3e ba 76 e9 ed 3c f2 ad 20 3b
       0.0611955 -0.00072542456 0.029041987 0.0024517742
000340 c7 b0 13 3d 16 31 0d bd 2a e1 e5 3c 36 be 1e 3b
       0.03605726 -0.03447064 0.028061468 0.0024222261
000350 b0 7a 5d bd d5 45 d4 3c ad 33 39 bd fb 98 f0 bb
       -0.054072082 0.025912205 -0.045215297 -0.0073424554
000360 56 ce cb 3c 78 16 8c bd ed be d8 3c f5 50 17 bd
       0.024878662 -0.06840223 0.026458228 -0.03694244
000370 09 33 ab bc 82 ce c0 bc 56 14 24 3d d4 e4 10 3d
       -0.020898359 -0.02353597 0.040058456 0.035374478
000380 8d 13 0e 3c b7 fb 71 3c 97 db 40 3c 05 fc 7f 3d
       0.008671653 0.014769486 0.011771104 0.062496204
000390 7a a4 6e 3c f6 00 76 bd f1 1a 3a 3c 55 c5 9f bc
       0.014565581 -0.06005951 0.011358962 -0.019503275
0003a0 2f 7a 16 bd c2 a1 2b 3d c0 b7 fb bb b8 48 d8 3a
       -0.036737617 0.04190231 -0.007681817 0.0016501164
0003b0 8a 82 87 3c 9e 0d 89 bc 90 d6 33 3c ee e1 62 bc
       0.016541738 -0.016730126 0.010976449 -0.013847811
0003c0 41 22 61 bc e9 29 1e 3d 56 53 ff bc 6f 6f 14 3b
       -0.013741077 0.038614187 -0.031167667 0.0022649427
0003d0 5d f3 21 bc 96 a1 54 3d c4 ee b6 3c 44 86 58 3c
       -0.0098846825 0.051911913 0.02233065 0.013215605
0003e0 ae ed 55 bd 15 2d 4c bd 4c b9 98 3c 72 57 22 3c
       -0.052228622 -0.04984768 0.018643044 0.009908544
0003f0 de 0c 03 3d a6 77 48 bb 8a 3d 45 3d e3 4b 39 3d
       0.031994693 -0.0030588894 0.04815439 0.045238387

bias f4 [64]
000000 be 61 2a 3d 58 44 3d bd bf f9 97 bd 12 bc 52 3d
       0.04159712 -0.046207756 -0.07420682 0.05144889
000010 c6 f2 81 3d 2a 19 4a 3c 63 41 2c bc fb e6 df 3c
       0.063451335 0.012335101 -0.010513636 0.02733182
000020 28 23 a1 bc cb 8f e0 bc 87 0e 09 bd 75 84 58 bd
       -0.019670084 -0.027412316 -0.03346112 -0.052860696
000030 9d 98 aa bc aa 12 ba bc 7d 82 3e 3d c2 6d 6c 3d
       -0.020824725 -0.022713978 0.046511162 0.05772186
000040 ef 33 06 3d f8 c1 2d bd 79 57 44 3c 05 a1 8f 3d
       0.03276437 -0.04242131 0.011983746 0.07013134
000050 e3 61 8e bd 3f e9 86 3d e5 ae 0c bd 82 1c 8d 3d
       -0.06952264 0.06587457 -0.03434648 0.06890203
000060 b5 f0 82 bd 10 51 60 3c 44 ba 5c 3d ab 72 d3 bc
       -0.063935675 0.013691202 0.053888574 -0.025811514
000070 37 61 75 bd 2e 64 3c 3c c7 d4 16 3d a1 31 3a 3c
       -0.059907164 0.011498494 0.036824014 0.0113643715
000080 33 83 a8 3c ea e6 57 3d 44 a7 b7 3c 16 90 75 bd
       0.020570373 0.05271045 0.022418626 -0.059951864
000090 68 9f 10 bd b5 f9 9a 3b e8 8d 95 3d df cc 2d 3d
       -0.03530827 0.0047294744 0.07302457 0.04243171
0000a0 c3 40 1e 3d f4 ef 37 bd 01 67 2d 3d f7 22 d9 3c
       0.03863598 -0.04490657 0.04233456 0.02650593
0000b0 9f 91 8c bd 20 dc 5b 3d 63 a6 8d 3d e4 99 08 3d
       -0.068637125 0.053676724 0.069165014 0.033349887
0000c0 0f 3d 87 bd e7 e3 50 bc d6 16 94 3d ba 5f 9c bc
       -0.06603443 -0.012749649 0.07230918 -0.019088615
0000d0 b7 6f ad bb 05 6e a1 bc aa 4a 36 bd 04 0c e7 3b
       -0.0052928585 -0.019705782 -0.0445048 0.007050993
0000e0 16 50 b7 3c e0 76 14 3d 98 50 65 bd 4b f2 a9 bc
       0.022377055 0.03624618 -0.055985063 -0.020745417
0000f0 ef 3f 69 bd d5 55 d0 3c f7 c6 d4 3c 19 79 75 b9
       -0.056945737 0.025431553 0.02597378 -0.00023410133
