output/binaire-0/unet_tgs_salt.pth (torch, 245783 bytes, 25 tensors)

weight f4 [16, 3, 2, 2]
000000 76 95 61 3d 8c d2 3c 3d 6a bf 19 be 7b 81 ec 3d
       0.055074178 0.04609923 -0.15014425 0.11548134
000010 82 99 c2 bd bd 75 22 3e 1b 4c 5d 3e 43 c9 77 bd
       -0.095019355 0.15865226 0.21611063 -0.060494673
000020 0d ad c3 bd 8a 45 fb bd 2d df 46 be ec 1f 0d 3e
       -0.09554491 -0.12269123 -0.19421072 0.13781708
000030 e8 9a 91 3e f4 24 60 be 79 79 e2 bc 41 60 af bd
       0.28438497 -0.21889096 -0.027645813 -0.08563281
000040 c6 e2 61 bd 39 ef 47 be 66 4b 96 be 05 0c 82 3e
       -0.05514791 -0.1952485 -0.293544 0.25399795
000050 9f 41 12 3d 79 82 81 be 12 95 67 3d 82 88 2a be
       0.035707112 -0.25294855 0.05653865 -0.16653636
000060 56 28 f5 3d 76 1d 58 3d 11 58 32 bd 53 dc a0 3d
       0.11970584 0.05276247 -0.043541018 0.078545235
000070 96 8b 0c 3e c9 62 83 3d ab e4 51 3e ff e1 22 3e
       0.13725123 0.06415326 0.20497386 0.15906523
000080 a3 e3 a1 bd 66 5f c4 be 72 74 2b 3d d8 15 54 3c
       -0.079047464 -0.38354033 0.041859098 0.012944661
000090 9b 49 83 bd e7 8b 62 3e 2f 8c 84 be f9 81 1c be
       -0.064105235 0.22123681 -0.25888202 -0.15283956
0000a0 68 24 d4 be 90 99 92 3d 2a 84 37 be f2 46 13 be
       -0.41434026 0.07158196 -0.1792151 -0.14382532
0000b0 ef aa b4 be ab f9 80 3e c5 b7 9a be 76 aa 18 be
       -0.35286662 0.25190482 -0.3021833 -0.14908776
0000c0 d8 21 18 3e 3c 98 9c bd a8 2b 40 3e 58 1c b3 bd
       0.1485666 -0.07646224 0.18766654 -0.087456405
0000d0 79 da 9f be b9 52 e4 3d 8b 36 17 3e 02 71 15 3e
       -0.3122137 0.111485906 0.147669 0.1459389
0000e0 f4 c3 a8 3a 98 01 b7 be 12 70 ab bd ca 38 62 3e
       0.0012875781 -0.35743403 -0.08370985 0.22091976
0000f0 c9 1f ac be be de dd bd 49 83 30 bd c5 6f c6 be
       -0.33618 -0.108335 -0.043093953 -0.38757148
000100 48 57 f9 bd 53 90 04 bc 45 5d be bc 16 30 b0 bd
       -0.12174851 -0.00809105 -0.023237834 -0.08602922
000110 33 39 1e 3e 98 21 59 3e b5 14 7c be 1b 77 89 3e
       0.15451507 0.21204221 -0.24617274 0.26848683
000120 7a ce 61 be 18 0f 0c 3e b0 f0 90 be bf d5 8d be
       -0.22051421 0.13677633 -0.2830863 -0.27702138
000130 22 b6 d2 3c 14 b4 82 3d 84 67 6a 3e 8d e9 84 3e
       0.025721613 0.063820034 0.2289105 0.25959435
000140 65 6d 5e 3c 00 c1 89 be 5a ea 82 3e ca 74 ee 3d
       0.013575886 -0.2690506 0.2556942 0.116433695
000150 84 9d 85 be 29 30 66 be 3f ea 1d be 92 80 4b 3e
       -0.26096737 -0.22479309 -0.15421389 0.19873264
000160 59 48 08 3e d6 2d b4 be 9c 78 2b be bb 13 a5 3e
       0.13308848 -0.3519122 -0.16745228 0.32241616
000170 e4 15 2a 3e cd fe fa 3d 3f 86 81 3d 63 08 dc 3c
       0.16609913 0.12255631 0.063244335 0.026859468
000180 c6 41 20 be ab b4 fd bd e3 5b 91 be 2a 2e db bd
       -0.1565009 -0.12387975 -0.28390417 -0.107021645
000190 25 71 f9 bd 6a 36 b4 3d 61 23 07 3e 48 c9 71 3d
       -0.12179784 0.08799441 0.1319709 0.059029847
0001a0 ff 82 12 be 26 91 06 3e 89 89 c8 3e af 65 19 3e
       -0.14307784 0.13141307 0.3916743 0.14980195
0001b0 37 81 b0 3d 93 0b 78 3e 8f 49 86 be fb 27 b7 bd
       0.08618396 0.24223165 -0.26227996 -0.089431725
0001c0 72 c0 8b bd a4 b7 83 3c 9a 3c 9a bc 39 8a 7f 3d
       -0.068238154 0.016078778 -0.018827725 0.06238768
0001d0 9a 97 cb 3c ae 34 10 3d d4 66 31 be 12 07 b8 3d
       0.024852563 0.03520649 -0.17324382 0.089857236
0001e0 23 f2 bb bd c8 c3 ac 3e ec 25 1d 3d 7b 61 73 3d
       -0.09177043 0.3374312 0.038366243 0.059419136
0001f0 ec b2 8d be 3c 30 a2 3e cf 93 93 3d 05 ac 85 be
       -0.2767557 0.31677425 0.072059266 -0.26107803
000200 1f cf 04 be f1 46 04 be c0 4d 07 bd b8 b2 5e 3d
       -0.12969635 -0.12917687 -0.033033133 0.05436966
000210 47 b3 b7 3d 44 23 92 3d 72 71 58 3e 92 45 44 bd
       0.08969741 0.07135633 0.21137026 -0.04791791
000220 f1 a3 19 bd 47 9f 62 3d 89 d9 f7 bd 41 24 3e 3e
       -0.037509862 0.05532768 -0.121020384 0.18568517
000230 e1 d4 04 3c d6 3b 9e 3d 3b 6f 8e be ef cd 16 3e
       0.008107395 0.077262565 -0.27819237 0.14726995
000240 b5 54 0a be 4e d5 6f be 56 2b 6a 3e ee f8 24 3e
       -0.13508876 -0.23421213 0.22868094 0.16110584
000250 25 69 9b 3e 19 46 61 3e 16 b7 46 3e 71 b1 03 3e
       0.30353656 0.21999396 0.19405779 0.12860657
000260 8a a4 5d be 35 6e 21 be c1 34 05 be f6 65 a1 be
       -0.21644798 -0.15764697 -0.13008405 -0.31523103
000270 22 59 ea bd 47 29 62 be b8 25 33 3d 43 3d 92 3c
       -0.11442782 -0.22086059 0.043737143 0.017851477
000280 6d 61 1b 3e 41 bf 34 3e 9f 7c 1c 3e 44 e3 5e 3e
       0.15173884 0.17651083 0.15281914 0.21766382
000290 c5 aa 24 be eb cd 76 3c 04 66 28 be be 49 e8 bd
       -0.16080768 0.015063743 -0.16445166 -0.1134219
0002a0 a3 4b a9 bc 0d 0d 48 3e d9 b2 c9 3d ac 47 1e 3e
       -0.02066595 0.19536228 0.098485656 0.15457028
0002b0 3f 30 a6 3d 79 e9 20 3d 44 a5 e1 3d 62 cc 57 3e
       0.08114671 0.039285157 0.1101785 0.2107406
0002c0 51 e9 78 bd 6f 49 f5 3c 16 90 70 3d f8 8f 6d be
       -0.060769383 0.029942242 0.05873116 -0.23199451
0002d0 c6 f7 85 3c 11 ec 62 3e 49 5a 9f bd 83 ad e7 3d
       0.0163535 0.22160365 -0.077808924 0.113123916
0002e0 3c 1d 1a 3e a1 fb 94 be 38 4d 73 be 56 e6 c0 bd
       0.15050215 -0.29098228 -0.23759925 -0.09418933
0002f0 fe cb 8b 3e 67 a7 17 bd e9 11 80 3e 8f 2a 3d 3e
       0.2730407 -0.03702488 0.25013664 0.18473266

bias f4 [16]
000000 70 f8 95 be 22 9b 6c 3e c3 41 65 be 3d c3 3f 3e
       -0.29291105 0.23106053 -0.22388367 0.18726821
000010 2f c1 d8 bd ec e2 85 bd 48 59 2a be 4d e4 0a 3e
       -0.10583722 -0.065374225 -0.1663562 0.13563652
000020 be 22 99 3d e0 d8 92 be c6 26 62 3d 4a 36 9a be
       0.0747733 -0.28681087 0.05521276 -0.30119544
000030 30 88 c4 3a 6d e9 1e 3d 5f 3a 2b be 58 08 6e be
       0.00149942 0.03879683 -0.16721486 -0.2324537

weight f4 [16, 16, 2, 2]
000000 93 3c cd bd b4 c7 bd 3d 42 9c d0 3d 60 64 34 3d
       -0.10021319 0.09266606 0.10186054 0.044041038
000010 1b 59 8e 3e 93 07 2b 3e 05 ee 76 3d 8c 7c 98 3e
       0.27802357 0.16702108 0.060285587 0.29782522
000020 09 12 08 3e c9 24 35 3d 5a 70 64 bc 42 fb b7 3c
       0.1328813 0.044224534 -0.013942802 0.022458676
000030 ac 2f 1b 3e 45 37 72 3e f3 48 49 3e d3 a9 79 3e
       0.15154904 0.23653896 0.19656734 0.24381189
000040 8b b6 5e bd c8 db ea bd bd 35 81 bd 05 73 ad bc
       -0.054373305 -0.11467701 -0.06309078 -0.02117301
000050 d5 08 aa 3e 0e d5 75 3e ae 47 5a 3e 49 fa 58 3e
       0.33209863 0.24007055 0.21316406 0.21189226
000060 14 8d d7 3d b2 f9 f2 3d ba 11 84 3e 26 c8 22 3d
       0.105249554 0.11864032 0.25794774 0.039741658
000070 79 85 6d 3d e8 22 bd bd eb 01 13 be 3d 8c 28 3d
       0.057988618 -0.092351735 -0.143562 0.041149367
000080 7a 14 0d be 4f 84 47 bc 7f ec 54 bd a0 bf b2 be
       -0.13777342 -0.012177541 -0.051983353 -0.34911823
000090 66 df 5c bc 6a da 77 bd 6f 3c e2 bd 7a 8c 88 bc
       -0.013480997 -0.06051103 -0.11046683 -0.016668547
0000a0 0b db 0d bc 98 11 40 3e eb 64 b7 3e 2d 52 cd 3d
       -0.008658181 0.18756711 0.35819182 0.100254394
0000b0 0b 0c 3b 3e a2 52 cc bd 64 b4 c0 3d 4e 3d ce bd
       0.18266313 -0.099766985 0.09409407 -0.10070287
0000c0 27 0a 4a 3e 96 2b 67 3e 62 ea 3d 3c 4c 51 91 3e
       0.19730435 0.2257522 0.011591526 0.28382337
0000d0 3f 8e 62 bc 8f b1 0c 3e f1 d4 c9 bd 19 94 ca bd
       -0.013827859 0.13739608 -0.098550685 -0.09891529
0000e0 f7 36 36 bc 9e 78 a2 3d 63 44 a7 3d 9c b6 d9 bd
       -0.011121503 0.07933162 0.081673406 -0.10630533
0000f0 8f 18 4c bd a5 ef d1 bd 79 5e bc 3d 2c fc 81 bb
       -0.04982811 -0.10250787 0.09197707 -0.003966829
000100 10 82 8d bc 92 79 8d 3d 63 62 95 3d e8 1c a8 3b
       -0.017273933 0.06907953 0.072941564 0.005130399
000110 3d 37 21 3c b5 ca 5a be 0a ae 43 be 12 61 2a 3d
       0.00983983 -0.21366389 -0.1910936 0.04159648
000120 e9 7e ee 3d 18 90 9a bd af 24 1e 3c 63 66 82 bc
       0.116453 -0.07547015 0.009652301 -0.015917962
000130 8b 9f dd bd 5a a1 25 be be 8b 30 bc 4b b7 e6 bd
       -0.10821446 -0.16174832 -0.010775505 -0.11265429
000140 3e eb ff 3d 30 3c 1e bd 72 c2 94 bd a7 83 ce bd
       0.12496041 -0.038631618 -0.0726365 -0.100837044
000150 63 7c e7 bb c3 27 03 bd fa 6a 40 3e 53 58 90 3d
       -0.0070643886 -0.03202034 0.18790808 0.070480965
000160 cc a3 cb 3c f7 48 8d 3d 3f 56 94 3c 21 22 11 3b
       0.024858378 0.068986826 0.018107532 0.0022145587
000170 ea fa 94 3d ae 31 b4 3d b4 6f 1c bd a1 fb 00 3d
       0.072744206 0.08798538 -0.038192466 0.031489972
000180 af 9e a4 3d 78 8c da 3d 21 d0 3e be 33 89 1c be
       0.08038079 0.106713235 -0.18634082 -0.15286712
000190 56 a0 a4 3d 1d 28 49 bd b6 76 3f bc b3 a8 82 3d
       0.08038394 -0.04911052 -0.011686018 0.06379833
0001a0 c7 e0 0c bc 0a 81 d4 3d 16 56 3c be e1 71 7f be
       -0.008598513 0.10376175 -0.18392214 -0.24945785
0001b0 07 76 da 3d 74 83 11 be 58 59 db bd 90 bb ec 3d
       0.10667043 -0.14210302 -0.107104 0.11559212
0001c0 05 ba 0d be d5 d2 4f be 7c 29 3b bc 44 c8 6a be
       -0.13840492 -0.2029527 -0.011423465 -0.22927958
0001d0 45 fe 40 3c 44 b3 02 be 89 80 c1 bc 41 19 83 3d
       0.011779373 -0.12763697 -0.02362086 0.06401301
0001e0 87 5f ec 3d 66 26 e1 bd ba 62 6a 3b 44 f2 a0 bd
       0.11541658 -0.10993652 0.0035764412 -0.078587085
0001f0 71 d0 62 bd 43 36 2a 3e 47 2c 73 bd 34 68 22 3d
       -0.055374566 0.16622262 -0.059368398 0.039650157
000200 3c f0 30 bd 33 0d a3 3d e4 bb be 3d f2 67 45 bd
       -0.043197855 0.07961502 0.09313181 -0.048194833
000210 b0 f5 6d 3d 29 5b 30 3e c2 c8 a5 3d d4 dc 9a 3e
       0.058095634 0.17222275 0.08094932 0.30246603
000220 f2 5d ad bb 9e 77 d1 3d 16 99 8d bc 94 c1 a5 bb
       -0.00529074 0.10227893 -0.017284911 -0.0050584767
000230 6b 6e 2e 3e 31 65 87 3e 83 21 92 3d db 48 85 3e
       0.17034309 0.2644439 0.07135298 0.26032147
000240 f7 1f 4d 3d f6 d2 16 be 57 72 c1 3d c2 d8 0d bd
       0.050079312 -0.14728913 0.09445637 -0.034630544
000250 c9 99 87 3e 2a 10 07 3e 56 f8 06 3e 80 cc 82 3e
       0.26484516 0.1318976 0.1318067 0.25546646
000260 fc cc 6f 3d d7 dd 58 3e ba 42 d1 3c 8d 60 9c 3d
       0.058545098 0.21178375 0.025544513 0.07635603
000270 e9 17 53 3d ca bf 28 be 55 64 81 3c 87 3a 31 bd
       0.051536474 -0.16479412 0.015794912 -0.043268707
000280 6e 6e 0d bd 17 4a 19 bd 50 ca 4f 3d 8b 47 e1 3c
       -0.034529142 -0.037424173 0.05073005 0.027499935
000290 52 ae 8e 3d 69 cb 94 bd 8e 9a 7c 3c 1e 16 10 3d
       0.06966843 -0.0726536 0.015417708 0.035177343
0002a0 d6 9b 05 3d 6a e7 ee 3d bc 3d fd 3d f9 55 be bd
       0.03261932 0.116652325 0.123652905 -0.09293742
0002b0 d8 09 ba 3c e7 5e b3 3d 72 d7 28 3e 35 37 b0 3d
       0.022709772 0.087583356 0.16488436 0.0860428
0002c0 ff 5c 1d bd 29 1d 3c 3e 4d 3f bc 3d b7 3a 27 3c
       -0.038418766 0.18370499 0.09191761 0.01020687
0002d0 13 27 d1 3d 41 88 58 3d fd c3 db bd 1c 66 c5 3c
       0.10212531 0.052864317 -0.10730741 0.024096541
0002e0 39 72 1f bd e8 c6 8e bd f0 23 be bd 0c 8a e9 bd
       -0.03892729 -0.06971532 -0.09284198 -0.114032835
0002f0 52 e8 a7 3c 68 c5 76 bd cc 95 2d be 76 13 02 3e
       0.020496521 -0.060246855 -0.16951674 0.12702736
000300 79 ca 95 3d f2 f3 0d 3d 20 96 aa 3d 75 95 c0 3d
       0.07314009 0.034656473 0.08329415 0.09403507
000310 a9 0d 7a bd 8e 18 b4 bd 56 91 ab bd 4e 47 ee bc
       -0.061048184 -0.08793746 -0.0837733 -0.029086735
000320 53 14 ba bd 87 65 eb bd d9 cb 76 3d 3f cb a0 3c
       -0.09085908 -0.11493974 0.060252998 0.019628165
000330 3a 9c 90 3b 73 d6 c2 bd c7 48 e8 bd f1 3f 41 be
       0.004413155 -0.09513559 -0.11342006 -0.18872048
000340 dd 50 98 bd 5b 83 13 be dd 00 4c 3d 2f 14 60 bd
       -0.074372984 -0.14405577 0.04980551 -0.05470675
000350 d9 f8 39 3d 39 01 39 3d fb 6b 8b 3e 15 be ef ba
       0.045403335 0.04516718 0.2723082 -0.0018290902
000360 40 62 47 3e 36 3c 42 3d 7b b5 f0 3c 3a 2b ee 3d
       0.19471073 0.047420703 0.029383412 0.116293386
000370 48 05 e3 3d 97 c1 a5 3d 5b 77 31 bd a8 a5 5f 3d
       0.11084992 0.08093565 -0.043326717 0.05460134
000380 80 86 47 3e aa ea 8d 3d 9c 19 94 3e 91 ef 38 3e
       0.19484901 0.06929524 0.28925788 0.18060137
000390 76 d2 90 3c 24 57 ab bd ef 2b cf bd e6 a4 93 bd
       0.01767848 -0.0836623 -0.101158015 -0.07209186
0003a0 87 ce d5 bd 88 04 ef bd 4e 8e 77 be 38 6f 84 be
       -0.104397826 -0.11670786 -0.24175379 -0.25866103
0003b0 b7 36 12 bd 7d 42 f4 3b b2 e3 09 be 32 b7 06 be
       -0.03569671 0.007454215 -0.13465765 -0.13155821
0003c0 63 53 71 be d0 8d 33 bd 4f e2 63 be 80 a7 26 be
       -0.23566966 -0.043836415 -0.22254299 -0.16274834
0003d0 5a dd 9d bc 27 70 d7 3d 0c b3 85 bc 8c e3 a7 bb
       -0.019270588 0.10519438 -0.016320728 -0.0051235612
0003e0 46 4c 80 3d 09 4f c6 3d f4 c5 e7 bc 1c 02 cc bd
       0.06264548 0.096830435 -0.028292634 -0.0996134
0003f0 da 8e 32 3e 3a 4f 4b 3e e7 c5 dd 3d 39 c6 2f 3e
       0.17437306 0.19854441 0.108287625 0.1716546

bias f4 [16]
000000 52 ad b6 bd c1 13 b4 3d 1c 0f 2e 3d d8 98 d9 3c
       -0.08919777 0.0879283 0.04249488 0.02656214
000010 33 a5 ac 3d 82 11 8d 3d 82 a7 4f bd 6e a4 d5 bd
       0.08429947 0.06888105 -0.050696857 -0.10431753
000020 cc 19 7e bd d9 69 74 bd 5f 8d 86 bd 76 ef 15 3d
       -0.06203632 -0.059671257 -0.06569933 0.03660532
000030 00 31 ac 3c 98 1b da 3d 76 bf b9 3d 38 15 67 3d
       0.021019459 0.10649794 0.090697214 0.05641672

weight f4 [32, 16, 2, 2]
000000 f8 60 07 3d a0 71 09 3e 3c 3a b8 3d c1 3b 7e 3e
       0.03305146 0.13422251 0.08995482 0.24827482
000010 f4 78 bd bc 42 da 82 3d 3e 88 0e 3e d0 fa ac bd
       -0.023128964 0.063892856 0.1391916 -0.08446276
000020 92 39 00 3e 94 d5 d5 3d a7 7f 38 3d aa be ad 3d
       0.12521961 0.104411274 0.045043614 0.08483632
000030 8d b3 e9 3d bd 16 a4 3d b6 95 97 3d d3 c7 98 bc
       0.114112 0.080121495 0.07401602 -0.018649971
000040 7e f7 c6 3d 56 e7 f7 3d b9 3b 07 3e 94 fb 83 bc
       0.09715174 0.12104671 0.13206376 -0.016111173
000050 b3 b7 1f bd bd 0c 81 3d c9 0e 02 bd 58 42 e5 3d
       -0.03899355 0.06301258 -0.03175238 0.11194295
000060 62 11 e0 3c 29 39 0b 3e 4b e8 3e 3d 48 6e e0 3d
       0.027352039 0.13596024 0.04660825 0.109585345
000070 da 11 89 3d 1c 16 3c 3d a3 12 b6 bb 45 6f 8d 3d
       0.06692858 0.045919523 -0.005556421 0.069059886
000080 f8 2b cd 3c c0 d0 1e 3d 73 df a1 bd ce d7 a1 3d
       0.02504538 0.0387733 -0.07903948 0.079024896
000090 f3 b5 21 3c c5 90 c9 3d d0 65 9d 3d bc d6 1b 3e
       0.00987004 0.09842066 0.07685435 0.15218633
0000a0 e4 26 b7 bb 3b 26 0a 3e a3 fc cc 3d 05 54 6f bd
       -0.005589353 0.13491146 0.10009124 -0.058429737
0000b0 94 80 8a 3d 64 61 07 be a8 5d fa bd cd 99 9d bc
       0.067628056 -0.13220745 -0.12224895 -0.019238377
0000c0 a0 d8 b1 bb b1 70 db 3d 14 12 e2 3d a6 f7 37 bd
       -0.005427435 0.107148536 0.110386044 -0.04491391
0000d0 62 31 8b 3d 2e c4 0a 3d 10 74 48 3e a8 9d d0 bc
       0.067965284 0.033878498 0.19575524 -0.025465801
0000e0 9c d2 2c bd d7 ae 88 3d fa 6c 91 bd 76 de e4 bb
       -0.04219304 0.06673973 -0.07100864 -0.006984527
0000f0 ca ea 7f bc f6 8e 3b 3d 15 dc c9 bc 35 67 c0 bd
       -0.015619943 0.045790635 -0.024641076 -0.09394685
000100 35 2a 4a be e1 65 e8 3c 72 da 4e be 74 66 4f 3d
       -0.19742663 0.028368892 -0.20200518 0.050634816
000110 ed 94 f2 3c 03 89 1e bd c7 75 8f 3c fb 46 e0 bd
       0.029612029 -0.038704883 0.017512215 -0.109510385
000120 c8 7d 01 bd 79 01 70 3d 8c 83 79 bd 75 72 c5 bd
       -0.031614095 0.058595154 -0.06091647 -0.096409716
000130 c3 62 96 3d 17 bb 9b 3d 53 4d de 39 3d 36 0a 3c
       0.07343056 0.07604044 0.0004240075 0.008435783
000140 16 14 f3 3d 5a 8a b9 bd 97 ef 8d 3c 26 82 91 3d
       0.118690655 -0.090595916 0.01732616 0.07104902
000150 db d1 31 bd 31 53 7b bd ba 7d 58 3d 32 ca cf 3d
       -0.043413024 -0.061358634 0.052854277 0.101459876
000160 41 5b c0 3d b4 22 31 3d bd 5d 99 bd 2e c6 7a 3c
       0.09392405 0.043245986 -0.07488582 0.015306039
000170 91 1a 2b bd d0 9b 39 3d 0b 4b 7d bc ba 20 a6 3d
       -0.041773383 0.04531461 -0.015459786 0.08111711
000180 25 56 ef bd dc 8b 76 3c 7e d3 47 bd 64 89 a2 bd
       -0.11686353 0.0150479935 -0.04878568 -0.079363614
000190 08 95 b7 bc 6a 84 91 bc 2b 60 37 bb d8 6b 0b be
       -0.02240993 -0.017763335 -0.0027980905 -0.13615358
0001a0 93 19 9e bd cd 88 91 bd 5b 01 88 3d 71 27 00 bc
       -0.07719722 -0.07106171 0.066408835 -0.007821904
0001b0 73 9c fe 3d 91 58 62 bc f8 83 ca bd 84 e1 7c bd
       0.12432184 -0.013815061 -0.09888452 -0.061738506
0001c0 11 46 73 3b 2a d6 7b bc c7 4f 0b bb f3 cf c2 3c
       0.003712062 -0.015370885 -0.0021257268 0.023780799
0001d0 fd 07 8a bd 01 a3 ef bd b3 4b bc bd 5f 38 8b bd
       -0.06739805 -0.117010124 -0.09194126 -0.06797861
0001e0 18 1d 0d bc b9 21 00 be d3 5a 9d bd d2 0d 39 3d
       -0.0086128935 -0.12512864 -0.07683339 0.045179196
0001f0 a0 4d 0c be 9c 4b 8d bd 16 98 07 3d 66 73 cf bd
       -0.13701487 -0.06899187 0.033104025 -0.101294324
000200 56 d2 c6 3d 4d f2 fd 3d fe 07 bc b9 1e 66 2f be
       0.09708087 0.12399731 -0.0003586411 -0.17128798
000210 b9 7e 9e 3d c7 5f 13 3e a8 6c 08 3c cc 56 b7 bd
       0.07739014 0.14392005 0.008326687 -0.08952102
000220 07 6a 9c 3d aa 85 21 3d bb 81 28 bd 7e 96 ad bc
       0.076374106 0.039434113 -0.041139346 -0.021189924
000230 d5 79 d0 3a 88 c1 42 bd 7a 86 2f be 3e 27 17 bd
       0.0015905449 -0.047547847 -0.17141142 -0.03690266
000240 a0 87 94 3d 42 6d ff 3d 35 12 82 bd 67 9f 81 3d
       0.07252431 0.12472011 -0.06351129 0.06329232
000250 09 a7 f7 bd eb 51 5f 3d 43 5a 4b bd 28 f1 ec 3c
       -0.12092406 0.054521482 -0.049646627 0.028923586
000260 4f f5 e9 bd e8 88 e1 3d 1e 0c da bb d7 eb e3 3c
       -0.11423742 0.11012441 -0.0066542765 0.027822418
000270 d7 76 4e 3c 0a d8 06 3e 8c 87 c4 bd d8 41 ce 3c
       0.012601576 0.1316835 -0.09596166 0.025177881
000280 08 e1 45 3e 12 bd 2c 3e 4e 85 3d bc ce b4 90 3d
       0.19324124 0.16869 -0.011567427 0.07065736
000290 dd dc 92 bc 42 73 85 3d 01 16 b8 3d a5 e6 07 3c
       -0.017927581 0.06516124 0.08988572 0.008294736
0002a0 6a 93 c0 3d 52 1c fd 3d 92 c4 4c bd 0d c1 7c bd
       0.09403117 0.12358917 -0.04999215 -0.061707545
0002b0 08 00 57 3e 73 01 1c 3e 39 02 a3 bc 66 56 81 3e
       0.20996106 0.15234928 -0.01989852 0.2526123
0002c0 c6 67 99 3c 76 51 04 3e 29 13 ad 3d 95 36 72 bd
       0.01872624 0.129217 0.0845092 -0.059134085
0002d0 23 85 e1 bd b7 23 cd 3d 8a fd b7 3d 57 11 e0 3d
       -0.11011722 0.10016578 0.089839056 0.10940807
0002e0 f2 84 02 be 8b ab f7 3d 0d d8 d4 3d 94 8b 82 3d
       -0.12746027 0.12093266 0.10392771 0.06374279
0002f0 ab 47 48 3e c2 45 1e 3e 01 57 b2 3d 29 de c2 bc
       0.19558589 0.15456298 0.08708001 -0.023787575
000300 35 54 c2 bd fb d5 de bd d0 90 f6 bd ad bd 0d be
       -0.094887175 -0.10880657 -0.120393395 -0.13841887
000310 44 b4 ca 3c 4b 64 f2 3d dc 7e 29 bd ba 95 c3 bc
       0.02474416 0.118355356 -0.04138075 -0.023875106
000320 11 0c 00 be 88 ef a7 3d 95 99 c1 3d 76 46 6c bd
       -0.12504603 0.08199984 0.094531216 -0.057684384
000330 97 9b 5a bd 32 82 d6 3d bd 9c bc 3d b3 11 62 bd
       -0.05337104 0.104740515 0.09209583 -0.05519266
000340 83 27 79 3d fe 15 27 3d 21 06 06 be a0 25 41 be
       0.060828697 0.040792458 -0.13088275 -0.18862009
000350 9b 66 2d bb 35 8f 61 be 10 fb c0 ba e5 8f 15 be
       -0.0026458863 -0.22027285 -0.001472326 -0.14605673
000360 b9 32 bc bd bd ea d5 bd 88 38 f8 3d 3e 15 78 3d
       -0.09189362 -0.104451634 0.121201575 0.060567133
000370 3a 10 b6 3d 6b 65 c3 bd a0 ee dc bb c8 0e 17 3c
       0.08889814 -0.09540828 -0.0067423135 0.009219833
000380 fa 6b fe 3d 7a a4 fb 3d e8 82 76 3d 97 bb ce 3d
       0.12422939 0.12287231 0.060183436 0.10094374
000390 be f9 96 bc 00 8a 44 bd 5b 33 f7 bc 43 d7 c6 bd
       -0.018429633 -0.04798317 -0.030175855 -0.09709027
0003a0 65 ed 96 bd 89 71 65 bd b9 5e 37 3c 8b 3e 9a bd
       -0.07369498 -0.05601648 0.011192017 -0.075314604
0003b0 ca f3 8c 3e 12 b6 5b 3c b9 9d 3f 3d ff 0d 7e bd
       0.27529746 0.013410108 0.046781275 -0.062025066
0003c0 41 90 a2 3d 19 96 a5 3d 66 c8 a5 3d b6 bb 25 3e
       0.079376705 0.080852695 0.080948636 0.16184887
0003d0 ef f1 c5 bc 1e 88 c3 3b b7 19 4a be a1 ad 09 3e
       -0.024163214 0.005967154 -0.19736372 0.1344514
0003e0 fd 4f ab bd 50 12 1b bd 1a dc 64 bd 6a 1b 22 3e
       -0.08364866 -0.03785926 -0.055873968 0.1583077
0003f0 97 52 a6 3c 03 4a b2 3d f3 18 6a 3e 5d f2 26 bd
       0.020303054 0.08705523 0.2286108 -0.04075848

bias f4 [32]
000000 5e fa ea bd 6e 2b 70 ba 57 33 84 bd 05 6f a6 3c
       -0.11473535 -0.0009161745 -0.06455105 0.02031661
000010 31 18 dc bd b4 18 e0 3b ba 3d 13 3d 1f e0 79 bc
       -0.10746802 0.0068388823 0.03594754 -0.015251189
000020 a5 eb 95 bd d6 59 5d bd b5 9c 18 be 88 04 88 bd
       -0.07320336 -0.054040752 -0.14903529 -0.06641489
000030 de c4 a7 3d 38 78 78 3d 91 de 31 3d 93 33 c7 bd
       0.08191846 0.060661525 0.043425146 -0.09726634
000040 47 ec 96 bb 5b 9c 8e bd dc 08 4e bd d5 88 3c be
       -0.004605803 -0.06963416 -0.050301418 -0.18411572
000050 65 68 ec bd 2b c4 b8 3d ce c3 63 3d 35 e1 e3 3c
       -0.11543349 0.09021791 0.055606656 0.027817348
000060 84 ad 43 3d de 2f f2 bd b2 23 0b be 55 f3 30 bc
       0.0477729 -0.11825536 -0.13587835 -0.010800202
000070 42 86 73 3d 49 4c fb bc 09 4c 22 3d 75 b8 b3 bd
       0.05945421 -0.030676024 0.039623294 -0.08775417

weight f4 [32, 32, 2, 2]
000000 e4 ac 20 3e 85 7d 7e 3d 2f b6 da 3d 89 bb 87 3d
       0.15690953 0.062131424 0.1067928 0.06627566
000010 7f ad ae 3d e7 70 6b bd 38 c8 5d 3a 7e c5 0b 3d
       0.085291855 -0.05748072 0.0008460316 0.03412389
000020 48 0f 5d 3d 0a a2 96 bd 91 93 b8 bc b0 2a 60 bb
       0.05396965 -0.07355125 -0.022531303 -0.0034205131
000030 e4 78 c3 bd d5 18 4e 3d eb 3e 58 bb ae a6 93 3d
       -0.095445424 0.05031665 -0.0032996486 0.07209526
000040 5d 4f cc bd 9a af a7 bd d9 35 84 bd b5 98 e0 bd
       -0.09976075 -0.0818779 -0.06455583 -0.109666266
000050 c1 2e f9 3c 71 d4 ca bd 69 f1 00 3d 08 40 64 3d
       0.030417802 -0.09903801 0.031480227 0.055725127
000060 29 ef 78 3d 4f e8 db 3d b6 0b 78 bd aa 40 8d 3d
       0.060774956 0.10737669 -0.060558043 0.06897099
000070 6c c1 33 bd 0e 08 aa 3d a6 2f 63 3d c0 77 8b bd
       -0.043885633 0.083023176 0.055465363 -0.0680995
000080 29 a1 79 bd a6 1d ea bc 59 72 1f 3d df 2f 06 3b
       -0.06094471 -0.02857859 0.03892741 0.002047531
000090 06 ab 50 3e 83 71 43 3e dc 3b 3d 3d 27 35 4c 3e
       0.2037774 0.1908627 0.046199664 0.19942151
0000a0 24 2f 03 3e 50 41 d5 3c 31 1e 28 3e 11 f7 73 3d
       0.12810951 0.02603212 0.16417767 0.059561793
0000b0 12 2d f4 3b 00 04 6d 3c 49 37 0c 3d 4f a9 5b bc
       0.007451662 0.014466286 0.03423241 -0.0134070655
0000c0 45 88 62 bd 1c 84 4f bd bc f4 04 bd e3 81 91 bd
       -0.055305738 -0.0506631 -0.03245996 -0.07104852
0000d0 bd f9 c5 bb 9d 27 64 3c ac fe 14 3b fb c8 6f bd
       -0.006041734 0.01392546 0.0022734804 -0.05854128
0000e0 24 96 aa 3a 47 4f f0 bc 86 65 e5 bd da ee cc bd
       0.0013014716 -0.029334677 -0.11201005 -0.10006495
0000f0 87 6e 71 3c 3d 5a 0f bd 22 2c 70 bc 6a 16 11 3d
       0.014735824 -0.034998167 -0.01465896 0.035421766
000100 46 56 81 be ed 1c 5d be e9 d8 a0 be 12 49 1a be
       -0.25261134 -0.21593066 -0.3141549 -0.15066937
000110 a2 f8 e1 3d 29 d4 bd bd c0 00 f8 bc 2f ca e3 bd
       0.11033751 -0.09268982 -0.030273795 -0.11122548
000120 35 54 06 3e 4f 9e a1 3c 7d 00 fe 3d 38 a1 4c 3d
       0.1311806 0.019728808 0.12402437 0.049958438
000130 a7 07 9e 3d 8d 72 a8 3c 10 40 0f 3e 26 53 fb 3d
       0.07716303 0.020562435 0.13989282 0.12271719
000140 f5 98 df 3d f0 a0 b9 3b aa 0f 30 3e 61 50 0b 3e
       0.10917846 0.005664937 0.17193475 0.13604881
000150 b1 f8 42 3c 71 2f 33 3d 22 f6 0f 3d 5e 61 9d 3c
       0.011900113 0.043746416 0.03514684 0.019211467
000160 a3 f5 84 bd 15 bd 96 bd 84 6a 35 bd 2b df ce bd
       -0.06492164 -0.07360283 -0.044291034 -0.1010116
000170 4a 52 80 bd 6d 16 65 bd 2d af 87 bc 3f 9f 2d 3d
       -0.062656954 -0.05592959 -0.016563023 0.042388197
000180 3a 31 a2 bc 0a 4d b0 bd 42 37 3d 3c 1e 4a 89 3c
       -0.019798864 -0.08608444 0.011548819 0.016758975
000190 c7 17 0b 3e f5 f4 d6 3b 78 49 db 3d e1 c4 39 3e
       0.13583289 0.006559963 0.107073724 0.1814151
0001a0 44 25 85 bd 41 a9 9c 3d 75 c9 6c 3d 15 ef 85 ba
       -0.065012485 0.0764947 0.057809312 -0.0010218347
0001b0 06 1c 59 bd 0f de ad 3d 22 92 44 bd a5 64 38 3d
       -0.05300524 0.0848962 -0.047990926 0.045017857
0001c0 8b b7 b2 bc 50 58 cc bd a4 f3 b2 bd ee cb 7a bd
       -0.021816036 -0.09977782 -0.08737877 -0.06122964
0001d0 32 0c 55 bd 63 33 95 3c 18 fb 7e b9 d8 23 a3 3d
       -0.052013583 0.01821298 -0.00024316867 0.07965821
0001e0 67 e0 1e bd f0 62 08 3d 09 7c 83 3c 97 ab 83 bc
       -0.038788226 0.03329748 0.016050356 -0.016073031
0001f0 65 09 1d 3d 27 6a 33 3c 51 0a 28 3d 96 f6 a8 3c
       0.038339037 0.010950602 0.041025463 0.020625394
000200 0a cd 94 3c 00 f9 36 3e 2d 5c 03 3e 31 41 6b 3d
       0.018164176 0.17868423 0.12828131 0.05743522
000210 a1 84 bc 3c 99 3c fc 3c 1f d8 09 3d f9 15 0d 3d
       0.023012461 0.030790614 0.033653375 0.034444783
000220 9b 81 6e bd ca 07 94 bd 18 68 0c bd 73 44 e3 bc
       -0.05822907 -0.07228048 -0.03427896 -0.0277426
000230 8b 3e b0 3d 3f e6 60 bc b3 ee 6b bc ec d6 98 3d
       0.08605679 -0.01372677 -0.014400172 0.07462868
000240 1b 7b 3c 3e 46 4b 05 3e 3c d9 0a 3e 6e 9f c6 bb
       0.18406336 0.13016996 0.13559431 -0.006061486
000250 a3 12 7e 39 d9 f8 70 3d fd e5 0d bd 33 91 0b bc
       0.0002423027 0.05883107 -0.034643162 -0.008518505
000260 56 04 ee 3d 4a 8f 9d 3d 5f f3 da bc 53 f5 bd 3d
       0.11621921 0.07693346 -0.026727377 0.092753075
000270 16 7d b7 3d 4c e7 ed 3d e8 0f 02 3e b4 47 b8 bc
       0.08959405 0.11616382 0.1270138 -0.022495128
000280 49 7e c8 3d ee fd 72 bd 08 d7 63 bd 5d 7c 06 bd
       0.09789712 -0.059324197 -0.05562499 -0.032833446
000290 0a 14 3f 3d 0f 0b 7d 3e 65 20 33 3e 63 62 15 3e
       0.04664997 0.2471125 0.17492826 0.14588313
0002a0 d8 84 47 3e 20 60 35 3d e7 af 1d 3e bd a8 fd 3c
       0.1948427 0.044281125 0.15399133 0.03096425
0002b0 28 5e 38 3c aa ac 66 bd ec 4b 7a 3d cb 77 79 bd
       0.011252917 -0.05631701 0.06110756 -0.06090526
0002c0 b7 d0 8f 3c 9a 8b a3 bd 4f 3c 63 bd e8 8f bf 3c
       0.017555578 -0.07985611 -0.055477437 0.02338405
0002d0 5c 8b 3c 3d 83 be d8 3c 2b f4 ba 3d ae e5 a7 bc
       0.04603134 0.02645803 0.091286026 -0.020495262
0002e0 36 5a 85 3b 6a 65 c7 3d ba 92 11 bd 3b ca 0f 3e
       0.004069592 0.0973614 -0.03554032 0.14041989
0002f0 1f 1d 27 3c 8d cd fb 3b 4d dc 8e 3d cb 99 c4 3b
       0.010199814 0.0076844157 0.06975613 0.005999779
000300 d6 b8 65 be ef 41 a5 bd 6d e5 5c be 9d ac 8c bd
       -0.2243379 -0.080692165 -0.21571894 -0.06868861
000310 70 89 b3 3d 31 e9 99 3d 32 85 29 3e a5 70 4b 3d
       0.087664485 0.07515181 0.16554716 0.049667973
000320 f1 31 82 3d c5 48 80 bd ca 4e 34 3c ef 85 54 bc
       0.06357182 -0.0626388 0.011005113 -0.012971385
000330 f2 3b 44 3c 00 56 c1 3d 1f 14 0f 3e fc 43 73 3d
       0.011977183 0.09440231 0.1397252 0.059391007
000340 d8 c3 6e 3d b7 99 f4 3d b6 16 e5 3d 38 3f 00 3d
       0.05829224 0.11943381 0.111859724 0.03131029
000350 f1 15 e9 3d 68 26 84 3d e2 77 d5 3d 32 e4 01 bc
       0.11381138 0.06452638 0.104232565 -0.007927941
000360 d5 b8 ae 3d f4 97 44 3d 1e 4a 53 bd 2f ba 55 3d
       0.08531348 0.047996476 -0.051584356 0.05217951
000370 c0 43 3c bc 52 9f 55 3c f6 4f 60 bd 50 2d d7 bb
       -0.011490762 0.013038473 -0.054763757 -0.006566681
000380 75 06 42 3d 1c 5f 81 3d e0 e7 3d 3c dd 67 fa bc
       0.04736944 0.06316969 0.011590928 -0.030567104
000390 19 5b df 3d cc 1a ff 3d b3 4d 1c 3e ea 1d 9f 3d
       0.109060474 0.12456283 0.15264015 0.077693775
0003a0 1c 14 59 3d b3 f1 09 bd e7 9c a2 bd c2 c2 d4 bc
       0.052997693 -0.033677768 -0.07940083 -0.025971774
0003b0 af b5 6d 3d ae 23 ac bc f5 0c 6e 3c 09 23 85 3c
       0.058034595 -0.021013107 0.014529456 0.016252058
0003c0 28 13 d0 3d 81 8c 3f 3d ab 14 ae 3c b0 f1 61 3c
       0.10159904 0.046764854 0.02125009 0.013790533
0003d0 9f 95 6d 3d 30 0c 07 bd 1a 10 bf bc 14 cd 40 3c
       0.058004018 -0.032970607 -0.023323108 0.011767644
0003e0 16 9e dc 3b 2e 1f 27 bd e8 c9 80 bd 67 e2 35 bd
       0.0067327125 -0.04080122 -0.062885106 -0.044405367
0003f0 f1 02 89 3d 28 c2 38 3e 61 33 6f 3d 2e 2d 20 3e
       0.06690014 0.18042815 0.058398608 0.15642235

bias f4 [32]
000000 5b ab 3f bd b3 7f 5a bd e7 4b 18 3a f8 a1 8a bc
       -0.046794277 -0.05334444 0.000580965 -0.016922936
000010 a7 56 4f bd 85 20 d9 bb e2 f2 91 3c a6 30 60 3a
       -0.050619747 -0.006626191 0.01781601 0.0008552171
000020 cc e0 27 3d cd 00 9f bd fa 05 a9 3c 13 f0 b7 3c
       0.040985867 -0.077638246 0.020632733 0.022453343
000030 35 c3 18 bd 4c d6 f2 bc 06 84 d9 3c 02 89 af bd
       -0.03729554 -0.0296432 0.026552211 -0.08571054
000040 93 1b 3b 3d d7 4c 8c 3d 5c c7 8a 3b 2f 98 1a 3d
       0.045680594 0.068505935 0.0042351913 0.03774279
000050 ff df 69 3c 16 f6 71 3d 95 df 1f 3d bc bf 78 bd
       0.014274596 0.059072576 0.039031584 -0.060729727
000060 a5 d0 0a bd 99 93 96 3d ec ef dc 3c b9 b7 83 3c
       -0.033890385 0.07352371 0.026969872 0.016078817
000070 ec 9c 05 3d 40 87 24 3b 13 0b f1 3c 0b a2 94 3c
       0.032620355 0.002510503 0.029424226 0.018143674

weight f4 [64, 32, 2, 2]
000000 2c 65 36 3d 50 86 71 bc b6 2f 76 3d 75 03 a5 3d
       0.04453008 -0.014741495 0.060104094 0.080573
000010 5d ff 67 bd 11 b9 bc bd 97 07 37 bd ba 76 1b 3d
       -0.056640018 -0.09214986 -0.044684973 0.037955023
000020 9a b6 a1 3b e7 9b ff bc 00 5b 24 3d eb 5a 03 3e
       0.004935098 -0.03120227 0.040125847 0.12827651
000030 0c ff cf 3c 32 a1 9e bc 3f 25 8a bd 17 59 c2 bd
       0.02539017 -0.019363973 -0.067453854 -0.09489649
000040 b6 fd 78 3d 5f 43 bd 3d 4a 5c 1a bd 7c 02 62 3d
       0.060788833 0.09241366 -0.03768567 0.05517815
000050 80 6d 45 bd 0f c7 a2 3c 98 65 a0 bc 41 9f 35 bd
       -0.04820013 0.01987031 -0.019579694 -0.04434133
000060 c6 1c 74 bd 9d b6 c4 3d d0 35 c2 bb 1b eb 60 3c
       -0.059597753 0.09605143 -0.005926825 0.0137279285
000070 85 be a0 bd cf 29 fc bc 31 09 3c 3c 89 9b 39 bc
       -0.07848839 -0.030781655 0.011476801 -0.011328586
000080 85 fa 8c 3c aa de 16 3d 22 ef 1d 3e 52 9f b6 3c
       0.0172093 0.036833443 0.15423253 0.022292767
000090 50 e1 17 3b 50 0f f2 3d d4 65 9f 3d 1a f0 8b 3d
       0.0023175068 0.11819327 0.07783094 0.06832905
0000a0 ec 97 c9 3d 98 62 22 bd dc 61 34 bd 74 d3 69 3d
       0.0984343 -0.039644808 -0.04403864 0.057086423
0000b0 88 72 74 bc 5a c7 c3 bd e5 9c 07 be 1f 96 c6 bd
       -0.0149198845 -0.09559508 -0.13243444 -0.09696602
0000c0 4b 00 c8 bd 93 92 8d 3b f7 a8 05 3c ff ff 94 bd
       -0.09765681 0.0043204515 0.00815796 -0.0727539
0000d0 61 ab 76 bd f5 da 36 bd 35 8f 5a bd 8e e6 2d 3d
       -0.060222033 -0.044642407 -0.05335923 0.042456202
0000e0 d1 5b a5 3d 20 eb e1 38 3b 00 46 3d 5b 27 02 bd
       0.08074153 0.000107726315 0.048340064 -0.031775814
0000f0 33 14 f0 3d c5 7b f2 3d c3 7a e3 3c 1f ec 71 bc
       0.11722603 0.118400134 0.027768498 -0.014765768
000100 6b 1b 1f be ed 48 03 be a8 84 b8 bd 66 8b f0 bd
       -0.15537803 -0.12820788 -0.09009677 -0.11745338
000110 93 c9 95 3d 8b 2f 40 bc b6 7a 2e bd 24 76 56 3c
       0.07313838 -0.011730085 -0.042597495 0.01308969
000120 7f 54 00 bd 59 c8 78 bd 67 41 f8 bd da 28 73 3b
       -0.03133058 -0.06073794 -0.121218495 0.0037103207
000130 32 19 9f 3c f3 bb 4a 3d fa e0 95 3b cc 16 1f bd
       0.019421194 0.04949565 0.0045739384 -0.0388401
000140 6d 30 2e bb b7 e6 03 3d 1f 55 db ba ee e3 a2 3d
       -0.0026579157 0.03220245 -0.0016733742 0.079536304
000150 5e 60 0b 3d 2f 8b 65 3c 58 d4 e7 3d ed 4c 07 3e
       0.03402745 0.014010235 0.11319798 0.13212939
000160 80 2c a1 3d 69 d6 5e bd 24 9a a5 bc 4f 37 88 bc
       0.07869816 -0.054403696 -0.020215102 -0.016627936
000170 a0 25 9f bc 96 b6 c9 3c 52 a8 4a bc 60 ad fd 3c
       -0.01942712 0.024623197 -0.012369232 0.03096646
000180 f0 45 cb 3c e6 77 81 bd 55 d7 7a 3d 4f 89 c5 3c
       0.024813622 -0.06321697 0.061240513 0.024113325
000190 ee 61 d3 bc c8 34 03 bd 1c 7e 70 bd 8c 12 6f ba
       -0.025803532 -0.032032758 -0.058714017 -0.000911989
0001a0 84 64 a0 3d 8a 6f d0 3d 46 45 a6 3b a3 57 99 3d
       0.07831672 0.101775244 0.005074176 0.074874185
0001b0 39 3f 23 3d 58 a2 90 3d d3 c8 c7 3c 19 8d a5 3d
       0.039855216 0.070622146 0.024387753 0.08083553
0001c0 ef 74 bf 3c 35 2f d8 3d ea 38 c8 3d 20 c2 37 bd
       0.023371188 0.10555879 0.097764805 -0.044862866
0001d0 87 e8 1e 3b 77 60 3e 3d b4 f9 99 ba 8b 37 9a 3d
       0.0024247484 0.046478715 -0.0011747391 0.07530125
0001e0 d8 6b 8a bd 1c 87 6b bd 64 ce 8a ba ce 6f 92 bd
       -0.06758851 -0.057501897 -0.0010590074 -0.07150231
0001f0 47 b0 41 bd 3c 53 9f 3d 0b 09 8a 3d 5e 93 a2 bc
       -0.04728725 0.077795476 0.06740006 -0.01984566
000200 42 bf 6d 3e f3 36 2a 3e f2 57 09 3e ec f5 de bc
       0.2321749 0.16622524 0.13412455 -0.027216874
000210 69 0f 75 3d 17 ea b0 bd 6e 0a d0 bd 98 cd 1d be
       0.05982915 -0.08638399 -0.10158239 -0.15410459
000220 d9 a9 00 3e 45 f6 6d 3d 3e be f8 3d 50 02 0b bd
       0.12564792 0.05809619 0.12145661 -0.033937752
000230 e5 18 94 3d cd d8 93 3c 3b be 90 3c 53 3e c4 bd
       0.07231311 0.018047715 0.017668834 -0.095822
000240 dc 00 45 3e 20 98 d0 3d 46 fe 41 3e f4 cd a9 bc
       0.19238609 0.101852655 0.18944654 -0.020728089
000250 f4 8a 24 3e 82 91 d5 3c 02 ee 3f 3e a1 d4 13 bd
       0.16068631 0.02607036 0.18743137 -0.03609145
000260 77 96 91 3d 66 76 ab 3c 1a f7 ac 3d 59 78 fb bc
       0.07108777 0.02093048 0.084455684 -0.030697035
000270 c4 75 4d 3b bc 35 78 3d ff ba 41 3d 10 f9 6b 3d
       0.0031350711 0.06059812 0.047297474 0.05761057
000280 e3 d9 14 3e 5b fd a5 bb d2 e8 1c 3e 26 5b 8c 3c
       0.14536242 -0.0050656027 0.15323189 0.017133307
000290 d8 02 8a 3e cc ba 70 3d a1 f9 b9 3d b5 7e fd 3c
       0.26955295 0.058771893 0.09080816 0.030944208
0002a0 97 d1 81 3d 7e c7 20 bd a7 95 2c 3d ee 0c 2c 3e
       0.06338804 -0.03925275 0.042134907 0.16801807
0002b0 85 f8 ae 3d 57 cc 00 bd 14 d9 22 3d a3 91 0e bd
       0.08543495 -0.031444874 0.039757803 -0.03480686
0002c0 1d 43 27 3e 4a d9 c7 3d ef b7 3d 3e 58 40 34 bd
       0.16334195 0.097582415 0.18527196 -0.044006675
0002d0 4d 07 1d 3e 07 71 f1 3d 27 c6 6e 3e 58 b4 1d bd
       0.15334816 0.117891364 0.23317777 -0.038502067
0002e0 a5 04 56 3d 22 2e 71 3d 92 ed 95 3c 83 79 48 3c
       0.052250523 0.058881886 0.018301759 0.012236002
0002f0 63 0b ab 3e d3 26 66 3d 48 f9 25 3e bf 88 70 bd
       0.33407125 0.05618937 0.16208375 -0.05872416
000300 16 b4 2a 3d a8 e5 6a 3d 49 e5 96 3d 56 20 c9 3d
       0.04167565 0.057347924 0.073679514 0.09820621
000310 d5 63 92 3d 35 dc 10 3d 27 59 4f bd a4 30 b4 bc
       0.07147948 0.035366256 -0.05062213 -0.02199585
000320 0d 8a 25 3d b1 d8 5e 3e f1 0b a5 3e ed b3 b4 3e
       0.04041486 0.21762349 0.32235673 0.35293522
000330 87 28 a5 bc fd 78 8e 3d 58 32 bf 3c 83 4e ba bc
       -0.020160927 0.069566704 0.023339435 -0.022742515
000340 e1 f9 04 3e 3a da f2 3d 5d 38 01 3e cd 61 6c 3c
       0.12985946 0.1185803 0.12619157 0.014427614
000350 78 4b 3e 3d 2e 29 c4 3b 7e 74 79 3d 4a 3d 11 3d
       0.04645869 0.0059863543 0.06090211 0.03545884
000360 d8 1c 13 bd 72 11 a4 3d 7c b7 cd bc 51 f9 33 3d
       -0.03591618 0.0801114 -0.025111906 0.04393894
000370 b3 ab 53 3e 2c 86 5c 3d 3b 47 f9 3c 68 9e 84 bd
       0.20670967 0.053838894 0.030429473 -0.06475526
000380 57 66 87 3e ee 00 0e bc 9e bf 3a 3e c2 03 08 bc
       0.26445267 -0.008667214 0.18237159 -0.008301677
000390 84 33 37 bd b6 dd 49 bc af b0 28 bd da 80 94 bd
       -0.044726864 -0.012320926 -0.041184124 -0.07251139
0003a0 c3 2f c2 3d 5c ae 21 bd 4a 4b 11 3d 74 75 f4 3d
       0.09481766 -0.039472923 0.035472192 0.11936465
0003b0 ab 7b e7 3d 71 56 e2 3c ad c1 40 3d 64 1f 11 3e
       0.11302885 0.02762911 0.047059704 0.14172131
0003c0 01 87 2b 3d ab cc 06 3e f3 cc 4c 3c d0 56 0e 3d
       0.041876797 0.13164012 0.012500036 0.03475076
0003d0 c5 6e 45 3e 9f 38 d1 ba e6 e9 30 3e f5 d7 10 3e
       0.19280536 -0.0015962309 0.17276725 0.14144881
0003e0 fc 8e b0 3d 10 9d 08 3e d4 34 c3 3d 84 d4 8d 3d
       0.08621022 0.13341165 0.095315605 0.069253
0003f0 fc 29 1d 3e 28 7e 1f 3e fe ff 6e 3e 63 02 67 3e
       0.15348047 0.15575469 0.23339841 0.22559504

bias f4 [64]
000000 d8 4a 18 bd a3 d7 dc bc 0b 70 0a 3c 2a d3 41 bd
       -0.03718075 -0.026958292 0.008449565 -0.047320522
000010 35 de 20 3c df 66 eb ba c7 b6 7a bd 25 50 d3 bc
       0.009818603 -0.0017959735 -0.061209466 -0.025795052
000020 03 98 59 3d 7d d9 55 3c 51 ec 54 3c ff cb 94 bb
       0.053123485 0.0130523415 0.012995795 -0.00454092
000030 a3 e8 e8 bd 6f 9a 76 bc d2 d6 92 3c 61 47 4f 3d
       -0.11372497 -0.015051468 0.0179247 0.05060518
000040 18 a0 c2 bd 21 1b 26 3d 90 90 db bc d7 b2 5a bd
       -0.09503192 0.040553216 -0.026802331 -0.05339321
000050 de 21 2a be d6 73 64 bc 0d 85 1b 3b 52 4b f9 bd
       -0.16614482 -0.013943633 0.0023730427 -0.12172569
000060 eb b2 d1 bd c6 bc f5 bc 8a bf aa 3c 9d 19 97 bd
       -0.10239204 -0.02999724 0.020843286 -0.07377932
000070 92 30 45 3d 6c 35 18 3d a8 ad c2 bd 76 29 d1 3b
       0.048142023 0.037160322 -0.095057786 0.0063831164
000080 52 88 36 3d 9c 2a f8 bc c0 4e 7c 3c 6c 9a 93 bd
       0.0445636 -0.030293755 0.015399635 -0.07207188
000090 34 26 75 bd fa 58 37 bc 31 b7 e7 bd ad af bb bd
       -0.059850886 -0.011190647 -0.11314238 -0.09164367
0000a0 39 c8 22 bd 7f 12 4f 3c 4e c4 c5 bc 5c 3c 17 be
       -0.03974173 0.012638687 -0.024141457 -0.14769119
0000b0 0a 9b 66 bd 07 58 8e 3c 0f e3 3a 3d e5 c8 70 bd
       -0.0563002 0.01737596 0.045626696 -0.058785338
0000c0 15 34 83 bd af 27 81 3c 91 85 64 3d 7f a1 0f be
       -0.06406418 0.015765993 0.05579144 -0.1402645
0000d0 d8 b2 20 bd 45 e1 b6 bd bd d0 28 be d1 e8 5b ba
       -0.03923306 -0.089296855 -0.16485877 -0.00083888794
0000e0 d7 be 66 bd 0c 30 27 be 0f 13 4c be 9e fc aa 3c
       -0.056334343 -0.16326922 -0.19929145 0.02087241
0000f0 17 02 10 be d7 c0 12 bd 31 86 81 ba 2d 6e 0b be
       -0.14063297 -0.035828438 -0.0009881911 -0.13616247

weight f4 [64, 64, 2, 2]
000000 07 d1 18 3d f5 33 03 bd 4b 32 41 bd df 0d 4b bd
       0.03730872 -0.032031972 -0.047167104 -0.049573775
000010 ad 7c 2b 3e 39 19 ad 3d d5 e0 42 3e 7e 07 0e 3e
       0.16746779 0.084520765 0.19031079 0.13870046
000020 47 b5 0a 3d 0b 1b 04 3d cc da 57 3d df ae 0c 3d
       0.033864286 0.032252353 0.052698895 0.034346458
000030 63 7d 4a bd 9a 36 94 3c cf 28 1e bd 7c 11 79 3d
       -0.049435984 0.018092442 -0.038613137 0.06080769
000040 8b 68 a5 3d ff 8d f0 3d 26 35 7f bd 69 aa 28 bd
       0.080765806 0.117458336 -0.062306546 -0.04117814
000050 12 f4 8c bb dd ff 01 be 79 43 d3 bd 41 c8 dd bd
       -0.0043015564 -0.1269526 -0.10315604 -0.10829211
000060 34 5e a2 3d 24 71 12 3e 35 a7 e9 bc 2d c6 03 3e
       0.07928124 0.14300972 -0.028522113 0.12868567
000070 e6 9a 8b bd c6 2f 01 bd 7f d0 28 bc ce c8 09 bd
       -0.06816654 -0.0315397 -0.010303616 -0.033638768
000080 78 cd 80 3d ab 92 52 3d 62 6b ac 3d be a4 8c bb
       0.0628919 0.051409405 0.08418919 -0.0042920997
000090 14 c2 0a bd 61 76 9e 3c fa 98 82 3d 8d a7 2d 3d
       -0.033876494 0.019343557 0.06376834 0.042396117
0000a0 22 f6 a9 bc 74 40 c4 bd f0 83 10 3d 56 fe fd bd
       -0.020747248 -0.09582606 0.035282075 -0.12402026
0000b0 8e f1 43 3d 05 6a 66 bb ce 8b 20 bc c5 18 34 3b
       0.047837786 -0.0035158407 -0.009798957 0.0027480584
0000c0 b6 99 2b 3e c0 77 6a 3d 2e fe 90 3e 54 11 09 3e
       0.16757855 0.05724311 0.28318924 0.13385516
0000d0 e0 ea 8c bd 03 ca c9 bc 2e 8a af bd ed 40 f8 bd
       -0.06880736 -0.02463246 -0.085712776 -0.121217586
0000e0 0b 59 92 3b 8a 7b dd 3c b1 a6 7c 3d 9a 5a 8f 3c
       0.004466181 0.027036447 0.061682407 0.017499257
0000f0 58 74 ac bc 1b ad a6 3d 23 8b f8 bb ee 53 fc 3c
       -0.02105157 0.08138486 -0.0075849458 0.03080174
000100 9e 48 e0 bb ff cc c0 3a ab 05 23 3d 16 a2 a9 3c
       -0.006844594 0.0014709531 0.039800327 0.020707171
000110 99 d5 cd 3c 46 1c a2 3a b8 f8 89 3d f6 c9 38 3c
       0.025126265 0.0012368045 0.067368925 0.01127862
000120 9b 26 58 bc 1e 4d 3a 3d dc 81 c2 bd b9 01 b7 bd
       -0.013192798 0.0454837 -0.09497425 -0.089358754
000130 40 94 61 3d 73 dc ed 3c 25 8e 81 3e da 9e 5a 3e
       0.055073023 0.029035782 0.2530376 0.2134966
000140 1c e0 23 3e 93 e0 16 3e 88 fc 33 3d 96 08 86 3d
       0.1600346 0.14734106 0.043942004 0.065446064
000150 04 ff 1d bc 6b 03 85 3d 18 e0 e8 3c 73 3e 84 3d
       -0.00964332 0.064947926 0.028427169 0.06457224
000160 5f e6 62 bd 82 65 64 bc 38 68 e6 bd 18 01 e0 bd
       -0.05539548 -0.013940217 -0.11250347 -0.109377086
000170 60 3a 73 3d 76 eb 0e bd 4b db 7f bd b9 87 22 3d
       0.059381843 -0.03489252 -0.062464993 0.039680216
000180 ab ef b3 bd 46 74 ca b5 5b 0a af bd 15 0c 1a bd
       -0.087859474 -1.5084013e-06 -0.08546897 -0.03760918
000190 71 b9 37 3d a0 e5 a3 ba ed 1e c8 3d 7b ee 84 3c
       0.044854585 -0.0012504347 0.097715236 0.016226998
0001a0 d9 81 fd 3c 3e b7 32 3d 8f ca 05 3c 51 30 0a 3d
       0.030945705 0.043631785 0.0081659695 0.033737484
0001b0 b2 e9 df bc 19 b6 87 bd e9 ab 85 3b c2 fb 52 bc
       -0.027333114 -0.06626529 0.004079331 -0.012877407
0001c0 9a 6b 20 3d d7 e3 5c bc 52 91 0f 3d 87 e5 9c bc
       0.039165117 -0.013482056 0.035050698 -0.019152416
0001d0 26 0e 9b 3d 2e c7 3d bc f1 92 a0 3d 11 d8 a6 3c
       0.07571058 -0.011583133 0.07840527 0.0203667
0001e0 6a 32 73 3d a8 54 83 3b e2 8d 94 3d 37 e9 bc 3d
       0.05937425 0.0040078945 0.072536245 0.0922417
0001f0 b1 f6 04 bd 15 c5 97 bd d8 7c c2 bd 4d 6b 84 bd
       -0.032461826 -0.07410637 -0.09496468 -0.064657785
000200 12 41 77 3b ea 7d 56 bd f8 e0 bb bc 09 c1 d0 3c
       0.0037727994 -0.052366175 -0.022934422 0.025482671
000210 7c d2 98 3c 0b 89 b4 3c 6f 16 36 bc 06 77 3b 3b
       0.018655054 0.022038003 -0.011113747 0.002860488
000220 b2 c7 e0 3d 1d 2e 97 bc a1 09 71 bc 67 19 ce bd
       0.10975589 -0.018454606 -0.014711768 -0.10063439
000230 a6 79 45 bc ac 86 05 3d a1 2d 3d bd 88 81 16 3b
       -0.012052929 0.032599136 -0.046186093 0.002296539
000240 4f d1 85 3d 13 93 9c 3d 5f ba bd bb c6 0e 58 3d
       0.06534063 0.0764524 -0.0057900394 0.052748464
000250 67 b3 a7 bc 51 25 7e bc af 19 88 3b fd 41 22 bc
       -0.020471288 -0.015511827 0.0041534523 -0.009903428
000260 6f c5 b0 3b 5d ed d7 3c 00 37 55 bb bc eb 04 bd
       0.0053946297 0.0263583 -0.0032534003 -0.032451376
000270 ba 93 1c 3d f3 94 73 3c 62 7b 72 3c f8 34 af bc
       0.03822682 0.014867055 0.014799925 -0.021387562
000280 fc 37 db bd 6e 2b 2a bd 53 22 fa bd 92 cf b1 bd
       -0.107040375 -0.041545324 -0.12213578 -0.08682169
000290 11 3c d8 bd dc 4d c5 bc aa 24 f7 bd bb 52 f2 bd
       -0.10558332 -0.024084978 -0.1206754 -0.11832186
0002a0 da ee 55 3d 42 a3 a4 bc 29 83 62 3d 27 d2 b6 3c
       0.05222974 -0.020097379 0.055300865 0.022317005
0002b0 d5 b5 9c bd 5a f5 b8 bd b5 de 2b bd fd 37 48 bd
       -0.07651869 -0.09031172 -0.041960437 -0.04888152
0002c0 27 20 93 3d 9c c6 01 3e 56 d8 1e 3e 05 32 0b 3e
       0.07183867 0.1267342 0.15512213 0.135933
0002d0 bd 3b a3 3c ba 02 b5 bd 62 5d 77 bd 7b 79 f3 bd
       0.019925946 -0.08838411 -0.06039179 -0.11888405
0002e0 41 f8 37 bd da 8e 59 bd 4c bf da 3c 10 40 57 bd
       -0.044914488 -0.05311475 0.026702546 -0.05255133
0002f0 38 44 23 3c 0e a9 e3 bc 25 0b 14 bc 68 bc 5b 3d
       0.009964995 -0.027790572 -0.00903586 0.053646475
000300 cb 62 5f 3b 7a d0 50 3d 09 12 ca 3c e7 4a 11 3d
       0.0034085985 0.05098007 0.024666803 0.035471823
000310 8b cd 74 bd 6d ea 89 bc 86 5f ae 3d 01 44 69 3c
       -0.059766334 -0.016835416 0.085143134 0.014237405
000320 2b 78 cf 39 f5 cd 1a bd 87 83 4b bc 56 15 28 3c
       0.0003957165 -0.037794072 -0.012421495 0.010258993
000330 58 2e 27 bd 7d dc 8d bd 15 2a 42 bd bf 9e 4b bd
       -0.04081568 -0.069268204 -0.047403414 -0.04971194
000340 d4 5b 19 3c 72 bc 6b bd 08 47 28 bd 9c 2d c1 bc
       0.009360272 -0.057552762 -0.041083366 -0.023581319
000350 2d 88 21 bd d5 f0 91 bc 35 0e 46 bd 21 93 2c 3d
       -0.039436508 -0.017815033 -0.048353393 0.0421325
000360 6e 41 fc 3b fd 8a 3d 3c 65 14 d6 bc 0a cf 9d 3d
       0.0076982295 0.011568782 -0.026132772 0.07705505
000370 b1 cb 4b 3d 66 ad b5 bb 6b 6b 97 3d 3c 76 14 bc
       0.049754802 -0.0055443523 0.07393535 -0.009061392
000380 ea bb 93 3d d7 e5 ea 3d de fc 1c 3d 81 db 38 3e
       0.07213576 0.1146962 0.03832709 0.18052484
000390 cd 1f 2d bc 27 c1 63 3d ef 9c ba bc 43 f0 61 3d
       -0.010566664 0.055604126 -0.02277991 0.055160772
0003a0 76 85 87 bd 21 48 17 be 77 13 0f be a0 7c 47 bd
       -0.066172525 -0.14773609 -0.13972269 -0.048702836
0003b0 2d c9 5b bd 85 59 da bc 96 f0 fb bc 1a 4c 9b 3d
       -0.053658653 -0.026654014 -0.030754369 0.075828746
0003c0 d0 a9 8a 3d 3b 7c 39 3d 16 87 02 3a 17 aa 04 3e
       0.067706704 0.04528449 0.0004979236 0.12955509
0003d0 d9 d8 c9 bc 2d 59 44 3d c9 db 3a bd f4 18 5e 3d
       -0.024639534 0.047936607 -0.04561976 0.054223016
0003e0 52 be 46 3d 1e 22 23 3c 47 e8 5b 3d 25 8b d0 bc
       0.048521347 0.009956865 0.053688314 -0.025456974
0003f0 51 ca e2 bc 6f 5d 3e 3d 2d 60 48 bc 5b cc 96 bc
       -0.027684363 0.046475824 -0.012229961 -0.018407991

bias f4 [64]
000000 6a a9 d2 3c 67 26 21 bd 9b 53 ab 3d ab db b2 3d
       0.025715549 -0.039343264 0.08365556 0.087333046
000010 01 17 ca 3b 9e 06 ab 3d da ac 05 3d 0f 7f 6f 3d
       0.006167293 0.083508715 0.032635547 0.058470782
000020 c4 e6 35 bd 78 3a ff bc b4 50 b2 bc 8e 4d ab 3b
       -0.04440953 -0.03115581 -0.021766998 0.005227751
000030 6a ac 88 3d f5 8f 9a bd bc 5e 35 bd 9a 4d aa 3d
       0.066735104 -0.07546989 -0.0442798 0.083155826
000040 9f c5 d9 bc 77 9f 63 bc 31 c7 1d 3d 7f 43 92 bd
       -0.02658349 -0.013893 0.03852004 -0.0714178
000050 28 f0 6d 3d 7e 62 71 3d bf 7a a8 3b c0 c2 4a 3c
       0.05809036 0.05893182 0.0051415856 0.012375534
000060 e9 b6 0a bd ad 97 8e 3d dc 11 8f bc ff 14 bd bc
       -0.033865843 0.069625236 -0.01746457 -0.0230813
000070 e8 a2 51 bc f5 68 41 3d 0e 20 2b bc e4 a6 2c bd
       -0.0127951875 0.047219235 -0.010444654 -0.042151347
000080 fc 86 80 3d 03 fb 42 3d 3e 16 55 3d 27 f0 c3 3c
       0.06275746 0.047602665 0.052023165 0.023918224
000090 03 b4 5e 3d b4 6b 87 3d 5b 68 86 bd 78 71 34 3d
       0.05437089 0.066123396 -0.06562873 0.044053525
0000a0 49 0f c2 bd 1b fb 41 3d b1 f6 1b bd 99 2a dd 3d
       -0.09475572 0.047358613 -0.03807706 0.107991405
0000b0 a3 f2 a7 bd 8b 35 f4 bc 64 bf be bc 20 ab a1 ba
       -0.08200576 -0.029810688 -0.023284622 -0.0012334324
0000c0 86 b7 aa bd 89 b9 32 3d 17 78 60 3d 14 41 a3 3c
       -0.083357856 0.04363397 0.054802027 0.019928493
0000d0 d9 bb 2f 3d a4 2c 8d bc e2 04 f2 bc a2 bc fe 3c
       0.042903755 -0.0172332 -0.029543344 0.031095807
0000e0 6d dd 72 3d 17 af a4 3c e4 38 17 bd 0b 78 6b bd
       0.0592932 0.02010302 -0.03691949 -0.05748753
0000f0 3e 35 1a bc 17 3d 14 bd cb f5 f5 3c cc 12 9e bd
       -0.009412108 -0.036191072 0.03002443 -0.07718429
