output/binaire-1-4/unet_tgs_salt.pth (torch, 973433 bytes, 36 tensors)

weight f4 [16, 3, 2, 2]
0	0x3e631e3c	0.22179502
1	0xbdb0162c	-0.08597979
2	0xbe87eb11	-0.2654653
3	0x3d29effb	0.04148863
4	0x3c5a4c6a	0.013323883
5	0xbd5c54be	-0.053791754
6	0x3e9463a9	0.28982285
7	0x3de914b0	0.11380899
8	0x3e58c156	0.21167502
9	0xbe3ecf4f	-0.1863377
10	0xbe0fbd7f	-0.14037131
11	0xbe9a639c	-0.3015412
12	0xbdce48dd	-0.10072491
13	0xbd977f34	-0.07397309
14	0x3e18c402	0.14918521
15	0xbe525784	-0.20541197
16	0x3e84ae92	0.25914437
17	0xbd6d12fe	-0.05787944
18	0x3d9c30d1	0.076264985
19	0x3d3ba4ab	0.045811336
20	0x3e6f939d	0.23396154
21	0x3c0cce5c	0.008594122
22	0x3e00bad1	0.12571265
23	0x3e266d17	0.16252552
24	0xbd97198b	-0.07377919
25	0xbc8c0c77	-0.017095787
26	0xbdfdc8f0	-0.123918414
27	0xbdfc5cf1	-0.12322415
28	0x3b822340	0.0039714873
29	0x3db3e331	0.08783568
30	0x3e2fcbc3	0.17167573
31	0x3e14a595	0.1451629
32	0x3e5fd09e	0.21856925
33	0xbe17938a	-0.14802375
34	0xbdd0ad13	-0.10189261
35	0xbd7d485d	-0.06183659
36	0xbe0091c8	-0.12555611
37	0xbcfaab81	-0.030599358
38	0x3d94f5e7	0.07273465
39	0x3da1c76a	0.07899363
40	0x3e52effc	0.2059936
41	0x3e3d794d	0.18503304
42	0x3e41c6b5	0.18923457
43	0xbd9723ce	-0.07379876
44	0xbd35fe1d	-0.044431794
45	0x3d5eb540	0.054372072
46	0xbe8bc827	-0.27301142
47	0x3e8361c0	0.25660515
48	0xbd1c4682	-0.03815318
49	0x3d4d8e45	0.050184507
50	0xbe702f78	-0.23455608
51	0x3e497235	0.19672473
52	0x3e07d3f0	0.13264441
53	0x3daafb02	0.08348657
54	0x3e8acf15	0.27111116
55	0x3ded4ca5	0.115868844
56	0x3df6da7c	0.12053391
57	0x3e210959	0.15726222
58	0x3e855670	0.2604251
59	0xbad3df6d	-0.0016164609
60	0x3ddae7be	0.106887326
61	0xbe6e63fa	-0.23280326
62	0xbe0ba3f1	-0.13636757
63	0xbc661451	-0.01404293
64	0xbcb39142	-0.02191985
65	0x3d96ed84	0.07369521
66	0x3e1967bd	0.1498098
67	0x3e320a06	0.17386636
68	0x3e4faac3	0.20279984
69	0x3db511e9	0.08841307
70	0xbe89daee	-0.26924843
71	0xbccb78c1	-0.024837853
72	0x3db79af8	0.08965105
73	0xbe759e0e	-0.23986074
74	0xbe7b1290	-0.245188
75	0xbdf80a48	-0.12111336
76	0xbdb25bd6	-0.087089226
77	0xbe4cc53d	-0.19997115
78	0xbdd0575d	-0.10172913
79	0xbe8d7ab9	-0.27632692
80	0xbd1c84af	-0.038212474
81	0x3d42ed36	0.047589503
82	0x3e2e0a94	0.16996223
83	0x3d87ffc1	0.06640578
84	0xbe850510	-0.25980425
85	0xbd1c30f2	-0.038132615
86	0x3da03566	0.07822685
87	0x3e74c9db	0.23905127
88	0x3d5ab4a1	0.053394917
89	0xbde31b7d	-0.11089227
90	0xbdc4475a	-0.09583922
91	0x3e297ee5	0.16552313
92	0xbded9cd1	-0.11602176
93	0xbe2e5356	-0.17023978
94	0x3e5b8ba7	0.21439992
95	0x3e77c3d5	0.24195798
96	0xbe58de03	-0.21178441
97	0x3d37d640	0.04488206
98	0x3e03aaf9	0.1285819
99	0x3dc6581f	0.096847765
100	0xbe724597	-0.23659359
101	0xbd26e069	-0.040741358
102	0x3e116c3f	0.14201449
103	0x3e4494fa	0.19197455
104	0x3e5c349e	0.21504447
105	0xbe6d02a8	-0.23145545
106	0x3e9b0ed3	0.30284747
107	0x3e2ce9e5	0.16886099
108	0xbe59858d	-0.21242352
109	0x3e62d182	0.22150233
110	0xbdc20ce4	-0.09475115
111	0xbd96c305	-0.07361416
112	0xbe026efb	-0.12737648
113	0xbdd8671d	-0.10566542
114	0x3e5884e0	0.21144438
115	0x3e1fd6ed	0.15609331
116	0xbd30927c	-0.04310845
117	0xbe594bfd	-0.21220393
118	0xbc8aa99b	-0.016926577
119	0x3e823b13	0.25435695
120	0x3bc1c84c	0.00591377
121	0xbe016edb	-0.12639944
122	0x3ea41d4c	0.32053602
123	0x3b8385b3	0.004013741
124	0xbe056f2e	-0.13030693
125	0xbe5eab7a	-0.217451
126	0x3d37bb29	0.044856224
127	0x3e9f2693	0.31084117
128	0xbe40e07a	-0.18835631
129	0x3d09abb8	0.03361103
130	0xbd355a82	-0.044275768
131	0x3ddff91e	0.10936187
132	0x3c898f65	0.016792009
133	0x3e753a0f	0.23947929
134	0xbe5b7a62	-0.21433404
135	0x3e3175fe	0.17330167
136	0xbd38ce18	-0.04511842
137	0x3e45da27	0.193215
138	0x3daba72b	0.08381494
139	0xbe168903	-0.14700703
140	0xbe3aa1ea	-0.18225828
141	0xbcbb8ef5	-0.022895316
142	0x3c51bd62	0.0128015
143	0xbe4fa3f8	-0.20277393
144	0xbd675d96	-0.056485735
145	0xbe5ba575	-0.21449836
146	0x3e1d13f8	0.15339649
147	0xbe5b7e49	-0.21434893
148	0x3d09abae	0.033610992
149	0x3d1f8909	0.038949046
150	0x3e3ac9d0	0.18241048
151	0xbe2ed79c	-0.17074436
152	0xbd868ec4	-0.06570199
153	0xbe23cd35	-0.15996249
154	0x3e74e395	0.2391494
155	0xbe341d30	-0.17589259
156	0xbdcb94ea	-0.099405125
157	0x3e525769	0.20541157
158	0x3e554cfa	0.20830145
159	0xbd4d175f	-0.050071117
160	0xbc8c737f	-0.017144917
161	0xbdad85b2	-0.08472766
162	0xbdf8cce6	-0.12148456
163	0x3e6b0065	0.22949369
164	0x3e29b749	0.16573824
165	0xbe10dffa	-0.1414794
166	0x3e5d7a56	0.21628699
167	0xbe775e5f	-0.24157093
168	0xbe61578a	-0.2200605
169	0x3b6a7753	0.003577669
170	0xbe304fd7	-0.17217956
171	0xbe60ab44	-0.21940333
172	0xbde3f41e	-0.11130546
173	0xbe04c71b	-0.12966578
174	0xbd67c7ed	-0.05658715
175	0xbe4c01d4	-0.19922572
176	0x3dea069e	0.114270434
177	0x3d734870	0.059395254
178	0x3e84af44	0.25914967
179	0xbe868f4a	-0.26281196
180	0xbe34f7f7	-0.17672716
181	0x3d0e4b20	0.034739614
182	0xbe8af3eb	-0.2713922
183	0xbe4a65c1	-0.19765379
184	0x3e7167c1	0.23574735
185	0xbe6589ef	-0.22415899
186	0x3db8731f	0.090063326
187	0x3d4d43cb	0.05011348
188	0x3e8081d2	0.25099045
189	0x3e4b8841	0.19876195
190	0xbe83593f	-0.25654027
191	0xbe8d1adb	-0.27559552

bias f4 [16]
0	0x3e14ce3e	0.145318
1	0x3e655da7	0.22399007
2	0x3e839c89	0.25705364
3	0x3c434491	0.011918203
4	0x3e45dc63	0.19322352
5	0x3e68ccc5	0.22734363
6	0xbe87395c	-0.2641095
7	0x3cce473f	0.025180457
8	0x3de25fda	0.110534385
9	0x3e57f300	0.21088791
10	0xbd21a036	-0.03945943
11	0x3dce901e	0.10086082
12	0xbe831310	-0.2560048
13	0xbacd8871	-0.0015680921
14	0xbd6420dd	-0.055695403
15	0x3e84f4e3	0.25968084

weight f4 [16, 16, 2, 2]
0	0x3e2216fe	0.15829083
1	0x3dd06fc5	0.10177568
2	0x3d519312	0.051165648
3	0xbd51de2e	-0.051237278
4	0x3cb1dd78	0.02171205
5	0xbd5d9d8c	-0.054105327
6	0xbd1822d0	-0.037142575
7	0xbe0e3828	-0.1388861
8	0xbcc39ff9	-0.023879992
9	0x3da953df	0.0826795
10	0xbde6848b	-0.11255749
11	0xbd1594fc	-0.036519036
12	0xbdcf2d2c	-0.10116038
13	0xbdcefa26	-0.10106306
14	0x3d68bf1f	0.056822892
15	0xbc98998a	-0.0186279
16	0x3d1a5160	0.03767526
17	0xbdc32d23	-0.095300935
18	0x3d9298ae	0.071580276
19	0xbd3685cb	-0.04456119
20	0x3b63414a	0.0034676366
21	0x3c748bfb	0.014925952
22	0xbda1af69	-0.07894785
23	0x3dd1668d	0.10224638
24	0x3d2ccb1c	0.042185888
25	0x3d6f0908	0.058358222
26	0x3d92f98a	0.07176502
27	0x3dffd91c	0.12492582
28	0x3d54f8ab	0.05199496
29	0x3db3b774	0.08775225
30	0xbe0e14d7	-0.13875137
31	0xbd87954b	-0.06620272
32	0xbdfd34c4	-0.1236358
33	0xbc8b1b49	-0.016980784
34	0x3c99537e	0.01871657
35	0xbd5ba10e	-0.05362039
36	0x3cbbdc18	0.022932097
37	0xbe096089	-0.13415731
38	0x3dd79d5a	0.10528059
39	0x3d67648e	0.05649238
40	0x3cf0dece	0.029403117
41	0xbcaa40ee	-0.020782914
42	0xbc0d14c3	-0.008610907
43	0x3e3a6533	0.18202667
44	0xbd3bb20a	-0.04582409
45	0x3e1ebabf	0.15500925
46	0x3e00fae6	0.1259571
47	0x3ddce1e8	0.10785276
48	0x3d95c495	0.07312886
49	0xbdcc0930	-0.0996269
50	0xbc00930c	-0.007847559
51	0x3ca1bbae	0.019742813
52	0x3d861427	0.065468125
53	0xbd5017f0	-0.05080408
54	0x3cdff154	0.027336754
55	0xbce980e0	-0.028503835
56	0xbcde89ae	-0.02716526
57	0x3df03380	0.11728573
58	0xbb956f04	-0.0045603532
59	0x3d22e144	0.03976561
60	0xbcddbb4e	-0.027066853
61	0xbe087c53	-0.13328676
62	0xbc83011d	-0.015991742
63	0x3dad8794	0.08473125
64	0xbb0222d9	-0.0019857197
65	0x3d2d8c0d	0.04236989
66	0xbdef75b9	-0.11692376
67	0xbd2e4814	-0.042549208
68	0x3d40ce74	0.04707189
69	0x3dc34463	0.09534528
70	0x3dec92d1	0.115514405
71	0x3daa03b1	0.08301485
72	0xbc874879	-0.01651405
73	0xbd914757	-0.07093685
74	0xbe03b700	-0.12862778
75	0xbd0a21ff	-0.033723827
76	0x3dae504a	0.08511408
77	0x3cd414fd	0.025888914
78	0xbdb03be8	-0.08605176
79	0xbe0da9e2	-0.13834336
80	0xbdd6f6dd	-0.10496304
81	0xbbd46b05	-0.0064824843
82	0x3c385798	0.011251353
83	0x3b0b5351	0.0021259377
84	0x3da8b78f	0.08238136
85	0xbda928ba	-0.08259721
86	0xbde533b1	-0.111915
87	0x3c4d7d5a	0.012542093
88	0xbc314f60	-0.010822147
89	0xbcade2b8	-0.021226272
90	0x3ce4fe50	0.027953297
91	0x3ccbdf60	0.024886787
92	0x3cc0593f	0.023480056
93	0x3d7ff200	0.06248665
94	0x3d04378c	0.032279536
95	0xbd12ca10	-0.035837233
96	0x3d982768	0.07429391
97	0x3d97157a	0.07377143
98	0x3d68f65b	0.056875568
99	0x3dc3d2dd	0.09561703
100	0xbbf4dbd8	-0.0074724965
101	0xbdb2b1d4	-0.08725324
102	0x3d8fba68	0.07017976
103	0xbde76440	-0.11298418
104	0xbe15acc1	-0.14616682
105	0xbd6e924f	-0.058245
106	0x3c84dd33	0.016218757
107	0xbe217b76	-0.15769753
108	0xbdc5c991	-0.09657586
109	0x3c72a4f7	0.0148098385
110	0xbda73db8	-0.08166069
111	0x3ba7f523	0.005125658
112	0x3db71fd1	0.089416154
113	0x3d7debe7	0.061992552
114	0xbd06a98e	-0.032876544
115	0xbdb2e0f9	-0.087343164
116	0xbd0f3675	-0.034964044
117	0xbd74f7db	-0.059806686
118	0xbe109ce3	-0.14122348
119	0x3d027175	0.031846482
120	0xbe10b986	-0.14133272
121	0x3dbb64cd	0.091500856
122	0x3cee509d	0.029091174
123	0x3d80a09a	0.06280632
124	0x3d5f8b6f	0.054576334
125	0xbd490816	-0.049079977
126	0x3d586c1e	0.052837484
127	0xbd3a8f5d	-0.045546878
128	0x3ca4daed	0.020123923
129	0xbd184f2c	-0.03718488
130	0xbd8b1e27	-0.067928605
131	0x3dcfa471	0.101387866
132	0x3bea69ff	0.007153749
133	0x3d63fd9e	0.05566179
134	0x3c72a34c	0.014809441
135	0x3df8e26e	0.12152563
136	0xbd5e73b1	-0.05430955
137	0x3bf8cc73	0.0075927316
138	0x3c8765bb	0.016528001
139	0x3dcb07db	0.09913608
140	0xbd3f304a	-0.04667691
141	0xbd739800	-0.05947113
142	0x3d771bce	0.06032925
143	0x3d302ca2	0.043011315
144	0x3d265d1b	0.040616136
145	0xbc9f97c4	-0.019481547
146	0x3d2f90da	0.04286275
147	0xbb739c11	-0.003717188
148	0xbd6251d0	-0.055253804
149	0x3d7c9c2b	0.06167237
150	0xbcd41be7	-0.025892211
151	0xbcb1ca53	-0.021702921
152	0xbc4f5f00	-0.012656927
153	0xbd9c1116	-0.076204464
154	0x3cef1a80	0.02918744
155	0x3cd9e9e0	0.026600778
156	0xbde2acab	-0.1106809
157	0x3b0a2d16	0.0021084002
158	0x3da472f4	0.08029738
159	0x3e000636	0.1250237
160	0xbd1cc775	-0.038276155
161	0xbd4ea25a	-0.0504478
162	0x3dcfe452	0.101509705
163	0x3dde864d	0.108654596
164	0xbd81f476	-0.06345455
165	0x3d8f1cdc	0.06987926
166	0xbd4530dc	-0.0481423
167	0xbdf60f5c	-0.12014648
168	0x3d76e12c	0.060273334
169	0xbdf50da5	-0.11965493
170	0x3c989c7d	0.018629307
171	0xbc5b1d65	-0.013373707
172	0xbdd0ac20	-0.1018908
173	0xbc8562e7	-0.016282512
174	0xbdc1e7d9	-0.094680496
175	0x3c7589d3	0.014986473
176	0xbdc1d0f6	-0.09463684
177	0x3cecc8e9	0.028904395
178	0xbd888393	-0.06665721
179	0xbdf7cd05	-0.12099651
180	0x3d660857	0.056160297
181	0xbd1ab450	-0.037769616
182	0xbdcf40bb	-0.10119768
183	0x3d4cd968	0.050012022
184	0x3d7cffea	0.061767496
185	0x3cd7b797	0.02633266
186	0x3dd5e0b7	0.104432516
187	0x3d34bc4b	0.044124883
188	0xbd86993d	-0.06572197
189	0x3d2bb34b	0.041919034
190	0xbcbfb85d	-0.023403341
191	0xbd269c78	-0.040676564
192	0x3bd1f20e	0.006407029
193	0x3d7a9b02	0.061182983
194	0xbdf7dcb3	-0.12102642
195	0x3d63a8cf	0.05558091
196	0x3ddeedbf	0.1088519
197	0xbd87958e	-0.06620322
198	0xbd593630	-0.053030193
199	0xbd9f7361	-0.07785679
200	0xbdac460b	-0.08411797
201	0xbded3e1e	-0.115841135
202	0x3d65ee53	0.056135487
203	0x3d498e91	0.049208228
204	0x3ac7e15b	0.0015249656
205	0x3db9649f	0.09052395
206	0x3dec3000	0.11532593
207	0x3d77e5f5	0.06052204
208	0x3d3b3c95	0.045712072
209	0x3d9a2806	0.07527165
210	0x3dc2f706	0.09519772
211	0x3d23d3ba	0.03999684
212	0x3dc38921	0.0954764
213	0xbd886cfe	-0.066614136
214	0xbcdf6409	-0.02726938
215	0x3d3cb6a0	0.046072602
216	0x3ded9e42	0.11602451
217	0xbd8447b2	-0.06458987
218	0xbb807000	-0.0039196014
219	0xbd2a4bb8	-0.041576117
220	0x3d2b7328	0.04185787
221	0xbcc37d8e	-0.02386358
222	0xbc57d6ab	-0.013173739
223	0xbc1edca9	-0.009696164
224	0xbd87e34b	-0.066351496
225	0x3d0b4bdb	0.03400789
226	0x3d589d3a	0.052884318
227	0xbcbfe024	-0.023422308
228	0xbc952ea3	-0.018210715
229	0x3dcbf4cf	0.09958803
230	0xbdc1ed46	-0.094690844
231	0x3afb056e	0.0019151398
232	0xbdc1c4ef	-0.0946139
233	0xbddad549	-0.10685212
234	0xbc67371c	-0.01411226
235	0x3cf49bac	0.029859386
236	0xbdf79151	-0.12088264
237	0xbdb3acdf	-0.08773207
238	0xbdfd0be5	-0.12355784
239	0xbd9c8d51	-0.076441415
240	0xbd20c547	-0.03925064
241	0x3d4fc667	0.05072632
242	0x3d20ec80	0.039288044
243	0xbd95a3bf	-0.07306623
244	0x3d9a5d4b	0.075373255
245	0xbcb8fb21	-0.022580685
246	0xbcb28def	-0.021796195
247	0x3de6f0a9	0.11276371
248	0x3c0bd43a	0.0085344855
249	0xbdf12f9e	-0.117766604
250	0x3db43f0e	0.08801089
251	0xbdc6b9ac	-0.09703383
252	0x3a81d991	0.0009906759
253	0x3dc66de1	0.096889265
254	0x3a3b7b59	0.0007151864
255	0xbd005606	-0.03133204

bias f4 [16]
0	0x3d94d03a	0.072662786
1	0xbd40d06e	-0.047073774
2	0xbdfe8938	-0.12428516
3	0x3dc22b0d	0.094808675
4	0xbd88d11b	-0.06680509
5	0xbc403dc6	-0.011733478
6	0xbcd4b9d0	-0.025967509
7	0xbb575923	-0.0032859526
8	0xbda91099	-0.08255119
9	0x3da48bd1	0.0803448
10	0xbd77d7f9	-0.060508702
11	0xbd864323	-0.06555774
12	0x3b762b06	0.0037562265
13	0x3dd40d28	0.10354072
14	0xbe029d76	-0.12755379
15	0x3de22ebf	0.11044072

weight f4 [32, 16, 2, 2]
0	0x3deae3fa	0.11469264
1	0xbda46b88	-0.080283225
2	0x3d6e5f58	0.058196396
3	0xbddcb4e8	-0.10776693
4	0xbd7faa2c	-0.062418148
5	0x3dc9188c	0.09819135
6	0xbdfb163e	-0.12260102
7	0x3d8a901a	0.067657664
8	0xbd6e7ce0	-0.05822456
9	0x3c118b50	0.008883312
10	0xbc225b80	-0.009909511
11	0xbdca1f80	-0.098692894
12	0xbdbd6a8a	-0.09248836
13	0xbd931b2a	-0.071829155
14	0xbddd8264	-0.10815886
15	0x3d5dd124	0.05415453
16	0x3daec612	0.08533873
17	0xbda68f98	-0.08132857
18	0x3d99f33c	0.075170964
19	0x3cc547f0	0.024082154
20	0xbbe825c0	-0.0070845783
21	0xbdd7e458	-0.105416
22	0x3db936ea	0.09043677
23	0xbdca4678	-0.09876722
24	0x3de6d3be	0.11270855
25	0x3d273bcc	0.04082851
26	0x3b184480	0.0023234189
27	0xbdba4ab0	-0.09096277
28	0x3dd02efe	0.10165213
29	0xbce80cc0	-0.028326392
30	0xbd519460	-0.051166892
31	0x3d8fae92	0.070157185
32	0xbc0a06f0	-0.008424506
33	0x3df392c2	0.11893226
34	0xbdb22a4a	-0.08699472
35	0x3dea0dac	0.11428389
36	0x3d53256c	0.05154936
37	0xbb651600	-0.003495574
38	0xbd1be910	-0.038064063
39	0xbde2759c	-0.110575885
40	0x3dc2c580	0.095103264
41	0xbd3572cc	-0.044298932
42	0xbd964e94	-0.07339206
43	0x3dcdc3ac	0.10047087
44	0x3cade738	0.021228418
45	0x3dfc9180	0.123324394
46	0x3d78a4dc	0.060704097
47	0x3d278d48	0.04090622
48	0x3cc5f3b8	0.024164066
49	0x3d7d2360	0.061801314
50	0x3dda1288	0.10648066
51	0xbd130fd4	-0.035903767
52	0x3dd37b44	0.103262454
53	0x3d2c9388	0.042132884
54	0x3c52d360	0.012867779
55	0xbd313184	-0.043260112
56	0x3d693b94	0.056941584
57	0x3d926a9e	0.07149242
58	0xbdb7d79c	-0.08976671
59	0xbdf7b474	-0.120949656
60	0x3db1e38e	0.08685981
61	0x3be1c640	0.0068900883
62	0x3ddf51c6	0.10904269
63	0xbd3621d4	-0.044465855
64	0x3d9ee984	0.07759383
65	0x3d3c7679	0.04601142
66	0xbda26e45	-0.079311885
67	0x3cbeff2a	0.023315031
68	0xbdb97d0e	-0.090570554
69	0xbe0349bc	-0.12821096
70	0xbdb45a80	-0.08806324
71	0xbd505238	-0.05085966
72	0xbd92a34b	-0.07160052
73	0x3d25840a	0.040409125
74	0x3e0519db	0.12998144
75	0x3e1dba3a	0.15403071
76	0xbda14478	-0.078743875
77	0x3dbb192f	0.09135663
78	0x3cc4f594	0.024042882
79	0xbd8e83a2	-0.06958701
80	0xbd145383	-0.036212455
81	0xbd946286	-0.07245354
82	0x3d93a423	0.07209041
83	0xbdd05e6a	-0.10174258
84	0x3e140e4d	0.1445858
85	0x3e25a82a	0.16177431
86	0xbd86ca31	-0.06581534
87	0xbcd96cdd	-0.026541168
88	0xbde1a2b6	-0.11017363
89	0x3d9e1809	0.07719428
90	0xbdf91901	-0.12162972
91	0x3cb14ed5	0.021644035
92	0xbd4e7be2	-0.050411113
93	0x3c4af1af	0.012386723
94	0x3d199cc8	0.037503034
95	0xbd4090a4	-0.04701294
96	0x3dc0c019	0.0941164
97	0x3cc5ecb7	0.024160726
98	0xbd75d346	-0.06001594
99	0xbdbdbdf4	-0.09264746
100	0x3db7deb6	0.089780256
101	0x3db39f05	0.08770565
102	0x3c89455d	0.016756708
103	0x3d74c2eb	0.0597562
104	0x3dad93a2	0.08475424
105	0x3dd4ddc0	0.10393858
106	0xbdab325e	-0.08359216
107	0xbdd0a88f	-0.101884
108	0x3cf89e87	0.03034903
109	0xbd58d7d0	-0.05294019
110	0x3d466023	0.048431527
111	0xba36189c	-0.0006946416
112	0xbd52097f	-0.051278587
113	0x3cee678e	0.029102113
114	0xbe0b8fcf	-0.13629077
115	0xbd654bc2	-0.05598045
116	0xbd91cd84	-0.07119277
117	0xbb024c12	-0.0019881767
118	0xbd9675a2	-0.073466554
119	0xbd67cc65	-0.05659141
120	0x3d843f7d	0.06457422
121	0xbd8d901d	-0.06912253
122	0x3d923b3f	0.071402065
123	0x3d82d2d6	0.0638787
124	0x3cf26369	0.029588418
125	0x3dd062d7	0.10175102
126	0xbdd2fa19	-0.103016086
127	0x3cddd8be	0.02708089
128	0x3dcb8a38	0.099384725
129	0x3d90f91c	0.07078764
130	0xbc9aa072	-0.018875334
131	0x3e05e98c	0.13077372
132	0xbd093477	-0.0334973
133	0xbe07c995	-0.13260491
134	0x3d89825d	0.06714318
135	0x3d84bdfb	0.064815484
136	0x3da386e4	0.07984713
137	0xbd4e95fd	-0.05043601
138	0x3da604df	0.08106398
139	0xbd51c641	-0.05121446
140	0xbd252879	-0.0403218
141	0xbd1f27d6	-0.03885635
142	0x3d0ade6a	0.033903517
143	0x3d6e91af	0.058244403
144	0xbd65453f	-0.05597424
145	0x3d20a5b6	0.039220534
146	0xbca1ac82	-0.019735578
147	0xbd96525a	-0.07339926
148	0x3b050993	0.0020299896
149	0xbb068bbb	-0.0020530063
150	0x3d8a942d	0.067665435
151	0x3d7f7b66	0.06237354
152	0xbda4cd8b	-0.08047017
153	0x3d7a1ca1	0.06106246
154	0xbcc3e202	-0.02391148
155	0xbdddcf37	-0.10830539
156	0x3ddf81af	0.10913407
157	0xbd9d6ff7	-0.07687371
158	0x3cf3c4a9	0.02975686
159	0xbdc78800	-0.09742737
160	0xbd276f62	-0.040877707
161	0x3dd5a253	0.104313515
162	0xbadfd99b	-0.0017078401
163	0xbdca8e31	-0.09890402
164	0x3ded910f	0.11599933
165	0xbd11298c	-0.035440013
166	0xbd848578	-0.0647077
167	0x3e0da786	0.13833436
168	0xbc35bb4e	-0.01109202
169	0x3d739726	0.05947032
170	0x3b0e0a25	0.0021673527
171	0x3dc59851	0.09648193
172	0x3da88a35	0.08229486
173	0xbd455a3e	-0.048181765
174	0xbdc902dc	-0.098149985
175	0x3d8fd03e	0.07022141
176	0xbd37f675	-0.044912774
177	0x3c9d477c	0.019199125
178	0x3d076365	0.033053774
179	0xbd5ffd4f	-0.054684933
180	0x3c48bae2	0.012251588
181	0x3d95554d	0.072916605
182	0x3daf515a	0.085604385
183	0x3d8cd7f5	0.06877128
184	0xbdc5d7a1	-0.096602686
185	0xbcb449b9	-0.02200781
186	0x3d885f28	0.066587746
187	0x3d55c8b8	0.052193373
188	0x3d905308	0.07047087
189	0xbd6cf530	-0.057851017
190	0x3bae27a9	0.0053147865
191	0x3dcd09da	0.10011645
192	0x3e1012b1	0.1406963
193	0x3e190245	0.14942272
194	0xbdcb7c52	-0.099358216
195	0x3da208da	0.079118446
196	0xbd4f82d1	-0.050661866
197	0xbdc898a5	-0.0979474
198	0x3b4189a5	0.0029531505
199	0xbc1cfaa7	-0.009581245
200	0xbd159d72	-0.036527105
201	0x3d71b17c	0.059007153
202	0xbd916bbc	-0.07100627
203	0xbd335a71	-0.043787424
204	0xbd8384de	-0.06421827
205	0xbcb4ab4f	-0.022054343
206	0x3dee9a92	0.11650576
207	0xbdb6d2a0	-0.08926892
208	0xbdbeff71	-0.09326065
209	0xbc99627a	-0.018723715
210	0xbd200121	-0.039063577
211	0x3ddb3514	0.10703483
212	0xbc2a1f61	-0.010383458
213	0x3e17bf23	0.14819007
214	0x3e22be1a	0.1589283
215	0x3dca3a12	0.09874357
216	0xbd3f4deb	-0.046705168
217	0x3e07a0cc	0.13244933
218	0x3d6a55c7	0.05721071
219	0xbcd7d575	-0.026346901
220	0x3d94ca95	0.07265202
221	0xbdad7a5b	-0.08470603
222	0x3cf1b345	0.029504428
223	0x3dcdbfa7	0.100463204
224	0xbdee15fd	-0.11625288
225	0x3a41e3b4	0.0007396296
226	0xbdbd20ff	-0.09234809
227	0xbd41f7c1	-0.047355417
228	0x3dd8f831	0.10594214
229	0x3e0378c2	0.12839034
230	0x3b976669	0.0046203625
231	0x3d48791e	0.04894363
232	0xbca85155	-0.020546595
233	0x3df59693	0.119916104
234	0x3e072480	0.13197517
235	0x3dbf06e5	0.09327487
236	0xbd2b930c	-0.04188828
237	0x3c581693	0.013188976
238	0x3db6866d	0.089123584
239	0x3d995b70	0.074881434
240	0xbdac0ad3	-0.08400502
241	0x3c3df3ad	0.011593741
242	0xbdfcb972	-0.123400584
243	0x3baa942b	0.0052056513
244	0xbe07c55f	-0.13258885
245	0xbd7fc8e9	-0.062447462
246	0xbdc62f42	-0.096769825
247	0x3ddc3b57	0.10753506
248	0xbde2f56a	-0.11081965
249	0xbdeacd98	-0.11464995
250	0xbdafe0db	-0.0858781
251	0x3ccccf4b	0.025001189
252	0xbd0d7713	-0.034537386
253	0xbdbcb759	-0.09214658
254	0xbb57fca7	-0.003295699
255	0xbd99356e	-0.07480894

bias f4 [32]
0	0xbddc2f56	-0.10751216
1	0x3d2f977f	0.042869087
2	0x3c91d4fd	0.017801756
3	0x3db67f8f	0.089110486
4	0xbdbd854c	-0.0925394
5	0x3dc34a8c	0.09535703
6	0x3d6182be	0.055056326
7	0x3db52d40	0.088465214
8	0x3df57b2f	0.11986386
9	0x3a33c6a5	0.00068579084
10	0xbde1a2ce	-0.11017381
11	0x3da2904c	0.07937679
12	0x3dd5fb04	0.10448268
13	0xbdaed121	-0.08535982
14	0xbdc50a72	-0.09621133
15	0x3d50d543	0.050984632
16	0xbdc87f04	-0.09789851
17	0xbdd97292	-0.10617556
18	0xbd1de9fd	-0.038553227
19	0x3d848cf5	0.06472198
20	0xbd238b95	-0.039928038
21	0xbdc2e02a	-0.09515412
22	0xbdbf56dc	-0.09342739
23	0x3e017950	0.12643933
24	0x3de236ac	0.11045584
25	0x3d60ee61	0.054914836
26	0x3d8b2eee	0.067960605
27	0x3d7d86b1	0.06189603
28	0x3de8ff69	0.113768406
29	0x3de3db22	0.11125781
30	0x3d4fa210	0.050691664
31	0xbd06e028	-0.032928616

weight f4 [32, 32, 2, 2]
0	0x3da07f1b	0.078367434
1	0x3d77bd2b	0.06048314
2	0x3c927574	0.017878272
3	0xbd1fbdcc	-0.038999364
4	0x3c376d03	0.011195424
5	0xbd92416c	-0.071413845
6	0xbd798f26	-0.060927533
7	0x3a220a32	0.0006181329
8	0x3d9e7658	0.07737416
9	0xbceba4fd	-0.028765196
10	0x3d80813c	0.062746495
11	0x3d977429	0.07395203
12	0x3d1d8195	0.038453657
13	0xbcc3dbf2	-0.023908589
14	0xbd673ac8	-0.056452543
15	0xbd8ce0a4	-0.06878784
16	0xbcb1005c	-0.021606617
17	0xbd15c3c0	-0.036563635
18	0x3c9b0cdd	0.018927032
19	0x3db9c143	0.09070065
20	0xbd657504	-0.056019798
21	0xbd9d543b	-0.07682081
22	0xbd282e52	-0.0410598
23	0x3a300f5c	0.0006716156
24	0xbcc40e4f	-0.023932604
25	0xbd46f17a	-0.048570134
26	0xbd964666	-0.07337646
27	0x3bcad1fc	0.006189583
28	0x3d14b36d	0.036303926
29	0xbd597969	-0.0530943
30	0xbd2f28f0	-0.04276365
31	0x3c831020	0.0159989
32	0x3b41efcf	0.00295924
33	0xbd1bd8a3	-0.038048398
34	0xbb87e603	-0.0041472926
35	0x3d891188	0.06692797
36	0xbd9204a6	-0.07129793
37	0xbd90e2fe	-0.07074545
38	0xbcf5713f	-0.029961227
39	0xbbb4b583	-0.005514802
40	0x3ce962de	0.028489526
41	0x3dd3545e	0.10318826
42	0x3d061296	0.03273257
43	0x3d7c5273	0.061602067
44	0x3ba50e18	0.0050370805
45	0xbc68d55e	-0.014211027
46	0x3cf0c491	0.029390605
47	0xbd6c218a	-0.057649173
48	0x3b8a26d4	0.0042160545
49	0x3da4abf7	0.08040612
50	0xbd264ade	-0.040598743
51	0x3cc32b75	0.023824433
52	0xbd59c0d7	-0.053162422
53	0x3d102da6	0.035199784
54	0xbd3ad9b3	-0.04561777
55	0xbd0f07bb	-0.03491948
56	0xbd04bb0d	-0.032404948
57	0xbd91229e	-0.07086681
58	0xbccd545a	-0.025064636
59	0xbd9bcd91	-0.07607568
60	0x3c658a0f	0.0140099665
61	0x3d06628c	0.032808825
62	0x3d2e4514	0.042546347
63	0xbbeb238e	-0.0071758693
64	0xbd437490	-0.047718585
65	0x3da15c56	0.0787894
66	0x3d4c8a3f	0.04993653
67	0x3b567431	0.0032723064
68	0x3d3082fa	0.04309366
69	0xbd911a5e	-0.07085107
70	0xbd4c148e	-0.04982429
71	0x3d285f75	0.04110666
72	0xbd143760	-0.036185622
73	0x3d94b94b	0.07261904
74	0x3d2ee780	0.042701244
75	0xbd8ff4c2	-0.07029106
76	0x3d3e973f	0.04653096
77	0x3d7c4f1d	0.061598886
78	0x3db3cb2e	0.08778988
79	0xbd844124	-0.06457737
80	0xbd51c58a	-0.05121378
81	0x3c077b28	0.008269109
82	0x3dd5228c	0.1040698
83	0x3d402889	0.046913657
84	0x3d36310f	0.04448038
85	0x3ca0a904	0.019611843
86	0x3cb01e82	0.021498922
87	0x3cf6623e	0.030076142
88	0x3dcf2268	0.10113984
89	0xbd58879a	-0.052863695
90	0x3de8de50	0.11370528
91	0xbcff7925	-0.031185696
92	0x3d8e65d3	0.06953015
93	0x3dc77310	0.09738743
94	0xbccb57a8	-0.024822071
95	0xbc18a700	-0.00931716
96	0x3dab0a6e	0.08351599
97	0xbcfe2764	-0.031024642
98	0x3c9b5e19	0.018965768
99	0x3beca711	0.0072220643
100	0xbc9c9f2d	-0.01911887
101	0xbbefce47	-0.0073182913
102	0xbd651e7a	-0.055937268
103	0x3a886262	0.0010405297
104	0x3d279484	0.04091312
105	0x3daed413	0.08536544
106	0xbd132b24	-0.035929814
107	0x3deb2196	0.114810154
108	0xbbc7cffa	-0.006097791
109	0x3d4418be	0.04787516
110	0xbcfcbe85	-0.030852566
111	0xbd84a3c9	-0.06476552
112	0xbd0ed1a1	-0.034867886
113	0x3d7afd5d	0.061276782
114	0x3d1479cd	0.03624897
115	0xbd94d3d0	-0.072669625
116	0x3d476f25	0.04868998
117	0x3d8e2c28	0.06942016
118	0x3d8c9e19	0.06866092
119	0x3c345a04	0.0110077895
120	0xbc41d61e	-0.011830835
121	0x3b490dde	0.0030678432
122	0xbd19540f	-0.03743368
123	0xbdb4c8cb	-0.08827361
124	0xbc981cfd	-0.01856851
125	0xbd40ba27	-0.04705253
126	0xbd89859f	-0.06714939
127	0xbd865537	-0.06559222
128	0xbdaecdc3	-0.0853534
129	0xbd928f43	-0.07156231
130	0xbd970002	-0.07373048
131	0xbd9161b1	-0.07098711
132	0x3c9a1649	0.018809455
133	0xbdb2fd95	-0.08739773
134	0xbc1ab195	-0.009441753
135	0xbd8987ba	-0.06715341
136	0x3d955bae	0.07292877
137	0xbbc6d67d	-0.0060680495
138	0xbd688fe0	-0.056777835
139	0x3be572c8	0.0070022084
140	0xbd0ebd1e	-0.034848325
141	0xbdb2d313	-0.087316655
142	0xbd9b181d	-0.075729586
143	0x3bf93401	0.0076050763
144	0xbd880bf5	-0.066429056
145	0xbcfc96d4	-0.03083364
146	0x3d711574	0.05885835
147	0x3c2cabfb	0.01053905
148	0xbcf185f3	-0.029482817
149	0xbdb9824b	-0.090580545
150	0xbdb038f7	-0.08604615
151	0xbd154f74	-0.036452726
152	0x3d122484	0.035679355
153	0x3d98fc35	0.0746998
154	0xbd1e1e64	-0.0386032
155	0xbc931843	-0.017955905
156	0x3d6ec595	0.058293898
157	0x3d4b7cb7	0.049679484
158	0x3be943e4	0.007118689
159	0x3c76b80f	0.015058531
160	0x3c1c442a	0.009537736
161	0x3d27d82a	0.040977634
162	0x3c104c89	0.00880731
163	0x3be1723a	0.006880072
164	0x3d3da28c	0.046297595
165	0xbd8ea658	-0.06965321
166	0x3ca19d56	0.019728344
167	0xbd1bd681	-0.038046364
168	0x3cf8eb69	0.03038569
169	0x3cae1ae7	0.021253062
170	0x3a9077f7	0.001102208
171	0xbd25f08a	-0.0405126
172	0xbd7af8bb	-0.061272364
173	0xbdad8196	-0.08471982
174	0x3c06fcc2	0.008238973
175	0x3d2e43ac	0.042545006
176	0x3ca277a5	0.019832442
177	0x3cbbb3fe	0.022912975
178	0xbc1ff5e1	-0.009763212
179	0x3d8ae33f	0.06781625
180	0x3d27c764	0.040961638
181	0xbd764280	-0.060122013
182	0x3cc54719	0.024081754
183	0x3d6c2616	0.05765351
184	0xbd1faf65	-0.03898563
185	0x3d54527c	0.051836476
186	0xbd09411e	-0.033509366
187	0x3c5935fe	0.013257502
188	0x3dc2b878	0.09507841
189	0x3d8ed808	0.069747984
190	0xbc82965d	-0.01594084
191	0x3c003f4c	0.007827591
192	0x3b849541	0.0040461128
193	0xbcf1a7d3	-0.02949897
194	0xbcbbeec9	-0.02294101
195	0xbd010b34	-0.031504825
196	0xbd9a30f9	-0.07528872
197	0x3d0f6a4f	0.035013493
198	0xbda57fb5	-0.08080999
199	0xbd98fe0f	-0.07470333
200	0xbd9889ce	-0.07448159
201	0x3d4584f6	0.048222505
202	0xbc0b31c5	-0.008495753
203	0xbdae5de8	-0.08514005
204	0xbd937918	-0.07200831
205	0x3cbee6c6	0.0233034
206	0xbd8a0ba3	-0.06740501
207	0xbdd581a0	-0.10425115
208	0x3d0bf737	0.03417131
209	0xbd333436	-0.043750964
210	0xbd6df124	-0.058091298
211	0xbcb4748f	-0.022028236
212	0xbd829466	-0.06375961
213	0x3b412b1f	0.0029475165
214	0xbd97e501	-0.07416726
215	0xbd454b00	-0.04816723
216	0xbdd21b21	-0.10259081
217	0xbd9de3b7	-0.07709449
218	0xbda1e739	-0.0790543
219	0xbbca89b7	-0.0061809677
220	0x3d8e5eb7	0.06951659
221	0x3c1b3520	0.009473115
222	0x3dbd4639	0.092419095
223	0xbc92d7dd	-0.017925197
224	0x3c8f9c13	0.017530477
225	0x3d7e4833	0.062080573
226	0x3d6a8d7d	0.05726384
227	0xbd9a4106	-0.075319335
228	0xbd74e6c7	-0.0597904
229	0xb95f26c3	-0.00021281377
230	0xbd768935	-0.060189445
231	0xbd8818b6	-0.06645338
232	0xbdbd3a65	-0.092396535
233	0xbd4aebfd	-0.049541462
234	0x3d1bc45c	0.03802906
235	0x3a20ccd6	0.00061340386
236	0xbdb9a6b1	-0.09064997
237	0x3cbd1817	0.023082776
238	0xbdd9dd7d	-0.10637949
239	0xbd950eab	-0.07278188
240	0xbdb11340	-0.0864625
241	0x3d2e76cf	0.042593773
242	0x3d498b49	0.0492051
243	0x3c5fc202	0.013657095
244	0xbd908646	-0.070568606
245	0xbd9a80c4	-0.07544091
246	0x3d0b2b85	0.03397705
247	0xbc32b3e0	-0.010907143
248	0xbcdba272	-0.026810858
249	0x3d455e66	0.04818573
250	0x3d90f6b8	0.07078308
251	0x3d8f1b10	0.06987584
252	0x3d6e7e8c	0.058226153
253	0xbda72bf0	-0.08162677
254	0xbd7c13bc	-0.061542258
255	0xbc0fd208	-0.008778103

bias f4 [32]
0	0xbc93b549	-0.01803078
1	0xbc30d8b6	-0.010793855
2	0xbcd37ce0	-0.025816381
3	0x3b15ac60	0.002283834
4	0xbd256ece	-0.040388875
5	0xbd5434ff	-0.051808354
6	0x3d4f0302	0.050539978
7	0xbd3d1530	-0.046162784
8	0xbdabd170	-0.083895564
9	0xbb1c209f	-0.0023823155
10	0x3d0fbd82	0.035092838
11	0xbd71a115	-0.05899151
12	0xbcdfeb46	-0.027333867
13	0xbc5c4c3a	-0.013445908
14	0xbd6c7f9c	-0.057738885
15	0x3d382c08	0.044963866
16	0xbd390c4b	-0.04517774
17	0x3cc801e9	0.024414973
18	0xbd2fba14	-0.042902067
19	0xbd8ea245	-0.06964544
20	0xbd5b4efd	-0.053542126
21	0x3bb8c605	0.00563884
22	0x3c4695fc	0.01212072
23	0xbc63d8e3	-0.01390669
24	0x3d0d60a6	0.034516
25	0xbdc3b368	-0.095557034
26	0xbd99a1fb	-0.075015984
27	0x3cbda738	0.023151025
28	0xbd7f134a	-0.062274255
29	0x3bd75632	0.0065715546
30	0xbcbecad5	-0.023290077
31	0x3d0010ec	0.031266138

weight f4 [64, 32, 2, 2]
0	0xbc0eaa4c	-0.008707594
1	0x3cdd68f8	0.027027592
2	0x3da3d733	0.0800003
3	0x3d7ce71b	0.061743837
4	0x3d4f9714	0.05068119
5	0xbdb5ece2	-0.088830724
6	0xbbc9532f	-0.0061439495
7	0xbd05787c	-0.032585606
8	0x3dd41d33	0.10357132
9	0xbd5c1d85	-0.05373909
10	0xbd4a8921	-0.049447183
11	0x3d380a69	0.044931803
12	0x3d775f46	0.060393594
13	0xbd7d9517	-0.06190976
14	0x3dd68f3c	0.104765385
15	0x3d9e30e9	0.077241726
16	0xbc8b92bf	-0.017037747
17	0xba3dade8	-0.0007235692
18	0x3db60055	0.08886782
19	0x3dbc0c08	0.09181982
20	0xbc992f44	-0.018699296
21	0x3cee72b1	0.029107423
22	0xbbaa6f25	-0.0052012377
23	0xbc0b2754	-0.008493263
24	0xbcdad513	-0.02671293
25	0x3c7a79b2	0.0152878035
26	0xbd88cf24	-0.06680134
27	0x3c66bed5	0.014083584
28	0x3da62861	0.081131704
29	0xbd48cc56	-0.049022995
30	0x3d80c84f	0.06288206
31	0xbd9b4f0e	-0.07583438
32	0x3d27a8e7	0.040932562
33	0x3d187bdc	0.037227497
34	0x3d9cfd19	0.07665462
35	0x3da69964	0.08134726
36	0xbcd39bd1	-0.025831135
37	0xbd2cb576	-0.042165242
38	0x3d224b6d	0.039622713
39	0xbcab5657	-0.020915193
40	0xbb5c0500	-0.0033572316
41	0x3dae225a	0.08502646
42	0x3d2a0089	0.041504417
43	0x3d045902	0.032311447
44	0xbd19a8a3	-0.03751434
45	0xbdb94ff5	-0.09048454
46	0xbd8a583f	-0.06755113
47	0xbd64c3c3	-0.055850755
48	0x3cbf6604	0.023364075
49	0xbbf8a606	-0.007588151
50	0x3c7897d5	0.015172918
51	0xbd1b1051	-0.037857357
52	0x3d745eb8	0.059660643
53	0xbd7c0bdc	-0.061534747
54	0xbd5976d0	-0.053091824
55	0xbd555db3	-0.05209131
56	0xbc819ec6	-0.01582278
57	0x3bc518ac	0.006014904
58	0x3d93fe02	0.072261825
59	0x3d8359ed	0.06413636
60	0x3d44b97b	0.04802845
61	0x3c85bfa6	0.016326737
62	0x3dbc4d71	0.09194458
63	0xbd5eb65a	-0.054373123
64	0x3bb17e91	0.005416699
65	0x3da225cf	0.07917368
66	0x3da20ee3	0.07912996
67	0x3d5b8927	0.053597596
68	0x3c835f65	0.016036699
69	0x3d8c1bd2	0.06841244
70	0xbd05c365	-0.032657046
71	0x3dd44cf1	0.10366238
72	0x3ddbd044	0.10733083
73	0x3cb160ca	0.021652598
74	0x3d9e5853	0.0773169
75	0xbd077ced	-0.033078123
76	0x3d21cf4b	0.03950433
77	0xbd6273ad	-0.0552861
78	0x3d331c43	0.043728124
79	0x3d8b4e93	0.06802096
80	0x3d19057b	0.037358742
81	0x3d9b06bb	0.07569643
82	0x3db4bf9d	0.0882561
83	0xbd4aff7b	-0.04956005
84	0xbc75ba18	-0.0149979815
85	0xbdb53a0c	-0.08848962
86	0x3d544807	0.051826503
87	0xbdc0345b	-0.09384986
88	0x3dcd9dfb	0.10039898
89	0xbd118082	-0.035522945
90	0x3d0598cd	0.032616425
91	0x3ca0ee60	0.019644916
92	0xbd9d5b1b	-0.076833926
93	0x3a3429c2	0.00068726775
94	0x3d3a740e	0.045520835
95	0xbcb5dd51	-0.022200258
96	0xbce713c9	-0.028207676
97	0xb9d33fec	-0.00040292682
98	0xbd1cd6b7	-0.038290706
99	0xbd335ef0	-0.04379171
100	0x3d4694e2	0.04848183
101	0xbd941073	-0.072297
102	0x3d66c8f1	0.056343976
103	0xbd289d32	-0.041165538
104	0x3cd319e5	0.025769183
105	0x3bdb1cce	0.0066867834
106	0x3d4b3734	0.049613193
107	0xbcac1532	-0.0210062
108	0xbccbd0e7	-0.024879886
109	0x3d16fb72	0.03686089
110	0x3d897522	0.067117944
111	0xbd8f8fbe	-0.070098385
112	0xbd17844a	-0.036991395
113	0x3dc872a1	0.09787489
114	0x3dc52891	0.09626878
115	0xbc8a276c	-0.016864501
116	0x3cf5bd4f	0.029997496
117	0xbc5023d4	-0.012703855
118	0x3d5347b2	0.051582046
119	0xbc7a2b2c	-0.015269082
120	0xbd422da0	-0.047406793
121	0xbd3bf5f7	-0.045888867
122	0xbd047fd8	-0.032348484
123	0x3d22a30e	0.039706282
124	0xbd593aad	-0.053034473
125	0x3da7a501	0.08185769
126	0x3d792e0c	0.06083493
127	0x3c0237ff	0.007947921
128	0x3d5fac24	0.054607525
129	0xbdadb487	-0.084816985
130	0xbd8aaf91	-0.06771768
131	0xbc9511f4	-0.018197037
132	0x3b6c21dc	0.0036030924
133	0xbda7aefb	-0.08187672
134	0xbd339daa	-0.043851532
135	0x3bedf6aa	0.0072620707
136	0x3c714de8	0.014728047
137	0xbd08878f	-0.033332404
138	0xbd876033	-0.066101454
139	0xbdf3f35a	-0.1191165
140	0x3815ada9	3.5686102e-05
141	0x3bc155e1	0.00590013
142	0x3ceb32c4	0.02871073
143	0xbcc2e90d	-0.023792768
144	0x3cc4f7e7	0.02404399
145	0x3c727ee7	0.014800764
146	0xbc7f76c1	-0.015592278
147	0x3d23a67d	0.039953697
148	0xbc0316b3	-0.008001017
149	0xbc9f2a5e	-0.019429382
150	0xbdd5a52c	-0.10431895
151	0xbd3f2213	-0.046663355
152	0xbd0b0b72	-0.033946462
153	0x3afea51d	0.001942787
154	0xbd3af242	-0.04564119
155	0xbd9149c4	-0.07094148
156	0xbc60a566	-0.013711309
157	0xbc7b8be9	-0.015353181
158	0xbcb9148a	-0.022592802
159	0xbd089650	-0.033346474
160	0xbc1439c2	-0.009046974
161	0xbd8c91ac	-0.06863722
162	0xbd32317b	-0.04350422
163	0xbda0416d	-0.07824979
164	0xbd53d6f0	-0.051718652
165	0x3d645f33	0.05575485
166	0xbb9f68ab	-0.0048647723
167	0x3d2cee42	0.042219408
168	0xbdac3972	-0.08409394
169	0xbd303f98	-0.043029398
170	0xbdb47a06	-0.088123366
171	0xbcc48c57	-0.0239927
172	0x3c5c64c2	0.013451757
173	0x3d96ee19	0.07369632
174	0x3d55f8cc	0.052239224
175	0xbd8c0349	-0.06836564
176	0xbd8e962f	-0.06962239
177	0xbd80bc45	-0.062859096
178	0xbdc8a5e2	-0.09797265
179	0xbd757f1e	-0.05993568
180	0xbda743f3	-0.08167257
181	0xbda25c14	-0.07927719
182	0xbd9ef1de	-0.07760976
183	0xbd7b67bf	-0.061378237
184	0x3d7cf0cb	0.061753076
185	0xbd73a7d1	-0.059486214
186	0x3d72375b	0.059134822
187	0xbd8ef33f	-0.06979989
188	0xbd89a10b	-0.0672017
189	0x3cafdf8d	0.021468902
190	0xbd62de51	-0.0553878
191	0x3daff8b8	0.08592361
192	0x3d8846be	0.06654118
193	0xbd68704a	-0.056747712
194	0xbd887883	-0.06663611
195	0xbdd467a5	-0.10371331
196	0xbd3faa29	-0.046793137
197	0xbcc5ac60	-0.024130046
198	0xbda6b883	-0.081406616
199	0xbdb63763	-0.08897283
200	0xbc997fa4	-0.018737622
201	0xbb28f0f5	-0.0025778387
202	0x3dd03aac	0.10167441
203	0xbd00531d	-0.031329263
204	0xbd1dcafb	-0.038523655
205	0xbd9ae96b	-0.07564052
206	0xba2b2858	-0.0006529144
207	0x3aa1fcbc	0.0012358646
208	0xbd9c2efa	-0.076261476
209	0xbdd740a9	-0.1051038
210	0xbb1d0b3f	-0.0023963002
211	0xbd93ef79	-0.0722341
212	0xbd8a0fbf	-0.067412846
213	0xbdbbd0dd	-0.09170697
214	0x3d4f97ce	0.05068188
215	0xbd20b280	-0.03923273
216	0x3d8682d8	0.06567925
217	0xbd663cbc	-0.056210265
218	0x3bb1cac3	0.0054257824
219	0x3d350e30	0.044202983
220	0xbda1246b	-0.07868274
221	0x3d7397e5	0.05947103
222	0x3d8fe4e0	0.07026076
223	0x3cd6fb37	0.026242835
224	0x3c9eb974	0.01937554
225	0x3d296153	0.04135258
226	0x3d45b37f	0.048266884
227	0x3d2f4151	0.0427869
228	0xbd43682e	-0.047706775
229	0x3c32777a	0.010892743
230	0xbd139933	-0.036034774
231	0xbda1c8c0	-0.07899618
232	0xbd0477d5	-0.032340843
233	0xbd3c7a1c	-0.04601489
234	0x3d91918a	0.071078375
235	0x3d8197c9	0.06327779
236	0xbd2a51f4	-0.041582063
237	0x3da2e55b	0.07953902
238	0x3c357bbe	0.011076866
239	0xbd1e6b78	-0.03867671
240	0x3ce24122	0.027618948
241	0x3d91ab76	0.07112782
242	0x3db47167	0.08810692
243	0x3be29b15	0.00691546
244	0xbde436b8	-0.11143249
245	0x3ca53a6f	0.020169465
246	0xbd44512c	-0.047928974
247	0xbc548225	-0.012970482
248	0x3c129009	0.0089454735
249	0xbc2e11fc	-0.010624405
250	0xbd215b3d	-0.039393652
251	0xbdc21fbe	-0.094787106
252	0x3d3a48d8	0.045479625
253	0x3d38246f	0.04495662
254	0xbda3aa10	-0.07991421
255	0x3c9adb79	0.01890348

bias f4 [64]
0	0xbcda9259	-0.026681112
1	0x3c4a93dd	0.012364355
2	0xbcdbb9fa	-0.026822079
3	0xbd12548a	-0.035725154
4	0x3da30f3c	0.0796189
5	0x3d916adb	0.07100459
6	0x3d85e960	0.065386534
7	0xbd61a7f4	-0.055091813
8	0x3da21e74	0.07915965
9	0x3c98d191	0.018654617
10	0x3d88b9fd	0.066760994
11	0xbca9c0b3	-0.020721769
12	0x3c3afe8e	0.01141323
13	0x3ce2ab72	0.027669642
14	0xbd311d55	-0.043240864
15	0xbc5372a7	-0.012905753
16	0x3d767de9	0.06017867
17	0xbd0ae95c	-0.033913955
18	0xbcaccae7	-0.021092845
19	0x3d953181	0.07284833
20	0x3d048287	0.032351043
21	0xbd4417df	-0.047874328
22	0xbd8f799c	-0.07005617
23	0x3d9d13c2	0.07669784
24	0x3d7974f1	0.06090254
25	0x3ccff4a7	0.025385214
26	0x3d0b4d04	0.034008995
27	0xbc53ea3e	-0.012934266
28	0xbc0b3eed	-0.008498889
29	0xbc37fc3d	-0.011229572
30	0x3da47588	0.0803023
31	0x3cbb90f3	0.022896266
32	0x3d04a1a2	0.032380708
33	0x3d173fc3	0.036926042
34	0xbd993247	-0.07480293
35	0x3c2ae261	0.0104299495
36	0x3d8d04dc	0.068856925
37	0xbc80468a	-0.015658636
38	0x3d8912ee	0.06693064
39	0xbd213777	-0.039359536
40	0x3da2e6b2	0.07954158
41	0xbcf2b267	-0.029626084
42	0x3d7cbfa5	0.061706204
43	0x3d1d5a00	0.03841591
44	0x3d939cd1	0.07207645
45	0x3d4286fa	0.047492005
46	0x3d0a2adb	0.033732276
47	0x3ca75477	0.020426018
48	0x3c1223c3	0.008919659
49	0x3ca0b197	0.019615931
50	0x3d51b916	0.051201902
51	0x3bd04a12	0.006356486
52	0xbd943c29	-0.07238037
53	0x3d95c2fc	0.07312581
54	0xbcbb9c23	-0.0229016
55	0xbd87cbae	-0.06630646
56	0xbbcbbb3b	-0.006217388
57	0x3d8b4d4a	0.06801851
58	0x3ca954ab	0.020670256
59	0xbc8810ae	-0.016609516
60	0xbd081527	-0.033223297
61	0xbd7609ce	-0.060067944
62	0x3d8c2038	0.06842083
63	0xbcaf46a0	-0.021395981

weight f4 [64, 64, 2, 2]
0	0xbc5cd497	-0.01347842
1	0x3cc205ba	0.023684371
2	0x3d74a962	0.05973185
3	0x3d1d207f	0.03836107
4	0x3cf79de5	0.030226657
5	0x3b62c453	0.0034601882
6	0x3c9eab2c	0.01936873
7	0xbc9a81e9	-0.018860774
8	0x3d421803	0.04738618
9	0x3d505ed6	0.050871693
10	0x3ce96d8b	0.028494617
11	0xbc32b271	-0.010906802
12	0xbbb668f5	-0.005566711
13	0xbd487715	-0.04894169
14	0xbcf4a138	-0.029862031
15	0x3c0a022f	0.008423372
16	0xbce60ae1	-0.02808136
17	0x3cb0bf57	0.021575613
18	0x3a6a6c37	0.0008942517
19	0xbd033d82	-0.03204108
20	0xbd38c1a3	-0.04510654
21	0x3c118124	0.008880887
22	0x3d82b3b0	0.06381929
23	0x3c41d676	0.011830917
24	0xbcf234d7	-0.029566212
25	0xbcae3207	-0.02126409
26	0xbcf291e5	-0.029610584
27	0xbd737a59	-0.05944285
28	0x3c3a3186	0.011364346
29	0x3ce3b71e	0.027797278
30	0xbd74813c	-0.05969356
31	0xbc4b2aed	-0.012400371
32	0xbcbdefa4	-0.023185559
33	0x3d370860	0.04468572
34	0xbd726349	-0.059176717
35	0x3c105985	0.008810406
36	0xbd6e243d	-0.05814003
37	0xbcc90bcb	-0.024541756
38	0x3d7aeeb0	0.061262786
39	0x3d389011	0.045059267
40	0x3aea994d	0.001789847
41	0x3bbea24c	0.005817687
42	0x3c259121	0.010105402
43	0xba252723	-0.00063000823
44	0xbc756f5b	-0.0149801625
45	0xbc9fa047	-0.019485606
46	0xbce98871	-0.028507443
47	0x3d73ac8c	0.059490725
48	0xbd74e607	-0.059789684
49	0xbd38e54f	-0.04514056
50	0x3ce596b0	0.028025955
51	0x3d1ecc8e	0.038769297
52	0x3cad3211	0.021142038
53	0xbb8fa29a	-0.0043833973
54	0x3c2e0525	0.010621344
55	0xbd2358e2	-0.039879687
56	0xbc466e98	-0.012111329
57	0xbda96324	-0.08270863
58	0x3c321768	0.010869838
59	0xbd793100	-0.060837746
60	0x3d345b97	0.04403266
61	0xbcac78b2	-0.021053646
62	0x3d0d5a15	0.034509737
63	0xbc85a093	-0.01631192
64	0xbda7c722	-0.081922784
65	0xbcd7edb6	-0.026358467
66	0xbc0e0639	-0.008668476
67	0xbd076b11	-0.03306109
68	0x3c070534	0.008240987
69	0x3d053f58	0.032531112
70	0xbb06a75e	-0.0020546536
71	0xbc8209e2	-0.015873853
72	0x3d3c0405	0.04590227
73	0xbd1c8be6	-0.038219355
74	0xbc30fe6c	-0.010802846
75	0xbd0136c5	-0.031546373
76	0xbcf98450	-0.0304586
77	0x3d7d7cbb	0.06188653
78	0xb88e71e6	-6.792303e-05
79	0x3c73be21	0.014876873
80	0xbd8e2ad1	-0.0694176
81	0x3d016b8d	0.03159671
82	0xbd1fe474	-0.03903623
83	0x3c1e8d1f	0.009677201
84	0xbd8c22b3	-0.06842556
85	0xbd4bf8bc	-0.04979776
86	0xbb836c50	-0.0040107146
87	0x3d23fc04	0.040035263
88	0xbd92276c	-0.071364254
89	0xbe103a5f	-0.14084767
90	0xbdc24eea	-0.09487708
91	0xbdff44c9	-0.124642916
92	0xbd0834f4	-0.033253625
93	0xbd856f4b	-0.06515368
94	0xbd2dc579	-0.042424653
95	0xbd635a77	-0.055506196
96	0xbc6bf464	-0.014401529
97	0x3cea0fa3	0.02857191
98	0xbd4fd076	-0.050735913
99	0xbb458bfc	-0.0030143252
100	0xbd82807a	-0.06372161
101	0xbd75e846	-0.060035966
102	0x3bd64a70	0.0065396354
103	0x3cf362bf	0.029710172
104	0xbd002960	-0.03128946
105	0xbd3e76d3	-0.04650004
106	0x3d20c5bb	0.03925107
107	0xbcf8efe5	-0.030387828
108	0x3d6d4aa3	0.057932507
109	0x3d8db98e	0.069201574
110	0x3c87c428	0.016573027
111	0x3b6fde26	0.0036600917
112	0x3cf2b611	0.029627832
113	0xbd0b2e29	-0.03397957
114	0x3d3914a1	0.04518569
115	0x3bafafdf	0.0053615416
116	0xbcbfeb69	-0.023427682
117	0x3c6f20dc	0.014595237
118	0xbd08b087	-0.033371475
119	0xbd8142a8	-0.06311542
120	0x3c89bfd2	0.0168151
121	0x3c81a5ca	0.015826125
122	0xbd613853	-0.054985356
123	0xbccd50d7	-0.025062962
124	0xbd81218b	-0.06305226
125	0xbd2ba8a6	-0.041908883
126	0xbd542bd6	-0.051799618
127	0xbd3b3493	-0.045704436
128	0xbd39f557	-0.04539999
129	0x3cd26f2f	0.025687782
130	0xbd0d7931	-0.034539405
131	0xbd3549a9	-0.0442597
132	0x3cf2174e	0.029552128
133	0xbce8d000	-0.028419495
134	0x3baf9b4e	0.00535909
135	0xbb8cfc59	-0.004302543
136	0x3c0cbc40	0.008589804
137	0x3bac5ed7	0.005260329
138	0x3db5e5f6	0.08881752
139	0xbcfebccf	-0.03109589
140	0x3bf90e2b	0.007600566
141	0xbd6b9ec7	-0.05752447
142	0xbd28a390	-0.04117161
143	0x3d65f053	0.056137394
144	0xbc308c08	-0.010775574
145	0xbbb8062b	-0.0056159697
146	0xbc1079d0	-0.008818105
147	0x3d2953a8	0.041339546
148	0x3d2d0c86	0.04224827
149	0xbcc96235	-0.024582962
150	0x3cde3192	0.027123246
151	0xbddffa4f	-0.109364145
152	0x3d0115a3	0.031514775
153	0x3ca62d8d	0.020285392
154	0xbd6c5092	-0.057694025
155	0xbcb8860c	-0.022524856
156	0x3bad47ad	0.0052880854
157	0xbd31e4cf	-0.0434311
158	0xbd81dbd1	-0.06340755
159	0xbd78eb6a	-0.060771383
160	0xbd11dd9c	-0.035611734
161	0x3c990ae7	0.018681956
162	0xbd42b889	-0.047539268
163	0x3d0dd5ba	0.034627654
164	0xb944ad65	-0.00018756611
165	0xbc069ffe	-0.008216856
166	0x3d20616c	0.03915541
167	0xbd5334c6	-0.051564
168	0xbbf9e979	-0.007626709
169	0xbc9eb4b8	-0.019373283
170	0x3d0ad156	0.033891045
171	0xbc2dcfb9	-0.010608607
172	0x3d0246fb	0.031805974
173	0x3bd764e0	0.0065733045
174	0x3d154ecf	0.03645211
175	0x3d4aee92	0.049543925
176	0xbc72b71b	-0.014814164
177	0x3d81360b	0.06309136
178	0x3ce39892	0.027782712
179	0x3c15ad19	0.009135508
180	0x3d1a1b02	0.037623413
181	0x3d216c6b	0.039410036
182	0xbd43dc4a	-0.047817506
183	0xbb84be4a	-0.0040510045
184	0xbd56c556	-0.052434288
185	0xbca64398	-0.020295903
186	0xbbd6fc15	-0.0065608122
187	0x3ce827a7	0.02833922
188	0xbae1452e	-0.0017186755
189	0xbcd2516c	-0.02567359
190	0x3ca31037	0.019905193
191	0x3d9659f9	0.0734138
192	0x3d3ee622	0.04660619
193	0x3cc21c63	0.023695176
194	0x3d06bc42	0.03289438
195	0xbc1e9ed4	-0.009681422
196	0x3d2bb062	0.04191626
197	0x3d1b38bb	0.0378959
198	0xbb8fb011	-0.0043850024
199	0x3d419ea7	0.047270443
200	0x3ccb858e	0.024843957
201	0x3bc1ef97	0.005918454
202	0xbd12d750	-0.03584987
203	0x3c2d1dfb	0.01056623
204	0xbcfa1530	-0.030527681
205	0xbd4f3166	-0.05058422
206	0x3d2134dc	0.03935705
207	0x3b02242d	0.0019857988
208	0x3d35e434	0.044407085
209	0xbd3ef028	-0.04661575
210	0x3d71df78	0.059051007
211	0xbcae57c4	-0.021282084
212	0xbd422f60	-0.04740846
213	0x3c0fa74a	0.008767912
214	0x3c86a3a6	0.016435456
215	0xbd3666f0	-0.044531763
216	0x3c31e532	0.010857867
217	0x3d1e5fb9	0.038665507
218	0x3c0311e2	0.007999869
219	0x3da7918b	0.08182057
220	0xbd6bf626	-0.057607792
221	0x3d29c15e	0.041444175
222	0xba891e00	-0.0010461211
223	0xbb09e020	-0.002103813
224	0x3d5a09a2	0.053231843
225	0x3d12794c	0.03576021
226	0xbd19405e	-0.0374149
227	0x3c8c3532	0.01711521
228	0x3cd70eed	0.026252234
229	0xbca134bf	-0.019678472
230	0x398ce637	0.00026874404
231	0xbd4ac920	-0.049508214
232	0xbbe1ca9f	-0.0068906094
233	0xbd3f6ab0	-0.046732605
234	0x3b82dab5	0.003993357
235	0x3d55ba38	0.052179545
236	0xbd728c77	-0.05921599
237	0x3c7fdc65	0.015616511
238	0xbab5f36f	-0.0013881753
239	0xbd7db79a	-0.061942674
240	0xbce08a14	-0.02740959
241	0xbbe3116a	-0.006929566
242	0xbd1a8c7c	-0.037731633
243	0xbcb60c84	-0.022222765
244	0xbad254c2	-0.0016046988
245	0xbd0efaba	-0.03490708
246	0xbd1cece4	-0.038311854
247	0xbd10fe46	-0.035398744
248	0x3c9953e4	0.01871676
249	0xbcbf01ea	-0.023316342
250	0x3b0efac1	0.0021816941
251	0x3cc3b601	0.023890497
252	0x3bb28030	0.00544741
253	0xbcaa2a30	-0.02077207
254	0xbc83c00b	-0.016082784
255	0xbd5c7f2d	-0.05383222

bias f4 [64]
0	0x3d34a54e	0.04410296
1	0x3d0c6c1a	0.03428278
2	0x3bff1f05	0.0077856802
3	0xbc4de622	-0.012567075
4	0x3a263389	0.0006340077
5	0xbd107de3	-0.035276305
6	0xbd816a27	-0.06319075
7	0x3cffa485	0.031206379
8	0xbd6cb422	-0.057788976
9	0xbd6a1879	-0.057152245
10	0x3d01b6aa	0.031668343
11	0x3c5856ba	0.013204271
12	0x3c9e5b30	0.019330591
13	0x3d7fe4bc	0.062473997
14	0xbbba9fa3	-0.0056952997
15	0xbd5d93bc	-0.05409597
16	0x3cc496df	0.023997722
17	0xbbf81855	-0.00757126
18	0xbc876395	-0.016526977
19	0xbce2bbc3	-0.027677422
20	0xbd343b78	-0.044002026
21	0xbd4b821b	-0.049684625
22	0xbd54d931	-0.051964942
23	0xbcd2a913	-0.025715386
24	0x3cbadf60	0.022811592
25	0x3c7c27a5	0.015390311
26	0xbcc2207b	-0.023697129
27	0x3c7467c3	0.014917317
28	0xbd3179fe	-0.04332923
29	0xbc03961b	-0.008031393
30	0x3bf5cd4d	0.0075012804
31	0x3cbeb06b	0.023277482
32	0xbd2b916d	-0.041886736
33	0x3d4db218	0.05021867
34	0x3d32605d	0.04354893
35	0x3d41057a	0.047124363
36	0xbc716ad8	-0.014734946
37	0x3c886e64	0.0166542
38	0x3cf5185e	0.029918846
39	0xbd68b958	-0.056817383
40	0x3d590f5c	0.052993163
41	0xbbc524ba	-0.006016341
42	0x3ca39361	0.019967737
43	0x3be470b6	0.006971444
44	0xbc5b8a3b	-0.013399656
45	0xbd493fb3	-0.049133014
46	0x3d08de6f	0.033415254
47	0xbd446d43	-0.047955763
48	0xbc528597	-0.012849233
49	0xbd70a8f5	-0.05875488
50	0xbcc8b30c	-0.024499439
51	0x3d07e620	0.03317845
52	0x3c902fbe	0.01760089
53	0xbd6dda7d	-0.058069695
54	0x3d2854ad	0.041096378
55	0xbd5f930f	-0.054583605
56	0xbd49381f	-0.049125787
57	0x3d14ee8b	0.036360305
58	0x3c07c3ea	0.008286456
59	0x3d340fe4	0.043960467
60	0xbd117873	-0.03551526
61	0x3cbb3530	0.02285251
62	0xbc9a6f31	-0.018851848
63	0x3ccf54d2	0.025309
