output/multiclass-3/unet_tgs_salt.pth (torch, 246103 bytes, 26 tensors)

weight f4 [16, 3, 2, 2]
00000000: 4f3f fa3d 1a96 203e ab9a 92be 07df 44be
00000010: 6850 633e f5f2 773e 1c46 f23d 7627 423e
00000020: ed37 cbbe eaa2 44be f81c a2ba 845e 95be
00000030: d865 f23d 4c4d a33e cf08 a83e 5474 633e
00000040: 2a0a 42be 4989 0ebe 1b49 153e 1266 c3bd
00000050: 16b2 11bd d89b 41be b17b 18be b624 11be
00000060: 0e7b d4bc b38e 40be 5906 c83d 2db6 1b3d
00000070: 1242 3dbe 68a6 833e 4f76 37be 013a 62bd
00000080: ee67 393d 6236 1ebd bd64 88be 8c12 e13c
00000090: 7ea3 483d b096 89be dbf1 f03d 905e ea3b
000000a0: 8f37 15be a632 c3bd 2301 373e 7a80 073d
000000b0: fcc1 3e3e 949a 593d 5b58 643e a109 8c3e
000000c0: 9625 c63d ebf9 923d 40e7 7abe 4237 033c
000000d0: 5f05 3ebe 31e6 51be 86ce 2c3e 8a5a 213e
000000e0: 10fa cebc 654e 7fbd 6d3c 113e 50b7 87be
000000f0: c93a 2abe 7226 bb3d f1f6 863d df66 b0bd
00000100: 23f7 99bd 4d76 d7bc b3eb 613e dd69 a13e
00000110: ce52 bdbe 05a7 a1be 6561 7ebe 5318 3f3e
00000120: 50ef 81bd 3067 053e f786 89be c999 59bc
00000130: 4b7b 0dbe 9115 513c d20e 703d 48f2 82be
00000140: 3199 8bbe 8757 5dbe 33af 3dbd bffb 5dbe
00000150: 1d76 1ebe 5c6e 92be 0e59 8b3e 8047 85bd
00000160: fde5 1d3d 19d9 113c f26e 09be cbd3 0c3e
00000170: 4122 4bbd a594 8c3e 58e9 8dbe 06f1 ffbd
00000180: cce6 bbbd 6b0b 73be c4cb 95bd 83b6 e1bb
00000190: 89c4 bf3e 2136 dabd f9cd 733e d666 523e
000001a0: 9fda 543e ae50 903d edd4 b5bd 0353 3b3c
000001b0: 64cf c2bd 0b4b fcbd 4230 89be c27e 5c3e
000001c0: a488 d13c 8e48 57be c479 843e 0aba 79be
000001d0: d5e1 88bc 40b0 6c3e 5883 143e 9ced 803e
000001e0: b279 4abe 39f2 063e ceb8 a6be 386c 813d
000001f0: a00d 9e3e 4810 173e a063 873e fb22 a03c
00000200: 1f6b 953d 07ad 15be 89c6 13bd 3617 58be
00000210: 78c1 d33d 9cf0 20be 0535 4d3e 3bf7 803e
00000220: f9bb fcbc 139c 973d 6d46 bb3e a9c5 debc
00000230: 9e4c c5be 16c7 cdbe 1746 ae3d 43c9 003c
00000240: 3616 903e dcab 983d 66b3 033d bbe6 34be
00000250: b2a1 8d3d b35d 0ebe d87e e73d 0632 db3d
00000260: 0a1b 903e c186 033e 8854 243e d47a 873e
00000270: 954d 6a3e 2e9f 8fbe b94f c33c 5ad6 6f3e
00000280: 2018 c4bd a8fa 533e 1efa e53c 3b3a 2f3e
00000290: 9812 013e c618 8a3d a5f4 26be 728b 543e
000002a0: dc3c 31be c467 703c 2a6b f13c faf9 20be
000002b0: 8e4c 33be dd6f 38be 15d2 12bd 08f3 f1bd
000002c0: 99d6 00bc 9d2d e6bd 75e2 193d 9670 ce3e
000002d0: 89fa cebd 2f9c ddbd 948b f03c 493f 193e
000002e0: 7dce 30be 0645 c2bd 3209 59be 28af 0dbe
000002f0: 3e15 cf3d 50c4 a73e 7748 1ebe e777 6d3d
0.122191064 0.15682259 -0.28633627 -0.19225703 0.22198641 0.24213775 0.118297786 0.18960366
-0.39691105 -0.19202772 -0.0012368253 -0.29173672 0.118358314 0.3189491 0.3281922 0.22212344
-0.1894919 -0.13919558 0.14578669 -0.09540953 -0.035570227 -0.18907106 -0.14890935 -0.1417416
-0.025937583 -0.18804435 0.09766836 0.038015533 -0.18482235 0.25712895 -0.17916225 -0.055231098
0.04526513 -0.038626082 -0.26639357 0.027474664 0.048984043 -0.26872778 0.1176488 0.007152386
-0.14571975 -0.09531145 0.17871527 0.03308151 0.18628687 0.053125933 0.2229933 0.27351096
0.09675138 0.07176574 -0.24502277 0.00800878 -0.18556736 -0.20497967 0.16875657 0.15757194
-0.025265723 -0.062330622 0.14183207 -0.26507044 -0.16623987 0.09138192 0.06590069 -0.08613371
-0.07517841 -0.026301527 0.22062568 0.3152608 -0.36977237 -0.31572738 -0.2484184 0.18661623
-0.06344473 0.13027644 -0.26860783 -0.013281294 -0.13816564 0.0127614895 0.058607884 -0.2557547
-0.27265313 -0.2161542 -0.04630966 -0.21678065 -0.15474744 -0.28599823 0.2721638 -0.06507778
0.038549412 0.008901858 -0.13421229 0.13752668 -0.049593214 0.27457157 -0.2771709 -0.124971434
-0.091748804 -0.23734824 -0.07314256 -0.006888212 0.37454632 -0.106548555 0.23809041 0.20547041
0.20786522 0.070466384 -0.08878503 0.011433366 -0.09512213 -0.12319001 -0.2679463 0.2153273
0.02557785 -0.21023771 0.2587415 -0.24387375 -0.016709248 0.23114109 0.14503229 0.25181282
-0.19772986 0.13178338 -0.3256287 0.06319469 0.3086977 0.14752305 0.26443195 0.01954793
0.07295822 -0.14616786 -0.03607801 -0.21102604 0.103396356 -0.15716785 0.20039757 0.25188622
-0.030851351 0.07402816 0.36577168 -0.027193861 -0.38535017 -0.40190953 0.08509462 0.0078604845
0.28141946 0.074546546 0.03215351 -0.17666142 0.069156066 -0.13902931 0.113034904 0.107029006
0.2814563 0.12844373 0.16047871 0.26460898 0.22881158 -0.28051132 0.023841726 0.23421612
-0.09574914 0.20701087 0.028073367 0.17112057 0.12604749 0.067430064 -0.16304262 0.20756319
-0.17308372 0.014673177 0.029470045 -0.15720358 -0.17509672 -0.18011422 -0.03584488 -0.11813933
-0.007863664 -0.11239169 0.037569482 0.4032027 -0.101063795 -0.10820805 0.029363431 0.14965548
-0.17266269 -0.094858214 -0.21194914 -0.13836348 0.101114735 0.32766962 -0.1545733 0.057975676

bias f4 [16]
00000000: 28a7 773e 5203 703c 13a0 43be 0eb3 7bbe
00000010: adfe 283e 2adf 433e a451 15be cbef 49be
00000020: edc8 0cbe e70f 1ebe 9dee 0d3c a04d 023e
00000030: 10d0 60bd ba09 b7bc d1f6 b03e 1416 8e3e
0.24184859 0.014649229 -0.19104032 -0.24580023 0.16503401 0.19128099 -0.14581925 -0.1972038
-0.13748522 -0.15435754 0.008662847 0.12724924 -0.054885924 -0.022343505 0.34563306 0.2775122

weight f4 [16, 16, 2, 2]
00000000: 5902 303e 522b 533e 8308 543e 7f9d e73d
00000010: b733 73bd af21 163b f80f 2dbd b290 d2bc
00000020: 8063 bb3d 90ea 533c e829 983c 40c2 d9bb
00000030: 645b ec3d e73d 503e e13f 30bd f2f0 c5bb
00000040: 043f 02bd e81e b2bc cc65 48bd 2087 0b3e
00000050: 265f 643e 7f0b 703e e324 5c3e 2478 d13d
00000060: 32d4 b23d b893 913d 1000 793c b6af c83d
00000070: c157 7cbd ca0a e9bc 8a37 f73d b103 003d
00000080: 0dd4 16bd 8c69 c13d 5c3a 053d 2bb3 073e
00000090: 83da 8d3e e615 5b3e dfb5 8d3e 5380 883e
000000a0: beb8 063e 4ceb 583e 7676 253e 7949 e03d
000000b0: e987 2f3e a9ff a83d 6fba d4bd 79fa 3e3d
000000c0: 4132 563d 2dc3 f43d c651 9abd d221 00bb
000000d0: 09be dd3c 0b1a 243d 2e98 22bd dd54 943d
000000e0: 19f5 d9bd 0ef7 58be 9092 8bbe b871 cfbd
000000f0: 08c1 8bbe aaaa c8be e672 c7bd 622d 30be
00000100: 8a0f bf3d 2ef4 203e 12a4 093e da18 4e3e
00000110: e95d ee3d 6c66 a03e 09bb 203e e6c6 e33d
00000120: 0085 d23a 101c d33d 64cd 5dbd 34e3 613d
00000130: 6a3f 873e 536f 813e 309d bb3d 91c6 193e
00000140: d5cd 49bd 7577 10bd 9198 7ebd 2c3f b53c
00000150: 335c 423e a7e7 d43d bd19 d63d 2b31 453c
00000160: dea5 f33d 8439 b9bd 00e8 b1ba b85f 8e3c
00000170: a24e 963d 0102 50bd 4589 d2bc 5247 cabd
00000180: 2b07 b13c 50f1 f33d 7b28 1abe bb64 513c
00000190: 406c 0d3f 3355 0c3f d6a4 1d3f 836b fc3e
000001a0: 2c85 113d 38c5 943b fa76 6dbd 6b23 81bd
000001b0: 9d87 0d3b c79c 373e d8e3 113c 68fa 00be
000001c0: 03e4 25bd 1061 e1bd 06dd b9bd 0d94 bf3d
000001d0: 3817 1f3c 780d 6c3d eaad 74bd fafe fcbc
000001e0: 5cf3 ebbd 1eae 7bbd 9a81 eb3b 6418 e0bd
000001f0: 398f 093e 0875 2fbe 8f14 ab3d ba04 963b
00000200: 3f9d 5e3e 5778 193e 5e4d 6d3e 8ab2 2f3e
00000210: 7d31 973e d027 803e 3dd6 693e acac 3e3e
00000220: c8e5 493d aa5e b9bd f4dd 02bd 582c 86bc
00000230: 8f1e e93d ffd2 17be 57dc 81bd ebeb 9a3d
00000240: 9364 923d dbba 4bbd 1f3b e93d 163e 7cbd
00000250: 5504 993e 3da5 7a3e 9fdf b23d c720 193e
00000260: d6fb eabd 40ee 13bc 10fe 8cbc 80c5 6b3c
00000270: 913b a33c 39b3 40bd bc0c 6a3d 2698 933d
00000280: 0bcb d6bd 60c9 f5bd 2edc a73d 4527 c13c
00000290: 3543 633e 553a dc3d dfa3 4c3e 9dc0 0a3e
000002a0: 6c38 1e3d 16bb 3d3d ecfb d2bc 41d9 4d3d
000002b0: b352 303e 4344 953d 7209 983d a542 eabc
000002c0: be8f 1abe 941d 943d c68c d7bd b83d c8bd
000002d0: 4bf6 c4bd 9889 b43c 5502 3ebd c7f7 82bd
000002e0: 5c28 26be fd4b 5dbe e148 91be f74c 4abe
000002f0: 551c 78be 9df5 4abe 0c79 87bd 89e6 24be
00000300: 6bf0 81be eea1 ccbd dfe2 8cbe 96fd 9dbe
00000310: 63d5 2ebe b2a8 d0bd ff97 82be d1b8 b5bd
00000320: bc03 8bbd 6cc7 88bd 6cd8 b6bd c485 0ebd
00000330: fe62 433d fb15 1e3d c2c1 143c 3510 4b3d
00000340: 4c31 f8bd f031 6cbb bf0b 83bc c679 2f3d
00000350: 12b3 1abe cc52 5fbe 2ef1 82be 4a47 36be
00000360: baa4 df3d dc2e bcbd 6ee2 f33d 1cb6 e23d
00000370: ee26 813d b6d0 fdbd 703e d7bd 4b94 f53c
00000380: ae21 bfbd 96a2 b6bd 0db2 d7bd fff2 f23b
00000390: 2c67 d53d 46f9 a83d f5d9 88bd ff0c abbb
000003a0: ea61 e43c c695 70bd 6661 cabd 03ed e6bc
000003b0: 371b 30be a13d 39be 2406 24be 5828 323b
000003c0: 6d45 543d 47e4 20bc 91df 85bb d566 68bd
000003d0: 75ee 7bbd 4f99 9f3d d41c a83c f7df 9abb
000003e0: 29bb 463e 67b5 b13d 7a70 343e 8aff 983e
000003f0: 7634 5a3e 71b5 983d 53a6 853e d4b0 2f3e
0.17188396 0.20621994 0.20706372 0.11309337 -0.05937549 0.002290826 -0.042251557 -0.025703762
0.091498375 0.012934342 0.01857467 -0.006645471 0.11540869 0.20336114 -0.04302967 -0.006040686
-0.031798378 -0.021743253 -0.048925206 0.13625765 0.22301921 0.23441885 0.21498446 0.10227993
0.08731879 0.07108253 0.015197769 0.09799139 -0.061607126 -0.028447527 0.1207114 0.03125352
-0.03682332 0.094439596 0.03252636 0.13251941 0.27705774 0.21395072 0.2767782 0.26660404
0.13156411 0.21183509 0.1615847 0.10951514 0.1714169 0.08251888 -0.10387122 0.046625588
0.05229402 0.11951289 -0.07535128 -0.0019551408 0.027068155 0.0400639 -0.03969591 0.07242749
-0.10642452 -0.21187994 -0.27260256 -0.10129112 -0.2729571 -0.39192706 -0.09738712 -0.17204812
0.09329136 0.15718147 0.13441494 0.20126668 0.11639006 0.31328142 0.15696348 0.11121921
0.0016061366 0.10308087 -0.054150954 0.05514832 0.2641557 0.25280246 0.091608405 0.15017153
-0.049268562 -0.035270173 -0.062157217 0.02212485 0.18980484 0.10395747 0.10454128 0.012035648
0.11896871 -0.09044173 -0.001357317 0.017379627 0.07339217 -0.05078316 -0.02570022 -0.098768845
0.021609863 0.11911261 -0.15054505 0.012780364 0.552433 0.54817504 0.61579645 0.49300775
0.035527393 0.004540112 -0.057974793 -0.063055836 0.0021595724 0.179309 0.00890442 -0.12595522
-0.040500652 -0.11004841 -0.0907536 0.0935441 0.009710126 0.057630032 -0.05973617 -0.030883301
-0.115210265 -0.061445348 0.0071870806 -0.10942152 0.13433541 -0.17134488 0.083535306 0.0045782
0.21739672 0.14987312 0.23174044 0.17157951 0.29529944 0.25030375 0.22835632 0.18620557
0.049291402 -0.09051259 -0.031949952 -0.016378567 0.11382782 -0.14826582 -0.063408546 0.07564529
0.07148089 -0.049738746 0.113882296 -0.061582647 0.29886118 0.24477096 0.087340586 0.1495391
-0.11473815 -0.009028971 -0.01721099 0.014390349 0.019925864 -0.04704592 0.05714105 0.072067544
-0.10487946 -0.120013 0.08196293 0.023578295 0.22193606 0.107533135 0.19984387 0.13550039
0.038628027 0.046320997 -0.025754891 0.050256018 0.17219047 0.072884105 0.074236766 -0.028596232
-0.15093896 0.07232204 -0.10524897 -0.09777397 -0.09617289 0.022038266 -0.046388943 -0.06394916
-0.16226333 -0.21611018 -0.28375915 -0.19755922 -0.24229558 -0.19820257 -0.06614885 -0.16103567
-0.25378737 -0.09991823 -0.2751684 -0.30857533 -0.17073588 -0.10188426 -0.2550659 -0.088731416
-0.06787822 -0.06678662 -0.08927998 -0.034795538 0.04770183 0.03859518 0.009079399 0.049576003
-0.12118778 -0.0036040507 -0.015996812 0.04284074 -0.15107372 -0.21808928 -0.2557463 -0.17800632
0.10920091 -0.09188625 0.119084224 0.11069891 0.063062534 -0.12393324 -0.10509956 0.029977938
-0.09332596 -0.089177296 -0.10532007 0.0074142213 0.10420069 0.0825067 -0.06682197 -0.005220055
0.02787872 -0.058736585 -0.098818585 -0.028189188 -0.17197882 -0.18089916 -0.16017967 0.0027184691
0.051824022 -0.009820051 -0.004085489 -0.056738693 -0.061506707 0.07792913 0.020521559 -0.0047264057
0.19407333 0.08677178 0.17621031 0.2988246 0.21309075 0.07456482 0.26103458 0.17157298

bias f4 [16]
00000000: e1bf 9d3c 8034 cbbd 003b 103c a0ed b83d
00000010: 1150 87bb cbc4 d63d f7f6 983d 42ae 303d
00000020: 3a6b 7a3c bcb8 99bd 73bf 92bd 01f1 093e
00000030: af1f 99bd ef63 6fbc ec4e b83d 1407 74bd
0.019256534 -0.09922123 0.008803129 0.09029698 -0.0041294177 0.10486754 0.0746898 0.043134935
0.015284354 -0.075059384 -0.07165422 0.13470842 -0.07476746 -0.014611228 0.08999428 -0.059577063

weight f4 [32, 16, 2, 2]
00000000: e96c ca3c 0511 a43c 7ec7 4abe f2f7 17be
00000010: 487a 983d aad1 d43d 343d 21be 41d0 8c3c
00000020: c2b7 f33d 7b83 0fbd 74ee 8c3c 86f4 ecbd
00000030: a244 303c 68e3 c13d 949b 9c3d d250 cd3d
00000040: d12e 453c 0ac8 073e 8e64 e7bc 9095 043e
00000050: 703f cb39 a158 5dbe 50a3 d6bd 7e3f 70bd
00000060: d575 c8bc 467d d5bd 11b9 cabd 3fd2 0dbd
00000070: 4cd0 f0bc a378 6f3d 4e55 96bd 7710 bebd
00000080: 1557 8e3d 14b0 563d 4391 623d 14ea 8a3d
00000090: b729 e0bd 9d4a 9d3c 17af 57bd a033 8e3d
000000a0: fd62 4ebd 95b4 0f3e b87f 423d b19e 373e
000000b0: 745f 9e3d 667a af3d e99a 2e3e 555d 5ebb
000000c0: 3d27 c7bd 6bb3 24be 3384 79bd 91c0 55be
000000d0: 141a d63d 2b26 36bd c511 96bd 4e98 9e3d
000000e0: 4600 15bd 2089 81bd 2cec a0bd 5632 d33d
000000f0: ddd3 c9bd 90ec a43d bb29 d13d fb71 e3bb
00000100: 693a ac3c d617 c33c 91e7 ee3c 6041 27bd
00000110: 1fd0 333e 03b6 57bc 57ca 8e3d d76f 96bd
00000120: f241 633e 103d cb3c cc74 033e c5d1 b4bd
00000130: 4285 bb3d c4e2 693e 73f0 cf3d 6081 903e
00000140: 3371 6e3d 76c8 e9bd 5613 eb3c ff9f 843d
00000150: 0fdf ac3d b01e 13be e2eb f83d 4121 f6bc
00000160: c699 c4bd 5c68 553d 6cca 873d ae39 ee3c
00000170: 4c43 dd3d c69f fbbd 8cc0 113e b352 cabd
00000180: 3a1e c73d a289 56bd 5e79 aebd 4431 1b3e
00000190: 2ce6 d83d 6a7e a83b 8184 54bd b425 3bbd
000001a0: 2b23 11bc ccf4 223e 4bde ae3c 0817 8d3c
000001b0: 32a3 b0bc 8cbc 083c e7fc 7d3d 501e 083d
000001c0: 2258 c5bb 62c1 173d 7d99 b63d 16f2 e6bd
000001d0: 51f6 173e f1c1 92bd a4ee 563e 2671 03be
000001e0: 666b c83d 36eb d7bd 7f5f 4f3e 58d7 b03d
000001f0: 1b6a dfbc 162f 843d 071d 09be ea1f 6abc
00000200: 98f8 abbd 43ef 503d f769 5cbd b726 243d
00000210: 2076 8bbd 132f a8bc cc05 e2bd 8fed 0e3d
00000220: 312d 9a3c 1dbe c13c eebc 67bd f553 c63c
00000230: 533a 03be 1e76 533d 8d57 24bd c99d 15bc
00000240: bc82 f7bc 4e03 efbd 9d5e a2bc f114 23be
00000250: 3062 1ebd a986 8fbd 2a6b 123d 8539 8dbd
00000260: 79aa c9bd 09bf 573d 51f1 4e3c 5584 07bc
00000270: a90c b3be cf74 91be 3bef c5be a1f4 0fbe
00000280: 82ca d4bd 61b8 8e3c 0978 6ebd a208 30be
00000290: fd47 3fbe 6bfb 103d 8319 21bc 12bd 6fbd
000002a0: 43b9 bd3c 89ab f8bd 6041 0a3d 09ad 0c3d
000002b0: b7ae 843d e6ea 6b3d db6f 1d3d 2b8f 143d
000002c0: ebf6 37be 66ec b03b 3b63 42be e18d 4bbd
000002d0: be55 823c ce03 f6bd 5935 00be d7f2 dbbd
000002e0: 5a1e 29be d765 1ebe f0d8 09be 7084 20be
000002f0: 4754 b9bd 98b7 69bc b971 e7bc 053a 093d
00000300: 70ba e5bd 0430 cbbd cb30 62be d15f 1dbe
00000310: 542d a73c 521a 403d 5f44 eabd 8ce5 36bd
00000320: 69a3 dbbd 355e 703d 23ca 0bbe 1a88 e23c
00000330: 4e7e ec3d e98e 413e a3cf 673d 0d32 503e
00000340: 5a46 e13d 7d85 433e 006c 073d 6505 5c3d
00000350: 189b 05be 3497 41be 98a6 1dbc 898e febd
00000360: c22b e33c efe7 57bc d874 863c e9d7 723d
00000370: 8612 1cbe 2d87 e6bd 6853 993d 9cf8 a63d
00000380: 2f22 f8bb 49fb 7c3d bb6c 513b d3af 00be
00000390: 0df1 9cbc 834d ce3d a278 093e c51d adbd
000003a0: 89a4 243e 6192 303e 0f4e 3b3e e66e 0dbd
000003b0: 4362 36be 5018 1cbe f1a0 8ebb b395 a5bc
000003c0: e0b4 3d3d a820 f5bd 1e3c 13bd e744 17be
000003d0: 7126 2a3d 8dba 153e 6579 62bd 7d02 403d
000003e0: 4cfb 4d3a 8acb e6bd 691e a2bd c324 42bd
000003f0: 767d 12be face cabd 6455 03be 9543 2fbd
0.024710136 0.020027647 -0.19802663 -0.14840677 0.07445198 0.10391553 -0.15746003 0.017189147
0.119002834 -0.0350375 0.017203547 -0.11570077 0.010758551 0.094672024 0.07646862 0.10025181
0.012035088 0.13259903 -0.02824619 0.12947679 0.00038766442 -0.2161584 -0.10480368 -0.0586543
-0.02447025 -0.10424285 -0.0989858 -0.034624334 -0.029396199 0.058464658 -0.07340489 -0.09280484
0.06950203 0.052414015 0.055314314 0.06782928 -0.109454565 0.019200617 -0.052657213 0.069434404
-0.05038737 0.1403373 0.047485083 0.1793163 0.0773305 0.085682675 0.17051281 -0.0033930142
-0.09724281 -0.16084068 -0.06091709 -0.2087424 0.10454193 -0.044469994 -0.07327608 0.077438936
-0.036377214 -0.06324983 -0.07857546 0.10312335 -0.09854863 0.08052933 0.102130376 -0.0069410778
0.021023946 0.023815077 0.029163154 -0.04083383 0.1755986 -0.013165954 0.06972187 -0.073455505
0.22193125 0.02480939 0.12837523 -0.08829073 0.09156276 0.2284041 0.10153284 0.28223705
0.058213424 -0.11415188 0.028695744 0.06475829 0.084409826 -0.14367175 0.12154366 -0.030045154
-0.095996425 0.052101478 0.06630406 0.029080238 0.108038515 -0.12286334 0.14233607 -0.09879055
0.09722562 -0.05237735 -0.08519243 0.15155512 0.10590777 0.005142023 -0.051884178 -0.045690253
-0.008858482 0.15913695 0.021346232 0.017222896 -0.021562193 0.008345734 0.062008765 0.033232033
-0.006022469 0.03704966 0.08915994 -0.11276643 0.14840056 -0.07165898 0.20989472 -0.12836131
0.097861096 -0.1054291 0.20251273 0.086348236 -0.027272275 0.064542934 -0.1338998 -0.0142898355
-0.08397025 0.051009428 -0.053811993 0.040075984 -0.0680964 -0.02053026 -0.11036262 0.034894522
0.018820377 0.023650223 -0.05657666 0.024209956 -0.12815218 0.051626317 -0.040122557 -0.009131857
-0.030213706 -0.11670552 -0.019820506 -0.15925957 -0.038667858 -0.07008106 0.03574673 -0.068957366
-0.09846968 0.05267242 0.0126307765 -0.0082712965 -0.34970596 -0.2840943 -0.3865908 -0.14058162
-0.10390188 0.017421903 -0.058219943 -0.17190793 -0.18679805 0.03539602 -0.009832743 -0.05852992
0.023159629 -0.12142093 0.033753753 0.034344707 0.06478637 0.057597063 0.03843675 0.036269348
-0.17965285 0.0053992746 -0.18983166 -0.049695853 0.015910026 -0.120124444 -0.1252035 -0.107396774
-0.16515484 -0.15468536 -0.13461661 -0.15675521 -0.09049278 -0.014264964 -0.02825247 0.033502597
-0.11217201 -0.09921268 -0.22088926 -0.15368582 0.020407356 0.0469001 -0.11438822 -0.044652507
-0.107245274 0.058683593 -0.13651328 0.027652789 0.11547528 0.18902172 0.056594502 0.20331593
0.109997466 0.1909389 0.03306198 0.053716082 -0.13047445 -0.18905336 -0.009622239 -0.1242953
0.027730826 -0.013177856 0.016413137 0.05928794 -0.15241441 -0.112562515 0.074866116 0.08152887
-0.0075724344 0.06176308 0.0031955678 -0.12567072 -0.01915791 0.10073378 0.13424924 -0.08452944
0.1607839 0.17243339 0.18291496 -0.03452959 -0.17810921 -0.1524365 -0.004352682 -0.020212984
0.046315074 -0.11969119 -0.035946004 -0.14772378 0.041540567 0.14621945 -0.055291552 0.046877373
0.00078575755 -0.11269291 -0.079159565 -0.04739834 -0.14305672 -0.09902759 -0.12825543 -0.04278906

bias f4 [32]
00000000: 0aef 063e adc9 5d3d 97a8 86bd 1e7e 3cbd
00000010: 3ac2 d7bd 7548 48be 399f 4bbd 3df8 b1bd
00000020: bc60 603d 6b9e 853d 172a 823d d4e5 adbd
00000030: 27a8 02be b0f5 923d 2c2e 403d c966 c4bd
00000040: 5d60 25bd 9522 60bd db77 4abd 7659 a4bd
00000050: 44ba b7bc 4fb9 9c3c a6ab 85bc 7de9 12be
00000060: 6ee4 113d 0981 47be afb6 80be db5f fc3d
00000070: 8389 553d 1903 93bd de42 2fbe b51a 9abd
0.13177124 0.05414741 -0.06575125 -0.046018712 -0.10535093 -0.1955889 -0.049712393 -0.08689926
0.054779753 0.065243565 0.06355684 -0.08491102 -0.12759458 0.071757674 0.046919033 -0.09589917
-0.040375102 -0.05472048 -0.04943071 -0.08024876 -0.022427686 0.01913133 -0.0163172 -0.14346881
0.03561824 -0.19482817 -0.25139377 0.123229705 0.052133095 -0.07178325 -0.17115352 -0.07524625

weight f4 [32, 32, 2, 2]
00000000: 9858 d53d 3a06 243c 6b2d 183c 0953 953d
00000010: cacf dc3d cdc7 ec3c b62b 9d3d 0ee9 123e
00000020: dd67 bb3d b5bf 013e 279b 0c3e 7ca9 bc3d
00000030: 2e15 0fbd 2e9a d93d 3f91 dc3d fb43 893d
00000040: ea35 903d 6c34 6b3e c0b7 083d e847 c83d
00000050: 4183 313d a763 a93d fac2 41bd cf2d 913d
00000060: d576 6a3c 3f06 9bbd 0da4 c9bd 7caa 13bd
00000070: d1eb 20be 04bf 81bd a752 77bd a1a9 6bbd
00000080: 533c 963c 31ad 9dbd 6dd8 2b3d 9c26 f9bd
00000090: 3097 e43d 2aec de3d a5ec aa3d 543b 50bd
000000a0: c120 b53d 18ac e23d 0155 c83d ee5f 1b3d
000000b0: 5081 d73d 0b05 063c 5da7 6dbd bbc1 cf3c
000000c0: cb24 953d 5cbc b83b 7230 91bd 6277 a73d
000000d0: f3f7 08bc 6fcb 0ebe dd2d b7bd a422 1ebe
000000e0: 6ec0 b63d 399c adba b4a2 a3bc 0428 bc3d
000000f0: f809 0abd 44ed 943d 5bcb 00be 5011 b9bc
00000100: e947 95bd 3650 f83b e904 ecbd e4ef 1fbd
00000110: f5a3 1a3e 21f3 d93d 12d6 b93c 52e4 23bc
00000120: 22f4 213d 40dc e7bc d4f4 2abd 813b e9bd
00000130: 3f2e c23c 8f67 1d3d e076 ce3d 35e1 24bd
00000140: 3f79 2bbe 405a b3bd cbfa f1bd b9df 1abd
00000150: abb5 98bc 53a9 afbd f95d 63bd 3c23 123d
00000160: c603 bbbd 2733 7ebd 4145 9bbc 37d8 8a3d
00000170: df0f 9abb 41bc 203d 8088 df3d ddb2 ddbb
00000180: f9b6 c0bb 28ff 60bd 82ba 6fbd 9b9e d1bd
00000190: 2434 f9bd a26c 8fbd bd0d 053c 734f 73bd
000001a0: 3c53 b4bc 2c9d a7bc da01 55bd 8de5 b2bd
000001b0: 2df1 e1bc dc5d 1abc 4d08 c6bd 9c5b d9bd
000001c0: 9a22 b33d ee76 863d 325f 70bd 7094 433d
000001d0: 260d 18be 5dd3 bbbd ba56 a1bd 37f9 dc3c
000001e0: 0246 86bc 048b 25be 13b8 223e aae8 08bc
000001f0: 70a5 1cbe d0ff 56bd 32f2 bfbd 5253 10be
00000200: 7314 4b3c 589f 443d 313f 6b3c a4e6 83bc
00000210: 8821 163d fecb c13d 8b99 c5bd b4f6 703d
00000220: 5784 df3c 78f8 bc3d f686 08be dff9 99bd
00000230: 346f a0bd 0de0 12bd 1dbf 7dbc bcf6 45bd
00000240: 54f2 a23d 30b0 1b3e 8edd b7bd dc73 0b3d
00000250: 8459 5fbe e3f2 2dbe 8f41 b8bd 38d0 18be
00000260: 0bc0 19be 66bd 883d b2d6 66be 77e8 1abe
00000270: 8c13 06be 9c07 42be f3e9 8ebd 8850 0bbd
00000280: 7963 e53d e6fb 2a3d d9ac fc3d b34a 1a3e
00000290: 7f95 b9be 7ef4 1fbe f068 5fbe 8cb9 eabd
000002a0: 77c8 173c b417 ce3c 39d8 a0bb 01fd f8ba
000002b0: de94 d63d 12c6 1d3d 5883 203e a995 193e
000002c0: 96a2 de3d 1ea6 1d3b a1c6 71bd 911f 5f3d
000002d0: 9847 ca3d 7767 6dbd d0ba 77bd 1d7f 113d
000002e0: 888e 883d e83c 66bd 1940 a839 292c fcbc
000002f0: 877f 8b3d bb4f bdbd 5988 f9bb 63b5 0abe
00000300: 2b33 123a e684 18be 8587 cd3c 257c 9fbc
00000310: d95f 12bd 48fe 6cbd db80 0cbc 57be f13d
00000320: e8df 643d 3b2e 51bd 1fb5 03be 8685 2cbd
00000330: 5b11 c73d f67e 373e c8da a83d 7dd9 b93e
00000340: dc12 273c 567d 723d 0ed7 7cbd f8c9 03bd
00000350: 775b 88bd 7136 943d a3ae 09bc 5673 05bd
00000360: e44a 3e3c 27bb 553d 2fd4 7e3c 5575 413c
00000370: 9f7a 83bd 42ba 3abd 47fc 87bd 753b 8a3d
00000380: 2fcb d6bd fe8c 523d b623 753c fb50 243d
00000390: 62e8 5f3d fe65 54be 7898 243d ed90 44be
000003a0: 4dbe 98be 7d6d 88be dc35 4bbe 72b9 cbbd
000003b0: 2b02 94bd 4d85 93bd f4ca b5bd a686 4c3d
000003c0: ec15 df3d 9713 893e b127 333e e240 523e
000003d0: 661a 7bbd b236 7a3d b641 c5bd 06f7 fabc
000003e0: 092b 1bbe 5113 8bbe e10d 04be 3145 17be
000003f0: 29ab 76bd 7620 3bbd 8726 a5bc 9947 e6bb
0.104172885 0.01001125 0.009288172 0.07291228 0.1078182 0.028903866 0.07674353 0.14346716
0.0915067 0.12670787 0.13731061 0.09212014 -0.034932308 0.106251106 0.10769891 0.06702419
0.07041533 0.22969216 0.033378363 0.0977934 0.043338064 0.0827096 -0.047305085 0.070888154
0.014310558 -0.07569551 -0.09845743 -0.03605126 -0.15714957 -0.063352615 -0.060381558 -0.057534818
0.018339312 -0.07699049 0.041954447 -0.12165567 0.11161649 0.108848885 0.083459176 -0.05083783
0.08844138 0.110679805 0.09781838 0.037933283 0.10522711 0.008179913 -0.05802094 0.025360933
0.07282408 0.0056376886 -0.07089318 0.08177067 -0.008359897 -0.13944791 -0.089442946 -0.15442902
0.08923422 -0.001324541 -0.019975044 0.0918732 -0.033700913 0.07271817 -0.12577574 -0.022591263
-0.072891064 0.0075779213 -0.11524374 -0.039047137 0.15101607 0.10642076 0.022685084 -0.010003166
0.039539464 -0.028303266 -0.041737393 -0.113883026 0.023703692 0.03842884 0.10081267 -0.040253837
-0.1674547 -0.08757448 -0.11815413 -0.037811015 -0.018641314 -0.08577218 -0.05550954 0.035678133
-0.09131579 -0.0620605 -0.018953921 0.06779521 -0.004701599 0.039242033 0.10914707 -0.006765707
-0.005881187 -0.054930836 -0.058527477 -0.1023533 -0.12168148 -0.07003142 0.008120951 -0.05940194
-0.022012345 -0.020460688 -0.05200372 -0.087351896 -0.027580822 -0.009421792 -0.09669552 -0.10613176
0.08746834 0.06565653 -0.058684535 0.047748983 -0.14848766 -0.09171174 -0.0787787 0.026974304
-0.016390804 -0.16166312 0.15890531 -0.008356253 -0.15297484 -0.052490056 -0.09372367 -0.14094284
0.012395012 0.048003525 0.014358328 -0.016101189 0.03665307 0.094627365 -0.096484266 0.058829024
0.027284784 0.09227079 -0.13332734 -0.07518362 -0.0783371 -0.035858203 -0.0154874595 -0.048331007
0.07956377 0.15203929 -0.08977805 0.03404604 -0.21811491 -0.16987185 -0.08996879 -0.14923179
-0.15014665 0.0667675 -0.22542837 -0.15127741 -0.13093394 -0.18948215 -0.06978216 -0.034012347
0.112006135 0.041744135 0.123376556 0.15067558 -0.3624687 -0.1562061 -0.21817374 -0.114611715
0.009264103 0.025157787 -0.0049085882 -0.00189963 0.10477613 0.038518973 0.15675104 0.14998497
0.108708546 0.0024055312 -0.059027318 0.054473463 0.09876937 -0.05796 -0.060480893 0.035521615
0.06667811 -0.05621043 0.00032091214 -0.030782776 0.06811433 -0.09243723 -0.007615131 -0.13545756
0.00055770826 -0.14894447 0.025089035 -0.019468376 -0.03573594 -0.05785969 -0.008575643 0.118038826
0.055877596 -0.05106948 -0.12862061 -0.042119525 0.09720107 0.17919526 0.08244854 0.36298743
0.0101973675 0.05920156 -0.06172853 -0.032175034 -0.066580705 0.072369464 -0.008403453 -0.032580696
0.011614535 0.052180436 0.015553518 0.011807759 -0.064198725 -0.045587786 -0.06639915 0.06749622
-0.10487973 0.051403992 0.014962127 0.04011629 0.054664977 -0.20742032 0.040184468 -0.1919591
-0.29832688 -0.26646033 -0.19844764 -0.0994748 -0.07226976 -0.072031595 -0.08876601 0.0499331
0.10892853 0.26772758 0.1749561 0.20532563 -0.061304472 0.061087318 -0.09631674 -0.030635368
-0.15153135 -0.27163175 -0.1289592 -0.14772488 -0.060221825 -0.045685254 -0.020159973 -0.007027578

bias f4 [32]
00000000: 8f74 f43c f4d3 503c 07aa bbba ecb0 abbd
00000010: 4879 35bd 1894 83bd e473 823d 42ae e63b
00000020: fc5b 8f3c 48fe 24bd a6e7 153d 439c ddbb
00000030: 9773 1f3d c293 3ebd 5e66 a4bc cb7b 6dbd
00000040: dee3 8cbd b04b 80bc 191b 83bc fa23 773d
00000050: 472d 7a3c f364 f1bd 57a1 aebd b641 8dbc
00000060: b918 a63b bc55 803c 80e3 26bc d4ae 6dbd
00000070: a8ad b3bc 9b08 383d 64e5 34bc 9cdf 1fbd
0.029840736 0.012745846 -0.001431764 -0.083833545 -0.044305116 -0.06424731 0.06369761 0.007039816
0.017499916 -0.040281564 0.03659787 -0.0067630126 0.038928594 -0.04652763 -0.020068344 -0.057979386
-0.068794 -0.01566109 -0.016004132 0.060337044 0.015269584 -0.11786833 -0.08526867 -0.017243247
0.005068865 0.015665881 -0.010186076 -0.058028057 -0.021933392 0.04493008 -0.011041019 -0.03903161

weight f4 [64, 32, 2, 2]
00000000: a204 df3c a5e1 8c3e 8cf0 a8bc 4548 acbc
00000010: daef 153d 1ea7 f03d 9f96 fabd 726b 30be
00000020: 5bbf 433d b294 223e 604e 2fbd 458e babd
00000030: 4aa0 253c 725c 80bd 8dd0 d2bd 353b 00be
00000040: 81c5 123d ab60 313e 5d77 b9bd e168 2abd
00000050: 7561 4f3c 027c abbc 6257 36be 0ae1 3dbe
00000060: bbcf bfbb d05e adbc b231 abbb d7f2 febc
00000070: acc6 a83d 5497 7b3e 82d4 e9bd 390c cfbc
00000080: 1afb 81bd a5d8 18be 953f 363d 910c 2f3e
00000090: c516 f33c 348b 0e3e dab0 0dbe c8f4 38be
000000a0: a934 a63d 7180 6c3e fbd5 fd3c 1822 88bd
000000b0: 4cee 2e3d 1975 a33d d1c1 07be 587f d8bd
000000c0: d19d e6bd 57a7 4bbd d5ee 2bbd cf4f 2f3d
000000d0: 39af 003e c9c9 d93d b759 c0bd 48c3 efbd
000000e0: bccf 23be 6801 3a3d 2c88 12be cb2e 79bd
000000f0: cab8 a33d 4132 903d 4357 12bd 7b86 75bd
00000100: 08cc d93d b65e 2c3d f1d5 b3bd 5070 b53c
00000110: f2d7 0dbd 060f 9d3c 08c0 10bd e3f2 243d
00000120: 1f8e a8bd 911a c63d 3ae5 37be ac7c d3bb
00000130: c8e3 f63d ffe1 433e b94b e8bd 05d4 ce3a
00000140: 67c6 4abd f831 293e 7aee cebd 8b92 d6bd
00000150: 2968 c53d 80a4 bb3d 2804 bcbd 0f93 f9bd
00000160: aba7 a43d 4820 bd3d 539c 06be 6e53 ba3c
00000170: a7e2 863d 71a1 083e e25d b2bd 7ebe 6bbe
00000180: 7a3a 743d 6071 0d3e a19c 4fbc ab68 b3bc
00000190: cfdf b03d 23b9 103e 1e25 4bba 3e4b 87bd
000001a0: eb98 713d 3278 ea3c 5ff8 d53d 8904 ed3c
000001b0: 90c6 b03d bf3c f03c c9aa 1f3d 3898 883b
000001c0: cde0 ec3c f908 013e f09e 07be 3492 93bd
000001d0: 2d62 e8bd 600c 9d3d e2f7 10be 3ce9 05be
000001e0: cc92 5f3c b12f ce3c fda1 53bd ace3 8bbd
000001f0: 94c7 2a3c a513 1b3d 476b 1bbe ce2f 4dbd
00000200: 91dc 803d f7ca 2ebd 4ea2 6a3c ee2c 82bd
00000210: f62d 13bc 2ea7 cb3d e2e4 973c 2b86 113e
00000220: 7f44 aabd e246 ba3c 93f6 9dbd c43c 333e
00000230: 5d98 e8bc 0f4f a13d 32f5 a0bd 5e06 d0bd
00000240: 9bf2 0a3e e466 6fbd 41c7 90bd f4ae 43be
00000250: d158 b83c eeb1 123d e957 febc 2e54 4fbd
00000260: 8f94 c23d 6d19 e3bc 6367 2b3d 8bb7 9bbd
00000270: 66d9 2f3d bc25 903b ff6b 3fbd b950 f0bd
00000280: 15f7 4ebb 0004 0c3d dcc7 0cbc 1768 89bd
00000290: 8a73 583e 0d3b 4d3e 1030 2d3d 55ad a93c
000002a0: 297c 98bd b10a debc da9c b03d 97e7 a33d
000002b0: 7e88 02be a580 fe3d 4687 97bc d7f3 b33d
000002c0: 6563 9e3d 1926 483d 671b 893d 6560 c0bd
000002d0: d150 16be 1311 db3b c90b 88bd 4e10 393e
000002e0: f3a8 cd3d 959b 0abd b1bd a73d caf7 e0bd
000002f0: f6cf f33d 1651 3b3d 06a2 dbb7 07ca f43d
00000300: cb01 2c3d c88c 083c d37f b13d 6eb9 873d
00000310: 6814 d33d 10cf 82bc 2f1a 7c3d a57f 84bd
00000320: feac 043d ebce 813d 871b 21bd 1dd0 8c3c
00000330: e26f 83bd 4c06 90bd 505b 1abc b033 4ebd
00000340: 63ad 39bc 4d6b 0a3e e709 743d de3d 063e
00000350: 1441 76bd 3ddf a7bc 58f3 bb3d da6d fd3d
00000360: 5849 b4bc e44f 22bd 6d7e 283c c99f b2bb
00000370: 9680 843b 961b 943c d958 493d 484e b13d
00000380: 5edc 9b3d 6e96 603e 50bb e43c 080c 903e
00000390: 4ca3 8f3d 5af4 42bd 0047 503d a46d c2bd
000003a0: c83e 893e bccb 1a3e 33f8 843e b7f3 edbd
000003b0: b995 903d db7a 03bd c4b1 fa3b d746 433d
000003c0: 5abc 3d3c 27c4 263d 05a6 0b3e 2395 ed3d
000003d0: 7964 343c 0f1d 9ebd 93f5 5dbd eecb 20be
000003e0: 682d 213d 27ae 4d3e 9143 9f3b 22f6 07bd
000003f0: c68d 36bd a185 7fbd 4811 2d3c b946 6ebd
0.027223889 0.27515903 -0.020622514 -0.021030555 0.036605693 0.11750625 -0.1223576 -0.17228487
0.047789913 0.15877035 -0.042799354 -0.09109167 0.010109017 -0.062676325 -0.10293684 -0.12522586
0.035832886 0.17322032 -0.0905597 -0.041603927 0.012657513 -0.020933155 -0.17806771 -0.18542877
-0.005853621 -0.021163374 -0.00522443 -0.031121654 0.08241019 0.24569446 -0.11417486 -0.025274383
-0.06346722 -0.14926393 0.04449423 0.17094637 0.029673943 0.1392029 -0.13836995 -0.18062127
0.08115513 0.23095872 0.030985823 -0.06647128 0.042707726 0.07981319 -0.13257529 -0.10571164
-0.1126057 -0.049720135 -0.041975815 0.04280072 0.12566842 0.106341906 -0.09392112 -0.11707169
-0.15997213 0.045411497 -0.14309758 -0.06083564 0.0799423 0.07040835 -0.03572775 -0.059942704
0.10634619 0.04208251 -0.087810405 0.022148281 -0.03462977 0.019172203 -0.035339385 0.040270697
-0.082302324 0.09673036 -0.17958537 -0.006454071 0.120551646 0.1912918 -0.11342568 0.001577974
-0.049505617 0.16522968 -0.101040795 -0.104771696 0.096390076 0.09162235 -0.0918048 -0.12186252
0.080397926 0.09234673 -0.1314557 0.02274486 0.06586199 0.13342835 -0.08709313 -0.23021886
0.05962608 0.1381278 -0.012671621 -0.021900496 0.08636438 0.14133124 -0.00077493663 -0.06606148
0.058983725 0.028621767 0.10447764 0.028932827 0.08631623 0.029325841 0.038981233 0.0041685365
0.028915787 0.12601079 -0.13244224 -0.072056204 -0.113468505 0.07668376 -0.1415706 -0.13077253
0.013645839 0.025169225 -0.051668156 -0.06830534 0.01042356 0.03786053 -0.15177642 -0.05009442
0.0629207 -0.04267403 0.014320923 -0.06356226 -0.008983126 0.09943996 0.018541757 0.14211337
-0.08313846 0.022738878 -0.07713046 0.17503649 -0.028392965 0.07876407 -0.07859267 -0.101574644
0.13569109 -0.058447734 -0.07069255 -0.19109708 0.022503288 0.03581422 -0.031047778 -0.05061739
0.095009916 -0.027722085 0.041846644 -0.076033674 0.042931937 0.0043990295 -0.046733852 -0.117341466
-0.0031580378 0.034183502 -0.008592572 -0.06709307 0.21137825 0.20042057 0.042282164 0.020712534
-0.07445557 -0.027104707 0.08623667 0.08003157 -0.1274738 0.12426881 -0.01849712 0.08786743
0.07733802 0.048864458 0.0669468 -0.09393386 -0.14679267 0.006685385 -0.06642873 0.18072626
0.1004199 -0.03383978 0.08190478 -0.10984762 0.119049 0.045731626 -2.6182282e-05 0.11952596
0.041993897 0.008334346 0.08666959 0.06627165 0.103066266 -0.015967876 0.061548408 -0.06469659
0.03239154 0.063382946 -0.039332893 0.01718908 -0.06417824 -0.07032451 -0.009421185 -0.05034226
-0.0113328425 0.13517494 0.059579756 0.13109538 -0.060120657 -0.02049219 0.091772735 0.12374468
-0.02200763 -0.03962697 0.0102840485 -0.005451177 0.004043649 0.01807956 0.049156997 0.08657509
0.07610391 0.21932384 0.027921349 0.2813418 0.07013568 -0.047596313 0.05084896 -0.094935685
0.2680571 0.15116781 0.2597061 -0.116187505 0.07059807 -0.032099586 0.007650586 0.04767498
0.011580551 0.04071441 0.1363755 0.11600711 0.011010283 -0.07720386 -0.054189276 -0.15702793
0.039349943 0.20085965 0.0048603495 -0.033193715 -0.0445688 -0.062383298 0.010563202 -0.058172915

bias f4 [64]
00000000: 182c b13c 75fe ef3c 18a0 a2bd f10f 11bd
00000010: d7ba 23bd c694 20be 93b1 673d 3896 653d
00000020: 2f0b c9bd c1ab 07bc 1934 6fbd 9f70 9bbd
00000030: 9aac ca3b 12c3 a8be dea1 19be 3fec d9bc
00000040: 5d72 54be 0eab 30bb 25ad b03a a099 91bd
00000050: 70d4 83bd dbb6 e2b7 5486 02bc 179f 083d
00000060: 6721 e3bd ab78 1abe 786d 06be c481 bebc
00000070: 2e2c c8bd 969f a5bd fd18 c8bd 883f d2ba
00000080: 26ef 81be 276f cebd 14f8 d83c 9f7f 3bbc
00000090: 436e 6b3d d9bc ad3c e76e 67be ea25 0e3c
000000a0: e2a7 88be 7d23 6c3d 325f 53be 2a16 3fbd
000000b0: 28b9 ddbb bbea 90bd 2103 933b be76 57bd
000000c0: d621 6cbe 617e cfbd b3ce 7c3c 5b2f d63c
000000d0: b57a 5dbe f365 afbd 7b58 17bd 0286 91bd
000000e0: e2d2 26be bf43 99bc 1561 7b3c 67d1 a03a
000000f0: 22c7 9dbc b156 eebb 9eb7 cbbc 472b 3a3a
0.02162747 0.02929614 -0.07940692 -0.035415594 -0.039973106 -0.15681753 0.056565832 0.056051463
-0.09816586 -0.008280695 -0.058399294 -0.0758984 0.0061851265 -0.32961327 -0.15003154 -0.026601909
-0.20746751 -0.0026957425 0.0013479335 -0.0710938 -0.064370036 -2.7026448e-05 -0.007966597 0.033354845
-0.11090355 -0.15085094 -0.13127697 -0.023255236 -0.097740516 -0.08087079 -0.09770391 -0.0016040662
-0.25377768 -0.100797944 0.02648548 -0.011444001 0.0574782 0.021208214 -0.226009 0.008676032
-0.26690584 0.05765103 -0.20641783 -0.046651997 -0.006766457 -0.07076021 0.004486457 -0.052603476
-0.23059782 -0.10131527 0.01543014 0.026145628 -0.2162884 -0.08564367 -0.036949616 -0.07105638
-0.16291383 -0.018709062 0.01534297 0.0012269438 -0.019259993 -0.007273518 -0.024867829 0.0007101786

weight f4 [64, 64, 2, 2]
00000000: cd10 b83d e4b5 0a3e 4202 7e3e 49a4 543e
00000010: caf4 7bbd 3049 f8bc e7a3 e6bc 8746 0fbe
00000020: de83 a53d 1ac2 813d 33e5 273e 583c 523d
00000030: 0227 533e 1839 593e f0c4 6d3e 7b33 883e
00000040: 9b08 83bd 788f 78bd 4b23 c4bd 16b9 21be
00000050: 77bc 843c 2574 3a3c 722f 0ebd 054b 5f3d
00000060: 8d13 c2bd 1a42 1bbd 2f0a 34bc 7b81 ba3c
00000070: 0bc9 73bc f97b bb3d 253d b6bd 279b 7dba
00000080: f8ad 46bd 7edf dbbd 1198 a5bd 9f3a bbbd
00000090: 2fbc 2e3e e2f8 3b3e f780 463e e32e 5a3e
000000a0: fc23 a7bd c86f c33d bd26 38bc 03b7 493e
000000b0: 49a8 4abd 5f63 25bd 2095 c43c 75d0 b5bb
000000c0: 5e0c a2bd 3d5f 9cbd 2f02 8bbd d9f4 2739
000000d0: 4470 7a3e 474b 033e aecf 503e 92d4 2f3e
000000e0: dd05 c73d 9370 ba3d d436 093e 9bc3 583e
000000f0: f333 b9bc 18db 84bd 3e68 9cbd f939 babd
00000100: d88d ab3d 900e 263e 5231 a73d e04a a53d
00000110: c403 523e 56dc ad3c d042 ae3d 32e0 55bd
00000120: 3103 57bd a3d3 39be d7b5 8cbd aabc b5bd
00000130: 211b 2bbd 85a5 d6bc 0775 0dbe 2ddc 63bd
00000140: bb7c 143d 319b 0e3d c201 dd3d a856 1b3e
00000150: 863e 173c 2abf 903d 7ee1 063e 875f 233e
00000160: 426d 0b3d 6b59 283d 4e30 abbd 4afc a9bd
00000170: cbbe 86bd b999 f5bc 9801 d23c a95e 0b3c
00000180: 1d3d fb3d e2e3 19bc df79 563d b3e0 74bc
00000190: 1b13 83bb b313 503c 3c98 5abd a516 da3c
000001a0: e58f d4bc 59c1 06bc c65b 103d edc1 913c
000001b0: a7ca 8abc 99f5 9c3d b651 c43b da66 d03d
000001c0: 0a77 96bd 5920 65bd f8db 423d 91b2 ad3a
000001d0: 1bec 373e 56bb 473d 91c7 123e e8c7 1a3d
000001e0: 21c1 b73d 4112 7a3e 858f b83d 5ca2 853e
000001f0: 4fb5 3fbd 0bd2 ab3d 54a8 efbd f98b debd
00000200: 3158 043e 6d18 803c a1d9 d63d 2fc0 e23d
00000210: a25d 5abc 508d cd38 43c6 133d 6f71 df3d
00000220: ec38 ca3d 78c8 00bd cbff 243e 95c3 b83c
00000230: 79af 15bd 543b 20bd e934 dcbc ecab 033d
00000240: cab5 e8ba 9f10 2c3d 44e2 88bd 1fa9 573d
00000250: 7959 423d dd9d d83d 2d4d 6c3d 5e99 273c
00000260: bf98 b3bc fdf3 103a 7366 a23d b1cd b53d
00000270: 59a4 a03d c2ba c43d b133 0b3e 9c12 0e3e
00000280: 0e08 80bd 02a7 93bd cd06 9fbd 8dff cbbd
00000290: a450 58bd 1ae1 fdba cd54 863d 2564 bf3d
000002a0: 0444 733d cb47 d13d 1576 ef3d 3495 253e
000002b0: b146 f63b 88ec 793d be5b 083e a3ed 903c
000002c0: 2a79 d6bd 2d1c 15be 2bca 72bd 9da3 45bd
000002d0: baa1 8b3c 5f08 b63c 6232 873b 9f25 0b3c
000002e0: a93e 19bd a5dc 80bd f7f1 2d3d ae73 13be
000002f0: 1298 e4bc 65a1 d43c 92cf dbbd 12f1 4abd
00000300: 1742 283e b0d0 09bd 7441 ab3d 765b debc
00000310: e106 ba3d df81 233d 1de5 df3c ed43 b5bd
00000320: fb4d 8f3d 3e1d 53bd a5ff 903d 0f53 5d3d
00000330: 0c18 8b3d 323a c43c 441a c93c 09de b43c
00000340: fd6b 2a3e 3130 5f3e b518 113e b3d9 103e
00000350: 02bd 9c3d 4eb7 b63c e64f 183e 3f8b 793d
00000360: 64cc a1bd ae44 27bd d357 cabd 5b4a febd
00000370: 9ee2 a6bc 31b2 c83d 66d5 7f3d 3a16 3a3e
00000380: e995 cd3c fca4 a8bd 159d ca3c d884 b5bc
00000390: d832 923d abe4 003d 3f6c a93d b5ff b13d
000003a0: 544f 73bc 1fbd dabc 7551 113d 16fc c3bb
000003b0: 4d44 d03d 1d53 cc3d 4d97 49bc 7ca0 bbbd
000003c0: 686f ed3d 7160 0f3e 5bea 0c3e 61ab bb3d
000003d0: 1da6 23bd 7501 33bd 3d8f 5dbc 15c9 15bd
000003e0: 5c96 74bd 291a 02be e77b b5bd 33b0 5fbe
000003f0: 4cc9 80bc e805 8a3d 5cc4 863d 80dc df3c
0.089875795 0.13545948 0.24805549 0.20765795 -0.061512746 -0.030308336 -0.028154327 -0.13991748
0.08081792 0.0633585 0.16396026 0.05132708 0.20620349 0.21213186 0.23219657 0.26601776
-0.06398126 -0.060683697 -0.09577044 -0.15793261 0.016203148 0.01138023 -0.034713216 0.054514904
-0.09476385 -0.037904836 -0.010988756 0.02276682 -0.014879475 0.09154505 -0.08898381 -0.00096743036
-0.048505753 -0.10735987 -0.08085645 -0.091420405 0.17063974 0.1835666 0.19385134 0.21306948
-0.0816116 0.09542805 -0.011239705 0.1969872 -0.049476895 -0.04037797 0.02399689 -0.0055485317
-0.07912515 -0.07635353 -0.06787526 0.00016017574 0.24456888 0.12821685 0.20391724 0.17170933
0.09717915 0.09103503 0.13399822 0.21168368 -0.02260778 -0.06487101 -0.0763707 -0.09093089
0.08376664 0.16216493 0.08163704 0.08070922 0.20509249 0.021223228 0.08508837 -0.052215762
-0.052493278 -0.18147139 -0.06870621 -0.088738754 -0.04177392 -0.026201973 -0.13814174 -0.055629898
0.036251765 0.03481597 0.10791351 0.15169775 0.009231215 0.07067712 0.13171956 0.1595441
0.034039743 0.0411009 -0.08358823 -0.083000734 -0.065793596 -0.029980527 0.025635526 0.008506455
0.12267516 -0.00939271 0.05236232 -0.014946151 -0.0040000803 0.012700009 -0.05336784 0.026622126
-0.02594752 -0.008224809 0.035243772 0.017792666 -0.016942335 0.076640315 0.005991186 0.101758674
-0.07346924 -0.055939052 0.04757306 0.001325207 0.17961161 0.04876264 0.14333941 0.0377883
0.08972383 0.24421026 0.09011749 0.26100433 -0.04680377 0.08389672 -0.11702028 -0.108665414
0.12924267 0.015636647 0.10490728 0.11071812 -0.013327988 9.801483e-05 0.03607775 0.109103076
0.09874138 -0.031441182 0.16113202 0.022554198 -0.036544297 -0.03911908 -0.026880698 0.03214638
-0.0017754373 0.04200804 -0.06683782 0.05265152 0.04744861 0.10576985 0.057690788 0.010229437
-0.021923421 0.0005529521 0.07929697 0.08877123 0.07843847 0.09605934 0.13593937 0.13874286
-0.06251536 -0.072095886 -0.07764969 -0.09960852 -0.05281128 -0.0019369454 0.06559143 0.09345273
0.059391037 0.102187715 0.11692444 0.16170198 0.0075157513 0.06101659 0.13316247 0.017691439
-0.10472329 -0.1456153 -0.059274834 -0.048251737 0.01704489 0.022220789 0.004125879 0.008492856
-0.037413273 -0.062920846 0.042467084 -0.14399597 -0.027904544 0.025955865 -0.1073295 -0.04954631
0.16431461 -0.033646286 0.083620936 -0.027143221 0.09083343 0.039918777 0.02733093 -0.088508464
0.069972955 -0.05154156 0.0708001 0.05403429 0.06791696 0.023953531 0.024548657 0.02207853
0.16642757 0.21795727 0.14169581 0.14145546 0.07653238 0.022304203 0.14874229 0.06092381
-0.079003125 -0.040836982 -0.098800324 -0.12416526 -0.020371731 0.09799612 0.062459372 0.18172541
0.025095897 -0.08234593 0.024733106 -0.022158071 0.07138604 0.031468075 0.082725994 0.0869135
-0.014850456 -0.026701508 0.035478074 -0.0059809787 0.10169277 0.0997679 -0.012304139 -0.09161469
0.11593515 0.14001633 0.13761275 0.09163547 -0.03995334 -0.04370256 -0.01352292 -0.03656872
-0.059713706 -0.12705292 -0.08861523 -0.21844558 -0.015720986 0.06739408 0.06580421 0.027326822

bias f4 [64]
00000000: fc92 e3bb 3def 8abc 5c0e 1dbc 7214 6aba
00000010: 9c2d 2abd 468b 8b3c ead9 a23c 3657 de3a
00000020: a246 553d 0c18 823c e0f4 6ebd 0d0d c03c
00000030: c8fb 553c f5d0 393d 4b70 70bb b424 a0bd
00000040: 60b1 0fbd 1d64 313d 138f 86bd b838 88bd
00000050: 3b91 20bd 9a85 fb3c f4ce 9b3c ca0b 0dbd
00000060: ae9d 93bd 0243 123d 9e84 b0bd 957e 873d
00000070: b926 033d 14cb 8c3c 988f cabc fa5f 10bc
00000080: 4443 c9bc b928 babd 1327 ab3d 6622 bbbc
00000090: 7cd3 d3bc 52fd d038 31c9 273d 6880 0a3d
000000a0: b0e2 7a3c 6f64 54bb 1a81 963c fe94 023c
000000b0: 8211 b1bc abc5 d7bc 51f0 9ebc cb3e 19bd
000000c0: d8d9 a5bc 02d4 ec3c 0c39 003c 1cf5 1bbc
000000d0: b03a 36bd 5fe8 6dbc be6c 4a3d c263 733d
000000e0: 1a58 8d3a e595 de3b 8b68 5a3d 902c 53bb
000000f0: e19d 6dbc 8cf6 83bc 52c9 23bd 2859 e3bc
-0.006945012 -0.01695978 -0.009585943 -0.0008929438 -0.041547403 0.017034184 0.0198793 0.0016963247
0.052069314 0.015880607 -0.058339 0.023443723 0.013060518 0.045365293 -0.0036688026 -0.078195006
-0.035081267 0.043308366 -0.06570258 -0.06651443 -0.039201003 0.030703355 0.019019581 -0.03443507
-0.072078094 0.035708435 -0.08619045 0.066159405 0.03201935 0.017186679 -0.024726674 -0.008811945
-0.024568208 -0.090897985 0.08357062 -0.02284355 -0.02585768 9.9653975e-05 0.040963355 0.033813864
0.015312836 -0.0032408496 0.018372107 0.007970093 -0.021614794 -0.026339373 -0.019401701 -0.0374134
-0.020245478 0.028909687 0.007826101 -0.009518888 -0.044489563 -0.014520734 0.04942011 0.05942131
0.0010783703 0.006792771 0.053322356 -0.0032222606 -0.014502973 -0.016108774 -0.039986916 -0.027752474

weight f4 [64, 32, 2, 2]
00000000: 6f48 adbd c124 f83d d697 eebd 5384 853d
00000010: 9cd4 9ebd 7bff 8fbd d2b3 abbb aa5c 67bd
00000020: 724e 6dbd d0fd 3b3b 6320 033d 77a5 223d
00000030: 6ec0 123c 4281 9e3c 212f 08be aac8 163b
00000040: 6ed8 e2bc f8db 47bc e5f7 bebc 797d a03d
00000050: 9e13 b23c 9c4d eb3d b9c1 ed3d b920 a33d
00000060: c2bd 453c 1215 7cbd b9da 273c ea5e 093d
00000070: 9fdd cf3b 7e0d bebd 650c b83d 01d9 433d
00000080: 8a1e 75be 06a8 6abe 9dcc 8fbd 7588 44be
00000090: 1f93 37bd c5f6 a83d 956a 013e b951 b23d
000000a0: 827a 433d 4ce7 f03d d12a 073d 2c52 eb3d
000000b0: 0735 31bd 9289 ec3b b6b1 413c d258 5dbd
000000c0: bb6b 2b3e 35d0 733e 3d1e 9a3d 6c4d 053e
000000d0: 9693 743d 4e50 acbd 5d12 1dbd 4670 8cbd
000000e0: f9b2 b83d 0330 b83d b66d 0c3c 2fc8 14bd
000000f0: 8260 833b 8312 9e3b 0fae a63d 9439 df3d
00000100: 4301 283d 0fc5 093d 95fa 5fbd bc6e 1d3d
00000110: 2333 f8bd ce93 72be 6bc1 69bc d31d 3abe
00000120: b265 c63d 9b52 a03d c997 d2bc 5e83 153e
00000130: 382b 45bc c989 c0bd 2d5b 9bbc cf21 00bd
00000140: 628c 723e 23b7 203e e20b cc3d b71e f33d
00000150: dcc1 93be 8f8f 5dbe 25fd 7bbe d36e 5abe
00000160: cbda b23d bb3c 123d f09e b03d ee93 323d
00000170: 2014 68bd 2799 a33c da08 333d b0d8 193c
00000180: b5ac 183d 75cc b33d d744 74ba 835c 233e
00000190: e7ba 6fbd cbd6 90bd ec73 45bd db27 20bd
000001a0: 416b e6bd 67b6 1bbe 3575 b1bd 2202 c3bb
000001b0: 3145 013e 14ea d23d 9362 d43d 70cc 833a
000001c0: 64ef b03d 38b5 443c 4b92 c2bd 8dce c2bd
000001d0: f054 233d 6d7d ee3d 85da ab3d df81 793d
000001e0: b9f4 33be e999 5abe 7af9 cabc aa5f dabd
000001f0: 9da6 293d 0ac2 abbc 014b aebd 5fca b03d
00000200: d475 a53d 82a4 4abd d701 e13d 4469 db3c
00000210: 4a75 f33d df24 e93c 24cc db3d a05e 3f3b
00000220: cbc4 113c 49d0 be3d cea0 613d 6572 223c
00000230: a67c c4bc ef12 823d 199d 23bc 0994 5c3b
00000240: 5de6 2e3d 5f81 94bb 620d e1bc 6adf ddbb
00000250: 1951 0dba 5dc3 7abd ce49 c9bd 964d 3bbd
00000260: eec2 623c c9d3 bc3c 77ac 6ebd ebc4 35bc
00000270: a681 853c a906 f73c 4b3f bebd ba26 a0bd
00000280: 1308 893d 372e 1b3d 7490 843c 7bbc 59bc
00000290: a1d8 4cbc 404d c1bd ca73 c43c e376 cbbd
000002a0: a066 40bc 5201 a93d 79e1 a83d 7ca8 41bd
000002b0: b125 843d e6e7 b9bd e3db 043c 3c43 fcbc
000002c0: 3403 8abd b207 23bd 569f 263d 3550 763a
000002d0: 86b0 323d 640e 3dbd 2384 ec3b 3c43 d3bd
000002e0: 5c14 b13b 4214 153d 64e9 6d3d 189b 84bd
000002f0: e275 063c 27ec be3d eef6 b4bc 7246 533d
00000300: bf06 7b3d 3612 debd 3d38 9b3d d660 a1bd
00000310: 0b8a 7cbd 0387 1d3d 8db0 69bd 45b1 8ebd
00000320: 59c1 463d 02ee 3b3d 4a6f 483c 4e8a bebd
00000330: 3216 443b dc11 e93c d089 a23c 85fe 7dbd
00000340: f8ea e2bd ad3e 953c d329 a9bd 7b3e 833c
00000350: bc8f 883d a3d3 853d 9c08 ce3c e921 c4bd
00000360: ea3a 82bd be51 f6bc 558e 29bc bc61 b5bd
00000370: a203 2a3d 9211 aebb a25b abbd a0b7 23bd
00000380: c341 24bd 93f7 b73d 0040 953d 2b39 a03d
00000390: 1085 073c 7bb8 b63d 6a06 043d 043d a53d
000003a0: b533 833c c72b af3d b176 d13c 55c4 b43d
000003b0: 36ff 76bd c3b7 4cbd f994 c6bd 6ad3 d0bd
000003c0: 199f 893d 5593 493d d671 a43d 25eb a1bc
000003d0: f9da 1a3c 876e 7bbd 401c 123d 64b5 343a
000003e0: 5d3a 2cbc c7e6 c1bc eef7 7fbd 5a77 443d
000003f0: 3456 23bd d21a 70bc c46d e93d 5b42 cf3c
-0.08461081 0.12116385 -0.11650054 0.065193795 -0.07755396 -0.07031151 -0.005239942 -0.056484856
-0.05793614 0.002868522 0.03201331 0.03970858 0.008957012 0.019348744 -0.13299228 0.0023007789
-0.027691092 -0.012198441 -0.023311565 0.07836432 0.02173787 0.11489412 0.11609215 0.07965226
0.012069168 -0.06154353 0.010245019 0.033537783 0.006343558 -0.09279917 0.08986739 0.047814373
-0.23937431 -0.22915658 -0.07021449 -0.19192679 -0.04481804 0.082501926 0.12638314 0.087069936
0.047724254 0.117628664 0.032999817 0.114902824 -0.04326346 0.007218548 0.011822155 -0.054039784
0.16740315 0.23809893 0.07525299 0.13017815 0.05971106 -0.084137544 -0.03834759 -0.06857352
0.09018511 0.089935325 0.008571079 -0.036323722 0.0040093074 0.004823984 0.08138668 0.10899654
0.04101683 0.033635195 -0.054682333 0.038435683 -0.121191286 -0.23689196 -0.014267306 -0.1817544
0.096873656 0.07828256 -0.025707142 0.14600894 -0.01203423 -0.094012804 -0.018964374 -0.031282242
0.23686364 0.15694861 0.09963204 0.11871093 -0.2885884 -0.21636795 -0.24608286 -0.21331339
0.08733138 0.03570245 0.08624065 0.043598108 -0.056659818 0.01997049 0.043709613 0.009390041
0.03727408 0.087792315 -0.0009318119 0.15953259 -0.058527853 -0.070722185 -0.048206255 -0.03910051
-0.11250926 -0.152063 -0.086649336 -0.005951182 0.1262405 0.10298553 0.10370364 0.0010055434
0.0863941 0.012006097 -0.095005594 -0.09512053 0.039875925 0.11645017 0.08391289 0.06091487
-0.17573823 -0.21347775 -0.024777163 -0.10662778 0.04141866 -0.020966548 -0.085103996 0.08632349
0.080791146 -0.049473293 0.10986679 0.026783593 0.118876055 0.028459964 0.10732296 0.0029200688
0.008897017 0.09317071 0.055084996 0.009914969 -0.023985218 0.063512675 -0.0099861855 0.0033657572
0.04270016 -0.004532024 -0.027472202 -0.006771018 -0.00053908076 -0.06122147 -0.0982853 -0.04572829
0.01384042 0.023050206 -0.058269944 -0.011094312 0.016297173 0.030154543 -0.09289416 -0.078198865
0.06690993 0.03788587 0.016182162 -0.013289566 -0.01250282 -0.094385624 0.023980994 -0.09934785
-0.011743218 0.08252205 0.082461305 -0.04727982 0.064525016 -0.09077434 0.008109066 -0.030793779
-0.06738892 -0.03980226 0.0406793 0.0009396107 0.043625377 -0.046156302 0.0072179004 -0.10315558
0.0054040384 0.036396272 0.058083907 -0.06474894 0.008206816 0.09322386 -0.022090402 0.051580854
0.06128573 -0.10843317 0.07579086 -0.07879798 -0.061655086 0.038458835 -0.057053138 -0.06967405
0.048524234 0.04588128 0.012233565 -0.09303723 0.0029920456 0.028450899 0.019841105 -0.062010307
-0.11079973 0.018218363 -0.082599305 0.016021004 0.0666804 0.06534507 0.02515059 -0.0957678
-0.06358893 -0.030068275 -0.010348876 -0.08856532 0.04150737 -0.005312153 -0.08367087 -0.03997004
-0.040101778 0.08982768 0.07287598 0.07823404 0.008271471 0.089219056 0.03223268 0.080682784
0.016015867 0.08553272 0.025569292 0.0882651 -0.060301982 -0.049979936 -0.09696383 -0.10196574
0.067197986 0.049212772 0.08029525 -0.019765446 0.009451621 -0.061384704 0.035671473 0.00068934844
-0.010511962 -0.023669614 -0.062492304 0.047965385 -0.03987713 -0.014654832 0.11397889 0.025300195

bias f4 [32]
00000000: 8ad1 4f3d 04e2 063d acaa f8bd 04f9 cf3d
00000010: 158d f43d 6b71 aebd f3ed 82bd 757b 553d
00000020: d625 c73d 30b6 febd d4a4 c93d 35f7 19bc
00000030: 115e e4bd 3fb5 61bc 7ac3 77bd ca8d ab3d
00000040: 48d4 67bd 6f88 c0bc 6cf8 c0bd fd20 e8bd
00000050: 9ad7 c4bc 00b5 923d c933 9ebc f74c 94bd
00000060: 4260 26bd 1497 e8bd 0fa8 d83d 992c 2e3d
00000070: 146e 0a3d 7560 4abd eb38 a63d e868 28bc
0.05073694 0.03293039 -0.12141928 0.10154918 0.11940972 -0.085177265 -0.063930415 0.05211969
0.097240135 -0.12437093 0.098458916 -0.009397318 -0.11150754 -0.013776123 -0.060489155 0.083766535
-0.05659893 -0.023502557 -0.09422383 -0.11334417 -0.024028588 0.07163429 -0.019311802 -0.072412424
-0.040619142 -0.11356941 0.1057893 0.042523 0.033796385 -0.049408395 0.08116325 -0.010278918
