output/train_12_12_23_part-4/unet_tgs_salt.pth (torch, 248279 bytes, 26 tensors)

weight f4 [16, 3, 2, 2]
-0.08187089 0.23249859 0.2737647 -0.26172274 0.03396142 -0.048121195 0.08412389 0.07138696
0.13306668 -0.1053686 -0.0108261965 -0.24171753 0.26080146 0.09597643 -0.2338844 -0.036918618
-0.21906286 0.17815174 -0.034813605 -0.13298897 0.03773933 -0.25806674 -0.031728897 0.25592953
0.10807038 0.21662599 0.16662857 0.1111189 0.22848554 0.28136644 0.062349968 0.12374213
0.10463496 0.06930094 0.20865192 0.05758594 -0.050180014 -0.06875305 -0.13965759 0.2598839
0.16739127 0.24014735 0.22732134 0.15290752 -0.032389317 0.078264385 -0.22796503 0.2658319
0.08793074 0.28764763 -0.0047081583 0.08221088 -0.109709434 0.1941019 -0.04490564 0.24642466
0.1549489 0.11490339 0.28211915 -0.25172108 -0.21027711 -0.11324413 0.06189538 0.20456927
-0.13257475 -0.12564754 0.08714358 -0.27431324 -0.010785315 0.048240747 0.16931532 0.058874335
-0.21940096 0.08269132 -0.15144 0.22880837 0.071241416 -0.077230655 0.28055507 0.22785352
0.03471182 -0.004551288 -0.09136073 0.13432935 -0.08497623 -0.027420128 -0.21236143 -0.016371077
0.040520687 -0.13468622 -0.14129388 -0.0685957 0.18530299 -0.2711905 0.22599767 -0.2695802
0.10736543 -0.27750933 0.16339962 -0.11244141 -0.261752 -0.13954724 0.01679143 0.24998417
-0.11444417 -0.09581974 -0.07246132 0.072425395 -0.015983323 0.20724344 -0.19432685 0.12763305
0.028675692 -0.15362985 0.2372002 0.15703796 0.13327919 0.20992659 -0.17531297 -0.12161346
-0.16629852 0.09855012 0.08066909 0.19408828 -0.10770009 0.055174626 0.11135871 -0.20610504
-0.025651045 0.2657296 -0.11767307 0.07254565 0.27784905 -0.22490166 -0.20741391 0.19665545
0.26530603 -0.11037916 0.066192366 0.25159344 -0.009908721 -0.023169167 -0.0078448 0.138791
-0.27972832 -0.1733971 0.24979652 -0.06862634 -0.22349863 0.181684 0.23773324 -0.14925817
0.10046246 0.24416672 0.21484616 0.0059911106 -0.07367207 0.17516375 -0.15392035 0.019466428
0.23979388 -0.040350508 0.20660739 0.122258 0.23723714 0.25491038 0.08855799 0.2625838
0.07521115 0.16037352 0.23130716 0.11068921 0.17767982 0.04843228 -0.08568943 -0.055402916
0.0143027585 -0.044321332 -0.21038267 0.21976967 0.03597224 -0.010095619 -0.23253587 0.008837356
-0.20352903 -0.24914017 0.1913315 0.136334 0.16346973 0.08495473 0.094166204 0.19985668
00000000: edab a7bd 1c14 6e3e e32a 8c3e 8600 86be
00000010: 211b 0b3d bb1a 45bd 2549 ac3d 5433 923d
00000020: a242 083e 7ecb d7bd 5c60 31bc cd84 77be
00000030: c587 853e 4a8f c43d 647f 6fbe fa37 17bd
00000040: 0452 60be 696d 363e b698 0ebd 432e 08be
00000050: 8e94 1a3d 5321 84be 29f6 01bd 3209 833e
00000060: 0154 dd3d 34d3 5d3e aea0 2a3e 4e92 e33d
00000070: 1df8 693e 430f 903e ae62 7f3d 846c fd3d
00000080: db4a d63d a7ed 8d3d d9a8 553e 3cdf 6b3d
00000090: 8f89 4dbd 66ce 8cbd 6602 0fbe 810f 853e
000000a0: 9e68 2b3e 30e9 753e edc6 683e ca93 1c3e
000000b0: a9aa 04bd 1449 a03d aa6f 69be 1e1b 883e
000000c0: 0815 b43d 8d46 933e e546 9abb 2e5e a83d
000000d0: 57af e0bd a6c2 463e faee 37bd bf56 7c3e
000000e0: edaa 1e3e 7852 eb3d ec71 903e 96e1 80be
000000f0: e252 57be 8aec e7bd 0386 7d3d 9b7a 513e
00000100: adc1 07be c0a9 00be 5578 b23d c972 8cbe
00000110: e4b4 30bc 1798 453d ff60 2d3e 3726 713d
00000120: a5aa 60be 115a a93d 1613 1bbe be4c 6a3e
00000130: 05e7 913d 1b2b 9ebd eaa4 8f3e 6f52 693e
00000140: fb2d 0e3d f922 95bb 561b bbbd a28d 093e
00000150: 0508 aebd 2da0 e0bc 4675 59be a31c 86bc
00000160: 05f9 253d 2feb 09be 58af 10be e77b 8cbd
00000170: 11c0 3d3e 7bd9 8abe ef6b 673e 6a06 8abe
00000180: 68e2 db3d b415 8ebe 3b52 273e af47 e6bd
00000190: 5c04 86be 79e5 0ebe 2e8e 893c dafb 7f3e
000001a0: b461 eabd 243d c4bd 9a66 94bd c453 943d
000001b0: 75ef 82bc a037 543e 9efd 46be 3db2 023e
000001c0: 49e9 ea3c 2551 1dbe 9ce4 723e 8fce 203e
000001d0: 577a 083e fff6 563e 3e85 33be 7a10 f9bd
000001e0: 294a 2abe a5d4 c93d d635 a53d 14bf 463e
000001f0: dd91 dcbd cafe 613d 0910 e43d 330d 53be
00000200: 2422 d2bc b60d 883e 94fe f0bd d092 943d
00000210: 3b42 8e3e 9f4c 66be 5064 54be 0c60 493e
00000220: 31d6 873e 780e e2bd dd8f 873d dbd0 803e
00000230: 3058 22bc 44cd bdbc 7a87 00bc 3a1f 0e3e
00000240: 8d38 8fbe 028f 31be a9ca 7f3e f78b 8cbd
00000250: d3dc 64be 5f0b 3a3e 5870 733e 22d7 18be
00000260: 43bf cd3d d706 7a3e a200 5c3e 1451 c43b
00000270: 62e1 96bd 205e 333e 4c9d 1dbe 0f78 9f3c
00000280: 878c 753e 9346 25bd e390 533e 6762 fa3d
00000290: 4bee 723e 9d83 823e e45d b53d 6271 863e
000002a0: 4e08 9a3d f538 243e c9db 6c3e 06b1 e23d
000002b0: b3f1 353e ed60 463d f17d afbd 2bee 62bd
000002c0: 1e56 6a3c 498a 35bd 8e6e 57be 4d0b 613e
000002d0: a157 133d 1868 25bc e21d 6ebe 8fca 103c
000002e0: ea69 50be 9a1e 7fbe 68ec 433e 249b 0b3e
000002f0: 9c64 273e bffc ad3d 36da c03d 3ba7 4c3e

bias f4 [16]
0.031567406 0.27087447 -0.21194348 0.29408848 0.008278024 0.28663194 0.17722344 -0.06776399
-0.24116556 0.012397156 -0.08273482 0.17233771 0.2833456 0.09581247 0.27722585 -0.01182728
00000000: d34c 013d 0fb0 8a3e b607 59be c492 963e
00000010: 8da0 073c 6cc1 923e 107a 353e d9c7 8abd
00000020: 1bf4 76be 711d 4b3c e070 a9bd 4c79 303e
00000030: ad12 913e 5439 c43d 8cf0 8d3e 35c7 41bc

weight f4 [16, 16, 2, 2]
-0.015692139 0.0021658838 0.008528521 0.028356835 -0.021396223 0.010498912 0.08106423 0.018633006
0.054720026 0.10068501 0.055823825 -0.07657041 0.07722161 -0.070442654 -0.05180144 -0.11044984
0.07019393 -0.047091573 -0.0686109 0.061865907 0.11408129 -0.07741128 -0.0945165 -0.09776181
-0.06472161 0.006069477 -0.060018178 0.053398505 -0.1068626 0.0028451937 0.018349947 -0.057625312
0.046669155 0.08606027 0.049606785 0.08267073 0.12574688 0.046448763 -0.11427421 -0.059812956
0.08649219 -0.102068 -0.093225166 0.09424918 0.050565157 0.1298471 0.0820829 -0.04939889
0.117310084 -0.061796296 0.01732878 0.0078074387 -0.06886792 0.020056793 0.040515304 -0.09683759
-0.09225175 0.049385626 0.07578299 -0.107347116 0.12908474 0.017495923 0.110728875 -0.018191162
0.051830366 -0.07313959 -0.124259695 0.11559601 -0.065434285 0.035965778 -0.12977657 -0.12255835
-0.022047225 -0.062425114 -0.039779857 0.022298153 0.062202957 -0.05110242 -0.07834265 -0.07707214
-0.099295795 -0.010836736 -0.12134302 0.045659147 0.00019084818 0.08324816 0.11466314 0.074991554
-0.027078805 0.08959865 0.0067433612 -0.11248823 0.08681022 -0.07381609 -0.104300335 -0.09624459
-0.10401134 -0.041086733 -0.05838141 -0.10307276 0.08090076 -0.12734316 0.06313697 0.089915454
-0.007587987 -0.11908137 -0.11999143 -0.03920867 -0.010742487 -0.02010493 0.058270004 0.08883606
-0.011922255 -0.05702359 -0.06560854 -0.101703785 -0.1087055 0.10772387 -0.01993066 -0.0777479
-0.0019304848 0.07499936 -0.08349148 -0.12839945 0.02216068 -0.058835063 -0.009638862 0.072872035
-0.069588356 0.08580244 0.046295498 0.114541605 0.003190276 -0.121439636 0.062556975 0.05031388
-0.055942908 0.012133786 -0.059808873 -0.031057939 0.08914665 0.10737815 0.07700861 -0.015563059
-0.12259026 -0.050545994 -0.110467486 -0.066929944 -0.04869084 0.053974442 -0.09256499 0.028287694
-0.07486389 -0.016970765 -0.047446832 -0.10502668 -0.061872885 -0.066218875 -0.09141981 -0.009769467
0.007513508 -0.09854345 0.060329452 -0.043271482 0.08706307 0.023906095 -0.045668203 -0.0824554
-0.025199426 0.12496585 0.10171746 -0.055121303 -0.049894128 -0.110413656 0.10145007 -0.071468934
0.07381652 -0.037353568 0.0065246164 0.089663774 -0.099019565 -0.056732174 0.0678243 -0.046029102
-0.09355217 -0.04753776 0.06062281 -0.1000948 -0.04013431 -0.008776374 -0.039961312 0.08187867
-0.066764936 -0.06825244 -0.09461173 0.056721136 0.0804615 -0.116967484 -0.100449525 -0.01889393
0.010956281 -0.07729139 -0.02630363 0.0035034185 0.10872035 -0.06573888 0.04117178 0.10811716
0.08564928 0.06149601 -0.079042956 0.115398005 0.013773428 0.09670729 0.12193437 -0.007880358
-0.09396139 -0.08346135 -0.050756887 -0.11549781 -0.002145914 -0.009206048 0.06611918 -0.12244301
-0.08192815 0.032897353 -0.009012938 0.007312745 0.0038650709 0.0627992 -0.051078312 0.0002314117
-0.01363125 -0.04757974 0.11907789 -0.07891546 0.00060108985 -0.04695 0.11576151 0.015495781
0.13065827 0.0744732 -0.07971549 -0.034959726 0.111391574 0.0066600954 -0.014898246 -0.06420012
-0.07986524 -0.11139835 0.03548162 -0.03191695 -0.09173611 -0.006209449 0.08400931 0.02500055
00000000: cd8c 80bc 80f1 0d3b 36bb 0b3c 984c e83c
00000010: 2247 afbc a103 2c3c 0105 a63d 3fa4 983c
00000020: 1b22 603d f133 ce3d 86a7 643d f2d0 9cbd
00000030: 5d26 9e3d 3d44 90bd bf2d 54bd 8733 e2bd
00000040: d6c1 8f3d 18e3 40bd df83 8cbd 1b67 7d3d
00000050: 74a3 e93d ce89 9ebd de91 c1bd 5837 c8bd
00000060: c38c 84bd 77e2 c63b 9fd5 75bd 64b8 5a3d
00000070: c7da dabd 6e76 3a3b a152 963c 8508 6cbd
00000080: 2828 3f3d 5e40 b03d 7c30 4b3d 464f a93d
00000090: cac3 003e 0f41 3e3d 9908 eabd 6efe 74bd
000000a0: d122 b13d 0709 d1bd d6ec bebd b705 c13d
000000b0: 691d 4f3d a3f6 043e 141b a83d 7e56 4abd
000000c0: 4540 f03d 1d1e 7dbd 16f5 8d3c 8bd5 ff3b
000000d0: a00a 8dbd 254e a43c 60f3 253d c952 c6bd
000000e0: 7cee bcbd 9548 4a3d 1d34 9b3d ced8 dbbd
000000f0: ca2e 043e 9c53 8f3c d2c5 e23d a205 95bc
00000100: 144c 543d 36ca 95bd de7b febd 9abd ec3d
00000110: 6902 86bd da50 133d 26e4 04be dfff fabd
00000120: 629c b4bc 7ab1 7fbd 34f0 22bd 9eaa b63c
00000130: 87c8 7e3d c550 51bd 1c72 a0bd 00d8 9dbd
00000140: 985b cbbd 918c 31bc b082 f8bd 1605 3b3d
00000150: 6b1e 4839 037e aa3d 82d4 ea3d 2c95 993d
00000160: 5fd4 ddbc 7f7f b73d 6af7 dc3b 3b60 e6bd
00000170: 8ec9 b13d e42c 97bd 6a9b d5bd e21b c5bd
00000180: e603 d5bd 904a 28bd 5821 6fbd d017 d3bd
00000190: 4caf a53d 3f66 02be f54d 813d 9825 b83d
000001a0: a6a4 f8bb efe0 f3bd 11be f5bd 4599 20bd
000001b0: 4201 30bc 18b3 a4bc 87ac 6e3d aeef b53d
000001c0: 9055 43bc 9191 69bd c55d 86bd 134a d0bd
000001d0: fda0 debd 559e dc3d a045 a3bc 4a3a 9fbd
000001e0: 5208 fdba 4499 993d 95fd aabd 257b 03be
000001f0: 508a b53c 09fd 70bd 51ec 1dbc ef3d 953d
00000200: 5784 8ebd 31b9 af3d 59a0 3d3d ca94 ea3d
00000210: f313 513b 58b5 f8bd df1d 803d ed15 4e3d
00000220: 6424 65bd cacc 463c 26fa 74bd 386d febc
00000230: 8592 b63d 13e9 db3d b1b6 9d3d 33fc 7ebc
00000240: 9a10 fbbd 5109 4fbd c73c e2bd 9112 89bd
00000250: 0c70 47bd 4e14 5d3d b792 bdbd 98bb e73c
00000260: 3d52 99bd 4606 8bbc 9c57 42bd 3a18 d7bd
00000270: 6c6e 7dbd c39d 87bd 4f3a bbbd 1d10 20bc
00000280: e033 f63b 26d1 c9bd 041c 773d 703d 31bd
00000290: 1f4e b23d b7d6 c33c 950e 3bbd 60de a8bd
000002a0: 076f cebc 18ee ff3d 3e51 d03d e0c6 61bd
000002b0: c95d 4cbd 8e20 e2bd 0ec5 cf3d 4e5e 92bd
000002c0: 1e2d 973d 0e00 19bd 73cc d53b a4a1 b73d
000002d0: c5ca cabd ff5f 68bd 77e7 8a3d 0389 3cbd
000002e0: 4898 bfbd f4b6 42bd a04f 783d 81fe ccbd
000002f0: e063 24bd c8ca 0fbc 79ae 23bd 01b0 a73d
00000300: 0ebc 88bd efc7 8bbd cbc3 c1bd 6c54 683d
00000310: 00c9 a43d a68c efbd 7bb8 cdbd 71c7 9abc
00000320: f981 333c f34a 9ebd b67a d7bc 9c99 653b
00000330: c6a8 de3d 1ba2 86bd bea3 283d 886c dd3d
00000340: e468 af3d 3de3 7b3d 46e1 a1bd ca55 ec3d
00000350: f2a9 613c 790e c63d bab8 f93d 9e1c 01bc
00000360: d46e c0bd c9ed aabd 74e6 4fbd 1e8a ecbd
00000370: 76a2 0cbb f7d4 16bc 7e69 873d 67c3 fabd
00000380: f2c9 a7bd 60bf 063d 00ab 13bc c09f ef3b
00000390: 214d 7d3b de9c 803d 7e37 51bd 1ba7 7239
000003a0: 9b55 5fbc f9e2 42bd 1cdf f33d 6e9e a1bd
000003b0: 7592 1d3a a54e 40bd 5f14 ed3d 04e2 7d3c
000003c0: 48cb 053e 6885 983d e041 a3bd ee31 0fbd
000003d0: 4421 e43d ee3c da3b c617 74bc 5a7b 83bd
000003e0: 6390 a3bd d124 e4bd 2d55 113d 59bb 02bd
000003f0: 24e0 bbbd a278 cbbb 130d ac3d f4cd cc3c

bias f4 [16]
0.12070049 0.1047732 0.08561197 -0.085500345 0.07727839 -0.10644314 -0.10485547 -0.06375294
-0.10165363 -0.096156165 -0.041804563 0.11875603 -0.11382235 -0.00644622 -0.0074609662 0.07511599
00000000: d231 f73d 5593 d63d 5455 af3d ce1a afbd
00000010: 2244 9e3d dcfe d9bd 77be d6bd e790 82bd
00000020: c72f d0bd 86ed c4bd 433b 2bbd 5d36 f33d
00000030: b11b e9bd d03a d3bb 1f7b f4bb 6ad6 993d

weight f4 [32, 16, 2, 2]
0.08577555 0.009870528 -0.087925024 -0.038419906 -0.023139998 0.12509543 0.07757582 0.008322635
0.07165734 -0.056755777 -0.062050886 0.047065563 -0.0431649 -0.108074754 0.024385946 -0.024672195
0.0673352 -0.10815184 -0.04548974 0.076298 -0.0046978556 0.037217002 0.023310697 -0.10947796
0.05760068 0.054515153 0.11787381 0.071378544 -0.073119596 0.051313967 0.014497678 -0.105144426
-0.042466443 -0.11647781 0.047195688 0.05874067 -0.06416181 -0.017166186 0.12781236 -0.033701126
0.069909155 0.090058 -0.0658591 0.07367774 0.037251785 0.05149919 -0.100961395 -0.024387289
0.068654105 0.09506382 0.027261581 0.11332889 -0.04653675 -0.0006872175 0.059117474 -0.04363087
0.09656731 0.0021509673 -0.07225076 -0.0034184596 -0.11363009 -0.015464743 -0.05354097 -0.055837937
0.12574777 -0.075683735 -0.015258043 -0.11276649 -0.054268003 -0.11548135 -0.0064034485 0.1046847
-0.009593739 -0.08854611 -0.03951816 0.085287645 -0.095601834 -0.12855063 -0.11551504 0.07358448
0.03429573 0.08107621 0.08169573 0.067458086 0.024052316 0.07603332 0.030073049 0.045268998
-0.025932914 -0.096040726 -0.0072392323 0.035348512 -0.07240921 0.10262541 -0.0036122254 0.07561882
-0.020406917 0.08704531 0.07394026 0.041970186 0.10210939 0.09043205 -0.024923459 -0.08786898
-0.07148289 -0.03291586 -0.02999824 -0.04858246 -0.0148841385 0.06233651 -0.08371956 0.052689683
0.063656665 0.02051275 -0.07905077 -0.07072474 -0.12143942 -0.024816211 -0.086452074 -0.0073903617
0.07784161 0.0022135165 0.060631227 -0.08027261 -0.07774512 -0.05671066 -0.1066097 -0.015682928
0.0062635806 -0.030328456 -0.037084736 -0.07900549 -0.098899715 0.050362423 -0.01025232 -0.103044756
-0.03964179 -0.08771966 -0.05617417 0.045840144 0.11978628 -0.072662815 -0.073537394 -0.119048774
-0.008470295 0.08919008 0.06081594 0.10930137 0.108306594 0.028667718 0.11783252 -0.12526028
0.0006540453 0.038342677 -0.072030075 -0.026397057 -0.075387694 -0.04181891 -0.06379774 -0.04103743
-0.013158497 -0.03990877 -0.113437496 0.0023433222 -0.006304518 0.028611382 0.09139265 0.073677786
-0.03294968 -0.028128011 -0.009404185 0.05543554 -0.09534064 0.016161565 -0.02010996 0.09852133
-0.014376506 0.05981309 -0.09702648 -0.010729969 -4.642852e-05 -0.017579567 0.121381596 -0.04322833
0.044791985 -0.08195469 -0.1145142 -0.052010152 0.037076578 0.069604 -0.08136071 0.012241012
0.01532856 0.05345488 -0.06294118 -0.116944596 -0.09174254 -0.097098395 0.034799606 -0.098026864
0.028946359 -0.00263068 -0.021740275 -0.026512176 -0.086939685 -0.032759126 -0.0036898893 -0.006023421
0.01902889 0.066026255 0.10845318 -0.061653156 0.12921269 0.049212113 0.08981739 0.043795068
-0.012094018 0.08313347 0.023413202 0.103064105 -0.10530761 0.10473402 -0.099090286 -0.016747704
0.069660775 0.037915617 0.04132684 0.021824822 0.08819652 -0.05410983 -0.12357262 0.016406711
-0.11126779 -0.11907148 -0.029089501 -0.077483125 -0.028806929 -0.055406127 0.026719194 -0.11117271
0.070653856 0.0771178 -0.0806455 0.020109951 -0.10497874 -0.06632137 -0.10430864 -0.022132736
0.030942256 -0.004836831 0.104529075 -0.07469923 -0.0006242624 0.10045805 -0.0706754 0.006796199
00000000: 17ab af3d ffb7 213c 0912 b4bd 315e 1dbd
00000010: 1890 bdbc 0419 003e 12e0 9e3d a95b 083c
00000020: 15c1 923d bf78 68bd 1229 7ebd d2c7 403d
00000030: aecd 30bd 4c56 ddbd 09c5 c73c 581d cabc
00000040: 0ae7 893d b67e ddbd 7353 3abd 2042 9c3d
00000050: 78f0 99bb db70 183d 13f6 be3c fb35 e0bd
00000060: b1ee 6b3d 484b 5f3d d367 f13d ea2e 923d
00000070: babf 95bd 982e 523d ab87 6d3c f655 d7bd
00000080: 4bf1 2dbd eb8b eebd 4450 413d 0f9a 703d
00000090: 4467 83bd 1aa0 8cbc 3ee1 023e 310a 0abd
000000a0: 882c 8f3d 5470 b83d 23e1 86bd 5be4 963d
000000b0: 5495 183d d1f0 523d d9c4 cebd dac7 c7bc
000000c0: 869a 8c3d d2b0 c23d ae53 df3c fa18 e83d
000000d0: 529d 3ebd 6326 34ba 2a25 723d 48b6 32bd
000000e0: 15c5 c53d 3ef7 0c3b 35f8 93bd 3c08 60bb
000000f0: e5b6 e8bd d55f 7dbc c74d 5bbd 52b6 64bd
00000100: 06c4 003e 1300 9bbd dffc 79bc 1ef2 e6bd
00000110: 2048 5ebd 7c81 ecbd 05d4 d1bb ef64 d63d
00000120: 0f2f 1dbc aa57 b5bd cbdd 21bd 4aab ae3d
00000130: e5ca c3bd c7a2 03be 2693 ecbd 76b3 963d
00000140: ae79 0c3d 490b a63d 1750 a73d 7727 8a3d
00000150: 5d09 c53c 5bb7 9b3d c15b f63c fc6b 393d
00000160: 4371 d4bc 00b1 c4bd 1537 edbb 9ac9 103d
00000170: 484b 94bd 452d d23d 16bb 6cbb 0ade 9a3d
00000180: 682c a7bc d044 b23d fe6d 973d eee8 2b3d
00000190: ba1e d13d 7034 b93d 482c ccbc a7f4 b3bd
000001a0: 9f65 92bd c8d2 06bd debe f5bc 67fe 46bd
000001b0: 9adc 73bc 9154 7f3d 2975 abbd 23d1 573d
000001c0: 6d5e 823d 5b0a a83c 5fe5 a1bd 22d8 90bd
000001d0: 3bb5 f8bd 5e4b cbbc c90d b1bd d92a f2bb
000001e0: 6c6b 9f3d a510 113b 7358 783d f765 a4bd
000001f0: d538 9fbd 7049 68bd 3056 dabd 7c79 80bc
00000200: b93e cd3b 6273 f8bc 2ae6 17bd a1cd a1bd
00000210: ef8b cabd d448 4e3d 59f9 27bc 2109 d3bd
00000220: 6e5f 22bd 5da6 b3bd e316 66bd e0c2 3b3d
00000230: 8252 f53d 3ed0 94bd c69a 96bd d8cf f3bd
00000240: fec6 0abc 4aa9 b63d 231a 793d 66d9 df3d
00000250: d9cf dd3d 90d8 ea3c 2d52 f13d 3b44 00be
00000260: 3d74 2b3a 360d 1d3d 8184 93bd a43e d8bc
00000270: dd64 9abd 4e4a 2bbd 64a8 82bd dd16 28bd
00000280: bd96 57bc 6177 23bd eb51 e8bd 6c92 193b
00000290: 2196 cebb 6b62 ea3c 122c bb3d 61e4 963d
000002a0: 3ef6 06bd b76c e6bc 0314 1abc 6010 633d
000002b0: f441 c3bd 4265 843c a5bd a4bc 8dc5 c93d
000002c0: 708b 6bbc 92fe 743d d2b5 c6bd c0cc 2fbc
000002d0: 3ebc 42b8 0603 90bc ea96 f83d 3010 31bd
000002e0: cd77 373d dcd7 a7bd 6c86 eabd 9908 55bd
000002f0: 9cdd 173d 8b8c 8e3d 72a0 a6bd 878e 483c
00000300: a424 7b3c 81f3 5a3d 4ee7 80bd a680 efbd
00000310: 83e3 bbbd 86db c6bd 088a 0e3d 4fc2 c8bd
00000320: ea20 ed3c 7d67 2cbb a918 b2bc 1030 d9bc
00000330: 6f0d b2bd 6f2e 06bd 12d2 71bb 1e60 c5bb
00000340: 7ae2 9b3c c638 873d b31c de3d 0588 7cbd
00000350: 5550 043e a492 493d 2ef2 b73d 7562 333d
00000360: fd25 46bc e141 aa3d 0bcd bf3c 4613 d33d
00000370: 84ab d7bd ca7e d63d d9ef cabd 7b32 89bc
00000380: 4faa 8e3d 684d 1b3d 5546 293d f8c9 b23c
00000390: 61a0 b43d 45a2 5dbd a413 fdbd 5e67 863c
000003a0: 5ee0 e3bd c0db f3bd 1b4d eebc 79af 9ebd
000003b0: 82fc ebbc 89f1 62bd 36e2 da3c 85ae e3bd
000003c0: f8b2 903d f0ef 9d3d 7829 a5bd a0bd a43c
000003d0: 18ff d6bd 80d3 87bd c59f d5bd b64f b5bc
000003e0: 9d7a fd3c 477e 9ebb 5713 d63d e9fb 98bd
000003f0: 8aa5 23ba f3bc cd3d 44be 90bd a6b2 de3b

bias f4 [32]
0.028566225 0.12781607 -0.07077696 -0.023221249 0.1125778 0.077757284 -0.09963907 -0.114506364
-0.08358148 -0.062600076 0.04101423 -0.02531511 -0.030869959 -0.030749027 -0.03551865 0.012836998
-0.117642626 -0.063945115 -0.10033842 -0.007482842 0.055635776 0.07982309 -0.0061104894 0.104201205
0.041181218 -0.020220991 -0.028043441 0.036276866 0.0148941465 -0.099094965 -0.031078042 -0.05876511
00000000: b703 ea3c 37e2 023e 83f3 90bd 7d3a bebc
00000010: 318f e63d 363f 9f3d 920f ccbd 5082 eabd
00000020: c42c abbd 7834 80bd 8afe 273d a261 cfbc
00000030: ffe2 fcbc 62e5 fbbc 017c 11bd 4652 523c
00000040: 9eee f0bd a8f5 82bd 3b7e cdbd a132 f5bb
00000050: 57e2 633d 4a7a a33d 803a c8bb 7167 d53d
00000060: a3ad 283d 7ea6 a5bc 5cbb e5bc 0d97 143d
00000070: 9406 743c 4df2 cabd 6197 febc afb3 70bd

weight f4 [32, 32, 2, 2]
-0.03848882 -0.05407238 -0.032438014 0.07472223 -0.07191123 -0.067553505 0.07330912 -0.018282836
0.0021371385 0.06914724 -0.004936874 -0.062757164 0.027806971 0.030037036 -0.035891887 -0.07457095
-0.008052465 -0.050748117 -0.0058407397 -9.834754e-05 -0.070348494 0.053435892 0.056319617 0.03814304
-0.014856985 0.0733388 -0.05531753 0.068201125 -0.00538132 0.053285163 0.011594366 0.07250928
0.030774308 0.0005783759 -0.093527384 -0.056270685 0.018929383 -0.048205405 0.07734461 0.049295366
0.06477409 0.008496221 -0.07493197 0.075079314 0.062325366 -0.06456242 0.05842809 -0.06242306
-0.026668804 -0.041969657 0.07383764 -0.06947329 0.07734282 0.041882478 -0.064902075 0.069004185
-0.009116739 -0.028589567 0.0783759 -0.0639257 -0.05739756 -0.041374862 -0.078954294 -0.058177456
-0.051972173 0.0007977766 0.06438659 0.030559288 -0.033078805 0.07486086 0.03461012 0.0023549385
0.022053186 -0.062725246 -0.00162008 -0.07504053 0.024667166 -0.026059287 0.038927462 0.0026594924
0.057074085 -0.07470589 0.0200161 0.04902484 -0.09373978 -0.057373486 -0.078206986 -0.043793347
0.019651074 -0.024678413 -0.08756189 0.044775274 -0.08507904 0.060099673 -0.037637565 0.030176789
0.011205364 -0.062509425 0.03450993 0.053624604 0.01877165 0.07188223 0.067163266 0.039867982
-0.0037320638 0.078453965 -0.035407137 0.012095284 -0.08890014 -0.08957697 -0.06414793 -0.029272353
0.08078577 0.067728445 0.03216595 -0.08398013 0.060506627 -0.07205074 0.08011898 0.041179623
0.029511454 0.03632764 0.05956712 -0.063485175 -0.036569286 0.034263298 -0.043915298 -0.038149342
-0.0016144577 0.0763949 -0.050700832 0.03494762 0.0024210734 0.07180932 -0.073639326 -0.059561577
0.04034324 0.031231394 -0.07843085 0.071195185 -0.011999118 0.050116792 -0.053407334 0.034132116
0.061923087 0.0501779 0.044063937 0.017432196 -0.020519981 -0.017075947 -0.01640134 0.016695773
-0.0346889 0.060442846 -0.04700834 -0.038322147 0.03977966 0.02294998 -0.02428182 -0.07141675
0.06671624 0.06982745 -0.033853304 0.08213037 -0.02561774 0.06761191 -0.037779696 0.045227498
-0.032046683 0.0376422 -0.065871716 -0.067460746 -0.050342616 -0.014644374 0.006519687 0.041513782
-0.05605217 0.02163509 0.08033407 -0.037900373 0.017213762 -0.06811717 0.07596933 0.08820388
-0.054693922 -0.05188243 0.008613956 0.044689387 0.08508998 0.09159565 0.0061894613 0.08822894
0.07238817 0.03077981 -0.049885716 -0.0345462 0.015825389 -0.07640568 -0.026164336 -0.057843428
-0.08644803 -0.06713205 0.059172314 0.08470054 -0.02234116 0.08879948 -0.017797796 -0.00056395
0.07595999 -0.007829933 -0.06979531 0.07672808 0.046632744 -0.033283465 -0.0278691 -0.008237152
-0.0073965504 -0.066940546 -0.06254578 -0.07686407 0.028699992 0.075420074 0.050964702 0.08173782
-0.07047898 0.08830142 -0.049346864 0.08705239 -0.00018563024 -0.05171152 -0.022799745 -0.015400634
0.009033829 0.055394337 0.08541029 -0.0040497473 0.03272753 -0.0449536 0.0458039 0.07199849
-0.07925858 -0.034674827 -0.018348094 -0.028745173 0.073799886 0.069229074 -0.079077505 0.020954566
-0.053019237 -0.06446804 0.042412635 -0.049961608 -0.012137548 0.06305689 0.0059138704 -0.086131
00000000: 74a6 1dbd 007b 5dbd b9dd 04bd f807 993d
00000010: 3246 93bd 7e59 8abd 1823 963d e3c5 95bc
00000020: 3c0f 0c3b 119d 8d3d 80c5 a1bb d486 80bd
00000030: 72cb e33c 3b10 f63c 5f03 13bd a7b8 98bd
00000040: 7cee 03bc 42dd 4fbd ad63 bfbb ef3f ceb8
00000050: df12 90bd 98df 5a3d 66af 663d e03b 1c3d
00000060: b66a 73bc a732 963d a294 62bd 08ad 8b3d
00000070: c955 b0bb 8b41 5a3d 4cf6 3d3c bf7f 943d
00000080: 671a fc3c 269e 173a 498b bfbd 177c 66bd
00000090: cb11 9b3c 0873 45bd da66 9e3d f0e9 493d
000000a0: 47a8 843d bc33 0b3c ef75 99bd 2fc3 993d
000000b0: e248 7f3d 4d39 84bd 4b52 6f3d 53af 7fbd
000000c0: 8978 dabc 60e8 2bbd 3038 973d 0348 8ebd
000000d0: ea65 9e3d f68c 2b3d 61eb 84bd 1152 8d3d
000000e0: 605e 15bc ab34 eabc 8b83 a03d 7aeb 82bd
000000f0: b419 6bbd b078 29bd cab2 a1bd 7c4b 6ebd
00000100: c6e0 54bd e221 513a 1edd 833d 7957 fa3c
00000110: a47d 07bd a750 993d 57c3 0d3d 5055 1a3b
00000120: e2a8 b43c 1876 80bd dd58 d4ba d9ae 99bd
00000130: cc12 ca3c 497a d5bc 6772 1f3d e14a 2e3b
00000140: 84c6 693d 67ff 98bd cef8 a33c 45ce 483d
00000150: a4fa bfbd 7600 6bbd fc2a a0bd a760 33bd
00000160: 4afb a03c 622a cabc a653 b3bd 4766 373d
00000170: eb3d aebd 132b 763d d929 1abd 5035 f73c
00000180: b496 373c f104 80bd 495a 0d3d 79a5 5b3d
00000190: 01c7 993c fe36 933d e58c 893d 9c4c 233d
000001a0: a495 74bb 79ac a03d 1307 11bd 4c2b 463c
000001b0: 4711 b6bd 2174 b7bd fd5f 83bd 93cc efbc
000001c0: 0373 a53d 36b5 8a3d 71c0 033d c6fd abbd
000001d0: ccd5 773d 578f 93bd 6b15 a43d f7ab 283d
000001e0: 01c2 f13c 4bcc 143d a7fc 733d 8404 82bd
000001f0: adc9 15bd ac57 0c3d 87e0 33bd 7c42 1cbd
00000200: 369c d3ba ee74 9c3d adab 4fbd 3c25 0f3d
00000210: dfaa 1e3b c410 933d 37d0 96bd d7f6 73bd
00000220: f43e 253d fbd8 ff3c 5aa0 a0bd c8ce 913d
00000230: f397 44bc 4447 4d3d a6c1 5abd 1ece 0b3d
00000240: 10a3 7d3d 5787 4d3d 637c 343d f7cd 8e3c
00000250: 8519 a8bc dbe2 8bbc 1a5c 86bc 93c5 883c
00000260: f315 0ebd eb92 773d d18b 40bd aff7 1cbd
00000270: ffef 223d 9901 bc3c abea c6bc f242 92bd
00000280: 86a2 883d b201 8f3d c3a9 0abd f833 a83d
00000290: 4bdc d1bc 1d78 8a3d e2be 1abd 7840 393d
000002a0: 6243 03bd b52e 1a3d c0e7 86bd dc28 8abd
000002b0: 0f34 4ebd f5ee 6fbc 19a3 d53b 5b0a 2a3d
000002c0: f696 65bd 123c b13c 3086 a43d 6c3d 1bbd
000002d0: e003 8d3c 0481 8bbd cf95 9b3d 3ca4 b43d
000002e0: bc06 60bd ac82 54bd 8d21 0d3c 380c 373d
000002f0: a843 ae3d 8096 bb3d f7d0 ca3b 60b1 b43d
00000300: 4040 943d f125 fc3c f754 4cbd 5180 0dbd
00000310: 3fa4 813c 957a 9cbd 9756 d6bc 3bed 6cbd
00000320: aa0b b1bd 877c 89bd ab5e 723d 7a77 ad3d
00000330: cf04 b7bc 80dc b53d afcc 91bc 0bd6 13ba
00000340: e990 9b3d 1f49 00bc d8f0 8ebd 9d23 9d3d
00000350: fa01 3f3d 3e54 08bd bd4d e4bc 1ff5 06bc
00000360: c35e f2bb 2018 89bd 0018 80bd e96a 9dbd
00000370: 3f1c eb3c d775 9a3d 5dc0 503d 2866 a73d
00000380: 4957 90bd 60d7 b43d f01f 4abd 8648 b23d
00000390: bda5 42b9 75cf 53bd 88c6 babc f152 7cbc
000003a0: a002 143c 2ce5 623d 97eb ae3d beb3 84bb
000003b0: 4d0d 063d 4421 38bd df9c 3b3d f273 933d
000003c0: 5352 a2bd 3107 0ebd be4e 96bc ff7a ebbc
000003d0: 6524 973d f9c7 8d3d 63f3 a1bd e9a8 ab3c
000003e0: b32a 59bd d207 84bd dfb8 2d3d 8ba4 4cbd
000003f0: 91dc 46bc f923 813d 24c9 c13b 7365 b0bd

bias f4 [32]
-0.005662028 0.08278032 0.00022460845 0.09251677 0.0038399117 0.068602555 -0.0040025897 -0.07651468
-0.02770797 -0.03334286 -0.052649476 0.042744543 0.019959502 0.084883586 0.018877639 0.08070184
-0.06605159 -0.065894134 -0.068146236 -0.07916346 0.07825911 -0.05699474 -0.052080233 -0.06762313
0.0121452045 -0.06687449 -0.09008786 0.05564313 -0.07322011 -0.063190654 -0.09115701 -0.009051424
00000000: 8988 b9bb ba88 a93d df84 6b39 6f79 bd3d
00000010: 07a7 7b3b 7f7f 8c3d 2828 83bb bbb3 9cbd
00000020: d3fb e2bc 8692 08bd faa6 57bd e714 2f3d
00000030: 1c82 a33c 72d7 ad3d 47a5 9a3c 0247 a53d
00000040: 0e46 87bd 81f3 86bd 4190 8bbd 7420 a2bd
00000050: 5046 a03d 5173 69bd 1552 55bd ff7d 8abd
00000060: aefc 463c 7ef5 88bd fc7f b8bd 0dea 633d
00000070: 6df4 95bd 1a6a 81bd 87b0 babd 6d4c 14bc

weight f4 [64, 32, 2, 2]
0.0067677675 -0.08080086 0.012096319 -0.07721602 0.02799698 0.03613512 -0.0549581 0.045228466
-0.052448213 -0.014848584 -0.02354716 0.0044561266 -0.015796436 0.0037243557 0.053246 0.06287219
-0.013854649 -0.008812355 -0.04807937 -0.059831813 0.02731681 -0.002698984 0.058383156 0.05303716
0.09092049 -0.057269827 -0.0057790177 0.042130414 0.020709079 -0.07559012 -0.030610586 0.047549725
-0.03415621 -0.039786175 -0.08378489 -0.04160936 0.02031217 -0.09019951 -0.06384965 0.016094884
0.06352112 0.051948942 0.022281172 -0.03044832 0.066098124 -0.060992666 -0.07350785 0.07753574
-0.057565182 0.010983047 0.0013936494 0.03596001 0.03981613 0.079793625 0.039330788 0.058308575
-0.045459267 0.08846248 -0.07239973 0.024161048 0.074127115 0.073858835 -0.06869051 0.08140749
-0.08814076 -0.02998849 0.027893739 0.0127995005 -0.08302142 -0.03586084 -0.072768584 -0.05403193
-0.075612724 -0.05052354 -0.03549509 0.013041047 0.05841964 0.045668676 -0.08056722 0.068650454
-0.07138189 0.040296383 -0.031507213 0.005100269 -0.07769216 -0.016175466 -0.028441867 -0.0710638
0.047287516 0.035492383 0.012256974 -0.07283755 0.028277291 0.0029086384 0.016433323 -0.09173982
-0.04605168 -0.0050762524 -0.055926446 0.0119967405 -0.08519436 0.06770918 -0.02096656 0.00846916
0.0011419143 0.05298759 0.07883103 -0.06087078 -0.060076036 -0.0143762445 -0.06320473 -0.00858333
0.070472464 0.034351055 -0.035943754 -0.08749674 -0.046408854 0.069112115 0.008796015 -0.08625406
0.024920246 0.07124694 -0.023055675 0.07494847 -0.050487768 0.038255498 0.084457584 -0.05448403
0.06471285 -0.07842971 0.082474135 -0.07646614 -0.055793468 -0.07523122 0.069575734 -0.01248758
0.030397262 -0.065567285 0.07734423 -0.027367353 0.06340229 -0.0519775 0.0056081787 -0.074357405
0.028019954 0.040807784 0.032181717 0.069699496 -0.052312236 -0.07058027 -0.0076725967 0.028650045
0.030855661 0.055066593 0.009008291 0.0019855644 -0.08091251 -0.025000649 -0.06664202 -0.08150301
0.06353922 0.024422921 0.01459984 0.049133763 0.0030817906 0.037475243 0.039392613 0.019456556
-0.026454143 0.0622165 0.06667143 0.08594251 0.027758425 -0.05389819 -0.019086452 0.044762705
0.07653985 0.06608114 0.05960772 -0.04237977 0.049195614 0.06795148 -0.013300711 0.06339571
-0.06836045 0.07172671 -0.056505725 0.05195691 0.06846036 0.01865409 0.081992045 0.084507525
-0.05620657 0.03321871 -0.015994776 0.037844326 -0.018324986 -0.021964807 -0.06975277 -0.013064136
-0.07252663 -0.061682153 -0.03420219 0.038952265 -0.042589806 0.0014048695 0.050578672 -0.08576525
0.06347081 0.05938166 -0.051232286 0.03070389 -0.01546245 -0.024970606 0.02711408 0.023079095
0.08227583 0.059007827 0.036052603 0.013202322 -0.0072631147 0.07624194 0.065586224 -0.0050365333
0.023650782 -0.08276699 -0.06343242 -0.079338156 0.012147294 0.022114083 -0.078026 -0.07919271
0.043633956 -0.021094514 -0.010084731 -0.06917516 0.06774332 -0.06685539 -0.055198673 0.03740803
0.016307727 0.058540057 -0.06495351 0.04957814 0.07321876 0.04383793 0.0727285 0.014444429
-0.017743608 0.034058016 0.009071359 0.08251671 -0.04750357 0.07875218 0.017453877 0.016845362
00000000: 26c4 dd3b ec7a a5bd a42f 463c 6f23 9ebd
00000010: ec59 e53c 6b02 143d bf1b 61bd 7c41 393d
00000020: f0d3 56bd 7a47 73bc f9e5 c0bc b304 923b
00000030: 8767 81bc 5214 743b 7a18 5a3d 22c3 803d
00000040: 9cfe 62bc b261 10bc e0ee 44bd 3412 75bd
00000050: 81c7 df3c 70e1 30bb 2d23 6f3d 7e3d 593d
00000060: 8634 ba3d c493 6abd ea5d bdbb f190 2c3d
00000070: 16a6 a93c fece 9abd 0dc3 fabc 80c3 423d
00000080: 62e7 0bbd d4f6 22bd 6a97 abbd 946e 2abd
00000090: b565 a63c 85ba b8bd 9bc3 82bd 6bd9 833c
000000a0: 5c17 823d 6ac8 543d 0187 b63c c16e f9bc
000000b0: 745e 873d 72d3 79bd 498b 96bd 0fcb 9e3d
000000c0: 78c9 6bbd 3df2 333c 1dab b63a ce4a 133d
000000d0: 3d16 233d d76a a33d 5219 213d f9d4 6e3d
000000e0: 7f33 3abd d12b b53d 4f46 94bd 64ed c53c
000000f0: f5cf 973d 4d43 973d 9cad 8cbd f8b8 a63d
00000100: 2583 b4bd 6caa f5bc 6981 e43c ffb4 513c
00000110: 2207 aabd d1e2 12bd b207 95bd 9650 5dbd
00000120: d8da 9abd c5f1 4ebd 4d63 11bd 1eaa 553c
00000130: 6f49 6f3d 140f 3b3d 6d00 a5bd 9c98 8c3d
00000140: ab30 92bd d20d 253d b50d 01bd 2820 a73b
00000150: 111d 9fbd 6982 84bc ebfe e8bc e689 91bd
00000160: 8eb0 413d 7660 113d 7ad1 483c da2b 95bd
00000170: c7a5 e73c db9e 3e3b 2d9f 863c 16e2 bbbd
00000180: b0a0 3cbd b156 a6bb 2113 65bd fa8d 443c
00000190: 617a aebd 1cab 8a3d 10c2 abbc 3bc2 0a3c
000001a0: 49ac 953a 8409 593d 2a72 a13d a453 79bd
000001b0: 4a12 76bd 578a 6bbc 7b71 81bd 18a1 0cbc
000001c0: de53 903d b1b3 0c3d c239 13bd 7e31 b3bd
000001d0: 3617 3ebd a78a 8d3d 291d 103c f8a5 b0bd
000001e0: 8b25 cc3c eae9 913d 41df bcbc 957e 993d
000001f0: 43cc 4ebd ccb1 1c3d 19f8 ac3d a52a 5fbd
00000200: 2c88 843d c19f a0bd 33e8 a83d 489a 9cbd
00000210: b187 64bd d312 9abd b97d 8e3d b598 4cbc
00000220: ae03 f93c 2448 86bd a766 9e3d 8031 e0bc
00000230: 0fd9 813d 5ce6 54bd d0c4 b73b b248 98bd
00000240: 1a8a e53c 1026 273d fad0 033d 9cbe 8e3d
00000250: 5b45 56bd 638c 90bd 686a fbbb 80b3 ea3c
00000260: 03c5 fc3c 828d 613d 8397 133c 3e20 023b
00000270: 75b5 a5bd 29ce ccbc 9d7b 88bd 0deb a6bd
00000280: da20 823d 9412 c83c 2b34 6f3c 7c40 493d
00000290: def7 493b a47f 193d 265a 213d 5b63 9f3c
000002a0: 5cb6 d8bc bbd6 7e3d 088b 883d a002 b03d
000002b0: a365 e33c 59c4 5cbd 315b 9cbc 1959 373d
000002c0: edc0 9c3d 8c55 873d 3927 743d 6996 2dbd
000002d0: 5781 493d 252a 8b3d 3aeb 59bc 9cd5 813d
000002e0: 9000 8cbd 74e5 923d 8c72 67bd c5d0 543d
000002f0: f234 8c3d 76d0 983c 72eb a73d 4812 ad3d
00000300: dc38 66bd 5810 083d 7a07 83bc a702 1b3d
00000310: 481e 96bc 8aef b3bc 8ada 8ebd f50a 56bc
00000320: d788 94bd 6da6 7cbd 9817 0cbd 698c 1f3d
00000330: a672 2ebd 9923 b83a 952b 4f3d b1a5 afbd
00000340: fcfc 813d 2f3a 733d f2d8 51bd b986 fb3c
00000350: 3756 7dbc 288f ccbc 591e de3c 5f10 bd3c
00000360: 3b80 a83d 31b2 713d e5ab 133d 8d4e 583c
00000370: 6cff edbb bc24 9c3d 1252 863d 8109 a5bb
00000380: 49bf c13c bd81 a9bd dbe8 81bd 0b7c a2bd
00000390: 7205 473c 9828 b53c 18cc 9fbd ca2f a2bd
000003a0: 85b9 323d 67ce acbc 6d3a 25bc b5ab 8dbd
000003b0: 02bd 8a3d 7beb 88bd 0118 62bd 2a39 193d
000003c0: c897 853c b3c7 6f3d 5906 85bd 7312 4b3d
000003d0: b8f3 953d 678f 333d aef2 943d 54a8 6c3c
000003e0: 0b5b 91bc 6b80 0b3d 0aa0 143c 85fe a83d
000003f0: 1a93 42bd d348 a13d 6ffb 8e3c 49ff 893c

bias f4 [64]
0.0021680205 -0.052825995 0.029114746 -0.0199024 0.003709599 0.012704897 0.053984955 -0.03807589
0.0014184942 -0.013493197 -0.08199935 0.06364411 -0.084386766 0.09112312 -0.0061964244 -0.037713256
0.041292734 0.04693148 -0.04678572 -0.045292374 -0.007637715 -0.04923971 -0.06438776 0.0018334839
-0.063754685 0.009493293 -0.062315855 0.049419142 0.052237537 0.010159889 -0.0087855235 0.005414541
0.026106859 -0.013359097 0.050626837 -0.07579695 -0.015419193 0.02212948 0.023754217 0.08955442
-0.066063195 -0.08096064 0.07764917 0.03440075 0.08186727 -0.028031157 -0.08485008 0.043212518
-0.043240204 0.0625197 0.02932754 -0.052918866 -0.03743684 0.0653907 0.07004329 0.06252064
-0.051533177 -0.006505897 0.08739125 -0.0398517 0.05799713 0.02612922 0.05074076 0.04314121
00000000: 5915 0e3b 1260 58bd 0c82 ee3c 5c0a a3bc
00000010: be1c 733b 3328 503c 541f 5d3d 77f5 1bbd
00000020: c4ec b93a 9212 5dbc 46ef a7bd d857 823d
00000030: f8d2 acbd c29e ba3d 600b cbbb 3779 1abd
00000040: 9222 293d 393b 403d 62a2 3fbd 7f84 39bd
00000050: cc45 fabb 94af 49bd bbdd 83bd 8351 f03a
00000060: d191 82bd c289 1b3c e93e 7fbd ba6b 4a3d
00000070: 07f7 553d aa75 263c 28f1 0fbc 766c b13b
00000080: 0dde d53c 1de0 5abc 165e 4f3d 6e3b 9bbd
00000090: c8a0 7cbc e248 b53c 3498 c23c 4f68 b73d
000000a0: 244c 87bd b1ce a5bd 8706 9f3d cde7 0c3d
000000b0: 07aa a73d 99a1 e5bc e1c5 adbd 9cff 303d
000000c0: a41c 31bd 540a 803d 4f40 f03c 74c1 58bd
000000d0: 5f57 19bd 8feb 853d db72 8f3d d20a 803d
000000e0: 7414 53bd 6b2f d5bb 2ffa b23d 893b 23bd
000000f0: 668e 6d3d f20c d63c 8bd5 4f3d d6b4 303d

weight f4 [64, 64, 2, 2]
0.005820262 0.021629302 0.05489594 0.018436186 -0.038529605 -0.037803877 -0.015302907 -0.04873443
0.0033045418 -0.019810196 0.027230723 -0.004829692 -0.03904824 -0.051059093 0.010825623 0.03351005
0.049832374 -0.056153014 0.025719974 0.003595425 -0.0022740231 0.013486745 -0.008639972 0.013298762
0.02036017 0.014771331 -0.061306752 0.00988791 -0.036588468 -0.0013090405 -0.010851028 -0.005709802
-0.025247073 0.05722172 -0.026145432 0.018191146 0.05327544 0.018807728 -0.055875827 0.05223066
-0.021292679 0.019437425 -0.05641873 -0.027573325 -0.019418377 -0.012595574 -0.044459667 -0.047253426
-0.050219037 -0.03223344 0.030796744 -0.04930468 0.020980738 0.050745904 -0.030310564 0.013350893
0.037093744 -0.025784869 0.021228902 -0.0031232894 0.059529 -0.022130117 0.059356704 -0.017403973
-0.012852231 0.048630033 -0.0058250376 0.039700672 -0.040194057 -0.021864243 0.034178212 -0.034247104
-0.029796261 -0.0335236 0.047953818 -0.062098276 -0.018285297 -0.015050352 -0.0101989955 0.052567482
0.041479208 -0.030104607 -0.025443442 0.01767835 0.051433362 0.056877725 -0.016358092 0.033438534
0.041137025 0.05375454 -0.002482888 -0.042620476 0.04970658 -0.0056832843 -0.015094534 0.024331996
-0.06015558 -0.0071348813 -0.015075686 -0.030668551 -7.215774e-05 0.029538602 0.03811567 -0.023762718
0.034809075 -0.006777236 0.014434764 0.05957288 -0.0019579183 0.0024964027 0.026395276 0.054417025
-0.047480494 0.035712328 0.031270802 0.048871685 0.0058997246 -0.06742301 -0.061277594 -0.03779012
-0.020603187 0.050915215 -0.01160726 0.050340775 0.015718559 -0.031248258 -0.053808633 -0.011042174
-0.044240654 0.0541047 -0.05385378 -0.0122027295 -0.016457573 -0.015148535 -0.03684566 -0.0024788603
0.041801177 0.034782395 0.039275363 -0.04783465 0.0432742 0.032048285 0.04154621 -0.054024637
0.044127136 -0.052002743 0.061827257 -0.014387853 0.03358173 0.008856268 0.03382248 -0.0031404903
-0.057797242 -0.039869867 -0.06686582 0.051043175 -0.0339542 -0.03503464 -0.0045838533 -0.006575469
-0.011933461 0.030317202 0.0028316379 -0.0045021772 0.0017225742 0.05424182 -0.022973493 -0.009011447
0.03192843 -0.0108274305 0.028934771 0.027184311 -0.05109267 0.021322547 -0.05650627 -0.04388928
-0.049160358 0.0343045 -0.057323974 -0.028179344 -0.028920446 -0.015390255 -0.020167394 0.058943935
0.052939937 -0.03449296 0.05137938 0.005884574 0.05186913 -0.04427163 -0.034906942 -0.060430303
-0.04516756 -0.06099848 0.022702532 0.044300757 -0.027103642 0.040042993 0.05015581 0.049964733
0.04626139 -0.0018772103 -0.0136915855 0.0055925082 -0.028840378 -0.008252136 0.037938185 -0.027725555
0.020251265 0.009797134 -0.047407895 -0.02759911 -0.05398687 -0.011218594 -0.05646805 0.0033944128
0.019162456 0.023338838 -0.007518215 -0.05737737 -0.049382355 0.036200043 -0.058823686 -0.062057085
0.0004082778 -0.004271032 -0.012682239 0.04767686 0.03197211 -0.059832595 -0.053503156 0.043215547
-0.03690605 0.034275588 0.0028223598 -0.024801351 -0.03980981 -0.003270184 -0.03637508 0.042790886
0.0014621611 -0.036985748 -0.031794652 0.023474857 -0.03964738 -0.028710417 -0.004805805 -0.02595193
0.01235147 0.028103374 0.026138166 0.024700701 0.019564832 -0.04818564 -0.0031116423 0.04926119
00000000: e5b7 be3b ef2f b13c 91da 603d 7c07 973c
00000010: 38d1 1dbd 3dd8 1abd 0bb9 7abc c19d 47bd
00000020: 0391 583b fe48 a2bc f712 df3c 6542 9ebb
00000030: 0cf1 1fbd 5723 51bd f45d 313c d641 093d
00000040: 081d 4c3d b400 66bd b2b2 d23c 39a1 6b3b
00000050: c707 15bb 82f7 5c3c ab8e 0dbc 0de3 593c
00000060: 5fca a63c 7403 723c ca1c 7bbd e700 223c
00000070: cadd 15bd 1c94 abba 83c8 31bc 4a19 bbbb
00000080: f3d2 cebc 5361 6a3d f22e d6bc 9905 953c
00000090: 5937 5a3d aa12 9a3c 0dde 64bd d1ef 553d
000000a0: fc6d aebc 3c3b 9f3c 5417 67bd 74e1 e1bc
000000b0: 4a13 9fbc ab5d 4ebc 571b 36bd cf8c 41bd
000000c0: 7ab2 4dbd 3607 04bd 7449 fc3c b4f3 49bd
000000d0: ccdf ab3c f0da 4f3d dc4d f8bc b4bd 5a3c
000000e0: 9cef 173d ca3a d3bc 3ce8 ad3c 1ab0 4cbb
000000f0: aed4 733d 384a b5bc 0420 733d c792 8ebc
00000100: 2a92 52bc 4930 473d f5df bebb 2c9d 223d
00000110: 86a2 24bd a41c b3bc 74fe 0b3d b146 0cbd
00000120: 4a17 f4bc 0b50 09bd 396b 443d c35a 7ebd
00000130: 0ccb 95bc c095 76bc b019 27bc 0051 573d
00000140: 1ae6 293d f09d f6bc c46e d0bc 30d2 903c
00000150: caab 523d 9ef8 683d 6801 86bc d8f6 083d
00000160: 4c7f 283d b82d 5c3d f3b7 22bb cf92 2ebd
00000170: 2099 4b3d d83a babb 104f 77bc e553 c73c
00000180: b365 76bd b9cb e9bb 0300 77bc 9d3c fbbc
00000190: 6453 97b8 f0fa f13c 2d1f 1c3d 08aa c2bc
000001a0: f693 0e3d 9313 debb ca7f 6c3c b102 743d
000001b0: 6b50 00bb b09a 233b e83a d83c 63e4 5e3d
000001c0: e87a 42bd 1747 123d d015 003d ad2d 483d
000001d0: 7a52 c13b 1315 8abd 37fe 7abd d0c9 1abd
000001e0: 04c8 a8bc 798c 503d 612c 3ebc 2132 4e3d
000001f0: 35c4 803c 59fc ffbc 7166 5cbd 3cea 34bc
00000200: b035 35bd e49c 5d3d c895 5cbd f5ed 47bc
00000210: 08d2 86bc 9031 78bc 7aeb 16bd 6074 22bb
00000220: b637 2b3d fc77 0e3d 34df 203d 44ee 43bd
00000230: 4a40 313d 1045 033d 5c2c 2a3d f048 5dbd
00000240: a8be 343d d400 55bd 943e 7d3d 08bb 6bbc
00000250: ff8c 093d e119 113c 7189 0a3d afd0 4dbb
00000260: cdbc 6cbd 964e 23bd f2f0 88bd a612 513d
00000270: 8f13 0bbd 7c80 0fbd 2634 96bb 0877 d7bb
00000280: 9084 43bc c85b f83c 0093 393b 0087 93bb
00000290: 00c8 e13a ac2c 5e3d e832 bcbc c0a4 13bc
000002a0: 63c7 023d 8965 31bc 9d08 ed3c a2b1 de3c
000002b0: 8c46 51bd 9fac ae3c 1e73 67bd 3fc5 33bd
000002c0: 5f5c 49bd e082 0c3d 8bcc 6abd 5ed8 e6bc
000002d0: 92ea ecbc 6827 7cbc 1736 a5bc 326f 713d
000002e0: 8cd7 583d 7d48 0dbd 2f73 523d 62d3 c03b
000002f0: ba74 543d 2b56 35bd 95fa 0ebd c485 77bd
00000300: 9f01 39bd 8bd9 79bd a9fa b93c b674 353d
00000310: 7508 debc 1f04 243d 2e70 4d3d d2a7 4c3d
00000320: 957c 3d3d ba0c f6ba ac52 60bc 5c41 b73b
00000330: a842 ecbc f833 07bc 1265 1b3d b420 e3bc
00000340: fbe5 a53c 2984 203c c82e 42bd 8717 e2bc
00000350: 5621 5dbd 32ce 37bc 0b4b 67bd cc74 5e3b
00000360: 95fa 9c3c 1731 bf3c 5c5b f6bb 8804 6bbd
00000370: 2745 4abd 7f46 143d 1bf1 70bd 922f 7ebd
00000380: 1e0e d639 03f4 8bbb 2ac9 4fbc d048 433d
00000390: 30f5 023d 0613 75bd 2026 5bbd c902 313d
000003a0: cc2a 17bd 8f64 0c3d 57f7 383b 342c cbbc
000003b0: 9d0f 23bd 9550 56bb 09fe 14bd 7f45 2f3d
000003c0: fca5 bf3a 5e7e 17bd 1c3b 02bd 584e c03c
000003d0: 4b65 22bd 1c32 ebbc 047a 9dbb 2499 d4bc
000003e0: d25d 4a3c 0c39 e63c b51f d63c 2059 ca3c
000003f0: 6d46 a03c 4e5e 45bd b2ec 4bbb 1ac6 493d

bias f4 [64]
-0.063534155 -0.056358933 -0.0023333917 -0.040507738 0.046067473 -0.023692163 0.02125795 0.005829812
-0.011290316 -0.052627735 -0.01866251 -0.030415464 -0.03919511 0.049913667 0.026205642 -0.04656288
0.013728268 0.059568327 0.028873276 0.007818866 -0.024328828 -0.04127933 -0.028812744 -0.016640626
-0.008154745 0.04160009 0.00076074497 0.053692307 0.03149625 -0.025616378 0.057858177 -0.04564429
-0.005143152 -0.05965562 -0.036088426 -0.054674733 -0.02846983 0.0314754 0.042421497 -0.06169933
0.0027481562 0.028163442 -0.025223928 -0.017592484 0.023983316 -0.037844673 -0.043432686 0.04343914
0.021389123 -0.04626505 -0.036106132 -0.033972785 -0.010204369 0.0028150065 0.044321634 0.055916455
0.056501735 0.0014309804 -0.010237665 0.01343335 0.04219301 0.021552006 -0.01987693 0.008857963
00000000: 321e 82bd a0d8 66bd d1eb 18bb 71eb 25bd
00000010: 3fb1 3c3d 1116 c2bc 2725 ae3c 0208 bf3b
00000020: 04fb 38bc 2e90 57bd 1fe2 98bc da29 f9bc
00000030: 0d8b 20bd 4672 4c3d 37ad d63c b8b8 3ebd
00000040: 88ec 603c ebfd 733d a687 ec3c b31a 003c
00000050: 404d c7bc 8414 29bd b408 ecbc ec51 88bc
00000060: 7b9b 05bc db64 2a3d bb6c 473a 77ec 5b3d
00000070: 3602 013d 70d9 d1bc b2fc 6c3d 82f5 3abd
00000080: e387 a8bb 7459 74bd 75d1 13bd 9df2 5fbd
00000090: 9039 e9bc 59ec 003d 2ac2 2d3d 70b8 7cbd
000000a0: 691a 343b 05b7 e63c 69a2 cebc 1d1e 90bc
000000b0: a978 c43c 0403 1bbd 79e6 31bd 3ded 313d
000000c0: 3e38 af3c 6c80 3dbd 06e4 13bd 0c27 0bbd
000000d0: 3a30 27bc f97b 383b 9a8a 353d a708 653d
000000e0: 5d6e 673d bc8f bb3a e1bb 27bc 8e17 5c3c
000000f0: 94d2 2c3d d58d b03c f2d4 a2bc fd20 113c

weight f4 [64, 32, 2, 2]
0.0069218837 0.0722368 0.05301396 -0.03537122 -0.05456139 0.064731896 0.010231567 -0.07105761
-0.0024128766 -0.023534523 -0.054939225 -0.08393555 -0.02420553 -0.07070673 -0.0448508 -0.0915229
0.08038884 -0.07848314 0.028621448 -0.042635966 0.048170306 -0.061271902 0.018707007 0.07757162
0.0039499034 -0.0062692678 -0.065205276 0.0715799 0.00031741135 -0.046290893 0.027732346 0.09120737
0.04687164 0.062011108 0.051697094 -0.020070754 -0.03653192 0.04231263 -0.02724482 0.020314524
-0.08008943 -0.07070416 0.05556638 0.07284917 -0.05600811 -0.016352775 -0.034348432 0.06531446
0.08175946 -0.030231899 0.07129932 0.07117395 -0.0154500585 0.05377957 -0.07303163 -0.054132704
0.006070951 -0.082548045 0.0044254703 0.02215883 -0.05519832 -0.038140357 0.0742356 0.07589196
-0.091243975 0.08131395 0.009767792 -0.08519439 0.087874845 -0.04875467 0.061587777 -0.0509781
-0.06705796 0.061597005 0.03172434 -0.0098958565 0.066763096 -0.07384654 -0.06719797 0.006597605
-0.0057826065 0.014517965 0.082676806 -0.0072172647 -0.0372531 -0.008063698 0.044212624 -0.025544165
-0.025424438 0.0445994 -0.08858341 0.05652318 0.052432243 -0.051590096 0.042278763 -0.0247247
-0.012901171 -0.03022497 0.068145245 0.056319 0.08235038 0.07146671 0.023051843 0.077633046
-0.008386015 0.08161709 -0.028213052 -0.06462236 0.0031924716 0.025120819 -0.073406175 0.06404774
0.06727624 -0.05519384 -0.03510144 0.06605181 0.040963814 -0.07158036 -0.037487302 0.010344907
-0.021823961 0.04160727 -0.04702968 0.036351256 0.031355765 0.0746328 0.0835459 -0.029577779
0.050428253 0.044185508 0.015983032 0.082938395 -0.028567353 0.07432445 -0.052756634 0.07572896
0.076329686 0.008978769 0.06995672 -0.074016266 0.0045932685 -0.09126589 0.04099613 -0.07680528
-0.024278885 -0.036881916 0.016429987 -0.021051336 -0.07022706 0.08570204 -0.05241312 0.06997768
-0.06377451 -0.02381034 0.05408839 0.07216429 0.076088436 -0.0049747964 -0.047450654 -0.04582182
0.01605917 0.03639522 -0.01367924 0.01827474 0.043395054 -0.07783159 0.07267404 0.038863093
-0.046994787 -0.036045164 0.08018764 0.08574474 -0.014333367 0.041782994 0.05009102 -0.023431148
0.005669371 0.06597553 -0.030928673 -0.06312581 -0.075672016 -0.040722914 -0.063346125 -0.04977331
-0.040548276 -0.09005595 -0.03700928 0.08169415 0.0062802183 -0.052979153 0.045218088 -0.064975366
-0.07636286 -0.08789449 -0.06775339 -0.030913515 -0.006780636 0.03672063 0.06256121 -0.04787147
-0.004276025 0.064574175 0.050419576 -0.09021526 0.0725479 0.07695164 0.08150596 0.054272834
0.039848212 -0.076279484 -0.073527694 0.04336881 -0.07925861 -0.038502082 0.08333882 -0.027196042
0.012404984 -0.013270961 -0.022366922 -0.04647849 0.082921475 0.010740604 0.07422916 -0.0015606588
0.014010234 0.085277334 -0.006627778 -0.026719483 0.04715576 0.040555548 0.048510198 0.05642209
0.0024487858 -0.069698125 0.05342619 0.045745872 -0.04949609 0.07452331 0.07573343 0.04144216
0.07958289 -0.07745912 -0.030337984 -0.0003162617 -0.0642016 -0.08078131 -0.0065666363 0.051496096
0.03751037 0.010374166 0.034837916 -0.040973164 0.025446607 0.06349422 0.09302887 0.0641897
00000000: f8d0 e23b e3f0 933d 2b25 593d 6ae1 10bd
00000010: c47b 5fbd 2892 843d 4da2 273c a786 91bd
00000020: 5a21 1ebb 79cb c0bc f407 61bd 67e6 abbd
00000030: ad4a c6bc b1ce 90bd 79b5 37bd 5c70 bbbd
00000040: e7a2 a43d c5bb a0bd 8777 ea3c 0da3 2ebd
00000050: 3a4e 453d 3ff8 7abd 703f 993c dfdd 9e3d
00000060: 316e 813b 6e6e cdbb 588a 85bd 7c98 923d
00000070: 3b6a a639 859b 3dbd f22e e33c eeca ba3d
00000080: 7afc 3f3d 5cff 7d3d 55c0 533d 6c6b a4bc
00000090: 7fa2 15bd 0250 2d3d 8730 dfbc a56a a63c
000000a0: ed05 a4bd 58cd 90bd 9399 633d f231 953d
000000b0: c368 65bd 41f6 85bc f1b0 0cbd 96c3 853d
000000c0: 8171 a73d e3a8 f7bc 6105 923d a6c3 913d
000000d0: 3e22 7dbc f747 5c3d 9b91 95bd 41ba 5dbd
000000e0: d4ee c63b f30e a9bd 8903 913b 6f86 b53c
000000f0: a217 62bd 1039 1cbd d608 983d 3e6d 9b3d
00000100: 1fde babd ee87 a63d 1709 203c 657a aebd
00000110: baf7 b33d fab2 47bd 7743 7c3d 6ace 50bd
00000120: af55 89bd 244d 7c3d 62f1 013d 3b22 22bc
00000130: 17bb 883d db3c 97bd 179f 89bd b930 d83b
00000140: 057c bdbb c2dc 6d3c 7552 a93d ce7e ecbb
00000150: b596 18bd 9a1d 04bc 4c18 353d ff41 d1bc
00000160: e946 d0bc dcad 363d 386b b5bd da84 673d
00000170: 31c3 563d 2350 53bd 7f2c 2d3d 748b cabc
00000180: 6f5f 53bc 5b9a f7bc bc8f 8b3d c0ae 663d
00000190: 51a7 a83d 235d 923d 38d7 bc3c 13fe 9e3d
000001a0: 7f65 09bc dc26 a73d 0f1f e7bc ba58 84bd
000001b0: c938 513b 2dca cd3c fa55 96bd 762b 833d
000001c0: 20c8 893d f012 62bd 87c6 0fbd 2c46 873d
000001d0: acc9 273d b998 92bd 498c 19bd af7d 293c
000001e0: 2ac8 b2bc 626c 2a3d 32a2 40bd 0ee5 143d
000001f0: e76e 003d 15d9 983d 1d1a ab3d 194d f2bc
00000200: db8d 4e3d ddfb 343d d9ee 823c 9bdb a93d
00000210: 1506 eabc 6b37 983d 5717 58bd c917 9b3d
00000220: bd52 9c3d b01b 133c 7845 8f3d d795 97bd
00000230: 2183 963b 9ce9 babd 8feb 273d 164c 9dbd
00000240: 83e4 c6bc 7e11 17bd 2e98 863c da73 acbc
00000250: 34d3 8fbd 8d84 af3d 24af 56bd 7550 8f3d
00000260: 369c 82bd e70d c3bc ca8b 5d3d dfca 933d
00000270: 41d4 9b3d 9e03 a3bb 9e5b 42bd a9af 3bbd
00000280: 858e 833c 2713 153d e41e 60bc e8b4 953c
00000290: 03bf 313d 2b66 9fbd 21d6 943d e82e 1f3d
000002a0: 9b7d 40bd 18a4 13bd 6b39 a43d f09a af3d
000002b0: 80d6 6abc a524 2b3d 3e2c 4d3d aef2 bfbc
000002c0: 22c6 b93b 2e1e 873d 215e fdbc 1b48 81bd
000002d0: eef9 9abd 12cd 26bd 9dbb 81bd 19df 4bbd
000002e0: f315 26bd 416f b8bd 0b97 17bd 434f a73d
000002f0: 4aca cd3b ab00 59bd 9a36 393d ce11 85bd
00000300: 2264 9cbd 0702 b4bd 4ac2 8abd 573e fdbc
00000310: 1930 debb 5f68 163d 1720 803d e014 44bd
00000320: e61d 8cbb 773f 843d c284 4e3d c7c2 b8bd
00000330: fe93 943d d298 9d3d 99ec a63d 314d 5e3d
00000340: e137 233d 6b38 9cbd b095 96bd 7ea3 313d
00000350: 5752 a2bd 5cb4 1dbd 8bad aa3d 3cca debc
00000360: 463e 4b3c 726e 59bc d63a b7bc 3b60 3ebd
00000370: bcd2 a93d 5cf9 2f3c 7505 983d 058f ccba
00000380: 2e8b 653c e2a5 ae3d d52d d9bb d1e2 dabc
00000390: 6626 413d 931d 263d a1b2 463d d91a 673d
000003a0: cf7b 203b e4bd 8ebd 6cd5 5a3d 0660 3b3d
000003b0: 69bc 4abd ad9f 983d 211a 9b3d 41bf 293d
000003c0: 5bfc a23d e3a2 9ebd 5d87 f8bc edcf a5b9
000003d0: 217c 83bd ac70 a5bd f02c d7bb 92ed 523d
000003e0: 79a4 193d 68f8 293c 34b2 0e3d 7ad3 27bd
000003f0: 6775 d03c 4209 823d ec85 be3d e475 833d

bias f4 [32]
-0.052659035 -0.005893036 0.092743784 0.046280548 0.016359154 -0.0041267015 0.023253124 -0.07539818
0.08968216 0.051027466 -0.040724427 -0.0026201603 -0.07978412 -0.08116432 0.041420966 -0.034109
0.08182238 -0.037427094 -0.02156017 0.04864114 0.079119295 -0.06479601 0.030359939 0.057652652
-0.08667779 0.060610864 0.06380496 0.05890501 -0.032517225 0.044468142 -0.088804916 -0.053590093
00000000: 00b1 57bd 5e1a c1bb 74f0 bd3d ac90 3d3d
00000010: a203 863c 4839 87bb 567d be3c 5c6a 9abd
00000020: 48ab b73d 2d02 513d a8ce 26bd ffb6 2bbb
00000030: db65 a3bd 7b39 a6bd 08a9 293d e1b5 0bbd
00000040: 7e92 a73d 274d 19bd f49e b0bc ef3b 473d
00000050: 4c09 a23d c5b3 84bd 68b5 f83c 3025 6c3d
00000060: 2084 b1bd 1943 783d 2dac 823d 6146 713d
00000070: c830 05bd 3a24 363d 5adf b5bd 4981 5bbd
