output/train_12_12_23_part-4/unet_tgs_salt.pth (torch, 248279 bytes, 26 tensors)

weight f4 [16, 3, 2, 2]
-0.22917949 -0.1927556 0.05603602 0.28931835 -0.0458977 -0.16639267 -0.1466571 0.24307224
-0.025697723 0.07887743 -0.12748961 0.0935789 0.03393263 0.043637063 -0.030359004 -0.22660577
-0.20189975 0.041332338 0.23506188 0.106286034 -0.2130138 -0.16048661 -0.2574822 -0.16766408
-0.27031302 -0.23199834 0.2630843 -0.057861004 0.16986723 0.29167685 -0.042628918 0.2946392
0.12357774 0.012604708 -0.24048087 0.20081884 -0.009125678 -0.27129745 0.13003376 0.0031695869
-0.17614403 0.07521892 -0.18640354 -0.011593589 -0.07346635 -0.037625946 0.08141122 0.0199913
0.120423056 -0.21422188 -0.19652706 -0.21716371 -0.27040222 0.21755719 -0.14890051 -0.09825026
0.2767204 0.043046895 -0.26579425 -0.07483717 -0.08043461 -0.10805443 -0.03333125 0.2623585
0.14150232 -0.15586674 0.26081362 -0.25221622 -0.19908643 -0.1007742 -0.2371678 -0.14211789
-0.27384377 0.028624453 -0.17093647 0.25982666 -0.09893005 -0.017706897 -0.26851255 0.004198359
0.15241566 -0.26270562 -0.15684535 0.11245499 -0.25366002 -0.052899547 0.18689191 -0.049351566
0.13086088 -0.2654279 0.22634917 0.22044647 0.12047802 -0.066803664 0.25205168 -0.1596664
-0.1675691 0.13515557 -0.20899434 -0.067538716 0.15730955 0.16044553 0.16780345 -0.23610139
0.2446562 -0.26888284 -0.06622984 0.063226685 -0.120442845 -0.046960197 0.16824242 0.046084717
-0.19131525 -0.025004692 -0.06200498 -0.1546356 -0.26905936 -0.083674625 0.026157299 -0.17263137
-0.20367582 -0.19433099 -0.1230547 -0.0020213374 0.1884152 0.27586377 0.107748546 -0.0058258804
-0.042481177 0.21198842 0.2063186 0.08864306 -0.1769178 -0.005725941 -0.14251429 0.17757697
0.021298049 -0.02402158 0.22997822 -0.18538079 0.09881426 -0.26252317 0.23778363 0.00082513574
0.21959941 0.17631783 -0.1981338 -0.015387312 0.09843137 0.096360065 -0.01303564 0.2448547
0.16807088 -0.08421721 -0.16101027 0.14320308 -0.26543945 -0.029411895 -0.23394205 0.21077387
0.1160924 -0.20416583 0.271703 -0.288329 -0.03231709 -0.083917335 -0.004687086 -0.11175237
0.14952545 -0.20245263 0.16059832 -0.114538364 0.10155098 0.003423983 -0.1103494 -0.13127954
0.015592559 -0.057162397 0.13488072 -0.16477318 0.26161933 -0.1455629 0.25326112 -0.26361015
0.16513984 0.25089085 0.079380006 -0.26490223 0.11216466 0.024019808 -0.18224832 -0.08935781
00000000: 07ae 6abe b961 45be 0786 653d 8921 943e
00000010: 3aff 3bbd d762 2abe 472d 16be eee7 783e
00000020: 0884 d2bc 7d8a a13d a38c 02be 4ba6 bf3d
00000030: f1fc 0a3d c7bc 323d 72b3 f8bc 580b 68be
00000040: cfbe 4ebe 194c 293d 10b4 703e 7eac d93d
00000050: 4a20 5abe 9a56 24be b5d4 83be 22b0 2bbe
00000060: 7866 8abe f990 6dbe fcb2 863e a9ff 6cbd
00000070: adf1 2d3e ab56 953e a99b 2ebd f3da 963e
00000080: 5316 fd3d fa83 4e3c 9e40 76be 74a3 4d3e
00000090: de83 15bc 80e7 8abe 9227 053e d8b8 4f3b
000000a0: 1a5f 34be 610c 9a3d 92e0 3ebe 09f3 3dbc
000000b0: 8775 96bd aa1d 1abd edba a63d cbc4 a33c
000000c0: 5da0 f63d fb5c 5bbe 643e 49be 2a60 5ebe
000000d0: 2972 8abe 50c7 5e3e 6079 18be 6f37 c9bd
000000e0: 4cae 8d3e f151 303d 2f16 88be 3b44 99bd
000000f0: e7ba a4bd a44b ddbd 5986 08bd da53 863e
00000100: fce5 103e 889b 1fbe 5d89 853e 7c22 81be
00000110: 50dd 4bbe b462 cebd 1edc 72be 5a87 11be
00000120: 4035 8cbe d47d ea3c f809 2fbe 0008 853e
00000130: d79b cabd 0e0e 91bc 7a7a 89be 6392 893b
00000140: da12 1c3e 5a81 86be 119c 20be cd4e e63d
00000150: badf 81be 32ad 58bd 9860 3f3e de24 4abd
00000160: 6500 063e 2ae6 87be 14c8 673e b8bc 613e
00000170: 2ebd f63d 5cd0 88bd eb0c 813e 977f 23be
00000180: 3c97 2bbe 3966 0a3e 9d02 56be bd51 8abd
00000190: c115 213e d54b 243e abd4 2b3e 90c4 71be
000001a0: 2887 7a3e 03ab 89be 83a3 87bd fe7c 813d
000001b0: bdaa f6bd 5659 40bd be47 2c3e 54c3 3c3d
000001c0: 25e8 43be a4d6 ccbc eff8 7dbd cb58 1ebe
000001d0: 26c2 89be 9a5d abbd d547 d63c 47c6 30be
000001e0: 6590 50be b4fe 46be 1a04 fcbd 6a78 04bb
000001f0: eaef 403e 043e 8d3e 45ab dc3d 07e7 bebb
00000200: be00 2ebd 7e13 593e 2f45 533e 7e8a b53d
00000210: f129 35be ada0 bbbb 44ef 11be bdd6 353e
00000220: 3f79 ae3c e8c8 c4bc 697f 6b3e 76d4 3dbe
00000230: 215f ca3d 7069 86be 8d7d 733e ec4d 583a
00000240: abde 603e a98c 343e 96e3 4abe 101b 7cbc
00000250: 6396 c93d 6d58 c53d 7093 55bc 31bb 7a3e
00000260: c61a 2c3e 137a acbd e0df 24be d4a3 123e
00000270: aee7 87be 37f1 f0bc 818e 6fbe 1bd5 573e
00000280: dac1 ed3d d910 51be a81c 8b3e dc9f 93be
00000290: ed5e 04bd dadc abbd 2196 99bb 6dde e4bd
000002a0: 331d 193e be4f 4fbe e373 243e 1793 eabd
000002b0: f6f9 cf3d e764 603b defe e1bd 256e 06be
000002c0: ef77 7f3c 1e23 6abd 2c1e 0a3e 4dba 28be
000002d0: f8f2 853e 710e 15be 71ab 813e e9f7 86be
000002e0: 6b1a 293e c474 803e fc91 a23d 44a1 87be
000002f0: 96b6 e53d 30c5 c43c 4e9f 3abe 3a01 b7bd

bias f4 [16]
0.20320728 -0.14607844 -0.10089443 -0.25140804 0.2924679 0.034889854 0.16588284 -0.0036418296
-0.07662806 -0.047241952 -0.21319668 0.0729426 0.16317292 -0.27438623 0.035026807 -0.20674603
00000000: 9215 503e 9695 15be bda1 cebd 8eb8 80be
00000010: 5abe 953e aae8 0e3d 31dd 293e c3ab 6ebb
00000020: 2cef 9cbd c780 41bd 3b50 5abe ee62 953d
00000030: cd16 273e 5a7c 8cbe 4578 0f3d 3bb5 53be

weight f4 [16, 16, 2, 2]
0.11649218 0.07529044 0.1083325 -0.078291304 0.033470795 -0.0909587 0.048175886 -0.101260364
-0.09007558 0.10031373 0.03158555 0.03870557 -0.027542919 0.043294698 0.12232116 0.043177202
0.10737531 0.047647096 0.10391991 0.03832505 0.08775203 -0.10463645 -0.093121774 -0.12310565
-0.06075228 -0.0053453525 0.11890422 0.019561026 0.12447938 -0.049416885 0.012111148 0.04627495
-0.026781823 -0.113405995 -0.016475523 0.047531184 0.04502947 0.089262486 -0.027179282 0.11855125
0.07166609 -0.0039876616 -0.09019515 -0.10789566 -0.041844465 -0.055258073 0.020373251 0.07828705
0.10589218 -0.07894852 0.09920023 0.099330775 0.03966166 -0.062249392 -0.028552428 -0.08391674
-0.10206418 -0.10302195 0.04983 -0.015125066 -0.0054823305 0.023750613 -0.06767128 -0.11264024
-0.009443318 0.08619114 -0.07615272 0.007147425 0.028947026 0.029325902 -0.060214758 -0.10761665
-0.07108643 0.10153848 -0.04208437 0.008640353 -0.03304088 -0.123618126 0.019044176 0.058590904
-0.108184285 0.0850769 0.04354592 0.022083057 -0.062393904 0.07128615 -0.041124437 -0.031522006
0.09762533 0.00017022873 -0.064927705 0.056667272 -0.025891637 -0.0075705396 -0.094752826 -0.084164366
0.097884536 -0.0012115238 0.02014249 -0.1034518 0.12099675 0.005323299 0.10177071 -0.10283756
-0.029960332 0.000785232 -0.036018055 0.10610887 -0.027096948 0.12155368 -0.014851682 0.11105113
0.033480182 -0.098676264 -0.06427803 0.026234107 -0.064949274 0.11567314 -0.11849879 0.009043306
-0.091888316 0.06879962 0.061922733 -0.051116593 -0.0056278547 0.028227922 0.040766157 -0.08956943
0.088440455 0.0050041243 -0.108027026 -0.09236777 -0.053684413 -0.019379377 0.012297124 -0.003208682
-0.03284238 0.0010151415 0.049746428 -0.103723906 -0.036021292 -0.091592565 -0.09259735 -0.027468607
-0.07486534 0.06264118 0.100817546 -0.043342024 0.058959067 -0.024500182 -0.09611723 0.0006227923
0.07757057 -0.074956365 -0.016627947 -0.080374785 -0.013180658 -0.10109556 -0.0663592 0.033451177
-0.041279446 -0.08914761 0.00819759 -0.044378646 0.07558773 0.044769753 0.055287346 0.113925554
-0.010145152 0.03311852 0.01188647 -0.076298274 -0.056493632 0.07207283 0.073337816 0.10364751
0.12599711 -0.043631077 0.073785245 0.067502126 0.06432673 -0.08687322 -0.010804772 -0.046798542
-0.097558945 0.014488477 0.042696778 0.09536548 -0.09080616 -0.05468993 0.08370308 0.0006019956
0.015376178 0.0175544 0.05212294 -0.01932619 -0.03970602 -0.097234905 0.059666947 0.011338249
-0.09998264 0.06748127 -0.050464552 -0.079516836 -0.05121471 0.057003185 0.09988634 -0.079425335
-0.016068634 -0.10979006 0.065637864 -0.040284056 -0.032093912 0.01345804 -0.055777363 -0.1127429
0.110894896 0.08684138 -0.111863926 -0.06487414 -0.019245349 0.12209673 -0.105723396 0.068425275
-0.078588195 0.03974825 0.098018475 0.05264634 -0.07579031 0.098977365 -0.094299845 -0.07074115
-0.015419701 -0.1166437 0.10902541 0.06941823 -4.0663213e-05 -0.11517213 -0.066227034 -0.04996711
-0.062460944 0.07112605 0.09803165 -0.010062479 0.01680772 0.031131953 0.05566223 -0.06436165
0.03320576 -0.009428533 -0.019612953 -0.00809023 -0.0791928 -0.10943046 -0.038514543 0.029524712
00000000: 7493 ee3d e031 9a3d 6edd dd3d 3157 a0bd
00000010: ac18 093d 8e48 babd 1454 453d 9861 cfbd
00000020: 8c79 b8bd 4971 cd3d da5f 013d bb89 1e3d
00000030: b0a1 e1bc c855 313d 8483 fa3d 94da 303d
00000040: 96e7 db3d 9a29 433d f6d3 d43d bafa 1c3d
00000050: 56b7 b33d a34b d6bd a1b6 bebd d11e fcbd
00000060: 62d7 78bd 1128 afbb 0e84 f33d 723e a03c
00000070: 0cef fe3d 5c69 4abd d66d 463c cd8a 3d3d
00000080: 8e65 dbbc 6741 e8bd adf7 86bc 0fb0 423d
00000090: d270 383d 40cf b63d 16a7 debc ffca f23d
000000a0: acc5 923d eeaa 82bb 3cb8 b8bd 66f8 dcbd
000000b0: 1a65 2bbd 4a56 62bd cee5 a63c f654 a03d
000000c0: 00de d83d c3af a1bd 7d29 cb3d ef6d cb3d
000000d0: 4474 223d 38f9 7ebd c8e6 e9bc 8adc abbd
000000e0: 0607 d1bd 2cfd d2bd 8b1a 4c3d 20cf 77bc
000000f0: 1fa5 b3bb a590 c23c 3d97 8abd edaf e6bd
00000100: 25b8 1abc fb84 b03d f5f5 9bbd f234 ea3b
00000110: 5022 ed3c e03c f03c c0a3 76bd 1e66 dcbd
00000120: c395 91bd 68f3 cf3d a960 2cbd 4490 0d3c
00000130: e055 07bd 802b fdbd 8802 9c3c 04fd 6f3d
00000140: b98f ddbd cc3c ae3d 355d 323d 87e7 b43c
00000150: c090 7fbd 79fe 913d 1972 28bd 381d 01bd
00000160: caef c73d 6d7f 3239 d1f8 84bd f11b 683d
00000170: b31a d4bc 4a12 f8bb c50d c2bd 5e5e acbd
00000180: b077 c83d fecb 9eba dd01 a53c 8ade d3bd
00000190: 25cd f73d 126f ae3b 296d d03d 809c d2bd
000001a0: 5f6f f5bc 07d8 4d3a ab87 13bd 9b4f d93d
000001b0: 6bfa ddbc 23f1 f83d 7854 73bc c66e e33d
000001c0: 8422 093d c816 cabd 33a4 83bd e9e8 d63c
000001d0: 2004 85bd 0ae6 ec3d 7eaf f2bd 602a 143c
000001e0: f12f bcbd d1e6 8c3d b1a2 7d3d a25f 51bd
000001f0: de69 b8bb 3e3e e73c 6afa 263d 2d70 b7bd
00000200: 4520 b53d a3f9 a33b 463d ddbd 502b bdbd
00000210: 30e4 5bbd 80c1 9ebc e079 493c c048 52bb
00000220: bb85 06bd 7f0e 853a e9c2 4b3d 336d d4bd
00000230: 108b 13bd e294 bbbd aea3 bdbd d805 e1bc
00000240: 0053 99bd 054a 803d 6e79 ce3d 6887 31bd
00000250: 107f 713d 9bb4 c8bc 1cd9 c4bd e242 233a
00000260: 52dd 9e3d b982 99bd 5537 88bc 899b a4bd
00000270: b0f3 57bc 300b cfbd 55e7 87bd 1a04 093d
00000280: a314 29bd 0693 b6bd 2f4f 063c 62c6 35bd
00000290: bdcd 9a3d 7d60 373d fc74 623d cd51 e93d
000002a0: da37 26bc 49a7 073d 78bf 423c 4542 9cbd
000002b0: de65 67bd eb9a 933d 2332 963d 2545 d43d
000002c0: 6305 013e 80b6 32bd b81c 973d 8e3e 8a3d
000002d0: bcbd 833d 96ea b1bd 8006 31bc d4af 3fbd
000002e0: fccc c7bd 1461 6d3c d1e2 2e3d fa4e c33d
000002f0: 94f8 b9bd 8c02 60bd 856c ab3d 3ecf 1d3a
00000300: 5dec 7b3c 3fce 8f3c dd7e 553d f551 9ebc
00000310: c8a2 22bd 1823 c7bd 5465 743d 10c4 393c
00000320: b3c3 ccbd 9f33 8a3d ebb3 4ebd b9d9 a2bd
00000330: 84c6 51bd 2c7c 693d 3691 cc3d c0a9 a2bd
00000340: 5ea2 83bc 9cd9 e0bd 256d 863d e500 25bd
00000350: e874 03bd 1c7f 5c3c ce76 64bd c0e5 e6bd
00000360: dd1c e33d e5d9 b13d ea18 e5bd bcdc 84bd
00000370: 6ca8 9dbc da0d fa3d 8285 d8bd 8d22 8c3d
00000380: d9f2 a0bd 10cf 223d e9bd c83d b0a3 573d
00000390: f337 9bbd a5b4 ca3d 4720 c1bd bce0 90bd
000003a0: eaa2 7cbc e4e2 eebd b748 df3d 252b 8e3d
000003b0: cb8d 2ab8 5edf ebbd 0aa2 87bd 50aa 4cbd
000003c0: 0cd7 7fbd 89aa 913d d1c4 c83d 19dd 24bc
000003d0: 58b0 893c 7008 ff3c 14fe 633d 0ad0 83bd
000003e0: c302 083d 227a 1abc 58ab a0bc e28c 04bc
000003f0: d62f a2bd 141d e0bd 6dc1 1dbd cfdd f13c

bias f4 [16]
0.017504578 0.027665043 0.008581753 0.03334547 0.02210857 0.10986703 0.12294507 -0.055146594
-0.06527206 -0.08287939 -0.016037239 -0.012594569 -0.055612054 0.05413432 0.12228763 0.11344141
00000000: c365 8f3c cda1 e23c 7b9a 0c3c 4295 083d
00000010: 081d b53c f701 e13d a0ca fb3d 65e1 61bd
00000020: 5cad 85bd abbc a9bd 8760 83bc 7359 4ebc
00000030: 77c9 63bd f3bb 5d3d f071 fa3d f853 e83d

weight f4 [32, 16, 2, 2]
-0.09111556 0.0104351975 0.033027876 -0.06960373 0.00055956974 -0.0051237256 -0.0825967 0.05206027
0.0703919 0.05919493 -0.03942066 0.07048545 -0.09730651 0.0021226557 -0.03946404 -0.10244676
0.046133503 0.024740634 -0.0055728382 -0.098289184 -0.055090282 -0.10226908 0.118681125 -0.09968731
-0.11718849 -0.0037447158 0.062097836 0.03823031 0.042216267 -0.10765576 0.10876561 0.0005099856
0.004273306 0.12978908 0.038819864 0.017430395 0.10999682 -0.100261666 -0.12592383 -0.12948486
0.011577622 0.090242244 0.020007258 -0.07411683 -0.013940439 -0.115016915 -0.02480031 0.12600544
-0.027711688 -0.07835753 0.09410076 -0.102376156 0.0652832 -0.028524743 0.0005817016 0.088487715
-0.101277374 0.106719516 0.090700924 0.08018852 0.10542217 0.12335098 0.11031255 0.070344895
0.12659766 -0.116614886 0.016100647 -0.085431084 -0.04706245 0.01953059 -0.031795517 0.0455278
0.043260302 -0.008806026 -0.044296484 -0.10714478 0.045697004 -0.047227222 -0.08469901 -0.08186624
0.098409005 -0.09332842 0.10480023 -0.06154087 -0.011073751 0.036809698 -0.0842624 0.05016605
0.10968285 0.08251999 0.1171272 0.0034345312 -0.037613075 -0.10024404 -0.04333008 0.014671559
0.007985831 0.045006342 0.021434864 0.012122759 0.0103678955 -0.039495524 0.091850206 0.09253588
0.04004112 0.02462122 0.1301541 0.11004226 0.06801538 0.07148581 -0.003593221 -0.08829982
-0.0653137 -0.11814221 0.09552472 0.1078651 -0.036990635 0.10727768 -0.011954009 0.025196027
0.021148454 -0.06963185 -0.074286155 0.11195224 0.019812949 0.07838654 -0.0072120777 -0.041528996
0.11386564 -0.0972752 -0.05229354 -0.028099446 -0.05742694 -0.1341267 -0.07567672 0.08117573
0.12391661 -0.008101942 0.08568212 0.1278058 -0.047133364 0.007228903 -0.06904476 0.041273013
-0.09711517 0.12570328 0.07764285 0.02793462 0.002418601 0.055877455 -0.04742844 0.11070296
0.05486474 -0.014396382 -0.041241605 -0.022510497 0.0033354294 0.11372109 -0.11400909 -0.07560562
0.063722625 0.053724643 0.12840405 -0.03453084 0.081461966 -0.0006229305 -0.09123202 -0.07429757
-0.07525174 0.062110096 -0.024186598 0.107172035 -0.007016795 0.06297793 -0.07079831 -0.11318872
0.09059258 0.014378189 0.0005420151 0.03529399 0.027117211 0.058919974 0.07570041 0.033803165
0.012743736 -0.110290065 -0.07669537 -0.074196406 -0.045849606 -0.016622147 0.11166751 0.12434165
-0.12086174 -0.037846837 -0.11934877 0.116519935 0.038377967 -0.11796733 0.11339272 0.014983142
0.116731636 -0.11571053 -0.09637365 -0.12625922 -0.060156766 0.09378895 -0.0691206 -0.0994039
-0.073549785 -0.03551789 0.11044059 -0.02391431 -0.115198575 0.015666118 -0.121073775 0.05967496
-0.033683553 -0.06454697 0.040075876 -0.089185245 -0.046850227 0.09211281 0.051568124 -0.099319145
0.08103125 -0.07478188 -0.078451686 0.095716074 0.039095573 -0.010607085 -0.11677477 -0.006218374
0.10843752 -0.06120393 -0.09608535 -0.00034656684 0.008446305 0.03230384 -0.0065013496 0.059841137
-0.107217535 -0.10516381 0.11702663 0.09827638 -0.0047615757 -0.0038948515 0.096357115 0.11743271
-0.10204892 -0.045593023 0.019219784 -0.11691546 -0.058105513 -0.109268874 -0.12587562 0.009133105
00000000: cb9a babd 64f8 2a3c 3d48 073d 678c 8ebd
00000010: 17b0 123a ede4 a7bb 7528 a9bd 263d 553d
00000020: a129 903d 6276 723d 8f77 21bd ad5a 903d
00000030: a348 c7bd 411c 0b3b 0ca5 21bd 9bcf d1bd
00000040: 7cf6 3c3d dfac ca3c 5b9c b6bb d74b c9bd
00000050: 59a6 61bd 7472 d1bd 170f f33d dc28 ccbd
00000060: 8500 f0bd e869 75bb 4d5a 7e3d 6397 1c3d
00000070: f7ea 2c3d a07a dcbd 81c0 de3d 8eb0 053a
00000080: 1707 8c3b 6ee7 043e 9401 1f3d 30ca 8e3c
00000090: 0346 e13d fd55 cdbd 2df2 00be ae97 04be
000000a0: 11b0 3d3c edd0 b83d 43e6 a33c 91ca 97bd
000000b0: 7066 64bc fd8d ebbd 052a cbbc 9207 013e
000000c0: 9f03 e3bc ea79 a0bd e6b7 c03d 97aa d1bd
000000d0: 33b3 853d b9ac e9bc 557d 183a 0c39 b53d
000000e0: 836a cfbd c38f da3d 68c1 b93d e139 a43d
000000f0: 94e7 d73d 709f fc3d 8ceb e13d fc10 903d
00000100: d1a2 013e c9d3 eebd 81e5 833c 7ef6 aebd
00000110: 8ec4 40bd 9efe 9f3c 043c 02bd 5c7b 3a3d
00000120: b731 313d 2647 10bc 3b70 35bd b96e dbbd
00000130: c82c 3b3d 5571 41bd ad76 adbd 7da9 a7bd
00000140: a98a c93d f822 bfbd 81a1 d63d 4812 7cbd
00000150: ae6e 35bc c4c5 163d c491 acbd eb7a 4d3d
00000160: 67a1 e03d 3e00 a93d 63e0 ef3d df15 613b
00000170: 2b10 1abd bf4c cdbd e27a 31bd fb60 703c
00000180: 01d7 023c 9258 383d 2b98 af3c 899e 463c
00000190: 1bde 293c 0fc6 21bd f61b bc3d 7483 bd3d
000001a0: 2802 243d 71b2 c93c 1e47 053e d65d e13d
000001b0: a64b 8b3d 2767 923d 3f7c 6bbb 89d6 b4bd
000001c0: 30c3 85bd 8bf4 f1bd 77a2 c33d 61e8 dc3d
000001d0: 7e83 17bd 66b4 db3d bfda 43bc e667 ce3c
000001e0: 863f ad3c 259b 8ebd 5723 98bd 3747 e53d
000001f0: c44e a23c 1f89 a03d 4b53 ecbb 4f1a 2abd
00000200: 6332 e93d 3838 c7bd c031 56bd cf30 e6bc
00000210: 8338 6bbd 8258 09be 65fc 9abd 763f a63d
00000220: fec7 fd3d 02be 04bc 1b7a af3d 86df 023e
00000230: ea0e 41bd 6fe0 ec3b 5767 8dbd e40d 293d
00000240: 51e4 c6bd 5cb8 003e 3703 9f3d 25d7 e43c
00000250: 6481 1e3b c2df 643d 5344 42bd 3cb8 e23d
00000260: dab9 603d cdde 6bbc f5ec 28bd ef67 b8bc
00000270: 3897 5a3b 9ae6 e83d 997d e9bd 1fd7 9abd
00000280: 0281 823d 5f0e 5c3d 5a7c 033e 3670 0dbd
00000290: 88d5 a63d 294c 23ba dad7 babd 5329 98bd
000002a0: 961d 9abd 2867 7e3d f922 c6bc 037d db3d
000002b0: 25ed e5bb 93fa 803d b4fe 90bd 7dcf e7bd
000002c0: 9a88 b93d 7f92 6b3c 0516 0e3a 6e90 103d
000002d0: ea24 de3c 1256 713d d108 9b3d 3075 0a3d
000002e0: 1acb 503c c2df e1bd 7612 9dbd 49f4 97bd
000002f0: cccc 3bbd 2b2b 88bc efb1 e43d d6a6 fe3d
00000300: 5c86 f7bd 4905 1bbd 216d f4bd 01a2 ee3d
00000310: 3732 1d3d db98 f1bd 713a e83d da7b 753c
00000320: ff10 ef3d a4f9 ecbd 8c5f c5bd 194a 01be
00000330: f166 76bd 6c14 c03d 1a8f 8dbd 4694 cbbd
00000340: 45a1 96bd 357b 11bd ad2e e23d f1e7 c3bc
00000350: 3bed ebbd 3b56 803c 87f5 f7bd bb6d 743d
00000360: c4f7 09bd 3431 84bd 9a26 243d c1a6 b6bd
00000370: 06e6 3fbd a4a5 bc3d 1939 533d d667 cbbd
00000380: b6f3 a53d 3e27 99bd 47ab a0bd ca06 c43d
00000390: ae22 203d 57c9 2dbc 9c27 efbd 80c3 cbbb
000003a0: 7e14 de3d f9b0 7abd 65c8 c4bd 6ab3 b5b9
000003b0: 5f62 0a3c 0851 043d 4609 d5bb fb1b 753d
000003c0: de94 dbbd 2060 d7bd a8ab ef3d 2045 c93d
000003d0: fe06 9cbb c440 7fbb e156 c53d 9080 f03d
000003e0: 06ff d0bd c0bf 3abd cf72 9d3c 5f71 efbd
000003f0: 0c00 6ebd 5cc8 dfbd 8ae5 00be 05a3 153c

bias f4 [32]
0.09962979 0.050440773 0.055975836 0.067069724 -0.036828376 -0.0046823607 0.09344952 0.03403487
-0.011815548 0.029251656 0.11204489 -0.069597706 -0.046368383 -0.08516936 -0.064852275 -0.09818365
-0.11950778 -0.015813977 -0.017881839 -0.035552025 0.065994374 -0.11403288 0.091658875 0.051982213
0.10304827 -0.014267285 -0.04867782 0.109471284 -0.10973173 -0.09534162 -0.045889586 0.0312609
00000000: b40a cc3d fc9a 4e3d eb46 653d da5b 893d
00000010: 5ad9 16bd 7d6e 99bb 7662 bf3d 2668 0b3d
00000020: 0096 41bc 2ba1 ef3c cb77 e53d 3e89 8ebd
00000030: c6ec 3dbd 466d aebd 45d1 84bd 8214 c9bd
00000040: 7fc0 f4bd 508c 81bc ef7c 92bc 009f 11bd
00000050: 0f28 873d 128a e9bd a6b7 bb3d 4deb 543d
00000060: f90a d33d 55c1 69bc 6562 47bd 7b32 e03d
00000070: 07bb e0bd 7842 c3bd b8f6 3bbd 6e0b 003d

weight f4 [32, 32, 2, 2]
0.08786513 0.03232995 -0.03450111 0.032130003 -0.023633325 0.074288756 -0.068635195 0.088255115
0.060953543 -0.011996341 0.058399543 -0.040006477 -0.013815166 -0.029372796 -0.024017958 -0.058760848
0.04636181 -0.014895809 0.021750411 0.019681659 0.06913519 0.054562796 -0.06039549 0.0676906
-0.04231174 0.043179534 -0.0116947405 -0.0819906 -0.021697804 0.08049069 0.026536638 0.05943733
0.002571432 -0.08336357 0.06143097 0.06188352 -0.04329369 0.028665857 0.06210963 -0.07554855
-0.014977688 0.047168676 -0.047023524 -0.07698119 0.038889583 0.041974925 0.045298953 -0.030989472
0.02102612 -0.023122014 0.014447551 -0.0775812 -0.08286754 -0.08109617 -0.014512139 -0.052932594
-0.03702792 -0.045412745 0.011145608 0.02642967 0.06081412 -0.064270996 -0.066185504 0.08043294
0.055703226 0.040750314 -0.028163364 -0.014588587 0.08810215 -0.0871972 -0.04115233 0.039654683
-0.050053533 0.032017466 0.051491793 -0.018338233 -0.013099828 0.016733933 -0.04737201 -0.011207321
-0.024217458 0.008760067 -0.054563172 -0.07324688 -0.021675872 0.08706263 -0.07552604 0.07890847
-0.015716823 0.025997292 0.0055579594 0.07197062 0.020151623 -0.048332494 -0.002824507 0.06928063
0.043512277 0.049295615 -0.03563137 -0.013542278 -0.041203313 -0.009190555 0.0722635 -0.0335711
0.038936615 -0.04629825 0.036066018 0.0016807662 0.033203434 -0.028131993 0.073762454 -0.08567091
0.031498156 -0.038696364 0.051008496 0.06914259 0.05095878 0.03607495 0.04653979 -0.07073585
0.025263172 -0.041560065 -0.015460585 -0.0029613627 -0.049903005 0.038669623 0.080547534 0.07686882
-0.023673126 0.07835385 -0.08440827 0.07028952 0.052445594 -0.051056232 -0.013466615 -0.006496733
0.016799463 -0.07697574 -0.0014625601 0.002659854 -0.02980779 -0.0140416315 -0.015318967 0.063034005
0.06126913 0.08658995 -0.057959154 0.04503911 -0.04988717 -0.0017334062 -0.08072527 -0.03334318
-0.05402274 0.04910559 0.029689427 0.010837392 -0.059632912 -0.05085384 -0.08308186 -0.006221453
-0.054928154 0.07211922 -0.07385136 -0.070652254 0.043814328 0.04306577 0.042449884 0.017414507
-0.08783342 0.010783601 -0.08601814 0.022137245 0.01244406 -0.08588232 -0.041156854 0.08063462
0.06784101 -0.04525995 -0.015867094 -0.041258983 -0.0024917847 -0.056702513 0.011460539 0.02871882
-0.006319018 -0.066591166 0.05829253 0.044554915 0.05079989 0.07642465 0.08251294 -0.048629254
-0.016117146 0.07920077 -0.07541756 0.077689074 -0.035834588 0.033239722 0.06462429 -0.024459364
0.07129102 0.012192383 -0.012853808 -0.0133143645 0.024621109 -0.008023283 0.06062862 0.081767015
-0.0031624069 -0.040076397 0.078900725 0.027608223 0.0056667067 0.075824305 -0.08625515 0.008566694
0.06861206 -0.073467866 0.029204054 0.07265583 -0.07267909 0.0062311767 -0.018085513 -0.059508953
0.06151108 0.05049972 -0.06589831 -0.0007212563 -0.08564625 0.0031380353 0.045798097 -0.056463197
0.06566852 0.006183906 -0.081047334 -0.08452087 0.074291795 0.0013267266 -0.0073959413 -0.036421154
0.023192206 0.0017334446 -0.0018844584 -0.007841615 -0.06132409 0.041056253 0.0010573174 0.03716987
-0.05620746 0.030599482 -0.05467269 -0.03768077 0.060914237 -0.023795145 -0.04682714 0.07737748
00000000: a2f2 b33d 696c 043d 0951 0dbd c09a 033d
00000010: ad9a c1bc b424 983d 9c90 8cbd 19bf b43d
00000020: 6caa 793d 4d8c 44bc 5c34 6f3d d5dd 23bd
00000030: 0259 62bc 389f f0bc 4fc1 c4bc 37af 70bd
00000040: e2e5 3d3d 8d0d 74bc eb2d b23c 6e3b a13c
00000050: c096 8d3d 3d7d 5f3d 4361 77bd 5fa1 8a3d
00000060: 134f 2dbd 06dd 303d 4c9b 3fbc b0ea a7bd
00000070: 98bf b1bc 4ed8 a43d 5d63 d93c 8f74 733d
00000080: 7885 283b 85ba aabd 0a9f 7b3d 9379 7d3d
00000090: b954 31bd a9d4 ea3c ab66 7e3d 33b9 9abd
000000a0: fa64 75bc f133 413d bd9b 40bd 50a8 9dbd
000000b0: af4a 1f3d e6ed 2b3d 658b 393d a2dd fdbc
000000c0: f83e ac3c 616a bdbc 6cb5 6c3c e4e2 9ebd
000000d0: 75b6 a9bd c015 a6bd 53c4 6dbc d9cf 58bd
000000e0: 97aa 17bd b702 3abd 119c 363c 0983 d83c
000000f0: 3a18 793d 83a0 83bd 448c 87bd 06ba a43d
00000100: 1129 643d cde9 263d dbb6 e6bc f804 6fbc
00000110: e66e b43d 7294 b2bd 588f 28bd f36c 223d
00000120: ef04 4dbd bf24 033d 0fe9 523d 103a 96bc
00000130: a9a0 56bc 9a15 893c 2709 42bd e99e 37bc
00000140: b163 c6bc 6286 0f3c a27d 5fbd 7602 96bd
00000150: 9991 b1bc e44d b23d 65ad 9abd c49a a13d
00000160: 91c0 80bc 46f8 d43c 8b1f b63b 5565 933d
00000170: 0415 a53c 4bf8 45bd 5d1b 39bb 01e3 8d3d
00000180: ee39 323d 33ea 493d 33f2 11bd 6ee0 5dbc
00000190: cec4 28bd fb93 16bc e3fe 933d da81 09bd
000001a0: 007c 1f3d 3ca3 3dbd f6b9 133d 284d dc3a
000001b0: 5300 083d 1175 e6bc c510 973d 3b74 afbd
000001c0: 3604 013d 1480 1ebd 49ee 503d a19a 8d3d
000001d0: 27ba 503d 54c3 133d 82a0 3e3d f5dd 90bd
000001e0: b6f4 ce3c e33a 2abd 654e 7dbc 6c13 42bb
000001f0: 1867 4cbd 0a64 1e3d 1bf6 a43d 666d 9d3d
00000200: 25ee c1bc fc77 a03d 3ede acbd f4f3 8f3d
00000210: 31d1 563d 5720 51bd 14a3 5cbc 8ce2 d4bb
00000220: 079f 893c 75a5 9dbd 60b3 bfba f250 2e3b
00000230: 772f f4bc df0e 66bc 68fc 7abc f917 813d
00000240: 57f5 7a3d 1256 b13d 9466 6dbd ee7a 383d
00000250: 7d56 4cbd 7633 e3ba 4a53 a5bd dc92 08bd
00000260: f346 5dbd f122 493d 3e37 f33c 518f 313c
00000270: a441 74bd 1e4c 50bd d226 aabd 55dd cbbb
00000280: 58fc 60bd 3eb3 933d 623f 97bd 21b2 90bd
00000290: a776 333d bc65 303d eedf 2d3d dea8 8e3c
000002a0: 02e2 b3bd b3ad 303c 472a b0bd 2b59 b53c
000002b0: 2ce2 4b3c 12e3 afbd 1794 28bd c323 a53d
000002c0: 3af0 8a3d 7f62 39bd b5fb 81bc 2eff 28bd
000002d0: 364d 23bb e540 68bd fcc4 3b3c bb43 eb3c
000002e0: c40f cfbb f360 88bd 26c4 6e3d 377f 363d
000002f0: 8c13 503d 8784 9c3d 8bfc a83d 782f 47bd
00000300: 1b08 84bc 0334 a23d 8674 9abd 731b 9f3d
00000310: 4ac7 12bd 6026 083d bd59 843d 015f c8bc
00000320: 0701 923d 90c2 473c c798 52bc 7e24 5abc
00000330: 35b2 c93c 1774 03bc b755 783d 7775 a73d
00000340: 6240 4fbb 2627 24bd b496 a13d a42a e23c
00000350: c8af b93b c649 9b3d 8aa6 b0bd 525b 0c3c
00000360: 7b84 8c3d 5276 96bd 573d ef3c 94cc 943d
00000370: c6d8 94bd e62e cc3b 1228 94bc a9bf 73bd
00000380: 0bf3 7b3d cbd8 4e3d b1f5 86bd b112 3dba
00000390: 4d67 afbd 7fa7 4d3b c996 3b3d f445 67bd
000003a0: 387d 863d 5da2 ca3b 25fc a5bd 4719 adbd
000003b0: 4c26 983d 8fe5 ad3a a759 f2bb 592e 15bd
000003c0: 95fd bd3c c034 e33a eeff f6ba 1e7a 00bc
000003d0: f82e 7bbd 9a2a 283d af95 8a3a 6f3f 183d
000003e0: cb39 66bd c4ab fa3c 78f0 5fbd 2757 1abd
000003f0: 3581 793d 09ee c2bc d1cd 3fbd 1678 9e3d

bias f4 [32]
-0.051430885 0.06257505 -0.057369888 0.09766888 -0.0329143 -0.01881524 0.065031104 0.065501794
-0.031996347 0.024704535 -0.048787754 0.07460654 0.050578225 0.07568825 0.030055212 -0.05600279
-0.03318351 -0.09347564 0.02237406 -0.09332665 0.08173988 0.06721711 -0.071090244 -0.055106204
0.06477184 -0.06324602 0.08548142 0.045368765 -0.059805833 -0.056294303 -0.061305437 0.07675612
00000000: 31a9 52bd 5927 803d b0fc 6abd 9f06 c83d
00000010: 25d1 06bd 6b22 9abc 072f 853d ce25 863d
00000020: 9a0e 03bd 2a61 ca3c abd5 47bd 50cb 983d
00000030: 1d2b 4f3d 7102 9b3d 5936 f63c 2e63 65bd
00000040: 6feb 07bd 2870 bfbd ce49 b73c 0b22 bfbd
00000050: 3d67 a73d 20a9 893d c397 91bd 0bb7 61bd
00000060: 19a7 843d 2187 81bd e210 af3d 99d4 393d
00000070: f6f6 74bd db94 66bd 691b 7bbd 5032 9d3d

weight f4 [64, 32, 2, 2]
0.002008589 -0.017206643 0.009071978 -0.04923636 -0.06299868 0.05611525 0.011159595 0.05689816
0.059915353 0.043415442 0.024426635 0.04029642 0.080742545 0.04095305 0.06538576 0.044792686
-0.039809357 -0.032890256 0.07192091 0.0764499 -0.034200806 0.06534801 -0.08780341 -0.04265352
-0.07923864 -0.033503428 0.045673735 -0.00025385854 -8.172636e-05 -0.085305445 -0.07708347 -0.05303735
-0.080190115 -0.023218406 0.0075299926 -0.039369404 0.072275944 0.032877523 0.03970223 -0.05766356
-0.036026705 0.0037301595 -0.027450187 0.08068989 0.08593358 0.08891428 -0.05911737 0.07633888
-0.037872437 -0.009302741 -0.018580344 0.0639472 0.024263771 -0.02206806 -0.0058421907 -0.011622303
-0.010981213 0.007752094 -0.082228385 0.055633638 0.07484237 -0.036377467 -0.004140932 -0.06862631
0.06077381 0.050059248 0.0073262644 0.003681238 0.007467016 0.043326102 0.05673822 0.04058544
0.04307561 -0.057538044 -0.023725782 -0.054344382 0.013062867 -0.034844298 0.04411927 0.015761215
-0.014071127 0.06930482 -0.08022872 -0.08004424 0.04294946 -0.009625599 0.05683478 0.03256452
-0.05407237 -0.052834775 -0.03176557 0.051500425 0.07758408 -0.08222375 0.03926936 -0.063683994
-0.014229878 -0.07117607 -0.004657131 0.07032933 -0.06742009 0.02981753 -0.07778864 0.07846801
-0.08537168 -0.04427852 -0.084134564 -0.039186507 0.037139967 0.06445686 0.05065096 0.0045792176
-0.08404497 0.04186527 -0.07710311 -0.08199105 0.050800864 0.0065627764 -0.021560887 0.0020627023
0.051920347 0.011714628 -0.030941408 -0.06555664 -0.0026114197 -0.065742694 0.060779396 -0.061866146
-0.022046182 -0.03159885 -0.075216696 0.021280918 0.095983915 0.085379526 -0.07351883 -0.03534682
0.024909284 0.07604744 0.0058732335 -0.07715955 -0.030122884 -0.015798911 0.08968265 -0.07790286
-0.011652352 -0.05905033 0.058019493 0.07149612 -0.03990053 -0.05365952 -0.010710735 -0.03654318
-0.043648325 -0.058080975 0.060695224 0.07301756 0.042631965 -0.075594075 0.08216488 -0.01601715
-0.020504111 -0.013975158 -0.079504356 -0.06289687 0.04019176 0.00296191 0.05270235 -0.06775849
0.048635952 0.07751471 -0.08508464 0.07543007 0.08468279 0.027511375 -0.03963375 -0.039488655
0.015262912 -0.07132887 -0.074321 0.0482491 -0.018632036 0.06615409 0.020035965 -0.06527115
0.047474496 0.013859775 0.035330664 -0.0020505914 -0.08845158 0.030772792 -0.043132342 0.0042075287
0.07939989 -0.0025699793 0.046807826 -0.011406927 0.072052866 0.029986762 0.058443062 -0.07394279
-0.07205907 -0.057828538 0.06606946 0.04271361 -0.056571074 -0.035956357 -0.05326669 -0.019432992
-0.054001074 -0.010910315 0.045527298 -0.022536788 0.07496972 0.07497977 0.03437109 0.082223706
0.03391437 -0.06933013 -0.05823292 0.059993014 -0.02446361 0.014106115 -0.018618008 -0.004464725
0.066996664 0.03275112 0.09449092 0.06962824 0.009930761 0.0127455145 -0.09545681 0.07922703
-0.07449786 0.005677033 -0.054358337 0.07269194 -0.040422224 0.035717882 -0.0798929 -0.04500253
-0.014886564 0.055564668 -0.057951134 -0.07609525 0.037714016 -0.033225458 -0.057057533 0.068203695
-0.0040188665 0.041931514 -0.082979545 -0.06947255 0.09477672 -0.03894451 0.0767395 0.059340704
00000000: 88a2 033b f2f4 8cbc a2a2 143c 11ac 49bd
00000010: 7405 81bd 1bd9 653d bcd6 363c 0c0e 693d
00000020: cd69 753d 64d4 313d 5e1a c83c dc0d 253d
00000030: 595c a53d 63be 273d f8e8 853d 8978 373d
00000040: 230f 23bd efb7 06bd 454b 933d c491 9c3d
00000050: 2516 0cbd 2dd5 853d 46d2 b3bd 75b5 2ebd
00000060: de47 a2bd e43a 09bd 6214 3b3d 5118 85b9
00000070: 8164 abb8 9fb4 aebd f0dd 9dbd b13d 59bd
00000080: b73a a4bd 8734 bebc 28be f63b d041 21bd
00000090: 6905 943d 95aa 063d ce9e 223d a030 6cbd
000000a0: bd90 13bd b175 743b 37df e0bc be40 a53d
000000b0: f2fd af3d b118 b63d 0e25 72bd 8f57 9c3d
000000c0: 2120 1bbd 866a 18bc ce35 98bc c0f6 823d
000000d0: d1c4 c63c 13c8 b4bc d96f bfbb 796b 3ebc
000000e0: 8cea 33bc 4705 fe3b 5b67 a8bd 19e0 633d
000000f0: f546 993d 8a00 15bd a8b0 87bb f38b 8cbd
00000100: f5ed 783d ed0a 4d3d 2911 f03b ed40 713b
00000110: dfad f43b b676 313d 5666 683d eb3c 263d
00000120: 0d70 303d 03ad 6bbd 925c c2bc 3798 5ebd
00000130: a305 563c e5b8 0ebd 68b6 343d aa1d 813c
00000140: 968a 66bc afef 8d3d f54e a4bd 3cee a3bd
00000150: c6eb 2f3d b0b4 1dbc 96cb 683d 6062 053d
00000160: fd7a 5dbd 4769 58bd 9d1c 02bd 1cf2 523d
00000170: 67e4 9e3d ed64 a8bd e9d8 203d c16c 82bd
00000180: 6f24 69bc c2c4 91bd d99a 98bb d308 903d
00000190: 8b13 8abd e543 f43c a74f 9fbd d6b3 a03d
000001a0: 59d7 aebd 655d 35bd be4e acbd 0882 20bd
000001b0: 1420 183d f501 843d 6277 4f3d 430d 963b
000001c0: c51f acbd eb7a 2b3d 3ce8 9dbd ecea a7bd
000001d0: 9114 503d 8f0c d73b 75a0 b0bc 672e 073b
000001e0: 6eaa 543d b6ee 3f3c d678 fdbc 8f42 86bd
000001f0: 5a24 2bbb 1ba4 86bd d1f3 783d 5b67 7dbd
00000200: 329a b4bc cc6d 01bd 360b 9abd 5255 ae3c
00000210: 3793 c43d 76db ae3d 0a91 96bd d4c7 10bd
00000220: 8e0e cc3c c3be 9b3d 4174 c03b d305 9ebd
00000230: 44c4 f6bc b86c 81bc 8aab b73d 898b 9fbd
00000240: 82e9 3ebc c2de 71bd d9a5 6d3d 8f6c 923d
00000250: bd6e 23bd 16ca 5bbd 147c 2fbc 4dae 15bd
00000260: 96c8 32bd 51e6 6dbd 8e9b 783d 3b8a 953d
00000270: db9e 2e3d 11d1 9abd 1046 a83d 6636 83bc
00000280: 3df8 a7bc 10f8 64bc 2ed3 a2bd 13d0 80bd
00000290: 1da0 243d 9b1c 423b 6bde 573d f7c4 8abd
000002a0: 7e36 473d 08c0 9e3d db40 aebd 157b 9a3d
000002b0: 2c6e ad3d 895f e13c 0057 22bd dbbe 21bd
000002c0: 4b11 7a3c df14 92bd 9c35 98bd d9a0 453d
000002d0: 36a2 98bc cc7b 873d 7722 a43c e1ac 85bd
000002e0: 9e74 423d 1c14 633c e3b6 103d 3763 06bb
000002f0: 1a26 b5bd 3917 fc3c 8aab 30bd 4fdf 893b
00000300: 699c a23d 196d 28bb 90b9 3f3d 1fe4 3abc
00000310: 7490 933d cca6 f53c fe61 6f3d 516f 97bd
00000320: b593 93bd 9edd 6cbd 6d4f 873d 77f4 2e3d
00000330: 12b7 67bd f946 13bd 2c2e 5abd f031 9fbc
00000340: 3b30 5dbd 2ec1 32bc d57a 3a3d 129f b8bc
00000350: b989 993d fe8e 993d b3c8 0c3d e764 a83d
00000360: cbe9 0a3d f5fc 8dbd a485 6ebd 3cbb 753d
00000370: e967 c8bc 561d 673c cb84 98bc d44c 92bb
00000380: 8c35 893d 0a26 063d 7584 c13d 4099 8e3d
00000390: a1b4 223c 90d2 503c dc7e c3bd c841 a23d
000003a0: 5692 98bd 6806 ba3b d9a6 5ebd 83df 943d
000003b0: c691 25bd ea4c 123d e49e a3bd 9354 38bd
000003c0: c6e6 73bc c797 633d 2b5e 6dbd d4d7 9bbd
000003d0: 037a 1a3d 6b17 08bd 29b5 69bd 61ae 8b3d
000003e0: b2b0 83bb 61c0 2b3d 2ef1 a9bd a047 8ebd
000003f0: 4c1a c23d 4784 1fbd 9929 9d3d 3d0f 733d

bias f4 [64]
-0.051380012 0.07858435 -0.056133617 0.016789889 -0.01497567 -0.058269028 -0.004312774 -0.043325983
0.05059189 0.0077910763 0.06675382 -0.085357584 -0.03621348 0.049485434 0.029496536 -0.04130387
-0.03745114 -0.078292936 0.08583012 -0.057280336 -0.056753006 0.0116902925 0.09901286 -0.08645278
0.009153647 0.083608195 0.03217616 0.074747704 -0.08297758 0.0042657037 -0.06379293 0.006800288
0.063580476 -0.07254718 -0.05495765 0.04353936 0.024622934 0.095873766 -0.08384995 0.026503375
-0.07438494 0.0261352 0.07176245 0.056737658 -0.085703395 0.021788547 -0.023160474 -0.0015694011
0.039202373 -0.06941373 -0.06657754 -0.078708924 0.022279553 -0.0791991 0.08631805 0.0104315765
0.088939026 -0.048001662 0.06306053 0.07791174 0.03654196 -0.08451594 -0.019914448 0.03765068
00000000: d973 52bd d5f0 a03d 5dec 65bd f38a 893c
00000010: 835c 75bc 81ab 6ebd 2c52 8dbb 9676 31bd
00000020: 7139 4f3d 494c ff3b 3ab6 883d f5cf aebd
00000030: 9654 14bd 3db1 4a3d b8a2 f13c 3f2e 29bd
00000040: 5e66 19bd 0c58 a0bd b4c7 af3d c99e 6abd
00000050: d775 68bd a488 3f3c 41c7 ca3d 280e b1bd
00000060: 2ef9 153c c63a ab3d 26cb 033d 5315 993d
00000070: 26f0 a9bd 51c7 8b3b dea5 82bd f3d4 de3b
00000080: 7b36 823d 9e93 94bd 461b 61bd 5456 323d
00000090: 09b6 c93c 7759 c43d 86b9 abbd 9b1d d93c
000000a0: 2257 98bd 7d19 d63c 31f8 923d bf65 683d
000000b0: 4385 afbd e57d b23c 09bb bdbc 5db4 cdba
000000c0: ab92 203d c928 8ebd ce59 88bd 2532 a1bd
000000d0: 9c83 b63c 2333 a2bd 85c7 b03d 34e9 2a3c
000000e0: aa25 b63d 649d 44bd e125 813d 3190 9f3d
000000f0: 06ad 153d b116 adbd a023 a3bc 9937 1a3d

weight f4 [64, 64, 2, 2]
-0.013093959 0.062115595 -0.016227694 -0.005059471 -0.025310723 0.055139486 0.0034851104 0.01992982
0.05121675 -0.04977285 0.0065760612 -0.013195477 -0.034956224 -0.05463058 -0.041829944 0.02481662
-0.047000624 0.02782087 -0.05880942 0.054771043 0.0038110912 -0.042983897 0.0517051 0.060642198
0.03996644 -0.02936897 -0.0347956 -0.01288653 -0.046038497 -0.053075835 -0.053341202 0.037280936
0.040192563 0.00037928362 0.03656085 -0.0258973 0.02982944 -0.052113406 0.055195965 0.010853675
-0.037803337 0.05961984 -0.035718154 -0.00012458091 -0.027025104 0.01611264 -0.03886064 -0.048236676
-0.004212791 0.0042390167 0.022172282 0.03886684 -0.0008327387 0.033245463 -0.03430887 0.00032440864
0.047685165 -0.0018275906 -0.0011876922 0.06275725 -0.012167186 -0.0021383986 -0.05899176 -0.0064356253
-0.055014312 0.018932752 0.054555282 0.018772721 0.008309588 0.011735663 0.057478808 -0.03200318
-0.033458926 0.011762713 -0.03563468 -0.011957756 -0.01635021 0.02697584 -0.024645321 -0.04790382
-0.025865525 0.025994636 0.04016684 0.0050695688 -0.051499814 -0.027845018 -0.0037061747 -0.0059924168
0.009021296 0.05423547 0.022885622 0.043388892 -0.012926444 -0.036845542 -0.054352768 0.0051687583
0.038037978 0.0430205 -0.039450757 -0.0411901 0.04664483 0.036847908 0.045396075 -0.04169515
0.03592847 -0.025927385 0.039598733 -0.034241654 -0.05184083 0.008316225 0.056249548 -0.048668038
-0.056033857 0.042136393 0.0016502365 -0.031456396 -0.01584781 0.026619777 0.05135654 0.05842329
0.040213905 0.02306959 0.012948282 -0.035161085 0.005124916 -0.04468388 -0.00035573944 0.011765262
0.0023661884 0.039715428 0.030266328 -0.034781747 0.051973045 -0.033121146 -0.021373756 0.04890663
-0.019865235 0.052935187 0.044423938 0.003899191 0.04078872 0.022342773 0.037440255 -0.026701223
0.028754469 -0.01382877 -0.014471376 -0.025349513 0.041542344 -0.0076378123 -0.051081464 -0.024548937
0.057119437 -0.031685144 0.043591887 0.051508702 0.011077766 -0.012811771 0.02187859 -0.006674999
0.058484063 -0.003862761 0.044479392 -0.06189897 0.0066205673 -0.033596292 -0.045400307 0.023106154
0.012649181 -0.046539806 0.0050147944 0.0026516202 -0.04712545 0.057970304 -0.05178443 0.052701145
-0.00223317 -0.03936448 0.025442697 -0.035955377 0.029143792 -0.0054340223 0.0512735 -0.041672222
-0.022919295 0.032338563 -0.041748554 -0.019046903 -0.037425235 0.004635848 0.008525357 0.002651155
-0.017382814 -0.039579496 -0.014233775 -0.032262094 -0.026365861 -0.0032023042 -0.04376954 -0.007549152
0.0030997247 -0.0048011914 0.024647392 0.03955143 -0.017033935 0.0057731494 0.049341768 -0.022347264
-0.0055996785 -0.0377682 -0.0088046035 0.048042204 -0.03804519 -0.05451788 0.057029635 0.040405303
0.05179187 -0.035484437 0.0078714 -0.052069716 0.040835217 -0.03945657 -0.011900529 -0.039955556
-0.023716098 -0.034531996 0.015263343 0.034546252 -0.051643666 0.01095655 -0.03088133 0.053737976
-0.03153263 0.014952433 -0.05368993 -0.051011 -0.012505699 0.0058348463 -0.009891179 0.04529681
0.014618754 0.02876582 -0.061338015 0.019830845 0.045319356 -0.038997594 0.061160497 0.0067847557
0.04411567 -0.00023420155 0.0077620298 0.019802153 0.0364655 0.027655069 -0.036434665 -0.011209687
00000000: 0b88 56bc ec6c 7e3d f1ef 84bc ebc9 a5bb
00000010: 6f58 cfbc f1d9 613d 7366 643b dd43 a33c
00000020: a8c8 513d 9ede 4bbd 007c d73b d831 58bc
00000030: 422e 0fbd 51c4 5fbd e055 2bbd 394c cb3c
00000040: ba83 40bd 98e8 e33c 25e2 70bd 9a57 603d
00000050: 80c3 793b e20f 30bd bac8 533d f463 783d
00000060: dab3 233d 3297 f0bc d585 0ebd 0622 53bc
00000070: dd92 3cbd 0c66 59bd 4e7c 5abd e5b3 183d
00000080: f5a0 243d 96da c639 d4c0 153d 9326 d4bc
00000090: df5c f43c de74 55bd 2a15 623d 9dd3 313c
000000a0: acd7 1abd ef33 743d 334d 12bd efa1 02b9
000000b0: c063 ddbc a8fe 833c 562c 1fbd d293 45bd
000000c0: 740b 8abb 73e7 8a3b a5a2 b53c d632 1f3d
000000d0: 264c 5aba 652c 083d 7587 0cbd 6415 aa39
000000e0: 8551 433d c48b efba 56ac 9bba e086 803d
000000f0: e058 47bc 6024 0cbb 58a1 71bd f0e1 d2bb
00000100: b056 61bd dc18 9b3c 5c75 5f3d 40c9 993c
00000110: f024 083c f046 403c e66e 6b3d c415 03bd
00000120: 3a0c 09bd 65b8 403c acf5 11bd 77ea 43bc
00000130: e0f0 85bc 70fc dc3c fce4 c9bc cc36 44bd
00000140: f0e3 d3bc b4f2 d43c fc85 243d a01e a63b
00000150: 78f1 52bd 3c1b e4bc 4be3 72bb 095c c4bb
00000160: 0fce 133c 0326 5e3d a17a bb3c 8db8 313d
00000170: 70c9 53bc 5aeb 16bd 02a1 5ebd b05e a93b
00000180: b6cd 1b3d 4436 303d 1e97 21bd f3b6 28bd
00000190: a60e 3f3d d5ed 163d 3cf1 393d 89c8 2abd
000001a0: bb29 133d ab65 d4bc 4832 223d fa40 0cbd
000001b0: 0d57 54bd c740 083c ed65 663d 2358 47bd
000001c0: c283 65bd 3697 2c3d c04c d83a 6cd8 00bd
000001d0: 44d3 81bc b811 da3c 3c5b 523d 424d 6f3d
000001e0: 56b7 243d 70fc bc3c 0825 543c 1205 10bd
000001f0: e9ee a73b 7206 37bd 8a82 bab9 16c3 403c
00000200: 0e12 1b3b a5ac 223d 17f1 f73c 4e77 0ebd
00000210: b0e1 543d 0aaa 07bd 0418 afbc 5252 483d
00000220: 6bbc a2bc 91d2 583d e0f5 353d 9289 7f3b
00000230: 1312 273d 3108 b73c f45a 193d 86bc dabc
00000240: 7e8e eb3c 1192 62bc 5a19 6dbc c8a9 cfbc
00000250: 4e28 2a3d 9d46 fabb cc3a 51bd da1a c9bc
00000260: 12f6 693d 48c8 01bd 688d 323d cafa 523d
00000270: 857f 353c 76e8 51bc bb3a b33c f3b9 dabb
00000280: fc8c 6f3d 6026 7dbb 0630 363d c689 7dbd
00000290: 58f1 d83b 449c 09bd acf5 39bd 1e49 bd3c
000002a0: 833e 4f3c 86a0 3ebd 2553 a43b cec6 2d3b
000002b0: 9e06 41bd 4572 6d3d e91b 54bd 28dd 573d
000002c0: 605a 12bb a63c 21bd 346d d03c f245 13bd
000002d0: f6be ee3c e20f b2bb 2904 523d 7eb0 2abd
000002e0: 3fc1 bbbc 7175 043d 8800 2bbd 4008 9cbc
000002f0: 344b 19bd 50e8 973b f0ad 0b3c 00bf 2d3b
00000300: 6766 8ebc 1c1e 22bd c834 69bc 4225 04bd
00000310: 38fd d7bc c0dd 51bb b047 33bd e05e f7bb
00000320: c024 4b3b 5053 9dbb 54e9 c93c ae00 223d
00000330: c08a 8bbc b02c bd3b 981a 4a3d 9c11 b7bc
00000340: 827d b7bb d4b2 1abd 2f41 10bc e7c7 443d
00000350: 46d5 1bbd 244e 5fbd e897 693d 0880 253d
00000360: b623 543d 2158 11bd 0bf7 003c 0e47 55bd
00000370: d442 273d 369d 21bd 70fa 42bc 70a8 23bd
00000380: 4348 c2bc 6c71 0dbd 1a13 7a3c 5f80 0d3d
00000390: 4f88 53bd 1a83 333c d8fa fcbc 5a1c 5c3d
000003a0: 5c28 01bd 0dfb 743c f9e9 5bbd e9f0 50bd
000003b0: b4e4 4cbc 3d32 bf3b 9d0e 22bc 2689 393d
000003c0: 8083 6f3c 4ca6 eb3c 923d 7bbd 4c74 a23c
000003d0: caa0 393d f1bb 1fbd 6e83 7a3d a852 de3b
000003e0: a2b2 343d 0094 75b9 a058 fe3b 2038 a23c
000003f0: d95c 153d e28c e23c 843c 15bd d6a8 37bc

bias f4 [64]
0.037836928 0.036885645 0.06353427 0.048914917 -0.03190682 0.018092351 -0.049890928 0.06931236
-0.044989266 0.020095654 -0.015004988 0.04832458 -8.8518354e-05 0.057814423 -0.03828838 -0.05647148
-0.0093214 -0.05324388 0.06064029 0.015419117 -0.04014297 -0.012538649 0.024403477 -0.05429016
-0.027545117 -0.04653964 -0.056736436 0.024144476 -0.060174502 0.016552866 0.046235427 0.06508475
-0.02345545 -0.022718025 0.032801695 0.008113806 -0.02383086 -0.055713344 0.050981198 0.0033260665
-0.051933613 0.057701245 0.03540697 0.043288622 0.03480018 0.04675275 0.039013937 0.026207013
0.026962265 -0.030622188 0.049508624 0.007571322 0.026393307 -0.04443219 -0.052056916 0.015889991
-0.0025208534 -0.035458554 -0.011954742 0.055205215 -0.004251948 -0.051037233 0.061079323 -0.0059771603
00000000: e5fa 1a3d 6715 173d 411e 823d 025b 483d
00000010: bab0 02bd 6936 943c 6e5a 4cbd a3f3 8d3d
00000020: aa46 38bd a49f a43c 7bd7 75bc ffef 453d
00000030: eea2 b9b8 d1ce 6c3d 47d4 1cbd a34e 67bd
00000040: c9b8 18bc 4116 5abd f461 783d 77a0 7c3c
00000050: f46c 24bd e86e 4dbc cde9 c73c 5c5f 5ebd
00000060: 4ca6 e1bc 59a0 3ebd 7764 68bd a3ca c53c
00000070: 8a79 76bd e099 873c 5c61 3d3d 274b 853d
00000080: a525 c0bc 271b babc 125b 063d c5ef 043c
00000090: f038 c3bc ad33 64bd a9d1 503d 23fa 593b
000000a0: 57b8 54bd 2458 6c3d e606 113d 694f 313d
000000b0: a28a 0e3d d07f 3f3d 14cd 1f3d 17b0 d63c
000000c0: f8df dc3c 62db fabc 8ec9 4a3d da18 f83b
000000d0: c736 d83c 87fe 35bd a239 55bd ba2b 823c
000000e0: e734 25bb fd3c 11bd d2dd 43bc dd1e 623d
000000f0: ed53 8bbb 6b0c 51bd 502e 7a3d 0edc c3bb

weight f4 [64, 32, 2, 2]
-0.023475964 0.05777423 -0.08148019 -0.042365335 -0.021098074 0.024845181 0.09165476 -0.02633294
0.07099859 -0.025595954 0.06894586 0.024563367 0.0070622624 0.004234037 0.03835456 -0.025682723
0.03421234 -0.029138217 -0.036726207 -0.07048199 0.05304132 0.096420236 -0.0722154 -0.030343896
-0.030201947 0.0024972318 -0.04321495 0.061628066 0.024673736 6.603685e-05 -0.06493886 0.008226243
0.0035218666 -0.06386032 0.03807018 0.09208019 0.04701942 -0.003066943 0.07374237 -0.049664143
-0.07049023 -0.024452375 0.0069541363 -0.06903831 -0.0021119935 -0.06329543 0.017284516 0.060964834
-0.043395583 -0.04287232 -0.028294414 0.0015100584 -0.06765444 0.00073983776 0.00746296 -0.008370474
-0.0064709643 0.054315954 0.014412494 -0.018467132 0.04741788 0.07352247 -0.0045467718 0.017594257
-0.018356293 0.047800854 -0.07968945 -0.06140916 0.08780486 -0.045130692 0.053263593 -0.027398815
-0.014689707 -0.0044885776 -0.030782003 0.063114226 -0.023622403 -0.043477476 0.08335115 0.019876886
-0.0039180284 -0.08045314 0.009988388 -0.08031864 0.036074027 0.06404684 -0.037593175 -0.0486615
-0.060100485 -0.015659565 0.009099306 -0.0023780677 -0.06831361 0.08512142 -0.077144265 0.057322297
-0.008855268 0.0676856 -0.0065249368 0.05658182 -0.076661855 0.037771903 -0.04427501 0.08075268
-0.09309919 -0.052537702 -0.053932667 0.0018594471 -0.05784641 -0.03691706 -0.009382326 0.05900686
-0.009750964 -0.0024145178 0.0117629655 0.0431345 0.02369825 0.017607307 0.0042637624 -0.059375446
0.09411178 -0.03339185 0.0044184434 0.014946368 -0.0015510382 0.03481398 0.03246591 0.09758261
0.035595294 0.017553242 0.0036690827 0.03762492 0.042279094 -0.0054525384 -0.034718137 0.0919411
0.08128967 0.08733744 0.043224365 -0.04791912 -0.009567561 -0.07066253 0.047939427 0.08701578
0.09003275 -0.030798174 -0.015539648 0.050366398 -0.05906553 -0.0031029917 0.07298549 -0.04378634
0.041690495 0.08283236 -0.012490909 0.07923342 0.06401364 0.05982592 -0.0313134 -0.07763966
0.061983027 -0.0650627 0.008077266 0.019312656 0.08708402 0.06337039 -0.07578535 0.010163576
0.069724165 -0.018648652 -0.061628878 0.048610404 -0.08440359 -0.06351491 -0.097242706 0.018564338
-0.023646735 0.08161102 0.07603819 0.031085009 -0.0711967 -0.0431103 0.028662784 -0.07175467
-0.04198985 -0.007414576 0.03428929 -0.033833332 0.021218631 0.08512252 0.07050378 -0.048115183
-0.040490717 3.540214e-05 0.00589416 0.0626147 0.04720683 0.020284744 0.013138917 -0.07616438
0.051065158 -0.020180294 -0.062104415 0.0014789577 0.022779256 -0.08171776 0.026583627 -0.071974844
-0.028874723 -0.013426047 0.08276637 -0.049527515 -0.09522049 -0.054416224 -0.087374195 -0.089138344
0.025294876 0.06504459 -0.020962585 0.004291584 0.03128213 -0.034061015 0.087883696 0.073834345
0.069506064 0.042941757 -0.043539863 0.06702156 0.011264417 -0.06538251 -0.0055520227 0.061593235
-0.05705157 -0.05290154 -0.015633201 -0.051364336 0.0499321 -0.07458415 -0.0767965 0.0017645615
0.08642239 -0.06450309 0.08192473 0.011285774 -0.045630027 0.067226745 -0.09840172 0.033978797
-0.037290283 -0.0026093074 0.031577606 -0.0019135023 0.024739563 -0.02432608 0.012449408 0.042340327
00000000: aa50 c0bc aca4 6c3d 16df a6bd 4687 2dbd
00000010: ded5 acbc 1f88 cb3c 7eb5 bb3d 2eb8 d7bc
00000020: b567 913d 9bae d1bc 7d33 8d3d 1d39 c93c
00000030: 8d6a e73b adbd 8a3b ac19 1d3d 9364 d2bc
00000040: 3d22 0c3d 45b3 eebc 386e 16bd dd58 90bd
00000050: db41 593d f977 c53d abe5 93bd c393 f8bc
00000060: 136a f7bc 99a8 233b 2902 31bd b66d 7c3d
00000070: 9320 ca3c 447d 8a38 aafe 84bd 5dc7 063c
00000080: 1ecf 663b 33c9 82bd 7aef 1b3d 8a94 bc3d
00000090: 6f97 403d c4fe 48bb 3d06 973d a16c 4bbd
000000a0: 2f5d 90bd 5950 c8bc 86df e33b f563 8dbd
000000b0: 5f69 0abb 09a1 81bd 4298 8d3c 43b6 793d
000000c0: 91bf 31bd e39a 2fbd b0c9 e7bc 27ed c53a
000000d0: 698e 8abd acf1 413a d98b f43b 5024 09bc
000000e0: 620a d4bb 687a 5e3d 6222 6c3c 6248 97bc
000000f0: 4039 423d f392 963d 16fd 94bb d521 903c
00000100: f05f 96bc d4ca 433d 3934 a3bd 2c88 7bbd
00000110: 09d3 b33d f6da 38bd ed2a 5a3d 7b73 e0bc
00000120: 19ad 70bc eb14 93bb 8a2a fcbc 0842 813d
00000130: c583 c1bc 7015 32bd 02b4 aa3d dad4 a23c
00000140: ce62 80bb 9ec4 a4bd 56a6 233c 197e a4bd
00000150: 5cc2 133d fd2a 833d 4dfb 19bd 4851 47bd
00000160: ed2b 76bd 7d48 80bc 4115 153c 5bd9 1bbb
00000170: 02e8 8bbd 2454 ae3d d0fd 9dbd c9ca 6a3d
00000180: b015 11bc bf9e 8a3d 23cf d5bb 57c2 673d
00000190: e400 9dbd b6b6 1a3d b659 35bd a961 a53d
000001a0: caaa bebd c631 57bd 80e8 5cbd b1b8 f33a
000001b0: 5bf0 6cbd 5836 17bd 54b8 19bc 2db1 713d
000001c0: 82c2 1fbc e33c 1ebb 74b9 403c cdad 303d
000001d0: d522 c23c 333d 903c 08b7 8b3b ab33 73bd
000001e0: adbd c03d e4c5 08bd 97c8 903b 9ce1 743c
000001f0: 354c cbba 1b99 0e3d f9fa 043d 64d9 c73d
00000200: 5fcc 113d d1cb 8f3c fe74 703b 971c 1a3d
00000210: d82c 2d3d 35ab b2bb 9b34 0ebd 9e4b bc3d
00000220: 337b a63d f9dd b23d 080c 313d d746 44bd
00000230: 42c1 1cbc 84b7 90bd 225c 443d 5435 b23d
00000240: 1763 b83d 744c fcbc 029a 7ebc ff4c 4e3d
00000250: b2ee 71bd 905b 4bbb 6b79 953d 4e59 33bd
00000260: a7c3 2a3d 03a4 a93d aba6 4cbc 2245 a23d
00000270: 9519 833d 060c 753d 7b42 00bd 8b01 9fbd
00000280: eae1 7d3d 983f 85bd 8256 043c 9335 9e3c
00000290: 1b59 b23d 56c8 813d 5935 9bbd 2185 263c
000002a0: 8bcb 8e3d 0fc5 98bc 906e 7cbd b41b 473d
000002b0: cadb acbd 1b14 82bd 2f27 c7bd 3d14 983c
000002c0: ccb6 c1bc ae23 a73d e9b9 9b3d fda5 fe3c
000002d0: 93cf 91bd 6d94 30bd 37ce ea3c 1df4 92bd
000002e0: 8dfd 2bbd f9f5 f2bb ed72 0c3d d294 0abd
000002f0: b2d2 ad3c b754 ae3d 4964 903d 6d14 45bd
00000300: 98d9 25bd c27c 1438 cc23 c13b 233c 803d
00000310: f35b 413d 312c a63c 9d44 573c 12fc 9bbd
00000320: b329 513d 2551 a5bc 3361 7ebd 96d9 c13a
00000330: 909b ba3c a45b a7bd e8c5 d93c 8c67 93bd
00000340: af8a ecbc ecf8 5bbc 6a81 a93d 5ddd 4abd
00000350: f602 c3bd 8ce3 5ebd 3ef1 b2bd 2a8e b6bd
00000360: 3337 cf3c 1936 853d bab9 abbc 6aa0 8c3b
00000370: b121 003d 9083 0bbd 5efc b33d 7636 973d
00000380: 3259 8e3d b2e3 2f3d db56 32bd 9a42 893d
00000390: 648e 383c 44e7 85bd beed b5bb 3049 7c3d
000003a0: e8ae 69bd 49af 58bd 3311 80bc 6963 52bd
000003b0: 9a85 4c3d 93bf 98bd 7c47 9dbd dc48 e73a
000003c0: 39fe b03d 321a 84bd 27c8 a73d f8e7 383c
000003d0: 8de6 3abd 2dae 893d d786 c9bd 5a2d 0b3d
000003e0: b2bd 18bd ea00 2bbb 8557 013d 7cce faba
000003f0: a0aa ca3c 7d47 c7bc 9af8 4b3c 0d6d 2d3d

bias f4 [32]
-0.01245297 0.08783748 0.012935509 0.09604851 -0.067452475 0.05106162 -0.07783184 0.046024457
0.060998216 -0.049421266 -0.035607647 -0.007243755 0.073120676 -0.08934072 -0.06907065 0.03044714
-0.025268925 0.0756236 0.039869603 0.06610202 0.07351516 -0.07968614 -0.06237133 0.03536614
-0.077256426 -0.06737396 -0.0068647796 -0.033352528 0.022952482 -0.029865742 0.031531006 0.074603304
00000000: 8b07 4cbc 23e4 b33d 75ef 533c 15b5 c43d
00000010: 8624 8abd fd25 513d 4d66 9fbd 2484 3c3d
00000020: 44d9 793d f46d 4abd 53d9 11bd 055d edbb
00000030: 4bc0 953d 44f8 b6bd ea74 8dbd 486c f93c
00000040: c700 cfbc 8ce0 9a3d 4f4e 233d 7f60 873d
00000050: 1e8f 963d 7d32 a3bd 1479 7fbd 16dc 103d
00000060: 9e38 9ebd 5cfb 89bd f2f1 e0bb a99c 08bd
00000070: d806 bc3c 00a9 f4bc a826 013d 9ec9 983d
