output/binaire-1-3/unet_tgs_salt.pth (torch, 245847 bytes, 26 tensors)

weight f4 [16, 3, 2, 2]
0.12607864 0.23267734 0.169052 -0.0116286175 -0.06285573 0.24743527 -0.15731186 0.2612277
0.18560676 0.24304995 -0.18606316 -0.15796976 0.21332476 0.2004356 0.19824007 0.060591094
-0.19404376 0.09139788 0.14926386 0.29269698 0.14161667 -0.29096377 -0.27079427 0.060312115
-0.053955007 0.07383869 -0.25151986 -0.14382398 -0.19322374 0.13075916 -0.15596983 -0.0061860434
-0.08918829 -0.10668333 0.15930751 0.2267945 -0.08626407 0.17581286 -0.25336272 0.033251066
0.21437903 -0.2744479 -0.13564147 0.026609631 0.18614802 0.25887024 0.12705885 -0.2949027
0.12662941 -0.11268845 -0.23233381 0.27674162 -0.12841782 -0.14112286 -0.056107886 0.0024119306
-0.11375041 0.014916449 -0.068602726 -0.06637706 -0.049664542 0.087671496 -0.16589035 -0.13615656
0.02096027 -0.050282214 0.038931817 0.25008595 0.01439484 0.297839 -0.0938709 -0.1085527
-0.15308397 0.083799556 -0.09262363 0.18296348 0.16111228 -0.28871948 -0.15335606 -0.25695574
-0.19306247 0.27962452 0.05415908 -0.12140864 0.21363728 -0.06642601 0.119049296 -0.30264464
0.014440313 0.2124303 0.011842814 0.085902505 0.279893 0.05217554 0.0795135 0.056081183
0.10935317 0.24919575 -0.08443413 0.18565227 -0.00084971584 -0.028919155 0.09762696 -0.2630135
-0.10805865 -0.02460757 0.14183703 0.22246061 0.11489945 0.13373426 0.21962544 -0.26459143
0.035094894 -0.004243032 -0.011546162 0.021698209 0.045280375 0.062625945 0.31520677 0.05287098
-0.09737072 -0.15632422 -0.12829822 -0.20735827 0.120851405 -0.28230911 -0.08272741 -0.15528078
-0.06937034 -0.1795417 -0.21063058 -0.16728085 -0.10158876 -0.19957241 -0.26289174 -0.02255543
-0.068677194 0.071139805 -0.14310786 -0.15898818 0.086721286 -0.06803467 -0.09025957 -0.2655015
0.2584243 0.2392631 0.025626406 -0.16333596 -0.13261554 -0.2012929 0.19987337 0.051964153
0.22163963 0.1003107 -0.1589705 0.32051846 -0.15047874 -0.11571889 0.17466432 0.26035246
-0.08509469 0.22973818 -0.0030499168 -0.21911839 0.17841618 -0.008226793 0.22974074 -0.070285074
-0.17362976 -0.14915922 0.17290536 -0.086756706 0.04662166 -0.008017902 -0.018686464 0.14648998
-0.3302705 -0.23059973 -0.2805892 -0.19951715 -0.20960028 -0.08626647 -0.11066085 0.08656494
0.14167665 0.17684977 0.16158718 0.23144378 -0.12228645 0.14200465 -0.27398688 0.099244766
00000000: c21a 013e f842 6e3e f81b 2d3e f585 3ebc
00000010: 81ba 80bd ac5f 7d3e 5c16 21be a3bf 853e
00000020: b30f 3e3e 16e2 783e 5787 3ebe d3c2 21be
00000030: ce71 5a3e fd3e 4d3e 72ff 4a3e 5e2e 783d
00000040: 68b3 46be d02e bb3d a0d8 183e 61dc 953e
00000050: f603 113e 34f9 94be 8ca5 8abe d609 773d
00000060: edff 5cbd bd38 973d 36c7 80be 9846 13be
00000070: 72dc 45be bbe5 053e 8eb6 1fbe 4bb4 cabb
00000080: 5aa8 b6bd ca7c dabd 8221 233e d13c 683e
00000090: 37ab b0bd 4908 343e c2b8 81be 4532 083d
000000a0: 2d86 5b3e 6f84 8cbe 99e5 0abe 71fc d93c
000000b0: 969d 3e3e a48a 843e b71b 023e 7dfd 96be
000000c0: 24ab 013e 34c9 e6bd eae8 6dbe 14b1 8d3e
000000d0: f67f 03be 8382 10be 62d1 65bd 7b11 1e3b
000000e0: faf5 e8bd 1f64 743c 967f 8cbd b2f0 87bd
000000f0: 0c6d 4bbd 1d8d b33d 29df 29be a06c 0bbe
00000100: dfb4 ab3c b9f4 4dbd f876 1f3d 440b 803e
00000110: 56d8 6b3c 5a7e 983e 633f c0bd e150 debd
00000120: 0bc2 1cbe 1a9f ab3d 75b1 bdbd c75a 3b3e
00000130: 9efa 243e 0ad3 93be 5f09 1dbe b48f 83be
00000140: 2bb2 45be f22a 8f3e e9d5 5d3d 18a5 f8bd
00000150: bbc3 5a3e 5c0a 88bd 1ed0 f33d 3df4 9abe
00000160: 1097 6c3c 5487 593e 5d08 423c a7ed af3d
00000170: 234e 8f3e 05b6 553d f9d7 a23d 62b5 653d
00000180: 8ef4 df3d 2c2d 7f3e cdeb acbd a11b 3e3e
00000190: 77bf 5eba dde7 ecbc a5f0 c73d b5a9 86be
000001a0: da4d ddbd d195 c9bc ba3d 113e b7cc 633e
000001b0: 6750 eb3d a2f1 083e 7ee5 603e 8778 87be
000001c0: aabf 0f3d 2209 8bbb 1d2c 3dbc 71c0 b13c
000001d0: ea77 393d 0842 803d c862 a13e 3e8f 583d
000001e0: 4d6a c7bd 7513 20be 9c60 03be ba55 54be
000001f0: f180 f73d d28a 90be fd6c a9bd ed01 1fbe
00000200: 0912 8ebd c8d9 37be 8baf 57be ac4b 2bbe
00000210: c50d d0bd b65c 4cbe bf99 86be 2ac6 b8bc
00000220: a1a6 8cbd bfb1 913d de8a 12be cccd 22be
00000230: ee9a b13d c355 8bbd 02da b8bd d0ef 87be
00000240: 3150 843e 6301 753e 78ee d13c 8b41 27be
00000250: 5ecc 07be ba1f 4ebe 9bab 4c3e 5dd8 543d
00000260: 80f5 623e b26f cd3d 2ac9 22be ff1a a43e
00000270: 1917 1abe 07fe ecbd 34db 323e eb4c 853e
00000280: 2046 aebd 7c40 6b3e 1de1 47bb 9260 60be
00000290: bbb2 363e acc9 06bc 2841 6b3e 9ff1 8fbd
000002a0: 00cc 31be 32bd 18be 1a0e 313e 80ad b1bd
000002b0: 5bf6 3e3d 855d 03bc 5b14 99bc 7801 163e
000002c0: 3719 a9be 5622 6cbe 63a9 8fbe 394e 4cbe
000002d0: 75a1 56be 7aac b0bd 28a2 e2bd f648 b13d
000002e0: af13 113e 1b18 353e 1c77 253e 99ff 6c3e
000002f0: 5171 fabd ab69 113e 0248 8cbe d740 cb3d

bias f4 [16]
0.021366721 0.17939612 -0.17902905 0.20507759 0.22017412 0.2296333 -0.09947887 0.039310783
-0.14891031 0.16238016 -0.17741081 0.00079699943 -0.16534628 -0.08009878 0.09767551 0.14045621
00000000: 4309 af3c 9eb3 373e 6453 37be dcff 513e
00000010: 5375 613e fe24 6b3e 94bb cbbd 5804 213d
00000020: f27b 18be fc46 263e 2eab 35be baed 503a
00000030: 8950 29be d40a a4bd 190a c83d c1d3 0f3e

weight f4 [16, 16, 2, 2]
-0.088424765 -0.04579007 0.045825247 -0.042787973 -0.035951056 0.06403329 0.042213198 0.13226923
-0.02073209 -0.10159967 -0.021556577 -0.07852529 -0.12821473 0.10468305 0.06461334 0.010923743
-0.11019514 -0.022250352 -0.06911848 -0.10367707 0.011294912 -0.0028914942 0.032779053 0.11665556
-0.0443 -0.068949476 0.0049746223 0.0813356 -0.107116014 -0.04102206 0.08870106 -0.060657673
-0.054186273 -0.12619907 -0.095149204 -0.0791497 0.020072343 0.06302503 -0.070075005 0.017785443
-0.09624016 0.07276353 0.031104758 0.103870824 0.03352402 -0.11906895 -0.09509629 -0.063250765
-0.046851493 0.079837695 -0.03816239 0.10001263 0.00382353 -0.083848 -0.1022481 -0.0779638
-0.012177967 -0.019639004 0.12260774 -0.0015401262 -0.06407574 0.058152 -0.06351262 0.09844902
0.015247874 0.025803186 -0.053669613 0.042743586 -0.045840524 0.074408725 0.029636135 0.08710913
0.07046391 0.12288687 0.09961121 0.10335211 -0.011461403 0.007263347 -0.078314096 -0.0007259665
-0.009695073 -0.08916202 -0.03136417 0.13116696 0.095777065 0.08997282 0.05253904 0.11364473
0.10805493 -0.08104568 0.102907665 -0.060996182 0.082353584 0.0027697035 0.06132968 0.03413949
0.100520425 -0.036715373 -0.0862014 -0.011596891 0.065762535 -0.116551735 -0.07965227 -0.026745431
0.02348806 0.014500275 -0.056657463 0.0030749142 0.0710721 0.059090167 -0.032535672 -0.009809583
-0.04736034 -0.024568796 0.02131647 -0.07187473 -0.110782176 0.011931613 0.03524301 0.09881612
-0.15322563 0.053736567 0.016163511 -0.022462558 -0.08594868 -0.005061911 0.12690367 -0.024435198
0.061734054 0.04749916 0.07730976 -0.049420573 -0.11195439 -0.045086145 0.07406464 -0.11629389
0.030530505 0.074634485 -0.08229117 -0.04325039 0.06934318 0.02401972 -0.012249351 0.03669015
-0.08615614 -0.021123117 -0.03961769 -0.05271403 0.043451063 -0.04983986 -0.11598382 0.10572336
0.0036574071 -0.11723394 0.07674894 0.01108974 0.09818885 0.13329184 -0.060822077 -0.093384914
-0.07655439 -0.05039958 0.054376442 0.03616847 0.12598145 0.12484904 -0.116753355 0.0031438975
0.060262933 0.08512817 0.11008398 -0.11237629 0.027908474 -0.03587556 0.06419177 -0.099013776
0.06837886 0.015645614 0.08333171 0.089900285 0.06816281 0.12613413 0.09541753 0.04597621
-0.17597981 0.041805357 0.012324249 -0.123360075 -0.0796163 -0.0051252116 -0.067053266 -0.07669702
0.030804576 -0.07255711 -0.032442167 0.0685259 -0.10246856 -0.12983273 -0.087272435 -0.11861796
-0.085608 0.09749517 -0.119503304 -0.0042618136 -0.017710928 0.080116324 -0.01438553 -0.09939447
-0.020598277 -0.051753677 -0.018216137 0.0529229 -0.028902747 -0.04902821 0.028465753 0.09340157
-0.049279816 -0.08894504 -0.115142934 -0.0047590435 -0.024240771 -0.011316476 -0.08010965 -0.063214004
-0.066095255 -0.06652053 -0.14180432 -0.0801291 -0.13378192 -0.05957917 0.030621825 0.06767319
-0.014680952 -0.104837835 0.081602186 0.056478515 0.10686031 0.08911666 -0.068522334 -0.024603635
-0.072591834 -0.10157903 0.014804118 0.01940686 -0.14387168 -0.05735194 -0.08409378 -0.089858554
-0.020290023 0.090819106 0.042219333 0.10215127 0.08005769 -0.0924014 -0.012140663 -0.066120066
00000000: 0b18 b5bd 5e8e 3bbd 41b3 3b3d 7142 2fbd
00000010: 6a41 13bd e323 833d bfe7 2c3d 9671 073e
00000020: 58d6 a9bc 7d13 d0bd 6b97 b0bc ded1 a0bd
00000030: b94a 03be 1164 d63d 0054 843d 80f9 323c
00000040: fdad e1bd 5f46 b6bc fd8d 8dbd a554 d4bd
00000050: 4b0e 393c 397f 3dbb 5443 063d 1ce9 ee3d
00000060: eb73 35bd 6235 8dbd 2802 a33b 4793 a63d
00000070: a45f dbbd bf06 28bd e7a8 b53d 2e74 78bd
00000080: 6df2 5dbd 543a 01be 96dd c2bd 3d19 a2bd
00000090: c16e a43c 4413 813d 7c83 8fbd c7b2 913c
000000a0: 9019 c5bd 0c05 953d 68cf fe3c 3aba d43d
000000b0: 7c50 093d 6cda f3bd d8c1 c2bd 9e89 81bd
000000c0: 5ae7 3fbd f281 a33d 2b50 1cbd 6cd3 cc3d
000000d0: 3094 7a3b 80b8 abbd 7467 d1bd 7cab 9fbd
000000e0: 1886 47bc fae1 a0bc c419 fb3d 0fde c9ba
000000f0: 243a 83bd cb30 6e3d e812 82bd a49f c93d
00000100: 38d2 793c 3461 d33c abd4 5bbd e613 2f3d
00000110: 46c3 3bbd 9a63 983d 7bc7 f23c 4666 b23d
00000120: 624f 903d 1cac fb3d f600 cc3d 45aa d33d
00000130: 9cc8 3bbc 5f01 ee3b 2463 a0bd ca4e 3eba
00000140: 15d8 1ebc 949a b6bd b777 00bd a250 063e
00000150: c426 c43d ab43 b83d 2d33 573d 91be e83d
00000160: e74b dd3d 47fb a5bd 41c1 d23d 22d7 79bd
00000170: ffa8 a83d ea83 353b d534 7b3d dad5 0b3d
00000180: a7dd cd3d dc62 16bd 5c8a b0bd e300 3ebc
00000190: 82ae 863d adb2 eebd bb20 a3bd 3c19 dbbc
000001a0: 086a c03c 9092 6d3c a811 68bd 8084 493b
000001b0: 408e 913d 8808 723d 2044 05bd 60b8 20bc
000001c0: eafc 41bd 8044 c9bc e19f ae3c 0f33 93bd
000001d0: c4e1 e2bd d07c 433c f95a 103d 1b60 ca3d
000001e0: 2ee7 1cbe e01a 5c3d 5769 843c 6603 b8bc
000001f0: dd05 b0bd 63de a5bb 09f3 013e 532c c8bc
00000200: d9dc 7c3d 7b8e 423d 9454 9e3d 3a6d 4abd
00000210: 5848 e5bd 40ac 38bd 34af 973d 7e2b eebd
00000220: 1c1b fa3c f7d9 983d 4688 a8bd 5227 31bd
00000230: cc03 8e3d 01c5 c43c 80b1 48bc 6948 163d
00000240: a172 b0bd 630a adbc 2946 22bd abea 57bd
00000250: bef9 313d e224 4cbd ed88 edbd 7d85 d83d
00000260: 1cb1 6f3b 5918 f0bd 8c2e 9d3d beb1 353c
00000270: 3c17 c93d a87d 083e 9220 79bd 9740 bfbd
00000280: 8cc8 9cbd ca6f 4ebd d5b9 5e3d 6425 143d
00000290: 4801 013e dab0 ff3d 621c efbd d909 4e3b
000002a0: 44d6 763d ae57 ae3d b673 e13d 8a25 e6bd
000002b0: 50a0 e43c 40f2 12bd fa76 833d bcc7 cabd
000002c0: 370a 8c3d 3b2b 803c d1a9 aa3d a41d b83d
000002d0: f198 8b3d 4e29 013e 446a c33d 8d51 3c3d
000002e0: 0d34 34be 183c 2b3d a6eb 493c 35a4 fcbd
000002f0: df0d a3bd 64f1 a7bb 3953 89bd 5413 9dbd
00000300: e159 fc3c d298 94bd 14e2 04bd 4f57 8c3d
00000310: 09db d1bd dff2 04be e4bb b2bd f9ed f2bd
00000320: 3f53 afbd 8cab c73d 26be f4bd afa6 8bbb
00000330: 8216 91bc 0714 a43d 49b1 6bbc 548f cbbd
00000340: b8bd a8bc aafb 53bd 023a 95bc afc5 583d
00000350: 74c5 ecbc ced1 48bd 0331 e93c 5349 bf3d
00000360: a2d9 49bd d128 b6bd 0fd0 ebbd c0f1 9bbb
00000370: 9594 c6bc be68 39bc 8710 a4bd 5876 81bd
00000380: f35c 87bd ea3b 88bd 2735 11be ba1a a4bd
00000390: 21fe 08be 4a09 74bd 9fda fa3c 3e98 8a3d
000003a0: 6088 70bc 38b5 d6bd 0c1f a73d 0456 673d
000003b0: 94d9 da3d cc82 b63d 7055 8cbd 908d c9bc
000003c0: 07ab 94bd ab08 d0bd f98c 723c 23fb 9e3c
000003d0: 1953 13be dee9 6abd 5c39 acbd c307 b8bd
000003e0: 4337 a6bc 5eff b93d 2eee 2c3d af34 d13d
000003f0: 49f5 a33d f23c bdbd a2e9 46bc f569 87bd

bias f4 [16]
0.07359419 0.04308143 -0.0628598 0.01446355 -0.11331905 -0.11592181 -0.018516116 0.06805646
0.032061566 -0.10682045 -0.07241005 0.05193048 -0.014352188 -0.11224459 -0.03657423 -0.09713296
00000000: 8db8 963d 2776 303d a4bc 80bd 87f8 6c3c
00000010: d113 e8bd 6a68 edbd 1caf 97bc 2f61 8b3d
00000020: fd52 033d aec4 dabd b84b 94bd 0eb5 543d
00000030: 7125 6bbc 7ee0 e5bd dcce 15bd a5ed c6bd

weight f4 [32, 16, 2, 2]
-0.057352312 0.10392062 0.009077024 0.02422655 -0.027617652 -0.073744945 -0.04366301 -0.04223967
-0.10495279 0.061282653 0.04458317 -0.019539678 -0.079862475 -0.04800865 0.07328282 0.025575342
-0.08685681 0.093293995 0.0813288 0.0559802 0.048001323 -0.07539256 0.117793106 0.075965635
-0.05957518 -0.1277642 0.065882646 0.04608121 0.06631625 -0.00064684043 0.02810324 0.06699833
0.031874653 0.1130305 0.0799407 0.031661835 -0.11141361 -0.026937222 0.0058957883 -0.00463409
0.052737016 -0.03356979 -0.015149325 0.060322374 0.11859082 -0.027968075 0.046311595 0.14516085
-0.035574064 0.0060413387 -0.09090231 0.07944249 -0.09599657 -0.12452879 0.07676642 -0.13730225
-0.026977502 0.069661215 0.004169874 -0.11486979 0.09871325 0.02534172 0.009027427 -0.113163754
0.014208261 0.0071673454 0.09225977 -0.072620496 -0.04963859 0.11473729 0.123195425 0.12299345
-0.07172547 0.061679725 -0.08836297 0.12882033 0.028902072 0.0666964 0.12671432 -0.056467272
0.010466453 0.004770222 0.04715611 -0.010894809 -0.06443179 0.016060863 0.058369886 -0.123177834
-0.0031336197 0.10352721 0.027915707 0.036720447 -0.03639205 -0.06696423 -0.07671665 0.05454858
-0.08496272 -0.07989791 0.107600264 0.07491732 0.014934899 0.09531629 -0.061056804 0.04169617
0.12362402 0.13306321 0.08559135 -0.08237086 0.078678004 -0.007802367 0.0033009844 0.02827535
-0.13293517 0.123511866 0.0017790551 -0.032644823 -0.049627956 -0.10391387 0.081252344 0.0205385
0.042656388 -0.023891652 0.053333327 0.10350189 -0.06370968 0.06574512 0.05688186 0.08080529
-0.036227923 0.06421228 0.049485154 0.0015081875 0.13846755 -0.10515504 0.06317989 -0.024241382
0.06244819 0.0014925827 -0.09203875 -0.03382357 -0.07651981 0.11475591 -0.026892899 0.05966132
-0.10676764 -0.06718758 -0.016974416 -0.13507587 0.061694246 0.122019686 -0.042347685 -0.1009368
0.080310814 0.12153618 -0.06387271 0.13691255 -0.05917512 0.028901467 0.08892056 0.1015077
-0.018371303 -0.08213046 0.04859485 0.039976448 0.10296752 0.04429418 0.060991537 -0.039195612
0.106267564 0.01777077 0.03176052 -0.08646729 0.08074698 0.15318796 0.13111752 0.0903537
-0.040871117 0.017557232 -0.04520727 -0.093799435 -0.068585195 -0.09899864 -0.0579981 -0.049828168
-0.040253256 0.009400914 -0.121011324 -0.057490077 0.015030173 -0.015450505 -0.13122754 -0.050141197
-0.08195556 0.0151178315 -0.030176958 -0.056530934 0.02098292 -0.087313056 0.10077277 0.10797841
-0.08943736 0.028875176 0.018312681 -0.06618768 -0.02491889 0.007131364 0.119847655 -0.104439296
0.11050528 -0.08727174 -0.11908134 -0.08892513 0.0543715 -0.0826728 0.10385393 -0.07457697
0.09543947 0.0708299 -0.0702822 -0.0022146418 -0.055002157 -0.09490464 0.091399714 0.12508406
0.058464475 -0.1041727 -0.056902435 0.041954253 0.09853372 -0.074389935 0.07737695 0.010882918
0.07037675 -0.003099695 0.07720615 0.12821001 0.08592656 0.09086834 -0.101920165 0.12545079
-0.052986503 -0.010994783 -0.06789926 -0.0013827449 0.071774654 -0.007075674 0.0898986 0.05848506
-0.074989885 0.0014103393 0.08803077 0.094953276 0.035012882 0.04124833 0.09124127 -0.0002589992
00000000: 42ea 6abd 56d4 d43d ccb7 143c c276 c63c
00000010: 6a3e e2bc 9707 97bd fcd7 32bd 8103 2dbd
00000020: 7df1 d6bd 8503 7b3d d89c 363d ad11 a0bc
00000030: f08e a3bd b8a4 44bd 4e15 963d 6183 d13c
00000040: fce1 b1bd ec10 bf3d b78f a63d 7f4b 653d
00000050: 099d 443d 6a67 9abd 833d f13d df93 9b3d
00000060: 1b05 74bd 9ed4 02be 7bed 863d a7bf 3c3d
00000070: d0d0 873d ba90 29ba c438 e63c 6c36 893d
00000080: ff8e 023d 897c e73d f3b7 a33d d7af 013d
00000090: d22c e4bd 73ab dcbc 7531 c13b 90d9 97bb
000000a0: c502 583d 7a80 09bd e034 78bc 9814 773d
000000b0: bedf f23d 4e1d e5bc 3ab1 3d3d 0ca5 143e
000000c0: 1cb6 11bd 6cf6 c53b fe2a babd bfb2 a23d
000000d0: da99 c4bd f308 ffbd b637 9d3d f698 0cbe
000000e0: ecff dcbc 8aaa 8e3d 70a3 883b da40 ebbd
000000f0: 2c2a ca3d 7099 cf3c c6e7 133c 66c2 e7bd
00000100: c4c9 683c 0ddc ea3b b1f2 bc3d 0eba 94bd
00000110: d651 4bbd 62fb ea3d e24d fc3d fde3 fb3d
00000120: cee4 92bd e1a3 7c3d a5f7 b4bd 7ae9 033e
00000130: 0ac4 ec3c 1f98 883d 66c1 013e 3a4a 67bd
00000140: 7c7b 2b3c 864f 9c3b c426 413d 2480 32bc
00000150: d0f4 83bd 1292 833c 4315 6f3d a944 fcbd
00000160: 6a5d 4dbb 1306 d43d 7baf e43c 2e68 163d
00000170: d50f 15bd 8b24 89bd 9e1d 9dbd 556e 5f3d
00000180: ef00 aebd 84a1 a3bd 875d dc3d 406e 993d
00000190: 82b1 743c 3035 c33d b316 7abd 9ac9 2a3d
000001a0: 972e fd3d b941 083e 854a af3d 0eb2 a8bd
000001b0: ef21 a13d 00ab ffbb 5455 583b b5a1 e73c
000001c0: 2820 08be caf3 fc3d 2f2f e93a 94b6 05bd
000001d0: af46 4bbd ccd0 d4bd a167 a63d 5b40 a83c
000001e0: 77b8 2e3d 6db8 c3bc 0c74 5a3d cdf8 d33d
000001f0: 397a 82bd 61a5 863d f4fc 683d 3e7d a53d
00000200: bb63 14bd ba81 833d f2b0 4a3d 60ae c53a
00000210: 70ca 0d3e 875b d7bd 7564 813d dd95 c6bc
00000220: acc9 7f3d c4a2 c33a d07e bcbd 958a 0abd
00000230: 6bb6 9cbd 2605 eb3d 7f4e dcbc 6e5f 743d
00000240: fea8 dabd a499 89bd ee0d 8bbc 5451 0abe
00000250: 1bb3 7c3d 75e5 f93d c474 2dbd f4b7 cebd
00000260: ff79 a43d f6e7 f83d b2cf 82bd ce32 0c3e
00000270: 9c61 72bd c5c2 ec3c fc1b b63d 45e3 cf3d
00000280: 6a7f 96bc 0434 a8bd 650b 473d 58be 233d
00000290: a3e0 d23d d06d 353d 43d2 793d 948b 20bd
000002a0: cfa2 d93d 0194 913c 5217 023d c315 b1bd
000002b0: ac5e a53d 4edd 1c3e ac43 063e 5c0b b93d
000002c0: 7968 27bd 2fd4 8f3c 422b 39bd eb19 c0bd
000002d0: 6576 8cbd cdbf cabd 6a8f 6dbd 9f18 4cbd
000002e0: 99e0 24bd 4b06 1a3c c9d4 f7bd b77a 6bbd
000002f0: 1d41 763c 1d24 7dbc 8360 06be db60 4dbd
00000300: 51d8 a7bd c8b0 773c ab35 f7bc fb8c 67bd
00000310: 5fe4 ab3c 30d1 b2bd f461 ce3d c923 dd3d
00000320: ef2a b7bd a28b ec3c 7a04 963c 688d 87bd
00000330: b322 ccbc 38ae e93b b072 f53d 45e4 d5bd
00000340: 9850 e23d 87bb b2bd ebe0 f3bd 611e b6bd
00000350: a6b4 5e3d 5b50 a9bd 5fb1 d43d cfbb 98bd
00000360: c575 c33d 440f 913d 1df0 8fbd 8623 11bb
00000370: f149 61bd 5d5d c2bd c62f bb3d 0916 003e
00000380: 7278 6f3d 7f58 d5bd 8712 69bd 39d8 2b3d
00000390: 0ccc c93d c059 98bd ce77 9e3d 444e 323c
000003a0: af21 903d 4124 4bbb 421e 9e3d 7c49 033e
000003b0: 44fa af3d 2e19 ba3d 85bb d0bd 2c76 003e
000003c0: 6008 59bd 7623 34bc c40e 8bbd 383d b5ba
000003d0: 97fe 923d 0edb e7bb c21c b83d 088e 6f3d
000003e0: 4c94 99bd 22db b83a 7a49 b43d dd76 c23d
000003f0: ab69 0f3d 02f4 283d b4dc ba3d 49ca 87b9

bias f4 [32]
-0.05812689 0.022193937 -0.097122945 0.0144097945 -0.030022748 0.04039603 -0.08734518 0.06050811
-0.016415397 0.015111115 -0.08901678 0.034223333 -0.10701692 -0.10561321 0.009466645 0.12237794
0.027804045 0.043027382 -0.06812647 -0.043470234 0.0064309835 -0.11133739 -0.09408246 -0.13040882
-0.05831013 0.013415096 0.0097969845 -0.10948184 -0.08374739 0.042698212 0.023419753 0.019520374
00000000: 7616 6ebd 0fd0 b53c 65e8 c6bd 0f17 6c3c
00000010: 44f2 f5bc 4f76 253d 08e2 b2bd 5ad7 773d
00000020: 9579 86bc 9c94 773c 6e4e b6bd c42d 0c3d
00000030: b02b dbbd bd4b d8bd fd19 1b3c 49a1 fa3d
00000040: 4fc5 e33c 7b3d 303d e485 8bbd d80d 32bd
00000050: 00bb d23b dc04 e4bd 4eae c0bd e489 05be
00000060: 9ad6 6ebd feca 5b3c 8883 203c 0438 e0bd
00000070: c083 abbd 52e4 2e3d c8da bf3c 31e9 9f3c

weight f4 [32, 32, 2, 2]
-0.0064590825 0.122226514 -0.029937461 0.074485816 -0.07193241 -0.044646353 -0.07531604 -0.12357787
0.047009382 0.012015813 -0.06616332 0.07386766 -0.036795083 0.03309173 0.055837665 -0.0036529931
-0.0006852534 -0.077361874 -0.09323826 -0.0031709566 -0.078317404 -0.016602274 -0.06444307 0.061103452
-0.046257395 -0.020531535 -0.010893819 0.07330124 0.042933118 -0.0061123855 0.058832165 -0.07727012
0.089368016 -0.04076701 0.083998896 0.027554987 0.020616354 -0.018584285 -0.049218472 -0.089541145
-0.009069846 -0.0009236032 0.0006069271 -0.0034356187 -0.026585998 -0.0039243833 0.13163732 0.0683909
0.016038675 -0.026098907 -0.005607178 -0.016042281 -0.04949415 -0.04507863 0.0080392705 0.021040494
-0.05110967 0.06681476 -0.04770705 -0.07893767 0.058709398 -0.014275808 -0.06922948 0.061571814
0.030010995 0.05065005 0.07788413 0.041446492 -0.031237101 -0.08122851 -0.10211144 0.022511534
0.00030430293 0.040830363 0.07010506 0.08215265 -0.025228946 -0.07245877 -0.017130533 0.08781599
0.026056593 0.01358159 -0.067168176 0.0650334 0.08204636 0.057353396 -0.06789471 -0.07729191
0.05155191 0.051237743 0.08894974 0.07667655 -0.04450185 0.05207119 0.052222833 0.010059003
-0.016099565 0.03930749 -0.045672208 -0.008381814 0.11381415 0.028534956 0.06886584 -0.016812818
0.054352947 0.07523363 -0.030955216 -0.054132733 -0.086540096 0.08141849 0.04877428 0.028944286
-0.07138107 -0.029121026 -0.015104935 -0.07521982 -0.06669923 -0.030498309 0.07401493 -0.0065752924
0.04386671 0.1388404 0.13214232 0.080414936 -0.06071296 -0.0032958193 -0.018621009 0.07062072
0.07091979 0.038256597 0.04792902 -0.00058084744 -0.018759148 -0.095753565 -0.13998368 -0.03709826
0.006223169 0.016015591 -0.095556855 -0.08273439 -0.0537456 0.053390123 -0.027747016 -0.070655726
-0.032364886 0.03909201 0.07681443 -0.009806008 -0.04609905 0.018907238 -0.08153394 -0.08840887
-0.000392403 0.063476846 0.049732335 -0.045760684 -0.012294247 -0.04276365 -0.019123955 -0.09711122
-0.08459385 0.046843547 0.0317064 -0.09376917 -0.05288954 -0.061863393 0.07410306 -0.0913337
-0.07880171 0.03540736 0.052826963 -0.00044307226 0.029129542 -0.07960408 -0.0555764 -0.0927264
0.0026767117 -0.0063068 0.018140925 0.088445015 0.014846784 0.08871416 0.09784895 -0.056547374
0.019717187 0.06352761 0.065927304 -0.0488441 -0.056417767 0.046899363 -0.036057975 -0.0035442365
0.017411845 0.07313988 0.007126537 -0.0417259 -0.030540194 0.09201371 -0.0017920032 0.04761034
-0.07329871 -0.044694655 0.033728406 0.053787123 -0.022545392 0.0139705315 -0.023911003 0.051937003
-0.03190115 -0.04742892 0.080952324 0.04003863 -0.06513518 -0.074271366 0.060845282 0.066536635
-0.008861249 -0.08177806 0.014077569 0.057463065 -0.024154155 0.051630277 0.008986204 0.0077218497
-0.0015996529 0.004903965 0.075258456 0.053986114 -0.028584154 -0.08002434 0.057722993 0.040476825
-0.08350503 -0.0850017 0.053295325 -0.05299247 0.0740103 -0.029048497 0.023825131 0.082938194
-0.061032943 -0.05840762 0.06445754 0.074173816 0.0065239067 0.065412566 -0.017920723 -0.053520173
-0.0792235 -0.011457123 0.069049984 0.06190811 -0.0010312923 -0.0009210694 0.025413642 0.043252986
00000000: b6a6 d3bb e551 fa3d 683f f5bc 058c 983d
00000010: 4d51 93bd 18df 36bd 4c3f 9abd 6516 fdbd
00000020: e98c 403d f9dd 443c a280 87bd ed47 973d
00000030: 71b6 16bd 328b 073d 09b6 643d 0e67 6fbb
00000040: 94a2 33ba e76f 9ebd b3f3 bebd d3cf 4fbb
00000050: e064 a0bd 7e01 88bc bafa 83bd 9d47 7a3d
00000060: 6578 3dbd c031 a8bc fd7b 32bc f61e 963d
00000070: a3da 2f3d 684a c8bb fff9 703d cc3f 9ebd
00000080: 9406 b73d 4ffb 26bd 9d07 ac3d ffba e13c
00000090: a1e3 a83c 123e 98bc 4f99 49bd 5961 b7bd
000000a0: b199 14bc f61d 72ba 301a 1f3a 1e28 61bb
000000b0: e1ca d9bc 1d98 80bb efcb 063e 8710 8c3d
000000c0: 8a63 833c 60cd d5bc 6bbc b7bb 1a6b 83bc
000000d0: 61ba 4abd 5fa4 38bd 25b7 033c 1d5d ac3c
000000e0: 6058 51bd 2dd6 883d 7868 43bd 13aa a1bd
000000f0: 4479 703d 14e5 69bc 30c8 8dbd ba32 7c3d
00000100: 9ed9 f53c 6d76 4f3d b781 9f3d ccc3 293d
00000110: f3e4 ffbc 225b a6bd cd1f d1bd 1c6a b83c
00000120: d98a 9f39 bd3d 273d 3e93 8f3d a63f a83d
00000130: efac cebc 4365 94bd 5555 8cbc dfd8 b33d
00000140: a374 d53c 5185 5e3c 788f 89bd 3b30 853d
00000150: ec07 a83d 65eb 6a3d 620c 8bbd 394b 9ebd
00000160: 1828 533d abde 513d 482b b63d 9808 9d3d
00000170: 9247 36bd 9a48 553d 9ce7 553d 84ce 243c
00000180: 3ce3 83bc e400 213d c812 3bbd e053 09bc
00000190: 6517 e93d 24c2 e93c 8909 8d3d 09bb 89bc
000001a0: 32a1 5e3d 1714 9a3d cb95 fdbc 49ba 5dbd
000001b0: ef3b b1bd bdbe a63d 8ac7 473d 911c ed3c
000001c0: 3d30 92bd 388f eebc b07a 77bc d90c 9abd
000001d0: 9b99 88bd 97d7 f9bc 2495 973d 8d75 d7bb
000001e0: 94ad 333d 2e2c 0e3e 5150 073e 96b0 a43d
000001f0: 27ae 78bd acfe 57bb 168b 98bc 99a1 903d
00000200: 653e 913d f3b2 1c3d 3851 443d 0344 18ba
00000210: c9ac 99bc 721a c4bd e257 0fbe 58f4 17bd
00000220: baeb cb3b 2133 833c 50b3 c3bd a670 a9bd
00000230: 5924 5cbd 9aaf 5a3d b64d e3bc f3b3 90bd
00000240: 0b91 04bd f21e 203d e250 9d3d 61a9 20bc
00000250: 5cd2 3cbd 5ae3 9a3c 44fb a6bd b60f b5bd
00000260: 70bb cdb9 2600 823d 22b4 4b3d 8e6f 3bbd
00000270: cf6d 49bc f028 2fbd d7a9 9cbc 3fe2 c6bd
00000280: 8a3f adbd 05df 3f3d 92de 013d 0d0a c0bd
00000290: b4a2 58bd 7864 7dbd 58c3 973d 2a0d bbbd
000002a0: ca62 a1bd 4f07 113d 1661 583d 274c e8b9
000002b0: 14a1 ee3c 7707 a3bd 14a4 63bd 57e7 bdbd
000002c0: c56b 2f3b 46a9 cebb 479c 943c a922 b53d
000002d0: ed3f 733c c5af b53d 0865 c83d 389e 67bd
000002e0: f085 a13c c31a 823d e504 873d c010 48bd
000002f0: 5116 67bd 8c19 403d 87b1 13bd 6c46 68bb
00000300: 49a3 8e3c 5dca 953d ba85 e93b c7e8 2abd
00000310: 6e2f fabc af71 bc3d a6e1 eaba 0f03 433d
00000320: a21d 96bd be11 37bd cc26 0a3d e34f 5c3d
00000330: 1db1 b8bc a8e4 643c 02e1 c3bc e5bb 543d
00000340: c8aa 02bd d444 42bd 55ca a53d 8cff 233d
00000350: 9865 85bd 961b 98bd e738 793d 5c44 883d
00000360: c62e 11bc 417b a7bd 9ba5 663c 645e 6b3d
00000370: efde c5bc 457a 533d df3a 133c 9207 fd3b
00000380: 72ab d1ba 71b1 a03b 1b21 9a3d 8b20 5d3d
00000390: 5129 eabc cde3 a3bd f26e 6c3d 07cb 253d
000003a0: af04 abbd 5f15 aebd 334c 5a3d a20e 59bd
000003b0: b692 973d 1df7 edbc ec2c c33c 80db a93d
000003c0: aefd 79bd d43c 6fbd 5102 843d 71e8 973d
000003d0: 7fc6 d53b 06f7 853d 7bce 92bc f837 5bbd
000003e0: ee3f a2bd a8b6 3bbc 146a 8d3d 5c93 7d3d
000003f0: 6d2c 87ba ec73 71ba 4530 d03c 0b2a 313d

bias f4 [32]
0.02906808 -0.07695385 -0.037347924 0.042409215 -0.06597566 -0.0032687443 0.023688488 -0.08055136
0.01579132 0.07110531 -0.06774778 -0.07936708 -0.02726076 -0.034551892 0.058157034 -0.008202961
-0.013963394 0.027282298 -0.06297176 0.088844635 -0.04087058 -0.0918408 -0.03538143 0.06706003
0.08832934 -0.033750676 0.016936133 -0.065629646 -0.02932466 -0.06801829 -0.0066056885 0.06687139
00000000: 2f20 ee3c fb99 9dbd 23fa 18bd 49b5 2d3d
00000010: 3f1e 87bd 6e38 56bb 5c0e c23c 1df8 a4bd
00000020: cc5c 813c a99f 913d 59bf 8abd 358b a2bd
00000030: f551 dfbc 4986 0dbd 1236 6e3d b665 06bc
00000040: b8c6 64bc 207f df3c 57f7 80bd 2df4 b53d
00000050: e967 27bd 0817 bcbd 1eec 10bd c556 893d
00000060: 03e6 b43d 263e 0abd a5bd 8a3c d668 86bd
00000070: 453a f0bc 2c4d 8bbd 8874 d8bb def3 883d

weight f4 [64, 32, 2, 2]
-0.036445387 -0.037129156 -0.053955175 -0.0690697 -0.038658522 0.036424607 -0.02254949 0.031136438
-0.03197218 0.005780063 0.052350126 0.016790122 0.027192343 -0.009046908 0.034309965 -0.020310778
-0.0018661984 0.043343388 -0.033982646 -0.0033467792 -0.11817289 -0.07502538 -0.055612877 -0.07845236
0.0060756924 0.101459146 -0.003927192 0.05941092 0.01881472 0.05521768 -0.029463107 -0.096272446
-0.010027299 -0.01793989 -0.06823487 -0.019594077 0.051638953 0.06089786 0.0871551 -0.036816865
0.0037687912 -0.11115618 -0.08004007 -0.08393777 -0.011249048 -0.027913088 0.01314331 0.05126769
-0.045158233 -0.026842192 -0.06764594 0.049819622 -0.028459221 -0.08392622 -0.06574658 0.013995706
-0.016291963 -0.08572704 -0.050307084 -0.00037139363 0.066307634 -0.017645126 -0.0145974485 -0.029911658
0.032563303 0.05155815 -0.026261583 -0.032954875 0.022029124 0.047004007 -0.04684953 0.020538561
-0.018560871 -0.011962731 0.08072281 0.015298458 -0.02988223 0.03676173 -0.043704897 0.062250696
-0.012984499 -0.030628838 -0.09413781 0.026482338 -0.08591253 0.06861873 -0.019294824 0.063290775
0.009222101 0.01739519 0.049921293 0.051920127 0.09503464 0.036839347 0.084101595 0.03707167
0.08360298 0.08226409 0.04379733 0.08953164 0.02403832 0.08479695 -0.03175248 0.027020438
0.0300646 -0.06884019 -0.06767273 -0.09277591 0.045235474 -0.101837784 -0.078248724 0.03853576
-0.05311381 -0.0855505 0.07182841 0.0059546456 -0.07451797 0.017016426 -0.061166015 -0.0041851783
0.04605836 0.017518606 0.07066079 0.02260093 0.016783219 0.03960209 -0.033879478 0.087860264
0.07990816 -0.02447994 0.0010687859 0.07365857 0.0269712 0.02812978 -0.047801945 0.04136674
0.07797812 0.013568082 -0.06523139 0.07949339 0.09097219 -0.045548286 -0.054190107 -0.02704985
-0.067668565 -0.11170512 0.04530186 -0.10580942 -0.0874147 -0.078753605 0.05571142 -0.09227285
0.0075052455 0.07704432 0.04916803 -0.0019428912 0.06256987 0.076059535 -0.091520354 -0.09813612
-0.040505685 -0.0015361806 -0.002775568 0.07515158 0.07638878 0.08738473 -0.04525262 0.0008505426
0.061229255 -0.032751657 -0.07205521 -0.04960441 0.0073029352 -0.081989974 -0.067602985 0.05263774
0.078309536 -0.071982354 0.00028123948 0.037314124 0.024625309 0.054368816 -0.020549335 0.08098585
-0.030003006 0.012982141 -0.08449029 -0.009251905 -0.0059643057 -0.04346216 -0.06460836 -0.061027173
-0.014025348 0.04059706 0.0853135 0.0628296 -0.0021880171 -0.04836131 0.046959754 0.020734772
0.06425335 0.058283888 -0.043712143 0.023144357 0.07559726 0.060444437 0.0628245 0.09516219
0.04387731 -0.026677534 0.02175306 0.06281986 -0.089569174 -0.06391794 0.065714 -0.04520864
0.04372076 0.076246634 0.023230763 0.09965266 -0.061235737 -0.05941862 0.042578325 0.09823868
0.054590788 -0.032520045 0.0666989 -0.07462173 0.09621414 -0.05520855 -0.011570086 0.024995105
0.0499492 -0.07660081 -0.0028047392 -0.041246224 0.052590962 -0.09342192 0.03347918 -0.019655302
-0.04357687 -0.0261882 -0.014205753 -0.07791128 -0.03127413 -0.04276394 -0.0896208 0.02480159
-0.03714761 0.032639887 -0.039368395 -0.0021845074 -0.039832287 0.07119193 0.07770631 0.00758593
00000000: c247 15bd be14 18bd 1a00 5dbd 6a74 8dbd
00000010: 6658 1ebd f831 153d b5b9 b8bc d811 ff3c
00000020: 43f5 02bd af66 bd3b 166d 563d 708b 893c
00000030: 7ac2 de3c 7b39 14bc 9b88 0c3d ca62 a6bc
00000040: 3a9b f4ba d688 313d 6331 0bbd a355 5bbb
00000050: a104 f2bd e8a6 99bd 54ca 63bd a2ab a0bd
00000060: 9a16 c73b d0c9 cf3d adaf 80bb dd58 733d
00000070: 5421 9a3c ef2b 623d 9d5c f1bc 7d2a c5bd
00000080: 8a49 24bc adf6 92bc b9be 8bbd c283 a0bc
00000090: 5e83 533d 0970 793d 607e b23d 48cd 16bd
000000a0: d3fd 763b daa5 e3bd 0cec a3bd 91e7 abbd
000000b0: ed4d 38bc fda9 e4bc 0a57 573c 12fe 513d
000000c0: d7f7 38bd 28e4 dbbc f489 8abd a90f 4c3d
000000d0: 5023 e9bc 83e1 abbd 25a6 86bd 3f4e 653c
000000e0: b976 85bc a991 afbd cd0e 4ebd 9cb7 c2b9
000000f0: 4ccc 873d 838c 90bc 232a 6fbc 4b09 f5bc
00000100: 1961 053d a42e 533d 8822 d7bc b1fb 06bd
00000110: 6c76 b43c 4687 403d 4be5 3fbd 7c40 a83c
00000120: f80c 98bc 55ff 43bc 0052 a53d 62a6 7a3c
00000130: 94cb f4bc 7893 163d e803 33bd 96fa 7e3d
00000140: f0bc 54bc 54e9 fabc 53cb c0bd 7df1 d83c
00000150: e9f2 afbd fa87 8c3d 2e10 9ebc 989e 813d
00000160: 4c18 173c 5c80 8e3c 457a 4c3d 33aa 543d
00000170: 85a1 c23d dbe4 163d 753d ac3d 77d8 173d
00000180: 0a38 ab3d 137a a83d d464 333d 5d5c b73d
00000190: 03ec c43c 06aa ad3d e30e 02bd f759 dd3c
000001a0: 094a f63c 16fc 8cbd 0098 8abd 4c01 bebd
000001b0: d548 393d 5490 d0bd de40 a0bd acd7 1d3d
000001c0: de8d 59bd 1a35 afbd c61a 933d 301f c33b
000001d0: e19c 98bd 0866 8b3c 3789 7abd d223 89bb
000001e0: b1a7 3c3d 2e83 8f3c 9bb6 903d 9625 b93c
000001f0: f67c 893c cd35 223d 35c5 0abd 15f0 b33d
00000200: e4a6 a33d 288a c8bc 8116 8c3a 4eda 963d
00000210: b5f2 dc3c 6d70 e63c f9cb 43bd 2c70 293d
00000220: feb2 9f3d a94c 5e3c 0998 85bd 6ecd a23d
00000230: a14f ba3d d790 3abd 72f6 5dbd a697 ddbc
00000240: d195 8abd a7c5 e4bd 718e 393d 9cb2 d8bd
00000250: 7a06 b3bd 9249 a1bd a831 643d 8cf9 bcbd
00000260: 90ee f53b 6ac9 9d3d 6b64 493d 9ca8 feba
00000270: a224 803d 1ac5 9b3d 066f bbbd 97fb c8bd
00000280: 4ae9 25bd ab59 c9ba 4ee6 35bb 12e9 993d
00000290: b871 9c3d c4f6 b23d d05a 39bd f3f6 5e3a
000002a0: 87cb 7a3d 9a26 06bd af91 93bd fe2d 4bbd
000002b0: 764d ef3b 5cea a7bd 6f73 8abd ac9a 573d
000002c0: c060 a03d 7c6b 93bd 5373 9339 b2d6 183d
000002d0: 04bb c93c d6b1 5e3d 1457 a8bc e9db a53d
000002e0: ddc8 f5bc 0cb3 543c 3f09 adbd 4d95 17bc
000002f0: 3970 c3bb 6105 32bd 6351 84bd a1f7 79bd
00000300: 93ca 65bc 1a49 263d d8b8 ae3d ceac 803d
00000310: d664 0fbb 8216 46bd df58 403d f8db a93c
00000320: 4397 833d 16bb 6e3d 810b 33bd 3c99 bd3c
00000330: bcd2 9a3d 9694 773d 22aa 803d 65e4 c23d
00000340: b2b8 333d d88a dabc 7933 b23c b3a7 803d
00000350: 0b70 b7bd 69e7 82bd 1095 863d b22c 39bd
00000360: 8a14 333d 3227 9c3d 714e be3c b216 cc3d
00000370: 53d2 7abd f060 73bd 9c66 2e3d 5c31 c93d
00000380: 979a 5f3d bd33 05bd 6f99 883d 47d3 98bd
00000390: eb0b c53d 5c22 62bd 7590 3dbc 89c2 cc3c
000003a0: 8897 4c3d e3e0 9cbd b7cf 37bb cdf1 28bd
000003b0: 9f69 573d fe53 bfbd 7721 093d 2804 a1bc
000003c0: a97d 32bd a388 d6bc 3fbf 68bc f38f 9fbd
000003d0: 4d19 00bd 3e29 2fbd 1c8b b7bd b42c cb3c
000003e0: 1828 18bd 67b1 053d c140 21bd f429 0fbb
000003f0: 2e27 23bd 13cd 913d 7c24 9f3d 6593 f83b

bias f4 [64]
-0.07391235 -0.013942714 -0.07242689 -0.04293359 0.079267144 -0.07023504 0.053149946 -0.0041449335
-0.0031324457 -0.02213309 -0.017080193 -0.051253725 -0.0575408 -0.05456234 -0.07947365 0.060537502
0.012234236 -0.07072675 0.05574589 0.00621833 0.001600685 0.00016296687 -0.041374117 -0.056335993
-0.029466923 -0.034841813 0.013006574 0.055884875 0.03325758 -0.05610691 0.059027895 0.05926132
-0.04840157 -0.07108496 0.06229123 -0.033847965 0.058131635 0.014131881 -0.038043816 -0.0007571481
-0.021735415 0.028120486 0.033249117 0.059444558 -0.05949192 0.05149009 -0.010170341 -0.06677212
-0.082894936 -0.04816541 -0.06995859 -0.017516721 -0.041251674 0.032840956 0.006823242 0.0025694778
0.003940006 -0.053970493 -0.04265713 0.08444265 0.002710309 -0.01780682 -0.058140256 0.06716299
00000000: 5c5f 97bd fb6f 64bc 8d54 94bd 22db 2fbd
00000010: d056 a23d 63d7 8fbd c2b3 593d 39d2 87bb
00000020: b849 4dbb 7450 b5bc c3eb 8bbc 6def 51bd
00000030: e7af 6bbd c37c 5fbd 15c3 a2bd 2cf6 773d
00000040: 1b72 483c 30d9 90bd cd55 643d 22c3 cb3b
00000050: 13ce d13a 16e2 2a39 e877 29bd 92c0 66bd
00000060: 9e64 f1bc 4ab6 0ebd 8619 553c 8ae7 643d
00000070: 1a39 083d 5cd0 65bd 3cc7 713d ffbb 723d
00000080: ba40 46bd fe94 91bd 1725 7f3d 2aa4 0abd
00000090: 701b 6e3d 6889 673c d5d3 1bbd 597b 46ba
000000a0: 780e b2bc ef5c e63c 3a30 083d 237c 733d
000000b0: cdad 73bd 46e7 523d 80a1 26bc d2bf 88bd
000000c0: d2c4 a9bd 1849 45bd 7346 8fbd 3a7f 8fbc
000000d0: 84f7 28bd 3d84 063d 8195 df3b af64 283b
000000e0: 2a1b 813b 2a10 5dbd 3eb9 2ebd 45f0 ac3d
000000f0: 719f 313b 9cdf 91bc 7a24 6ebd c08c 893d

weight f4 [64, 64, 2, 2]
-0.026181454 -0.018996147 -0.012476985 0.06151043 0.07144116 -0.021810615 0.00975202 -0.02050844
0.024489854 0.06412497 -0.02701703 0.0375379 0.053718228 0.063909955 0.05255829 0.0679887
0.03421857 0.025509767 0.032655038 -0.038346972 0.047881134 0.09549454 -0.00077264063 0.07818482
0.044477064 0.073521815 0.10886431 0.036397822 0.075247824 0.070466116 -0.013157679 0.036676772
0.06378623 0.046331044 0.072952785 0.061077077 -0.030605111 0.04964153 -0.020146595 0.035973236
-0.0883288 -0.028418394 -0.033192035 -0.06748763 -0.0058854674 0.0014203937 0.008434855 0.023573808
0.06983237 0.020535864 0.029052494 0.09038144 -0.019228302 -0.026461072 0.05962862 -0.00036223978
-0.0013455749 -0.03750336 0.011426233 0.06050565 -0.0013619304 0.0557911 -0.0017167714 -0.016109727
0.03678774 0.05551814 -0.012318335 -0.010431102 -0.016088434 0.014193373 0.014483002 -0.015873592
-0.018128213 0.07474153 -0.044238374 0.0640266 0.020006076 -0.024566425 -0.00990034 0.06408118
0.078828655 0.052925006 0.075349994 -0.03534564 0.061140984 0.023882296 0.010848544 0.062540404
-0.053082053 0.026515057 0.037461746 -0.048444144 0.028404145 0.01386846 0.01982825 -0.009859099
0.07620139 0.06870704 0.0280711 -0.0017037481 0.06624161 0.085944444 0.08647493 0.065932535
0.068278685 0.074651174 0.059153877 0.059010744 0.016787002 -0.020378226 0.04002702 -0.034667075
-0.022239182 0.005641211 -0.05889817 0.01196733 -0.024329938 0.030715486 0.054386433 0.008741889
0.07005383 -0.00045381475 0.058554027 -0.010686962 -0.03130378 -0.0012106705 -0.036522444 0.06864842
0.0242784 0.011154539 0.0027188289 0.121705085 0.06530166 0.08841024 0.021094795 0.03824346
0.006582741 -0.0396647 0.0075654574 0.05358984 0.048843224 0.022449011 0.025858382 0.034583934
0.008894023 0.04148139 -0.021665625 0.04679573 -0.0381083 -0.021113237 0.02174207 0.04699727
0.00702719 0.078687675 0.065586284 -0.0025091083 -0.034569535 0.05747482 -0.010494204 0.03961376
-0.009604087 0.039629422 0.049291022 0.008000333 0.075084426 -0.002744227 -0.012893355 0.032181144
0.03956922 -0.0037061854 0.04912898 0.029123493 0.0059654573 0.041428626 0.053589843 -0.022036798
0.081678316 0.05531506 0.102651566 0.09368939 -0.08558532 -0.061573874 -0.015245324 -0.0305732
-0.03964519 0.006896117 0.01852095 -0.026580896 0.029707914 -0.0034525802 -0.028537733 0.005911877
0.011013433 0.047715053 0.033758916 -0.06062697 0.008712965 0.026345387 0.08396059 0.02904016
0.001413821 0.003461006 -0.0035697336 0.037982892 0.0008073805 0.0034514058 0.033469934 0.055691946
0.04837325 -0.035790782 -0.03755396 -0.021611726 0.05577673 0.06673272 0.06458964 0.053710982
-0.034663588 -0.04145653 0.023548037 -0.08289799 -0.018333517 0.06269879 0.010954863 0.047776513
0.065008916 0.024627216 -0.042568963 0.068876505 -0.03225436 0.051431432 -0.046336673 -0.016511125
0.025373422 -0.038557485 -0.020513244 -0.01118461 0.08226721 0.10009188 0.114697896 0.04465411
0.047174204 0.0017120085 0.022373822 -0.014680423 0.06359394 -0.0093825925 0.02363855 0.04262668
0.044404022 0.036922738 0.038631406 0.04494286 -0.027262064 0.058031727 0.044366945 0.07065232
00000000: 7d7a d6bc cf9d 9bbc 456c 4cbc 5cf2 7b3d
00000010: be4f 923d 2dac b2bc f0c6 1f3c 5101 a8bc
00000020: f29e c83c f453 833d d252 ddbc 57c1 193d
00000030: a507 5c3d 39e3 823d 5d47 573d a93d 8b3d
00000040: c528 0c3d dcf9 d03c 4ac1 053d b711 1dbd
00000050: 021f 443d a492 c33d 098b 4aba 5d1f a03d
00000060: 952d 363d 9b92 963d 40f4 de3d e215 153d
00000070: 881b 9a3d 8a50 903d 4e93 57bc 623a 163d
00000080: 5ba2 823d 9fc5 3d3d 4568 953d f52b 7a3d
00000090: 92b7 fabc eb54 4b3d 790a a5bc ac58 133d
000000a0: bbe5 b4bd b1cd e8bc 5ff4 07bd f436 8abd
000000b0: e1da c0bb 812c ba3a 5932 0a3c dc1d c13c
000000c0: 4604 8f3d d43a a83c 7fff ed3c e819 b93d
000000d0: ac84 9dbc e4c4 d8bc 243d 743d 00eb bdb9
000000e0: 005e b0ba 209d 19bd 1835 3b3c c6d4 773d
000000f0: cd82 b2ba 3585 643d 4a05 e1ba 8cf8 83bc
00000100: beae 163d fd66 633d d7d2 49bc 36e7 2abc
00000110: e4cb 83bc 528b 683c 1d4a 6d3c 5609 82bc
00000120: 9e81 94bc 1612 993d 4c33 35bd 6120 833d
00000130: c8e3 a33c 873f c9bc 0935 22bc fe3c 833d
00000140: eb70 a13d e4c7 583d 1951 9a3d 97c6 10bd
00000150: f86e 7a3d cea4 c33c 17be 313c 2f15 803d
00000160: 916c 59bd 1b36 d93c 7d71 193d 5e6d 46bd
00000170: cfaf e83c 8a38 633c db6e a23c 0f88 21bc
00000180: 790f 9c3d 47b6 8c3d 5df5 e53c 4d50 dfba
00000190: aea9 873d a403 b03d c519 b13d a307 873d
000001a0: b2d5 8b3d b7e2 983d 564b 723d 40b5 713d
000001b0: e584 893c 3df0 a6bc 5ff3 233d 10ff 0dbd
000001c0: f22e b6bc e8d9 b83b 353f 71bd 9f12 443c
000001d0: 944f c7bc 0b9f fb3c 4fc4 5e3d 243a 0f3c
000001e0: 6278 8f3d fced edb9 59d6 6f3d 5e18 2fbc
000001f0: 6438 00bd 5caf 9eba 8f98 15bd 8b97 8c3d
00000200: 7fe3 c63c 87c1 363c 612e 323b 8440 f93d
00000210: e0bc 853d 6e10 b53d fece ac3c 2da5 1c3d
00000220: 09b4 d73b 7477 22bd a8e7 f73b 0581 5b3d
00000230: d50f 483d fde6 b73c f5d4 d33c e2a7 0d3d
00000240: 3cb8 113c 64e8 293d 1c7c b1bc e1ac 3f3d
00000250: 7317 1cbd abf5 acbc 6d1c b23c 3680 403d
00000260: 5844 e63b 0127 a13d 1a52 863d da6f 24bb
00000270: c998 0dbd b86a 6b3d e2ef 2bbc 0a42 223d
00000280: 765a 1dbc 7652 223d 62e5 493d d413 033c
00000290: ddc5 993d 7dd8 33bb a73e 53bc 60d0 033d
000002a0: 5613 223d 79e3 72bb 783b 493d 6494 ee3c
000002b0: e279 c33b 10b1 293d 0681 5b3d 8486 b4bc
000002c0: f646 a73d 0b92 623d fc3a d23d 39e0 bf3d
000002d0: 5b47 afbd e334 7cbd 86c7 79bc a674 fabc
000002e0: ff62 22bd d2f8 e13b 3fb9 973c 2ec0 d9bc
000002f0: 035e f33c af44 62bb f7c7 e9bc 6bb8 c13b
00000300: b071 343c dc70 433d ca46 0a3d fc53 78bd
00000310: d3c0 0e3c 48d2 d73c 88f3 ab3d a1e5 ed3c
00000320: f64f b93a 0cd2 623b 31f2 69bb f393 1b3d
00000330: 63a6 533a fb30 623b c517 093d 3d1d 643d
00000340: 0723 463d 5b99 12bd 2ed2 19bd 130b b1bc
00000350: 2476 643d 2aab 883d 9347 843d 0c00 5c3d
00000360: 68fb 0dbd 53ce 29bd d0e7 c03c 6cc6 a9bd
00000370: 2c30 96bc 3968 803d 077c 333c 4eb1 433d
00000380: 6523 853d 04bf c93c cb5c 2ebd 200f 8d3d
00000390: 261d 04bd c4a9 523d 86cb 3dbd 5742 87bc
000003a0: ecdb cf3c 74ee 1dbd 640b a8bc a83f 37bc
000003b0: b67b a83d f9fc cc3d bbe6 ea3d 3ae7 363d
000003c0: bd39 413d 7965 e03a 4e49 b73c 2886 70bc
000003d0: 8a3d 823d 72b9 19bc a2a5 c13c 5099 2e3d
000003e0: fee0 353d 4c3c 173d f73b 1e3d 0116 383d
000003f0: b154 dfbc adb2 6d3d 1dba 353d 2ab2 903d

bias f4 [64]
0.017537503 0.014084778 -0.05269242 -0.0118257245 0.02484125 0.03469222 0.024981275 -0.0016064132
0.0413557 0.058453105 -0.061768405 0.039543897 -0.0058458424 0.04285334 -0.027794072 -0.00010960246
0.033289168 -0.06412623 0.053404905 0.019969285 -0.010411787 0.04996284 -0.04747053 0.036554683
0.012844488 0.055474382 0.045011755 -0.035812527 -0.056200854 0.031050319 0.0036085697 0.053174745
-0.043102257 -0.01658942 -0.05667762 -0.01778267 -0.036867462 0.053376045 -0.016574873 -0.059804916
0.03776486 0.0021139693 0.04101998 0.056597985 -0.04508998 -0.020038107 0.04610615 0.019473443
-0.043873403 -0.022403724 0.055145185 -0.030613344 0.026201406 0.012134607 0.005513336 -0.018375501
0.062186353 0.014677649 0.049198776 -0.026243255 -0.0567922 -0.021896817 -0.0065453453 0.022937477
00000000: cfaa 8f3c d7c3 663c 02d4 57bd afc0 41bc
00000010: e17f cb3c 6e19 0e3d 88a5 cc3c 488e d2ba
00000020: 9864 293d 866c 6f3d de00 7dbd c8f8 213d
00000030: 7b8e bfbb fc86 2f3d 65b0 e3bc 5fda e5b8
00000040: 395a 083d 9d54 83bd 1abf 5a3d a096 a33c
00000050: 3396 2abc d6a5 4c3d 7570 42bd 5dba 153d
00000060: b071 523c 1b39 633d 3f5e 383d 28b0 12bd
00000070: de32 66bd 3d5d fe3c c17d 6c3b c3cd 593d
00000080: fe8b 30bd 89e6 87bc cb26 68bd f6ac 91bc
00000090: 5602 17bd d7a0 5a3d 07c8 87bc 00f6 74bd
000000a0: 53af 1a3d 858a 0a3b 9104 283d 4ad3 673d
000000b0: 45b0 38bd f526 a4bc cdd9 3c3d c586 9f3c
000000c0: 99b4 33bd 0488 b7bc ebdf 613d d6c8 fabc
000000d0: 55a4 d63c 3bd0 463c 37a9 b43b 3888 96bc
000000e0: 1eb7 7e3d 867a 703c a884 493d 18fc d6bc
000000f0: f09e 68bd f460 b3bc 567a d6bb 60e7 bb3c

weight f4 [64, 32, 2, 2]
-0.018073363 -3.718845e-05 0.025948677 -0.00035653787 0.0023904974 -0.065303706 -0.015722204 0.06746736
0.02407439 -0.04763934 0.002365447 -0.01948044 -0.01679987 0.021674858 -0.0035312248 0.035045367
0.08840835 0.08895103 0.05598265 0.062333565 -0.09276795 -0.101325184 -0.018530054 -0.04721409
-0.06823256 0.022152446 0.025115054 -0.108631715 -0.045009572 -0.062377766 -0.042689785 -0.05171864
-0.09236958 0.022423143 -0.076187834 -0.09289552 0.0697944 -0.063534275 0.043144837 0.016853321
0.01710551 0.04424413 0.05814311 0.046056427 0.0008110081 -0.03792258 -0.065042384 -0.02376751
-0.11416672 -0.006681595 -0.09967781 -0.048363358 0.10320003 0.010550618 0.0064678923 -0.026130334
0.025598405 0.010211437 0.02826866 -0.007353674 0.04914816 -0.003066817 -0.10255147 0.06175284
0.08711441 -0.050344106 -0.05393246 0.077166475 -0.01919475 0.01876642 0.05346395 -0.028016947
0.040423963 -0.08037341 -0.054155346 -0.08116008 -0.058827516 0.076120116 0.05749097 -0.06360769
0.015251333 -0.050416525 -0.0038762602 -0.020139467 0.028229875 0.017924165 0.00052839663 -0.06953908
0.039440505 -0.015293724 0.05780632 0.011583545 -0.10411857 -0.027253604 0.03397674 -0.011300466
0.084943265 -0.03810346 0.039305575 0.036890782 0.00967749 0.043781828 -0.004226502 -0.0071791396
-0.1015012 -0.060314342 -0.11220641 -0.034354635 -0.08691068 -0.03340643 -0.04256428 -0.075407125
0.035380814 0.060406037 -0.08931588 -0.029587308 0.07198453 0.043616824 -0.003788838 0.09836659
0.04801308 0.03305809 -0.004746546 -0.021482155 -0.10312235 -0.08659777 -0.0043849456 -0.0077345176
-0.07472962 -0.050193977 -0.023416769 0.044940628 0.04947383 0.032467347 0.0483702 -0.069002
0.015441185 -0.06491573 0.111541584 0.030940294 0.10549335 0.042547215 0.019108387 -0.067011565
-0.09554057 0.019445533 -0.106088765 -0.08604773 0.084185995 -0.045227755 0.052665435 -0.050999377
0.026962126 -0.010572839 0.0993416 0.08096846 0.009918719 -0.035900585 -0.054570116 0.039480906
0.08446064 0.10074973 0.1033633 0.040419515 -0.044252194 0.044800416 -0.06352376 -0.08504954
-0.010008458 -0.023625597 0.014099688 -0.104754075 0.09383991 -0.046749454 -0.025755703 0.06967813
0.07536724 0.09404491 0.04679955 0.06547284 -0.025074868 0.0591268 -0.030701991 0.027270742
0.011507803 -0.06822382 0.015750267 0.061438758 0.0015605912 0.10256908 0.011230396 -0.061495062
-0.003209359 -0.09763079 0.024572106 0.046889104 0.09546315 0.012106319 0.0069307694 0.095093034
0.03275663 -0.060946397 -0.009114509 -0.0027786687 -0.0019156091 -0.06238194 0.052715316 0.06805305
0.07829262 0.037557133 0.023242122 0.044887774 0.04583497 -0.0062458473 0.064548306 -0.014622709
-0.035414666 0.023763567 0.05699762 -0.031460956 0.07433295 0.023802172 -0.027199585 0.015561209
-0.11124801 -0.02594877 0.02298855 0.020257896 0.039563976 0.091036096 0.06597653 -0.0768646
0.037647057 -0.05830798 0.11596912 0.07740652 -0.019534681 0.016097179 0.08538217 -0.06492944
0.05599849 -0.05406791 0.0034773916 0.08803558 -0.017044893 -0.036197823 -0.020253696 -0.025194775
-0.014869699 0.025684066 0.1084946 0.07271265 0.055394713 0.046889417 0.07609119 0.07830078
00000000: 970e 94bc cbfa 1bb8 5292 d43c b4ed bab9
00000010: e4a9 1c3b f3bd 85bd dacb 80bc 542c 8a3d
00000020: a837 c53c 7821 43bd 9e05 1b3b 7295 9fbc
00000030: e29f 89bc 798f b13c 1f6c 67bb bb8b 0f3d
00000040: 700f b53d f52b b63d 104e 653d 7b51 7f3d
00000050: 1ffd bdbd 9483 cfbd 57cc 97bc 9063 41bd
00000060: 83bd 8bbd 0c79 b53c 16be cd3c 4e7a debd
00000070: f55b 38bd d47f 7fbd 7cdb 2ebd edd6 53bd
00000080: 432c bdbd bdb0 b73c 5e08 9cbd 0240 bebd
00000090: 5ef0 8e3d 421e 82bd a4b8 303d fa0f 8a3c
000000a0: db20 8c3c 5539 353d 7827 6e3d aaa5 3c3d
000000b0: d599 543a b554 1bbd f134 85bd 15b4 c2bc
000000c0: 3ed0 e9bd 48f1 dabb e123 ccbd a818 46bd
000000d0: 8a5a d33d 80dc 2c3c 9df0 d33b 480f d6bc
000000e0: bfb3 d13c df4d 273c ad93 e73c 17f7 f0bb
000000f0: 954f 493d a7fc 48bb 8106 d2bd 8cf0 7c3d
00000100: 0a69 b23d 9f35 4ebd 48e8 5cbd 7509 9e3d
00000110: 4f3e 9dbc 09bc 993c 04fd 5a3d cc83 e5bc
00000120: 9993 253d d09a a4bd ffd1 5dbd 4237 a6bd
00000130: 1ff5 70bd dde4 9b3d a77b 6b3d c044 82bd
00000140: bae0 793c 8f81 4ebd db08 7ebb 86fb a4bc
00000150: 5742 e73c b3d5 923c 1984 0a3a 816a 8ebd
00000160: 5e8c 213d 8792 7abc 52c6 6c3d e9c8 3d3c
00000170: 1e3c d5bd f342 dfbc 322b 0b3d 9725 39bc
00000180: bcf6 ad3d 6012 1cbd e2fe 203d ca1a 173d
00000190: 568e 1e3c 9354 333d 787e 8abb fd3e ebbb
000001a0: dcdf cfbd 2c0c 77bd 79cc e5bd 72b7 0cbd
000001b0: 3afe b1bd 2ed5 08bd e257 2ebd 0d6f 9abd
000001c0: 79eb 103d 526c 773d 3eeb b6bd 1561 f2bc
000001d0: a06c 933d 8ea7 323d 274e 78bb 6c74 c93d
000001e0: 5da9 443d eb67 073d ea88 9bbb 58fb afbc
000001f0: d031 d3bd 2c5a b1bd 97af 8fbb d671 fdbb
00000200: d80b 99bd 3398 4dbd 86d4 bfbc aa13 383d
00000210: 12a5 4a3d 7bfc 043d d51f 463d ec50 8dbd
00000220: 06fd 7c3c 8af2 84bd ea6f e43d 8076 fd3c
00000230: e60c d83d fd45 2e3d 3189 9c3c 5c3d 89bd
00000240: c6aa c3bd 3d4c 9f3c 1145 d9bd cb39 b0bd
00000250: b569 ac3d bd40 39bd b6b7 573d b9e4 50bd
00000260: addf dc3c b339 2dbc 9c73 cb3d cbd2 a53d
00000270: 1f82 223c 7e0c 13bd ea84 5fbd bbb6 213d
00000280: b3f9 ac3d e055 ce3d 23b0 d33d ef8e 253d
00000290: ca41 35bd a480 373d bf18 82bd 742e aebd
000002a0: 84fa 23bc 788a c1bc 6102 673c 4e89 d6bd
000002b0: 242f c03d 5b7c 3fbd a0fd d2bc 68b3 8e3d
000002c0: 245a 9a3d 9e9a c03d e3b0 3f3d a016 863d
000002d0: cf69 cdbc f22e 723d be82 fbbc e466 df3c
000002e0: 398b 3c3c eeb8 8bbd b406 813c 35a7 7b3d
000002f0: c08c cc3a bd0f d23d b2ff 373c 3fe2 7bbd
00000300: 1c54 52bb a7f2 c7bd 714b c93c ca0e 403d
00000310: 2f82 c33d 9559 463c 821b e33b 23c0 c23d
00000320: d12b 063d eea2 79bd 0655 15bc 531a 36bb
00000330: 2d15 fbba 3584 7fbd 04ec 573d 665f 8b3d
00000340: e257 a03d 82d5 193d 4366 be3c 3edc 373d
00000350: 73bd 3b3d f7a9 ccbb e731 843d 1694 6fbc
00000360: f80e 11bd d0ab c23c 5676 693d 34dd 00bd
00000370: e03b 983d c6fc c23c aad1 debc 71f4 7e3c
00000380: ffd5 e3bd 8492 d4bc 7c52 bc3c e3f3 a53c
00000390: d60d 223d 2271 ba3d b41e 873d 306b 9dbd
000003a0: cd33 1a3d 59d4 6ebd 3881 ed3d 4f87 9e3d
000003b0: 3207 a0bc 3bde 833c d9dc ae3d baf9 84bd
000003c0: ac5e 653d 5076 5dbd f3e4 633b 004c b43d
000003d0: bba1 8bbc 2b44 14bd 14eb a5bc 4665 cebc
000003e0: 0aa0 73bc 6467 d23c 6b32 de3d 5fea 943d
000003f0: 91e5 623d 1e0f 403d b3d5 9b3d 295c a03d

bias f4 [32]
0.006021537 0.052692212 -0.08073137 -0.014161794 0.075270884 -0.08659921 -0.07069184 -0.021053927
-0.03568318 -0.021479694 -0.02064699 -0.054653734 0.06536659 -0.016459776 -0.04033981 -0.08706414
0.03139857 0.068452425 -0.031091297 0.090718016 0.074896686 -0.06940568 0.058834065 -0.046341512
-0.04779136 -0.09082039 -0.000958216 -0.05703657 -0.013462286 -0.04012197 -0.034767147 -0.02354049
00000000: 5050 c53b cad3 573d 7d56 a5bd df06 68bc
00000010: 9f27 9a3d ed5a b1bd e2c6 90bd 4979 acbc
00000020: 8728 12bd 2ff6 afbc e023 a9bc 98dc 5fbd
00000030: ebde 853d a7d6 86bc 5b3b 25bd af4e b2bd
00000040: c99b 003d c930 8c3d 2db3 febc 5eca b93d
00000050: 6f63 993d 9124 8ebd fdfb 703d 99d0 3dbd
00000060: e0c0 43bd 0a00 babd ca30 7bba 2e9f 69bd
00000070: ec90 5cbc ef56 24bd ff67 0ebd fcd7 c0bc
