output/multiclass-3-2/unet_tgs_salt.pth (torch, 973689 bytes, 36 tensors)

weight f4 [16, 3, 2, 2]
0	0xbe1ea7fe	-0.15493771
1	0xbea1774b	-0.31536326
2	0xbd6f35a9	-0.058400784
3	0x3e6a95c7	0.22908698
4	0xbe77bfc6	-0.2419425
5	0x3e715b23	0.23569922
6	0xbdb94cb7	-0.09047835
7	0xbc42e3b3	-0.011895108
8	0x3e50ad50	0.20378613
9	0xbe57bf35	-0.21069033
10	0xbe44144b	-0.19148366
11	0x3d341b45	0.04397132
12	0x3bac3078	0.0052548014
13	0xbea52c0a	-0.32260162
14	0x3dc2e5f2	0.09516515
15	0x3da5746c	0.08078846
16	0xbe43be4b	-0.1911556
17	0x3d9d6751	0.07685722
18	0x3dc341bd	0.09534023
19	0x3deca283	0.11554434
20	0x3ebc11b4	0.36732256
21	0xbe54df69	-0.20788349
22	0x3e19a634	0.15004808
23	0x3e8deff7	0.2772214
24	0xbd68d54b	-0.056844037
25	0xbe7f35a9	-0.24922813
26	0x3e72c626	0.237084
27	0x3d035566	0.032063864
28	0x3e5d0cf7	0.21586977
29	0xbe35e009	-0.17761244
30	0xbd0e2956	-0.03470739
31	0xbdc32bcc	-0.09529838
32	0x3dcabae0	0.09898925
33	0xbc66750f	-0.014065995
34	0xbd9187e2	-0.07105996
35	0xbda4d50b	-0.08048447
36	0x3e20990e	0.15683386
37	0xbe36dc0c	-0.17857379
38	0x3e12d072	0.14337328
39	0x3d13fc26	0.03612914
40	0xbe99e5f2	-0.30058247
41	0xbe680e75	-0.22661765
42	0xbe1b7aad	-0.15183516
43	0x3e2f17f0	0.17098975
44	0x3e1203c1	0.14259245
45	0xbded939b	-0.11600419
46	0x3e8d508b	0.27600512
47	0x3e8b5200	0.27211
48	0x3ea64e2b	0.32481512
49	0x3e09f6a5	0.13472994
50	0xbe06ca50	-0.13163114
51	0x3e057c54	0.13035709
52	0xbe4ff7a4	-0.20309311
53	0xbe6c6f4c	-0.23089331
54	0xbe06bcd1	-0.13157965
55	0xbe6cc1c3	-0.23120789
56	0x3e43bd87	0.19115268
57	0xbe50c864	-0.20388943
58	0xbc737665	-0.01485977
59	0x3ea87090	0.32898378
60	0x3dd8c565	0.10584525
61	0xbd17d8d4	-0.037072018
62	0x3c948ddc	0.01813405
63	0x3cac4f59	0.02103393
64	0xbe48861a	-0.19582406
65	0x3e4aefc6	0.19818029
66	0x3e23369d	0.15938802
67	0x3e1d9028	0.15387022
68	0x3e22b01c	0.15887493
69	0x3ea1273e	0.31475252
70	0xbdb0c695	-0.086316265
71	0x3e764501	0.2404976
72	0xbde15f00	-0.11004448
73	0xbd9c7553	-0.07639565
74	0x3dbafeb2	0.091306105
75	0xbd0e1b0d	-0.034693766
76	0x3e4d1dc5	0.20030887
77	0xbe390ddf	-0.18071698
78	0x3e82b94a	0.2553199
79	0xbe8eb486	-0.27872103
80	0x3e3092b0	0.17243457
81	0x3e9145cf	0.28373572
82	0x3e64ba7d	0.22336765
83	0xbe490e26	-0.19634303
84	0x3b055812	0.0020346683
85	0x3bf32496	0.007420133
86	0xbef48258	-0.47755694
87	0xbd6c6d7a	-0.057721592
88	0xbe2953ee	-0.16535923
89	0x3db4aee4	0.0882242
90	0x3e6c6906	0.23086938
91	0x3c6510f4	0.013981093
92	0x3d82fa33	0.06395378
93	0x3d02937f	0.031878944
94	0xbd07389c	-0.03301297
95	0x3d5bb199	0.053636167
96	0x3e7df859	0.24801768
97	0x3e8fd4c0	0.28092003
98	0xbe84bd5d	-0.25925723
99	0x3e56735e	0.20942447
100	0x3dedc6fc	0.11610219
101	0xbcb417a7	-0.021983935
102	0x3e8c7512	0.27433068
103	0x3e94eeea	0.29088527
104	0x3db2e44c	0.087349504
105	0xbe9d4430	-0.30716085
106	0x3cd9cf64	0.02658815
107	0xbe9877e2	-0.29778963
108	0x3e68682b	0.22695987
109	0xbe8b3594	-0.27189314
110	0x3dedb92c	0.11607584
111	0x3cfaade2	0.030600492
112	0x3db10c9d	0.08644984
113	0xbd9dc69e	-0.07703899
114	0x3e90d9bf	0.28291127
115	0xbbaa064e	-0.00518874
116	0xbe3d85a1	-0.18508007
117	0xbe476f80	-0.19476128
118	0x3e29094a	0.1650745
119	0xbe74d4a6	-0.23909244
120	0x3d1cb679	0.038259957
121	0xbdca8891	-0.09889329
122	0xbe33d000	-0.17559814
123	0xbe951b93	-0.291226
124	0x3a408346	0.000734378
125	0x3e46eb50	0.19425702
126	0xbd9c3d58	-0.07628888
127	0x3bdbbf32	0.006706142
128	0x3d904c8f	0.070458524
129	0x3e0a660e	0.13515493
130	0x3eb1f93f	0.34760472
131	0x3e02b512	0.12764385
132	0xbd114e1c	-0.03547488
133	0x3d0550e0	0.03254783
134	0x3e66f504	0.22554404
135	0x3e3cbd14	0.18431503
136	0xbde88b6e	-0.11354719
137	0x3ce5cc98	0.02805166
138	0x3e5854d8	0.21126115
139	0xbeab64d1	-0.33475354
140	0x3e493ce6	0.19652137
141	0x3e2fabaf	0.17155336
142	0x3d1fb1dc	0.03898798
143	0xbc1e5f76	-0.009666314
144	0x3e534a47	0.20633803
145	0x3e93c4f5	0.28861204
146	0xbc998543	-0.018740302
147	0x3d6fc6f0	0.05853933
148	0x3d9aa61a	0.075512126
149	0x3dffba21	0.12486673
150	0x3e0fe917	0.1405376
151	0xbcea0278	-0.02856563
152	0x3ae0220e	0.0017099993
153	0x3d2c8229	0.042116318
154	0xbe6cd387	-0.23127566
155	0xbd93430c	-0.071905226
156	0x3e362e04	0.17790991
157	0x3e79a847	0.24380599
158	0x3cd157b2	0.025554512
159	0x3e3b764d	0.18306847
160	0x3e2393a7	0.15974294
161	0xbe28f3f1	-0.16499306
162	0x3d0aedb2	0.03391809
163	0xbe057010	-0.1303103
164	0xbe50459f	-0.20339058
165	0x3e8026c8	0.25029588
166	0xbd83941f	-0.06424736
167	0x3dd7fdc4	0.10546449
168	0xbe6768bf	-0.22598551
169	0xbe8065e6	-0.25077742
170	0x3d833897	0.06407278
171	0xbd9ddfba	-0.07708688
172	0xbe25de10	-0.16197991
173	0xbd9f5b4e	-0.07781087
174	0x3e66648c	0.22499293
175	0x3e8ca2d4	0.27467978
176	0xbe13358b	-0.14375894
177	0x3e027c40	0.1274271
178	0xbded9a52	-0.116017
179	0x3c275c0f	0.01021482
180	0x3e937093	0.28796825
181	0xbc1c3d7e	-0.009536145
182	0xbdb5271a	-0.08845349
183	0x3e2a882f	0.16653512
184	0x3d649b6e	0.05581229
185	0x3e833623	0.2562724
186	0xbe59f8b6	-0.21286282
187	0xbe0b4139	-0.13599099
188	0x3dea20ef	0.11432063
189	0x3ead881b	0.33892903
190	0xbe8d568a	-0.27605087
191	0xbd5c7a9c	-0.053827867

bias f4 [16]
0	0xbda02653	-0.0781981
1	0x3c9a31e7	0.018822623
2	0xbe81499c	-0.25251472
3	0x3d3797ab	0.044822376
4	0x3d925b3b	0.07146307
5	0xbea3375c	-0.31878173
6	0xbe1614e8	-0.14656413
7	0x3d3e766e	0.046499662
8	0xbe12bf13	-0.14330702
9	0x3d5a1205	0.05323984
10	0xbe700f7c	-0.23443407
11	0xbab61984	-0.0013893102
12	0xbe093789	-0.13400091
13	0xbe8fe8f4	-0.28107417
14	0x3e6ec7b6	0.23318371
15	0xbe563718	-0.20919454

weight f4 [16, 16, 2, 2]
0	0xbd0f6ca8	-0.035015732
1	0x3ca691f6	0.020333271
2	0xbd985312	-0.074377194
3	0x3dcc1910	0.09965718
4	0xbce16e34	-0.02751837
5	0xbd7c8fe6	-0.06166067
6	0x3e162e6b	0.14666145
7	0x3dc7be18	0.097530544
8	0x3dfc3050	0.123139024
9	0xbdd4300c	-0.10360727
10	0x399d75f3	0.00030033253
11	0xbcc13168	-0.023583129
12	0xbbbb1096	-0.0057087643
13	0x3cd46542	0.02592719
14	0x3dd1f96e	0.10252653
15	0x3d3c9999	0.04604492
16	0xbdaa0e22	-0.08303477
17	0xbd6771ee	-0.056505136
18	0xbe1cd9a2	-0.15317395
19	0xbe3aac0f	-0.18229698
20	0x3d83cbf7	0.064353876
21	0x3de519b1	0.11186541
22	0x3d8b35ca	0.06797369
23	0x3ccf8fc2	0.025337104
24	0x3da234c0	0.079202175
25	0x3dd09e93	0.10186496
26	0x3e093296	0.13398203
27	0x3de622e9	0.11237127
28	0xbc0c6193	-0.008568185
29	0x3dc4c947	0.09608703
30	0xbaa4defb	-0.001257866
31	0x3e25330d	0.16132756
32	0xbd84e357	-0.06488674
33	0xbe57769f	-0.21041344
34	0xbd04ddd1	-0.032438103
35	0xbe843832	-0.25824124
36	0xbd87a641	-0.06623507
37	0xbec3fd19	-0.38279036
38	0xbdbdf750	-0.09275687
39	0xbe59a122	-0.21252874
40	0x3e073a1a	0.13205758
41	0x3e875a74	0.26436198
42	0x3e3da94e	0.18521616
43	0x3e2cd8bf	0.16879557
44	0x3ddeea3b	0.1088452
45	0x3c03395d	0.008009282
46	0xbde4c693	-0.111706875
47	0xbd7f9926	-0.062401913
48	0xbe4882c6	-0.19581136
49	0xbe06ce41	-0.13164617
50	0xbe736e41	-0.23772527
51	0xbd6ff678	-0.05858466
52	0x3caa59cc	0.020794772
53	0x3d105270	0.03523487
54	0x3d81b30c	0.063329786
55	0x3db30cd8	0.08742684
56	0x3d92298f	0.07136833
57	0xbc79b0f2	-0.015239941
58	0x3e14c378	0.1452769
59	0x3dff4277	0.12463849
60	0x3bffb1f3	0.0078031956
61	0x3da1f2b2	0.079076186
62	0xbe28b938	-0.16476905
63	0xbe2da298	-0.16956556
64	0xbdc0eecd	-0.09420548
65	0xbcc13a4a	-0.023587365
66	0x3cddeae6	0.027089547
67	0x3c35c308	0.011093862
68	0x3dc89c4c	0.09795436
69	0x3deb0966	0.11476402
70	0x3ca456ce	0.020060923
71	0x3d362a02	0.044473656
72	0xbbc93909	-0.0061408323
73	0x3dfb5846	0.12272696
74	0x3d5858ba	0.05281899
75	0x3da13847	0.07872062
76	0x3e260878	0.16214168
77	0x3c1fb254	0.009747107
78	0x3d31dd13	0.043423723
79	0x3db1a1de	0.08673452
80	0x3e4558cd	0.19272156
81	0x3e3a843c	0.18214506
82	0x3e3c05f0	0.1836164
83	0x3e88f172	0.26746708
84	0xbd8b5590	-0.06803429
85	0x3bcc9829	0.006243725
86	0x3d39e0a6	0.045380257
87	0xbdb316aa	-0.08744557
88	0x3bcd68cf	0.0062685977
89	0x3d346059	0.044037197
90	0x3d911c6d	0.070855
91	0xbb06c479	-0.0020563884
92	0x3e0e35d2	0.13887718
93	0x3e156fa0	0.14593363
94	0x3dc5f4df	0.09665846
95	0xbbd5ede5	-0.0065286034
96	0xbde7d67e	-0.11320208
97	0xbd7fa48a	-0.062412776
98	0xbd30c617	-0.043157663
99	0xbe5266a3	-0.20546965
100	0xbe7e2f6d	-0.24822779
101	0xbe685499	-0.22688521
102	0xbe57c566	-0.21071395
103	0xbdec2220	-0.11529946
104	0xbed9f472	-0.4256931
105	0xbf02d22a	-0.51101935
106	0xbf005c0e	-0.50140464
107	0xbef852a5	-0.48500553
108	0x3cb53108	0.022118106
109	0xbd99ac37	-0.075035505
110	0xbcb75930	-0.022381395
111	0x3cbcca66	0.02304573
112	0xbdeeec81	-0.11666203
113	0xbe043565	-0.12910993
114	0xbe050b47	-0.12992583
115	0xbdace7b2	-0.0844263
116	0x3ddc9fd7	0.107726745
117	0x3db59f64	0.08868292
118	0xbdc85a68	-0.097828686
119	0xbcdbf19d	-0.026848609
120	0x3ddd7176	0.108126566
121	0xbdd714ec	-0.105020374
122	0xbd45d09e	-0.048294656
123	0x3c743d1b	0.014907147
124	0x3d808269	0.06274874
125	0xbbef14d4	-0.007296184
126	0xbdb223b6	-0.086982176
127	0x3d20284b	0.039100926
128	0xbde8756a	-0.1135052
129	0x3ceda2e6	0.02900834
130	0x3e024ef9	0.12725438
131	0x3db468e3	0.08809068
132	0xbdb0967d	-0.08622453
133	0x3dc95dc3	0.09832337
134	0x3d078e06	0.03309443
135	0xbd3089bd	-0.043100107
136	0x3d82e646	0.063915774
137	0x3dadb3a1	0.08481527
138	0xbdb948c4	-0.09047082
139	0xbd83efcb	-0.06442221
140	0x3dcb3940	0.09923029
141	0x3df6401f	0.12023949
142	0x3b055ad4	0.0020348327
143	0xbc83f831	-0.016109558
144	0x3eab4a11	0.33454946
145	0x3ed26895	0.41095415
146	0x3ed96a32	0.42463833
147	0x3edf61e9	0.43629387
148	0x3dfcf03b	0.12350508
149	0x3cd4f880	0.0259974
150	0x3c9d6ab9	0.019215928
151	0x3e121cea	0.14268842
152	0x3e2a6cb8	0.16643035
153	0x3df076e7	0.11741429
154	0x3e3dcd9b	0.18535464
155	0x3d1e6fd3	0.038680863
156	0x3ccd8678	0.025088534
157	0xbca4a956	-0.020100277
158	0x3d2e6820	0.04257977
159	0x3d4830fc	0.04887484
160	0xbc0a60bc	-0.008445915
161	0xbddae574	-0.10688296
162	0xbde6e9a0	-0.11275029
163	0xbd99d224	-0.07510784
164	0xbe9aae75	-0.30211225
165	0xbea10e23	-0.31456098
166	0xbe106502	-0.14101031
167	0xbe828bc8	-0.2549727
168	0xbe5fb7be	-0.21847436
169	0xbe5d5f8a	-0.21618477
170	0xbead9921	-0.3390589
171	0xbe0b185a	-0.13583508
172	0x3dbc6600	0.091991425
173	0x3d59171a	0.053000547
174	0x3e011f93	0.12609701
175	0x3e040c1f	0.12895249
176	0xbd06face	-0.03295403
177	0xbcb8dfc1	-0.022567632
178	0xbe554bbf	-0.20829676
179	0xbb40ee21	-0.002943881
180	0x3e34eb0f	0.17667793
181	0x3d7d733b	0.06187747
182	0x3d60442e	0.05475252
183	0xbd3599e2	-0.044336207
184	0xbe004c89	-0.12529196
185	0xbe6a1dd7	-0.22862945
186	0xbe25dd2d	-0.16197653
187	0xbdcb1fc2	-0.09918167
188	0x3c0c4ca9	0.008563199
189	0xbdc5abda	-0.09651919
190	0xbe7b7f5f	-0.24560307
191	0xbe1699c4	-0.14707094
192	0x3c2560f0	0.0100939125
193	0xbd172524	-0.036900654
194	0xbd7b1851	-0.061302487
195	0x3df2a742	0.11848308
196	0x3e059030	0.13043284
197	0xbc338c18	-0.010958694
198	0x3dedd0ff	0.116121285
199	0xbd5d4d9d	-0.054029096
200	0xbbfb052d	-0.007660529
201	0x3c957fd4	0.01824943
202	0xbda16e98	-0.07882422
203	0x3d230ce2	0.039807208
204	0xbd1c2eab	-0.038130444
205	0xbdb14629	-0.0865596
206	0x3d72709c	0.059189424
207	0x3c0feb15	0.008784075
208	0xbd59d62a	-0.05318276
209	0xbea5d71f	-0.32390687
210	0xbb5cf058	-0.0033712592
211	0xbdfd6b5d	-0.123739935
212	0x3d131eab	0.03591792
213	0x3d77b9ea	0.060480036
214	0xbd8b0086	-0.06787209
215	0x3dc5c84e	0.09657346
216	0x3e904be6	0.28182906
217	0xbd961b8c	-0.07329473
218	0x3cd3225f	0.025773225
219	0xbd2f4652	-0.042791672
220	0xbe073ee0	-0.13207579
221	0x3e00556c	0.12532586
222	0xbd1250d6	-0.035721622
223	0x3dfdc854	0.12391725
224	0xbe0892f1	-0.13337304
225	0xbe26e117	-0.16296802
226	0xbd3ad1cf	-0.045610245
227	0x3d8a7ae7	0.06761723
228	0x3ed3344e	0.41250843
229	0xbe248a12	-0.16068295
230	0x3e3f1957	0.1866201
231	0xbdf0b124	-0.11752537
232	0x3e46358b	0.19356363
233	0x3e77791a	0.2416729
234	0x3ea0b898	0.31390834
235	0x3e8de5a7	0.27714273
236	0x3a9c4e08	0.0011925111
237	0xbde421e2	-0.11139275
238	0xbc6ccbdf	-0.0144529035
239	0xbdb0fdb4	-0.0864214
240	0xbe28ff4a	-0.16503635
241	0xbe4e2bd4	-0.20133907
242	0xbdb53b55	-0.08849207
243	0xbe16c96e	-0.14725277
244	0xbe0d97bd	-0.13827415
245	0xbe07a25f	-0.13245533
246	0x3d8f05c9	0.06983525
247	0x3df6c7ef	0.12049853
248	0x3e7e5652	0.24837616
249	0x3e817b6c	0.25289476
250	0x3e3467e6	0.17617759
251	0x3e08e778	0.13369548
252	0xbe8f5ea3	-0.2800189
253	0x3d92c388	0.07166201
254	0xbc7c46ba	-0.015397722
255	0xbd098962	-0.033578284

bias f4 [16]
0	0x3d980dcd	0.07424507
1	0xbd91ca53	-0.071186684
2	0xbd7efd46	-0.06225326
3	0x3dae04dc	0.084970206
4	0xbd60ceb2	-0.05488462
5	0xbc18ee0d	-0.0093340995
6	0xbde0a232	-0.10968436
7	0xbd82c9bd	-0.06386135
8	0xbd89be3e	-0.06725739
9	0x3dee5a72	0.11638345
10	0xbddaaf51	-0.1067797
11	0xbd5e986d	-0.054344583
12	0xbccc5126	-0.024941038
13	0xbce5a32a	-0.028031904
14	0xbdb9201d	-0.09039328
15	0xbe01b3e8	-0.12666285

weight f4 [32, 16, 2, 2]
0	0xbe2325ad	-0.15932341
1	0xbe3c4603	-0.18386082
2	0xbdd78dc2	-0.10525085
3	0x3cff8e8a	0.031195898
4	0xbdd6dfb4	-0.10491887
5	0xbdaf2b05	-0.08553127
6	0xbd337e2c	-0.0438215
7	0x3cd25651	0.025675924
8	0xbe1e7881	-0.15475656
9	0xbe18eec2	-0.14934829
10	0xbdb902f6	-0.09033768
11	0xbcd9f148	-0.02660431
12	0xbdf00f23	-0.11721637
13	0xbd8cdc9d	-0.06878016
14	0xbd7ac340	-0.06122136
15	0xbe2b42a9	-0.16724648
16	0xbd6bf28a	-0.05760435
17	0x3de46f82	0.11154081
18	0xbde12f02	-0.10995294
19	0xbd9b567e	-0.075848565
20	0xbd4adebf	-0.049528833
21	0xbd286b04	-0.041117683
22	0xbde316f7	-0.110883646
23	0x3c7a2df0	0.015269741
24	0xbe2cf7d3	-0.16891412
25	0xbe8445a5	-0.25834385
26	0xbe455be8	-0.1927334
27	0xbe3129cd	-0.17301102
28	0x3a8eaa31	0.0010884461
29	0x3cb7342d	0.022363747
30	0xbcb793d0	-0.02240935
31	0xbdba26dd	-0.09089444
32	0xbe4ccbcf	-0.19999622
33	0xbe01a3d2	-0.12660149
34	0xbe03dd35	-0.12877353
35	0xbe39e026	-0.18151912
36	0xbe189b3a	-0.14902964
37	0xbdd7df92	-0.105406895
38	0x3d03df18	0.03219518
39	0xbe206a75	-0.1566561
40	0xbb40ecfd	-0.002943813
41	0xbdbd69ad	-0.09248672
42	0xbe053dcf	-0.1301186
43	0xbbb017b3	-0.005373919
44	0x3c24d314	0.010060091
45	0x3c8d52f6	0.017251473
46	0x3b6558a0	0.0034995452
47	0xbe4148e3	-0.1887546
48	0xbe0d3a87	-0.13791858
49	0x3aa37e7b	0.0012473607
50	0xbd5b7079	-0.05357406
51	0xbe0529e9	-0.13004269
52	0xbd800fe7	-0.06253033
53	0x3deceac8	0.115682185
54	0x3e080ff7	0.1328734
55	0xbc83d349	-0.01609196
56	0xbcda82b8	-0.02667366
57	0x3d80048d	0.06250868
58	0xbbe7dad1	-0.0070756455
59	0xbc1b496b	-0.009477953
60	0xbe249ebd	-0.16076179
61	0xbe3e8b21	-0.18607761
62	0xbd917cc7	-0.071038775
63	0xbdf12477	-0.11774533
64	0xbe0d895d	-0.13821931
65	0xbe342112	-0.1759074
66	0x3ba8a336	0.0051464094
67	0xbde4d9cb	-0.11174353
68	0x3e051a4e	0.12998316
69	0x3e4bffeb	0.19921844
70	0xbc343de3	-0.011001083
71	0x3e090312	0.13380077
72	0x3b1ff403	0.0024406917
73	0x3cbb1db2	0.022841308
74	0x3df99ecc	0.12188491
75	0x3e205d16	0.1566051
76	0xbe466d78	-0.19377697
77	0xbe509174	-0.20367986
78	0xbe0c38d5	-0.13693555
79	0xbd643daa	-0.05572287
80	0xbcf7e540	-0.030260682
81	0xbd16fcc7	-0.03686216
82	0x3dc1ebc3	0.09468796
83	0x3cfa27e5	0.030536601
84	0x3da433c3	0.08017685
85	0x3dccdb7f	0.10002803
86	0x3d6ceec6	0.0578449
87	0xbdd7c96d	-0.10536466
88	0xbd34102a	-0.043960728
89	0xbdc9ce7c	-0.09853837
90	0xbd3612b0	-0.044451416
91	0x3cc94e28	0.0245734
92	0x3e17bd35	0.1481827
93	0x3e1cd139	0.15314187
94	0x3e0f8052	0.14013794
95	0x3e0538fa	0.13010016
96	0x3e1664cb	0.14686887
97	0x3dad60a2	0.08465697
98	0x3d43a205	0.047761936
99	0x3e150a0a	0.14554611
100	0x3e071359	0.13190974
101	0xbd975a2c	-0.07390246
102	0x3cb3686d	0.02190038
103	0x3d7f38e4	0.062310115
104	0x3e072f19	0.1320156
105	0x3e9685cd	0.29398957
106	0x3e714cf6	0.23564515
107	0x3e62095f	0.22073887
108	0xbd13095d	-0.0358976
109	0xbe229afb	-0.15879433
110	0xbd71d37c	-0.059039578
111	0xbce08cf3	-0.02741096
112	0xbdc0c3c6	-0.09412341
113	0x3d14a355	0.036288578
114	0x3cc3a26f	0.023881165
115	0x3cbbb2bc	0.022912376
116	0xbe24af8f	-0.16082595
117	0xbe11a604	-0.14223486
118	0xbe050cea	-0.12993208
119	0x3d96a2d5	0.073552765
120	0x3d751f25	0.059844155
121	0x3dea8a19	0.11452121
122	0x3d881a5b	0.06645652
123	0x3e5a5521	0.21321537
124	0x3d44c633	0.04804058
125	0x3e110f2b	0.14165942
126	0x3cb72859	0.022358106
127	0x3e0177fd	0.12643428
128	0x3df7380e	0.120712385
129	0xbd50a562	-0.05093897
130	0x3cb047a5	0.021518538
131	0x3d99ea5a	0.07515402
132	0xbdb86700	-0.09004021
133	0xbcf749e9	-0.03018661
134	0x3c84e06c	0.016220294
135	0xbdde7b98	-0.108634174
136	0xbc891c50	-0.016737133
137	0xbd229c19	-0.039699648
138	0x3deac4b4	0.114632994
139	0x3d01836f	0.031619485
140	0x3db55a1a	0.08855076
141	0xbdb03850	-0.08604491
142	0xbdce4500	-0.100717545
143	0xbdd0829c	-0.10181162
144	0x3dc094cb	0.0940338
145	0xbd64833c	-0.055789217
146	0x3d39167a	0.04518745
147	0x3e112b07	0.1417657
148	0xbc225ba8	-0.009909548
149	0xbda0739a	-0.07834549
150	0xbdb59599	-0.08866424
151	0xbd81e73d	-0.06342933
152	0xbcba43fb	-0.022737494
153	0x3d182f1e	0.03715431
154	0x3d8b905f	0.06814646
155	0x3d5cecbd	0.05393671
156	0xbde0cfce	-0.109771356
157	0xbd4f80cc	-0.05065994
158	0xbb39beb5	-0.002834243
159	0x3cc73905	0.024319181
160	0x3dae8ac4	0.08522561
161	0xbc5faca5	-0.0136520015
162	0x3c9996b4	0.018748619
163	0x3ddbf9be	0.10740994
164	0x3d23a49b	0.039951902
165	0xbdb7194f	-0.08940374
166	0xbd79353e	-0.06084179
167	0x3d00ccb3	0.031445216
168	0x3be30d53	0.0069290786
169	0xbe1b62d0	-0.15174413
170	0xbd7a0b4e	-0.061045937
171	0x3d1d1725	0.03835215
172	0x3da2c9b6	0.079486296
173	0x3d322a73	0.043497514
174	0xbd0efd9d	-0.034909833
175	0x3a9d426b	0.0011997944
176	0xbdb1d901	-0.08683968
177	0x3de8331b	0.113378726
178	0x3de70886	0.112809226
179	0x3dce482e	0.10072361
180	0x3d0884cc	0.03332977
181	0x3d092bd7	0.033489075
182	0xbd50c0bf	-0.050965067
183	0x3dd70a5d	0.105000235
184	0xbd4480f6	-0.04797455
185	0x3d02c788	0.03192857
186	0x3cb28b7d	0.021795029
187	0x3d16ede3	0.03684796
188	0x3d3698eb	0.044579428
189	0xbcc7d651	-0.024394186
190	0x3cbbd2e8	0.022927716
191	0x3d3cb60f	0.046072062
192	0x3db3bb5e	0.08775972
193	0x3e0ce4ee	0.13759205
194	0x3de1c169	0.11023218
195	0x3e1951e5	0.14972647
196	0x3dce1762	0.10063054
197	0xbcd2e618	-0.025744483
198	0x3e49ef26	0.19720134
199	0x3b241eab	0.0025042694
200	0xbe073c84	-0.13206679
201	0xbd914774	-0.07093707
202	0xbcff06be	-0.031131145
203	0xbe3ff03d	-0.18743987
204	0x3dd1a9d4	0.1023747
205	0xbd0e06af	-0.034674343
206	0x3b8cee6f	0.0043008844
207	0x3d0fa4c1	0.03506923
208	0xbd4d71f0	-0.050157487
209	0x3d9ffb7b	0.07811638
210	0xbd1ad8d9	-0.03780446
211	0x3bae298f	0.0053150128
212	0xbdf70301	-0.1206112
213	0x3ddf3130	0.10898054
214	0x3d2d2514	0.04227169
215	0x3c4e5728	0.012594022
216	0xbe844171	-0.25831178
217	0xbe2b50b5	-0.16730006
218	0xbe857099	-0.26062468
219	0xbe6baecd	-0.230159
220	0xbe3f210a	-0.18664947
221	0xbde0732d	-0.10959468
222	0xbe7fb012	-0.24969509
223	0xbe2a7eab	-0.16649882
224	0x3cd36281	0.025803806
225	0xbdfe62a1	-0.12421156
226	0x3d92ede9	0.07174284
227	0x3d3afb3c	0.045649752
228	0xbbdde86e	-0.0067720925
229	0xbe19975c	-0.14999145
230	0x3ca0fb24	0.019651003
231	0xbdb82e1c	-0.0899317
232	0xbd013867	-0.03154793
233	0xbe15eeb7	-0.14641844
234	0xbce65a21	-0.028119149
235	0xbd32d052	-0.0436557
236	0x3ded7485	0.1159449
237	0x3c8a8e27	0.016913487
238	0x3de4a12a	0.11163552
239	0x3d8be4ff	0.06830787
240	0xbbb687e7	-0.0055704
241	0xbd010d4a	-0.031506814
242	0xbd18de5e	-0.03732144
243	0x3d60a466	0.054844283
244	0x3dcbdbfb	0.09954067
245	0x3d105e67	0.03524628
246	0x3c88cd7c	0.016699545
247	0xbd50fc0e	-0.051021628
248	0xbab92abc	-0.0014127116
249	0xbd438060	-0.04772985
250	0x3d4aeb19	0.049540613
251	0xbc25e611	-0.010125653
252	0xbe3f6add	-0.18693109
253	0xbe0d3d01	-0.13792802
254	0xbe35243b	-0.17689602
255	0xbe43c787	-0.19119082

bias f4 [32]
0	0x3c65178f	0.013982668
1	0xbe1d3867	-0.15353547
2	0xbd171808	-0.036888152
3	0xbdab4a4c	-0.083637804
4	0xbe22aa1d	-0.15885206
5	0xbe011fa5	-0.12609728
6	0xbc9b4863	-0.018955415
7	0x3c71ea7a	0.014765376
8	0xbd500a5b	-0.050791126
9	0xbd7962ef	-0.060885366
10	0xbcba1a9f	-0.022717772
11	0xbd811029	-0.063019104
12	0xbdf21a6b	-0.11821445
13	0xbcac8be8	-0.021062806
14	0xbda0653e	-0.078318104
15	0x3d87066f	0.06593024
16	0x3d359beb	0.044338148
17	0xbddbe679	-0.107373185
18	0x3d4a269e	0.049353234
19	0xbe17c608	-0.14821637
20	0xbe2006cf	-0.15627597
21	0x3dbdce5e	0.09267877
22	0x3df02b77	0.1172704
23	0x3cba34b1	0.022730203
24	0x3c9f8c2b	0.019476017
25	0xbe28a8c6	-0.16470632
26	0x3dc0a9c8	0.09407383
27	0xbd5e9953	-0.05434544
28	0xbd8d8ebb	-0.06911989
29	0x3ccb9dc4	0.024855502
30	0xbdfa955c	-0.12235519
31	0xbdc46927	-0.09590369

weight f4 [32, 32, 2, 2]
0	0x3cb22b7f	0.021749256
1	0xbd8bccb8	-0.068261564
2	0xbdbcddad	-0.09221969
3	0x3cb55ba8	0.022138432
4	0xbd8e8860	-0.06959605
5	0xbd776168	-0.06039563
6	0xbc9a8cc3	-0.018865949
7	0x3d0a06c3	0.033697855
8	0x3dd5053f	0.10401391
9	0x3d02209d	0.031769384
10	0x3badad2b	0.0053001842
11	0x3cfe5f99	0.031051444
12	0xbd5018bb	-0.050804835
13	0xbe197717	-0.14986835
14	0x3acfc2e7	0.0015850932
15	0xbd6a68de	-0.057228915
16	0x3dc2b380	0.09506893
17	0xbd7d9b69	-0.06191579
18	0x3c8d9552	0.017283116
19	0x3dad1ad4	0.08452383
20	0x3da6c6d5	0.08143393
21	0x3e7ffa4f	0.24997829
22	0x3e4dbe9b	0.20092241
23	0x3e8b0044	0.2714864
24	0x3d9349a5	0.07191781
25	0xbd700ff0	-0.05860895
26	0xbd85cdb4	-0.065333754
27	0xb9057b15	-0.0001272972
28	0xbbd77824	-0.006575601
29	0x3d1a077c	0.037604794
30	0xbc1fb9d0	-0.009748891
31	0x3da2b766	0.07945137
32	0xbd9e4582	-0.07728101
33	0xbd64dc4a	-0.055874147
34	0xbe01ac23	-0.12663321
35	0xbda1e207	-0.079044394
36	0x3d77ea32	0.06052608
37	0xbd326bb5	-0.04355975
38	0x3caab0cb	0.020836255
39	0xbdc71241	-0.097202785
40	0x3dd005aa	0.1015733
41	0x3e101033	0.1406868
42	0x3a7c7609	0.0009630626
43	0x3dce1785	0.1006308
44	0x3c0377c8	0.008024164
45	0xbdc52145	-0.09625486
46	0xbd95a6a2	-0.07307173
47	0xbc22aba5	-0.009928619
48	0xbd281cba	-0.04104302
49	0x3c723e82	0.014785411
50	0xbddf1e95	-0.10894505
51	0xbc61c1ba	-0.013779098
52	0xbe04859a	-0.1294159
53	0xbdf3759e	-0.11887668
54	0x3d26bdda	0.0407084
55	0xbdbefcfd	-0.093255974
56	0xbd91ae89	-0.07113368
57	0xba21d6bc	-0.00061736605
58	0xbc42106a	-0.011844734
59	0x3ce998ed	0.028515304
60	0x3d78e86a	0.060768522
61	0x3d791a06	0.060815834
62	0xbd3f9749	-0.046775136
63	0xbb4de36e	-0.0031416076
64	0x3c755cad	0.014975709
65	0x3d9406d6	0.07227866
66	0xbd8d2e60	-0.06893611
67	0xbcf479c5	-0.02984322
68	0x3dec9f85	0.115538634
69	0x3d41a390	0.047275126
70	0x3e270159	0.16309108
71	0x3d975371	0.07388962
72	0x3e037fd0	0.12841725
73	0x3e033834	0.12814409
74	0x3ca9406e	0.020660605
75	0x3c0b88f7	0.008516542
76	0xbdb57528	-0.088602364
77	0xbde32ef9	-0.11092944
78	0xbd842e5d	-0.064541556
79	0xbc6ebde1	-0.014571638
80	0x3e19bb60	0.15012884
81	0x3c8a947c	0.016916506
82	0x3d1614ba	0.03664086
83	0x3ca3f328	0.020013407
84	0xbddab892	-0.10679735
85	0xbd2e7f84	-0.042602077
86	0xbdecbaac	-0.11559042
87	0xbcb40e42	-0.021979455
88	0xbdb22d48	-0.08700043
89	0xbde41b59	-0.11138029
90	0xbdd70ce2	-0.10500504
91	0xbdafef1b	-0.085905276
92	0x3c52d7a6	0.012868797
93	0xbe1a0cf7	-0.15044008
94	0xbc4eb015	-0.012615223
95	0xbdeb221c	-0.11481115
96	0xbd2a67ce	-0.041602902
97	0xbd23c7a2	-0.039985307
98	0xbd0b5a9e	-0.034021966
99	0x3d31f5d8	0.043447345
100	0x3d5a04c0	0.053227186
101	0x3d90db11	0.070730336
102	0x3d9c2aec	0.07625374
103	0x3d66de63	0.05636443
104	0x3e31eb7b	0.17374985
105	0x3da8f7e4	0.082504064
106	0x3db0b776	0.086287424
107	0x3dba5408	0.09098059
108	0xbcdea58d	-0.02717855
109	0xbd1a94da	-0.037739612
110	0x3d8bdde6	0.06829433
111	0x3da278c2	0.07933189
112	0x3e106d59	0.14104213
113	0x3df83fef	0.12121569
114	0xbc3ffe14	-0.011718292
115	0x3cf4f5bc	0.029902332
116	0x3dcda56d	0.10041318
117	0xbb8e0436	-0.004333998
118	0xbd7a0275	-0.0610375
119	0x3d684fc7	0.056716707
120	0x3e329033	0.1743782
121	0x3e446ed9	0.1918291
122	0x3dd535ea	0.10410674
123	0x3e3baf61	0.1832862
124	0x3dc91b5d	0.09819672
125	0xbd13ac28	-0.036052853
126	0x3cbc59cf	0.022992043
127	0x3dc085e9	0.09400541
128	0xbc91b106	-0.017784607
129	0x3d8aafbd	0.06771801
130	0x3d24ac78	0.04020354
131	0x3c3665a1	0.011132629
132	0x3e86bf69	0.2631791
133	0x3e351e39	0.1768731
134	0x3ec23d10	0.37937212
135	0x3ea11391	0.3146024
136	0xbd82720b	-0.06369408
137	0xbc6e1f90	-0.014533892
138	0x3d92d24a	0.07169016
139	0xbd3c919c	-0.0460373
140	0x3dbe5b46	0.09294753
141	0x3e2eabce	0.17057726
142	0x3d47dd54	0.04879506
143	0x3dbcfb5b	0.0922763
144	0x3df3a491	0.11896623
145	0x3dae7a43	0.08519413
146	0x3e096229	0.13416351
147	0x3b9dc83c	0.0048151296
148	0x3d62f526	0.055409573
149	0xbd38082a	-0.04492966
150	0x3d108e41	0.035291914
151	0x3d519d5b	0.051175456
152	0xbd0f52d0	-0.034991086
153	0xbc1d6f0d	-0.009608996
154	0xbe14f5ae	-0.14546844
155	0x3c961c84	0.018324144
156	0xbd563cd7	-0.052304115
157	0xba67a8d0	-0.00088371057
158	0x3d889b9a	0.06670304
159	0x3d2846b3	0.04108305
160	0xbd86807a	-0.06567474
161	0xbd85feda	-0.0654275
162	0xbe2a9464	-0.16658169
163	0xbe37fa87	-0.17966662
164	0x3d9899f5	0.0745124
165	0x3de9af09	0.114103384
166	0x3da478a7	0.08030825
167	0x3da05fa4	0.07830742
168	0xbe67bfd1	-0.22631766
169	0xbe7fa4f2	-0.24965265
170	0xbe1cd092	-0.15313938
171	0xbe2db5f9	-0.16963948
172	0x3dcc2c23	0.09969356
173	0x3dbde1a8	0.09271556
174	0x3deb4168	0.114870846
175	0x3d9a875f	0.07545351
176	0xbcc0d8a3	-0.0235408
177	0xbc10effa	-0.008846277
178	0xbe10faaa	-0.14158121
179	0xbdd4d8d1	-0.10392917
180	0xbdd466bb	-0.10371157
181	0xbe0ec7c3	-0.1394339
182	0x39c6d0cd	0.00037921072
183	0xbe0be726	-0.13662395
184	0xbd30d9cb	-0.043176454
185	0xbdd182d1	-0.102300294
186	0x3cf101bf	0.029419778
187	0xbd45075d	-0.048102725
188	0x3d053cfa	0.032528855
189	0xbcce872c	-0.02521094
190	0xbd2012a3	-0.039080273
191	0xbce38f28	-0.027778223
192	0x3d708389	0.05871919
193	0x3dbe01fb	0.092777215
194	0xbd93772a	-0.07200463
195	0xbcb755c9	-0.022379773
196	0xbdfe55ac	-0.12418684
197	0xbda3166a	-0.079632595
198	0x3d1ed053	0.038772892
199	0x3cc04f6c	0.023475371
200	0xbc8d3c1a	-0.017240573
201	0xbb8b0a34	-0.0042431597
202	0x3d732dab	0.059369724
203	0x3d58ddd0	0.052945912
204	0xbc6e98db	-0.014562811
205	0xbd3c79ff	-0.046014782
206	0xbcffd2df	-0.03122848
207	0xbe0afc2a	-0.13572755
208	0x3e1dc75a	0.15408078
209	0x3e4c85f0	0.19972968
210	0x3e904ee1	0.2818518
211	0x3ea86441	0.32888988
212	0xbcc457bf	-0.023967622
213	0xbd8f7567	-0.070048146
214	0xbd70c782	-0.058784015
215	0xbdf3c4be	-0.1190276
216	0x3d59a107	0.053132083
217	0x3c5c219b	0.013435747
218	0xbd250a25	-0.040292878
219	0x3db6de59	0.08929128
220	0xbd84cb9a	-0.064841464
221	0xbd360886	-0.044441722
222	0xbb1ad0ef	-0.002362307
223	0xbd5e8cf8	-0.054333657
224	0xbcf65604	-0.030070312
225	0xbbde86b0	-0.0067909583
226	0x3dcf1571	0.101115115
227	0xbc8c61ce	-0.01713648
228	0x3daa888f	0.08326828
229	0x3b4f15f2	0.0031598774
230	0x3d389605	0.045064945
231	0xbd44bc65	-0.04803123
232	0x3e0fa690	0.14028382
233	0x3c528732	0.012849616
234	0xbb1e4db9	-0.0024155213
235	0xbd25efaa	-0.040511765
236	0x3d8c67a8	0.06855708
237	0x3dedbab7	0.11607879
238	0x3da119c5	0.07866243
239	0x3bd660f9	0.0065423218
240	0x3d58f03f	0.05296349
241	0x3e0a8cfa	0.13530341
242	0x3da2b685	0.07944969
243	0x3ded5c2d	0.11589847
244	0x3dd82c87	0.10555368
245	0x3cc4bcc7	0.024015797
246	0x3d89a65e	0.06721185
247	0x3d103466	0.03520622
248	0xbd8bec81	-0.06832219
249	0xbdc4730e	-0.095922574
250	0xbcbb5124	-0.02286584
251	0xbc18becb	-0.009322832
252	0x3e46af2d	0.19402762
253	0x3e67930b	0.22614686
254	0x3ec64ce4	0.38730538
255	0x3e80ae67	0.25133058

bias f4 [32]
0	0xbb7150a3	-0.0036821745
1	0x3cadc2ab	0.021210989
2	0xbd169c08	-0.036769897
3	0xbd58eb7a	-0.052958943
4	0x3c8a395f	0.01687306
5	0xbc9d9da5	-0.01924021
6	0x3d1c2c07	0.038127925
7	0x3d3810f8	0.044938058
8	0xbd3a7938	-0.04552576
9	0x3c0ebfb7	0.008712701
10	0x3d822e40	0.06356478
11	0x3d4f3989	0.05059198
12	0xbd8b8115	-0.0681173
13	0xbd401538	-0.046895236
14	0xbdc957d5	-0.09831206
15	0x3b2e0e20	0.0026558712
16	0x3a0c9738	0.00053631095
17	0x3d697365	0.056994814
18	0x3d8f9c02	0.07012178
19	0xbd9b18c7	-0.07573085
20	0x3cc7316d	0.02431556
21	0x3c5b9702	0.013402702
22	0x3d03314b	0.03202943
23	0x3c4129ac	0.0117897205
24	0xbc242ae1	-0.010019989
25	0xbcd4ca9b	-0.025975516
26	0x3d278a54	0.040903404
27	0xbd92273f	-0.07136392
28	0x3d436389	0.047702346
29	0x3bff4326	0.007789987
30	0xbc1e1514	-0.00964858
31	0xbd6d5bf6	-0.05794903

weight f4 [64, 32, 2, 2]
0	0x3d30efbe	0.043197386
1	0xbaf308d2	-0.0018542057
2	0x3c1e6b7d	0.009669182
3	0xbced4cc4	-0.028967269
4	0x3b8b9188	0.004259292
5	0x3c33856d	0.010957104
6	0xbd009e62	-0.031401046
7	0x3c24ab7e	0.010050653
8	0xbcdfb83d	-0.027309531
9	0xbd7a8fa8	-0.061172158
10	0x3a3aaae9	0.00071208045
11	0xbd59f727	-0.05321422
12	0xbcf11576	-0.029429179
13	0xbc99eb30	-0.018788904
14	0xbc854ef8	-0.016273007
15	0x3d123530	0.035695255
16	0xba73dbfa	-0.00093024934
17	0x3d656f98	0.056014627
18	0x3a517aa8	0.00079909945
19	0x3d709636	0.058737002
20	0xbdca6ced	-0.09884057
21	0x3d9ad8c2	0.075608745
22	0xbda8d253	-0.08243241
23	0x3cce9105	0.025215635
24	0x3e0f26ec	0.13979691
25	0x3e2fcea1	0.17168666
26	0x3dfe43f6	0.12415306
27	0x3d7f121a	0.062273122
28	0xbd6e941a	-0.05824671
29	0xbab8f264	-0.0014110324
30	0xbc97aebb	-0.018515935
31	0xbc33dd4e	-0.010978056
32	0xbd96df00	-0.073667526
33	0xbd92326b	-0.07138523
34	0xbd441db3	-0.047879886
35	0xbda7ffc8	-0.08203083
36	0x3ddee407	0.108833365
37	0x3ccbc06f	0.024872033
38	0x3d446ee8	0.04795733
39	0x3d6c4150	0.057679474
40	0xbbf00bec	-0.00732564
41	0x3d0eec12	0.034893103
42	0x3dba7fd7	0.09106415
43	0xbd7306d1	-0.059332673
44	0xbd62c3c5	-0.05536248
45	0xbc7a560a	-0.015279302
46	0xbdadf736	-0.08494417
47	0x3d7c16ec	0.061545298
48	0xbc3a496f	-0.011370047
49	0xbdba96a7	-0.09110766
50	0xba807206	-0.0009799607
51	0xbd623f0b	-0.055235904
52	0xbcf49d47	-0.029860152
53	0xbb78fdd7	-0.0037993097
54	0x3d57b3ca	0.052661695
55	0x3dc9e0b9	0.098573156
56	0x3b6302d2	0.0034639132
57	0x3d3763b8	0.044772834
58	0x3b66265f	0.0035118086
59	0xbdfd0026	-0.12353544
60	0xbd16464d	-0.036688138
61	0x3b8f22de	0.00436817
62	0x3d4c3522	0.04985536
63	0x3d31438d	0.043277312
64	0xbdb1e79c	-0.08686754
65	0x3d30ab7d	0.043132294
66	0x3d51aca5	0.051190037
67	0xbd3fd06c	-0.046829626
68	0x3d97e9b7	0.074176244
69	0x3d09604b	0.033539098
70	0x3d3fe9f8	0.04685399
71	0x3d9c6783	0.07636931
72	0xbd5ec4d0	-0.054386914
73	0x3cf28db7	0.02960859
74	0xbd3a737c	-0.04552029
75	0xbda63f8f	-0.081175916
76	0x3c62cd3b	0.013842876
77	0x3c30310c	0.010753881
78	0xbdaf87b2	-0.08570804
79	0xbda40ca9	-0.08010227
80	0x3d82b1e6	0.06381588
81	0xbe017dd0	-0.1264565
82	0xbdf7cedf	-0.121000044
83	0xbdc0b768	-0.09409982
84	0xbd553a85	-0.05205776
85	0xbd49b2a6	-0.049242638
86	0xbd8687f5	-0.065689005
87	0xbdcd5131	-0.10025252
88	0x3d5aff13	0.053465914
89	0x3d61c1f8	0.055116624
90	0x3c154a26	0.009111917
91	0xbd89834c	-0.06714496
92	0xbb09fbf4	-0.0021054717
93	0xbd3cc69d	-0.04608785
94	0x3cc65077	0.02420829
95	0x3da3f8a4	0.08006409
96	0x3d1b94db	0.037983757
97	0xbd971e24	-0.07378796
98	0xbccedde4	-0.02525229
99	0xbd5c3046	-0.053756975
100	0x3d8b8df3	0.06814184
101	0xbd36bb60	-0.04461229
102	0x3d1e7b1d	0.03869163
103	0x3cbdbcc0	0.023161292
104	0x3c8d0859	0.017215895
105	0xbb62a0b5	-0.0034580652
106	0x3dadd67d	0.08488176
107	0x3d16d427	0.036823418
108	0xbdaab6be	-0.083356366
109	0xbd7de9d8	-0.06199059
110	0x3d2bb95d	0.041924823
111	0x3d446484	0.04794742
112	0xbc6edc8d	-0.014578951
113	0x3d7927d9	0.060829017
114	0xbd917738	-0.07102817
115	0xbd908462	-0.070565
116	0x3da849b5	0.082171835
117	0x3c3b16c7	0.011419005
118	0xbd0dfcd4	-0.034664944
119	0xbda28068	-0.07934648
120	0x3d18c83c	0.037300333
121	0x3c5d9cd1	0.0135261575
122	0x3d21a4e1	0.03946388
123	0x3d2f4a92	0.042795725
124	0xbde5dccc	-0.11223754
125	0xbd9200af	-0.07129037
126	0x3c965dcf	0.018355278
127	0x3cae849d	0.02130347
128	0xbd630578	-0.055425137
129	0x3d2b8b09	0.04188064
130	0xbc000173	-0.0078128455
131	0xbd182327	-0.0371429
132	0xbd9ba20c	-0.07599267
133	0x3d4f02f8	0.05053994
134	0x3d10331e	0.035205
135	0xbc98a870	-0.018635005
136	0x3cdd2da0	0.026999295
137	0xbdf3edfe	-0.11910628
138	0xbe003dea	-0.12523618
139	0xbdaf480a	-0.08558662
140	0xbdd87e03	-0.1057091
141	0xbe0a1bd1	-0.13487174
142	0xbe0c7a6a	-0.13718572
143	0xbe0f201e	-0.13977095
144	0x3d1431cd	0.036180306
145	0x3c709367	0.014683581
146	0xbd44198f	-0.047875937
147	0xbc6bfe34	-0.0144038685
148	0xbd0eb88c	-0.034843966
149	0x3d466510	0.048436224
150	0x3ddbcd97	0.107325725
151	0x3d9ae98b	0.07564076
152	0xbd488593	-0.04895551
153	0xbd591bfc	-0.053005204
154	0xbd98933d	-0.074499585
155	0xbe1489c3	-0.14505677
156	0x3d8b62a3	0.06805923
157	0xbd290214	-0.041261747
158	0x3d464869	0.0484089
159	0xbd9efc0c	-0.07762918
160	0xbd36ebcd	-0.04465847
161	0x3d5125d2	0.05106146
162	0xbdddf5a7	-0.1083787
163	0xbcea3365	-0.02858896
164	0x3c74a9e6	0.014933085
165	0xbd1e543f	-0.038654562
166	0x3c37e9df	0.011225193
167	0x3ce3b719	0.027797269
168	0xbdcab2e9	-0.09897406
169	0xbcafb988	-0.021450773
170	0x3ca48f47	0.020087851
171	0xbcb6b9ce	-0.022305395
172	0x3cfce8ac	0.030872665
173	0xbd777f0a	-0.06042389
174	0xbd322f2f	-0.04350203
175	0x3d96863b	0.07349821
176	0xbbcfb03a	-0.0063381465
177	0xbd6d73f8	-0.057971925
178	0x3dbfcc5d	0.09365151
179	0xbd7c271c	-0.061560735
180	0x3e0a856f	0.13527463
181	0x3dac6647	0.08417945
182	0x3d98d565	0.07462577
183	0x3e43eeb4	0.19134027
184	0xbdea0621	-0.1142695
185	0xbd1e674d	-0.038672734
186	0xbdc9a927	-0.098467164
187	0xbd48f04e	-0.049057297
188	0xbde99c0d	-0.114067174
189	0xbd489037	-0.04896566
190	0xbe0a3624	-0.13497216
191	0xbd21cacb	-0.03950004
192	0xbdde842d	-0.10865054
193	0x3d8e7519	0.06955928
194	0xbd4aa441	-0.04947305
195	0xbce50094	-0.027954377
196	0x3cfd8944	0.030949242
197	0x3cf31405	0.029672632
198	0x3d3074ce	0.043080144
199	0x3d8e5182	0.0694914
200	0xbdba2aff	-0.09090232
201	0xbd890e2d	-0.06692157
202	0x3da1841a	0.078865245
203	0xbdca32d8	-0.09872979
204	0xbba25cbd	-0.004954903
205	0xbd8a2686	-0.06745629
206	0xbdf6ab16	-0.12044351
207	0xbe04e8d7	-0.12979446
208	0xbdce5451	-0.10074676
209	0xbcd538af	-0.026028005
210	0xbcb2d53a	-0.02183019
211	0xbd71ace3	-0.05900277
212	0x3ce6b283	0.028161293
213	0xbcca08c5	-0.024662385
214	0x3d0e24c1	0.03470302
215	0xbd0c9522	-0.03432191
216	0xbc8ccbab	-0.01718696
217	0xbddafcf2	-0.10692777
218	0x3d381498	0.044941515
219	0x3ca19be8	0.019727662
220	0x3d3c064f	0.045904454
221	0xbcea9c32	-0.028638933
222	0xbca624c5	-0.020281205
223	0xbe06266b	-0.13100593
224	0xbd6b2fe8	-0.057418734
225	0xbd124241	-0.035707716
226	0xbd73f23c	-0.059557185
227	0xbd0f9211	-0.03505141
228	0xbdafc379	-0.08582205
229	0xbc961dda	-0.018324781
230	0xbdec2d96	-0.11532132
231	0xbe0719f5	-0.13193496
232	0x3d5aade0	0.053388476
233	0xbda3df44	-0.08001569
234	0x3d6699de	0.056299083
235	0xbb2c70d3	-0.0026312366
236	0xbdb4f5d7	-0.08835953
237	0xbdd35fc2	-0.10320999
238	0xbd400fc5	-0.04689004
239	0xbe217d9c	-0.15770572
240	0xbda4fb04	-0.0805569
241	0x3dc4fc9d	0.09618495
242	0x3c8b20d7	0.016983433
243	0xbb1099bb	-0.0022064287
244	0x3b9cbb2c	0.004783055
245	0x3d8ef370	0.06980026
246	0x3dac192c	0.08403239
247	0x3d94c30a	0.07263763
248	0xbc001d9a	-0.007819558
249	0xbdcf4f3b	-0.10122534
250	0xbd962732	-0.07331695
251	0xbdc79c45	-0.09746603
252	0xbe30e33d	-0.17274185
253	0xbe05e1e7	-0.13074456
254	0xbdcdcc3e	-0.10048722
255	0xbdf0e205	-0.1176186

bias f4 [64]
0	0xbdd178d2	-0.10228123
1	0xbd80e3cd	-0.062934496
2	0xbb611ce8	-0.0034349505
3	0xbdc2fbf7	-0.09520715
4	0xbde16480	-0.11005497
5	0x3c901d79	0.017592179
6	0x3d0d1d98	0.03445205
7	0x3c944837	0.018100841
8	0xbce30791	-0.027713569
9	0xbdbd9605	-0.092571296
10	0xbd7b4ba1	-0.061351422
11	0x3c3bc2e5	0.011460041
12	0xbc9e869a	-0.019351292
13	0x3db31d75	0.08745853
14	0xbdc472b7	-0.095921926
15	0xbc9c12cf	-0.019051937
16	0xbd996e8a	-0.07491787
17	0x3dc9e55f	0.09858202
18	0xbd41e3e7	-0.047336485
19	0x3cccfe63	0.025023645
20	0x3d08c072	0.033386655
21	0xbe35e89c	-0.17764515
22	0xbd16d497	-0.036823835
23	0x3cd20e48	0.025641575
24	0xbe0dea96	-0.13859019
25	0xbd74d8bc	-0.059777007
26	0xbd913da5	-0.07091836
27	0x3ca07df2	0.019591305
28	0xbdb7acbd	-0.08968494
29	0x3dabf183	0.08395674
30	0xbe3e93e5	-0.18611105
31	0xbd665a99	-0.056238744
32	0xbe3d641b	-0.18495218
33	0xbcca0cec	-0.024664365
34	0x3db60da8	0.088893235
35	0xbe4412ad	-0.19147749
36	0xbd1f3c77	-0.038876023
37	0x3db490d0	0.08816683
38	0xbdd5ad52	-0.10433449
39	0xbdbda892	-0.09260668
40	0xbdeb24fb	-0.11481663
41	0xbe132aea	-0.14371839
42	0x3da2cd5c	0.079493254
43	0xbdc2f62e	-0.09519611
44	0xbdad2184	-0.08453658
45	0x3c826f5a	0.015922237
46	0xbe516371	-0.2044809
47	0xbe25682f	-0.16153024
48	0xbdecbbf5	-0.115592875
49	0xbc969987	-0.018383754
50	0xbe1dbcb1	-0.15404011
51	0xbdf22c9e	-0.11824916
52	0xbe3cec12	-0.18449429
53	0xbd1e5740	-0.038657427
54	0x3cc5d18e	0.024147775
55	0xbdac843e	-0.08423661
56	0xba2ea30a	-0.0006661868
57	0xbdee2970	-0.11628997
58	0xbe00a97a	-0.1256465
59	0xbd3693a1	-0.044574384
60	0xbbf6ed2f	-0.0075355987
61	0xbcfc31af	-0.03078541
62	0x3cf30fe0	0.029670656
63	0xbda211ec	-0.079135746

weight f4 [64, 64, 2, 2]
0	0x3c816fb8	0.015800342
1	0xbd29bfba	-0.04144261
2	0x3ce36414	0.027757682
3	0x3d8a4d5c	0.067530364
4	0xba255fd9	-0.0006308533
5	0x3cf96b0e	0.030446555
6	0x3db91481	0.09037114
7	0xbc061ac9	-0.008185097
8	0xbce4e2ad	-0.027940119
9	0x3d96db3a	0.07366033
10	0x3d73fd73	0.05956788
11	0x3d2373aa	0.039905228
12	0x3dd5b27a	0.10434432
13	0x3dc89df7	0.097957544
14	0x3ddde57e	0.10834788
15	0x3df65a8e	0.12028991
16	0x3ad6d68c	0.0016390844
17	0x3c69d3f9	0.01427173
18	0xbd415b61	-0.047206286
19	0xbd27b814	-0.040947035
20	0x3db4f933	0.088365935
21	0x3d839349	0.06424577
22	0x3d89d60a	0.06730278
23	0x3d925294	0.07144657
24	0x3d2c791f	0.042107698
25	0x3da4d033	0.08047523
26	0x3d72a7a2	0.0592419
27	0xbc159112	-0.009128826
28	0xbca8ec93	-0.02062062
29	0xbdd48220	-0.10376382
30	0xbdabd165	-0.08389548
31	0x3b768e76	0.0037621534
32	0xbd6e947c	-0.058247074
33	0xbbfd8156	-0.0077363653
34	0xbb51a870	-0.0031991266
35	0x3d6f322e	0.058397464
36	0x3d748f1c	0.059706792
37	0x3d379567	0.044820216
38	0x3e1e068b	0.15432183
39	0x3e158816	0.14602694
40	0xbcce3414	-0.025171317
41	0x3d6f6a19	0.058450792
42	0x3d6e354c	0.058156297
43	0x3c779f1f	0.015113621
44	0xbd1f899e	-0.0389496
45	0x3c427535	0.011868765
46	0x3cad3e1b	0.021147778
47	0xbdef5469	-0.11686022
48	0xbd20107a	-0.039078213
49	0xbc87bdd4	-0.01657001
50	0xbbf4534c	-0.007456219
51	0x3cdef5c9	0.027216809
52	0xbdb39963	-0.087694906
53	0xbc8eb198	-0.017418668
54	0xbc0b074e	-0.008485628
55	0xbd229b0d	-0.03969865
56	0xbd951218	-0.07278842
57	0x3e03c025	0.12866266
58	0x3e415e11	0.1888354
59	0xbd91b50b	-0.07114609
60	0x3d995400	0.07486725
61	0xbd2fbaec	-0.042902872
62	0x3d88e28b	0.06683835
63	0x3d6512df	0.0559262
64	0x3cfca604	0.030840881
65	0xbd02b8a9	-0.031914387
66	0xbcbc6cf8	-0.02300118
67	0xbd892d15	-0.06698052
68	0xbcbdcd2a	-0.023169119
69	0x3dacdecd	0.084409334
70	0x3c15b184	0.009136561
71	0x3d1531ab	0.03642432
72	0x3d874850	0.066055894
73	0xbbeabc88	-0.007163588
74	0x3d9449a8	0.07240611
75	0x3b866bb7	0.004102196
76	0x3cafb6ca	0.021449465
77	0x3cee5c35	0.029096702
78	0x3cebf7ea	0.028804738
79	0x3d473e94	0.048643664
80	0x3a872c4e	0.0010312886
81	0xbd89fb93	-0.06737437
82	0x3ca09ca0	0.019605935
83	0xbc8d67aa	-0.017261345
84	0xbc8503e9	-0.016237216
85	0xbcc82836	-0.024433237
86	0xbda560af	-0.080750816
87	0xbdad488d	-0.084611036
88	0x3d49b8d7	0.049248543
89	0x3d05253d	0.032506216
90	0xbdcb1f2e	-0.099180564
91	0x3a5bbff3	0.00083827897
92	0xbcd51385	-0.026010284
93	0xbcc995ae	-0.024607506
94	0x3aa6fb53	0.0012739695
95	0x3b476c93	0.0030429706
96	0xbd0c652e	-0.03427618
97	0x3d322025	0.043487687
98	0x3d186267	0.03720322
99	0x3b7b19ac	0.0038314862
100	0xbd334d46	-0.043774866
101	0xbd07fd58	-0.03320059
102	0xbd92cf25	-0.07168416
103	0xbcfa1447	-0.030527247
104	0xbd220a05	-0.039560337
105	0x3c8ded97	0.017325206
106	0xbca1641c	-0.019701056
107	0xbd3e347a	-0.046436764
108	0xbd114a03	-0.035470974
109	0x3d968e30	0.07351339
110	0xbcc82b23	-0.024434632
111	0x3da1e31d	0.079046465
112	0xbcecd008	-0.02890779
113	0xbb300c12	-0.0026862663
114	0xbd46905d	-0.04847752
115	0x3cb9debe	0.02268922
116	0xbc195730	-0.009359166
117	0xbdab985f	-0.08378672
118	0x3cb5ef52	0.022208843
119	0xbdba5596	-0.090983555
120	0x3dc75db6	0.09734671
121	0x3e05afb9	0.13055314
122	0x3ddca59d	0.10773776
123	0x3e02a1d1	0.1275704
124	0x3d2239cb	0.039605897
125	0x3c5a8c3a	0.013339097
126	0x3d9ecd8c	0.07754049
127	0x3d4178e7	0.047234442
128	0x3d830673	0.063977145
129	0x3d1b0cc7	0.037853982
130	0x3d96003e	0.07324265
131	0x3bca2de6	0.0061700223
132	0xbd53d285	-0.05171444
133	0xbd2f4b42	-0.04279638
134	0x3c330c35	0.010928203
135	0x3d85f6ce	0.06541215
136	0x3bc01233	0.0058615445
137	0xbd57b433	-0.052662086
138	0x3c0fa859	0.008768165
139	0xbd02a83a	-0.031898715
140	0xbe28656d	-0.16444941
141	0xbda7fed9	-0.08202905
142	0xbe1ce77c	-0.1532268
143	0xbdba4151	-0.09094489
144	0x3d391df0	0.045194566
145	0x3cf81bcb	0.03028669
146	0x3d8bdeb7	0.06829589
147	0xbc8b4858	-0.01700227
148	0x3ce9d9f5	0.028546313
149	0x3e269d14	0.16270858
150	0x3d1a5245	0.037676115
151	0x3dce722a	0.10080369
152	0xbd51d6bf	-0.05123019
153	0x3b4950c8	0.0030718315
154	0xbd572d40	-0.05253339
155	0x3b0c34cd	0.0021393776
156	0xbcb80f67	-0.022468282
157	0x3d708ef2	0.058730073
158	0x3c936aee	0.017995324
159	0xbc2755f4	-0.010213364
160	0x3d8e9ea6	0.069638535
161	0xbc8bf7e9	-0.017085986
162	0xbd2e7d49	-0.04259995
163	0xbd2cff52	-0.04223568
164	0xbdbc6b51	-0.092001565
165	0xbd8029f1	-0.06258
166	0xbc9de74d	-0.019275332
167	0xbdd755a2	-0.1051438
168	0x3cbfcd58	0.023413345
169	0x3da93b68	0.08263284
170	0xbd5b8433	-0.053592872
171	0xbca00ceb	-0.01953741
172	0xbc393291	-0.01130356
173	0x3d88e391	0.0668403
174	0xbcec0e30	-0.028815359
175	0xba6b4c00	-0.00089758635
176	0x3dcf1251	0.101109155
177	0xbc33e171	-0.010979042
178	0x3d58854b	0.052861493
179	0xbd3509c9	-0.044198785
180	0x3d41ab25	0.047282357
181	0xbbdc9b15	-0.0067323544
182	0xbcb10225	-0.021607468
183	0xbd33c0da	-0.04388509
184	0x3e4b9bcf	0.19883655
185	0x3da74ff6	0.08169548
186	0x3e4a3034	0.1974495
187	0x3e10ecf8	0.14152896
188	0xbd120334	-0.035647586
189	0xbe05b030	-0.13055491
190	0x3d1917ea	0.03737632
191	0xbd220ab4	-0.03956099
192	0xbd00cc29	-0.031444702
193	0xbd19d3bd	-0.037555445
194	0x3d8fe045	0.07025198
195	0xbd36a5d1	-0.04459173
196	0xbd7c00af	-0.06152409
197	0xbd45df8f	-0.048308905
198	0x3cb4f812	0.022090945
199	0x3a5a6fbb	0.0008332689
200	0x3ce39453	0.027780687
201	0xbce20513	-0.02759031
202	0x3d2b5520	0.04182923
203	0x3b20d874	0.0024543079
204	0xbc2999d0	-0.010351613
205	0xbbfb5a0a	-0.0076706456
206	0xbcaaa3fa	-0.020830143
207	0xbcc7e05f	-0.02439898
208	0x3e4f1e6d	0.2022645
209	0x3dca7f6d	0.09887586
210	0x3e3c94df	0.18416165
211	0x3d980e96	0.07424657
212	0x3be031a6	0.006841856
213	0xbdecb448	-0.115578234
214	0x3db80e6b	0.08987125
215	0xbda0b3e1	-0.07846809
216	0xbd0d26f3	-0.034460973
217	0x3c17a366	0.009255266
218	0x3c5e061b	0.01355126
219	0x3cfb3f93	0.030669963
220	0xbd7e868b	-0.06214003
221	0x3c5eedc0	0.013606489
222	0xbd06a8d5	-0.032875855
223	0x3c81ff47	0.015868796
224	0xbcf47b7f	-0.029844044
225	0xba2963cb	-0.00064617087
226	0xbc287f37	-0.010284237
227	0xbd4d62dc	-0.050143108
228	0xbbead8d8	-0.007166963
229	0xbd252e8f	-0.040327605
230	0x3cb57da0	0.02215463
231	0xbd98f1a8	-0.07467967
232	0xbdda41dc	-0.10657093
233	0x3bfe64ae	0.007763467
234	0xbad9e51c	-0.0016624066
235	0x3d81203d	0.06304977
236	0x3ce13562	0.027491275
237	0x3d1f8408	0.038944274
238	0x3d0fcba0	0.0351063
239	0xbd561726	-0.05226817
240	0x3c93d459	0.018045591
241	0x3cf6d275	0.03012965
242	0x3da6c035	0.08142129
243	0x3d585226	0.052812718
244	0x3b5ade44	0.003339664
245	0x3d1e8f2f	0.03871077
246	0x3d8e83a1	0.069587
247	0xbd009013	-0.0313874
248	0xbd06a8e7	-0.03287592
249	0xbd4f6e30	-0.050642192
250	0xbd13876e	-0.036017828
251	0xbbf83d53	-0.00757567
252	0xbd5164e1	-0.051121596
253	0x3d52dd52	0.0514806
254	0x3d3bad38	0.04581949
255	0x3c17a1dc	0.009254899

bias f4 [64]
0	0xbd2292df	-0.03969085
1	0xbc69e1db	-0.01427504
2	0xba9f43dc	-0.0012150961
3	0x3d795a5e	0.060877196
4	0x3d2a0f25	0.04151835
5	0x3d07cec9	0.03315619
6	0xbd48ad45	-0.048993368
7	0xbc709f82	-0.014686467
8	0x3d7781e5	0.06042661
9	0xbd0a49d0	-0.0337618
10	0xbd9725e0	-0.07380271
11	0xbcab836a	-0.020936687
12	0x3c3d5ba4	0.011557493
13	0xbc395f6d	-0.011314255
14	0xbd880fa8	-0.06643611
15	0x3a95ef6d	0.0011439152
16	0x3d1b0632	0.037847705
17	0x3d6cd065	0.057815928
18	0x3c995d41	0.018721225
19	0xbcd65518	-0.026163623
20	0x3b391986	0.0028243973
21	0xbccf3537	-0.02529393
22	0x3baec34a	0.005333339
23	0x3d8bd364	0.06827429
24	0xbbb1298a	-0.005406563
25	0xbcd539cc	-0.026028536
26	0xbce7a004	-0.028274544
27	0xbab66de3	-0.0013918247
28	0x3d22bb27	0.039729264
29	0xbc832050	-0.016006619
30	0x3d386b1e	0.04502403
31	0x3d547ebc	0.051878676
32	0x390f15ac	0.00013645616
33	0xbd2fd53b	-0.04292796
34	0xbd7bde02	-0.06149102
35	0xbc2a9659	-0.010411822
36	0xbd449e88	-0.04800275
37	0xbd61cb9a	-0.05512581
38	0x3d41e497	0.04733714
39	0x3cb4bde0	0.022063196
40	0xbd03c901	-0.032174114
41	0x3d120e0b	0.035657924
42	0x3cd0093f	0.025395034
43	0xbc97b13d	-0.018517131
44	0x3c3c3cf8	0.011489145
45	0xbb9ba827	-0.00475027
46	0xbc54aecf	-0.012981131
47	0xbb971362	-0.004610465
48	0xbc84448c	-0.016145967
49	0xbd412d00	-0.047162056
50	0x3b9e642e	0.0048337197
51	0xbd5f40b8	-0.05450508
52	0xbd6a8302	-0.057253845
53	0xbb4effe5	-0.003158563
54	0xbcbd8af1	-0.023137541
55	0xbcb45908	-0.02201511
56	0xbb50496f	-0.003178205
57	0xbc807627	-0.01568134
58	0xbcdc6213	-0.026902234
59	0x3cd19999	0.025585936
60	0x3bf34157	0.0074235606
61	0xbd338d80	-0.043836117
62	0x3d6a793b	0.05724452
63	0xbd7e3705	-0.06206419
