output/multiclass-3-3/unet_tgs_salt.pth (torch, 246103 bytes, 26 tensors)

weight f4 [16, 3, 2, 2]
00000000: d089 8dbe 2c3d 8a3d 8f12 f1bd 1813 5cbe
00000010: 3d29 dd3d 15e5 183e 35cd aa3d 4bfa 27be
00000020: 6a59 76be e009 d5bd f73a 34be 09c1 863e
00000030: 81d1 58bc 65b8 41be 18e6 36be e4a8 e53d
00000040: e78a f33b b2f3 543e 93ba b83c 7a8e a73d
00000050: 23bb b93d 2e38 45be bf6b 81be 2dc3 2dbd
00000060: 0b6a 98bd 7b85 cc3d c258 e73d 5460 9ebd
00000070: b78a 1a3e cbb9 2abe 6a3a 8a3e 614d 47be
00000080: c5d9 7abe fc41 833d 3dd8 d5bc 325b bd3d
00000090: c923 723e 61e1 f9bd 6e93 31bd fc57 363d
000000a0: 9d0b ac3e efc0 e63d a153 d83d 1577 1fbe
000000b0: 73c7 c5bd ab78 b83c 8a39 a4be c4b6 36be
000000c0: b179 06be 5b33 b03d 1620 233e 19d3 f1bd
000000d0: 3da0 06bd 03a1 d2bd 1bbf 54bd 7da1 7a3e
000000e0: 3a1f 8c3e 9ded 383d a1f4 2f3e 0389 873e
000000f0: b504 a3bc a66b 833d 8597 943e e03e 943e
00000100: 4013 9fbe e79b 863e 94ae fe3d 2392 aa3c
00000110: 47b7 933d e7bb 173e cdad 883c ae98 5c3e
00000120: feaf 8bba 0d46 01be d5dd cabd 8e25 3dbe
00000130: 0343 4ebe 1f8d 54be 39fd 42bd 6d83 933e
00000140: 7522 81bc eac0 a13d 0946 04bc 263c 013e
00000150: d5a5 1fbe 8857 9a3e ffd4 cb3d cc1e 0abe
00000160: 7bef bdbd 5ed6 26bd 4375 52be f39f 8abd
00000170: 98e2 953e 53e0 8e3e b905 c7bd 91dc 1ebe
00000180: 9cb6 4fbe 3396 fcbd 6198 3abc b8c1 f33d
00000190: 1f7e a4bc dde6 743e 6fd4 12be b049 573e
000001a0: 81df a4be cdb4 333e 1786 1d3e 024e 5dbe
000001b0: 6646 f6bd 88c2 77ba b021 263e 73ab 833e
000001c0: fa06 d4bc 8853 9d3e 6d09 7f3d a95f 8f3e
000001d0: 9ca3 74be 18db 40be 9db0 ae3d a655 613e
000001e0: aace 45bc 6dea 893d 47c3 e2bd dc9c fe3c
000001f0: 9eb7 843e 5185 493e 5cc7 4ebe 21bf 9e3e
00000200: 1a3d 79bc c66e 793e bb9c 9ebd 3c95 8c3d
00000210: ba21 73be 1777 2cbd ef28 d4bd 32c0 1dbe
00000220: 9fe9 143e 5d1b 8d3d 173c 643e 7628 98bc
00000230: 6889 b13d 4dd6 43be e795 3f3e 769c 953e
00000240: 854b f9bd c54e 833e 65a6 903e 5580 61bd
00000250: e943 153e 958c 0a3e 15ac 683e 5ec3 e23d
00000260: 01fb 5e3d 79f4 68be ef73 983e 24b2 a03e
00000270: e6f8 89bd 404d a63d aff3 d23d b1ad 4abe
00000280: 3678 1cbe fdbd 20be e45f ac3d 760b 843d
00000290: ca33 0bbd 16e6 bfbd 105a 20be 13cc b23d
000002a0: 84d0 5f3e 6b45 bb3d d862 d33d 4cc8 f8bd
000002b0: e67c 103e 6824 9f3c 1383 a83e 8c6f 68bd
000002c0: 2c01 3ebe 7ad0 ecbd fa25 24be 8387 4c3e
000002d0: 097d 4ebe 2c4d 98bd 7a14 a2bd e9c1 133e
000002e0: c586 333d 55bc 823e be4d f63c 0aae 3f3e
000002f0: 33e5 cd3c 679f 9a3c 1e98 abbe 0de5 adbe
-0.27644205 0.06749949 -0.11771118 -0.21491659 0.10798881 0.14931138 0.083399214 -0.16404073
-0.24057546 -0.10402274 -0.17600618 0.2631915 -0.013233543 -0.18917997 -0.17861211 0.11213854
0.00743233 0.20796087 0.022549903 0.08181472 0.090688966 -0.19259712 -0.25277516 -0.042422462
-0.07442101 0.09986397 0.11296226 -0.07733217 0.15091978 -0.16672437 0.2699769 -0.19463111
-0.24497135 0.0640907 -0.026104087 0.0924591 0.23646463 -0.12201191 -0.04335349 0.044517502
0.3360261 0.11267268 0.10562826 -0.1557277 -0.096571825 0.022518476 -0.3207515 -0.17843157
-0.13132359 0.08603545 0.15930209 -0.11807842 -0.03286766 -0.10284617 -0.051940065 0.24475665
0.27367574 0.04514848 0.17183162 0.2647172 -0.019899705 0.06417017 0.2902185 0.2895422
-0.31069374 0.2629082 0.12435642 0.020821637 0.07212692 0.14817773 0.016684437 0.21542618
-0.0010657308 -0.12624379 -0.09905592 -0.18471357 -0.2014275 -0.20756958 -0.047604773 0.28811207
-0.0157635 0.078981236 -0.008073338 0.12620601 -0.15590604 0.30144906 0.09952735 -0.1348831
-0.09274193 -0.04073178 -0.20552544 -0.06768789 0.2927444 0.2790552 -0.097178884 -0.15513827
-0.20284504 -0.12333336 -0.011388869 0.11902183 -0.02007967 0.23916192 -0.1433885 0.21024203
-0.3220177 0.17549439 0.15383182 -0.21611789 -0.12025146 -0.00094512897 0.16223788 0.25716743
-0.025882233 0.30727792 0.06226485 0.2800267 -0.23890537 -0.18833578 0.0852978 0.22005329
-0.012073198 0.06734166 -0.110724024 0.031080656 0.2592134 0.19679762 -0.20193237 0.31005195
-0.015212322 0.24358663 -0.07744738 0.06864402 -0.23743334 -0.04210576 -0.1035937 -0.15405348
0.14542244 0.06889985 0.22288547 -0.01857398 0.08668786 -0.19124718 0.18709527 0.29220933
-0.12172607 0.25646034 0.2825195 -0.055054028 0.14576687 0.1353019 0.22721894 0.110724196
0.054438595 -0.22749509 0.2977595 0.3138591 -0.06736927 0.08120203 0.10300385 -0.1979282
-0.15280232 -0.15697475 0.08416727 0.064474985 -0.033984937 -0.09370057 -0.15659356 0.0873033
0.21856886 0.091441 0.10321587 -0.121475786 0.14110145 0.01942654 0.32912502 -0.056747004
-0.18555135 -0.11563201 -0.16030112 0.19973569 -0.20164885 -0.07436594 -0.07914062 0.1442944
0.043829698 0.2553431 0.030066367 0.18718734 0.025133705 0.018874837 -0.33514494 -0.33963814

bias f4 [16]
00000000: e481 2cbe c283 443e abe4 233e ba90 a23c
00000010: 706a 09bd a4dc 5e3d 299d 443e 0e5b d3bc
00000020: 5dca 793e 3e22 31be c76f 9bbe f452 85bc
00000030: a088 8fbe ce63 debd c8cd 30be 0fbf 423e
-0.16846424 0.19190887 0.16005199 0.019844402 -0.033548772 0.054409638 0.19200577 -0.025800254
0.24393602 -0.17298219 -0.30358717 -0.016274907 -0.28033924 -0.1085888 -0.17266 0.19018196

weight f4 [16, 16, 2, 2]
00000000: ba6b 923d 1e3d a2bd d4f5 c63d c0cf 9b3c
00000010: a0be 32be 466e fdbd 8979 66be 2b98 5bbd
00000020: 6850 d53c ade8 a03d 9e73 963d 5d58 f13c
00000030: 82f8 b6be 5829 7ebe 1ce4 74be 0902 a4be
00000040: 6ed1 953d 343a 003e 7043 febc 2507 b13d
00000050: bf60 eabd f0dd cfbd b94b b83d 99bc abbd
00000060: 149a 513d 2186 073e 22a0 903c 38fc 4c3e
00000070: 864e d6bd 168b 96bd cdf8 9ebd df15 853b
00000080: 14c9 c93d df9c 623d b521 02bd d1ba a2bd
00000090: 3531 fc3c 53e5 03be 5df8 4ebe 53c5 ae3b
000000a0: 41b1 30bd ae05 663d 2cc6 743a fc22 ffbd
000000b0: 224e 883c 635d a2bd b379 1ebd 9f27 cebb
000000c0: 436f 2bbd ba11 3a3d cbfb 28be 151f 953d
000000d0: 80e1 80ba e03d f43b ae54 993d 6064 b5bc
000000e0: 38e6 79be b2be 34be cc6d 54be 47b2 9bbd
000000f0: d16b fbbd 11f7 4abd 1e17 8cbe 3f0e 21bd
00000100: 1079 353d d6ef b1bd 7672 e3bd 1090 c4bc
00000110: 9797 943e 3350 683e 5942 a53e 2d30 893e
00000120: 4d5c 83bc 5716 ccbd 3a57 be3c 8545 ffbd
00000130: 51ab d43e e916 343e a562 b53e 115b ca3d
00000140: c41e 523d 5ea6 51ba 50f7 adbd 464b 393c
00000150: 7fd4 d4bd 74b7 cebd 1091 8ebc c2f5 4f3d
00000160: 8a6d 7c3e 5b88 983e eb83 9d3e bea7 703e
00000170: c408 853e fe7d c03e 866f 683e dff0 963e
00000180: 86c4 f3bd 101f dc3d 194c 873d f2e8 fdbb
00000190: 9841 bebc 303f bdbd fb39 37bd d096 f4bd
000001a0: 7efc c93d 1034 3e3e 8da6 333e 3685 0c3d
000001b0: 8a76 463e c696 f83d 3701 05bd 1257 613d
000001c0: 19fd 24be 09c6 99bd 6038 0abe 445a efbb
000001d0: a018 e0bc 40a0 9b3b d464 303d 8003 ed3a
000001e0: 408a 5a3e 73f4 043e 36de 8f3d 317d 363e
000001f0: cb7b 603e 41e0 533e b375 873e b045 843e
00000200: ec74 1d3d d61a aa3d f2cd 89bd e041 6d3d
00000210: 3637 4a3e 0c8b 743e 043c c4ba 62ec ca3d
00000220: bd03 bebc 720b a33d 8dca c03b e0b7 883d
00000230: 625d 6e3c eac3 9e3d 0d1f 373d e8b0 883d
00000240: 274d 2abd b7d5 123e 06a4 40bd 5745 77bd
00000250: fbbc 8fbb 1393 76bd 2616 5ebd 4f35 b93d
00000260: f40f 1a3d 61af ca3c 4336 aabd d2cc 0dbe
00000270: b2c0 2a3e 2c62 2d3e 061b e33d c47c 9c3d
00000280: 2042 ed3d 59a5 94bd e922 633d de3c 22bc
00000290: ffae 283c c1fd 023e 9ef8 2ebd 5d85 263e
000002a0: 9af7 3b3e 683e 893e baa3 503e ed86 b93e
000002b0: 4f90 863e 4a23 b43e 5492 b73e 4bef d03e
000002c0: 0430 07bd 2350 ddba 2113 2c3e 9db0 283d
000002d0: 4014 c73b 5881 593d 12fc f23d 9610 be3d
000002e0: f5d3 813c dbca 743e 9e0f 483e 7e5c 8d3e
000002f0: 3a19 653d 6297 76bd 1f7d 62bd 1972 143e
00000300: 2037 873b 648d 91bd e687 a63d cedc a0bd
00000310: 2d50 47bd 12e1 8cbc 0cc6 70be 3e52 5abe
00000320: 8950 653d e3e6 1e3c 131c 1c3e 9c13 24bd
00000330: 6d6c 443d 85fd 093e 60ee 393e 5530 4f3e
00000340: d8cc dabd 8ec7 afbd 680a d6bd 3e55 a5bc
00000350: 0e92 1d3e 0445 703d 59ac 013e 001f ad3d
00000360: 31cb 14be 1c5a 98be 0b37 a1be 0689 c0bd
00000370: 20b2 32bd dfa8 b83c 3e86 debd f9e2 743d
00000380: 91ef 653d 86d3 05bc 27aa c4bd 4f8c d13d
00000390: 5ca1 9fbd 2b41 5ebd 0b02 7d3d 1bb3 79bd
000003a0: 1ec8 8abe f591 e4bd 063f 9bbe 81a6 9abe
000003b0: c023 37be 9369 87be 4df7 70be 593e 90be
000003c0: c4dc 033e 4a7e e6bd 655a 353d f7de 3abd
000003d0: a8e7 f03c a872 e23d 101e 5fbd 14c8 2bbd
000003e0: 80a1 d4bc ec9f 503d 6daa 123e 39ef 78bd
000003f0: 2237 863c 42b7 fcbd c76b cebd b8a8 69bd
0.071494535 -0.079218134 0.09714857 0.019019961 -0.1745553 -0.123745486 -0.225073 -0.053611916
0.026039317 0.078568794 0.07346271 0.02946108 -0.3573647 -0.24820459 -0.23915142 -0.32032803
0.07315336 0.12522203 -0.031038016 0.08643941 -0.11444234 -0.10149753 0.08998818 -0.083855815
0.05117233 0.1323476 0.017654482 0.20018089 -0.10464196 -0.07350747 -0.07762299 0.004061445
0.09852806 0.055325385 -0.031770427 -0.07945789 0.030785182 -0.12880449 -0.2021193 0.0053335815
-0.043137792 0.05615776 0.0009337391 -0.124578446 0.01663882 -0.07927968 -0.03869028 -0.0062913443
-0.041854154 0.04542706 -0.16502301 0.07281319 -0.0009832829 0.007453665 0.074868545 -0.02214259
-0.24404228 -0.1765087 -0.20745009 -0.07602363 -0.12276424 -0.049552027 -0.27361387 -0.039320227
0.044304907 -0.08688323 -0.11105816 -0.023994476 0.29021904 0.22686844 0.32277182 0.26794568
-0.016035223 -0.099651985 0.023234952 -0.12464432 0.41536954 0.17586865 0.35426822 0.09880651
0.05129887 -0.0007997508 -0.08494437 0.0113094505 -0.10392093 -0.10093585 -0.017403156 0.050771482
0.24651161 0.2979153 0.30764708 0.23501489 0.2598325 0.37596124 0.22698793 0.29480645
-0.11902718 0.10748112 0.06606311 -0.0077487165 -0.023224637 -0.09240568 -0.04473303 -0.11942828
0.09862612 0.18574548 0.17544003 0.034306727 0.19381157 0.12138133 -0.03247186 0.055014677
-0.16112174 -0.07508475 -0.13498068 -0.0073044617 -0.027355492 0.004749328 0.043064907 0.0018082708
0.213418 0.12983875 0.07024805 0.17821194 0.21922223 0.20691015 0.26456985 0.25834417
0.038441584 0.083059 -0.06728734 0.05792415 0.19747624 0.23881167 -0.0014971499 0.09908368
-0.023195142 0.079611674 0.005883521 0.066756964 0.014548631 0.077522114 0.044707347 0.06674367
-0.041577484 0.14339338 -0.047031425 -0.060368862 -0.004386542 -0.060198855 -0.05422034 0.09043371
0.03761287 0.02474183 -0.08311131 -0.13847664 0.1667507 0.16931981 0.11089139 0.07640985
0.11584878 -0.072581 0.055453215 -0.009902207 0.010295629 0.12792112 -0.04271757 0.16261812
0.18356171 0.26805425 0.20374957 0.36235753 0.26281974 0.35183173 0.35853827 0.40807566
-0.033004776 -0.0016884845 0.16804172 0.041184057 0.006075412 0.053101867 0.11864485 0.09280507
0.01584814 0.23905508 0.19537207 0.27609628 0.05593226 -0.060202964 -0.055295106 0.1449665
0.0041264445 -0.07107046 0.08131389 -0.07854615 -0.048660446 -0.017197166 -0.23513049 -0.21320435
0.055985007 0.009698602 0.15245084 -0.040057763 0.047954965 0.13475616 0.18157339 0.20233281
-0.10683602 -0.08582984 -0.104512036 -0.020182248 0.15387747 0.05865957 0.12663402 0.084531784
-0.14530636 -0.29756248 -0.31487307 -0.09401135 -0.043626904 0.022541462 -0.108654484 0.05978677
0.05613667 -0.008168107 -0.096027665 0.1023184 -0.07794449 -0.054261368 0.061769526 -0.060961824
-0.27105802 -0.111606516 -0.3032152 -0.30205157 -0.17884731 -0.26447734 -0.23531838 -0.28172567
0.12877184 -0.112545565 0.04427566 -0.045622792 0.029407337 0.11057025 -0.05447203 -0.041938856
-0.025955915 0.050933763 0.14322825 -0.060775016 0.016383711 -0.12339641 -0.10079151 -0.05704567

bias f4 [16]
00000000: ffcd 9dbd f507 5a3d a8f3 a33d 27ef 1bbd
00000010: 4209 203d 106f 02bd 1e36 edbd f0d8 023e
00000020: 6cf3 883a 8759 f8bb ba32 18bd f86a e2bd
00000030: a3bf dc3c 1ccb 073d 1338 d23d 4d06 913d
-0.07705306 0.053230245 0.08005458 -0.03806987 0.03907133 -0.0318442 -0.11582588 0.12778068
0.0010448522 -0.007579032 -0.03715775 -0.11055559 0.026946848 0.033152685 0.102646016 0.0708128

weight f4 [32, 16, 2, 2]
00000000: 7f65 a3bb eb30 343e 8256 323e 0134 15bd
00000010: 97a1 04bc bcf4 e63c d058 a73d 1237 acbd
00000020: 3457 08be c72c 80bc 34d2 443d ced0 babd
00000030: 46bc 18bd 81ae 63bd d8d1 66bc 7fc7 413c
00000040: 026e 54bd 3fb4 833d 313c 143e e1fb d63d
00000050: 0199 c03d 6ece d83d 244f 36bd bfbb 0d3e
00000060: 9716 78be 4613 9cbe 6b05 4abe 2a94 aabe
00000070: 174b 05be 101a 9ebb 0489 ffbd e4fb e9bd
00000080: d595 2dbd c789 903d 48fa 4fbd 66eb 5c3a
00000090: e111 db3d 989d 2f3c 658a 0ebd 6bd7 09bd
000000a0: c733 953c da0a adbd ed6f 4f3d 750a 7a3d
000000b0: 44fa 87bd fbaf 0d3c f5fb b5bd eee1 c73d
000000c0: c30c 603d 3bbb 83bd 05ab 6dbd a530 f6bd
000000d0: 23a0 b9bd b20a 8dbd 9e6e 8cbe ed8a 40be
000000e0: abca 083e 5873 f43d 8bc5 563d 39ee cb3d
000000f0: 742c 163e f4d3 973d d758 8fbd 6719 4fbd
00000100: e43c ce3c 2607 303d 025d b0bc d01e a63c
00000110: af32 3abd 8953 3c3d 47f9 a7bd 3fac e1bd
00000120: 8250 aabd 767b dc3b f241 09be 24df 2cbd
00000130: 2efe e33d 2726 a5bb 4c76 6dbd 49f5 8b3d
00000140: 8d84 f1bd a709 cf3d ba59 143d dea6 a4bd
00000150: fb14 f8bd 8560 8fbd 72b4 1a3c 4ee9 b53d
00000160: 316e c9bc 15c5 0a3c a351 c9bd 8174 b43d
00000170: e61b 9bbd 3306 c93d c02c a33b 5733 973d
00000180: 8654 893d f34c f03d b440 f63c f253 4a3d
00000190: 9cc8 d73d d31e b73c 32d6 c23c f58c 623c
000001a0: aa2c b63d 33c7 053e 9423 17bd 21e7 343e
000001b0: 85e5 8c3d 8b75 1ebd 83d2 753d 4a18 a83d
000001c0: 918d cbbc b8fa a53c 4bf7 71b9 394a b23d
000001d0: a809 9fbb 606a 993d bf0c 89bd 4200 f83c
000001e0: 1e5f a43d 17fd 3cbd 5118 ca3d 6f6b 87bd
000001f0: ac63 66bd a73e 8fbd a13b 643d 74fd 06bc
00000200: 25c2 4e3d 2424 643d 58fb f33d c727 a0bc
00000210: f851 f53d eb16 983b 8a99 d43d f496 ba3d
00000220: e0c8 3f3d d5a5 b8bc 55a8 10bd b3ee 2b3e
00000230: 5bec d73d ec7c d33b a85f d53d a237 f33d
00000240: 7842 1b3e 0f19 f53d cbe3 cd3c 7183 553d
00000250: a289 5ebd 3c3b 57bd c682 d13d e211 9ebd
00000260: ff67 453c 99ff 72bd 4b10 ae3d e440 6d3d
00000270: cb71 5f3d cf14 143e 72ba da3d f529 893a
00000280: 900e a73d 121e e43d c3e9 893c c217 f3bc
00000290: 8fa8 91bd c7e1 00bc e6d9 e83c 88cd 563d
000002a0: 801b c5bb e7e3 103e 87dd 7b3d 4309 da3d
000002b0: dd00 dabd d718 3abd f756 f8bc 9ee7 6e3d
000002c0: 1a32 1e3e df91 64bd 88fa b13d 5f68 0c3e
000002d0: 5b6d 223e 688a 7b3d accb aa3d 8839 8e3d
000002e0: 7f84 39bc 186f 663e 7f0d f23d c1d1 733e
000002f0: 7044 c03b 7889 d93d aab2 a0bd 700d 863c
00000300: b125 1bbc 4c00 01ba ff3d 423d c77b dc3d
00000310: f020 e13d 8105 d93b 0301 6d3d e2d6 3b3e
00000320: cebb b9bd 3abd 4fbb 81bb dabd a953 a03d
00000330: 98b6 053e 7290 f03d be1d 4e3c 0f33 313e
00000340: 7d9e 763c e7d0 11bd 98fc ae3d 69f1 6d3d
00000350: b933 fcbc 997e ce3c c616 84bc def1 5ebd
00000360: a86f 5e3d c6ba 60bd f5a8 1cbe 0c1e f2bd
00000370: 100c 213b 5831 08bd 4874 d2bd 0dc3 c53d
00000380: b306 32bc 9170 a43d e5dd 783d f549 3d3e
00000390: ab0e d0bc 95cb 003e 0a9c 0abd f282 8d3d
000003a0: 3256 9f3d 6cb2 0dbe abb1 dfbc 0a97 703d
000003b0: aa79 f2bc 35ab f8bd ad85 5ebd ee65 c83b
000003c0: 17dd 0b3e 3f4f 89bd 3e62 f13d bf1d 96bd
000003d0: b6b9 4f3d 6734 b8bc 3c46 1ebe c1ec 3cbe
000003e0: 6895 f43d 6d5d e23c ffd0 e23d bfec 9f3d
000003f0: 1bb5 f2bd 0e5d 2b38 cc64 103c f85e dabc
-0.0049864645 0.17596786 0.17415813 -0.036426548 -0.008095167 0.02819287 0.081712365 -0.08408941
-0.13314515 -0.015646352 0.048052028 -0.091218576 -0.037288927 -0.05558634 -0.014088117 0.011827349
-0.051862724 0.064308636 0.14476086 0.10497261 0.09404183 0.10586248 -0.044509068 0.1384115
-0.24227367 -0.30483454 -0.1972863 -0.33316165 -0.13016926 -0.0048248842 -0.124773055 -0.114249974
-0.04237922 0.07057529 -0.050775796 0.0008427411 0.106967695 0.010718726 -0.034799952 -0.033652704
0.018213166 -0.084493354 0.05064385 0.06104513 -0.06639531 0.008647914 -0.088859476 0.097598895
0.05469967 -0.06432196 -0.058024425 -0.12020997 -0.09063747 -0.068868056 -0.27428144 -0.18802996
0.13358562 0.119360626 0.052434485 0.09957547 0.14665395 0.07413474 -0.06999367 -0.050561335
0.02517552 0.042975567 -0.021528725 0.020278364 -0.045458492 0.045978103 -0.08201843 -0.110191815
-0.08316137 0.006728585 -0.13404062 -0.04220499 0.11132465 -0.0050399485 -0.057974145 0.06833894
-0.1179286 0.10109263 0.036218382 -0.0803964 -0.12113377 -0.070008315 0.009442436 0.0888239
-0.024588676 0.00846984 -0.09830024 0.08811284 -0.075736806 0.098156355 0.0049797 0.07382839
0.06705575 0.11733427 0.03006015 0.049396463 0.1053631 0.022353565 0.023783777 0.013827552
0.08895238 0.1306427 -0.036899164 0.17666294 0.06879715 -0.038686316 0.060015213 0.08207758
-0.024847778 0.020261154 -0.00023075675 0.08705563 -0.004853446 0.074909925 -0.06691884 0.03027356
0.08025955 -0.046139803 0.09867919 -0.06612288 -0.0562474 -0.06994372 0.05572093 -0.008239139
0.05047812 0.05569853 0.119131744 -0.019550217 0.11978525 0.004641404 0.10380848 0.09110823
0.04682243 -0.022540012 -0.035316784 0.16790275 0.10543128 0.006454101 0.104186356 0.118758455
0.15162075 0.1196767 0.025133034 0.052127305 -0.054330476 -0.052546725 0.10230021 -0.077182546
0.01204872 -0.05932579 0.084992014 0.057923213 0.05455188 0.14461063 0.10680093 0.0010464775
0.081570745 0.11138548 0.0168351 -0.029674415 -0.07112228 -0.0078663295 0.028424215 0.052442104
-0.006015241 0.14149438 0.06149056 0.10646298 -0.10644696 -0.045433845 -0.030314906 0.058326356
0.154488 -0.055803176 0.08690363 0.1371169 0.15862028 0.06141129 0.083396286 0.06944567
-0.011323093 0.22503316 0.118189804 0.23810484 0.0058675334 0.10621923 -0.078465775 0.01636383
-0.009469436 -0.0004921004 0.047422405 0.10765796 0.109926105 0.0066229706 0.057862293 0.1834369
-0.09069024 -0.0031698481 -0.10680295 0.07828457 0.13057935 0.11746301 0.012580333 0.17304634
0.015052435 -0.035599615 0.08544272 0.058091555 -0.030786382 0.02520685 -0.01612414 -0.05442988
0.054305702 -0.05486562 -0.15298827 -0.11822137 0.002457384 -0.033250183 -0.10276085 0.096563436
-0.010865855 0.08029283 0.06075849 0.18485244 -0.02539762 0.1257766 -0.033840217 0.069097415
0.07780112 -0.13837594 -0.027306398 0.058737792 -0.02959903 -0.1214203 -0.054326702 0.0061156666
0.13658558 -0.06704568 0.11786316 -0.07329892 0.050714217 -0.022485925 -0.1545648 -0.1844969
0.119425595 0.02763244 0.11075019 0.078088276 -0.118509494 4.085624e-05 0.008813094 -0.026656613

bias f4 [32]
00000000: 5621 bfbd b90e 0f3c 3df3 4fbd 2459 a53d
00000010: 8935 c13d dd34 e6bd f02f f4bd 8464 c0bc
00000020: c9f2 bc3b b803 15be e29b f2bd be80 cf3d
00000030: 0d84 173d 19e2 8d3d 320d e03c c695 a8bb
00000040: 4512 e03d 2ae8 c9ba b3ee 8abd 15f3 7c3c
00000050: 98a3 cfbd 06f6 ce3b 4118 3ebd c016 91bb
00000060: da8b a73b d5c8 aeba d4f5 d9bd 9139 a83c
00000070: a155 f13b 2aea 2cbd cafd a23d 992c 3ebd
-0.0933253 0.0087315375 -0.05076908 0.08073643 0.09434039 -0.112405516 -0.11923206 -0.02348543
0.005766247 -0.145522 -0.118461385 0.101319775 0.036991168 0.0692789 0.027350042 -0.0051448075
0.10940985 -0.0015404273 -0.067838095 0.015438815 -0.10138625 0.0063159494 -0.04640985 -0.004427761
0.005113107 -0.0013334999 -0.10642591 0.020535262 0.007364944 -0.042215504 0.07958563 -0.04642925

weight f4 [32, 32, 2, 2]
00000000: 5827 61b8 c5c3 ddbd d0b1 09be 12f8 99bc
00000010: fbaf a0bd ce84 fcbc 1557 1c3d 7127 50bd
00000020: d371 d1bb c125 94bd cbac 89bc f6d1 50bd
00000030: 773c de3c 6b67 0c3d 66f2 93bd 52ab ff3c
00000040: 7a5f eabd 92a3 21be 09b5 1ebd 2ed8 473c
00000050: 45bc 1a3c ea09 d73c f849 cf3a 0507 203d
00000060: 2657 46bd 9514 a03d 1bbd 9c3d d8c0 a83d
00000070: b6b3 5cbb c4b2 f1bc 450f acbd 392b 19bd
00000080: 9832 6fbd 730b c13d 05f8 14bc 7c34 6f3d
00000090: 1dc5 e23a 369e 20be ae98 1abe 9b2f a2bd
000000a0: aef2 06bc 672b aabd e021 7d3d 6f6b a3bd
000000b0: 032c 82bd 6499 22bc 87b1 2ebc a651 98bd
000000c0: f66b 713d d83e 98bd 3e05 89bd df95 c0bc
000000d0: 97c2 92bd 78cb 903c 7749 babd 5dd9 1fbd
000000e0: 0b3a b3bd 3b9c 09bd bc5b dbbc d215 cebd
000000f0: ab77 60bc 5005 4cbd be39 a7bd 34ce 0cbd
00000100: 23c4 5abc 127a efbd 0960 84bc d97c 83bd
00000110: c90b 14bd 4026 883c 6a26 873d dc85 8b3d
00000120: 29c0 603d 433c b2bc 8d1d 8fbd 7309 57bd
00000130: 5f6b 0b3c 31f0 a5bd 5aea 3fbd 367d 83bd
00000140: 70e1 09be 68c6 11bd 6e9d afbc e839 91bd
00000150: bc94 40bd 7983 0b3b 4398 fdbc cf08 c23c
00000160: 086c 2cbc b788 48bd f3e8 873d df15 993d
00000170: 45f6 123c 61c9 7cbd a996 6c3d fc0d 28bd
00000180: 2cb1 afbc 5d95 6cbd 3496 07bd 0a85 4e3d
00000190: 0e6e c5bc ec4d 21be e420 d2bd 85e1 0dbe
000001a0: a68d febd adcf 87bd 8044 1bbd 6500 b0bd
000001b0: 2158 bebd 4ad3 25bd 74ea 653b 3feb bdbb
000001c0: 4c97 a6bd 4184 f7bc 77d2 4cbd b707 fe3b
000001d0: 5048 0e3c 0fa2 4bbd 0ede a93d 3ab8 4a3d
000001e0: 3264 fbbd 3101 593c b086 483d 24d5 f9bd
000001f0: 8b39 99bd 795b 90bd 98f2 1cbe a0cb 0dbe
00000200: 03e3 aabd a2eb e2bd d7e4 91bd 8bc4 a9bd
00000210: 8c8e be3d 9b68 763d 8616 d5bc 89c1 5a3c
00000220: cb8d b63d 2910 1c3e a0ca 153e 25b3 093e
00000230: 974a 08bd 2811 d03d 9054 073d 91ac abbc
00000240: e44c 0d3d 706a 8a3d 2bf6 7e3d 823a 903c
00000250: f970 053e 8ec5 7c3c 02e5 e43d 69e8 36bd
00000260: 44fb 88bd 8115 343d 11d7 a53c d912 a03d
00000270: 23dc b83d b258 a83d dc16 66bd 4522 52bd
00000280: 507a 243e 7e0f 7c3d 6371 993d b352 a73d
00000290: 07b7 293e dc68 003e 2f61 eb3c f832 e73d
000002a0: d0e8 3dba 2d4d 173e 3be3 c03d 531c 183e
000002b0: fabf f2bb 7f10 16bc 8df7 74bd dbd1 833d
000002c0: 26d1 3abd f46a 5b3d 51ae 00bd 9e86 a53c
000002d0: 0812 013e 1772 233c 9390 0e3e 6830 113d
000002e0: 6a23 bd3d 906d 963c cfb1 b43c 961e 0c3b
000002f0: 20a3 803d 7061 a83d 607f da3d 95df 413e
00000300: 749a 71bb 750b 7ebd 0fc6 e6bd 2ac8 c6bd
00000310: 5d03 483e 352e 2d3d 9678 ed3d 877e 8f3d
00000320: f2df a3b9 1c90 65bd f752 5c3d 7efb 903d
00000330: 8ac4 80bd d04e 55bd a2e5 59bd a43e ba3c
00000340: 1c62 ef3d 059d ae3d 379e 9e3d ea99 bd3d
00000350: c755 683d 264d 6b3d 45ca b83d 0c92 43bd
00000360: 43fb 49bc a50a 10be 0653 81bb 756f 98bd
00000370: 21d3 b0bc 2748 eabc f1bd 913c 3212 1bbb
00000380: 8abc 2abd 2ff6 bc3c 0b7c 63bd ea6d 4c3d
00000390: 8ac5 6e3d d4d0 b03d d031 983d 228b 213e
000003a0: bc7a 6e3d db8d 443e 0a44 313d 801e ea3d
000003b0: 4d8d ec3c 232a 12bd 6713 5fbd 1ea1 9d3d
000003c0: 07e2 5d3c 663a 493d 6fbd 7b3c 225a e83d
000003d0: c0cf f33b c7fb 8ebc cdaf 05bd e9b9 6dbd
000003e0: f2c5 2e3d cb65 363d c17a dcbb 1f05 04bd
000003f0: 7cbe 0d3e b9a4 e1bc d4fd 903d 211e dfbc
-5.3680822e-05 -0.10828356 -0.13446736 -0.018795047 -0.078460656 -0.030825045 0.038168985 -0.050818864
-0.0063917427 -0.072337635 -0.016806027 -0.050981484 0.027128441 0.034278315 -0.07223968 0.031209622
-0.11443992 -0.15785053 -0.038746867 0.012197537 0.009444301 0.026249845 0.0015814891 0.039069194
-0.048422955 0.07816426 0.076532565 0.08239907 -0.0033676452 -0.029504187 -0.0840135 -0.037394736
-0.05839786 0.09426012 -0.009092336 0.058399662 0.0017301176 -0.15685353 -0.15097305 -0.07919236
-0.00823657 -0.083090596 0.061799884 -0.07979476 -0.06356051 -0.0099242665 -0.010662443 -0.07437448
0.05894085 -0.074338615 -0.06690453 -0.023508964 -0.07166021 0.017675146 -0.090960436 -0.039025653
-0.08751305 -0.03359626 -0.02677714 -0.10062756 -0.013700406 -0.049809754 -0.0816531 -0.034376338
-0.013352427 -0.11693205 -0.016159074 -0.06420297 -0.03614405 0.016619802 0.06599124 0.06812641
0.05487076 -0.02175725 -0.06988058 -0.052499246 0.008509486 -0.081024535 -0.046854354 -0.064203665
-0.13464904 -0.035589606 -0.021437373 -0.07091123 -0.047016844 0.002128808 -0.030956393 0.02368584
-0.0105238035 -0.048958506 0.066362284 0.07474875 0.008969848 -0.061715487 0.05776087 -0.04102896
-0.021446787 -0.05775963 -0.03310223 0.050419845 -0.02410033 -0.15752381 -0.1026018 -0.1385556
-0.12429361 -0.06631408 -0.037907124 -0.08593825 -0.09294153 -0.040484704 0.0035082372 -0.005795866
-0.08134326 -0.03021443 -0.050005402 0.0077523845 0.008684233 -0.049715098 0.08294307 0.0494921
-0.1227497 0.013244913 0.048956573 -0.121988565 -0.074816786 -0.07048697 -0.15326917 -0.13847208
-0.0834408 -0.110801 -0.07123726 -0.08289441 0.093045324 0.060158353 -0.026011717 0.013351806
0.089137636 0.1524054 0.14628077 0.13447244 -0.03327426 0.10159522 0.03303963 -0.02095631
0.034497157 0.067585826 0.062246483 0.017606024 0.13031377 0.01542796 0.11176492 -0.044655237
-0.0668855 0.04396582 0.020244153 0.07816095 0.09026363 0.08220042 -0.056174144 -0.051302213
0.16062284 0.061538212 0.0749233 0.081700705 0.16573726 0.1254 0.028732864 0.112890184
-0.00072444696 0.14775534 0.09418341 0.14854555 -0.0074081393 -0.009159206 -0.059806395 0.06436511
-0.045609616 0.053568795 -0.03141624 0.020205792 0.12604535 0.009975932 0.13922338 0.035446554
0.0923527 0.01836279 0.022057442 0.0021380535 0.062811136 0.0822171 0.10668826 0.18932946
-0.0036865743 -0.062022645 -0.112682454 -0.09706147 0.19532533 0.042280395 0.115952656 0.07006555
-0.00031256635 -0.056045637 0.05379006 0.07079218 -0.06287487 -0.052077115 -0.05319751 0.022734948
0.11688635 0.08526043 0.07745021 0.092578724 0.05672243 0.05744662 0.09022955 -0.047746703
-0.012327972 -0.1406656 -0.0039466647 -0.07443134 -0.02158505 -0.028598858 0.017790766 -0.0023661968
-0.04168371 0.023066608 -0.05553822 0.04990951 0.058293857 0.08633581 0.07431376 0.15775731
0.058222517 0.19194739 0.043277778 0.11431599 0.028875971 -0.035684716 -0.054461863 0.07696746
0.013542659 0.04912796 0.015364989 0.113453165 0.007440537 -0.017454041 -0.03263836 -0.058038626
0.042669244 0.04453067 -0.0067285006 -0.032231446 0.13842195 -0.027544366 0.07079664 -0.027236046

bias f4 [32]
00000000: 49aa 763d 0172 e8bc 1d47 25bd e14e 9d3c
00000010: 7d22 1dbd d74c 473b a5f4 3fbd 0d23 413d
00000020: da0e 34bd 9a9a 973d 3022 92bb 8e42 e83b
00000030: 560c fe3c b4ad 87bd d15b 333b 07ca 033d
00000040: c175 9d3d d03b d63b 8892 9d3d a713 fa3c
00000050: 0828 32bd 5773 5a3d c5cd 25bd 849f 34bc
00000060: b2ae 99bc 03f4 13bd f73d 59bd 027f bf3c
00000070: e06e f33c 9a3c 7cbd d9e8 9d3c cab7 39bd
0.06022099 -0.028374674 -0.040351022 0.019202651 -0.03836297 0.003041079 -0.04686417 0.047152568
-0.043959476 0.07402535 -0.004459642 0.007088012 0.031011742 -0.06624928 0.002736796 0.03217509
0.076884754 0.006537892 0.07693964 0.03052695 -0.043495208 0.053332653 -0.04047944 -0.01102436
-0.018760059 -0.03612138 -0.05303761 0.023375992 0.029715955 -0.06158123 0.01927607 -0.04534129

weight f4 [64, 32, 2, 2]
00000000: 69c7 dbbb f611 5f3d 4c7d b63d 83ac dbbc
00000010: d6da 28bc 2c32 963d 62cf c43c 75bc 343d
00000020: 96eb 09bd e6b0 7a3d fcef 303d 53ce d13d
00000030: 9e70 c73d b4cf f63d 3b2e 053b e127 963d
00000040: 76b4 093d ae54 413c 5ea2 a03d 12ed 903c
00000050: 64a2 e2bd 1ffd bcbd 318b ef3c 2a72 69bd
00000060: 8181 b03d 2456 0d3e 7cfe c23b 18d8 26bd
00000070: f78e 0dbd 2cc5 013d 48b2 85bc d5f4 b33c
00000080: 2b8f 4e3c a137 c63c ba28 793d 579b 763d
00000090: 6b24 aebd 61e7 f2bd b7ee 9ebd 789b 57bd
000000a0: 02f5 55bc 0d27 0fbd 4b61 cc3c 79ee 973d
000000b0: 6b6c a73c 0c2f 2c3e f515 dc3d 501d fa3c
000000c0: 4e31 9e3d aea4 a03d 81d1 ccbb e34b d5bc
000000d0: 671d a83d cb1d 903a 923e f0bc 5bca c23d
000000e0: 4b96 32bd 415f 6abd 94d1 d83c 86e1 9b3d
000000f0: b47a 90bd 3b6d 15bc 1578 65bb d2bb 4a3d
00000100: bd93 413d c05d fe3c 051e a73b df1c a43d
00000110: 97bb 60bd e850 85bc 87b6 30bd 3902 353d
00000120: 6ef5 bdbd 5df3 e0bd 1e9d 9b3c 5f41 5abc
00000130: c36c 5bbd 97eb d43b 7828 a23d 83a2 bf3d
00000140: 6030 0abd bf00 11bd 1896 86bc 677b 853d
00000150: 516a 953d db95 e53d 2205 4cbc 9514 933d
00000160: e0d9 b03c 2548 253d afc0 8b3d 840b 513d
00000170: 467d 72bd 0bcf 24bd 5125 8dbd 54d0 10bd
00000180: 265f 903b 93d1 86bd f52b 7b3d 3b86 d03c
00000190: 0c03 433d cd5e d33c 42fe 11bd 4111 6cbd
000001a0: 16b9 1dbd 7378 9abd b28c 273c 76fc 113c
000001b0: ba9a aabc 80e2 56bd 0f02 313d 0944 98bd
000001c0: e511 973d 495d 7f3d 0ee6 003d bf31 343d
000001d0: 13ee a53d fcc6 863d 10c2 313d 748c b3bc
000001e0: a1af a5ba e0f8 ddbc 92c6 86bd d377 413d
000001f0: 7c5f 993d ff2f 0b3d 5fc4 69bd 6c05 283d
00000200: 04e7 823c 4418 c03d 26dc bfbc 8a73 cdbc
00000210: bb77 eb3d ea7e 31bd 1618 b63d 5b3f ac3a
00000220: 71e3 1a3e 20d8 ef3d af85 303d abd3 a73b
00000230: 5f02 44bc d08d b33d 69d3 473d 87d7 073d
00000240: 3532 36bd 6a03 e93c efd2 d43c 2f3c 07be
00000250: 380c 4fbc 27fd c3bd f98f 423d 6776 d5bd
00000260: e30d f93c d6d1 6f3d dd10 6d3d 9e26 82bc
00000270: e0b0 8cbd 43b6 503d a4d8 8f3d ad1a a7bb
00000280: 2a6e 8f3c f240 503d 3ad6 bd3d 471d 2d3d
00000290: dea0 e13d a8cc 763d 30e5 913c f4a9 53bd
000002a0: b41c 4b3d 5e07 eebc 528c 873d 1030 143e
000002b0: 0168 26bd 7b16 f4bb 1995 aabd 6e2f c0bd
000002c0: 5010 963c 8dc9 26bd 2e9a 70bd 7556 ccbc
000002d0: 874c da3c f51e 453d 70b5 5c3d 483b 653b
000002e0: cb7e 763d 29c9 ebbd 78ea 1d3c dd52 41bd
000002f0: aaf2 a93d 2d08 e9bc 04d8 b03c e10c 2fbe
00000300: 7a6c c5bd 1fde 853d af5a 6dbc ac1c 1abd
00000310: de36 30bd 4a57 29bd 983a 3abd fc1e 233d
00000320: 565a 713b 08a9 45bd ef33 2b3d 7ade 1d3d
00000330: a127 0e3e f5eb 2b3d af96 5b3b c238 8a3d
00000340: 7773 39bd 2afd d9bd 6996 db3d f7ce 6cbd
00000350: fcec 7d3d bc82 263d 5715 1a3d e2f8 a23b
00000360: 9d82 86bc 4e9f 0a3d cd3f b83d 18d0 fe3c
00000370: 3e19 bb3d 5c3d 913d e0f3 8dbd 44b0 00bd
00000380: a8ce 793d c08d dbbc 8f69 2a3d 9043 8dbc
00000390: 5535 843d ff56 c23b 791f 43bd a0bd d8bc
000003a0: ad0f 0a3e 361a 52ba 7a0b 013e 94c2 753d
000003b0: 90b2 af3d ced7 cc3c aa32 bf3d 4dd0 103d
000003c0: 39aa 2bbc 775e cebd 2d73 a4bd d64f f1bd
000003d0: 2582 d63d 618c dd3b 5f33 0f3d c114 84bd
000003e0: 6acf c33d 71d2 a1bd 037b d13d edb3 b13d
000003f0: 4680 b43d f31c 893d a8b9 db3c 94e6 273c
-0.006707121 0.05446049 0.08910617 -0.026815658 -0.010306081 0.07333788 0.02402467 0.04412504
-0.033671938 0.06120386 0.043197617 0.10244431 0.09738277 0.12051335 0.0020321745 0.07331825
0.033619367 0.011799974 0.07843469 0.017691169 -0.1106613 -0.092279665 0.029241176 -0.05699364
0.08618451 0.13802391 0.005950747 -0.040733427 -0.03456017 0.03168218 -0.016320363 0.021967331
0.012607376 0.024196448 0.060829856 0.060206737 -0.0850304 -0.11860538 -0.07760375 -0.0526385
-0.013058903 -0.03494935 0.024948737 0.07418532 0.02043744 0.16814822 0.107463755 0.030531555
0.07724248 0.0784391 -0.0062505607 -0.026037162 0.08208733 0.0010995207 -0.02932671 0.095112525
-0.04360036 -0.057219747 0.026467122 0.076113746 -0.07054654 -0.009120281 -0.0035014201 0.049495526
0.047260035 0.031050563 0.005100014 0.08013319 -0.0548664 -0.01627393 -0.04314282 0.044191573
-0.092753276 -0.10983918 0.018995818 -0.01332125 -0.05357052 0.006497811 0.07917875 0.093571685
-0.03373754 -0.035401102 -0.016428992 0.06517678 0.07295669 0.11210223 -0.012452396 0.0718166
0.021588266 0.040352006 0.06823861 0.051036373 -0.0592015 -0.040236514 -0.06891883 -0.035354927
0.004405874 -0.06582942 0.061321218 0.025454631 0.047610328 0.02580204 -0.03564287 -0.057633642
-0.03850659 -0.07542505 0.0102264155 0.008910289 -0.020825732 -0.0524621 0.043214854 -0.07434852
0.0737646 0.062344823 0.031469397 0.043992754 0.0810205 0.06580922 0.043397963 -0.02191756
-0.0012640842 -0.027096212 -0.06580843 0.047233414 0.07488915 0.03398132 -0.05707204 0.041020796
0.015979297 0.09379628 -0.023420405 -0.025079507 0.11497446 -0.043333925 0.08891313 0.001314144
0.15125825 0.117111444 0.04309624 0.0051216683 -0.011963456 0.08767283 0.0487856 0.033164527
-0.044481475 0.02844401 0.025979487 -0.13206552 -0.0126371905 -0.09569769 0.047500584 -0.10422974
0.03040213 0.058549725 0.05787741 -0.015887555 -0.06869674 0.05095507 0.07023743 -0.0050996155
0.017508585 0.050843187 0.09269376 0.04226425 0.11017011 0.06025377 0.01780948 -0.05167575
0.04958792 -0.029056247 0.06618561 0.1447146 -0.04062653 -0.007448969 -0.08329219 -0.093840465
0.018318325 -0.040719558 -0.058740787 -0.02494357 0.02664782 0.048125226 0.05388397 0.0034977961
0.060179513 -0.11512978 0.009638421 -0.047198165 0.082982376 -0.028446281 0.02158738 -0.17094757
-0.09639831 0.06536507 -0.014486953 -0.037625 -0.043021075 -0.04134301 -0.045466036 0.03982447
0.0036827526 -0.048256904 0.041797575 0.03854225 0.13882305 0.041973073 0.0033506562 0.06749107
-0.04527613 -0.1064399 0.10722048 -0.057814565 0.061993584 0.04065202 0.037618008 0.004973517
-0.016419703 0.03384333 0.08996544 0.031105086 0.09135674 0.070917815 -0.06931281 -0.0314181
0.0609881 -0.02680099 0.041604575 -0.01724413 0.06455485 0.005930781 -0.047637437 -0.026457608
0.13482542 -0.000801477 0.12602034 0.060000017 0.0857898 0.025005247 0.09335835 0.0353549
-0.010477596 -0.100766115 -0.080297805 -0.117828056 0.10474042 0.0067611192 0.0349611 -0.06449271
0.095610455 -0.07901467 0.10228541 0.08676896 0.08813529 0.06694975 0.026821926 0.010247845

bias f4 [64]
00000000: 64bc e6bd d800 d4bd 480e c7bc 3fb6 bb3c
00000010: a6f9 463c ba10 5d3d 68b9 d2bd 7530 3ebc
00000020: 1e39 083d c0b1 82bc 20b6 b63b 03fb b4bc
00000030: 3259 b2bc 8427 36bd 9faf 1b3d 5bd0 aabc
00000040: 5c43 f7bd 92d8 e5bc c538 dfbd b3e8 8ebd
00000050: 3b42 223d 83aa 363d cdb5 b63d 47f7 0b3d
00000060: 2b40 fd3c 2426 d1bd 9654 223d e6c3 5cbd
00000070: 07b6 afbd e74d 15bd bb83 113d f71f eabd
00000080: 771f 5dbd 419a 5a3b 3ecb 8abd 252f 7d3c
00000090: 2524 eb3b e759 21bd 40a0 5ebd 57c4 8cbd
000000a0: 145a c2bd 0aed cfbd f6aa 0cbe 1627 40bd
000000b0: 9338 cdbb f079 463d 3847 793c 2fbd 443d
000000c0: 7e39 ed3c 964e 47bd 7aff 5abd 5520 edbb
000000d0: ed64 f8bc 41c7 47bd 7d18 63bc ef5b bebd
000000e0: 3450 2c3c 2d08 8d3b ea12 e7bc 2ba1 d8bb
000000f0: 96e2 873d 07c6 b03c b97a 513d edbf f43c
-0.112664014 -0.103517234 -0.024298802 0.02291405 0.012144482 0.05397103 -0.1028927 -0.011608233
0.033257596 -0.015953898 0.00557591 -0.022092348 -0.021771047 -0.04447128 0.038009282 -0.020851305
-0.12073395 -0.02805737 -0.108995 -0.069779776 0.039613944 0.044596206 0.089213945 0.03417137
0.030914387 -0.10212353 0.03963145 -0.05389776 -0.08579641 -0.036451247 0.03552602 -0.11431878
-0.053985085 0.0033356103 -0.067770466 0.015453135 0.0071759396 -0.03939238 -0.054352045 -0.06873386
-0.09489837 -0.101526335 -0.13737091 -0.046912275 -0.0062628477 0.048456132 0.015214734 0.048031982
0.028958078 -0.04865893 -0.053466298 -0.0072365203 -0.030321563 -0.048774008 -0.013860819 -0.09294879
0.010517169 0.004303953 -0.028207261 -0.0066110096 0.06635015 0.021578802 0.051142428 0.029876674

weight f4 [64, 64, 2, 2]
00000000: 59e7 07bd 363a 16bc 6000 323c 7fff 903d
00000010: 3d77 a13d 1fb1 ac3d 02f6 9e3d 603f 233d
00000020: ef49 fbbb b08c 193a 4862 63bd 9cd2 15bc
00000030: 40dd 59bd 5bf2 e43d c6f9 a0bd 8470 e93d
00000040: ec82 ecbc df85 32bc 6b4c 77bd d9e0 aa3b
00000050: 8d81 f3bc 021f c5bd 13f1 173b 8a5f edbd
00000060: 60c4 593c 0b6f 3a3d 1a1b 593c 62b1 3b3d
00000070: 23f7 0cbd 4e02 593c 3dcf f43c c9f1 0d3d
00000080: 0703 0abd 396f 53bd fad5 abbd 2a1a c4bd
00000090: eb93 153d 4cf8 243d 147b e9bc 8866 763d
000000a0: 9ace 3f3d 8411 233d 78ba e8bc 2826 b63c
000000b0: 5cb7 6d3b 34ce c5bb b7a1 aeba 9db2 65bb
000000c0: f5db 9bbd e55c 4dbd 43eb 4ebc 7c2f 90bc
000000d0: 87ea fcba 6a23 583d 6a38 733c 8566 1e3c
000000e0: c203 433c ec9e 62bd f56f 1d3d b4f4 24bd
000000f0: a9c5 dd3d c0a2 733d dcae f23c 0cd0 02bd
00000100: b1fc 0d3e 43b3 a83d 635e 5bbc 84ca 683d
00000110: a52a 87bb e215 f43c 4cf9 6fbd 9d7e 2abc
00000120: 6fec 933c 3a67 b7bc d2d9 be3c 6812 5e3d
00000130: 50db 4a3d 0635 f7bc baa8 333d b136 28bb
00000140: 86b6 643c 7d63 80bc 1edd 5e3b c44c 733c
00000150: 1ad6 353d aeea b63c 9243 39bd 9d97 f7bc
00000160: fbce 913c 85a4 a73d 79aa d53d c5fb ac3d
00000170: d517 2bbd 72e3 94bb 9cf2 dabc a3ee 66bd
00000180: c73a e2bc 3da5 e93c 1685 cabd cd99 61bd
00000190: a99b 723d 3b37 323d f969 883d 63dc 993c
000001a0: af08 93bd 8e3a 76bd 629d 76bd 2cf0 32bd
000001b0: f7b1 b53c d888 bcbc ea5a 913d ce0c adbb
000001c0: 5671 7e3c bebf e9bc 0161 133d 831d fdbc
000001d0: 5f99 15bb c899 863c c5ff 16bd 9148 6539
000001e0: 828e c6bd aac7 e93a 3a81 43bd dcbb bbbd
000001f0: 86c9 2ebb 3367 1a3d ca3d 413d 199e 52ba
00000200: 07b1 07bc daf5 773d 1017 e93b 11c4 bbbc
00000210: 14c9 df3c cf1a 44bd d126 183d ea76 d23b
00000220: b548 033d ba5e fdbc 0f68 2c3c b083 923b
00000230: d0be 8b3d 270d 5e3d 26a7 093d 3337 03bd
00000240: 2423 dd3c 2e21 debc fc87 01bd 8554 ecbc
00000250: f241 8bbd 86ee abbd c564 c5bd 9918 94bd
00000260: 2324 303d a187 9ebc 2801 863c 98c9 d7bc
00000270: 0cc0 d6bd d336 82bd 4c59 1cbd 0fb4 eabd
00000280: 4474 dbbc d90e 1abd 95ef 99bd 2c01 bdbc
00000290: d437 473d b673 a5bb 4d8d 843b 5b38 62bd
000002a0: 04a1 7abc 249b b03b b561 533d 3066 083d
000002b0: 5561 773d 32eb dd3d 4711 e03d 2751 263e
000002c0: 26e3 0d3d 41f0 d73d ab59 a3bd d4cd a8bd
000002d0: 5f1d a73c 93b4 f9bc 2f77 59bd 14f6 11bc
000002e0: 1187 83bd d00e 5ebd 537c eebc 68ea a93a
000002f0: 623d 573d 751b cf3d e733 9d3c bfae f23c
00000300: 63e1 9bbd 12b0 6ebc e2cd 1f3d d501 aa3d
00000310: 2856 0c3c c254 d03c 14f4 9cbd a216 55bd
00000320: d655 223d d941 0abc 9d71 f53c 744e 65bc
00000330: c810 823d bff0 7e3c 920c e3ba 00a6 61bc
00000340: d3fd c0bc a176 69bd 5b8c f8bc c38a 813c
00000350: efd7 103d 53ba 11bd 78f9 44bd 45e6 fabc
00000360: 491a eebc c319 72bd c60d 76bd 501b 3e3d
00000370: 6193 99bc 99c2 b5bc 71aa 333d bf20 4c3d
00000380: 8ed4 a9bd 55b9 29bb a92b c93c 582e 12bc
00000390: 308f 3f3c 138c 63bd a6d7 ccbc 6b7f 92bd
000003a0: 357b 2d3d 49af 133d da66 5a3d ca84 483d
000003b0: 9e5a 8bbd e90c 0ebb 9fca b73c 5cf6 83bd
000003c0: 4c9a a0bc c2d3 d43d a92c 9a3d 3e4e 083e
000003d0: 3ba3 e23c 7162 b4bd 7432 5b3c ac82 cfbb
000003e0: 91da 003d 80ea a83d 0c59 16bc a008 23bd
000003f0: 925a d6bc 75c1 8fbd 2e6e e43b f25d fdbc
-0.033179615 -0.009169152 0.010864347 0.07079982 0.07884071 0.08432221 0.07761766 0.03985536
-0.0076687257 0.0005857451 -0.05551365 -0.0091444515 -0.053189516 0.11179038 -0.078601405 0.11398414
-0.028871022 -0.010896175 -0.060375612 0.005214792 -0.02972486 -0.09625055 0.0023184463 -0.11590488
0.013291448 0.045516055 0.01325109 0.045823462 -0.034415375 0.013245178 0.029883975 0.034654412
-0.033694293 -0.051619742 -0.08390422 -0.09575303 0.03651802 0.040275857 -0.028501071 0.060156375
0.04682789 0.039811626 -0.028409228 0.022234991 0.003627262 -0.006036544 -0.0013323341 -0.0035049089
-0.07610313 -0.05013742 -0.012629333 -0.017600767 -0.0019295969 0.05276815 0.014844993 0.009667997
0.011902751 -0.05532734 0.03843685 -0.04027243 0.10828716 0.059481382 0.029624395 -0.03193669
0.13865925 0.082373165 -0.013389203 0.05683376 -0.0041249567 0.02979559 -0.058587357 -0.0104061635
0.018057076 -0.02238809 0.023297224 0.054216772 0.04952556 -0.03017665 0.043862082 -0.0025667364
0.013959533 -0.01567244 0.0034006308 0.014849845 0.044393636 0.0223287 -0.045230456 -0.030223662
0.017798891 0.081856765 0.10432906 0.08446459 -0.041770775 -0.004543715 -0.026727013 -0.056379925
-0.027615918 0.028521175 -0.098886654 -0.055078316 0.05923048 0.043509703 0.06660838 0.018781846
-0.07179391 -0.060114436 -0.060208686 -0.043686077 0.022179587 -0.023014471 0.070974186 -0.0052810675
0.015529951 -0.028533813 0.035981182 -0.030897861 -0.0022827012 0.01643075 -0.036865015 0.00021866175
-0.0969515 0.0017835994 -0.047730662 -0.09166691 -0.002667041 0.037696075 0.047178067 -0.00080344226
-0.008281953 0.060537197 0.007113345 -0.02292064 0.027317561 -0.04787713 0.037146393 0.006422867
0.03205176 -0.030928958 0.010522856 0.004471265 0.06823504 0.05421176 0.03360667 -0.032035064
0.026994295 -0.02711543 -0.031623825 -0.028848896 -0.067996874 -0.08395104 -0.09638361 -0.07231254
0.043003213 -0.019351782 0.016357973 -0.026341245 -0.10485849 -0.06358113 -0.038171098 -0.11460125
-0.026788838 -0.037611816 -0.075164 -0.023071848 0.048637226 -0.005049194 0.0040451647 -0.055229526
-0.015297178 0.005389588 0.051606853 0.03330058 0.060395557 0.108358756 0.109407954 0.16241895
0.034640454 0.10543872 -0.07976087 -0.082423836 0.020399747 -0.030481612 -0.053092178 -0.008908767
-0.06422246 -0.054213345 -0.029112017 0.0012963535 0.052548774 0.10112659 0.019189788 0.029624341
-0.076113485 -0.014568346 0.039014705 0.08301131 0.008565463 0.02543104 -0.07663742 -0.052023537
0.03963264 -0.008438551 0.029961402 -0.013995755 0.06350857 0.015560328 -0.0017322472 -0.013772488
-0.023558533 -0.0569979 -0.030340364 0.015813237 0.03536218 -0.035578083 -0.048089474 -0.03062738
-0.029065268 -0.0591066 -0.06007173 0.046412766 -0.018747034 -0.022187518 0.043863717 0.049835917
-0.08292495 -0.002589782 0.024556952 -0.008922182 0.011691853 -0.055553507 -0.025005173 -0.07153209
0.042353828 0.036055837 0.053320743 0.048954763 -0.06804393 -0.0021675176 0.022435484 -0.06443474
-0.019604824 0.10391952 0.075280495 0.13311097 0.027665725 -0.08807839 0.013378728 -0.006332716
0.03145844 0.08247852 -0.009176504 -0.039803147 -0.026166234 -0.07019321 0.0069711423 -0.030928586

bias f4 [64]
00000000: 256a 6cbd 5f27 f43c 8623 1dbc 2747 b93d
00000010: 2154 51bd 4a82 913b 063d af3c d7be 803d
00000020: 96ae c63c c1fa 563c 6623 da3b f0d3 ad3c
00000030: 593d 7b3c 8995 1fbd fa31 213d 4d13 ce3b
00000040: 4682 303c dac1 55bd e3ca 5fbc af82 2b3d
00000050: 27ab 16bd eead 87bc 835b 2c3d 1585 d7bc
00000060: 3e24 ba3b aa18 33bd 07a0 233d b19e 3db8
00000070: 05d1 823b 26d9 2bbd 9526 2ebd d9e0 beb9
00000080: 3c9f 053d 1509 e43c 661f 823c 2af0 aa3b
00000090: 6e67 d23b 8f0e 283d 050f afbc 0481 08bb
000000a0: da3f c1bc 8ed7 973d 0ceb 613d 0117 c0bc
000000b0: 6cb5 3e3d f7f5 aabd 0c67 40bc bcc2 a1bc
000000c0: 9b01 89bb 897b 583d e0af dabb d9d8 95bc
000000d0: f015 0cbd d7f5 4c3d 52c0 febb 7fed 5a3d
000000e0: 38a4 4fbd d9f7 1bbd 22f0 51bb f483 b43c
000000f0: c97a 4dbb 25b8 2c3d 06a3 b83c 2b64 44bb
-0.057718415 0.02980393 -0.009590989 0.09046774 -0.051105622 0.0044405805 0.021391403 0.062864
0.024253171 0.013121308 0.006657052 0.021219224 0.015334451 -0.038960967 0.039354302 0.006288922
0.010773247 -0.052186824 -0.013659212 0.041872676 -0.036784317 -0.016562428 0.04207946 -0.026308576
0.00568059 -0.043724693 0.039947536 -4.5208904e-05 0.003992202 -0.041955136 -0.042517263 -0.0003640715
0.03262256 0.027836362 0.015884113 0.005216618 0.006421021 0.04102951 -0.021369467 -0.0020828852
-0.023590017 0.07414161 0.0551558 -0.02344847 0.046559736 -0.08347695 -0.011743318 -0.019746177
-0.0041810996 0.052852187 -0.006673798 -0.018291878 -0.03420061 0.05003914 -0.007774391 0.05344915
-0.05069372 -0.038078163 -0.0032034 0.022035576 -0.0031353703 0.0421678 0.022538673 -0.0029966931

weight f4 [64, 32, 2, 2]
00000000: 0498 e2bc ec86 93bd 4e24 77bd 663e 09bd
00000010: 5c43 003c 3213 213d 3514 2ebd 331d babd
00000020: 41ed 87bd 2d87 d2bd 82d3 11bd 78d2 34bd
00000030: 03dc 163d 7899 76bb 15f9 013e dce5 9b3c
00000040: 5365 4d3d 69be c1bc 38a0 313d dec3 68bd
00000050: 6775 5ebd 3522 fb3c 7655 233e 8c78 073e
00000060: 1d4d 84bc f7b4 9e3c 311a d2bc e1a9 82bc
00000070: 9b74 a03d 1a7b 28bc 32d5 cf3c 14c7 bb3d
00000080: fc08 c33d cf3a b43d 03ac dc3c 1ac5 95bd
00000090: aa3c f8bd 011c 0ebd 41d9 f53b d3f7 83bc
000000a0: 6028 193d 4f56 0abc 11ec 603d 8305 7bbc
000000b0: 6244 3dbd fe26 37bc 9cf0 3ebd 7cf2 0abd
000000c0: ac53 65bd 01ee ddbc 8285 063c ef69 8e3d
000000d0: 002a c8bd a330 9bbd 3bc5 423d 4435 9dbc
000000e0: 057f bbbd d83b a7bd 6065 2cbd 2b71 a0bc
000000f0: 8346 0f3d f0df a4bd 33f2 94bd aa44 e3bc
00000100: d9d9 81bd 4112 6e3b 9fa2 35bd 6c6f d6bd
00000110: 9e93 493d 957f d43b aba4 223c c2df 08bd
00000120: 75d7 8dbc 980d 943d 8cfb 2d3d c43c 57bd
00000130: 56a5 e53d fc37 b0bc 5678 38bd 7221 883c
00000140: e18e 9c3d 63d0 bf3c d6c9 03bd b1b2 cc3d
00000150: 2557 233c 51c9 5dbd 1635 273d 6cd6 bebd
00000160: baa4 143d 68c5 673d b6df 843d 4993 263d
00000170: 34e3 8bbd b7fb a7bd 4136 bdbb 9ee7 39bd
00000180: aab4 81bd 95f3 6b3d 00bb 6ebd 3902 cbbc
00000190: 23d0 963d 6e37 6c3a 7769 5b3d 750a a03d
000001a0: 4009 50bc 3b38 4ebd 0876 ab3b 8055 9f3c
000001b0: aab6 e23c b0cb 08bd ae78 f7bd c876 06bd
000001c0: 5ea9 c0bd 368f 933d 7216 633d 974f 5ebd
000001d0: def7 823d a94d 973d 0513 ac3c 5061 d83d
000001e0: 14ee 32bd 0042 92bd 3e72 813b c97a 19bd
000001f0: c84f 15bd 3092 d73c 7dc1 9ebd b144 fdbb
00000200: eaba 15bd 6325 b9bd 538e 99bd a0cd 173d
00000210: 7786 5dbd 1789 04bd 17c7 bbbc ef35 8c3d
00000220: 9250 06bd 15bd 18bd 8cad 4fbd c0ec 113d
00000230: 484c 32bc 16b5 99bd 7423 25bc 02cf 13bd
00000240: e241 d53c 1a5b 863b 76fe 4e3d 0419 85bd
00000250: 5431 6a3d a843 9cbd 6726 87bc 9b9b 48bd
00000260: 5a46 b5bc acb3 203c 479b a3bd 85d2 78bd
00000270: 67cb a63a 79b9 f1bb 273f 5e3d 80f9 68bd
00000280: e578 f73c f1d1 e13b 7386 f0bb 9db3 e23c
00000290: c507 abbd 6cc6 d6bd 1e31 b0bd 6b55 22bd
000002a0: 721b 703d 89f0 49bd f205 b9bd 8595 80bc
000002b0: 2a89 99bd d8db 943d 5ffc b4bd 62c2 273d
000002c0: 436e b1bb 3609 f33d 1fe3 883d 0181 473d
000002d0: 3859 8ebc cee6 b9bd 24f8 4bbb 632a 2c3d
000002e0: 0a98 95bd 6053 3fbd 3a82 84bc 597b 99bd
000002f0: f401 2b3d 2005 e1bc 37f6 d1bd f4f3 0ebc
00000300: 3e69 a7bd 8552 b1bd 7c28 0e3c 0d4d 44bd
00000310: 56c3 2e3c c7ac 61bd 1c98 493d 9bb5 02bd
00000320: c5df 81bb b25d d63d 2800 09bd 0997 af3d
00000330: 93f7 79bd 2630 02bd 287a 2a3b 4b34 b73c
00000340: a4b0 233c f304 8e3d 8ef2 38bd 851b a33d
00000350: ea89 983d 3e40 8ebd b492 25bd 45ef cc3c
00000360: eaf0 13bd 0a3a 123d 509a a53d 62b8 0cbd
00000370: abdf 82bd 1ce4 d53b 972d 7f3c 82d3 70bd
00000380: bd2f 203d e23c 153d f16a 3dbd 2249 1dbd
00000390: 4552 303b b201 c13d fd20 67bd bd45 adbc
000003a0: e343 e53c a82b 1b3d f1de 81bd 1057 1abc
000003b0: e058 b3bc ad6d e9bc 95ab 903d acec 0dbd
000003c0: 3223 99bd 90a1 aaba 2525 83bd 7a92 5dbd
000003d0: 3f80 323d c532 4fbd 3894 6bbd e2f2 3c3d
000003e0: 7797 8c3d 1741 b8bd 0ddc b5bd 47d9 373d
000003f0: 53cb 69bd a8c8 85bd db2e 7abc 16a6 57bd
-0.027660377 -0.07203469 -0.060337357 -0.033506773 0.00782856 0.039324947 -0.04249974 -0.090876006
-0.066370495 -0.10279689 -0.0356021 -0.04414603 0.036830913 -0.0037628096 0.12692674 0.019030504
0.05014546 -0.023650365 0.043365687 -0.05682742 -0.054311182 0.03065596 0.1595057 0.13229579
-0.016150052 0.0193734 -0.025647255 -0.015950145 0.07834741 -0.010283256 0.025370214 0.091688305
0.09523198 0.08800279 0.02693749 -0.07312985 -0.12120946 -0.034694675 0.0075027053 -0.016109383
0.03739202 -0.008443429 0.05491263 -0.015321138 -0.046207793 -0.01117873 -0.04661618 -0.033922657
-0.055988 -0.027091028 0.008210542 0.06953799 -0.09773636 -0.07577636 0.047551375 -0.019190438
-0.091550864 -0.08165711 -0.042088866 -0.019585213 0.034979355 -0.08050525 -0.07272758 -0.027742703
-0.06340379 0.0036326798 -0.04434454 -0.10470471 0.049213044 0.0064849355 0.009926955 -0.033416517
-0.017314652 0.07229155 0.042476222 -0.052548185 0.11213176 -0.02151107 -0.045036636 0.01661751
0.076444395 0.023414796 -0.032174908 0.0999502 0.009969507 -0.05414707 0.04082211 -0.093182415
0.036289908 0.056584746 0.06487982 0.040667806 -0.06830445 -0.08202308 -0.00577429 -0.045386903
-0.06333287 0.057605345 -0.058283806 -0.024781333 0.07363918 0.0009010945 0.053567376 0.078144945
-0.012697518 -0.050346594 0.0052325763 0.01944995 0.027674992 -0.033397377 -0.12083565 -0.032828122
-0.09407304 0.0720505 0.055441327 -0.05427512 0.06394933 0.073878594 0.021005163 0.10565436
-0.04368408 -0.07141495 0.0039503863 -0.037470613 -0.03645304 0.026314825 -0.07751749 -0.007729136
-0.03655521 -0.09040334 -0.07497849 0.037061334 -0.054083314 -0.0323573 -0.022922082 0.068462245
-0.03279168 -0.037289698 -0.050702617 0.035626173 -0.010882445 -0.075052425 -0.010079253 -0.03608609
0.026032392 0.0041002156 0.05053564 -0.06498912 0.05717595 -0.07630092 -0.016497804 -0.048976522
-0.022128273 0.009808462 -0.07988601 -0.060747642 0.0012725414 -0.0073768464 0.054259446 -0.056878567
0.030209014 0.006891482 -0.0073402463 0.027673537 -0.08351091 -0.10487065 -0.08603118 -0.039632242
0.058619924 -0.049301658 -0.09034337 -0.015696296 -0.07496865 0.07268494 -0.088371985 0.040956862
-0.0054147555 0.11866991 0.06683945 0.048707012 -0.017376527 -0.090772256 -0.0031123245 0.04203261
-0.0730439 -0.046710372 -0.016175378 -0.0749423 0.04174991 -0.027468264 -0.1025204 -0.008725155
-0.0817437 -0.086583175 0.008676644 -0.047925044 0.010666689 -0.055096414 0.04921733 -0.031911474
-0.003963443 0.1046709 -0.033447415 0.085737295 -0.06102712 -0.0317842 0.0026012752 0.022363802
0.009990845 0.06934538 -0.045153193 0.07964233 0.0744818 -0.06945847 -0.04042311 0.025016436
-0.036118425 0.03569988 0.080860734 -0.03435553 -0.063903175 0.006527437 0.015574834 -0.05879546
0.039108027 0.036435015 -0.046244565 -0.038399823 0.0026904505 0.094241515 -0.056427944 -0.021151418
0.027986472 0.03788343 -0.06341351 -0.009420171 -0.021892965 -0.02849468 0.07063977 -0.034649536
-0.07477416 -0.001301812 -0.06403569 -0.05409477 0.043579336 -0.050585527 -0.0575144 0.04613007
0.06864827 -0.0899679 -0.08879862 0.044884946 -0.05707867 -0.06532413 -0.01526996 -0.052648626

bias f4 [32]
00000000: b1b8 303d 3819 073c aec3 ba3d 540e aabd
00000010: 231d 9cbc ea27 32bc 2412 943d 3a7b 38bd
00000020: 8c3c a4bd 52a0 983d ce96 8e3d 6270 af3d
00000030: 398e 3dbd 30b2 c7bb afae 323d 1c25 483d
00000040: fb4b a23d 6f26 7dbd d00e 16bc bd08 7bbc
00000050: 23a0 9cbd f910 c63c 06ac 2fbb 3f3d 8a3d
00000060: 5234 f93c 1da2 9abd 3138 a73d 457a 5cbd
00000070: cbf9 713d 595f 9bbc 41bc 2a3d bd14 4e3d
0.043144885 0.008245759 0.09119354 -0.08303514 -0.019056862 -0.010873774 0.072300225 -0.045039393
-0.08019361 0.07452454 0.069623575 0.08566357 -0.046278212 -0.0060942397 0.043623623 0.048863515
0.079246484 -0.06180423 -0.009158805 -0.015321908 -0.07647731 0.024178015 -0.0026805415 0.06749963
0.030420456 -0.07550452 0.081650145 -0.053827543 0.05907611 -0.018966364 0.04168344 0.050312746
