output/train_16_12_23_part-6/unet_tgs_salt.pth (torch, 248279 bytes, 26 tensors)

weight f4 [16, 3, 2, 2]
-0.002722368 0.021755649 -0.25018406 -0.3290061 0.00931998 -0.12173121 -0.27714112 -0.5076409
0.023391176 0.25823084 0.33536106 0.3318967 -0.47377035 -0.045588963 -0.17851233 0.062238332
-0.22815612 0.14914462 -0.4218327 0.24645552 -0.4266758 -0.21565318 0.13154045 -0.04592032
0.18447305 0.4253438 0.3095399 0.06347518 0.2662416 0.1467488 0.13272177 0.19486535
-0.032889854 -0.38600186 -0.17296341 -0.40511498 0.123171024 -0.55247223 0.1202612 -0.0787911
0.04484647 -0.3434591 0.17966828 -0.27985623 -0.07474117 -0.1422229 -0.17930597 -0.18540896
-0.5776647 -1.0131023 -0.7225336 -0.73952097 0.37119126 0.6320637 0.49285412 0.34483844
-0.017825166 -0.63604707 -0.15088665 -0.62098086 -0.39079264 -0.09039929 -0.2232772 0.2754458
0.06380295 0.10802093 -0.19680163 0.32977435 -0.07625207 -0.3886092 -0.19381373 0.30559635
0.5202536 0.59801155 0.24504858 0.33270746 -0.6212437 -0.21847948 -0.65846044 -0.66002154
-0.25886956 0.500992 0.19421898 -0.03167226 0.028287258 -0.13947815 0.12986788 0.020850038
-0.6423973 -0.31221008 -0.5139202 -0.26172182 0.45372772 0.33704406 0.4544623 0.49272576
0.03418062 0.22185959 -0.011237043 -0.1820562 -0.28817362 -0.081623234 -0.16259135 -0.22104712
-0.07404739 0.0010601798 -0.017212428 0.13616073 0.19839111 -0.6833491 -0.17819333 -0.37063712
0.40835917 -0.4962456 -0.049586765 -0.26374465 0.16369756 0.005486819 0.5678521 0.08451776
0.01797193 -0.14304686 0.11529812 -0.30917335 -0.30807927 -0.19519156 0.058581516 0.002892882
-0.24110864 -0.3736931 0.04112681 0.06248791 -0.18865657 -0.28588492 0.10938214 0.11213458
0.21731044 0.3987117 0.2840822 -0.046260215 -0.48459446 -0.95271903 -0.59831506 -0.66410565
0.061171867 0.2532249 -0.072008654 0.3127139 -0.045000616 -0.28386313 -0.16953483 0.08196164
-0.26208684 0.045462564 -0.14114717 0.08424907 0.123167455 0.22667089 0.07056542 -0.25550175
0.13855894 -0.28304338 0.12660475 -0.27763516 -0.03857699 -0.005002008 -0.20520131 -0.2666917
-0.090642646 0.15722968 0.22449549 -0.2052604 0.2838015 0.5185654 0.18499885 0.27991304
-0.50542986 -0.39699015 -0.20914818 -0.53498316 -0.33103406 0.1016516 -0.2036037 -0.29562375
0.18668854 0.13411182 0.0766258 0.17532295 0.25914872 0.31124666 0.41988748 0.31036893
00000000: c269 32bb e738 b23c 2018 80be 7d73 a8be
00000010: d4b2 183c 364e f9bd 71e5 8dbe c1f4 01bf
00000020: da9e bf3c d536 843e 72b4 ab3e 5dee a93e
00000030: 0792 f2be 7ebb 3abd f0cb 36be 9fed 7e3d
00000040: c2a1 69be 5eb9 183e 75fa d7be d65e 7c3e
00000050: 4075 dabe 30d4 5cbe 8ab2 063e f216 3cbd
00000060: 81e6 3c3e aac6 d93e 047c 9e3e 46ff 813d
00000070: d250 883e 5145 163e 37e8 073e c88a 473e
00000080: 83b7 06bd 09a2 c5be 521d 31be 3b6b cfbe
00000090: 1741 fc3d d26e 0dbf 814b f63d 3a5d a1bd
000000a0: efb0 373d dfd9 afbe f6fa 373e 5149 8fbe
000000b0: e611 99bd e1a2 11be fc9b 37be d9db 3dbe
000000c0: d5e1 13bf 56ad 81bf f6f7 38bf 3f51 3dbf
000000d0: c80c be3e edce 213f 6057 fc3e aa8e b03e
000000e0: 1506 92bc fbd3 22bf 0882 1abe 9af8 1ebf
000000f0: f915 c8be 4323 b9bd c7a2 64be 3b07 8d3e
00000100: 1fab 823d 143a dd3d 5e86 49be 2fd8 a83e
00000110: 0c2a 9cbd c9f7 c6be 1b77 46be 2077 9c3e
00000120: 572f 053f 4917 193f 04ee 7a3e a258 aa3e
00000130: d409 1fbf 16b9 5fbe dd90 28bf 2cf7 28bf
00000140: 8d8a 84be 0341 003f 57e1 463e c6ba 01bd
00000150: aeba e73c 5cd3 0ebe 16fc 043e b3cd aa3c
00000160: 2674 24bf 00da 9fbe 4690 03bf 6700 86be
00000170: 004f e83e 0a91 ac3e 48af e83e 8d46 fc3e
00000180: fa00 0c3d 292f 633e 931b 38bc f16c 3abe
00000190: 7e8b 93be 152a a7bd 597e 26be 2d5a 62be
000001a0: 28a6 97bd bbf5 8a3a 1401 8dbc b86d 0b3e
000001b0: 0a27 4b3e f7ef 2ebf 5078 36be 26c4 bdbe
000001c0: 7414 d13e e713 febe 7e1b 4bbd 8a09 87be
000001d0: 55a0 273e c6ca b33b c15e 113f a617 ad3d
000001e0: de39 933c e07a 12be 6c21 ec3d f84b 9ebe
000001f0: 91bc 9dbe 4ce0 47be 2cf3 6f3d 8296 3d3b
00000200: 2fe5 76be b454 bfbe 9674 283d 53f3 7f3d
00000210: 302f 41be 825f 92be be03 e03d d1a6 e53d
00000220: a186 5e3e f123 cc3e 3973 913e 5a7b 3dbd
00000230: c41c f8be 65e5 73bf 2d2b 19bf d402 2abf
00000240: 5a8f 7a3d b2a6 813e 4679 93bd 091c a03e
00000250: 9152 38bd 8256 91be 8a9a 2dbe 81db a73d
00000260: 3f30 86be f436 3a3d e288 10be c78a ac3d
00000270: 383f fc3d 6a1c 683e 9a84 903d 20d1 82be
00000280: 65e2 0d3e 10eb 90be ada4 013e 3226 8ebe
00000290: e802 1ebd e2e7 a3bb 4b20 52be d18b 88be
000002a0: daa2 b9bd d100 213e 25e2 653e c82f 52be
000002b0: 6e4e 913e b4c0 043f 5770 3d3e c350 8f3e
000002c0: da63 01bf 4b42 cbbe f12a 56be a8f4 08bf
000002d0: 4c7d a9be b72e d03d 7d7d 50be ff5b 97be
000002e0: 482b 3f3e 9c54 093e fded 9c3d dc87 333e
000002f0: 24af 843e b95b 9f3e 7efb d63e ade8 9e3e

bias f4 [16]
0.07281386 -0.021625383 -0.2903972 -0.0050256564 0.14948703 -0.05229774 0.038761888 0.011017966
-0.09479713 0.3366918 0.25302738 0.07795555 0.020551678 -0.10824774 0.1355686 -0.45312485
00000000: 6f1f 953d b727 b1bc f1ae 94be 43ae a4bb
00000010: 2113 193e 2836 56bd c9c4 1e3d b384 343c
00000020: ff24 c2bd de62 ac3e ce8c 813e 29a7 9f3d
00000030: fe5b a83c feb0 ddbd 7fd2 0a3e fbff e7be

weight f4 [16, 16, 2, 2]
0.10461505 -0.024260456 -0.008449473 0.085127234 0.13365409 0.14233898 -0.086271666 0.09902418
-0.026133284 -0.10031078 0.062077936 -0.115811996 0.028443905 0.08534389 0.06414681 0.046875987
0.27101338 0.15976274 0.0040440825 -0.017345816 -0.034409437 -0.06879779 0.110392176 0.0743583
-0.1433718 0.13085702 0.15196216 0.19307783 0.2256546 -0.02238891 0.2508127 0.121412486
0.08356638 0.051426884 0.065334395 -0.050212037 -0.08329267 0.06203472 -0.25883043 0.08676231
-0.11086857 -0.017806727 -0.13904 0.033209324 0.17022733 0.2481502 0.1580879 0.009171037
-0.063658684 0.10505861 0.11156974 0.13528994 0.046611026 -0.1166209 0.003631103 0.06669658
0.2168144 -0.1690098 0.107906386 -0.09580977 0.1104221 0.056820195 0.19137894 0.09507324
-0.09108524 -0.060892805 0.0046322313 -0.009715337 -0.09468772 0.11587886 0.036995918 -0.036190595
-0.08548084 -0.00367522 -0.039566666 -0.34659943 -0.058549333 -0.15719579 -0.07528411 -0.025767898
-0.61912173 -0.6178206 -0.40869692 -0.49676278 -0.06284724 -0.02872076 0.05298358 -0.027732095
-0.6730497 -0.5745281 -0.88554966 -0.6522866 0.03191998 0.06334012 0.006239582 -0.025523689
-0.083297774 -0.07301845 -0.104519114 -0.13967605 -0.2817393 -0.1676067 -0.097264856 0.001195125
-0.013918157 0.043197542 0.08647765 0.08229817 -0.014070214 0.00516175 -0.15997046 -0.16243939
-0.055783134 -0.0033648852 0.039957438 -0.044590298 -0.13865392 0.074563086 -0.045866273 -0.12294732
-0.1871279 -0.23940189 -0.26078525 -0.3039412 -0.04745812 -0.080756396 -0.025496854 0.022227496
-0.20985736 -0.10582597 -0.21976294 -0.1636984 0.034344323 0.04338222 0.09650431 -0.036343694
-0.27849633 0.03708991 -0.22060029 -0.09436135 -0.05878347 0.14716145 0.13122848 0.07636785
-0.3333498 -0.48263416 -0.24700049 -0.33135918 0.06843358 -0.05894123 -0.01449503 -0.048293762
-0.17423366 -0.14220537 0.014838555 -0.02837886 -0.19417138 -0.17672265 -0.0982575 -0.29044345
0.111343734 -0.044043537 -0.056199092 0.05025077 0.103814684 0.12783152 -0.031154409 0.016073314
0.09548146 0.12200312 0.027217863 -0.08572228 -0.11993011 -0.22131473 -0.251752 -0.15814649
0.061473794 -0.007899244 0.0046749264 -0.04349714 -0.097743206 0.11496567 -0.019509971 0.0062078247
0.30946627 0.30041003 0.25207695 0.25257486 0.074340835 0.093150966 0.19263187 0.029098978
-0.06536218 -0.18519486 -0.19271111 -0.1487186 0.02253808 -0.07218018 0.06903175 -0.017294252
0.36489794 0.29695746 0.2912435 0.14518714 -0.027622694 0.022035291 0.009185027 0.104739845
0.13659005 0.2636135 -0.21085891 0.08001928 0.029279808 -0.013213702 0.10131473 -0.035655573
0.48144847 0.25138116 0.555344 0.41310388 -0.15414597 -0.18155308 -0.028277855 -0.21815723
-0.019230152 -0.1405108 0.08582421 0.05533763 -0.26987258 -0.08811416 -0.17922808 -0.24968022
-0.16802819 0.096550465 -0.13268256 -0.020160843 0.13603379 0.105432235 0.193376 0.1876626
0.0661068 -0.0016873453 -0.007089931 0.12284757 0.06184092 -0.10715082 -0.120404445 -0.034739252
0.018810552 -0.17328782 -0.17776239 -0.26008138 -0.04239743 -0.035104576 0.19213071 0.062240146
00000000: 6a40 d63d ddbd c6bc a96f 0abc 3057 ae3d
00000010: 9edc 083e 4fc1 113e 33af b0bd 30cd ca3d
00000020: 7815 d6bc bd6f cdbd 6f45 7e3d d72e edbd
00000030: 3103 e93c c7c8 ae3d 675f 833d 0901 403d
00000040: 44c2 8a3e d898 233e 3984 843b d018 8ebc
00000050: e9f0 0cbd dbe5 8cbd 4b15 e23d 2a49 983d
00000060: 0fd0 12be 62ff 053e f89b 1b3e 32b6 453e
00000070: 0012 673e f368 b7bc 866a 803e 1ca7 f83d
00000080: da24 ab3d ffa4 523d 0ace 853d 23ab 4dbd
00000090: 5995 aabd 1e18 7e3d 6c85 84be 70b0 b13d
000000a0: 100f e3bd 6adf 91bc 8060 0ebe 8006 083d
000000b0: 1350 2e3e 161b 7e3e cbe1 213e 1e42 163c
000000c0: 7c5f 82bd f828 d73d ad7e e43d 7289 0a3e
000000d0: 34eb 3e3d f0d6 eebd cdf7 6d3b 3798 883d
000000e0: 9804 5e3e e810 2dbe 06fe dc3d ea37 c4bd
000000f0: fb24 e23d 4bbc 683d d7f8 433e c2b5 c23d
00000100: e68a babd bc6a 79bd f9c9 973b 142d 1fbc
00000110: a3eb c1bd e551 ed3d 0889 173d 973c 14bd
00000120: 9410 afbd f6db 70bb a810 22bd 7b75 b1be
00000130: 6dd1 6fbd eff7 20be 8e2e 9abd 3317 d3bc
00000140: c37e 1ebf 7e29 1ebf b940 d1be b157 febe
00000150: 0eb6 80bd cd47 ebbc 4f05 593d 6b2e e3bc
00000160: fc4c 2cbf 4614 13bf 62b3 62bf 41fc 26bf
00000170: 86be 023d 77b8 813d 6875 cc3b 0e17 d1bc
00000180: 0698 aabd b28a 95bd 1e0e d6bd 3d07 0fbe
00000190: 2240 90be 17a1 2bbe cc32 c7bd bea5 9c3a
000001a0: fb08 64bc e8ef 303d 321b b13d f18b a83d
000001b0: c186 66bc e623 a93b 4ccf 23be 8356 26be
000001c0: db7c 64bd 6885 5cbb 69aa 233d 51a4 36bd
000001d0: 4bfb 0dbe 88b4 983d 46de 3bbd cecb fbbd
000001e0: 759e 3fbe c525 75be a585 85be 2e9e 9bbe
000001f0: 7263 42bd 9c63 a5bd c7de d0bc 7016 b63c
00000200: d9e4 56be 49bb d8bd 8909 61be 8ea0 27be
00000210: a2ac 0c3d 8eb1 313d 0da4 c53d 20dd 14bd
00000220: 1297 8ebe 97eb 173d 0be5 61be 8640 c1bd
00000230: f0c6 70bd 7eb1 163e c260 063e bf66 9c3d
00000240: d3ac aabe d31b f7be b2ed 7cbe e9a7 a9be
00000250: e826 8c3d 5c6c 71bd 907c 6dbc aecf 45bd
00000260: 4f6a 32be 499e 11be 691d 733c c87a e8bc
00000270: ddd4 46be c8f6 34be 3a3b c9bd 01b5 94be
00000280: 2f08 e43d ff66 34bd 0531 66bd c0d3 4d3d
00000290: cb9c d43d 44e6 023e 8837 ffbc 2fac 833c
000002a0: c98b c33d c6dc f93d fff7 de3c 2a8f afbd
000002b0: eb9d f5bd 54a0 62be a3e5 80be 27f1 21be
000002c0: f2cb 7b3d d56b 01bc 2030 993b 0f2a 32bd
000002d0: 972d c8bd 1f73 eb3d 60d3 9fbc 026b cb3b
000002e0: 5d72 9e3e 58cf 993e 3b10 813e 7e51 813e
000002f0: 0240 983d efc5 be3d 4a41 453e fb60 ee3c
00000300: 9bdc 85bd b9a3 3dbe 1056 45be b049 18be
00000310: c8a1 b83c 34d3 93bd 8560 8d3d adac 8dbc
00000320: e7d3 ba3e cf0a 983e de1d 953e f0ab 143e
00000330: fd48 e2bc 5b83 b43c cc7c 163c d881 d63d
00000340: 43de 0b3e 59f8 863e 66eb 57be 26e1 a33d
00000350: 35dc ef3c 487e 58bc 197e cf3d 940b 12bd
00000360: 6a80 f63e 08b5 803e 062b 0e3f 5a82 d33e
00000370: 71d8 1dbe 0de9 39be f6a6 e7bc 9c64 5fbe
00000380: 8d88 9dbc 10e2 0fbe 9ac4 af3d b6a9 623d
00000390: bd2c 8abe 3275 b4bd 9187 37be 2cac 7fbe
000003a0: 950f 2cbe 40bc c53d f0dd 07be 5a28 a5bc
000003b0: 714c 0b3e dbec d73d 5c04 463e a02a 403e
000003c0: 0163 873d ea29 ddba a752 e8bb 8297 fb3d
000003d0: e84c 7d3d e471 dbbd 9b96 f6bd bf4a 0ebd
000003e0: 9618 9a3c 5d72 31be 5807 36be 6329 85be
000003f0: eda8 2dbd d1c9 0fbd eabd 443e 86ef 7e3d

bias f4 [16]
-0.016512364 0.22559278 -0.064140044 0.0715532 0.1856889 -0.18149707 -0.051558014 -0.10108185
0.1498043 -0.30741373 0.2652205 0.16592336 -0.3081446 -0.23393138 -0.124734364 -0.046733316
00000000: f044 87bc cb01 673e db5b 83bd 7c8a 923d
00000010: 3b25 3e3e 5eda 39be 7f2e 53bd 0004 cfbd
00000020: 4c66 193e 5565 9dbe fbca 873e d0e7 293e
00000030: 21c5 9dbe b58b 6fbe bb74 ffbd 6f6b 3fbd

weight f4 [32, 16, 2, 2]
0.008649492 0.07395536 -0.0698999 0.07484034 0.009452574 0.052965023 -0.031247456 0.10240613
0.012331192 0.09075008 -0.08030307 0.047490165 0.03609941 -0.1648342 -0.02795168 0.021934478
0.029237714 0.08092273 -0.038833756 0.093386754 -0.047895122 -0.049401443 0.052416757 0.019039882
-0.041560736 -0.09162411 -0.029761124 -0.07505106 0.13383716 0.07724952 -0.09035619 0.09628652
0.21495907 0.1468321 0.06527865 0.12706101 0.074673705 0.10817509 0.12550168 0.08757002
-0.0979071 -0.118404835 -0.057143647 -0.018919032 -0.097651705 -0.092674784 0.08177851 0.06072341
-0.04408142 0.1103771 0.04140997 0.053743742 0.0946504 0.15593427 -0.011588006 0.06419032
0.10489927 0.115662396 0.06523677 0.0017402881 -0.14441127 -0.12908405 -0.08243673 -0.025472244
0.045195274 -0.06381659 0.06877137 0.016147295 -0.104188345 -0.035715397 -0.052251473 0.0022353407
0.13337457 0.12646422 0.03564214 0.023383904 -0.16483475 -0.14118682 0.0019363202 -0.058525242
-0.15321118 -0.13126484 0.09055501 -0.0050782445 0.13674358 0.052504968 0.11075062 0.011480217
-0.030668205 -0.101031855 0.08776511 -0.046234995 0.1407508 0.062402755 -0.031858597 0.04775478
-0.19437626 -0.09648639 -0.24614598 -0.044182383 0.05986225 0.10213426 0.01288835 -0.04025471
-0.045769166 -0.051989343 -0.014966807 -0.11501331 -0.16696663 -0.14465131 0.03025287 0.047607765
-0.039886918 0.0011702736 -0.04832783 0.03202446 0.14429943 -0.052967887 0.007923455 0.02801434
-0.012085904 0.07863464 0.10105714 0.10148836 -0.07750647 0.084161036 -0.016702428 -0.014131966
-0.010884276 -0.19902332 -0.23403187 -0.12064617 -0.13623397 -0.013057743 -0.10857023 -0.0067292876
0.15119296 0.10944974 0.098463595 -0.060383875 -0.35006633 -0.22842385 -0.33281708 -0.18389398
-0.0024755902 -0.059007626 -0.043550033 -0.08792898 -0.06557755 -0.009837234 -0.063184164 0.125887
-0.09393738 0.0045499923 -0.008309661 -0.12910965 0.20697784 0.15555082 0.22275285 0.20982642
-0.24257298 -0.1738892 -0.18920928 -0.13351692 0.3698274 0.3053736 0.1737934 0.15443388
-0.17598692 -0.18232355 -0.07705848 -0.17436631 -0.09498569 -0.009328716 -0.06083787 -0.20097595
0.17610048 0.17095868 0.13468683 0.20403865 0.3496345 0.33255532 0.37896198 0.285903
-0.026468044 0.07435063 0.04433491 -0.0123877805 -0.3393892 -0.36380437 -0.28532934 -0.26762608
-0.13842487 -0.074514925 0.08723182 -0.08599101 -0.08955594 -0.13003239 -0.06739513 -0.010300755
0.0018324356 -0.01270879 -0.08413367 -0.10812941 -0.06851789 0.08467645 -0.05611234 -0.011993652
0.03454557 -0.11301995 -0.1413849 0.10263104 0.11532524 0.02460537 0.032268833 0.050268516
0.097424574 0.09630904 0.0466404 0.08451804 0.21819845 0.1224864 0.14603406 -0.003015257
0.09566619 -0.07577225 -0.07199286 -0.046181753 -0.0064535094 0.07167404 0.053426687 0.089461975
0.09294065 0.024272766 0.105935454 0.001958185 -0.05027263 -0.13648906 0.10703005 0.051162712
-0.044884805 0.00833688 0.1299073 0.009374061 -0.06625279 -0.025609726 -0.07331883 -0.09124102
-0.094746046 0.007423483 0.0043186853 0.10079273 -0.10611539 0.00065818446 -0.13096069 0.02305502
00000000: 99b6 0d3c e875 973d ae27 8fbd e445 993d
00000010: f8de 1a3c daf1 583d aafa ffbc 4eba d13d
00000020: c508 4a3c 2edb b93d f075 a4bd 0c85 423d
00000030: fadc 133d 4cca 28be ecfa e4bc efaf b33c
00000040: ee83 ef3c d1ba a53d 2510 1fbd 8e41 bf3d
00000050: ad2d 44bd 2b59 4abd f4b2 563d 87f9 9b3c
00000060: 973b 2abd 6ca5 bbbd 9acd f3bc 5fb4 99bd
00000070: 9c0c 093e ff34 9e3d ab0c b9bd de31 c53d
00000080: 3b1e 5c3e 275b 163e d0b0 853d 481c 023e
00000090: 87ee 983d e78a dd3d 8383 003e e957 b33d
000000a0: 8583 c8bd 3c7e f2bd 750f 6abd 16fc 9abc
000000b0: 9efd c7bd 47cc bdbd 7e7b a73d 1cb9 783d
000000c0: b88e 34bd 640d e23d 809d 293d 6622 5c3d
000000d0: 12d8 c13d 3cad 1f3e 9fdb 3dbc 3776 833d
000000e0: 6ed5 d63d 68e0 ec3d db9a 853d 611a e43a
000000f0: 8ce0 13be 9c2e 04be 97d4 a8bd 2bab d0bc
00000100: ae1e 393d 46b2 82bd 01d8 8c3d 5547 843c
00000110: b360 d5bd 4f4a 12bd a405 56bd cb7e 123b
00000120: 5893 083e d67f 013e 7efd 113d 9a8f bf3c
00000130: 71ca 28be 4793 10be 20cc fd3a 2ab8 6fbd
00000140: 64e3 1cbe 4a6a 06be e874 b93d 6767 a6bb
00000150: 8206 0c3e 730f 573d 39d1 e23d 8517 3c3c
00000160: e33b fbbc cae9 cebd 32be b33d e860 3dbd
00000170: fa20 103e 089a 7f3d 297e 02bd 849a 433d
00000180: 920a 47be a89a c5bd b10d 7cbe 96f8 34bd
00000190: 1e32 753d c42b d13d a829 533c 1fe2 24bd
000001a0: 7378 3bbd c7f2 54bd 5737 75bc 198c ebbd
000001b0: 4df9 2abe 791f 14be ded4 f73c 5c00 433d
000001c0: 7760 23bd de63 993a 67f3 45bd 152c 033d
000001d0: 3bc3 133e dbf4 58bd 61d1 013c 547e e53c
000001e0: f503 46bc 330b a13d 0cf7 ce3d 21d9 cf3d
000001f0: b6bb 9ebd 9f5c ac3d 88d3 88bc c389 67bc
00000200: f653 32bc c5cc 4bbe 0da6 6fbe 5715 f7bd
00000210: eb80 0bbe 25f0 55bc 125a debd 5b81 dcbb
00000220: 54d2 1a3e 2f27 e03d 48a7 c93d 1555 77bd
00000230: e53b b3be f1e7 69be 0067 aabe b44e 3cbe
00000240: 833d 22bb fbb1 71bd 8561 32bd 1c14 b4bd
00000250: 864d 86bd 5a2c 21bc b366 81bd 86e8 003e
00000260: 3e62 c0bd 1a18 953b 3f25 08bc 5235 04be
00000270: 00f2 533e b748 1f3e 5319 643e bddc 563e
00000280: 0d65 78be 0310 32be 14c0 41be a9b8 08be
00000290: 045a bd3e ee59 9c3e e6f6 313e ea23 1e3e
000002a0: ea35 34be 06b3 3abe d6d0 9dbd 158d 32be
000002b0: dc87 c2bd 79d7 18bc 2131 79bd a4cc 4dbe
000002c0: af53 343e cb0f 2f3e 58eb 093e 82ef 503e
000002d0: 4b03 b33e b144 aa3e 4e07 c23e e161 923e
000002e0: 83d3 d8bc 2545 983d 8698 353d 1ef6 4abc
000002f0: 6cc4 adbe 9144 babe b016 92be 4906 89be
00000300: 40bf 0dbe 489b 98bd 99a6 b23d 0e1c b0bd
00000310: 1b69 b7bd 3627 05be 7506 8abd 7fc4 28bc
00000320: 562e f03a 8738 50bc 464e acbd f472 ddbd
00000330: 1c53 8cbd d96a ad3d 0ed6 65bd 0681 44bc
00000340: a87f 0d3d 0177 e7bd 34c7 10be 3930 d23d
00000350: a42f ec3d 3391 c93c 532c 043d 5ce6 4d3d
00000360: 8986 c73d ad3d c53d 010a 3f3d cb17 ad3d
00000370: 6a6f 5f3e 26da fa3d f489 153e 9e9b 45bb
00000380: a3ec c33d 7b2e 9bbd fe70 93bd 1429 3dbd
00000390: f677 d3bb d7c9 923d f1d5 5a3d d737 b73d
000003a0: ab57 be3d aed7 c63c b0f4 d83d e554 003b
000003b0: acea 4dbd cac3 0bbe 9232 db3d fe8f 513d
000003c0: 21d9 37bd 6997 083c 6b06 053e a995 193c
000003d0: 8baf 87bd 7dcb d1bc 2f28 96bd 92dc babd
000003e0: 370a c2bd b040 f33b c283 8d3b 6b6c ce3d
000003f0: 0753 d9bd 038a 2c3a 8f1a 06be e2dd bc3c

bias f4 [32]
0.080817744 0.0023700153 -0.43792397 0.0887556 -0.01712367 -0.07433411 0.038701925 0.0962724
-0.01326357 -0.08195567 -0.083641194 -0.04333979 -0.35699865 -0.16379231 0.012437414 0.004244376
-0.22853984 -0.033737693 0.07187806 0.10055749 -0.43937954 -0.07874061 -0.05801113 -0.04428858
0.049168058 0.052008733 -0.44282943 0.063869186 -0.056778528 -0.000593141 0.024233343 -0.23374805
00000000: c683 a53d 4252 1b3b 9237 e0be 7fc5 b53d
00000010: f046 8cbc 7b3c 98bd e985 1e3d 772a c53d
00000020: 724f 59bc 60d8 a7bd 134c abbd 1085 31bd
00000030: 87c8 b6be 2cb9 27be 4cc6 4b3c 6814 8b3b
00000040: 5906 6abe 8930 0abd ce34 933d 16f1 cd3d
00000050: 5bf6 e0be c242 a1bd 149d 6dbd f167 35bd
00000060: 7264 493d 1c07 553d 8aba e2be d9cd 823d
00000070: 9a90 68bd 057d 1bba 0185 c63c a65b 6fbe

weight f4 [32, 32, 2, 2]
0.023701617 -0.049242713 -0.017799387 0.0066417283 0.07466259 -0.027657976 0.0374959 0.01581669
-0.18170212 -0.17994268 -0.07285059 -0.21247075 -0.053635612 0.040785566 -0.057370584 0.035007946
-0.043307744 -0.012217642 -0.06752077 -0.012563516 0.061219092 0.076712005 0.043354392 0.087513156
0.065339714 0.011016654 0.10017059 0.049871147 0.05991037 -0.021147206 0.09827344 -0.027234802
-0.06631335 -0.03042165 0.07716923 -0.043723114 0.06902013 -0.017462993 -0.06805029 -0.062680244
-0.22716102 -0.07495604 -0.11754917 -0.19551133 0.04865202 0.058093168 0.09214534 0.01573246
-0.079799585 -0.031982306 0.002382175 -0.14917874 -0.037906047 0.09010608 0.026960867 0.09690238
0.0106237 -0.048250876 0.0466668 0.0023865052 -0.030523546 0.10364665 -0.0041925334 -0.023585936
-0.18310298 -0.086277835 -0.21551833 -0.1597405 0.04698389 -0.04016346 0.04547026 0.007138076
0.051076468 0.05150355 0.0074308547 -0.033343762 -0.02935991 0.04171117 0.095963985 -0.01366154
-0.04877144 0.057214472 0.034282867 0.014800588 -0.055170547 -0.0001880615 -0.03706669 0.10064413
0.018467708 0.043447156 0.10396935 0.017576281 -0.046401046 0.027697302 0.0014745698 -0.02774036
-0.20518547 -0.1656499 -0.12705944 -0.18846987 0.11757757 0.019766483 0.113028206 -0.038110014
-0.12682265 -0.09964834 -0.030795986 -0.10390435 0.10884718 -0.051538102 0.07151221 0.101393275
0.06979283 0.029700704 0.045587398 0.021638572 -0.016360996 -0.009296036 0.07054778 -0.0096728485
-0.022969868 0.064517066 0.034800667 -0.036297534 -0.13349065 -0.16036087 -0.096401975 -0.0193838
0.12595046 0.040047385 0.052829 0.10457512 -0.011793283 0.1361623 0.0053273984 -0.0052068336
0.09974867 0.037486486 0.10594047 0.1835227 -0.006058118 0.06407046 -0.00806071 0.01540873
0.15263087 0.06561826 0.1290448 0.17616747 0.14586173 0.0032856017 0.058974832 0.030887617
-0.068254486 -0.05782048 -0.060974594 0.06647273 0.10655365 -0.03242997 0.10545484 0.088964
0.11073735 0.13731103 -0.030017903 0.03207979 0.0769449 0.1436905 0.07279451 0.1845079
0.09871809 0.17154376 0.11081865 0.16555034 0.013682743 0.07673379 0.13282613 0.061822724
0.2099061 0.19855198 0.17284891 0.11996304 0.078571394 0.099552415 0.117036484 0.13663635
0.023000013 0.06847162 0.04720761 -0.003169109 0.12731649 0.03432913 0.07620528 0.00433886
0.09580203 0.13181701 0.07696535 0.17863274 -0.007982942 0.06340586 0.05487628 0.0828199
0.020848148 0.0150038805 0.11325337 0.0040200157 -0.018020703 0.12503496 0.05871537 -0.018623497
0.12314973 0.19963314 0.12585108 0.19651163 -0.02578485 0.09789802 0.081995144 0.008658903
-0.02339153 -0.015417271 0.020417865 -0.0026136923 0.13177076 0.052593347 0.15030259 0.09033872
0.26622584 0.25895253 0.1608288 0.21198551 -0.026271768 0.073573224 -0.02408989 0.043987595
0.29341316 0.21884881 0.34125242 0.41291466 -0.018527262 0.038427655 0.13348913 -0.019767974
-0.007009681 -0.037004184 0.040268432 0.05404697 0.1278217 -0.010972005 0.11281734 -0.020646734
0.04014345 0.09218862 0.11284768 -0.035597842 0.030537583 -0.043106172 0.059708286 -0.05407786
00000000: e529 c23c bab2 49bd 05d0 91bc dba2 d93b
00000010: b3e8 983d fb92 e2bc 4d95 193d 0192 813c
00000020: 1f10 3abe e542 38be b132 95bd ef91 59be
00000030: 04b1 5bbd c40e 273d 6bfd 6abd 7e64 0f3d
00000040: 7663 31bd 812c 48bc 5448 8abd 35d7 4dbc
00000050: dfc0 7a3d 2f1b 9d3d 6094 313d 193a b33d
00000060: d4d0 853d 327f 343c 3d26 cd3d b045 4c3d
00000070: 9364 753d e83c adbc 9643 c93d 851b dfbc
00000080: 4bcf 87bd d336 f9bc e70a 9e3d 0217 33bd
00000090: 6d5a 8d3d 8d0e 8fbc f35d 8bbd 805e 80bd
000000a0: e69c 68be 8d82 99bd 9fbd f0bd 1f34 48be
000000b0: 5747 473d 1af3 6d3d b2b6 bc3d 5ce1 803c
000000c0: f76d a3bd e1ff 02bd 441e 1c3b 50c2 18be
000000d0: 5f43 1bbd 8989 b83d 09dd dc3c c174 c63d
000000e0: 070f 2e3c b6a2 45bd b025 3f3d ea66 1c3b
000000f0: 840c fabc b244 d43d 8561 89bb 4b37 c1bc
00000100: 597f 3bbe 6fb2 b0bd d6b0 5cbe 0393 23be
00000110: 2e72 403d 7182 24bd 063f 3a3d 85e6 e93b
00000120: 8f35 513d 63f5 523d 877e f33b 7893 08bd
00000130: 3284 f0bc 55d9 2a3d c488 c43d a7d4 5fbc
00000140: 90c4 47bd b959 6a3d 316c 0c3d 2a7e 723c
00000150: 83fa 61bd 6032 45b9 3ed3 17bd 821e ce3d
00000160: 9749 973c a5f5 313d e2ed d43d 22fc 8f3c
00000170: 060f 3ebd 74e5 e23c 5a46 c13a c03f e3bc
00000180: 241c 52be 21a0 29be df1b 02be 3ffe 40be
00000190: 82cc f03d 52ed a13c 557b e73d 3f19 1cbd
000001a0: ccdd 01be 6e14 ccbd dd47 fcbc cecb d4bd
000001b0: 45eb de3d 9e19 53bd fe74 923d 47a7 cf3d
000001c0: 8bef 8e3d e44e f33c dab9 3a3d 6043 b13c
000001d0: 7f07 86bc 674e 18bc 5b7b 903d de7a 1ebc
000001e0: 4e2b bcbc 8621 843d 258b 0e3d b9ac 14bd
000001f0: c6b1 08be a435 24be 666e c5bd c6ca 9ebc
00000200: 28f9 003e ba08 243d 3963 583d 7b2b d63d
00000210: 9d38 41bc 216e 0b3e 7591 ae3b 169e aabb
00000220: 0849 cc3d 6e8b 193d 51f7 d83d 60ed 3b3e
00000230: 2d83 c6bb 6037 833d 1111 04bc e674 7c3c
00000240: 444b 1c3e de62 863d 5224 043e 3f65 343e
00000250: c75c 153e 4053 573b 988f 713d 0708 fd3c
00000260: 02c9 8bbd 2bd5 6cbd 7fc0 79bd db22 883d
00000270: cd38 da3d 4ad5 04bd b5f8 d73d c232 b63d
00000280: 44ca e23d 439b 0c3e 1be8 f5bc 1966 033d
00000290: 4a95 9d3d 9a23 133e 4a15 953d a4ef 3c3e
000002a0: b62c ca3d 2ba9 2f3e e3f4 e23d 0786 293e
000002b0: 952d 603c 9b26 9d3d 9303 083e d339 7d3d
000002c0: a0f1 563e 3651 4b3e 4eff 303e 2faf f53d
000002d0: 0aea a03d 23e2 cb3d d3b0 ef3d 66ea 0b3e
000002e0: 866a bc3c d93a 8c3d c45c 413d d4b0 4fbb
000002f0: 415f 023e b49c 0c3d 8411 9c3d ff2c 8e3b
00000300: db33 c43d 0afb 063e 02a0 9d3d 80eb 363e
00000310: e3ca 02bc eeda 813d f3c5 603d 7b9d a93d
00000320: bcc9 aa3c d6d2 753c 62f1 e73d 56ba 833b
00000330: 27a0 93bc 2a09 003e 877f 703d 4e90 98bc
00000340: ed35 fc3d a16c 4c3e 1bdf 003e 583a 493e
00000350: c03a d3bc c27e c83d 12ed a73d 12de 0d3c
00000360: 989f bfbc b998 7cbc 5e43 a73c 7b4a 2bbb
00000370: eaee 063e 1f6c 573d ece8 193e 8203 b93d
00000380: c14e 883e 6d95 843e 4eb0 243e bb12 593e
00000390: e437 d7bc 8fad 963d 2958 c5bc 562c 343d
000003a0: 403a 963e e719 603e a3b8 ae3e 8d69 d33e
000003b0: 7cc6 97bc 5166 1d3d 60b1 083e 72f0 a1bc
000003c0: 77b1 e5bb b391 17bd 83f0 243d 5b60 5d3d
000003d0: b1e3 023e edc3 33bc c70c e73d 5723 a9bc
000003e0: 756d 243d 63cd bc3d af1c e73d 0bcf 11bd
000003f0: f429 fa3c 1990 30bd ad90 743d bf80 5dbd

bias f4 [32]
-0.008580945 -0.036588483 -0.069635816 -0.086406656 -0.04780432 0.00688376 0.039870463 0.0048397505
-0.04709233 -0.00014771559 0.06326214 0.041845854 -0.12401431 0.104005754 -0.00030837746 0.025637465
0.0051463535 0.18522172 0.012400807 0.061234336 -0.04455997 0.012161624 -0.034261096 0.027614053
-0.00992026 0.06352549 0.021796532 -0.044254873 0.0686717 0.03369184 0.039491083 -0.032181565
00000000: 1897 0cbc cedd 15bd 399d 8ebd f9f5 b0bd
00000010: 76ce 43bd 2a91 e13b 364f 233d c596 9e3b
00000020: e3e3 40bd 1ae4 1ab9 958f 813d 8f66 2b3d
00000030: 37fb fdbd f800 d53d b9ad a1b9 a905 d23c
00000040: bea2 a83b c3aa 3d3e c12c 4b3c dbd0 7a3d
00000050: 8484 36bd 8c41 473c 5d55 0cbd de36 e23c
00000060: 9688 22bc a719 823d a48e b23c 9944 35bd
00000070: c0a3 8c3d 7400 0a3d 67c1 213d d1d0 03bd

weight f4 [64, 32, 2, 2]
-0.068387784 -0.08637044 -0.1495528 -0.076246254 -0.29659614 -0.30849764 -0.27816784 -0.3304095
-0.0672547 -0.15215766 -0.13894202 -0.027317896 -0.14442587 -0.09096429 -0.115321316 -0.19543158
-0.054152604 -0.12100661 -0.08471549 -0.07785691 0.05713855 0.027329331 0.17183098 0.18104976
-0.21769083 -0.3064837 -0.23247357 -0.3031041 0.012181571 0.004981728 -0.012658054 -0.058361497
0.33510253 0.31481242 0.3041879 0.33690986 -0.017822273 -0.07966467 -0.006158306 -0.07933214
0.02374019 0.047916435 0.098230146 0.011411175 -0.10621961 -0.15704066 -0.070170775 -0.07153728
-0.017461982 0.08494454 0.048257746 0.07503296 -0.29232162 -0.20942871 -0.25943634 -0.29863417
-0.10214685 -0.19046316 -0.08215333 -0.16058443 -0.11553588 -0.16922966 -0.122521974 -0.16933748
0.17491344 0.13284662 0.19313712 0.26876688 -0.15921015 -0.1474976 -0.16631187 -0.021603366
0.05583069 0.183071 0.16884534 0.09353093 -0.0043916544 0.1231336 0.088512905 0.025185546
-0.015221792 -0.08132101 -0.11353826 -0.03868459 0.049319755 -0.026435195 0.0052489582 -0.041204542
-0.13121016 -0.30032918 -0.16859934 -0.1529582 0.06697003 0.08002798 0.092330724 0.062365286
-0.2040207 -0.1778246 -0.1936312 -0.20651482 -0.25706756 -0.23366416 -0.18533616 -0.13026237
-0.15040144 -0.23258373 -0.15146327 -0.07996209 0.042610753 0.15290414 0.13076067 0.20400058
-0.31312808 -0.18037355 -0.23711336 -0.29764697 0.122446865 -0.0046113958 0.007392223 0.019223351
-0.13176781 -0.1749071 -0.10213225 -0.13456067 -0.030188493 -0.11231407 -0.044114824 -0.14711145
-0.025853898 0.020915931 -0.063069224 -0.0658461 0.016403358 -0.021552466 -0.04639223 0.02559184
0.08375431 -0.0007067295 -0.025888547 -0.015121233 -0.056577764 0.054701544 0.09151776 -0.07075545
0.08678416 -0.014309388 0.021567224 0.0898565 0.004495609 -0.07881307 0.075981855 -0.010369282
-0.07486579 -0.019494494 -0.08429625 0.017524369 -0.026595218 0.00672114 -0.014393635 -0.018693363
-0.06023092 -0.09319719 -0.019926867 0.0016598105 -0.066993676 -0.115739785 -0.00711555 -0.028046295
-0.030820107 0.08256709 -0.01935845 -0.019197682 0.08910407 0.10465154 0.089621656 0.15622567
-0.03810147 -0.055481173 0.051945835 -0.05068773 0.088135034 0.028257333 0.11469843 0.07687454
0.084755756 0.07967259 -0.07941502 0.031048918 0.04544567 -0.0011995367 -0.09230874 -0.02047896
0.088629276 0.013008158 0.036563568 0.052877795 0.02130402 -0.042013906 -0.005210096 -0.025305213
-0.078002274 0.060124807 -0.010327977 -0.071501605 -0.030796615 -0.071896814 0.04362111 -0.050781246
0.031814903 0.008485911 0.038597904 -0.048151344 -0.049964547 -0.061919954 0.024682436 0.0785588
0.029964903 0.0006811211 -0.02463443 0.082397416 0.023340652 -0.019048216 -0.036910493 -0.08107197
0.09160419 0.10783608 0.01788796 0.12594335 -0.0683935 -0.041623037 0.042924214 -0.0205539
-0.11382701 0.011509206 0.0006522987 -0.019410606 0.03610055 -0.009071339 -0.059362248 0.06341283
0.05625856 0.034305613 0.0902189 -0.042017795 0.03431439 0.01665046 0.055622455 0.071443334
-0.042586774 0.08004914 0.064083815 -0.073133454 0.05819717 0.0396609 0.08039201 -0.012214201
00000000: e50e 8cbd fce2 b0bd 5f24 19be ff26 9cbd
00000010: 73db 97be 67f3 9dbe 046c 8ebe 6f2b a9be
00000020: d5bc 89bd 38cf 1bbe d146 0ebe c8c9 dfbc
00000030: 60e4 13be 7c4b babd 952d ecbd 371f 48be
00000040: 1fcf 5dbd 50d2 f7bd 517f adbd 7273 9fbd
00000050: 1d0a 6a3d c3e1 df3c 76f4 2f3e 1c65 393e
00000060: 58ea 5ebe 6eeb 9cbe 8d0d 6ebe 7630 9bbe
00000070: 3695 473c c33d a33b ba63 4fbc 770c 6fbd
00000080: 8f92 ab3e 182f a13e 84be 9b3e 737f ac3e
00000090: 0400 92bc 3b27 a3bd 9dcb c9bb e478 a2bd
000000a0: c97a c23c 0644 443d e32c c93d f0f5 3a3c
000000b0: ab89 d9bd 44cf 20be b2b5 8fbd 2382 92bd
000000c0: 6e0c 8fbc 67f7 ad3d eaa9 453d e1aa 993d
000000d0: 2eab 95be 7b74 56be d7d4 84be 94e6 98be
000000e0: 5e32 d1bd c608 43be 0140 a8bd 3f70 24be
000000f0: 139e ecbd 8a4a 2dbe cdec fabd ce66 2dbe
00000100: 821c 333e f208 083e bdc5 453e d09b 893e
00000110: fc07 23be 9c09 17be a94d 2abe 8bf9 b0bc
00000120: b9ae 643d f776 3b3e cbe5 2c3e 258d bf3d
00000130: dee7 8fbb 782d fc3d 4146 b53d eb51 ce3c
00000140: d364 79bc a18b a6bd bf86 e8bd bc73 1ebd
00000150: 8303 4a3d 9f8e d8bc 74ff ab3b 18c6 28bd
00000160: f55b 06be bfc4 99be 4ea5 2cbe 13a1 1cbe
00000170: 9527 893d b6e5 a33d e417 bd3d be72 7f3d
00000180: cdea 50be a717 36be 4247 46be 9f78 53be
00000190: 5c9e 83be a845 6fbe c3c8 3dbe 8063 05be
000001a0: d602 1abe 6e2a 6ebe 3019 1bbe 2ac3 a3bd
000001b0: 9d88 2e3d e792 1c3e 20e6 053e 87e5 503e
000001c0: 5352 a0be d8b3 38be d8cd 72be 2f65 98be
000001d0: 6cc5 fa3d 311b 97bb 763a f23b 4a7a 9d3c
000001e0: 24ee 06be d91a 33be b72a d1bd 46ca 09be
000001f0: dc4d f7bc eb04 e6bd bfb1 34bd 62a4 16be
00000200: 8ecb d3bc e357 ab3c 702a 81bd 52da 86bd
00000210: 5660 863c cc8e b0bc c705 3ebd faa5 d13c
00000220: 6187 ab3d d043 39ba 3814 d4bc 0cbf 77bc
00000230: 16be 67bd ba0e 603d aa6d bb3d 3ce8 90bd
00000240: e5bb b13d ec71 6abc bfad b03c af06 b83d
00000250: e74f 933b bf68 a1bd 609c 9b3d ece3 29bc
00000260: 3c53 99bd ebb2 9fbc 83a3 acbd 448f 8f3c
00000270: 37de d9bc 023d dc3b 48d3 6bbc d322 99bc
00000280: b2b4 76bd 2bde bebd ab3d a3bc 008e d93a
00000290: fb33 89bd fb08 edbd 8f29 e9bb 58c1 e5bc
000002a0: 737a fcbc ef18 a93d 9d95 9ebc 7544 9dbc
000002b0: 327c b63d 8c53 d63d 8f8b b73d 9ff9 1f3e
000002c0: 4910 1cbd 3a40 63bd 28c5 543d f09d 4fbd
000002d0: 2480 b43d ec7b e73c 03e7 ea3d 6670 9d3d
000002e0: 6d94 ad3d 622b a33d 58a4 a2bd 4d5a fe3c
000002f0: 3d25 3a3d c639 9dba 5d0c bdbd 7ec3 a7bc
00000300: 4483 b53d 2b20 553c aec3 153d 6396 583d
00000310: c585 ae3c c616 2cbd 74b9 aabb e14c cfbc
00000320: a8bf 9fbd 6e45 763d ad36 29bc 6f6f 92bd
00000330: 2f49 fcbc a33e 93bd 0dac 323d ffff 4fbd
00000340: 5850 023d 7e08 0b3c d618 1e3d 583a 45bd
00000350: a0a7 4cbd c79f 7dbd d232 ca3c 70e3 a03d
00000360: f578 f53c 438d 323a 25ce c9bc fabf a83d
00000370: e534 bf3c 010b 9cbc 752f 17bd 1009 a6bd
00000380: fa9a bb3d 2ad9 dc3d c589 923c 4bf7 003e
00000390: e411 8cbd eb7c 2abd 4dd1 2f3d a760 a8bc
000003a0: 231e e9bd 1c91 3c3c 06ff 2a3a fe02 9fbc
000003b0: 2cde 133d f49f 14bc d425 73bd 96de 813d
000003c0: 606f 663d 0b84 0c3d b0c4 b83d da1a 2cbd
000003d0: 3f8d 0c3d 8c66 883c 5fd4 633d e250 923d
000003e0: 786f 2ebd cef0 a33d 603e 833d fec6 95bd
000003f0: 2860 6e3d 7873 223d 91a4 a43d 121e 48bc

bias f4 [64]
-0.3839371 0.16390863 -0.18403615 -0.27508137 -0.027240178 -0.33742028 -0.42751843 -0.15131828
-0.1520383 -0.06403763 -0.008158516 -0.1324072 -0.10626043 0.0068328083 -0.22571442 0.017322626
-0.27838835 -0.07582846 0.16916184 -0.028789649 -0.04763656 0.10573376 -0.3280928 0.111728296
-0.12803142 0.22663704 -0.45592776 -0.38319725 0.040486977 -0.11686845 -0.0019098758 0.047419157
-0.53356224 -0.4049915 -0.15160349 -0.107125886 -0.17705356 -0.13242935 -0.07225826 0.050878167
-0.21237388 -0.064102605 0.011917541 -0.047342584 -0.4397199 0.041829053 -0.0942749 -0.10967463
-0.33854115 -0.47288072 0.015628967 -0.085291125 -0.22630835 -0.21356808 0.043935053 -0.36566797
0.13957907 -0.03797449 -0.01507488 0.0762891 -0.22512302 -0.0871754 -0.074590355 -0.073052414
00000000: 6793 c4be aad7 273e f973 3cbe 77d7 8cbe
00000010: cb26 dfbc 5ac2 acbe b2e3 dabe 2ef3 1abe
00000020: eeaf 1bbe 2926 83bd 4cab 05bc c195 07be
00000030: 119f d9bd c0e5 df3b ae21 67be 2ee8 8d3c
00000040: eb88 8ebe f44b 9bbd c338 2d3e 45d8 ebbc
00000050: 8e1e 43bd f18a d83d c8fb a7be ced1 e43d
00000060: ab1a 03be 8a13 683e 5d6f e9be 6e32 c4be
00000070: acd5 253d ba58 efbd cc54 faba 973a 423d
00000080: 8997 08bf 0c5b cfbe f23d 1bbe d164 dbbd
00000090: 874d 35be 8f9b 07be 23fc 93bd a065 503d
000000a0: 8a78 59be 3a48 83bd ca41 433c 4cea 41bd
000000b0: f722 e1be f154 2b3d 3313 c1bd 189d e0bd
000000c0: 4455 adbe 6c1d f2be 5208 803c 1dad aebd
000000d0: 60bd 67be 97b1 5abe 3ef5 333d d538 bbbe
000000e0: d1ed 0e3e 248b 1bbd a1fc 76bc 763d 9c3d
000000f0: a686 66be 0489 b2bd d4c2 98bd 819c 95bd

weight f4 [64, 64, 2, 2]
-0.07391039 -0.063629635 -0.021836376 -0.05336556 0.06955563 0.04108652 -0.013812934 0.052630797
0.07643013 0.099090695 0.08699644 0.08944762 0.13556598 0.11253362 0.14946292 0.116420805
-0.0105484985 -0.02249961 -0.058161583 0.027719837 -0.015136187 -0.11883088 -0.07161598 -0.033397533
0.02851895 -0.06528108 -0.042384956 -0.0098502 -0.1454549 -0.15348652 -0.12971663 -0.14977205
0.014444332 0.09782868 0.07624249 0.041438375 0.06161258 0.10661942 0.05020461 0.03890266
0.044575512 0.01685118 0.09653321 0.08452578 0.07870778 0.019913433 0.09612185 0.0722906
0.03612979 0.073761255 0.050681848 0.10877219 0.024668293 0.005346111 0.079469346 0.019979892
-0.23441185 -0.22207774 -0.25289083 -0.26597223 -0.009776804 0.009170484 0.046009474 0.080290884
0.012701348 0.009982792 0.012909917 -0.036902588 0.04844691 -0.0050271787 0.08800076 0.06007937
-0.027446438 0.039151084 -0.010340892 0.01174031 0.024978906 0.0184176 0.08828367 0.03141406
0.02951172 0.009276678 0.075411014 0.089857236 0.081091754 0.056468237 0.05968227 0.019193223
-0.006637781 -0.051064756 -0.10533207 -0.10556916 0.004431227 0.027714264 0.015497061 -0.03633678
0.07467559 0.030406257 -0.0112203425 0.018758181 -0.15876062 -0.0582728 -0.10165736 -0.13091901
-0.046411086 -0.025646906 -0.11747961 -0.048035946 0.015002346 -0.023327025 -0.06966817 -0.05166765
-0.013372968 -0.012724532 0.07008706 0.004682836 -0.027290026 -0.12649475 -0.13301454 -0.08452746
0.039489847 0.0035498738 0.034186263 -0.012681176 0.025474884 -0.02570495 0.02339287 0.029546043
-0.14119242 -0.106352136 -0.039815184 -0.09309668 -0.08437219 0.007096653 -0.0417124 -0.023932086
-0.018298801 -0.06681187 -0.07113716 -0.09479239 -0.08793221 -0.038263295 -0.12800239 -0.055963565
-0.18315661 -0.17556994 -0.049389634 -0.11040436 0.08027701 0.016237857 0.09865578 0.084118135
0.036897883 0.11249402 0.0870122 0.05942571 0.09545623 0.06497414 0.099094465 0.009789618
0.061514445 0.017818887 0.034050185 -0.04415081 0.08551772 0.11046788 0.030104592 0.0051259887
0.013858747 0.069855586 0.05027123 0.03371769 0.014846696 -0.014619265 -0.01556125 0.09013285
0.045709245 -0.002627875 -0.015018423 0.002254488 0.031293035 -0.015516439 0.045643214 0.08768098
-0.0045679305 0.040252484 0.06533226 0.026611736 0.06350039 0.08732883 0.00089178997 -0.016222151
0.23289606 0.21406807 0.14033222 0.17406806 0.030009463 0.023986071 0.041507687 -0.017006503
-0.07774323 -0.09716131 -0.041644942 -0.08353461 0.07201912 0.04370645 0.089778 0.09421575
0.11610903 0.19106743 0.113843046 0.14799377 0.12594071 0.13450527 0.104525745 0.09603372
-0.015712555 0.02459972 0.017787056 -0.019309334 -0.050944302 0.016923057 -0.094890304 -0.087682664
0.018855127 0.0042035817 -0.023590026 0.044146404 -0.0053684744 -0.005300813 0.06166149 0.011679008
0.007044416 0.013908661 0.023434686 0.02005971 -0.100743674 -0.08543762 -0.121560656 -0.15758315
0.08160089 0.06616495 0.0757704 -0.030231439 -0.09014089 -0.123539664 -0.1164003 -0.14155194
-0.028820219 0.022060482 0.028701719 -0.0485307 0.053436723 0.02487271 0.0411385 0.014666535
00000000: 555e 97bd 4150 82bd 33e2 b2bc d895 5abd
00000010: 2f73 8e3d 574a 283d a54f 62bc 6493 573d
00000020: 6687 9c3d 10f0 ca3d 312b b23d 5030 b73d
00000030: cfd1 0a3e 0778 e63d cf0c 193e 086e ee3d
00000040: 9cd3 2cbc 1a51 b8bc d73a 6ebd b614 e33c
00000050: c5fd 77bc 9b5d f3bd 66ab 92bd dacb 08bd
00000060: 93a0 e93c 16b2 85bd d99b 2dbd bc62 21bc
00000070: 21f2 14be 922b 1dbe 70d4 04be d85d 19be
00000080: eba7 6c3c 675a c83d 0625 9c3d 49bb 293d
00000090: 795d 7c3d 485b da3d 59a3 4d3d 6558 1f3d
000000a0: d094 363d 7c0b 8a3c 34b3 c53d da1b ad3d
000000b0: 8b31 a13d 7f21 a33c 88db c43d 180d 943d
000000c0: d5fc 133d 2410 973d c597 4f3d f4c3 de3d
000000d0: 2915 ca3c 6e2e af3b d3c0 a23d dfac a33c
000000e0: a909 70be 5968 63be e87a 81be 832d 88be
000000f0: e32e 20bc cc3f 163c 6e74 3c3d 8c6f a43d
00000100: 5119 503c dd8e 233c 1e84 533c 2b27 17bd
00000110: 4470 463d 08bb a4bb be39 b43d c915 763d
00000120: 5ad7 e0bc e35c 203d d86c 29bc 6e5a 403c
00000130: 90a0 cc3c 82e0 963c 12ce b43d 08ac 003d
00000140: 90c2 f13c 35fd 173c 1771 9a3d 1207 b83d
00000150: 6f13 a63d 3d4b 673d 6575 743d 1b3b 9d3c
00000160: be81 d9bb 4729 51bd 57b8 d7bd a534 d8bd
00000170: d433 913b 0609 e33c 63e7 7d3c e0d5 14bd
00000180: 84ef 983d 8b16 f93c 87d5 37bc c2aa 993c
00000190: 2592 22be 76af 6ebd bc31 d0bd a20f 06be
000001a0: 8d19 3ebd 7619 d2bc 2699 f0bd 57c1 44bd
000001b0: 66cc 753c 5118 bfbc 2fae 8ebd 75a1 53bd
000001c0: 4b1a 5bbc 8e7a 50bc ce89 8f3d 7a72 993b
000001d0: 558f dfbc d787 01be f734 08be bc1c adbd
000001e0: 1bc0 213d 00a5 683b e506 0c3d b5c4 4fbc
000001f0: b4b0 d03c 3093 d2bc 67a2 bf3c 8b0a f23c
00000200: bf94 10be 26cf d9bd 3f15 23bd 79a9 bebd
00000210: 54cb acbd 0a8b e83b 9fda 2abd 390d c4bc
00000220: 5ee7 95bc a9d4 88bd 5cb0 91bd 8322 c2bd
00000230: cd15 b4bd f9b9 1cbd 0f13 03be 0d3a 65bd
00000240: 688d 3bbe 9bc8 33be c94c 4abd ae1b e2bd
00000250: 4668 a43d 4105 853c 0b0c ca3d 2146 ac3d
00000260: 3c22 173d 4463 e63d 7433 b23d 6068 733d
00000270: 8e7e c33d 2911 853d 0af2 ca3d a264 203c
00000280: 92f6 7b3d eaf8 913c 3578 0b3d 7bd7 34bd
00000290: ea23 af3d fc3c e23d e89d f63c e9f7 a73b
000002a0: cc0f 633c 7210 8f3d 35e9 4d3d 8f1b 0a3d
000002b0: 8e3f 733c a485 6fbc 9df4 7ebc 9297 b83d
000002c0: 9e39 3b3d 6d38 2cbb d50f 76bc 08c0 133b
000002d0: 202d 003d aa38 7ebc 61f4 3a3d 1692 b33d
000002e0: 94ae 95bb cadf 243d eccc 853d db00 da3c
000002f0: 7e0c 823d 75d9 b23d 03c7 693a 51e4 84bc
00000300: 4e7c 6e3e a934 5b3e 40b3 0f3e e63e 323e
00000310: 68d6 f53c 707e c43c f703 2a3d 3951 8bbc
00000320: d837 9fbd 82fc c6bd e393 2abd 3214 abbd
00000330: c37e 933d 8905 333d 87dd b73d 30f4 c03d
00000340: 92ca ed3d 2ea7 433e 8b26 e93d ae8b 173e
00000350: 9af6 003e c0bb 093e 9811 d63d 54ad c43d
00000360: 9eb7 80bc 5a85 c93c 29b6 913c 9c2e 9ebc
00000370: f9aa 50bd 39a2 8a3c d955 c2bd f892 b3bd
00000380: 1176 9a3c 33be 893b df3f c1bc dcd2 343d
00000390: 07ea afbb 71b2 adbb c290 7c3d 4f59 3f3c
000003a0: d8d4 e63b 27e1 633c 19fa bf3c 4354 a43c
000003b0: b352 cebd ebf9 aebd cbf4 f8bd 7a5d 21be
000003c0: 5e1e a73d 7d81 873d 832d 9b3d eca7 f7bc
000003d0: c99b b8bd 5d02 fdbd 4863 eebd fef2 10be
000003e0: 6118 ecbc 2fb8 b43c de1f eb3c 21c8 46bd
000003f0: 77e0 5a3d dbc1 cb3c d880 283d e84b 703c

bias f4 [64]
0.16336747 -0.18424213 0.06625807 -0.073095605 0.22948413 0.05942613 -0.13394399 -0.0349601
0.06322989 -0.16027698 0.12368449 0.054665875 -0.13011548 0.05568152 -0.11100836 0.07830876
0.113828436 0.12947777 -0.17575759 0.12692912 -0.17429104 -0.1301768 -0.11652559 -0.03814676
-0.16277064 0.092929214 -0.12480761 -0.13896586 -0.11381712 0.13996308 0.047155287 0.21797824
0.10713002 -0.066324025 0.13808545 0.103184514 0.06527047 -0.055252463 -0.083882935 0.06831013
0.10912309 -0.050531764 -0.042771686 0.16980118 0.1673806 0.15751709 0.16530178 -0.06826889
-0.085851364 0.16344665 0.10438451 -0.123598814 -0.09955899 0.12570761 0.12115082 0.051682793
-0.11941654 -0.15892603 -0.09292282 -0.06509535 0.1798036 0.13644521 -0.05477223 0.11399663
00000000: cd49 273e f8a9 3cbe 50b2 873d 26b3 95bd
00000010: e3fd 6a3e d068 733d 9d28 09be 5232 0fbd
00000020: ac7e 813d a61f 24be 4b4e fd3d 53e9 5f3d
00000030: fe3c 05be 4e12 643d 5a58 e3bd 5860 a03d
00000040: e21e e93d d295 043e ccf9 33be b5f9 013e
00000050: 5a79 32be 114d 05be f8a4 eebd c73f 1cbd
00000060: 59ad 26be ac51 be3d 229b ffbd 114d 0ebe
00000070: f318 e9bd 7b52 0f3e e725 413d b035 5f3e
00000080: fc66 db3d e4d4 87bd 4666 0d3e 6752 d33d
00000090: 86ac 853d 6850 62bd d1ca abbd 2ee6 8b3d
000000a0: ed7b df3d 65fa 4ebd 5d31 2fbd 5ce0 2d3e
000000b0: d265 2b3e 294c 213e df44 293e 8fd0 8bbd
000000c0: d7d2 afbd 8f5e 273e 8cc7 d53d 6021 fdbd
000000d0: 95e5 cbbd 7fb9 003e ec1d f83d 56b1 533d
000000e0: a990 f4bd 81bd 22be 524e bebd b650 85bd
000000f0: 6f1e 383e 4bb8 0b3e d958 60bd 1177 e93d

weight f4 [64, 32, 2, 2]
-0.091307245 -0.14352077 -0.12184133 -0.07818905 0.076036185 0.16619022 0.11973841 0.13863505
0.059828565 0.090520516 0.042067043 0.15388882 0.024455411 -0.033287298 -0.11086564 -0.021552509
0.23933558 0.09439394 0.21843717 0.20915864 -0.040037062 0.025589367 -0.06260213 0.04741045
-0.0022043756 0.14070864 0.11305141 0.0050691157 0.12637293 0.09079139 0.173398 0.23876093
-0.082020655 -0.2272741 -0.11470445 -0.18779501 0.025958098 0.18343136 0.097072974 0.08235803
-0.07952244 -0.06527692 -0.22999723 -0.20244801 -0.25179416 -0.22636776 -0.097158454 -0.25435126
0.20956329 0.07772055 0.042214394 0.090194985 -0.047500897 0.018954879 -0.11604415 -0.09532204
-0.20043942 -0.1939407 -0.15602869 -0.16239953 0.16382633 0.23270361 0.13771951 0.08076599
0.071028404 0.13831277 0.11625961 0.14566997 0.13278082 0.15427086 0.11293933 0.13284309
0.21399288 0.097289 0.19470787 0.12588991 -0.19525047 -0.13378613 -0.13121633 -0.047712132
0.0151817305 0.04556279 0.15898193 0.08920595 0.13590978 0.16874559 0.1096494 0.01160058
0.0013774731 -0.109060496 -0.09302001 0.012530432 0.19534333 0.10266424 0.13980383 0.21960299
-0.0626121 -0.043728936 -0.041302755 -0.09053005 -0.019455535 -0.13309409 -0.019034548 -0.0077052223
-0.18986934 -0.04319826 -0.08574788 -0.13773528 0.114327 0.19807276 0.07928568 0.15006779
-0.08789754 -0.11843493 -0.05692795 -0.042687465 0.083601534 0.19873525 0.15731664 0.038707107
-0.17580253 -0.19822289 -0.15573834 -0.15447079 0.11908114 0.19016245 0.11042709 0.09357305
0.047626078 0.11896372 0.12787385 0.15986411 -0.14110115 0.011342603 -0.04168505 -0.11289583
-0.060113408 -0.016592393 -0.004627728 0.0083531905 0.05527479 0.03906766 -0.031928286 0.086745374
-0.10481545 -0.10814583 -0.084699936 -0.06293122 -0.05800188 0.078375965 -0.0773192 -0.012414119
-0.051344775 0.014083031 0.0439455 0.044031274 -0.16812663 -0.069856286 -0.070984215 -0.12402308
0.10823898 0.16395001 0.07473395 0.03438787 -0.0035852625 -0.15087967 -0.07683591 -0.12057265
0.15612538 0.044317197 0.09455305 0.0614312 0.034860924 0.025825718 0.10128996 0.09708818
-0.1280944 -0.0388873 -0.0070577655 -0.0519519 0.010778228 -0.019627066 0.04024305 0.0829846
0.12563069 0.013476684 0.114452876 0.036797598 -0.09500885 -0.100239344 -0.042410262 -0.11625752
-0.05726666 -0.012015663 -0.05593533 -0.117364556 -0.17498124 -0.04108273 -0.06179594 -0.08992258
-0.018875046 -0.09756697 -0.05889513 -0.01743476 0.2076996 0.16051544 0.04635217 0.18458365
0.028812602 0.024017971 0.006134766 0.018129332 -0.04226202 0.022677196 -0.09822046 -0.12651308
0.01971382 0.14933175 0.021528617 0.06929198 -0.095197015 -0.15568927 -0.17590553 -0.02579135
0.0301648 0.13304326 0.14168811 -0.0014713019 0.123904645 0.12453875 0.015256154 0.014333547
0.14413062 -0.014852859 0.14156277 0.1305705 -0.06326483 -0.10525061 -0.14142813 -0.07973726
0.120798595 0.06575901 -0.0054253167 0.08343393 -0.07205764 0.03627644 -0.05455971 -0.082360424
0.14246915 0.18087529 0.080032915 0.17775221 -0.14085206 -0.1360578 -0.021928297 -0.11080831
00000000: 4bff babd 1cf7 12be f287 f9bd 9521 a0bd
00000010: dcb8 9b3d c52d 2a3e 6939 f53d 59f6 0d3e
00000020: cc0e 753d d262 b93d 7e4e 2c3d 0895 1d3e
00000030: b756 c83c 4358 08bd 860d e3bd e38e b0bc
00000040: 6314 753e 9c51 c13d fead 5f3e af2d 563e
00000050: e7fd 23bd cba0 d13c 8c35 80bd 7631 423d
00000060: 4977 10bb ed15 103e 7f87 e73d d31a a63b
00000070: e867 013e d6f0 b93d 3f8f 313e bf7d 743e
00000080: 72fa a7bd 8bba 68be 2bea eabd 564d 40be
00000090: 14a6 d43c 6ed5 3b3e 32ce c63d 54ab a83d
000000a0: a9dc a2bd e8af 85bd 6584 6bbe 884e 4fbe
000000b0: 2aeb 80be f3cc 67be 03fb c6bd 543a 82be
000000c0: c297 563e f42b 9f3d 00e9 2c3d 26b8 b83d
000000d0: 4d90 42bd 4347 9b3c 8ea8 edbd 3438 c3bd
000000e0: fe3f 4dbe 6498 46be fcc5 1fbe 104c 26be
000000f0: 17c2 273e db49 6e3e 5806 0d3e a468 a53d
00000100: 5777 913d dda1 0d3e 8519 ee3d 822a 153e
00000110: b2f7 073e 2ef9 1d3e bc4c e73d 0508 083e
00000120: f320 5b3e 753f c73d 8061 473e 49e9 003e
00000130: bdef 47be 3bff 08be 935d 06be cc6d 43bd
00000140: cbbc 783c 0ca0 3a3d 29cc 223e 9cb1 b63d
00000150: ef2b 0b3e a5cb 2c3e dd8f e03d 5c10 3e3c
00000160: 548c b43a 1c5b dfbd 4681 bebd 714c 4d3c
00000170: 1508 483e a141 d23d bc28 0f3e 9bdf 603e
00000180: c63a 80bd 1d1d 33bd 142d 29bd d267 b9bd
00000190: 3761 9fbc d149 08be 57ee 9bbc 177c fcbb
000001a0: 1c6d 42be a9f0 30bd 969c afbd 7a0a 0dbe
000001b0: 4624 ea3d 96d3 4a3e 8860 a23d 5fab 193e
000001c0: a003 b4bd 038e f2bd 482d 69bd 0dd9 2ebd
000001d0: 4837 ab3d 4181 4b3e 9d17 213e 588b 1e3d
000001e0: 9405 34be f1fa 4abe df79 1fbe 972d 1ebe
000001f0: d0e0 f33d f2b9 423e 9927 e23d 3aa3 bf3d
00000200: 9013 433d 40a3 f33d 5df1 023e 6bb3 233e
00000210: d27c 10be 53d6 393c f1bd 2abd ee35 e7bd
00000220: 7a39 76bd c5ec 87bc 32a4 97bb d2db 083c
00000230: d167 623d 6905 203d 3cc7 02bd 8fa7 b13d
00000240: 7ca9 d6bd 907b ddbd 2977 adbd 15e2 80bd
00000250: 6193 6dbd 9483 a03d 8759 9ebd 9764 4bbc
00000260: e64e 52bd 83bc 663c 3200 343d 235a 343d
00000270: 6329 2cbe d010 8fbd 2c60 91bd d0ff fdbd
00000280: 66ac dd3d 83e2 273e 1d0e 993d 4cda 0c3d
00000290: b9f6 6abb 3380 1abe 255c 9dbd cbee f6bd
000002a0: 55df 1f3e f385 353d 08a5 c13d 489f 7b3d
000002b0: 54ca 0e3d 7590 d33c 1c71 cf3d 2bd6 c63d
000002c0: 2e2b 03be 4a48 1fbd d444 e7bb 84cb 54bd
000002d0: 2a97 303c f1c8 a0bc e5d5 243d d4f3 a93d
000002e0: 55a5 003e 4fcd 5c3c 4566 ea3d 14b9 163d
000002f0: 0094 c2bd 494a cdbd 62b6 2dbd 6c18 eebd
00000300: 7290 6abd 58dd 44bc 721c 65bd d45c f0bd
00000310: 482e 33be 5d46 28bd bd1d 7dbd 5429 b8bd
00000320: d79f 9abc 31d1 c7bd 053c 71bd 58d3 8ebc
00000330: 34af 543e 295e 243e c6db 3d3d 7f03 3d3e
00000340: 6808 ec3c 56c1 c43c 2606 c93b f783 943c
00000350: f11a 2dbd 87c5 b93c cf27 c9bd a58c 01be
00000360: e17e a13c 6cea 183e c85c b03c f4e8 8d3d
00000370: a7f6 c2bd 026d 1fbe 9420 34be 6248 d3bc
00000380: 2c1c f73c 7e3c 083e b016 113e b3d8 c0ba
00000390: b8c1 fd3d 2c0e ff3d f3f4 793c 41d7 6a3c
000003a0: fa96 133e 6859 73bc d5f5 103e 46b4 053e
000003b0: fe90 81bd a28d d7bd 89d2 10be 4a4d a3bd
000003c0: 4165 f73d a9ac 863d dbc6 b1bb 69df aa3d
000003d0: f592 93bd 9b96 143d 017a 5fbd 95ac a8bd
000003e0: 6fe3 113e 5f37 393e 4ce8 a33d ad04 363e
000003f0: 863b 10be bc52 0bbe f9a2 b3bc 78ef e2bd

bias f4 [32]
-0.12979294 -0.14070812 -0.1976381 0.10900994 0.2022003 0.120180145 0.045112297 0.18384327
-0.16159947 -0.1529772 -0.12807228 -0.13812792 -0.15790713 -0.13164446 0.0057057394 0.16249743
0.17807269 0.19535382 0.1402683 0.042251624 -0.18157817 -0.08996087 0.022925388 0.20171747
0.09133842 0.09826011 -0.055918925 0.19291735 0.019473363 0.051714513 -0.15155181 0.16205172
00000000: 71e8 04be ca15 10be a461 4abe 9a40 df3d
00000010: 980d 4f3e 0221 f63d acc7 383d 6941 3c3e
00000020: 557a 25be 0ea6 1cbe 6125 03be 6871 0dbe
00000030: 68b2 21be cecd 06be 36f7 ba3b ba65 263e
00000040: b058 363e d50a 483e 7ea2 0f3e 0a10 2d3d
00000050: a1ef 39be 683d b8bd 06ce bb3c 068f 4e3e
00000060: a30f bb3d 993c c93d 3e0b 65bd 208c 453e
00000070: 9a86 9f3c 99d2 533d 6630 1bbe e3f0 253e
