output/multiclass-1/unet_tgs_salt.pth (torch, 246039 bytes, 26 tensors)

weight f4 [16, 3, 2, 2]
0	0xbe105cfa	-0.14097968
1	0xbe1b4d08	-0.15166104
2	0xbea48437	-0.32132122
3	0xbdcb4de6	-0.09926967
4	0xbde62dcd	-0.112392046
5	0xbde2ffd3	-0.11083951
6	0x3d565865	0.052330393
7	0xbe1518c2	-0.14560226
8	0xbe824f69	-0.2545121
9	0xbe7bdcc2	-0.24595931
10	0x3e0a8528	0.13527358
11	0x3de7a281	0.11310292
12	0xbf16b1db	-0.58865136
13	0xbe310bc9	-0.17289652
14	0xbf1f5652	-0.6224109
15	0xbe2ba2f1	-0.16761376
16	0xbed76803	-0.42071542
17	0xbf13f17a	-0.5779034
18	0xbe4b4595	-0.19850762
19	0xbf2d2eca	-0.6764952
20	0x3bd55fb4	0.006511653
21	0x3d41ecc7	0.04734495
22	0xbe869466	-0.26285094
23	0xbe123f34	-0.14281923
24	0xbe488af1	-0.19584252
25	0xbba56278	-0.005047139
26	0xba4ce3b2	-0.00078159117
27	0xbd1a107a	-0.03761337
28	0x3d033d2d	0.032040764
29	0xbdecb551	-0.11558021
30	0xbcd9faa7	-0.026608778
31	0xbdda3b8e	-0.106558904
32	0x3df06870	0.1173867
33	0xbc434ab3	-0.011919665
34	0xbe01001b	-0.12597696
35	0x3e216ff4	0.15765363
36	0xbe884472	-0.2661472
37	0x3ba4a1f2	0.005024188
38	0xbd91c1d1	-0.07117046
39	0xbeaf951d	-0.34293452
40	0x3e27662c	0.16347569
41	0xbdfb623f	-0.12274598
42	0x3e4d0291	0.2002051
43	0xbe8a4520	-0.27005863
44	0xbd87b0ad	-0.06625495
45	0xbea63ad0	-0.32466745
46	0x3dbef91b	0.09324857
47	0x3dcb5b00	0.09929466
48	0x3eafc4b2	0.34329754
49	0x3da3aae4	0.07991579
50	0x3dc72cda	0.09725352
51	0x3d1646fb	0.036688786
52	0x3f0254a4	0.509104
53	0x3ee1b53d	0.44083586
54	0x3f4f9a39	0.810947
55	0x3ed1922a	0.40931827
56	0xbf4ec0b6	-0.80762804
57	0xbf6fc5b1	-0.9366103
58	0xbf682809	-0.9068609
59	0xbef4d118	-0.47815776
60	0x3e13315c	0.14374298
61	0xbdd3d78d	-0.103438474
62	0xbe89a83f	-0.26886174
63	0x3d55520a	0.05208019
64	0xbd91905e	-0.07107614
65	0xbe922074	-0.28540385
66	0x3e4e76a2	0.20162442
67	0x3e23d4be	0.15999123
68	0xbe2d74a7	-0.1693903
69	0x3e5a0e82	0.21294597
70	0x3e41ffc6	0.18945226
71	0xbc09d05d	-0.008411494
72	0x3d9373aa	0.071997955
73	0x3db7fcda	0.089837745
74	0x3e515fc0	0.20446682
75	0xba7ff368	-0.00097637484
76	0xbe6e6328	-0.23280013
77	0xbe8efc26	-0.2792675
78	0xbdfdf7e8	-0.124008
79	0xbe389aa3	-0.18027739
80	0x3de8b33e	0.11362313
81	0xbdcf08ae	-0.101090774
82	0x3dc1f635	0.094707884
83	0x3e7b97a9	0.24569573
84	0xbccbe3c8	-0.024888888
85	0xbc080e14	-0.008304138
86	0xbdbd7213	-0.092502736
87	0xbebcba09	-0.36860684
88	0xbcb581b9	-0.022156583
89	0x3e217518	0.15767324
90	0xbca976fa	-0.020686615
91	0xbe72e350	-0.23719525
92	0xbe7c5873	-0.24643116
93	0xbe60ac21	-0.21940662
94	0x3cdaa498	0.026689813
95	0xbeb919b0	-0.3615241
96	0x3df107fc	0.11769101
97	0x3e557c0f	0.20848106
98	0xbe618781	-0.22024347
99	0xbe155378	-0.14582622
100	0xbec85605	-0.39128128
101	0x3e7aaa0f	0.24478935
102	0x3e099ab7	0.13437925
103	0x3ddd2be7	0.10799389
104	0xbf12e6fa	-0.5738369
105	0xbee83495	-0.45352617
106	0xbe080152	-0.13281754
107	0xbefec7c8	-0.49761796
108	0xbf3414ad	-0.7034405
109	0xbf316d0b	-0.6930701
110	0xbf5588fe	-0.8341216
111	0xbf98ac39	-1.1927558
112	0x3f23620a	0.6382147
113	0x3f0772eb	0.52909726
114	0x3ec88d2d	0.3917021
115	0x3f3287e9	0.6973863
116	0xbf4b48e1	-0.7940808
117	0xbf1c77b8	-0.61120176
118	0xbee8addb	-0.4544514
119	0xbf4a9bea	-0.79144156
120	0xbd2b56cc	-0.041830823
121	0xbea1ff54	-0.31640112
122	0xbe7fc307	-0.24976741
123	0xbe95e0b3	-0.29272994
124	0x3d94191f	0.07231354
125	0xbe3d9b93	-0.18516378
126	0xbe649e0b	-0.22325914
127	0xbe3ed49b	-0.1863579
128	0x3d5e8d58	0.054334015
129	0x3e7b971d	0.24569364
130	0x3e644ed1	0.22295691
131	0xbe80e7f5	-0.2517697
132	0xbe9239f7	-0.2855985
133	0x3e4f71a4	0.20258194
134	0xbe65fda1	-0.22460033
135	0x3bebd0e6	0.0071965335
136	0xbdbe1417	-0.092811756
137	0xbe8ab200	-0.27088928
138	0x3d1b9687	0.03798535
139	0x3dabefd5	0.08395354
140	0xbe77494b	-0.24149053
141	0xbe242e55	-0.160333
142	0xbde775a8	-0.11301738
143	0x3e0c1405	0.13679512
144	0x3d82bcd0	0.063836694
145	0xbb1f537d	-0.0024311238
146	0xbe5873ee	-0.21137974
147	0x3d8cb432	0.06870307
148	0xbe8406a1	-0.25786307
149	0xbe23fba7	-0.16013967
150	0x3e4a4d56	0.19756064
151	0xbe18ce59	-0.14922465
152	0xbd40330d	-0.046923686
153	0xbdbe07f3	-0.0927886
154	0x3d0e5801	0.034751896
155	0x3e255e05	0.16149147
156	0xbe6fd9d4	-0.23422939
157	0x3e774477	0.24147211
158	0xbdbecd61	-0.09316517
159	0x3dc23bd0	0.094840646
160	0xbe1c6bce	-0.15275499
161	0x3e7a7961	0.24460365
162	0xbdc65eff	-0.09686088
163	0xbe34dca9	-0.176623
164	0x3e775bc7	0.24156104
165	0xbe086266	-0.13318786
166	0xbe277301	-0.16352464
167	0xbde0f207	-0.10983663
168	0x3d20d780	0.039268017
169	0xbe0c0fa7	-0.13677846
170	0xbdf9a5c9	-0.12189824
171	0x3d8c3eff	0.06847953
172	0x3d8fab85	0.07015137
173	0xbe036edb	-0.12835257
174	0x3c1c4552	0.009538012
175	0xbe92ab37	-0.28646252
176	0xbd18a57c	-0.037267193
177	0xbc77770e	-0.015104068
178	0x3d980ea2	0.07424666
179	0xbe7d8158	-0.24756372
180	0x3e4960ca	0.19665828
181	0x3e438059	0.1909193
182	0xbd9f9cb3	-0.0779356
183	0xbde94314	-0.11389747
184	0xbe1b091e	-0.15140197
185	0xbd975546	-0.073893115
186	0xbeacfc01	-0.33786014
187	0xbe86f769	-0.26360634
188	0x3e100d15	0.1406749
189	0xbde05742	-0.10954143
190	0xbe3d5604	-0.18489844
191	0xbe3fe835	-0.18740924

bias f4 [16]
0	0xbdf77e9e	-0.12084697
1	0x3da34248	0.079716265
2	0xbe01b920	-0.12668276
3	0xbdfbae44	-0.12289098
4	0x3e7615db	0.24031775
5	0xbea1efa4	-0.31628144
6	0xbe9b56f1	-0.3033977
7	0xbd9bf980	-0.07615948
8	0xbe940b55	-0.28914896
9	0x3df0d1b8	0.11758751
10	0xbf08f307	-0.5349583
11	0xbe30fc87	-0.17283832
12	0xbe1cf7fa	-0.1532897
13	0xbe856e2e	-0.26060623
14	0xbe8c89f5	-0.27449003
15	0xbe81b6ad	-0.25334683

weight f4 [16, 16, 2, 2]
0	0x3e2daa63	0.16959529
1	0xbb58c5cd	-0.0033076883
2	0x3e1ddb2e	0.15415642
3	0xbd48d3de	-0.049030177
4	0x3cbdc9aa	0.02316745
5	0xbc860bb7	-0.016363008
6	0x3cf04a8d	0.029332424
7	0x3d7fb501	0.06242848
8	0xbe2ff535	-0.17183383
9	0xbdc3f3b9	-0.09567971
10	0xbe6529ca	-0.22379223
11	0xbe2a23a6	-0.16615161
12	0x3e10570b	0.14095704
13	0xbbddef13	-0.0067728846
14	0x3dd92260	0.1060226
15	0x3e1fcf87	0.15606509
16	0xbcfd9436	-0.030954462
17	0x3e15c828	0.14627135
18	0x3cc8e2d5	0.024522224
19	0x3e37f751	0.17965437
20	0xbe0c7577	-0.13716684
21	0x3d048fce	0.032363705
22	0xbe0a5df1	-0.13512398
23	0xbe01a011	-0.12658717
24	0xbe1fe7f6	-0.1561583
25	0xbda4a379	-0.080389924
26	0xbd88e9f7	-0.0668525
27	0xbe034221	-0.12818195
28	0xbd9d8d39	-0.07692952
29	0x3d50d537	0.050984588
30	0xbd0f037a	-0.034915425
31	0x3d673bc1	0.05645347
32	0xbe0aff1d	-0.1357388
33	0xbe9496e1	-0.2902136
34	0xbe7d6edf	-0.24749325
35	0xbe5a6df2	-0.21331003
36	0x3e83d539	0.25748613
37	0x3ea2de5f	0.3181028
38	0x3e413f24	0.18871742
39	0x3e065a5a	0.13120404
40	0xbdb38c7e	-0.08767031
41	0xbc0ed0d2	-0.008716779
42	0x3dbc6592	0.091990605
43	0xbd83e2f4	-0.06439772
44	0xbdb0ffc0	-0.086425304
45	0x3c71a470	0.014748678
46	0x3dc057d2	0.093917504
47	0xbd34e14c	-0.044160172
48	0xbdbedf92	-0.093199864
49	0xbd313b68	-0.043269545
50	0x3d15449c	0.036442384
51	0xbde0afea	-0.10971053
52	0x3e1c02e1	0.15235473
53	0x3e1176dd	0.14205499
54	0x3e261195	0.16217645
55	0x3dca72e0	0.09885192
56	0xbccd6650	-0.0250732
57	0xbd147ee4	-0.036253825
58	0xbd7efce4	-0.062252894
59	0x3c282a60	0.010264009
60	0x3de5ba03	0.112171195
61	0xbcdb3310	-0.026757747
62	0x3dcd3b29	0.100210495
63	0x3dc64932	0.0968193
64	0x3e0140f0	0.12622428
65	0xbda0eb9c	-0.07857439
66	0xbd91cd11	-0.071191914
67	0x3d6d3924	0.05791582
68	0x3eabe3c2	0.33572203
69	0x3e4d8d4e	0.20073435
70	0x3e8bfa65	0.27339473
71	0x3e9d37c6	0.30706614
72	0xbd2833e6	-0.04106512
73	0xbd9aa952	-0.075518265
74	0xbdb560cb	-0.088563524
75	0x3d23e600	0.040014267
76	0x3bbf5d4f	0.0058399807
77	0xbb62d627	-0.0034612508
78	0x3d12a7fc	0.035804734
79	0xbd8a94d1	-0.06766666
80	0x3f43f733	0.7654907
81	0x3f46c820	0.77649117
82	0x3f28a35a	0.65874255
83	0x3f2816c7	0.65659755
84	0xbcaa67be	-0.020801421
85	0xbd7d6c90	-0.06187111
86	0x3d850107	0.064943366
87	0xbd2092c7	-0.039202478
88	0x3db26cf6	0.08712189
89	0x3e11f016	0.14251742
90	0xbd5eebd1	-0.05442411
91	0xbc30ffab	-0.0108031435
92	0xbd081905	-0.033226985
93	0xbc1eb701	-0.009687186
94	0xbc0beaba	-0.00853985
95	0xbd4b62c1	-0.049654726
96	0xbf18fa43	-0.5975687
97	0xbeec141f	-0.461091
98	0xbf03ca86	-0.514809
99	0xbedea0aa	-0.43481952
100	0x3eedd130	0.4644866
101	0x3f305543	0.688801
102	0x3f28075a	0.6563622
103	0x3f2c5b1b	0.67326516
104	0x3dde1c01	0.10845185
105	0xbdc9f5bf	-0.098613255
106	0x3dda1568	0.10648614
107	0x3d9ea116	0.077455685
108	0x3d52b5a8	0.051442772
109	0x3cfbdaa0	0.030743897
110	0x3cfd9c98	0.030958459
111	0x3dc2f13e	0.095186695
112	0xbd0d1034	-0.03443928
113	0x3d759d6c	0.059964582
114	0x3d79a748	0.060950547
115	0x3ce12758	0.02748458
116	0x3e141649	0.14461626
117	0xbd02d808	-0.031944305
118	0xbd748aaa	-0.059702553
119	0x3a194173	0.00058462395
120	0xbd5d0ef4	-0.05396934
121	0x3de3588e	0.11100875
122	0xbdf8d65e	-0.12150262
123	0xbd79b154	-0.06096013
124	0x3c97edbd	0.01854598
125	0xbbf26db4	-0.0073983315
126	0x3d21db31	0.039515678
127	0x3d08e90b	0.033425372
128	0xbd4f2c28	-0.05057922
129	0x3d74f6d2	0.0598057
130	0xbd8d40f8	-0.068971574
131	0x3c7ea15f	0.015541404
132	0x3d4ca41c	0.049961194
133	0xbddb2a42	-0.107014194
134	0xbda381b9	-0.07983727
135	0xbdf77a5a	-0.120838836
136	0x3e0c7579	0.13716687
137	0x3d356f1b	0.04429541
138	0xbd2a0ccc	-0.04151611
139	0x3e0d8a52	0.13822296
140	0xbc350621	-0.0110488245
141	0x3bdf5b9c	0.0068163406
142	0xbdf1c003	-0.118042015
143	0x3d3d81db	0.046266418
144	0x3f60f889	0.87879235
145	0xbeee20bc	-0.4650935
146	0x3f04d5b1	0.5188857
147	0xbf6c52f0	-0.9231405
148	0x3d12e88d	0.03586631
149	0xbb7a8764	-0.0038227672
150	0xbd0a5047	-0.033767965
151	0xbd223b5f	-0.039607402
152	0x3b75c0d3	0.0037498965
153	0xbbc97089	-0.0061474484
154	0x3e01273d	0.12612624
155	0xbcbf6cb6	-0.023367267
156	0x3dd6c363	0.10486486
157	0x3de3ab34	0.11116639
158	0x3e04c1aa	0.12964502
159	0xbd9ab410	-0.075538754
160	0xbe6e9c74	-0.2330187
161	0xbe344193	-0.1760314
162	0xbe2fc6a6	-0.17165622
163	0xbdf5d584	-0.120036155
164	0x3e8bedf0	0.2732997
165	0x3e506542	0.20351127
166	0x3e86431a	0.2622307
167	0x3d99ab99	0.07503433
168	0x3e059e7c	0.13048738
169	0x3e62e2d1	0.22156836
170	0x3e45c19e	0.1931214
171	0x3e379734	0.17928773
172	0xbd8870f2	-0.066621676
173	0x3d6308d8	0.055428356
174	0xbcb28010	-0.02178958
175	0x3dc29578	0.09501165
176	0x3c3d5bb0	0.011557505
177	0x3cad4f78	0.021156058
178	0xbc05b2d0	-0.008160308
179	0x3dd8e270	0.105900645
180	0xbe0caca4	-0.13737732
181	0xbbf6ab37	-0.0075277346
182	0xbda60851	-0.08107055
183	0xbde705e7	-0.11280423
184	0xbdbdb406	-0.09262852
185	0xbddbc876	-0.10731594
186	0x3d41dc2c	0.047329113
187	0x3dad1e64	0.08453062
188	0xbd9484a0	-0.07251859
189	0xbe0a9171	-0.13532044
190	0x3d10723c	0.035265192
191	0xbcfba5ff	-0.030718802
192	0x3da397dd	0.0798795
193	0x3ddc1e9e	0.10748027
194	0x3b2dbcbf	0.0026510207
195	0xbd5d1877	-0.05397841
196	0x3e962738	0.29326797
197	0x3ebeafab	0.372434
198	0x3eda7feb	0.4267572
199	0x3edbb932	0.4291473
200	0x3dc79797	0.0974571
201	0x3e2f03b5	0.17091258
202	0xbd2faae9	-0.042887602
203	0x3e05337f	0.13007925
204	0x3c9600cc	0.018310927
205	0x3d57068d	0.05249648
206	0x3da3891a	0.079851344
207	0xbdb68cd0	-0.089135766
208	0x3eea29fb	0.45735154
209	0x3ce55d09	0.027998464
210	0x3ed7684d	0.42071763
211	0x3dd2dfbd	0.10296581
212	0x3cb5e940	0.022205949
213	0xbd0d5726	-0.03450694
214	0x3d2c4b42	0.04206396
215	0x3dd5554d	0.104166605
216	0x3dab1cc3	0.08355095
217	0x3db3fba7	0.08788233
218	0xbd6a1538	-0.057149142
219	0xbd9a5ef4	-0.07537642
220	0x3dd943ef	0.106086604
221	0x3cee5964	0.02909536
222	0x3d470d27	0.048596527
223	0x3e16f9f9	0.14743795
224	0x3e2f78fd	0.17135997
225	0x3baa3ad7	0.0051950025
226	0x3d5c7897	0.05382594
227	0x3cb4701e	0.022026118
228	0xbe3f8071	-0.1870134
229	0xbed27e72	-0.41112095
230	0xbec41019	-0.38293532
231	0xbe7972cc	-0.24360198
232	0x3e88474e	0.266169
233	0x3deb01cd	0.11474953
234	0x3e312b67	0.17301713
235	0x3e2d378f	0.16915725
236	0xbd4c6474	-0.049900487
237	0xbc956168	-0.018234923
238	0x3d5d813c	0.054078326
239	0x3d69eb5c	0.05710922
240	0xbd8e9fe0	-0.069640875
241	0x3d8763ce	0.06610833
242	0x3ccd9668	0.025096133
243	0xbd8e3d2c	-0.06945261
244	0x3e3bfb06	0.18357477
245	0x3e450b98	0.19242704
246	0x3ddb3549	0.10703523
247	0xbd74e011	-0.059784
248	0xbd1cd288	-0.038286716
249	0xbce95090	-0.028480798
250	0x3c87a9b8	0.01656042
251	0xbddd2bd0	-0.10799372
252	0xbb2879aa	-0.0025707283
253	0x3dc5e85e	0.09663461
254	0xbd3ac555	-0.045598347
255	0x3da51d07	0.08062177

bias f4 [16]
0	0x3dd01a7d	0.10161302
1	0xbe89e71d	-0.26934138
2	0x3b7c4c90	0.0038497783
3	0x3d351ddf	0.04421794
4	0xbe5881f6	-0.21143326
5	0xbe509646	-0.20369825
6	0x3d2bb37c	0.041919217
7	0xbe07a2a0	-0.1324563
8	0xbe5eb88d	-0.21750088
9	0xbbc48232	-0.005996966
10	0x3e097ae2	0.13425782
11	0xbe03902b	-0.12847964
12	0xbd916fbd	-0.071013905
13	0x3d0cfe3b	0.03442214
14	0xbc9e4386	-0.019319307
15	0xba829841	-0.0009963588

weight f4 [32, 16, 2, 2]
0	0x3e5c9d1f	0.21544312
1	0x3dd18662	0.102307096
2	0x3da731d4	0.08163801
3	0x3d1bfc5b	0.03808246
4	0xbd79f678	-0.061026067
5	0xbd450b7c	-0.048106655
6	0xbe0513fd	-0.12995906
7	0xbda4e566	-0.08051567
8	0x3ebfaafd	0.3743514
9	0x3e1f1400	0.15534973
10	0x3e0b074d	0.13577004
11	0x3df2f537	0.11863177
12	0xbd9c211b	-0.07623502
13	0x3df84d61	0.12124134
14	0x3d29c1d4	0.041444615
15	0x3c9bd452	0.01902214
16	0x3bde14ef	0.006777398
17	0xbd25a074	-0.040436223
18	0xbd9e6f60	-0.07736087
19	0x3dbce02d	0.09222446
20	0xbca0521c	-0.019570403
21	0x3df9f51b	0.12204953
22	0x3cfb9391	0.030710014
23	0x3e17d404	0.14826971
24	0x3e8302d0	0.25588083
25	0x3eb8330d	0.3597645
26	0x3e3cd881	0.18441965
27	0x3e852e57	0.26011917
28	0xbd80a6bb	-0.06281801
29	0x3d2a3ef1	0.04156393
30	0xbd181102	-0.037125595
31	0x3d5cc7ac	0.05390136
32	0x3da853bc	0.08219096
33	0x3cad43f7	0.021150572
34	0xbcd3bf4e	-0.025848057
35	0x3e20803f	0.15673922
36	0xbead1aa3	-0.33809385
37	0x3d72047a	0.0590863
38	0xbeb1c446	-0.34720057
39	0x3b1fa8be	0.0024362053
40	0xbdee2e0c	-0.116298765
41	0xbe75f2e7	-0.24018441
42	0xbe672826	-0.22573909
43	0xbe43c9e4	-0.19119984
44	0xbe08b285	-0.1334935
45	0xbdd773cf	-0.105201356
46	0xbdeaaf1d	-0.114591815
47	0x3d082594	0.033238962
48	0xbe075489	-0.13215841
49	0x3c9f6a04	0.019459732
50	0xbe2d5161	-0.16925575
51	0x3e316f11	0.17327525
52	0x3e49ed51	0.19719435
53	0xbc80ea6a	-0.015736777
54	0x3e27d853	0.16391115
55	0x3dcd5888	0.100266516
56	0x3dd8c9c7	0.10585361
57	0x3e0092d2	0.12556008
58	0x3e06b11a	0.13153496
59	0x3e6c9ed0	0.23107457
60	0xbe4d7469	-0.20063938
61	0x3e0bfde6	0.13671073
62	0xbe8dd883	-0.27704248
63	0xbc695eca	-0.014243791
64	0x3e2e3881	0.17013742
65	0x3d188966	0.03724041
66	0x3dce6ad5	0.1007897
67	0x3e7a07a0	0.24416971
68	0xbe308338	-0.17237556
69	0xbe89a25e	-0.2688169
70	0xbe9767a5	-0.29571262
71	0xbe414cfd	-0.18877025
72	0x3dd791bc	0.105258435
73	0xbd8127fa	-0.06306453
74	0x3d0b1f93	0.03396566
75	0x3d360a3a	0.044443347
76	0xbe1f2049	-0.1553966
77	0xbe269d10	-0.16270852
78	0xbd8731b1	-0.06601275
79	0x3d2bca64	0.04194106
80	0x3e61ba94	0.2204383
81	0x3e103055	0.14080937
82	0x3e4bec14	0.19914275
83	0x3df088b9	0.11744828
84	0xbe0527fb	-0.13003533
85	0xbd70bd9f	-0.058774587
86	0xbe7c7c8f	-0.2465689
87	0xbdfba95e	-0.122881636
88	0xbdb62d50	-0.088953614
89	0x3d17d655	0.037069637
90	0x3c0b500e	0.008502973
91	0xbdd046e4	-0.10169771
92	0xbe7718f9	-0.2413062
93	0xbdc3668c	-0.09541044
94	0xbda9f96d	-0.08299527
95	0xbdc2fe31	-0.095211394
96	0x3bbb8183	0.005722226
97	0xbdf6bfec	-0.12048325
98	0xbe46e1e0	-0.19422102
99	0xbdce7458	-0.100807846
100	0xbe9e1c1d	-0.30880824
101	0xbe911eda	-0.2834385
102	0xbe3c96a4	-0.1841684
103	0xbe47f3bc	-0.19526571
104	0xbb9c5d58	-0.0047718696
105	0xbb824456	-0.0039754314
106	0xbd6a1acf	-0.057154473
107	0xbc1b92dc	-0.009495463
108	0xbe1aa679	-0.15102567
109	0xbe900a94	-0.2813307
110	0xbe97558d	-0.29557458
111	0xbe0e9397	-0.13923489
112	0xbe3fa21f	-0.18714188
113	0xbe90be10	-0.28270006
114	0xbe98fb37	-0.29879162
115	0xbe49c66f	-0.19704603
116	0xbd93d4a7	-0.072182946
117	0x3c21992a	0.009863177
118	0xbc917371	-0.017755242
119	0xbe1673ea	-0.14692655
120	0x3e997ae9	0.29976586
121	0x3e7ede7f	0.24889563
122	0x3e9d7f25	0.30761066
123	0x3d5f9273	0.054583024
124	0xbe86b344	-0.26308644
125	0xbe6e98c1	-0.23300458
126	0xbe975e83	-0.29564294
127	0xbe87f46f	-0.26553676
128	0xbe18cda6	-0.14922199
129	0x3b7f0de7	0.0038918199
130	0xbe117723	-0.14205603
131	0x3d9c07d1	0.07618678
132	0xbec5afd7	-0.38610718
133	0xbec0f488	-0.37686563
134	0xbecf239d	-0.40456858
135	0xbe9c6112	-0.3054281
136	0x3e0c690d	0.13711949
137	0xbdd107a3	-0.10206535
138	0x3dc00faa	0.09377988
139	0xbd396fcd	-0.045272637
140	0xbe72c61c	-0.23708385
141	0xbec6e2a0	-0.38844776
142	0xbed4fa3f	-0.41597173
143	0xbeabe1de	-0.3357076
144	0xbe50dfe9	-0.20397915
145	0xbe4712b7	-0.19440733
146	0xbd851796	-0.06498639
147	0xbd6fdfb6	-0.058562957
148	0xbcaf0636	-0.021365266
149	0xbd6150fa	-0.055008866
150	0x3cd01ca1	0.025404276
151	0x3ddc427b	0.10754868
152	0x3ee13854	0.43988287
153	0x3efa1644	0.48845112
154	0x3ee7443c	0.45169246
155	0x3e9fbfc9	0.31201008
156	0x3d91b591	0.07114709
157	0x3e0e08b3	0.13870506
158	0x3e14fffe	0.14550778
159	0x3c342ee9	0.010997512
160	0x3dfe1063	0.12405469
161	0x3de4a621	0.11164499
162	0x3e062878	0.13101375
163	0xbd5f6016	-0.054534994
164	0xbe28b32a	-0.16474596
165	0x3ccc65dd	0.024950916
166	0x3b58a431	0.003305685
167	0xbe2c2054	-0.16809207
168	0x3cf91a77	0.030408127
169	0xbd5b6100	-0.053559303
170	0xbca0262b	-0.01954945
171	0xbdeb3fba	-0.11486764
172	0x3d70a4ed	0.058751035
173	0xbd8d7081	-0.06906224
174	0xbdd0980c	-0.10185251
175	0xbd1965d1	-0.037450615
176	0x3e483e0d	0.1955492
177	0x3e88f8dd	0.26752368
178	0x3e0bd128	0.13654006
179	0x3de861b4	0.113467604
180	0xbe25a444	-0.16175944
181	0xbe934c99	-0.28769377
182	0xbe21c7dd	-0.15798898
183	0xbd916153	-0.07098641
184	0x3e00fb80	0.1259594
185	0x3e26fb9f	0.16306923
186	0x3d673e2a	0.05645577
187	0xbb911c05	-0.004428389
188	0xbe13222b	-0.14368503
189	0xbd83c5ec	-0.06434235
190	0x3c9d7a56	0.019223373
191	0xbc95652d	-0.018236721
192	0xbe8b2637	-0.27177593
193	0xbe2ba4e1	-0.16762115
194	0xbe8939f8	-0.2680204
195	0xbe8c29ed	-0.27375737
196	0x3e1b7b23	0.15183692
197	0x3d96bc91	0.07360185
198	0x3e68f52b	0.22749774
199	0x3e0cd7d9	0.13754214
200	0xbe945a93	-0.28975353
201	0xbe5be8a3	-0.21475463
202	0xbddb2f41	-0.10702372
203	0xbd9ee733	-0.077589415
204	0xbca9d1e6	-0.02072997
205	0xbdd4165e	-0.10355829
206	0xbe49a403	-0.19691472
207	0xbdb9cb08	-0.09071928
208	0xbd1f5084	-0.038895145
209	0xbe1d64fd	-0.15370555
210	0xbe0f2af3	-0.13981228
211	0xbda50c68	-0.08059007
212	0x3e9a006f	0.30078456
213	0x3e8da726	0.27666587
214	0x3e3bd64b	0.18343465
215	0x3e5d9a16	0.2164081
216	0xbe10010e	-0.14062902
217	0xbdb51136	-0.08841173
218	0xbdfc04ef	-0.123056285
219	0x3d66eb00	0.056376457
220	0x3e8910ea	0.26770717
221	0x3e8ab3a0	0.27090168
222	0x3e7f5c96	0.24937662
223	0x3deebd84	0.11657241
224	0x3e7e7df5	0.24852736
225	0x3ebd43e1	0.3696585
226	0x3e69814e	0.22803232
227	0x3ea96a4c	0.3308891
228	0x3e0c1df9	0.13683309
229	0x3e93c6cd	0.2886261
230	0x3e270a06	0.16312417
231	0x3e084d1d	0.13310666
232	0x3d0f9e90	0.035063326
233	0x3e1c1408	0.15242016
234	0x3d7b23f0	0.06131357
235	0x3e67bbc5	0.22630222
236	0x3e374785	0.17898376
237	0x3e6dd08b	0.23224084
238	0x3e8768fa	0.26447278
239	0x3e8ab871	0.27093843
240	0x3e071f59	0.13195552
241	0x3d381880	0.04494524
242	0x3d564254	0.05230935
243	0x3e3a5b3c	0.18198866
244	0xbd881a36	-0.06645624
245	0xbe348d4a	-0.17632023
246	0xbdf2d3ef	-0.118568294
247	0xbe5eab51	-0.2174504
248	0xbe6fbeed	-0.23412676
249	0xbe262d44	-0.16228205
250	0xbe9097b0	-0.28240728
251	0xbe67d7f1	-0.22640969
252	0x3e73950b	0.23787324
253	0x3e5cf6c6	0.21578512
254	0x3e9ebf86	0.31005496
255	0x3e9f5dbe	0.31126207

bias f4 [32]
0	0xbdc3d942	-0.09562923
1	0xbe972d94	-0.2952696
2	0xbecee159	-0.40406302
3	0xbdb06d9c	-0.08614656
4	0xbe2bd372	-0.16779879
5	0xbf0930c4	-0.53590035
6	0xbe4cf941	-0.20016958
7	0xbe024d48	-0.12724793
8	0xbe8962d7	-0.2683322
9	0xbe8c60fb	-0.2741774
10	0x3c9c5278	0.019082293
11	0xbdd6a201	-0.104801185
12	0xbebb8aa4	-0.36629212
13	0xbdf0fae1	-0.11766601
14	0xbf0a0f5a	-0.53929675
15	0xbe2ef2f7	-0.17084871
16	0xbdfee185	-0.12445358
17	0x3c993ae9	0.018704848
18	0xbe5cad6f	-0.21550535
19	0xbd06153e	-0.032735102
20	0xbdd8856a	-0.10572322
21	0xbe20e741	-0.15713216
22	0xbe504dba	-0.2034215
23	0x3efd6f43	0.49498948
24	0xbe200546	-0.15627012
25	0xbe938767	-0.2881424
26	0xbeab3bf2	-0.33444172
27	0xbcec2c6c	-0.028829776
28	0xbe94699c	-0.28986824
29	0xbe697292	-0.22797611
30	0xbe8560d7	-0.26050445
31	0xbea27186	-0.31727237

weight f4 [32, 32, 2, 2]
0	0xbea53bb7	-0.3227212
1	0xbe98a71b	-0.2981499
2	0xbe4d0363	-0.20020823
3	0xbe76ed34	-0.24113923
4	0xbe8a5794	-0.27019942
5	0xbed20820	-0.41021824
6	0xbede4eff	-0.43419644
7	0xbed54e33	-0.41661224
8	0xbe2ea80a	-0.1705629
9	0xbe3b559c	-0.18294376
10	0xbdc8e347	-0.09808975
11	0xbdfc5c36	-0.12322275
12	0xbe6227e8	-0.22085536
13	0xbe28bf5a	-0.16479245
14	0xbe0188e2	-0.12649873
15	0xbe2242ac	-0.15845746
16	0xbe6afd50	-0.22948194
17	0xbd95318a	-0.072848395
18	0xbdc542bd	-0.0963187
19	0xbe475220	-0.19464922
20	0xbd4b0743	-0.049567472
21	0xbddb6978	-0.10713476
22	0xbe473299	-0.19452895
23	0xbe49784c	-0.19674796
24	0x3c50b8f6	0.012739411
25	0x3d4a2758	0.049353927
26	0x3df4ae60	0.11947322
27	0xbbe32d34	-0.006932879
28	0xbe78343b	-0.24238674
29	0xbe1a75c3	-0.15083985
30	0xbe151a5f	-0.14560841
31	0xbe765dc8	-0.24059212
32	0xbe40267e	-0.18764684
33	0xbe7afe87	-0.24511157
34	0xbe943e5c	-0.28953826
35	0xbe943834	-0.2894913
36	0x3df4e359	0.119574256
37	0x3da5694d	0.08076725
38	0x3df7bf07	0.120969824
39	0x3e17e6b5	0.14834101
40	0xbe06e9d8	-0.13175142
41	0xbe8926f1	-0.26787522
42	0xbe56750f	-0.20943092
43	0xbe39ecf7	-0.18156801
44	0xbe8b3fda	-0.27197152
45	0xbe581fc9	-0.21105875
46	0xbe141d53	-0.14464311
47	0xbe8b8848	-0.27252412
48	0xbe97f6a4	-0.2968036
49	0xbecf51a1	-0.40491965
50	0xbe871414	-0.26382506
51	0xbed0c092	-0.4077192
52	0xbe3e6c61	-0.18596031
53	0xbe6cd561	-0.23128273
54	0xbe2bfd2b	-0.16795795
55	0xbdc6f41b	-0.09714528
56	0xbe38dfb7	-0.1805409
57	0xbddaa04a	-0.10675104
58	0xbde52792	-0.11189188
59	0xbd9026db	-0.07038661
60	0xbca7c7e8	-0.020481065
61	0xbc7c16e2	-0.015386315
62	0x3c9489e9	0.018132167
63	0x3d8a5b4c	0.06755695
64	0xbe17025a	-0.14746991
65	0xbda4da61	-0.08049465
66	0xbe22a096	-0.15881571
67	0xbdde7a4e	-0.108631715
68	0x3d8209c6	0.063495204
69	0x3c75baed	0.01499818
70	0xba96865a	-0.0011484132
71	0xbd8e33b1	-0.06943453
72	0x3d83746a	0.064186886
73	0xbc5069d1	-0.012720541
74	0x3c0d8506	0.008637672
75	0xbcba151e	-0.022715148
76	0xbdc3f2dc	-0.09567806
77	0xbd43a007	-0.047760036
78	0xbd9c1948	-0.076220095
79	0xbe4581d8	-0.19287813
80	0xbd619c40	-0.055080652
81	0xbcee8109	-0.029114263
82	0xbd266c90	-0.040630877
83	0x3d8cdd31	0.068781264
84	0xbcf51b44	-0.029920228
85	0xbd53467a	-0.051580884
86	0xbd4ad4bc	-0.049519286
87	0xbda54b70	-0.08071029
88	0xbd3b461b	-0.045721155
89	0xbb530156	-0.0032196841
90	0xbd1517b2	-0.03639955
91	0x3c1ba757	0.009500346
92	0xbebe5600	-0.37174988
93	0xbf01dbdc	-0.50726104
94	0xbef15516	-0.47135228
95	0xbeb49a12	-0.35273796
96	0xbdfbb96e	-0.12291227
97	0xbe18c3f3	-0.14918499
98	0xbe25d3c7	-0.16194068
99	0xbe637041	-0.2221079
100	0xbe1d5076	-0.15362725
101	0xbe403146	-0.18768796
102	0xbe49bbb2	-0.19700506
103	0xbe710a63	-0.23539118
104	0x3dd9c641	0.10633517
105	0x3d8c5347	0.068518214
106	0x3da68a13	0.08131804
107	0x3de1ca50	0.11024916
108	0x3bec302a	0.00720789
109	0x3ddf6f1f	0.109098665
110	0x3d880426	0.06641416
111	0x3da47be5	0.080314435
112	0x3d6b99e8	0.057519823
113	0xbd6c4f35	-0.057692725
114	0x3d318fa6	0.043349884
115	0xbd719f93	-0.058990072
116	0xbe4a07d4	-0.19729549
117	0xbe980e5b	-0.29698452
118	0xbe77919e	-0.24176642
119	0xbe6af184	-0.22943693
120	0x3e5a7c52	0.21336487
121	0x3e9b80db	0.30371746
122	0x3e8d16af	0.2755637
123	0x3e22310d	0.15839024
124	0xbe82d0fc	-0.25550067
125	0xbe2ea805	-0.17056282
126	0xbe8ff900	-0.2811966
127	0xbe80d923	-0.25165662
128	0xbc55f3a6	-0.013058579
129	0x3c148b9d	0.0090664895
130	0xbde9e597	-0.11420744
131	0xbe11d030	-0.14239573
132	0xbeb7dd02	-0.35910803
133	0xbe8507fe	-0.2598266
134	0xbe82b1b6	-0.25526208
135	0xbe958bcf	-0.29208228
136	0x3d893298	0.06699103
137	0x3d8cf20a	0.06882103
138	0x3da2ca48	0.07948738
139	0x3cc55577	0.024088604
140	0x3e159870	0.14608932
141	0x3e1ae02f	0.15124582
142	0x3db4fa42	0.088367954
143	0x3e618605	0.2202378
144	0x3e3eb097	0.18622051
145	0x3d6bec41	0.057598356
146	0x3d85c56b	0.06531795
147	0x3df80422	0.12110163
148	0xbe16f6f3	-0.14742641
149	0xbe965cb2	-0.29367596
150	0xbe993a15	-0.29927126
151	0xbe9851b6	-0.2974984
152	0xbcbb900d	-0.022895837
153	0xbd28b6d1	-0.041189972
154	0xbde02581	-0.10944653
155	0xbcb0865e	-0.021548446
156	0x3dea2f46	0.11434798
157	0x3df4fff7	0.11962884
158	0x3e2098c8	0.15683281
159	0x3e0c9f2f	0.13732599
160	0x3d47381b	0.04863749
161	0x3e352853	0.17691164
162	0x3dc8a05e	0.097962126
163	0x3e16fc34	0.14744645
164	0xbe33b9f3	-0.17551403
165	0xbe0dff1d	-0.13866849
166	0xbe03d267	-0.12873231
167	0xbe1556b3	-0.14583854
168	0xbe232e72	-0.15935686
169	0xbe81691d	-0.25275508
170	0xbe23fef2	-0.16015223
171	0xbe93a7ab	-0.28838858
172	0xbd31719d	-0.04332124
173	0x3da0345d	0.078224875
174	0x3ca1ddc6	0.01975907
175	0x3d569691	0.052389685
176	0xbe13d453	-0.14436464
177	0xbde23500	-0.11045265
178	0xbe06826d	-0.13135691
179	0x3cd53d0c	0.026030086
180	0xbe5045a8	-0.20339072
181	0xbe192e86	-0.14959154
182	0xbd8e2910	-0.06941426
183	0xbe395d48	-0.1810199
184	0xbe229b55	-0.15879567
185	0xbe4ca85e	-0.19986102
186	0xbe4ed165	-0.20197065
187	0xbe3e5998	-0.18588865
188	0x3d811eb1	0.06304682
189	0x3c75c258	0.014999948
190	0xbdb7c89f	-0.08973812
191	0xbd34dcaf	-0.044155773
192	0x3d0050a1	0.031326894
193	0xbd94e0b8	-0.07269424
194	0xbd5abf1d	-0.053404916
195	0x3d0999fd	0.03359412
196	0xbd9b7561	-0.075907476
197	0xbe2473fc	-0.1605987
198	0xbdb43d68	-0.08800775
199	0xbd6f0301	-0.058352474
200	0x3c449963	0.011999461
201	0x3cb138f9	0.021633612
202	0xba23189d	-0.0006221624
203	0xbd3b3005	-0.045700092
204	0x3e582cca	0.21110836
205	0x3d9152d0	0.07095873
206	0x3e0e98f0	0.13925529
207	0x3e6295ec	0.22127503
208	0xbc8d3cde	-0.017240938
209	0x3d647766	0.05577793
210	0xbb9737e3	-0.0046148165
211	0xbc8beb17	-0.017079873
212	0xbda3d2f4	-0.079992205
213	0xbb493c4a	-0.00307061
214	0x3d8f63a5	0.070014276
215	0x3d758f6d	0.059951235
216	0xbde39b26	-0.111135766
217	0xbd8fbef8	-0.07018846
218	0x3cdda0c0	0.02705419
219	0xbd98ce44	-0.07461217
220	0xbeb96179	-0.36207178
221	0xbea7e050	-0.32788324
222	0xbed20910	-0.4102254
223	0xbefeab20	-0.49739933
224	0x3d381c88	0.044949085
225	0x3dc35132	0.09536971
226	0x3df11a84	0.117726356
227	0x3e008ca0	0.12553644
228	0x3de7605c	0.11297676
229	0x3de2a9a5	0.110675134
230	0x3debeaac	0.115193695
231	0x3d0b76c1	0.0340488
232	0xbdae5659	-0.08512563
233	0xbdcecfb4	-0.1009821
234	0xbe45d6ac	-0.19320172
235	0xbe6c891e	-0.23099181
236	0xbdaca6d9	-0.08430261
237	0xbdb4ad8f	-0.08822166
238	0xbe26aea1	-0.16277553
239	0xbb7703d6	-0.0037691495
240	0xbe448270	-0.19190383
241	0xbe75f1d1	-0.24018027
242	0xbe344da2	-0.1760774
243	0xbe5687b5	-0.20950206
244	0xbe4c05ee	-0.19924137
245	0xbe14ce7b	-0.14531891
246	0xbe1c3064	-0.15252835
247	0xbdf075e2	-0.11741234
248	0xbd025b31	-0.03182525
249	0xbd405d2f	-0.046963867
250	0x3d9ce540	0.076609135
251	0x3cbd1db4	0.023085453
252	0xbe8bf8f6	-0.2733838
253	0xbe9e0df1	-0.3087001
254	0xbe3c3a7f	-0.1838169
255	0xbeac337b	-0.33633026

bias f4 [32]
0	0xbe7be8c0	-0.24600506
1	0xbe7eaf0d	-0.24871464
2	0xbe131aa4	-0.14365631
3	0x3e3090a1	0.17242672
4	0x3e97d88f	0.2965741
5	0x3ea8bb02	0.32955176
6	0x3dd92573	0.10602846
7	0xbd56d83d	-0.052452315
8	0xbe6584da	-0.2241396
9	0x3e859568	0.2609055
10	0x3e647c92	0.22313145
11	0xbe36fab3	-0.17869072
12	0x3e408125	0.18799265
13	0x3e69ea94	0.2284339
14	0xbd9a91e3	-0.07547357
15	0x3ea6089c	0.32428443
16	0x3e672e44	0.22576243
17	0x3e803e52	0.25047547
18	0x3e5228da	0.20523396
19	0x3e0863aa	0.13319269
20	0xbdf745fe	-0.12073897
21	0x3ddbda72	0.107350245
22	0xbe5a8e5e	-0.21343371
23	0xbc3eb982	-0.011640908
24	0xbe99b9ea	-0.30024654
25	0xbe751cf2	-0.23936823
26	0xbd85df5c	-0.06536743
27	0x3e119ced	0.14220019
28	0xbe4aebe4	-0.19816548
29	0xbe8afe56	-0.27147168
30	0xbd6dad2e	-0.058026485
31	0xbe9d7b2a	-0.3075803

weight f4 [64, 32, 2, 2]
0	0x3d87c248	0.06628853
1	0x3e1e8e2f	0.15483926
2	0x3e1e46b7	0.15456663
3	0x3e46aeaa	0.19402567
4	0x3d5f6944	0.05454375
5	0x3d0bb04f	0.034103688
6	0xbcb360c0	-0.02189672
7	0x3abe1bdb	0.0014504151
8	0x3dd11b21	0.102102526
9	0x3e4e4089	0.20141806
10	0x3e1cbdfb	0.15306847
11	0x3d85b8b8	0.06529373
12	0xbdfe473c	-0.12415931
13	0x3d02784d	0.03185301
14	0xbda0b03d	-0.07846115
15	0xbd4ff955	-0.05077489
16	0x3d29e465	0.04147758
17	0x3d93c179	0.07214636
18	0x3d8eaa18	0.069660366
19	0x3d5c99b5	0.053857524
20	0xbd8fd813	-0.07023635
21	0xbd82cdc4	-0.06386903
22	0x3c0b7589	0.008511909
23	0xbde4873f	-0.11158609
24	0xbe4a9d19	-0.1978649
25	0xbda7ae10	-0.08187497
26	0xbde70250	-0.11279738
27	0xbd68c8fa	-0.05683229
28	0x3d3f16e9	0.04665271
29	0xbca2a9bb	-0.019856324
30	0x3d11cb61	0.035594348
31	0xbdbfeede	-0.09371732
32	0xbd1f5e47	-0.03890827
33	0xbd633b08	-0.05547622
34	0xbc81fff3	-0.015869116
35	0x3b10c9d6	0.002209296
36	0xbdb0ec3c	-0.08638808
37	0xbbef2487	-0.0072980556
38	0xbd77e871	-0.060524408
39	0xbce2c6da	-0.02768271
40	0xbccf6463	-0.025316423
41	0xba887b9c	-0.0010412815
42	0xbd4cbc50	-0.049984276
43	0xbd66c53b	-0.056340437
44	0x3d06acb2	0.03287954
45	0x3e29cf7f	0.1658306
46	0x3d538a0c	0.051645324
47	0x3dff9d58	0.12481183
48	0xbe4850c5	-0.19562061
49	0xbd823357	-0.063574485
50	0xbe021384	-0.12702757
51	0xbd2d8fe8	-0.042373568
52	0xbdadeadb	-0.08492061
53	0xbdd827c9	-0.105544634
54	0xbce37073	-0.02776358
55	0x3cf37b38	0.029721841
56	0xbb2aed03	-0.0026081211
57	0x3d6d638d	0.057956267
58	0x3d7259fb	0.059167843
59	0xbd0740b9	-0.03302071
60	0xbd41d937	-0.047326293
61	0xbd9b089a	-0.0757
62	0x3cd1d34c	0.02561345
63	0xbd696c9f	-0.056988355
64	0x3ced574c	0.02897229
65	0xbd0f20fe	-0.034943573
66	0xbbb0cf26	-0.005395788
67	0xbbf8a82e	-0.007588408
68	0xbe2784b5	-0.16359217
69	0xbd831d13	-0.0640203
70	0xbe273795	-0.16329797
71	0xbc214a5f	-0.009844392
72	0xbd85594e	-0.06511174
73	0xbd76b88c	-0.06023459
74	0x3a9377c4	0.0011250903
75	0xbd0371d7	-0.032090988
76	0xbd1b4e65	-0.03791656
77	0xbdac1e83	-0.08404257
78	0xbdcd8f9f	-0.10037159
79	0xbe164665	-0.14675291
80	0x3cee7c43	0.029111987
81	0x3ce11e64	0.027480312
82	0x3e0a057e	0.13478658
83	0x3dc7cf48	0.09756333
84	0xbda1033d	-0.07861946
85	0xbe2d4a4f	-0.16922878
86	0xbe37d908	-0.17953885
87	0xbd996c24	-0.07491329
88	0x3d75cbb7	0.06000873
89	0x3d07c02a	0.033142246
90	0x3d22f0e3	0.03978051
91	0xbd8eb7f0	-0.06968677
92	0xbd72c9af	-0.05927437
93	0xbcc694e3	-0.024240917
94	0x3d9b22df	0.075750105
95	0xbd34e61b	-0.04416476
96	0xbcbbcfe9	-0.022926288
97	0x3db80e1a	0.08987065
98	0x3db0bf23	0.086302064
99	0xbcfb12e7	-0.030648662
100	0x3d2e9a26	0.042627476
101	0x3d9d94b0	0.076943755
102	0x3d63a0ab	0.055573147
103	0x3d9f4428	0.07776672
104	0xbcb73cf5	-0.022367934
105	0xbcf9278b	-0.030414363
106	0xbd474a82	-0.04865504
107	0x3d98a09d	0.074525096
108	0xbdce37b7	-0.100692205
109	0xbde6e91f	-0.11274933
110	0xbdad797a	-0.084704354
111	0xbe32088e	-0.17386076
112	0xbca381c9	-0.019959347
113	0xbbf52b94	-0.0074820016
114	0x3bfbf6c8	0.0076893307
115	0x3c37446c	0.011185747
116	0x3d031c85	0.03200962
117	0xbca3ebd2	-0.020009909
118	0x3bfe33f2	0.007757657
119	0x3df71c2c	0.1206592
120	0x3c2f98d6	0.010717591
121	0xbcc337e0	-0.023830354
122	0xbb9ad29b	-0.004724813
123	0x3c2c425e	0.01051387
124	0x3d4e67ed	0.05039208
125	0x3d888f75	0.06667987
126	0xbcd0399d	-0.025418097
127	0x3e02a757	0.12759148
128	0x3e100e02	0.14067844
129	0x3e4d7812	0.20065334
130	0x3e433d58	0.1906637
131	0x3e57d01a	0.21075478
132	0x3e578fec	0.21050996
133	0x3e503886	0.20334062
134	0x3e3b624c	0.18299216
135	0x3e7f72ec	0.24946183
136	0xbe4a7229	-0.19770111
137	0xbdfdc26c	-0.12390599
138	0xbe6af4b9	-0.22944917
139	0xbe152b79	-0.14567365
140	0xbe133e9a	-0.1437935
141	0xbe29e0b6	-0.16589627
142	0xbe7516e3	-0.23934512
143	0xbe3a6ad4	-0.18204814
144	0xbd079672	-0.03310246
145	0x3c9891c4	0.018624194
146	0xbd2329a0	-0.03983462
147	0xbe0c6f6f	-0.13714384
148	0xbe3ca9cd	-0.18424149
149	0xbe244a77	-0.16044031
150	0xbe88a9a5	-0.26691929
151	0xbe0ea370	-0.13929534
152	0x3e258149	0.161626
153	0x3e8067df	0.25079247
154	0x3de3a14e	0.11114751
155	0x3e01d0f5	0.12677367
156	0x3cb75c85	0.022382984
157	0xbcd77bef	-0.026304213
158	0xbc09b2c6	-0.008404439
159	0xbc907107	-0.01763202
160	0xbe085147	-0.13312255
161	0xbdbc0995	-0.09181515
162	0xbd7539e8	-0.059869677
163	0xbe26e20b	-0.16297166
164	0xbdcfaafe	-0.10140036
165	0xbe85da90	-0.26143312
166	0xbe65f5fb	-0.22457115
167	0xbe868770	-0.26275206
168	0xbe8e6e5f	-0.2781858
169	0xbe85c427	-0.26126215
170	0xbe90d2ba	-0.28285772
171	0xbe3ee64e	-0.18642542
172	0x3deb70fe	0.11496161
173	0x3e4a8553	0.19777422
174	0x3e3fb8ab	0.18722789
175	0x3e3a7801	0.1820984
176	0x3e556a92	0.20841435
177	0x3e82a700	0.25518036
178	0x3de0a505	0.10968975
179	0x3e4eaaed	0.2018239
180	0x3c4cf2cf	0.012509062
181	0xbdd87171	-0.10568512
182	0xbd66c011	-0.056335513
183	0xbdcabd43	-0.0989938
184	0x3e5d8556	0.21632895
185	0x3e63443a	0.22193995
186	0x3e2a724f	0.16645168
187	0x3e89aba9	0.2688878
188	0xbd019144	-0.031632677
189	0x3abd7959	0.001445572
190	0x3c5d9e5b	0.013526524
191	0xbd9d8154	-0.07690683
192	0xbe42fb05	-0.19041069
193	0xbde72f29	-0.11288292
194	0xbe4800c7	-0.19531547
195	0xbe75d53e	-0.24007127
196	0xbe531e51	-0.20617034
197	0xbe3d743c	-0.18501371
198	0xbe0c09e3	-0.13675646
199	0xbde7cf56	-0.11318843
200	0x3c39b316	0.011334201
201	0x3b8752e1	0.004129753
202	0x3dbf2b19	0.09334392
203	0xbd972650	-0.073803544
204	0x3e8883d7	0.26663086
205	0x3e83b0e9	0.2572091
206	0x3e4a37fb	0.19747917
207	0x3e627c11	0.2211764
208	0xbd88c5ce	-0.06678353
209	0x3c42e113	0.011894482
210	0xbbdd8b58	-0.006760996
211	0x3c32ec91	0.01092066
212	0x3de760b8	0.112977445
213	0x3d741c1a	0.059597112
214	0x3d97ec58	0.07418126
215	0x3d2f1703	0.042746555
216	0x3df2dc07	0.11858373
217	0x3e370117	0.1787151
218	0x3e1c960d	0.15291615
219	0x3e1a2f42	0.1505709
220	0xbdcbefe1	-0.09957863
221	0xbd0da07b	-0.034576874
222	0xbd2cc414	-0.042179182
223	0xbda53972	-0.080675974
224	0x3e1b3825	0.15158136
225	0x3dfde7b8	0.123977125
226	0x3e5308bc	0.206088
227	0x3e7ef1df	0.24896954
228	0x3df790b3	0.12088146
229	0x3e3c5aa4	0.18393952
230	0x3e1a77d8	0.1508478
231	0x3e491d4e	0.19640085
232	0x3c9d47fa	0.01919936
233	0x3e09cc14	0.13456756
234	0x3e0a2a06	0.13492593
235	0x3e10c7b9	0.14138688
236	0xbe353e36	-0.17699513
237	0xbe359b0c	-0.17734927
238	0xbe65cacf	-0.22440647
239	0xbda47426	-0.08029966
240	0x3cbeb39e	0.023279008
241	0x3e017e85	0.1264592
242	0x3c35c416	0.011094114
243	0x3c8a5c16	0.016889613
244	0x3e49a02c	0.19690007
245	0x3e5d329a	0.21601334
246	0x3e26bf03	0.16283803
247	0x3df2541b	0.11832448
248	0x3d8f71e9	0.070041485
249	0x3e1553db	0.1458277
250	0x3e24bd32	0.16087797
251	0x3d6f4a3f	0.058420416
252	0x3e4bb23f	0.19892214
253	0x3e83632b	0.25661597
254	0x3dfec7dc	0.12440464
255	0x3e1906ee	0.1494405

bias f4 [64]
0	0xbd740aee	-0.059580736
1	0xbe81e0ed	-0.25366917
2	0xbe6ec649	-0.23317827
3	0xbd98aafa	-0.07454486
4	0xbd5a91fe	-0.053361885
5	0xbd68937b	-0.056781273
6	0xbd4d4ff4	-0.050125077
7	0xbe7e2567	-0.24818955
8	0xbdb1a444	-0.08673909
9	0xbdc827ff	-0.09773254
10	0xbd30b1ea	-0.043138422
11	0xbe8cca49	-0.2749808
12	0xbdee44a6	-0.116341874
13	0xbe33d773	-0.17562656
14	0xbe172f73	-0.14764194
15	0xbd64d119	-0.055863474
16	0xbdd10a60	-0.10207057
17	0xbe63141b	-0.22175638
18	0xbe3011c8	-0.17194283
19	0xbd9cf083	-0.076630615
20	0xbd3686e5	-0.04456224
21	0xbe0fa13c	-0.1402635
22	0xbb36244d	-0.0027792633
23	0xbe1d9ca2	-0.15391782
24	0xbced7f73	-0.028991437
25	0xbd29a2bc	-0.04141496
26	0xbdf1357f	-0.11777782
27	0xbdc1ead0	-0.09468615
28	0xbca39546	-0.01996864
29	0xbd819f82	-0.06329252
30	0xbdac163d	-0.08402679
31	0xbe84dfc5	-0.25951973
32	0xbe00d3e9	-0.12580837
33	0xbe92ea71	-0.2869449
34	0xbdb4b21d	-0.08823035
35	0xbe434cc8	-0.19072258
36	0xbd9e917c	-0.07742593
37	0xbb8ed50f	-0.0043588947
38	0x3aecdff2	0.0018072112
39	0xbead79cf	-0.33881995
40	0xbd42e1c3	-0.047578584
41	0xbe2dec73	-0.1698473
42	0xbd3412a2	-0.043963082
43	0xbdbe286a	-0.09285052
44	0x3cc05e70	0.023482531
45	0xbdc2907d	-0.09500215
46	0xbdf4e58a	-0.119578436
47	0xbd37b6b8	-0.04485199
48	0xbe2d0342	-0.16895774
49	0xbd20a8eb	-0.039223593
50	0xbd82a969	-0.06379969
51	0xbe3c0628	-0.18361723
52	0xbd9a874f	-0.07545339
53	0x3c43a57d	0.011941311
54	0xbc909e36	-0.017653566
55	0xbe85e51f	-0.26151368
56	0xbdaeeb14	-0.08540931
57	0xbe271bd5	-0.16319211
58	0xba32c02d	-0.00068187976
59	0xbdde339b	-0.10849687
60	0xbe2f2554	-0.17104083
61	0xbdabf52d	-0.08396373
62	0xbd36e5b5	-0.04465266
63	0xbca05195	-0.019570151

weight f4 [64, 64, 2, 2]
0	0x3d17f49f	0.037098523
1	0x3bfc23b5	0.0076946863
2	0x3cbffbc7	0.023435486
3	0x3ddf7ea2	0.10912825
4	0x3e33b6ae	0.17550156
5	0x3de29d5f	0.110651724
6	0x3de631f4	0.112399966
7	0x3e12961f	0.14315079
8	0x3e093dd1	0.13402487
9	0x3e3ab944	0.18234736
10	0x3e202bdd	0.15641733
11	0x3e05cd35	0.13066562
12	0x3d132276	0.035921536
13	0xbb8965ed	-0.0041930587
14	0x3d6f9176	0.05848833
15	0xbd1de757	-0.0385507
16	0x3e18c65b	0.14919417
17	0x3d77e74a	0.06052331
18	0x3d6ffe93	0.05859239
19	0x3d055f1a	0.0325614
20	0x3cb443c4	0.02200497
21	0x3d80ed7f	0.06295299
22	0x3d5b0809	0.05347446
23	0x3d340114	0.04394634
24	0x3ccb6b24	0.024831362
25	0x3c8717fc	0.016490929
26	0x3c18e700	0.009332418
27	0xbc570600	-0.013123989
28	0x3e1057c8	0.14095986
29	0x3e4075ad	0.1879489
30	0x3e42aba1	0.19010784
31	0x3e1d5e86	0.15368089
32	0xbd01f08c	-0.031723544
33	0xbd2e86d7	-0.042609062
34	0xbc5a0630	-0.013307139
35	0xbd1cbf3c	-0.038268313
36	0xbac3d202	-0.0014939907
37	0xbd69e9c7	-0.057107713
38	0xbc591766	-0.0132502075
39	0x3ba78cf2	0.0051132375
40	0x3da7a246	0.08185248
41	0x3cd01006	0.025398266
42	0xbc9613c4	-0.018319972
43	0xbcdbf474	-0.026849963
44	0x3e390047	0.18066512
45	0x3e227d93	0.15868215
46	0x3de2a398	0.11066359
47	0x3dacce31	0.084377654
48	0x3e23a6fd	0.1598167
49	0x3e459532	0.19295195
50	0x3e664d49	0.2249042
51	0x3e029027	0.12750302
52	0x3d92f36d	0.07175336
53	0x3d4a0df5	0.049329717
54	0x3d7d08b4	0.061775878
55	0xbd5b6350	-0.05356151
56	0x3dd8a5f2	0.105785266
57	0x3dd7dc60	0.1054008
58	0x3dca13f3	0.09867086
59	0x3d7773e8	0.06041327
60	0x3d1f6034	0.038910106
61	0x3dec05f6	0.115245745
62	0x3ced8fc6	0.02899922
63	0x3c7ebca7	0.015547908
64	0x3c022755	0.007943948
65	0xbcc494be	-0.023996707
66	0x3cd2653e	0.025683042
67	0xbc8ef426	-0.017450403
68	0x3e40e1e8	0.18836176
69	0x3e46c5fa	0.1941146
70	0x3e40059c	0.1875214
71	0x3e227765	0.15865858
72	0xbd6c8e4b	-0.05775289
73	0xbd018fb4	-0.031631187
74	0x3c0022b4	0.007820774
75	0x3cb86bdc	0.022512369
76	0x3d288218	0.041139692
77	0xbd01d93f	-0.031701323
78	0x3ceb7b44	0.028745301
79	0x3d7b8a64	0.061411276
80	0x3cce8c05	0.02521325
81	0xbcf93864	-0.030422397
82	0x3cf0a178	0.02937387
83	0x3d4fd8d4	0.050743893
84	0x3cd5fbf3	0.026121115
85	0x3cec429e	0.02884036
86	0xbc24206e	-0.010017497
87	0xbc9dc654	-0.01925961
88	0x3d556ff7	0.05210873
89	0x3df32173	0.11871614
90	0x3deeae77	0.1165437
91	0x3bf24942	0.007393987
92	0xbbf58f8c	-0.0074939188
93	0x3d370f00	0.04469204
94	0x3d1bcc0b	0.038036387
95	0x3d0a78cb	0.033806603
96	0x3d9f1bef	0.07769
97	0x3d6a86af	0.05725735
98	0x3c5eb182	0.013592126
99	0x3cf0c772	0.029391978
100	0x3d4855e1	0.048910026
101	0x3da7df29	0.08196861
102	0xbbc2cb66	-0.005944657
103	0xbc7eb36c	-0.015545707
104	0x3d871b9d	0.06597064
105	0xbc6aeddc	-0.014338937
106	0x3d8db94d	0.06920109
107	0xbc63890e	-0.013887657
108	0x3d256765	0.040381808
109	0xbd051b2d	-0.03249662
110	0xbd290410	-0.04126364
111	0x3d0b2ed8	0.03398022
112	0x3d16218c	0.036653087
113	0x3d9c366d	0.076275684
114	0x3c19cbc0	0.009386957
115	0x3d991915	0.07475487
116	0x3d34f1d3	0.044175934
117	0x3c1786fc	0.009248491
118	0x3d3443ee	0.044010095
119	0x3d216283	0.03940059
120	0x3d81ac0c	0.063316435
121	0x3cfe65bb	0.031054368
122	0xbd04af26	-0.032393597
123	0x3cb0846e	0.021547522
124	0x3e25cc6b	0.1619126
125	0x3e19a7bd	0.15005393
126	0x3df6fd70	0.12060058
127	0x3e4a63af	0.19764589
128	0xbe2e369d	-0.17013021
129	0xbe723ae1	-0.23655273
130	0xbe4e5c1d	-0.20152326
131	0xbe26819f	-0.16260384
132	0xbe0fcd4f	-0.14043163
133	0xbe5be68e	-0.21474668
134	0xbe220094	-0.15820533
135	0xbe17bbef	-0.14817785
136	0x3db299b9	0.087207265
137	0x3cb5b619	0.022181557
138	0x3bcc4201	0.006233454
139	0x3d3d650d	0.046238948
140	0xbc3107ff	-0.010805129
141	0xbdeafb5e	-0.11473726
142	0xbd5f9b77	-0.054591622
143	0xbdbb7c1e	-0.09154533
144	0x3d2c9670	0.042135656
145	0x3c8c75f4	0.017146088
146	0x3c39048d	0.011292589
147	0x3d028c5b	0.031872135
148	0x3c614e73	0.013751614
149	0x3d68682b	0.056739967
150	0x3cfef955	0.03112475
151	0xbc9067f1	-0.017627688
152	0x3d9e00f7	0.07715028
153	0x3cc0349d	0.023462588
154	0x3da87208	0.08224875
155	0x3da48204	0.08032611
156	0x3d49dfe3	0.04928578
157	0x3d2b3463	0.041798007
158	0xbc85b8fb	-0.016323557
159	0x3ce4d402	0.027933124
160	0xbbc3647c	-0.0059629064
161	0xbceee6b1	-0.029162737
162	0x3d8c05a9	0.06837017
163	0x3d582ab4	0.0527751
164	0xbd514eac	-0.051100418
165	0xbd26873f	-0.040656324
166	0xbc2c3846	-0.0105114635
167	0xbd88505e	-0.06655954
168	0x3d58e461	0.052952174
169	0xbc239204	-0.009983543
170	0x3d500d54	0.05079396
171	0x3d55c228	0.052187115
172	0x3d95182e	0.072800025
173	0x3d2d2fa3	0.042281758
174	0xbce5499d	-0.027989203
175	0x3c751eaa	0.014960924
176	0x3caffa79	0.02148174
177	0x3d00634b	0.031344693
178	0x3e02e735	0.12783511
179	0x3d2dfb8c	0.042476222
180	0xbdb91db0	-0.090388656
181	0xbe16257e	-0.1466274
182	0xbe0ecdc8	-0.13945687
183	0xbde60b0b	-0.11232575
184	0x3d76ca77	0.06025168
185	0xbce743f5	-0.028230647
186	0x3d8a3d88	0.067500174
187	0x3d5fdba9	0.054652844
188	0x3c979c56	0.018507164
189	0x3d4c5447	0.04988506
190	0x3b7a0fc0	0.003815636
191	0x3d2f09cf	0.042733964
192	0xbd5d5c3c	-0.05404304
193	0xbce591af	-0.028023569
194	0xbdc33838	-0.09532207
195	0x3cbf16ef	0.023326365
196	0x3b6acc27	0.003582725
197	0x3ca532dc	0.020165853
198	0x3dbda1ed	0.092594005
199	0xbcfa0e1a	-0.030524302
200	0xbc8282ce	-0.015931513
201	0x3c66706b	0.0140648885
202	0x3d25144f	0.04030257
203	0xbd4cb4e1	-0.049977187
204	0xbdbea6d9	-0.093091674
205	0xbdc1c872	-0.0946206
206	0xbe16e8ce	-0.14737245
207	0xbd8d6d08	-0.06905562
208	0x3dbdebb0	0.092734694
209	0x3d59c178	0.05316302
210	0x3d3778cd	0.04479294
211	0x3dee5293	0.116368435
212	0x3d89d1d9	0.067294784
213	0x3dfa3233	0.12216606
214	0x3ce34bea	0.02774616
215	0x3d817d5e	0.0632274
216	0x3d20bd8f	0.039243277
217	0x3c2d644a	0.010582993
218	0x3c930c15	0.017950097
219	0xbc6e80e1	-0.014557094
220	0x3e310d83	0.1729031
221	0x3e4e35b0	0.20137668
222	0x3e48b41c	0.19599956
223	0x3e50e652	0.2040036
224	0x3c83a5a8	0.016070202
225	0xbafafb66	-0.0019148409
226	0x3d8289c3	0.06373932
227	0xbcb4ba7c	-0.022061579
228	0xbba841e6	-0.005134809
229	0x3c61587d	0.013754007
230	0xbd9cdcb8	-0.07659286
231	0x3d16bf22	0.036803372
232	0x3da4bf54	0.080443054
233	0x3d89c879	0.0672769
234	0x3ce5778f	0.028011112
235	0x3bd4d398	0.0064949505
236	0xbcc420c1	-0.0239414
237	0x3d3ecff1	0.046585027
238	0x3c85b0a8	0.016319588
239	0x3c8fed9e	0.01756936
240	0xbdf3dfef	-0.11907946
241	0xbe32bffd	-0.1745605
242	0xbe586df4	-0.21135694
243	0xbdd55a55	-0.1041762
244	0xbd35c834	-0.04438038
245	0x3d2f4547	0.042790677
246	0x3d0857dd	0.033286918
247	0xbd35c07f	-0.04437303
248	0xbba96d32	-0.005170488
249	0xbd0e8f52	-0.03480465
250	0x3c9f11c9	0.01941766
251	0x3cd3ecf7	0.02586983
252	0x3d267842	0.04064203
253	0xbd080d85	-0.03321602
254	0x3d41bf92	0.047301836
255	0x3bbe4b9c	0.005807353

bias f4 [64]
0	0x3e52aec6	0.20574483
1	0xbd4126cf	-0.04715615
2	0x3e2cf46f	0.16890119
3	0xbba3cec1	-0.004999012
4	0x3d7e038b	0.062015098
5	0x3ca822ee	0.020524468
6	0xbe1b32cb	-0.15156095
7	0x3a8121ab	0.0009851953
8	0xbe26f626	-0.16304836
9	0xbd466fab	-0.04844634
10	0xbdd5ca5d	-0.10438988
11	0x3d3987b3	0.04529543
12	0x3eabb372	0.33535343
13	0xbc37b98f	-0.011213674
14	0xbcb63ca6	-0.022245716
15	0x3d5c4b98	0.05378303
16	0xbdb7300b	-0.0894471
17	0x3ca30f7d	0.019904846
18	0x3e980085	0.29687896
19	0xbd4f226a	-0.05056993
20	0x3e42ba17	0.190163
21	0xbdbf2909	-0.09333999
22	0x3ca6d708	0.020366207
23	0xbc8105e9	-0.015749888
24	0x3de29eb7	0.11065429
25	0xbec80ab6	-0.39070672
26	0xbe2a1790	-0.16610551
27	0x3e1beab1	0.15226246
28	0x3cf11a00	0.029431343
29	0x3c1d48cb	0.009599875
30	0xbdc827a6	-0.09773187
31	0x3e2d8665	0.16945799
32	0x3de15c18	0.110038936
33	0xbeae8c89	-0.34091595
34	0x3d748f56	0.05970701
35	0x3e4bedd7	0.19914947
36	0xbe2f3d03	-0.17113118
37	0xbd97bac6	-0.07408671
38	0x3e2bc1b5	0.16773112
39	0xbc6a546f	-0.014302357
40	0x3e3a5ca5	0.18199404
41	0xbe12752c	-0.1430251
42	0xbe37c33c	-0.1794557
43	0x3dcd3dcd	0.10021553
44	0x3e2594c0	0.16170025
45	0xbebbc744	-0.36675465
46	0x3d140671	0.036138956
47	0x3da35de0	0.079768896
48	0xbe9161fd	-0.28395072
49	0x3d62e025	0.055389542
50	0x3dd19af8	0.10234636
51	0xbda3676c	-0.079787105
52	0xbe2052c9	-0.1565658
53	0xbdb5fe95	-0.08886448
54	0xbd975cf3	-0.073907755
55	0x3e48e740	0.19619465
56	0xbe07c07c	-0.1325702
57	0xbdc8065e	-0.097668394
58	0x3e1a7ce9	0.15086712
59	0x3c5d2e16	0.013499757
60	0x3d168d46	0.036755823
61	0x3e22a1da	0.15882054
62	0x3d763870	0.060112417
63	0x3e254188	0.1613828
