output/train_16_12_23_part-5/unet_tgs_salt.pth (torch, 248279 bytes, 26 tensors)

weight f4 [16, 3, 2, 2]
000000 10 fd 3f be ed 6b 61 bd 6f e9 5a be 6e 81 13 be
       -0.1874888 -0.055034567 -0.2137811 -0.14404842
000010 bf e7 5a bd 31 0a 3d be 6a de 92 be d0 cf ff bd
       -0.053443667 -0.18460919 -0.28685313 -0.12490809
000020 a7 43 f6 3d 97 4f 8c be 76 19 5a be 94 e9 ce 3c
       0.120246224 -0.27404472 -0.21298775 0.025257863
000030 ff a0 10 3e 48 8e 6c be 2e ff 24 3e ec 20 26 be
       0.14123915 -0.23101151 0.16112968 -0.16223496
000040 a5 57 9f 3d d6 d4 8f 3e 0c b1 cc 3d 1f 65 fe 3c
       0.07780389 0.28092068 0.099947065 0.031054078
000050 32 d7 8d be 6a 6d b0 bd 83 34 4c 3d 11 da fd bd
       -0.27703243 -0.08614619 0.049854767 -0.123951085
000060 bc 1d 25 be a1 57 52 be ec ee 6e be 93 6e aa bc
       -0.16124624 -0.2054124 -0.23333329 -0.020804679
000070 db 23 07 3e a2 fd 10 be d2 32 94 3d 89 4d 07 be
       0.13197272 -0.14159253 0.07236256 -0.13213171
000080 cd cc 82 3c ec 80 66 3e 1a 81 d7 bd 02 01 af 3c
       0.015966797 0.22510117 -0.10522671 0.021362785
000090 4e ac aa bc 4a fa e6 3d 2a 5d 92 3e 19 97 55 be
       -0.020834114 0.112782076 0.28586704 -0.2085842
0000a0 2c bb a3 bd dc ba 63 3e b3 77 26 3d 1c 43 0a be
       -0.079946846 0.2223925 0.040641498 -0.13502163
0000b0 b4 d5 b1 3d 8f c0 62 be 6d e0 52 bd 55 4d 5b 3e
       0.08683339 -0.22143768 -0.05148356 0.21416219
0000c0 fe aa 44 3e 5d a3 2d 3e e0 ac 40 3e 48 9e fd bd
       0.19205853 0.1695685 0.18815947 -0.123837054
0000d0 1d 6a 8d 3c a8 ae cc bd 26 6e b3 bc ec f1 c5 bb
       0.017262513 -0.099942505 -0.021903109 -0.006040802
0000e0 38 4e b0 bd 33 28 41 3e 76 4e c8 bd 3c 3b 68 3e
       -0.08608669 0.18862991 -0.0978059 0.22678846
0000f0 02 63 36 be 8a 4c 10 3e 25 b2 60 3e 4c 51 88 bd
       -0.17811206 0.14091697 0.21942957 -0.06656131
000100 94 22 55 3e 8e ad 42 3b 90 ea 79 3e 5b 7f 78 be
       0.20813972 0.0029705497 0.24405885 -0.24267332
000110 ab 4c 6b bd 7a 3b 0f be 7b 9b ad bd 7e 2a 3d bc
       -0.057446163 -0.13987532 -0.08476921 -0.011545775
000120 27 d9 73 3e 21 14 7f 3e f2 96 98 3d 45 35 2a 3e
       0.23813306 0.24910022 0.074506655 0.16621883
000130 cd 54 99 3e 08 15 06 be 35 ce ec bc 8c 8f 31 3c
       0.2994751 -0.1309396 -0.02890692 0.010837447
000140 50 39 28 3e fc 30 74 3e fb f0 92 3b cd 67 2c 3e
       0.16428113 0.23846811 0.0044842935 0.16836472
000150 c5 27 fb 3d e5 9c 3c 3e 9e 67 88 3e 3d ba 97 be
       0.12263445 0.18419226 0.26641554 -0.29634276
000160 b7 63 20 3e 2f db 58 3e f9 37 d3 3d c1 6f c9 bd
       0.15663038 0.21177362 0.1031341 -0.098357685
000170 5a 1d 57 bd 1f 62 8c bb 0c e3 0a bc 94 79 7e be
       -0.052518226 -0.004284158 -0.008476984 -0.24851066
000180 70 6f 65 3e b8 d0 70 be 69 a7 13 bc b8 04 87 be
       0.22405791 -0.2351712 -0.009012082 -0.26370788
000190 06 03 b4 3c e9 0f 60 3c 20 e2 c0 bd 61 9d 96 3e
       0.021974098 0.013675668 -0.0941813 0.29416946
0001a0 50 aa 5a 3e 93 76 84 3b b7 d9 c4 bd 96 d7 18 3e
       0.21354032 0.0040424555 -0.09611838 0.1492599
0001b0 b3 66 a7 3d 59 a1 1c 3e ef 5b cb 3d ac ce 0b 3e
       0.08173885 0.15295924 0.09929644 0.13653058
0001c0 36 9b aa 3a 8e 8d 7f 3e 33 0c 1e 3e ce b9 8c bd
       0.0013016227 0.24956343 0.15434341 -0.06871377
0001d0 cc d1 63 be 0e 7b 14 3e e2 d3 ad 3d 0b 15 17 be
       -0.22248 0.14500067 0.08487679 -0.14754121
0001e0 1c 4f 37 3e bb 85 e5 bd d8 94 50 be 95 5c ad bd
       0.17901272 -0.11207148 -0.2036928 -0.08464924
0001f0 d6 41 6f bd 6a 09 93 3e ef 35 06 be 3f 6f 9d 3c
       -0.058412395 0.2871812 -0.13106512 0.019218085
000200 ab 17 8b 3e 23 b3 80 3e ed eb ba bc 57 a6 90 bd
       0.27166495 0.2513667 -0.022817576 -0.07062977
000210 6d d1 1f be 04 ac ed bd 64 72 0b bb c4 74 9f bb
       -0.15607233 -0.11605075 -0.00212779 -0.0048662145
000220 95 95 97 3e fa b5 25 3e fa 59 d8 bc 0e 20 44 3e
       0.2960631 0.161827 -0.026410092 0.19152853
000230 d2 1b d2 bd 90 a1 13 3e cc 1e 93 3e 3e d0 99 3e
       -0.102592126 0.144171 0.28734434 0.3004169
000240 c2 34 18 3e 2c 18 1d 3e 99 4e 18 be e3 5b 80 be
       0.14863876 0.15341252 -0.14873733 -0.25070104
000250 d7 d3 fe bd 17 8b 92 bc 84 58 16 3e 38 b3 c9 bd
       -0.12442749 -0.017888589 0.14682204 -0.098486364
000260 92 bb 84 be b7 d7 19 3e 8f e0 bd 3d 64 04 8b 3e
       -0.25924355 0.15023695 0.09271347 0.27151787
000270 77 43 16 3e 6b ce 30 3e 93 6e 16 3d 7d d3 5a be
       0.14674173 0.17266242 0.036726546 -0.21369739
000280 5e 37 8c 3e d9 bd 24 3c b4 c5 ed 3d fd 84 b6 bd
       0.27385992 0.010055029 0.116099745 -0.08912084
000290 62 20 34 3e 67 6f 6f be b5 b9 db bb df 65 b6 bd
       0.17590478 -0.2338234 -0.0067054876 -0.08906149
0002a0 2a 0e 19 3c 01 d1 83 3e c1 2f cc bc 45 f5 80 be
       0.009341756 0.25745395 -0.024925115 -0.25187126
0002b0 ce 53 89 be 1c bd 31 bb 77 bb 7a 3e e6 fc a3 3d
       -0.2682175 -0.0027120775 0.24485575 0.08007221
0002c0 b6 02 42 bd 62 9f 66 be 27 84 8c be de ca 67 3e
       -0.047365867 -0.22521737 -0.27444574 0.22635981
0002d0 68 4d 12 3e 58 e7 58 bd 4c 0e 8f 3e 4b a3 73 be
       0.1428734 -0.052955 0.27940595 -0.2379276
0002e0 e5 24 71 3e e5 e2 e0 3d 11 19 b0 3d 93 0e 7e 3e
       0.2354923 0.10980777 0.08598531 0.24810247
0002f0 af 6d 23 3d 5c 6b 02 3e 8c 7a 83 be 22 24 6d bd
       0.039899524 0.12736267 -0.25679433 -0.057895787

bias f4 [16]
000000 c2 7e 84 be c4 35 e7 bd 54 57 75 be e7 1f 92 be
       -0.2587796 -0.11289552 -0.23959094 -0.28539965
000010 b2 56 c4 bd 0b 84 58 3d dd 40 61 be 15 65 8e be
       -0.09586848 0.0528603 -0.219974 -0.27811494
000020 05 01 52 3d ca 88 2c 3e f6 bf cc 3b ae a2 52 3d
       0.051270504 0.16849056 0.0062484695 0.051424675
000030 34 ad 78 be 03 5b 48 bd e7 23 c4 bd 71 93 4a 3e
       -0.24284822 -0.04891492 -0.0957716 0.19782807

weight f4 [16, 16, 2, 2]
000000 28 9d 6b bd ca 5c cf 3d 52 41 cf bd 54 55 ab 3d
       -0.057522923 0.1012512 -0.10119881 0.083658844
000010 6a 71 c5 3d 92 a0 27 3d f1 2d f0 bd fd e6 cd bc
       0.09640773 0.040924616 -0.11727513 -0.025134558
000020 80 57 17 3d 0c 35 54 bd a8 e1 c0 3d 08 b3 b3 3c
       0.03694868 -0.051808402 0.094180405 0.021935955
000030 46 86 74 3d aa 64 f8 bd fe 7e 6b bd e7 7c 27 3c
       0.059698366 -0.12128575 -0.057494156 0.01022265
000040 df e8 d9 bd b1 ae 78 3d f8 38 d0 3c 1a 16 6c 3d
       -0.1064012 0.060713474 0.02541779 0.057638265
000050 51 da 35 bd 08 db b6 3d 27 35 d3 3d b0 df c9 bc
       -0.044397656 0.08928496 0.103128724 -0.024642795
000060 35 c5 f0 3d 2c 74 2f 3c c0 ec e2 3d 73 10 aa 3c
       0.11756364 0.01070885 0.11080313 0.020759797
000070 af ee ab 3d cf 80 9b 3d cb 80 86 bc 20 30 b1 bd
       0.08395135 0.07592928 -0.016418835 -0.08651757
000080 07 b4 a6 3d da 19 92 bc 45 17 01 3e 94 0d be bd
       0.08139806 -0.017834593 0.12606533 -0.092799336
000090 65 91 8c bc 03 e8 41 3d 8d b9 e8 3d 03 d6 18 bd
       -0.017159173 0.047340404 0.11363516 -0.037313472
0000a0 31 83 46 3d dc 7b 96 3d 64 34 76 3d a6 49 f8 bb
       0.048464958 0.07347843 0.060108557 -0.007577139
0000b0 fb 5c 2c 3d 6f 9f 83 bd 0d 05 c5 bc 0c 82 b6 3b
       0.04208086 -0.06426894 -0.02405026 0.005569702
0000c0 ca 5b 74 3d 54 31 dd 3d 61 08 80 bb ed 2c cd 3d
       0.05965785 0.10800424 -0.003907249 0.100183345
0000d0 c7 c8 dc 3d ce 48 e2 3c 0c 95 9f 3c 02 2c 32 3d
       0.10780483 0.027622607 0.01948025 0.043499
0000e0 bf fc eb bd ba 55 04 3d 24 c7 aa bb b6 86 e0 bd
       -0.11522817 0.032308318 -0.0052117277 -0.10963194
0000f0 30 db ca bc 1f b6 ed bc e6 df 57 3d 2e 93 cd 3d
       -0.02476272 -0.029017506 0.05270376 0.10037838
000100 96 45 c2 bd 58 3b c2 3d 30 e8 de 3d 40 db 8c bc
       -0.09485929 0.09483975 0.1088413 -0.01719439
000110 92 99 32 bd 25 6b bd bc 34 d8 91 3d af 7a af bd
       -0.043603487 -0.02312238 0.071213156 -0.08568322
000120 14 89 5a bd 4c c1 fc bd 70 ac 47 bc 6e 76 ee 3d
       -0.053353384 -0.12341556 -0.012187108 0.116436824
000130 ea bf 2b 3d 28 1c bf bd 87 43 a5 3d ec 1f b0 3b
       0.04193107 -0.09331542 0.080695204 0.005374899
000140 65 bd bc bd 29 fe 09 bc a3 19 00 bd 3e 83 18 bd
       -0.09215812 -0.008422413 -0.03127445 -0.037234537
000150 82 bb fb 3d 1a d4 e9 bd 69 30 80 bd 08 52 40 bd
       0.12291624 -0.11417408 -0.062592335 -0.04695323
000160 15 92 bb ba 47 d2 fb bc 99 1d e2 3d 49 0a 0c bd
       -0.0014310504 -0.030739916 0.110408016 -0.034189496
000170 67 13 85 bc 1c 64 ad 3d 1a 60 9c bd 57 98 73 bd
       -0.016244603 0.0846636 -0.076355174 -0.059471454
000180 c4 04 95 bc f2 3f 01 bd fe bc e7 3d 98 74 c0 3d
       -0.018190749 -0.031555124 0.11315344 0.093972385
000190 97 d8 c4 3d c5 4b c5 bd 9d ac 0f bc 00 17 ec bd
       0.09611624 -0.096335925 -0.008769182 -0.115278244
0001a0 58 24 b3 bd 0c 78 9d bd db 6b cf bd fd de 7b 3d
       -0.087471664 -0.07688913 -0.10127994 0.061491955
0001b0 72 f6 0a 3d 9d 2e b5 3d 81 55 26 bc 58 9c 94 3d
       0.033926435 0.088467814 -0.010152222 0.07256383
0001c0 6b 88 4c bc b8 53 df bd 17 28 9f bd c7 73 79 3d
       -0.012483696 -0.1090464 -0.077713184 0.06090143
0001d0 90 59 f8 3d d0 33 e8 bd 4f 28 0f bd 4a 4f dd 3c
       0.12126458 -0.113380075 -0.03495055 0.027015347
0001e0 7a bc 52 3d a6 ae ed bd 46 77 c9 3d 4d b9 3f bd
       0.051449277 -0.11605577 0.09837203 -0.046807576
0001f0 76 40 bf 3d 4a fd 01 3e e9 bd e4 bc b0 a1 8b 3d
       0.09338467 0.12694278 -0.027922587 0.06817949
000200 10 94 92 3c 14 8c be bd 30 b7 c8 3d 80 d0 57 bc
       0.017892867 -0.093040615 0.09800565 -0.013172269
000210 3b d7 d4 bd db 39 86 bd b1 81 ce 3d ff 19 80 bc
       -0.103926145 -0.06554004 0.100833304 -0.015637396
000220 d2 f0 8d bd 70 51 47 3c a2 3c 80 bd a0 8f 0c 3c
       -0.069306985 0.012165412 -0.06261565 0.008579165
000230 fb 4c 2c 3c 5a fe 0c bc 05 ad 25 3d 8b f8 78 3d
       0.0105164 -0.008605564 0.040448207 0.060783904
000240 14 46 83 bc 32 3a 5b 3b 50 8e 97 bd 6d a8 b1 bd
       -0.016024627 0.0033451435 -0.07400191 -0.08674703
000250 af ea c0 bd 74 00 08 bd f6 8e 81 bd 74 d1 c1 3d
       -0.09419762 -0.033203557 -0.06326096 0.09463778
000260 3d 22 84 bd 9e c6 66 bd ba b7 83 bb 6d e6 55 3c
       -0.06451843 -0.05634176 -0.0040197046 0.013055426
000270 7c 06 8b bd 7a 1b 00 bd e7 66 cb 3d e5 78 5a bd
       -0.06788346 -0.031276204 0.099317364 -0.05333795
000280 8b 1c 04 bd 15 cc cf 3d 3c 0f b4 3d c6 99 38 3c
       -0.032253783 0.101463474 0.08791968 0.011267131
000290 40 4b ac bb 6e 69 be bd b1 58 0e be ea 08 ba bd
       -0.005257994 -0.09297453 -0.1390102 -0.090837315
0002a0 6c a4 5d bd 43 c7 ac bc 67 5a 13 be 6d 03 b8 bd
       -0.054111883 -0.02109111 -0.14389955 -0.089850284
0002b0 71 98 e4 bd 5d 5a 65 3d 2f 6c 48 3c 3e 8c c7 bd
       -0.111618884 0.05599438 0.012232824 -0.09743546
0002c0 0a 3f db 3c 1d a8 15 3d c7 b2 d1 3d dd 9a d7 3b
       0.026763458 0.03653728 0.10239177 0.0065797404
0002d0 c2 07 a3 3d 0c 61 86 3c 70 7f 01 3d 80 f8 0b bc
       0.07960464 0.016403697 0.031615674 -0.008543134
0002e0 73 fe fc 3b 91 76 f5 3d 7e 62 65 3d 81 33 e1 3b
       0.0077207624 0.11985505 0.056002133 0.006872595
0002f0 5a 64 24 bd 1e b3 9f bd c2 46 b7 3d c8 49 10 be
       -0.040134765 -0.07797836 0.08949043 -0.14090645
000300 c0 03 20 bd 24 96 89 3d 54 a0 59 3d 08 d4 ab bc
       -0.039066076 0.0671809 0.053131416 -0.020975128
000310 89 db cb 3d 52 0c 24 bd f9 89 38 bd 0d 7e f7 3d
       0.099539824 -0.040050812 -0.045053456 0.12084589
000320 f8 cb a2 bd 08 6c da 3d 82 6d dc bd 9c 6a 10 3d
       -0.0794906 0.106651366 -0.107630745 0.03525792
000330 70 69 18 bd 9e d2 dc 3d 7f ba 87 3d b3 ff 93 bd
       -0.037209928 0.107823595 0.06627368 -0.07226505
000340 97 53 eb bd 6d 1d 65 3c 54 59 e8 3b 2f d4 bd 3d
       -0.11490553 0.013984066 0.007090727 0.092689864
000350 18 c0 e3 bd f3 b1 03 be dd 84 95 3d d0 a3 44 bd
       -0.11120623 -0.12860851 0.07300732 -0.048007786
000360 9a ca 83 3b 4e 9a 08 be 43 34 01 bd 61 05 3b 3d
       0.0040219547 -0.13340113 -0.03154398 0.045659427
000370 a2 1b ee 3c e3 ca d0 3d 50 1e 76 3c be f8 9f 3d
       0.02906591 0.101949476 0.0150218755 0.07811116
000380 7d 3b a5 3d 92 b5 e4 bc c3 f7 9e 3d 53 cf b6 bc
       0.08067987 -0.02791861 0.077621005 -0.022315657
000390 40 86 c9 3a a2 0b e2 bd 85 9e 22 bd 46 0b ba bc
       0.0015375093 -0.11037375 -0.039701957 -0.022710454
0003a0 3d 25 6a 3d cd a6 3e bd 17 32 0a be 1f c2 71 bc
       0.05716442 -0.046545792 -0.1349567 -0.014755755
0003b0 48 f2 ac bd de c9 d3 bd de 39 13 be 03 6b 79 3d
       -0.08444649 -0.103412375 -0.14377543 0.06089307
0003c0 d3 f3 36 3d 26 85 24 bd 1e af a7 3c 01 55 de bd
       0.044666123 -0.040166043 0.020469245 -0.10856057
0003d0 93 16 a4 bd f7 de 38 3d 77 70 5f bc 1f 5f bb bd
       -0.08012118 0.04513451 -0.013637654 -0.09149002
0003e0 3d e8 03 bd 47 22 8a 3c e1 58 ba bd 50 67 fc 3d
       -0.0322039 0.016862048 -0.090989836 0.12324393
0003f0 c8 c5 01 bd bb be e6 3c 75 8b 63 3d 55 b3 d4 bc
       -0.03168276 0.02816712 0.05555292 -0.025964418

bias f4 [16]
000000 fc d0 a5 bd d8 9f 19 3d fe 61 12 be c4 83 8e 3d
       -0.08096501 0.037505955 -0.14295194 0.06958726
000010 da 09 b1 bd d0 fe bb bd 72 72 b0 3d f0 35 87 3d
       -0.08644457 -0.09179461 0.08615579 0.06602085
000020 e0 73 de bc 57 4d c8 bc 29 02 cc 3d 9c 99 5d 3d
       -0.027154863 -0.024450941 0.099613495 0.05410157
000030 44 55 9d bc 77 47 36 bd 17 ab 5b bd 3e be 66 bd
       -0.019205697 -0.044501748 -0.05362996 -0.056333773

weight f4 [32, 16, 2, 2]
000000 21 91 a7 3d b9 95 ad bd be 40 3b 3d 41 6f 2b 3d
       0.08181978 -0.08475823 0.04571604 0.041854147
000010 13 39 cc bd 5f 57 23 bd 79 4c e8 bd 54 73 be 3d
       -0.099718235 -0.039878245 -0.11342711 0.09299341
000020 29 37 36 bd 75 0d 3a bd 24 ff c4 bb 9a e1 2d bd
       -0.0444862 -0.04542299 -0.0060118604 -0.04245148
000030 91 de 7c 3b 37 3a e3 bd a5 f7 b5 bd 65 72 07 be
       0.0038584808 -0.11095088 -0.08885125 -0.13227232
000040 80 f8 92 bd ef ef ae bd b0 2f d3 bd 3f 2c 01 3d
       -0.07176304 -0.085418575 -0.1031183 0.031536337
000050 f8 8d a7 bd c7 f1 d8 3d bf c8 e0 3c 81 14 7e 3d
       -0.08181375 0.1059299 0.027439473 0.062031273
000060 50 c5 7d 3d ca 97 21 3d 85 be 06 bd a0 1d 1b bc
       0.06195575 0.039451398 -0.032896537 -0.009467512
000070 8f a8 4e 3c 16 04 f2 3d cf 4c f1 bc 72 f0 f5 3d
       0.01261343 0.118171856 -0.02945557 0.12008752
000080 f5 36 e8 bc a3 8d be bd 00 59 df 3d 61 1f 78 ba
       -0.028346518 -0.09304359 0.10905647 -0.0009465125
000090 0a 20 42 bd 4b 93 72 bd 26 84 70 3d 58 7d 98 bc
       -0.047393836 -0.0592225 0.058719777 -0.018614456
0000a0 45 8b 17 bd 88 a7 e2 3d b3 f1 f6 3d 4f 4a 71 3d
       -0.036998052 0.1106711 0.12057819 0.058908757
0000b0 ba 01 9c bc 40 60 20 bd 66 5e 62 bd 68 70 03 bd
       -0.019043792 -0.03915429 -0.055265807 -0.03208962
0000c0 0e 75 89 bd 62 3f 97 bd 48 a1 d6 3c 3f 6c 0a bb
       -0.067117795 -0.07385136 0.026199952 -0.0021121649
0000d0 58 69 23 bd 59 a8 a5 3b e8 53 49 3d 14 ab ac 3d
       -0.039895386 0.005055469 0.049152285 0.08431068
0000e0 ef 3f 03 be 39 80 2f bd 2c 61 95 bb 2c fa e5 bc
       -0.12817357 -0.042846892 -0.004558703 -0.028073393
0000f0 12 ab d4 bd a8 02 0e 3d 11 56 fd bd 16 15 aa bd
       -0.103841916 0.034670502 -0.123699315 -0.08304803
000100 ad 83 29 3d d8 de e6 3c 28 17 e9 bd 26 70 d9 bd
       0.04138534 0.028182432 -0.1138137 -0.10617094
000110 2b 9a ef bc cf d3 b1 bd 3c fe 06 bb 52 ca 5c 3d
       -0.029248318 -0.086829774 -0.0020598313 0.053903885
000120 bb 3f 9e 3d 27 d6 2f bd f2 df f0 bd af 84 c6 bb
       0.07726999 -0.04292884 -0.11761464 -0.0060582976
000130 38 1b eb bd 36 c6 b2 3c 62 9a 89 3d f4 95 bc bd
       -0.11479801 0.02182303 0.06718899 -0.09208289
000140 60 e6 f8 3d 03 87 7c bd 84 02 f9 bc d5 96 93 bb
       0.121533155 -0.061652195 -0.030396707 -0.0045040646
000150 da cd c8 bd 23 85 c8 bd d0 f6 bb bd 13 40 ed bd
       -0.09804888 -0.09791019 -0.09177935 -0.11584487
000160 d9 c1 24 3c 00 bc ef bd 7b 24 da bd 36 7d 86 3c
       0.0100559825 -0.1170578 -0.10651489 0.016417127
000170 7d d1 c4 ba 1f bc f9 bd 71 2a 05 3d e0 3a e6 bd
       -0.0015016046 -0.121940844 0.03251118 -0.11241698
000180 8c 06 ec 3d 96 81 13 bd c2 37 b4 3d b3 4e 2b 3d
       0.11524686 -0.036012255 0.087996975 0.0418231
000190 68 93 2a bd 05 e9 ac bc a5 6c ca 3d 6c fd a5 bd
       -0.041644484 -0.021107206 0.098840035 -0.08104977
0001a0 ae 97 94 3d 54 69 f8 3c 6a 65 c8 3d a1 fd d9 bc
       0.07255493 0.030323662 0.09784968 -0.026610197
0001b0 9b b5 9e bd ff 9f b9 3d 17 2f bb 3d 28 26 ba 3d
       -0.07749482 0.0906372 0.09139841 0.09089309
0001c0 50 7a 71 3d 45 2c b7 3d 43 3f f2 3d 26 87 a1 3d
       0.058954537 0.089439906 0.118284725 0.07887106
0001d0 71 ed 7a 3d 15 0a dd bc a1 01 87 bc 3d 8f a0 3d
       0.061261598 -0.026982347 -0.016480269 0.078398205
0001e0 9a 14 1a 3d 05 87 9d bd 1a 23 ba 3d 84 07 01 bd
       0.037617303 -0.076917686 0.09088726 -0.031501308
0001f0 7e d4 28 bc 34 0c 35 bd 42 fb 59 3c 89 34 8f 3c
       -0.010304568 -0.04420109 0.013304533 0.017481105
000200 38 84 98 bd 10 10 e2 3c 24 ad e7 bd 9a 8e b4 3d
       -0.07447094 0.02759555 -0.11312321 0.088162616
000210 72 cb d4 bd 50 4e 5f bd 74 ac 61 bd 12 e8 8c bd
       -0.103903666 -0.054518044 -0.055096105 -0.068802014
000220 20 73 80 3d e4 a0 21 bd f0 81 a1 3d 00 50 85 38
       0.06271958 -0.039460078 0.07886112 6.3568354e-05
000230 24 1a 3f 3d b0 05 4a 3c 80 43 da 3d 10 ec 8d 3d
       0.04665579 0.012330458 0.10657406 0.06929791
000240 d2 d7 f4 3d 64 d2 06 bd 68 59 fe bc 4c 18 33 bd
       0.11955227 -0.032915488 -0.031048492 -0.043724343
000250 80 22 ad 3b de b2 8f 3d c2 db a2 bd 78 06 d6 bc
       0.0052836537 0.07016538 -0.07952072 -0.026126131
000260 2e ed 8e bd 86 7a a8 bd 84 13 f0 bd c4 85 90 3d
       -0.06978832 -0.082264945 -0.11722472 0.07056764
000270 80 e8 e2 3b 88 e0 e6 3c bc b6 bd 3d 3c a9 2e bd
       0.006924689 0.028183237 0.092633694 -0.042641863
000280 a0 22 a8 3b 80 60 2b bb 44 96 bd bd 18 8f 5e 3d
       0.0051310807 -0.0026150048 -0.092571765 0.054335684
000290 64 43 d4 3d dc af 3b bd 74 03 a9 3d a0 aa ed bb
       0.10364416 -0.04582201 0.08252612 -0.007253006
0002a0 90 bd b1 3c 40 96 8c bd e4 dd 2a 3d 80 7a 93 bd
       0.021696836 -0.068645954 0.041715518 -0.072010994
0002b0 c8 cb 2d 3d 7c 05 c7 3d 06 c0 a4 bd 76 30 88 3d
       0.04243067 0.09717843 -0.08044438 0.06649868
0002c0 b8 38 91 bd 8c 87 ff bd 62 80 f1 3d 88 94 9f 3c
       -0.07090896 -0.124770254 0.11792065 0.019480005
0002d0 00 a1 10 bd ee 06 90 3d 68 ba ae 3c 8e fb e3 3d
       -0.03530979 0.07032572 0.02132912 0.111319646
0002e0 98 f7 e0 3c 9c d4 fd 3d 8c 37 b5 3d dc 75 7a bd
       0.027461812 0.12394068 0.08848485 -0.061147556
0002f0 30 59 6a bc a8 51 d7 bc d8 f2 fc bc 48 64 f6 3d
       -0.0143034905 -0.026284054 -0.030877516 0.12030846
000300 af f8 a1 3d d0 a2 10 bc 2d 8c 3e 3d 05 8f de bd
       0.07908761 -0.00882788 0.0465204 -0.108671226
000310 f4 9e 34 bd 6b b9 c1 bd ba c4 d9 bc 1b 69 8f 3d
       -0.044096902 -0.09459194 -0.026583064 0.07002469
000320 63 cb e1 bd 02 e3 90 bd 88 42 b6 bd b3 17 2c bd
       -0.11025121 -0.07074548 -0.088994086 -0.04201479
000330 f1 00 e4 bc c4 97 d4 3d 42 d5 03 be 81 97 db bd
       -0.02783248 0.103805095 -0.1287432 -0.107222565
000340 52 d5 d7 3a 00 bc 8e bd bf 9a 8c 3d b6 5b 89 bd
       0.0016466773 -0.06969452 0.06865453 -0.067069456
000350 04 53 40 bd ff ff a3 bd 95 80 2f bd be d6 72 3d
       -0.04695417 -0.08007812 -0.042847235 0.059286825
000360 47 96 b0 3d 75 e5 4f bc 00 88 78 bd 50 7e 0f 3c
       0.08622413 -0.012688984 -0.060676575 0.008758143
000370 86 5a e4 bc 8a fb 16 bc 84 64 f5 bc aa aa 94 bc
       -0.027875196 -0.009215245 -0.029955156 -0.018147785
000380 11 35 81 3d b1 e4 71 bd b6 4e 26 3d 49 eb 30 bd
       0.0630895 -0.059055988 0.04060241 -0.043193135
000390 36 99 00 be 7d 6b d5 3d a9 83 d4 3d 46 cf 4c 3d
       -0.12558445 0.104208924 0.10376675 0.05000236
0003a0 e6 45 31 bd b4 3c 49 3c 28 71 e7 3d 39 da 60 bd
       -0.04327955 0.012282539 0.1130088 -0.054895613
0003b0 a9 73 70 3d bd f2 00 3e 8c 05 67 bd 41 4d 04 3e
       0.058704052 0.12592597 -0.056401774 0.12920095
0003c0 dd d0 f2 3c 51 42 43 3d 1d e2 1c bd f1 32 92 bd
       0.02964061 0.047670666 -0.038301576 -0.071386226
0003d0 df cb 84 bd b1 23 b7 bd 45 f1 2a 3d 5c 55 db bd
       -0.06484198 -0.089423545 0.041734 -0.107096404
0003e0 e2 b0 4f bd 9c 3f 53 3d ce b5 92 3a c1 88 fe bc
       -0.050705798 0.051574335 0.0011193098 -0.031071069
0003f0 70 d3 e8 3d 5a fc cd 3d 98 e9 06 bb e4 d8 c0 3c
       0.113684535 0.10057898 -0.002058601 0.023540922

bias f4 [32]
000000 83 f9 11 3c 17 52 ac bd 46 98 bf bd 75 cb 25 3d
       0.008909586 -0.08414095 -0.09355216 0.040477235
000010 c9 66 c7 bc 98 7a 03 3e 78 9b 8c 3d 75 68 85 3d
       -0.024341004 0.12839735 0.06865591 0.06514064
000020 ed f7 48 3d 76 45 b7 bd db 8c 34 3d 0a 05 e0 3c
       0.049064565 -0.089487955 0.044079643 0.027346153
000030 62 5f 48 bd 1f eb 90 3d ae 53 d4 bd e2 1a 00 be
       -0.04891909 0.07076096 -0.10367523 -0.12510255
000040 a3 03 b0 3d b9 c1 aa 3d 76 41 b4 3d 8c bb e7 bd
       0.08594444 0.08337731 0.08801548 -0.113150686
000050 04 72 f4 bd a5 c4 e0 bd b5 a8 ab bd e6 cb 49 3d
       -0.11935809 -0.10975007 -0.08381788 0.04926672
000060 fe 06 db 3c 3d 22 d6 ba 09 f9 b9 bd cc 09 90 bd
       0.026736733 -0.0016337108 -0.09080703 -0.070331186
000070 87 64 72 3c 19 e5 33 3c 80 44 f9 bd 5b 25 00 3d
       0.014794475 0.010979914 -0.121712685 0.031285625

weight f4 [32, 32, 2, 2]
000000 16 b5 05 bb 52 f1 90 bd 85 81 0c 3c ba e1 a5 3d
       -0.0020402125 -0.07077278 0.008575802 0.080996946
000010 c3 6d 09 bd 40 df 4a 3d 4a 5f 00 bd ef 49 b7 bc
       -0.033551943 0.049529314 -0.031340875 -0.022374121
000020 1a bf 64 3d 1b a2 84 bd 38 28 43 bd a0 e2 99 bd
       0.05584631 -0.06476232 -0.047645777 -0.075139284
000030 38 c1 e6 3b 7f af ba 3d 47 4c c9 3d e9 55 58 bd
       0.0070420764 0.091155045 0.09829002 -0.052816305
000040 32 3b 06 3e db 69 c1 3d c7 9a fa 3d 99 f2 a1 3d
       0.13108519 0.094440185 0.12236553 0.079076
000050 71 ed 7a 3d 6c cf d4 3d aa d3 0a 3c d2 53 60 bd
       0.061261598 0.10391125 0.008473316 -0.054767437
000060 b2 10 e0 3d 3f 3c 8e 3d b7 88 aa bc 30 c0 41 bb
       0.109406844 0.06945085 -0.020817144 -0.0029564016
000070 5b e9 ca bb 3b cc 53 3c 6f c5 fc 3c b4 61 33 bd
       -0.006192369 0.01292711 0.030855862 -0.04379435
000080 3c f2 9f 3d a9 f0 b0 3d f2 b9 83 3d 46 67 87 bd
       0.078098744 0.08639652 0.06431951 -0.06611495
000090 57 a9 32 bd ed 18 39 3d 7b 01 63 3d 8c d5 91 3c
       -0.043618526 0.045189787 0.055421334 0.017802022
0000a0 83 9a 09 3d ce 63 45 3d 4e fb 5b bd 22 77 21 3d
       0.03359462 0.048190884 -0.05370646 0.039420255
0000b0 c4 ab cd 3c ac c2 03 bc 3d e8 2d bc 81 6d 63 bd
       0.025106318 -0.008042019 -0.010614452 -0.055524353
0000c0 04 e9 ad 3d c5 ae 09 3d 37 a1 98 bd 85 b6 0f bc
       0.0849171 0.03361394 -0.07452624 -0.008771543
0000d0 73 46 cc bc 5a c4 51 3d 5e f8 b3 3d e7 eb e0 3c
       -0.024935937 0.051212646 0.08787607 0.027456237
0000e0 fd a4 93 bd 72 0e 64 bc 58 2c 8c 3d 7c a8 9d 3c
       -0.072092034 -0.01391946 0.068443954 0.019245379
0000f0 18 ff 50 bd 7e 5f 80 3c 25 63 3f bd b4 7d 95 bc
       -0.051024526 0.015670534 -0.04672541 -0.018248416
000100 3b dd 70 3c 23 d2 dc 3b 00 85 fd bc c0 7e 4a 3d
       0.014701183 0.0067389174 -0.030947208 0.049437284
000110 eb dd 46 bd b0 21 a9 3b 54 49 58 b9 fb 2a 91 bc
       -0.04855148 0.0051614866 -0.00020626682 -0.01772069
000120 7c c9 a8 3c c7 5d 8c bd f0 7c 60 bd 8e 60 6f 3c
       0.020603888 -0.06853824 -0.05480665 0.014610423
000130 36 14 a9 bd 11 28 5a 3d be d7 99 3d 75 63 e8 3c
       -0.08255808 0.053260867 0.07511853 0.028367737
000140 c5 61 8d bd d0 9b ba 3c 55 37 af bd 99 44 a7 bd
       -0.06903414 0.022779375 -0.085554756 -0.08167381
000150 d3 e8 1d 3d 48 6e 14 bd 7b ad 39 3d ee 0f d5 bc
       0.038552117 -0.036237985 0.04533146 -0.026008572
000160 d6 fc 91 bd d1 25 97 bd 8c fe 2a 3d 2c 46 48 bb
       -0.07128303 -0.0738026 0.04174666 -0.0030559404
000170 78 82 cc 3d 8c f4 68 bd 71 72 06 bd d3 fb 17 bd
       0.099858224 -0.056873843 -0.032823984 -0.037105393
000180 92 b8 d3 3d 8f 96 11 bd 66 b5 65 3d 4e db 9f 3d
       0.10337938 -0.035543974 0.0560812 0.07805501
000190 e8 90 69 bd ab 8e b7 bc 5c 85 8e 3d d7 d2 88 bd
       -0.05702296 -0.022406897 0.0695903 -0.066808395
0001a0 8c d3 16 bd cd 77 0b bb ae f2 bc 3d 54 a7 5e bd
       -0.03682284 -0.0021281124 0.09225975 -0.054358795
0001b0 0d 00 62 3d 0d a8 41 bc ee 1a a5 bd 1d ee 5c 3b
       0.05517583 -0.011819852 -0.08061777 0.0033711263
0001c0 d2 b3 3a bd a7 e9 30 3d de 58 d9 bc 19 a0 f3 ba
       -0.045581646 0.04319158 -0.026531633 -0.0018587142
0001d0 fa 86 0f bd 87 0a 28 bd 71 60 21 3d 38 25 a7 3d
       -0.035040833 -0.041025665 0.039398614 0.08161396
0001e0 42 90 d5 bb 67 df 4a bc 6a 2a 70 bd 79 84 5d bd
       -0.006517441 -0.012382365 -0.0586342 -0.054081414
0001f0 68 f5 c3 bb bb 05 a2 3d d5 9f b4 bc e5 fb 5f 3c
       -0.0059801824 0.07911249 -0.02204887 0.013670896
000200 14 5c 73 bd a2 45 b8 bd 71 30 10 bc ff 58 42 bd
       -0.059413984 -0.089976564 -0.008800612 -0.047448155
000210 f3 84 3e 3d 8d 3a 08 3d da 3c 94 3d 07 1c 65 bd
       0.04651351 0.033258963 0.07238169 -0.055934932
000220 f3 a0 1f 3d 5a d1 de bc d4 00 35 3d c4 53 4b bd
       0.038971853 -0.027199436 0.044190243 -0.049640432
000230 0c 92 5b bd e6 b1 86 3c 06 e8 23 bc c7 1c 4c bd
       -0.053606078 0.01644225 -0.010004049 -0.04983213
000240 8e da 42 bd aa 46 a8 bd 4e 36 46 bd 5c 4c 8c 3c
       -0.04757171 -0.08216603 -0.048391633 0.017126255
000250 09 f4 1a bc 0c 2e ed bc 19 5b be bd 4c 03 c1 bd
       -0.009457597 -0.02895262 -0.09294719 -0.09424457
000260 4b a8 1a 3d 4e d5 8c bc 88 3d bb bd c8 f7 af bd
       0.037758153 -0.017191555 -0.091425955 -0.085921824
000270 f7 d0 01 bd 4f 96 28 bd 2d 98 ce bc a1 8d 64 3c
       -0.031693425 -0.04115897 -0.025219047 0.013949783
000280 a7 1f fb 3b f6 0c ed bc 3d ef 3e bd d1 ae 5e 3d
       0.0076636854 -0.028936844 -0.046614874 0.054365937
000290 7b ef cc bd 0d a2 e7 bc 0c 81 c8 bd e8 4b 00 3c
       -0.10006615 -0.028275514 -0.09790239 0.007830597
0002a0 d8 94 e9 3c 17 a8 e2 bd cd 61 34 3d 70 58 a4 bd
       0.028513357 -0.11067217 0.044038583 -0.080246806
0002b0 10 45 03 3c 85 0d f5 bc b7 9f c2 3c 54 fa ac bd
       0.008012071 -0.029913673 0.023757799 -0.08446184
0002c0 86 02 4e bd 8d 3a 17 3d f1 4a 5f bd f9 bc a7 bd
       -0.050295375 0.036921073 -0.05451483 -0.081903405
0002d0 75 1c 64 bc 91 e6 1f 3b b9 c9 47 bd 02 91 cb bd
       -0.0139228 0.0024398903 -0.048776362 -0.099397674
0002e0 7b c2 a0 bd 19 d9 2e bd f7 20 05 3d 7d 88 a5 bd
       -0.07849594 -0.04268751 0.03250214 -0.08082674
0002f0 9c 8a e3 bc 22 7a 7a bc ac e0 8f 3d 4a 12 60 bd
       -0.027776055 -0.015287908 0.07025275 -0.05470494
000300 cb a3 89 bd 93 3d 27 3d bb cb 95 bd d5 cf e2 3b
       -0.06720694 0.040830206 -0.07314249 0.006921748
000310 20 1f 87 3d d3 fe d0 bc 6f 3e da bd 86 3a 09 3d
       0.065977335 -0.025512135 -0.106564395 0.033503078
000320 43 1d 40 3d d5 a8 af bb b3 16 94 bd c9 60 97 bd
       0.046902906 -0.0053607025 -0.07230892 -0.07391507
000330 57 53 cc bc 5a 69 9e bd 09 d3 e6 3c cf 7e 6f bd
       -0.024942083 -0.07734938 0.028176801 -0.058470543
000340 d1 d9 11 bd 56 c1 5a 3d 32 d2 2b bc 91 c3 d6 bc
       -0.035608117 0.053407036 -0.010487126 -0.0262163
000350 bc 86 8d 3c c5 06 49 bd ac f8 4b bd fa 54 7a 3d
       0.01727616 -0.04907872 -0.0497977 0.061116196
000360 8d a7 be bc d3 3e 71 3d 6d ba 80 3d 85 ec f6 3c
       -0.023273254 0.058897804 0.06285558 0.030142078
000370 78 89 ae 3c b9 6e c1 3c 72 75 80 3d a7 48 54 bd
       0.021305785 0.023612367 0.06272401 -0.0518271
000380 d8 12 49 3d 7d 6c 11 3c 8e f5 46 3d 0c bc 43 3d
       0.049090236 0.008875963 0.048574023 0.047786757
000390 67 bb 8a 3d 00 5f 63 3d 63 d4 d2 bd 68 91 71 3c
       0.067740254 0.05551052 -0.10294416 0.01474414
0003a0 e7 7b 22 bd 37 f5 14 3d c8 94 8f 3c 8f cc 9b 3d
       -0.039668944 0.036366668 0.017527 0.07607376
0003b0 86 ca 8d bd 81 ea c0 3c 88 92 94 bd 48 20 3e 3d
       -0.06923394 0.02354932 -0.07254511 0.046417505
0003c0 a7 da 8a 3c e5 d6 b7 3c 8d 4c 86 bd b9 0b d1 bd
       0.016949965 0.022441337 -0.0655757 -0.10207314
0003d0 af 74 ca bd c3 91 32 3c 63 ac e3 bb 68 f2 e5 bc
       -0.09885537 0.01089901 -0.0069480403 -0.02806969
0003e0 b2 d0 8f bd d8 3e ec ba b2 19 a5 3c a9 01 7a bd
       -0.07022227 -0.00180241 0.020153854 -0.06103674
0003f0 fd d0 65 bd 41 59 71 bd e3 83 cb bd cf c2 c1 bd
       -0.05610751 -0.05892301 -0.09937265 -0.09460985

bias f4 [32]
000000 16 da b7 bb 1d 03 51 3d 53 26 93 3d 5e 67 55 3d
       -0.0056107147 0.05102836 0.07185044 0.05210053
000010 a4 22 16 3c 36 bf 67 bd 68 ad 82 3d d1 b3 a7 bd
       0.009163532 -0.056578837 0.06380731 -0.08188594
000020 33 1f c3 bd 80 f2 b7 3d 9b 0e 9f 3c 17 0a b3 bc
       -0.09527435 0.089818 0.019416144 -0.021855397
000030 30 2d a9 3d 47 4e a7 3c f7 1f 12 bd 02 96 09 bd
       0.08260572 0.020423068 -0.035675015 -0.033590324
000040 ff aa 80 3d 85 ad a3 bc ce 36 af 3d 8b 92 b9 bc
       0.06282615 -0.019980201 0.08555375 -0.022652885
000050 55 12 5a bd ce c7 97 3d 43 79 9b 3c 17 19 95 bc
       -0.05324014 0.074111566 0.01897872 -0.01820044
000060 7b ea 14 bd 16 73 49 bd 02 4f dd 3d 51 2e a5 3d
       -0.03635643 -0.04918202 0.10806085 0.08065475
000070 04 fa c2 ba 47 0b a2 3a 03 ee 38 3d 0b 31 ce 3d
       -0.0014875536 0.001236298 0.04514886 0.10067948

weight f4 [64, 32, 2, 2]
000000 32 b1 93 3d 29 99 62 3d 3a a9 68 3d eb b8 ae 3c
       0.07211532 0.055321846 0.056802012 0.02132841
000010 7f 5b 17 3d b9 90 31 3d 6d 76 84 3d 3a 2d 47 3d
       0.03695249 0.04335091 0.064679004 0.048627116
000020 57 3e e3 bc d7 a1 cd 3d 26 f6 3b bd db 9c 78 3d
       -0.027739687 0.10040634 -0.045889042 0.060696464
000030 cf ab 63 3c 03 11 c1 bb 62 f2 a9 3d 67 b5 a9 3d
       0.013895943 -0.0058919205 0.08298184 0.08286553
000040 83 c9 c6 bd 43 fa 19 bd c8 20 d7 bd 81 c2 ae bd
       -0.09706404 -0.037592184 -0.105042994 -0.085331924
000050 68 04 ce bd 6a 86 b6 bd 17 38 85 bd 6b ad b1 bd
       -0.10059434 -0.08912356 -0.06504839 -0.08675655
000060 dd cb 3a bb cc 32 2a bd b7 db 8e 3d 40 0e 99 bd
       -0.002850286 -0.04155235 0.06975501 -0.07473421
000070 39 84 38 3d 02 06 32 bd 16 ec 92 bd 5d aa 8a 3a
       0.045047972 -0.04346276 -0.07173936 0.0010579337
000080 75 c9 0f bb 12 27 e8 bc ef 1e 8c bc 84 c8 83 bc
       -0.0021940146 -0.028338943 -0.017104594 -0.016086824
000090 a2 07 4b 3d f5 f2 4c bd 4b 6d a2 3d 71 c4 86 3d
       0.049567826 -0.05003639 0.07931002 0.06580437
0000a0 6d 82 d6 bb 9b a0 84 bd d0 2c 3c bd 10 59 c7 3d
       -0.0065463097 -0.064759456 -0.045941174 0.09733784
0000b0 9e b0 37 3d cb 23 4c bd 37 85 e3 3c 61 d2 3c bd
       0.04484617 -0.049838822 0.027773483 -0.04609907
0000c0 69 c2 9c bc 63 09 58 3d f9 35 70 3d 08 b9 12 bd
       -0.01913567 0.052743327 0.058645222 -0.03582099
0000d0 21 5e 2f bd 6a c2 4f 3d 3d 39 cf bd c0 c7 1a 3b
       -0.042814378 0.050722517 -0.10118339 0.0023617595
0000e0 81 35 27 3d 80 8e 34 3d 34 d2 1d 3d e2 3c 50 3d
       0.04082251 0.04408121 0.038530543 0.050839312
0000f0 c0 5a 82 3d 9b 73 aa 3d be 9e 80 bd 79 31 79 bd
       0.063649654 0.08322831 -0.06280278 -0.060838196
000100 1f 7d 69 bd 3c 7b d3 3d 5b 3a 12 3d 64 6f 06 bd
       -0.05700409 0.103262395 0.035700183 -0.032821074
000110 64 12 3e 3d d3 95 7f bd 69 1e 20 3d d0 86 82 3d
       0.046404257 -0.062398743 0.0390915 0.0637337
000120 c4 01 e7 3c 77 8c 12 3c 29 c5 99 3d 98 b3 ac 3d
       0.028199084 0.008944622 0.075083084 0.08432692
000130 b8 e2 86 bd b2 87 1b bd 62 d2 32 bd 94 b8 24 3d
       -0.06586212 -0.037971206 -0.043657668 0.04021509
000140 a8 2c 2d 3d c3 3f 7e bd 6d bc a2 3d 1c a5 7a 3b
       0.042278916 -0.062072527 0.079460956 0.0038245386
000150 06 25 d0 3d c3 ca cc 3d 72 d3 07 bc 5c 56 87 bd
       0.10163312 0.09999611 -0.008290159 -0.066082686
000160 1d 44 64 3d fe c6 eb 3c ee 66 2c 3d 58 49 9f bd
       0.05572902 0.02878141 0.04209035 -0.07777661
000170 a6 09 a7 ba 1d 9d f6 3c de 21 a0 bd 31 e3 86 bd
       -0.0012743964 0.030104214 -0.0781896 -0.06586302
000180 09 61 6f 3d a9 9b 26 bd 9f a2 17 3d 15 fb 85 bb
       0.05844215 -0.040675793 0.037020322 -0.004088769
000190 36 ec 86 bd ad 51 c4 bd 02 76 57 bb ab d6 ab bd
       -0.065880224 -0.09585891 -0.0032876735 -0.08390554
0001a0 e7 4d 51 bd 20 77 f4 3c 50 db e9 3c a3 98 ef 3a
       -0.051099684 0.02984196 0.02854696 0.0018279742
0001b0 c8 ec d2 3d 8c 8f be bc ea 62 9b 3d da 6a 48 bc
       0.10299069 -0.023261808 0.07587226 -0.012232507
0001c0 ae 61 65 bc b1 44 31 bd 1e ef 43 bd 3e 50 73 bb
       -0.014000339 -0.0432784 -0.04783546 -0.0037126685
0001d0 2f 86 d3 bd 11 21 27 3d ec 97 11 bd 8c f9 c9 bd
       -0.10328328 0.04080302 -0.035545275 -0.098620504
0001e0 99 f6 73 bd fc 34 97 3b f1 f5 2a bd 89 ec 88 bd
       -0.059561346 0.0046144705 -0.041738454 -0.066857405
0001f0 45 12 64 bc 88 f1 27 bd 50 05 05 bd 9c c5 6d 3d
       -0.013920371 -0.041001827 -0.03247577 0.058049783
000200 16 49 39 3c 85 81 b5 bc 6a 71 41 3c 0b 04 8b 3d
       0.011308929 -0.022156486 0.011806825 0.067878805
000210 32 33 be ba ef d5 39 3d 8f f4 29 bc 2f 76 8d 3d
       -0.0014511107 0.04537004 -0.010373249 0.06907307
000220 36 d2 bd ba 67 1b c9 3a 90 2e 14 bd 40 2c cd bc
       -0.0014482203 0.001534325 -0.036177218 -0.025045514
000230 6e 01 3c bd 5f 0d 2a 3d 05 2a d5 3c 47 fa 3b 3c
       -0.0458998 0.041516658 0.026021013 0.011473245
000240 d8 45 14 3d e3 56 bf bd 00 10 a7 bc 5b 89 8c 3d
       0.03619942 -0.09342744 -0.020393372 0.06862136
000250 f4 66 74 3d 13 81 33 3c f3 96 8d 3d be 1f a0 3c
       0.059668496 0.010956067 0.06913557 0.019546386
000260 b6 77 af bd 9f c8 ee 3b b4 ff 96 bc ec fc 96 bd
       -0.08567755 0.0072870995 -0.018432476 -0.0737246
000270 9b 0a 73 bd d4 11 5e 3c 34 17 49 3b 38 1e ec 3c
       -0.059336286 0.013554055 0.0030683996 0.028823003
000280 2d c7 d0 bd 40 66 08 bc 5d 0e a4 bd c7 50 0f bd
       -0.1019424 -0.00832516 -0.08010552 -0.034989145
000290 3c 57 80 3c 9b 00 e7 3a 1f 87 c0 3d 4a 98 5d 3c
       0.015666597 0.0017624082 0.09400772 0.013525078
0002a0 b6 c6 2c bd 55 4f 4c bd 04 2d 0e 3d 9f ef 3f bd
       -0.042181693 -0.049880344 0.0347109 -0.04685938
0002b0 14 39 1b bd 46 d3 c5 bd d5 13 b6 bd a8 ee 27 bd
       -0.03789623 -0.09659438 -0.088905014 -0.040999085
0002c0 72 ae 93 3d 39 bf 8f 3d 81 31 0e 3c 1b 65 3c 3d
       0.07211007 0.07018895 0.008678795 0.04599486
0002d0 eb 14 18 bb ff 66 af 3b 28 b0 bc bd 4a 72 46 3d
       -0.0023205827 0.0053528543 -0.09213287 0.04844884
0002e0 bc 8a 10 3d 29 fe ff bc ce 59 ab bd 19 62 e8 ba
       0.035288557 -0.031249123 -0.08366738 -0.0017729431
0002f0 73 dc 5d bd 50 63 b0 3d aa b7 99 3d 9e ff 4e bd
       -0.054165315 0.08612692 0.07505734 -0.050536744
000300 2e fd b6 3d 17 77 c6 bc bd bb 60 bd 9c 3c b8 3d
       0.08935009 -0.024226708 -0.05486654 0.08995935
000310 04 a8 ec 3b a5 5f 8c bd e4 c4 32 bd 35 4e 83 3d
       0.0072221775 -0.0685418 -0.0436448 0.06411401
000320 52 f7 9a b9 a5 70 71 bc fa 9e ab 3d aa 55 c8 3d
       -0.00029557437 -0.014736329 0.08379932 0.09781964
000330 4f 1f 34 bd af 57 a8 bd 6b 17 f2 3c 57 fc 01 bd
       -0.04397517 -0.08219849 0.029552182 -0.03173479
000340 35 dc 72 3b e0 84 7c 3d 0f 14 01 bd 38 1d b8 3b
       0.0037057523 0.061650157 -0.03151327 0.0056187175
000350 c5 68 20 bd 9e 95 95 3c 2c 00 8a bc 9f 1a 85 3d
       -0.039162416 0.01825982 -0.016845785 0.06499218
000360 e2 eb 65 bd 94 4c 96 3d cc 42 9c bd 12 9e 3c bd
       -0.05613316 0.07338825 -0.07629928 -0.046049185
000370 5d bf 27 3d 4f 50 b1 bd 3b e2 02 3d f4 70 b9 bc
       0.040953983 -0.08657896 0.03195403 -0.022636868
000380 07 b3 bd 3d c9 24 b2 3d 19 7d c8 3d 07 77 e7 bc
       0.092626624 0.086984225 0.097894855 -0.028254999
000390 cf 46 0b bd 72 a3 75 bd ae 00 c3 3c cc 86 e2 bb
       -0.034003075 -0.059970327 0.023804035 -0.0069130417
0003a0 ab 7a bb 3d 75 25 8c 3d 32 bc 2d bc e4 88 d1 3d
       0.091542564 0.06843082 -0.010603951 0.10231188
0003b0 b9 09 b1 3c e2 e8 c9 3d d5 99 38 3d 05 cc c1 3d
       0.021611081 0.09858872 0.04506858 0.09462742
0003c0 26 05 10 bc dc 71 87 3d bd e5 2b bc 2a e0 98 3d
       -0.00879029 0.06613514 -0.010491786 0.07464631
0003d0 b7 2c c3 bd ef b9 96 bd a2 a2 a8 bd b8 5b 17 bd
       -0.09530013 -0.07359683 -0.08234145 -0.036952704
0003e0 a3 77 a6 bb 9b ae 83 bb 79 7a 30 3d 39 5b a4 3d
       -0.00508018 -0.0040186173 0.04308555 0.08025212
0003f0 9d b5 06 bc e0 ee d3 3d 90 ac c6 3c 06 33 7c 3d
       -0.008222011 0.10348296 0.024252206 0.061572097

bias f4 [64]
000000 13 5b 24 3d 1a 12 49 bd 4d 64 4f 3d 99 bc 1e bd
       0.040125918 -0.04908953 0.050632764 -0.03875408
000010 28 fa a3 bd 5c 08 96 3b e1 ed 38 bd 9d 2b fd bc
       -0.08006698 0.0045786332 -0.045148734 -0.030904585
000020 44 a3 41 bd bd 4a 37 bd 94 47 7b bd b7 e0 65 3d
       -0.047274843 -0.04474901 -0.06134756 0.056122508
000030 11 03 4b 3d 07 b9 36 3d fc b2 0c bd 99 41 cd 3d
       0.04956347 0.04461005 -0.03435038 0.100222774
000040 77 ea 5e 3c 00 20 8d 3d 22 89 61 3d 25 3a ad bd
       0.013605705 0.06890869 0.05506242 -0.08458356
000050 5e c6 c2 3d e2 32 13 3d 11 c3 fe 3b cd 5e 84 bc
       0.09510492 0.035937198 0.0077747186 -0.016158486
000060 b0 eb 95 bd 8b 66 96 bd 70 ad 96 bd 84 99 cd 3d
       -0.073203444 -0.07343777 -0.07357299 0.100390464
000070 79 2b 08 bd 42 63 5f bd 10 f8 37 bb 52 10 93 bd
       -0.033244584 -0.05453802 -0.002807144 -0.07180847
000080 12 9f 30 bd ce 46 6f bc 82 d3 24 bd 0c ef 4c bd
       -0.04312045 -0.0146042835 -0.040240772 -0.05003266
000090 d3 42 27 bd d1 7b 33 bd 1c 4f b4 3d c6 0e 0b 3d
       -0.040835213 -0.043819252 0.088041514 0.033949636
0000a0 ee 87 71 bd 8e 98 89 bd cc be ae bd ec 9c be 3d
       -0.058967523 -0.067185506 -0.08532485 0.09307274
0000b0 a0 e2 e4 bc 10 75 42 bd 8d 3e af 3d e2 c8 8a bd
       -0.027940094 -0.04747492 0.085568525 -0.067765966
0000c0 f2 97 e3 bc f6 13 14 bd 86 53 24 bd 64 c0 99 b9
       -0.027782414 -0.03615185 -0.040118717 -0.00029325776
0000d0 8e 6b 54 bd ac a7 02 3d fd ba 41 3b 90 4c b6 bd
       -0.051860385 0.031898186 0.0029560917 -0.08901322
0000e0 33 c2 c4 3d 30 6a 35 bd 4f ad 06 3d 4d 45 9d 3b
       0.09607353 -0.04429072 0.032880124 0.004799521
0000f0 fa 41 7e 3d c0 86 22 bc 43 b2 b3 3d 66 03 90 bc
       0.06207464 -0.009919822 0.08774235 -0.017579746

weight f4 [64, 64, 2, 2]
000000 9b 9c 79 bd ff 0e 33 bd 21 4d e9 3c ac 19 84 bd
       -0.060940366 -0.043715473 0.02847916 -0.06450209
000010 72 96 7c 3c da 01 28 3d 2d 37 03 3d 94 82 99 bc
       0.015416728 0.04101739 0.03203504 -0.018739022
000020 6f 51 35 3d f1 c1 55 bd 3d bd 63 bd 68 ae 0e 3d
       0.044267114 -0.05218691 -0.055600394 0.034834296
000030 1f b7 04 3c e2 50 7e bd 71 7b 9e 3c 42 8c 2e bb
       0.0081003 -0.062088855 0.01934597 -0.0026633893
000040 cc 9b 15 3d e1 e4 87 bc b4 5d 04 bb 31 ad 06 bd
       0.036525533 -0.01658863 -0.0020197453 -0.032880012
000050 9a 00 03 bd e4 2a fc bc 48 cf bc 3c 06 a1 60 bd
       -0.031982996 -0.03078217 0.023048058 -0.054841064
000060 3c 84 52 bd 1d ef 84 bd 54 38 b8 bb 78 11 44 bb
       -0.05139564 -0.0649092 -0.005621949 -0.0029917639
000070 60 0e 34 3d 0a 3d 82 3c d5 f5 ff bc 61 a0 1d bd
       0.04395902 0.015898246 -0.031245152 -0.038483027
000080 20 69 bd bc 80 b4 38 3c 5c 8a 1f bd de 30 38 bd
       -0.023121417 0.011273503 -0.03895031 -0.04496848
000090 d9 f7 eb 3c 3d 0a 7e bd 3d 11 27 3d bf fe 45 bd
       0.028804706 -0.062021483 0.040787924 -0.048338648
0000a0 74 c9 35 bd 50 5e 97 3b c0 4b 60 bd de d3 50 3d
       -0.044381574 0.004619397 -0.05475974 0.050983302
0000b0 0f cd 38 3d 2a 42 4f bd 17 0d 4b bd c1 f7 2f 3d
       0.045117434 -0.05060021 -0.04957303 0.042960886
0000c0 fa 75 5a bd 40 37 17 3d 30 3d 76 3c 60 9a f1 3b
       -0.053335167 0.036917925 0.015029237 0.0073731393
0000d0 b6 e5 09 3d a0 7c 7a 3c 84 ca 3b bd 6c 5d b9 3c
       0.033666335 0.015288502 -0.04584743 0.022627555
0000e0 9a 0d 60 3b ae a7 af bb 7a 99 09 bc 03 35 b7 bd
       0.0034187795 -0.005360565 -0.008398408 -0.08945658
0000f0 d0 2a 36 3c 7e ac 42 bc b6 1e cb 3c ec be 46 bd
       0.011118606 -0.011881946 0.024794918 -0.04852192
000100 6c 1a 5b bd f0 4a cf bd 89 63 ec bd 93 1c 56 bd
       -0.053491995 -0.10121715 -0.11542422 -0.052273344
000110 ae 06 91 bd c1 a1 17 bd 2f f8 dc bb c6 d3 e6 3c
       -0.07081352 -0.037019495 -0.006743453 0.028177153
000120 8e 67 c9 3c 36 1b bb bc e0 94 2e bd e0 33 72 bd
       0.024585512 -0.022840124 -0.042622447 -0.059131503
000130 0c dd 25 3d 84 e0 3d 3d 9c b8 ec bc d0 65 5c 3d
       0.04049401 0.046356693 -0.028896622 0.053808033
000140 b3 89 8f bd 90 6e 59 3b 8e ed c9 bc a5 2c 60 bd
       -0.07008686 0.0033177473 -0.024649408 -0.054730076
000150 b9 6b b1 39 0d 1a bd 3c 20 74 68 3c d7 14 4c bd
       0.0003384033 0.023083711 0.014187843 -0.049824562
000160 a6 03 2f bd 6b 12 56 bd 50 2e 96 3b f9 0a 90 3b
       -0.04272809 -0.05226366 0.0045831576 0.0043958393
000170 c0 05 fc 3a cb 83 5d bd 2f d6 27 3d c6 74 4c 3d
       0.0019227788 -0.054080766 0.040975746 0.04991605
000180 04 8d f9 3c 30 8f 7f 3d 92 f8 47 3d 14 87 69 bd
       0.03046275 0.062392414 0.04882104 -0.057013586
000190 1e e2 4d bd c8 f4 a2 3c 38 2e 24 bd e0 65 4d 3b
       -0.05026447 0.019892111 -0.04008314 0.003134124
0001a0 c8 0a 6b bc 80 59 dd 3a 1c 06 5a 3d fe 7e 3b bd
       -0.014345832 0.0016887635 0.053228483 -0.045775406
0001b0 90 3f 8a bd 2c e5 93 bd 6e fc 9b 3b 5b 1e 9f 3c
       -0.06750405 -0.072214454 0.0047603166 0.019423654
0001c0 c4 c2 bd 3c ce 46 12 bd 76 00 aa bc 69 cb 22 bd
       0.02316416 -0.035712056 -0.020752173 -0.03974477
0001d0 cf 2f 9d bc 70 23 b0 3b 00 4c ad 3c 11 06 28 bd
       -0.019187836 0.005375318 0.021154404 -0.04102141
0001e0 93 98 f5 bd 23 94 e8 bd 35 26 30 bd 11 71 fa bd
       -0.11991992 -0.1135638 -0.043005187 -0.12228597
0001f0 c1 31 73 bd e4 03 22 3d 06 c3 a1 bc e2 38 26 3d
       -0.05937362 0.03955449 -0.019746315 0.04058159
000200 66 2a 12 3d 2c 22 e0 bc c6 a7 6c bd 40 b1 d7 ba
       0.035684966 -0.027360044 -0.05777719 -0.0016456023
000210 6e fd 08 bd d0 e1 c8 bc 08 9b 6e bc 90 e9 d0 3b
       -0.033444814 -0.024521738 -0.0145633295 0.006375499
000220 54 f4 40 3d 10 5f f3 3c 8b e8 32 3d 09 47 2e 3d
       0.04710801 0.029708415 0.0436788 0.042548213
000230 b3 c9 bf 3c b2 05 18 3d 71 84 52 3d 87 a2 38 3d
       0.023411607 0.037114806 0.051395837 0.045076873
000240 10 b6 41 bd 10 59 32 bc bc c0 12 bd c6 34 46 bb
       -0.04729277 -0.010885492 -0.035828337 -0.0030243858
000250 e0 dd 82 3c 05 c2 ee 3c 64 91 4a bc f5 38 84 bd
       0.015974939 0.02914525 -0.012363765 -0.06456176
000260 f1 8a 3d bc e5 d3 33 3c 87 fc 68 bd a6 6a dd bb
       -0.011568771 0.010975813 -0.056881454 -0.0067570983
000270 e4 13 1f 3d 9f 1c d8 bb 5e 79 e9 bc 80 25 84 bc
       0.03883733 -0.006595209 -0.028500255 -0.016131163
000280 a4 e9 29 bd a7 67 82 3c 57 63 0e bd 24 54 21 3c
       -0.041482583 0.015918566 -0.034762707 0.009846721
000290 a2 03 32 3c 56 6b 1e bc c2 8e 75 3d 15 6e 75 3d
       0.010865124 -0.009669146 0.059950598 0.059919436
0002a0 2c b3 32 3d b0 f0 ea bc fa 67 05 3d a7 91 55 bc
       0.043627903 -0.028679222 0.032569863 -0.0130352145
0002b0 4d be 68 bd 6b 4e 83 bd 4a b0 ff 3c a6 2c 6c bd
       -0.05682211 -0.064114414 0.03121199 -0.057659768
0002c0 7f 93 a1 bd 44 82 01 bd 2f fe 1f bd 32 a1 92 bd
       -0.07889461 -0.03161837 -0.039060768 -0.07159652
0002d0 6a 29 0c bd 87 cc cf bc b0 b0 84 bc ae a2 4e bd
       -0.034219183 -0.02536608 -0.016197532 -0.050448112
0002e0 77 a2 a5 3b 9f e4 74 bd c6 b2 09 bc f6 ff 42 bd
       0.0050547677 -0.059788343 -0.008404439 -0.047607385
0002f0 cc d8 af 3c cc 33 be bc 9a c7 2f 3d 08 b7 fe 3c
       0.021465681 -0.023218058 0.042914964 0.031093135
000300 62 b3 67 bd fc 48 91 bd b4 f1 0b 3d 10 a7 0e 3d
       -0.056567557 -0.07093999 0.034166053 0.034827292
000310 09 d7 08 3c bc 8f 30 3d 32 e2 7d bb 9c d0 15 3c
       0.00835205 0.043105826 -0.003873956 0.009143975
000320 f7 c1 95 ba 8e 54 c9 bc fd 8f b9 3c 30 20 49 3d
       -0.0011425604 -0.024576452 0.022651667 0.049102962
000330 90 ad 52 bc de c9 2f bd 54 2f 85 3c c0 e6 bd bc
       -0.012858763 -0.042917125 0.01625792 -0.02318132
000340 29 5f 6b bb 92 0e 8a bd 52 5b 22 bd ef 4f 02 bc
       -0.0035914874 -0.0674106 -0.03963787 -0.007953628
000350 96 70 37 3d ab ad 88 bd 6f 41 ab bc a0 2d 32 3d
       0.044785105 -0.066737495 -0.020905225 0.043500543
000360 b1 b2 44 bd 58 3b ef 3a 7d 6d 7d 3d 49 a8 26 3d
       -0.048021976 0.0018251939 0.061871994 0.040687833
000370 02 07 ef 3c b7 19 12 bd 12 2f 04 3d b3 7f 3c bd
       0.029178146 -0.035669055 0.032271452 -0.04602022
000380 7b 76 33 bd df 9e 39 bb cd 13 f6 3c 3e 7b 1e bd
       -0.043814164 -0.0028323454 0.030038739 -0.03869175
000390 08 fc 5a bd 64 ba 64 bd 20 f0 b1 3b aa 2e 3e 3d
       -0.053463012 -0.05584182 0.0054302365 0.04643122
0003a0 7d d6 cb 37 6b 19 e6 bc 4e b6 e3 bc 93 43 64 bd
       2.4299365e-05 -0.028088292 -0.02779689 -0.055728506
0003b0 3c b0 3b bd d8 f6 c6 3c 1c e5 22 3d 6f 58 89 bd
       -0.045822367 0.024287626 0.039769277 -0.067063205
0003c0 6f 64 ed bc 7c 5e a5 3b 36 7c 47 bd af 4a 23 3d
       -0.028978555 0.005046664 -0.04870244 0.039866146
0003d0 5f 66 18 3d 73 61 44 3d 37 8e 79 3d ff 54 1e 3d
       0.037207004 0.047944497 0.060926642 0.038655277
0003e0 51 6d 80 bd 32 9e 57 bd 18 2a a7 bc 42 72 ce bc
       -0.062708504 -0.0526411 -0.020405814 -0.025200967
0003f0 52 61 39 3d 64 f5 7a bd f3 5b 56 bd 7a d3 28 3d
       0.045258828 -0.06126918 -0.052333783 0.041217305

bias f4 [64]
000000 7d b9 81 bd 0d 8f 93 bd db ef 88 bd ec 88 ab 3c
       -0.06334207 -0.07205019 -0.06686374 0.020939313
000010 6e 0b 37 bd 34 c4 51 3a 5e 80 99 bd 41 31 f5 bc
       -0.044688635 0.0008001954 -0.07495187 -0.029930713
000020 3e e4 c4 3b 06 6d 94 bd 7a 77 b3 3c 13 5d 80 bd
       0.006008654 -0.07247357 0.021907557 -0.062677525
000030 3b 82 32 bc e7 f7 d8 bc 5e c2 9c bd 9d e8 ed bc
       -0.010895307 -0.026485397 -0.0765426 -0.029041583
000040 88 e8 30 3d ac 05 b7 3c 35 9d 21 3d 10 5f 94 3d
       0.04319051 0.022341572 0.039456565 0.07244694
000050 4d 3a 1f bc 78 95 00 3d 59 12 8d bc bc ee 3a bd
       -0.00971849 0.031392545 -0.017220663 -0.04563783
000060 0c a7 d1 3c a8 d5 27 bd 93 4d a6 bd 9a 24 30 3d
       0.02559235 -0.040975243 -0.08120265 0.043003656
000070 91 f8 6e bc 26 1e 91 3d c3 d2 b5 3c 39 5b 0b 3d
       -0.01458563 0.070858285 0.022195226 0.034022544
000080 62 47 01 3d 3a af 90 bc 2d d9 42 3d 91 e4 87 3d
       0.031562217 -0.01766168 0.047570396 0.066353925
000090 8e e7 2f 3d 1b 90 f8 3b fe 96 38 3c 79 a2 3b 3d
       0.042945437 0.007585538 0.011266468 0.045809243
0000a0 61 83 23 bd 40 d5 eb 3c e8 03 93 3d c6 08 83 bd
       -0.039920215 0.028788209 0.071784794 -0.06398158
0000b0 59 e1 de 3c 8a f0 a7 bd 23 93 b8 bc 30 75 17 3d
       0.027207064 -0.08200176 -0.022531098 0.036976993
0000c0 e9 43 11 bc b6 ef 28 3d 60 94 10 bc c4 80 15 bc
       -0.008866289 0.04124423 -0.008824438 -0.009124938
0000d0 5f b1 8e 3b 64 ed 3a 3d 4a 75 4c 3d 63 a1 99 bd
       0.0043546404 0.04563655 0.049916543 -0.07501485
0000e0 55 f6 3f 3d 16 5a 84 bd d5 ae 19 bd 20 c4 5a bd
       0.04686578 -0.06462495 -0.03752025 -0.053409696
0000f0 4c f8 52 bc cd bd 2a bd ec 8b c5 bb 01 96 14 bd
       -0.012876581 -0.041684914 -0.006028643 -0.036275867
