output/train_16_12_23_part-2/unet_tgs_salt.pth (torch, 248279 bytes, 26 tensors)

weight f4 [16, 3, 2, 2]
-1.0801625 -0.58073914 -1.2088972 -0.33129224 0.12743051 0.2323074 0.08437397 0.4230693
-0.6493447 -0.00574836 -0.22253473 0.22747275 0.09083899 0.11359623 0.17615062 0.05512863
-0.1331056 -0.32552424 -0.13175803 -0.049120083 -0.31320912 0.023518376 -0.51969135 -0.15160087
-0.25257728 -0.8104274 -0.15991108 -0.73250055 -0.0958046 -0.19334877 -0.47563252 -0.32918608
0.49803424 0.336429 0.712308 0.66042984 -0.3795712 -0.14739324 -0.18511917 0.007884431
0.28874734 0.7617133 0.62118393 0.3498375 -0.58521074 -0.6130493 -0.50580984 -0.26480305
-0.117718704 -0.40377074 -0.13415438 0.08181898 -0.26741934 -0.23108797 0.10677734 0.13039613
-0.42978573 -0.15337934 -0.014110717 0.08561099 -0.0741056 0.062507495 0.124184586 0.16549802
0.042928156 -0.55405504 -0.3911246 -0.23392077 0.23159875 -0.41026595 0.08893128 -0.1628404
0.18610284 -0.2594644 0.0034844964 0.16645695 -0.27718508 0.17012236 -0.24283314 -0.20543222
-0.09522216 0.038277835 0.06931833 -0.14184149 -0.07431691 0.12422688 -0.116430566 0.42910898
-0.67124605 -0.43395546 -0.74411887 -0.2613594 0.06486712 0.23882742 -0.16926382 0.23298426
0.2320383 -0.1421697 -0.101472124 0.2604072 0.0047072256 -0.26725057 -0.025959065 -0.17284031
-0.21164651 0.14522304 -0.09266521 0.025234288 0.47060347 0.33138993 0.508523 0.08649596
0.13110285 0.31549224 0.31265137 -0.20770317 -0.42361894 -0.40314683 -0.54954946 -0.84486806
-0.024781482 -0.0070545543 -0.06254336 -0.13433145 -0.37510943 0.07605637 0.14829272 0.15289949
-0.24682604 0.098187126 -0.17205478 0.034570854 -0.2720418 -0.16988714 0.054395143 -0.13546947
0.02449249 0.05963772 -0.09322529 -0.13187006 -0.27158234 0.13911952 -0.12518036 -0.17671742
-0.072450556 -0.27201262 -0.23979549 -0.0748251 0.15213694 0.090840936 -0.15681212 0.2394259
-0.19831522 -0.19814666 -0.013759563 -0.025246093 -0.040785745 -0.18826802 0.0002793003 0.023195226
-0.010617681 -0.08883176 0.043192193 -0.054534152 -0.16586696 -0.010882821 -0.2581414 0.14504258
-0.08494232 -0.1225887 -0.17780814 0.09799373 0.20923029 -0.057679635 -0.044723302 -0.01577966
-0.19581182 -0.10440906 -0.1610824 0.06376839 0.11931459 -0.055497073 0.014443293 0.054817792
-0.080447026 -0.08649713 0.10948674 -0.31031954 0.033023722 -0.20174433 -0.03662182 0.2414726
00000000: c442 8abf 52ab 14bf 25bd 9abf 239f a9be
00000010: 257d 023e fee1 6d3e 43cc ac3d 8a9c d83e
00000020: 743b 26bf bd5c bcbb 25e0 63be 9eee 683e
00000030: cb09 ba3d 24a5 e83d d460 343e 8fce 613d
00000040: d64c 08be 1dab a6be 94eb 06be 2432 49bd
00000050: f25c a0be 9ca9 c03c 7e0a 05bf 423d 1bbe
00000060: cf51 81be 2c78 4fbf bbbf 23be 2885 3bbf
00000070: 3435 c4bd 38fd 45be 1b86 f3be 148b a8be
00000080: 58fe fe3e 6c40 ac3e d159 363f ee11 293f
00000090: 2857 c2be 41ee 16be e18f 3dbe b32d 013c
000000a0: b1d6 933e a5ff 423f e905 1f3f e71d b33e
000000b0: 5fd0 15bf cdf0 1cbf c17c 01bf 4494 87be
000000c0: 8116 f1bd 0abb cebe c45f 09be b690 a73d
000000d0: 30eb 88be 53a2 6cbe 14ae da3d 9086 053e
000000e0: e00c dcbe 790f 1dbe a330 67bc d154 af3d
000000f0: adc4 97bd ee03 803d 7d54 fe3d 5078 293e
00000100: 6fd5 2f3d 8dd6 0dbf 7c41 c8be ed88 6fbe
00000110: 3928 6d3e 610e d2be 9a21 b63d a2bf 26be
00000120: be91 3e3e 85d8 84be 265c 643b b173 2a3e
00000130: 34eb 8dbe 8e34 2e3e 40a9 78be d35c 52be
00000140: d603 c3bd 38c9 1c3d c5f6 8d3d e53e 11be
00000150: 7733 98bd aa6a fe3d 2673 eebd 2cb4 db3e
00000160: c8d6 2bbf 692f debe 937e 3ebf e6d0 85be
00000170: 0dd9 843d 2d8f 743e 7f53 2dbe 6d93 6e3e
00000180: 739b 6d3e ef94 11be 9ed0 cfbd 1854 853e
00000190: 123f 9a3b 11d5 88be 1ba8 d4bc 0dfd 30be
000001a0: ddb9 58be 59b5 143e 42c7 bdbd 23b8 ce3c
000001b0: f0f2 f03e f1ab a93e 902e 023f cb24 b13d
000001c0: d33f 063e 3388 a13e d713 a03e 24b0 54be
000001d0: 95e4 d8be 4369 cebe 46af 0cbf 4649 58bf
000001e0: 8902 cbbc e429 e7bb bc16 80bd 2f8e 09be
000001f0: 580e c0be 71c3 9b3d 0cda 173e af91 1c3e
00000200: f7bf 7cbe 5516 c93d 212f 30be 2b9a 0d3d
00000210: 1049 8bbe e5f6 2dbe 71cd 5e3d 82b8 0abe
00000220: 79a4 c83c af46 743d e7ec bebd f208 07be
00000230: d70c 8bbe 5975 0e3e 482f 00be 69f5 34be
00000240: f560 94bd 3d45 8bbe f38c 75be e73d 99bd
00000250: c9c9 1b3e d00a ba3d 5b93 20be 102c 753e
00000260: 2513 4bbe f5e6 4abe ca6f 61bc e5d0 cebc
00000270: f40e 27bd 55c9 40be 0d6f 9239 ea03 be3c
00000280: c8f5 2dbc 6ded b5bd 4cea 303d 345f 5fbd
00000290: 07d9 29be dc4d 32bc 1c2b 84be 0b86 143e
000002a0: 3df6 adbd c90f fbbd 5613 36be f0b0 c83d
000002b0: 7740 563e 7b41 6cbd c82f 37bd 5844 81bc
000002c0: e582 48be 6bd4 d5bd c9f2 24be 0099 823d
000002d0: 355b f43d e650 63bd 90a3 6c3c 9f88 603d
000002e0: 69c1 a4bd 6825 b1bd 953a e03d 34e2 9ebe
000002f0: e243 073d 1196 4ebe c300 16bd 9844 773e

bias f4 [16]
0.37238753 0.1770548 -0.21964543 0.33533284 -0.28874707 -0.0056697214 -0.112671666 0.6564381
-0.21247542 0.14527376 -0.3534494 -0.2767667 -0.12227785 0.0144116655 -0.093267515 -0.18262666
00000000: 94a9 be3e da4d 353e bbea 60be bfb0 ab3e
00000010: a8d6 93be 12c9 b9bb 67c0 e6bd 540c 283f
00000020: 2893 59be a5c2 143e 52f7 b4be 5db4 8dbe
00000030: cf6c fabd e81e 6c3c 0a03 bfbd 7c02 3bbe

weight f4 [16, 16, 2, 2]
-0.48251984 -0.6551935 -0.4150656 -0.36592236 -0.13811587 -0.009071122 0.020559061 -0.0020244839
-0.15814438 -0.1752825 0.01576254 -0.20216893 0.4515486 0.23926528 0.30726564 0.12647836
0.18214387 0.2173608 0.20964918 0.28667352 -0.14625664 -0.033071004 -0.20112894 -0.2103296
-0.0039401473 -0.010421165 -0.10378323 -0.026277352 -0.17088339 0.004030067 -0.18335503 0.26942968
-0.05188902 -0.013226927 0.082643256 -0.07167215 -0.2494702 -0.44205582 -0.24328582 -0.46257922
-0.040186673 -0.048531055 0.026205314 0.053621076 0.0556401 -0.029694483 -0.019694075 -0.049497694
-0.008963719 -0.042705566 0.07811634 0.11065714 -0.03272002 -0.073482454 -0.04060916 -0.06649522
0.067365944 0.00411655 -0.08164142 0.049812526 -0.07212188 -0.0092547545 -0.1987726 -0.012453803
-0.31438956 0.09293197 -0.19406897 0.18548577 -0.15328377 0.0047960053 -0.009995968 0.046984766
-0.04248051 -0.15705884 -0.046236355 -0.17147204 -0.9428659 0.70723057 -0.825496 0.85873467
0.014768299 0.1257694 0.2228766 0.12827656 0.040343653 -0.12880541 0.0789743 -0.107901394
-0.060673825 0.0062862583 -0.045886166 -0.033838805 -0.11724781 0.27320847 -0.16127625 0.1401348
0.056914337 -0.04642288 -0.09242881 0.04307629 -0.47775915 0.5824669 -0.63500744 0.35660848
0.08930876 0.06232041 0.034199886 0.0045866678 0.1025085 -0.019849017 0.056097 0.022495523
-0.08347885 -0.11594464 -0.07448469 0.10906109 -0.062247723 0.06343473 -0.09087288 0.019902095
0.025324449 0.06895587 0.05732417 0.042336226 -0.040595952 0.053429194 0.023435166 -0.12824698
0.58478045 0.4852381 0.49647114 0.6091875 0.08646804 -0.023439214 0.011742101 0.02663428
-0.11336918 -0.1429997 -0.04263184 -0.1147144 -0.013447972 -0.08550005 0.12649636 0.1295356
0.1326443 0.011790315 0.06374796 0.21384694 -0.009099245 -0.108226344 0.006796602 -0.19264013
0.055760536 -0.11243759 0.06642314 -0.17698027 -0.20566319 -0.2063249 -0.33874482 -0.19652615
-0.053061906 0.056993585 0.09038327 -0.048393276 0.03376156 -0.23933822 -0.154811 -0.3120185
0.07123711 -0.047348615 0.019703776 -0.07242243 0.07777229 -0.0664618 -0.0072342455 0.034629777
0.050417185 -0.0739599 0.11801919 0.027583942 0.0055684173 0.042881805 0.03907767 -0.122544415
0.0029819906 0.033392727 -0.050913274 -0.07573725 -0.0924638 -0.01861892 -0.009237244 -0.02177515
0.26671022 0.4541693 0.37723058 0.6170102 -0.10605317 -0.021989288 -0.08438407 -0.04405776
0.5043541 0.4393803 0.35426626 0.47009292 0.77686846 0.3621075 0.39214194 -0.0841611
0.21395507 0.01417386 0.23700196 0.101102166 -0.05351589 0.004961754 -0.055787966 0.0879189
0.023570582 -0.10987928 -0.13070306 -0.11232485 -0.7399728 -0.24238348 -0.34752032 0.23545109
0.046807114 -0.026435746 -0.070346825 0.052524563 -0.0067853658 -0.27511346 -0.2906966 -0.7120345
0.07021953 0.009237547 0.17972322 0.16028835 -0.06074047 0.042947903 -0.037602708 -0.03806381
0.0068805516 0.12395994 0.04684083 -0.041011438 0.107968785 0.07196924 -0.019843398 0.0057583833
-0.036807716 -0.028611317 0.004855752 0.02353768 -0.009606972 -0.063630365 -0.11235149 0.023976928
00000000: d70c f7be c3ba 27bf 7a83 d4be 2d5a bbbe
00000010: 3f6e 0dbe 0b9f 14bc 7a6b a83c 34ad 04bb
00000020: 9af0 21be 417d 33be 7120 813c 5f05 4fbe
00000030: 6131 e73e f501 753e ec51 9d3e 8b83 013e
00000040: ec83 3a3e d493 5e3e 46ae 563e dfc6 923e
00000050: 4dc4 15be 7675 07bd bff4 4dbe a560 57be
00000060: 5a1c 81bb 89bd 2abc 4d8c d4bd 9a43 d7bc
00000070: 0efc 2ebe a70e 843b 6cc1 3bbe b0f2 893e
00000080: 9589 54bd c1b5 58bc de40 a93d d9c8 92bd
00000090: 1e75 7fbe 2455 e2be eb1f 79be 2fd7 ecbe
000000a0: c89a 24bd 80c8 46bd 87ac d63c c6a1 5b3d
000000b0: e0e6 633d d841 f3bc 7855 a1bc 18be 4abd
000000c0: 90dc 12bc 08ec 2ebd 76fb 9f3d 36a0 e23d
000000d0: 6d05 06bd f87d 96bd ca55 26bd a52e 88bd
000000e0: 28f7 893d 20e4 863b 9e33 a7bd 3808 4c3d
000000f0: a3b4 93bd 41a1 17bc 0b8b 4bbe 090b 4cbc
00000100: abf7 a0be 1e53 be3d 04ba 46be fbef 3d3e
00000110: 6cf6 1cbe cf27 9d3b 21c6 23bc 1973 403d
00000120: 0b00 2ebd 08d4 20be 5562 3dbd 5e96 2fbe
00000130: a95f 71bf 100d 353f b553 53bf 09d6 5b3f
00000140: bcf6 713c b2c9 003e c339 643e ee5a 033e
00000150: 633f 253d 91e5 03be 47bd a13d 68fb dcbd
00000160: 1e85 78bd f5fc cd3b 22f3 3bbd 8f9a 0abd
00000170: 9f1f f0bd fbe1 8b3e 9a25 25be 7f7f 0f3e
00000180: 021f 693d eb25 3ebd 514b bdbd c470 303d
00000190: d99c f4be 8d1c 153f d98f 22bf 6395 b63e
000001a0: 83e7 b63d b043 7f3d 2e15 0c3d c24b 963b
000001b0: faef d13d 689a a2bc f8c5 653d 8848 b83c
000001c0: f6f6 aabd 6274 edbd 6e8b 98bd 6c5b df3d
000001d0: 78f7 7ebd 11ea 813d 8f1b babd b809 a33c
000001e0: 3875 cf3c bc38 8d3d c0cc 6a3d c068 2d3d
000001f0: f147 26bd 92d8 5a3d 1bfb bf3c 2d53 03be
00000200: 2cb4 153f 2171 f83e 7731 fe3e b6f3 1b3f
00000210: 2816 b13d 9803 c0bc f161 403c 2230 da3c
00000220: 1a2e e8bd 836e 12be b99e 2ebd 62ef eabd
00000230: e254 5cbc a61a afbd 4388 013e fba4 043e
00000240: e8d3 073e 2a2c 413c 4a8e 823d b1fa 5a3e
00000250: 0015 15bc c6a5 ddbd 08b6 de3b 7443 45be
00000260: 2965 643d ae45 e6bd db08 883d 513a 35be
00000270: 5f99 52be d646 53be f66f adbe 273e 49be
00000280: 7157 59bd 1b72 693d dd1a b93d 0738 46bd
00000290: 9049 0a3d 1415 75be c686 1ebe e4c0 9fbe
000002a0: c3e4 913d 9ff0 41bd d069 a13c 3652 94bd
000002b0: 1447 9f3d 201d 88bd 400d edbb f4d7 0d3d
000002c0: 4082 4e3d 4a78 97bd 0cb4 f13d b8f7 e13c
000002d0: 4577 b63b d5a4 2f3d e80f 203d 91f8 fabd
000002e0: 806d 433b d0c6 083d 708a 50bd 221c 9bbd
000002f0: a95d bdbd b586 98bc cf57 17bc cd61 b2bc
00000300: 3e8e 883e e188 e83e 5e24 c13e 61f4 1d3f
00000310: 6832 d9bd e122 b4bc 8ed1 acbd e975 34bd
00000320: 5a1d 013f 74f6 e03e 6362 b53e 05b0 f03e
00000330: dae0 463f 2766 b93e d4c6 c83e a85c acbd
00000340: 0a17 5b3e 7a39 683c a4b0 723e a70e cf3d
00000350: 7a33 5bbd 3696 a23b ec81 64bd d30e b43d
00000360: 1817 c13c 6308 e1bd 06d7 05be 920a e6bd
00000370: db6e 3dbf 6033 78be 2fee b1be 171a 713e
00000380: d1b8 3f3d c78f d8bc ff11 90bd ff23 573d
00000390: c657 debb acdb 8cbe 2fd6 94be e547 36bf
000003a0: 42cf 8f3d 1559 173c 5d09 383e a122 243e
000003b0: 00cb 78bd 24ea 2f3d 4c05 1abd cce8 1bbd
000003c0: 4076 e13b b6de fd3d 2cdc 3f3d 9cfb 27bd
000003d0: bd1e dd3d 9c64 933d 9f8e a2bc d2b0 bc3b
000003e0: b0c3 16bd 4862 eabc 001d 9f3b 18d2 c03c
000003f0: 9066 1dbc a350 82bd 8a18 e6bd 436b c43c

bias f4 [16]
0.20208141 0.05361857 0.17487998 0.029145477 -0.1622134 0.0506365 0.06661745 -0.0034655202
0.13701697 -0.2860171 0.16652027 0.16281962 -0.10312863 -0.118211515 0.11492263 -0.022394478
00000000: 6eee 4e3e 259f 5b3d bd13 333e 7fc2 ee3c
00000010: 451b 26be 3868 4f3d bb6e 883d c81d 63bb
00000020: 2d4e 0c3e d570 92be 4a84 2a3e 30ba 263e
00000030: 1a35 d3bd e118 f2bd 8e5c eb3d a074 b7bc

weight f4 [32, 16, 2, 2]
0.04576325 -0.047220495 -0.017345738 -0.042079493 -0.006374026 -0.09372612 -0.17179237 -0.12905268
0.033440687 0.031690698 0.068163306 0.077199854 -0.013834073 0.034181684 0.1718668 0.09632929
0.1016347 0.22575368 0.13889532 0.055091523 -0.13023284 -0.061875757 -0.23922871 -0.23268588
-0.21612164 -0.2034207 -0.015465065 -0.11959146 0.0018933854 -0.19309 -0.06544615 -0.018583719
0.17388004 0.11383191 0.059886742 0.16367114 0.073353305 0.018399706 -0.0114320135 0.22618368
0.01199154 -0.18089178 -0.16406728 -0.008501161 0.09229905 0.1671806 0.0744933 0.14341594
0.016962042 0.22635782 0.07254539 0.096203536 -0.055576853 -0.090231866 -0.04040111 -0.09965636
-0.1519785 -0.12972073 -0.08939164 -0.07285612 -0.009632747 0.14934082 0.024269437 0.006749353
-0.18463391 -0.1224304 -0.14672652 -0.07002376 0.11545425 0.119878165 0.045451645 0.037883077
0.032520536 0.046634115 -0.024284305 0.11713393 -0.049227018 -0.07723025 0.08293379 0.14233686
0.25245994 0.18283117 0.17194517 0.19051339 -0.2265447 -0.034694124 -0.023305032 -0.185446
-0.25515446 -0.1459364 -0.07452619 -0.14363305 -0.036694627 -0.1316459 -0.1860628 -0.19178383
0.065007724 0.011535159 0.07887147 0.18743043 0.054408267 0.03415263 -0.18382631 -0.17304698
-0.14685225 0.0038008592 -0.1326642 -0.17051212 -0.058702394 -0.11188963 -0.044422206 -0.09939622
0.20832436 0.0058473377 0.1769437 0.20485191 -0.2800836 -0.11275764 -0.05908278 -0.09616068
-0.17621255 -0.21142215 -0.22978875 -0.0831879 0.11185622 -0.06757625 0.018132057 -0.06060651
-0.111844726 -0.07381153 -0.11786013 -0.074686065 0.115800016 0.10214176 -0.053477094 0.16135013
-0.09313753 -0.12295922 0.030961175 -0.08756116 0.016352708 -0.066225745 0.018646665 -0.16479208
0.20033482 0.12586442 0.14736408 0.19575566 -0.16571662 -0.053393796 -0.22665416 -0.17330457
-0.2121027 -0.26564106 -0.14241788 -0.21614352 0.15783712 0.20213616 0.13378747 0.29453018
0.0152298175 -0.056580994 -0.015034171 0.013754782 -0.13944046 -0.1080108 -0.14554995 -0.16796948
-0.2094757 -0.15942006 -0.1446239 -0.07249252 -0.1772952 -0.2740234 -0.2733147 -0.055971596
0.20491219 0.06753144 0.10297498 0.12584595 0.29148287 0.08596132 0.21689574 0.09233574
-0.2422751 -0.14925732 -0.041401923 -0.15126684 0.1657708 0.21603836 0.09380203 0.10908204
0.0160555 -0.0687242 -0.118403874 -0.06883939 0.05721662 0.006710098 0.045749575 -0.13701022
0.072522976 -0.0913884 0.10570542 -0.129515 -0.0022681635 -0.14584087 -0.14738919 0.04431185
-0.025977978 -0.06074186 0.061879776 0.050956972 0.013048943 0.008736808 -0.07051432 -0.13249595
0.07222787 0.063140705 0.025215397 0.010792296 -0.07816111 -0.08006676 -0.036165383 -0.04755882
0.10477385 -0.019323656 -0.0902014 0.12969625 0.08053021 0.0424477 0.07780593 0.05496179
0.09990535 0.009703174 -0.11545513 -0.054779574 -0.0029504774 0.104315095 -0.1218325 0.031242102
-0.05898557 -0.03160992 0.0040408983 0.04432818 0.055812176 -0.011099126 0.106520586 0.08905674
-0.07121594 -0.028641492 -0.09713248 0.10476351 -0.05057149 0.022925748 -0.058786657 0.06249824
00000000: 3f72 3b3d 476a 41bd a618 8ebc 8c5b 2cbd
00000010: 35dd d0bb 7bf3 bfbd 57ea 2fbe 6326 04be
00000020: 1af9 083d 1bce 013d 3499 8b3d f51a 9e3d
00000030: 4fa8 62bc 1802 0c3d dafd 2f3e 4a48 c53d
00000040: db25 d03d f92b 673e 933a 0e3e a6a7 613d
00000050: c25b 05be 6f71 7dbd 5ff8 74be 3545 6ebe
00000060: fe4e 5dbe 844d 50be 2f61 7dbc 5eec f4bd
00000070: 792b f83a 63b9 45be a208 86bd e23c 98bc
00000080: 9c0d 323e b420 e93d cd4b 753d 6899 273e
00000090: 423a 963d fbba 963c 574d 3bbc b29c 673e
000000a0: 2a78 443c b23b 39be 4101 28be 7448 0bbc
000000b0: 4907 bd3d 6431 2b3e f18f 983d a1db 123e
000000c0: fbf3 8a3c 58ca 673e ad92 943d 5c06 c53d
000000d0: 8ea4 63bd 7ccb b8bd a27b 25bd a218 ccbd
000000e0: 40a0 1bbe 83d5 04be f712 b7bd 9735 95bd
000000f0: abd2 1dbc cdec 183e b3d0 c63c ad29 dd3b
00000100: ac10 3dbe cabc fabd 7a3f 16be 9e68 8fbd
00000110: 4773 ec3d af82 f53d 812b 3a3d 492b 1b3d
00000120: 4134 053d 6a03 3f3d e1ef c6bc eae3 ef3d
00000130: 45a2 49bd e52a 9ebd 31d9 a93d c1c0 113e
00000140: 6e42 813e 1838 3b3e 6512 303e f115 433e
00000150: 55fb 67be 6d1b 0ebd 32ea bebc 8ee5 3dbe
00000160: 9ba3 82be 5a70 15be 30a1 98bd 8b14 13be
00000170: 1b4d 16bd 2fce 06be 3f87 3ebe fb62 44be
00000180: c522 853d f7fd 3c3c 5e87 a13d c3ed 3f3e
00000190: 34db 5e3d a1e3 0b3d f73c 3cbe 3a33 31be
000001a0: 7060 16be d617 793b 20d9 07be bb9a 2ebe
000001b0: ec71 70bd 6426 e5bd 0ff4 35bd 3f90 cbbd
000001c0: fb52 553e 069b bf3b bb30 353e b3c4 513e
000001d0: 1e67 8fbe 7aed e6bd c900 72bd e4ef c4bd
000001e0: 1071 34be 0c7f 58be be4d 6bbe 6b5e aabd
000001f0: e014 e53d 6b65 8abd ae89 943c 883e 78bd
00000200: d90e e5bd 802a 97bd a760 f1bd 02f5 98bd
00000210: 8f28 ed3d b32f d13d cc0a 5bbd f838 253e
00000220: e4be bebd 0bd2 fbbd 4aa2 fd3c 4453 b3bd
00000230: 1df6 853c 5da1 87bd e4c0 983c 41bf 28be
00000240: 9224 4d3e 9ae2 003e 9ce6 163e 2c74 483e
00000250: 9eb1 29be 74b3 5abd 0718 68be c176 31be
00000260: 7331 59be 1b02 88be fed5 11be ba54 5dbe
00000270: 0ea0 213e c8fc 4e3e 95ff 083e a9cc 963e
00000280: 7c86 793c 79c1 67bd e251 76bc bd5b 613c
00000290: 7bc9 0ebe c434 ddbd 0c0b 15be 3100 2cbe
000002a0: cc80 56be 033f 23be 4a18 14be f576 94bd
000002b0: df8c 35be cc4c 8cbe e8ef 8bbe 7942 65bd
000002c0: 80d4 513e ec4d 8a3d 8ce4 d23d c3dd 003e
000002d0: 3e3d 953e 7d0c b03d eb19 5e3e 851a bd3d
000002e0: f716 78be e9d6 18be 1095 29bd b2e5 1abe
000002f0: d2bf 293e 2939 5d3e 471b c03d 6866 df3d
00000300: d386 833c 46bf 8cbd bb7d f2bd abfb 8cbd
00000310: f95b 6a3d 62e0 db3b e863 3b3d 684c 0cbe
00000320: ed86 943d d729 bbbd 157c d83d 959f 04be
00000330: 78a5 14bb 4f57 15be 31ed 16be 5880 353d
00000340: c5cf d4bc 75cc 78bd a675 7d3d 42b8 503d
00000350: 3ccb 553c d424 0f3c d069 90bd 05ad 07be
00000360: 35ec 933d ea4f 813d 8590 ce3c 2cd2 303c
00000370: ef12 a0bd 0bfa a3bd 2722 14bd 0acd 42bd
00000380: ac93 d63d a54c 9ebc 83bb b8bd 18cf 043e
00000390: 06ed a43d a4dd 2d3d b758 9f3d 9d1f 613d
000003a0: 2d9b cc3d 10fa 1e3c bd73 ecbd 8c60 60bd
000003b0: cc5c 41bb 27a3 d53d 5183 f9bd 70ef ff3c
000003c0: da9a 71bd 6779 01bd 8369 843b 7791 353d
000003d0: 4f9b 643d 1cd9 35bc 7727 da3d 6163 b63d
000003e0: aad9 91bd 90a1 eabc 65ed c6bd 408e d63d
000003f0: 0d24 4fbd c7ce bb3c 47ca 70bd 28fe 7f3d

bias f4 [32]
-0.20315696 -0.23402669 -0.11199635 0.049159102 -0.18159936 -0.11626972 -0.15634036 -0.11740685
0.095812045 -0.034531023 -0.12416415 -0.056141715 0.03177657 -0.00060665916 0.11589529 -0.2929947
0.05649003 -0.09968947 0.005755827 -0.18493225 0.067546 0.08862216 -0.18925774 -0.102775946
-0.08109769 0.0816928 0.028338052 0.07784573 0.0050150063 -0.14957452 -0.12232342 -0.11538915
00000000: 6108 50be b1a4 6fbe 585e e5bd 0e5b 493d
00000010: 2ff5 39be d21e eebd b017 20be 0173 f0bd
00000020: 1b39 c43d 6770 0dbd c649 febd dbf4 65bd
00000030: 2628 023d 3508 1fba 835a ed3d 6703 96be
00000040: 1762 673d fe29 ccbd 609b bc3b e15e 3dbe
00000050: 8f55 8a3d 897f b53d c8cc 41be 327c d2bd
00000060: 8c16 a6bd 8e4e a73d 3425 e83c 956d 9f3d
00000070: ec54 a43b 102a 19be b484 fabd 2651 ecbd

weight f4 [32, 32, 2, 2]
-0.05322735 0.0766995 0.0048680557 -0.05055417 0.08526193 0.10530647 0.08390121 -0.057484098
0.063457154 0.05314972 0.09292965 0.06302437 -0.047262635 0.027684707 0.02856079 -0.034994997
0.11786702 -0.0028198098 0.13076256 -0.02954504 0.020883944 -0.061748344 0.07203631 -0.015885327
0.017701698 -0.114063405 -0.080089055 -0.12702766 0.086974114 0.16530728 0.08094155 0.10170437
-0.009095401 -0.07258868 0.04154993 0.02780384 -0.073324434 0.016557466 -0.106637664 -0.08323534
-0.011365066 0.018525915 0.11986852 0.0070912093 0.07271734 0.00863569 -0.061023034 -0.08456655
0.03571041 -0.034562137 0.06685681 -0.04597799 -0.05853796 0.032036178 0.053440783 -0.026932145
0.019267717 -0.06954026 0.0712483 0.053276755 -0.10709764 -0.09171781 -0.093961075 -0.05516486
-0.035954446 -0.12973216 0.03473863 -0.021503126 0.0028497942 0.1700306 0.002235081 0.014563736
-0.019595752 -0.06862324 -0.032200813 -0.077528074 -0.04745256 -0.025332121 -0.0588277 -0.09980324
-0.06251062 -0.00054177805 -0.084273085 -0.082394525 0.028468806 0.052451294 0.020383842 0.07554929
0.03719381 0.15900317 0.16034256 0.16560872 -0.0066784737 0.04519283 -0.046593584 -0.054704428
0.09411474 0.024138693 0.06635137 0.1323032 0.045316827 -0.038190868 -0.050655942 0.057525348
0.026436519 0.05998799 0.037904903 0.05271055 -0.055913784 -0.078674905 -0.01009197 -0.033425957
-0.03479264 0.0076612425 -0.037542123 0.014219245 -0.06519418 -0.07514083 -0.006346583 -0.026545344
-0.012217338 -0.0028241023 0.08388554 0.0588458 -0.14584236 -0.14491287 -0.11212578 -0.10172375
-0.14377795 0.0043068887 -0.036416333 -0.09866409 0.06342526 0.07992455 0.058725875 -0.07384236
-0.07356919 -0.07705906 -0.2000357 -0.07844845 -0.03253274 0.016035685 -0.0049693827 -0.03688341
-0.080321915 -0.018799942 0.05721401 -0.085328124 -0.07772913 -0.028678957 -0.05624435 0.08898261
0.008152592 0.09445154 0.14343339 -0.0003234492 -0.116752036 -0.074238606 -0.16657455 -0.15313986
-0.03133367 -0.026724402 -0.03437994 -0.07157697 0.0918583 0.032852218 -0.007919181 0.06567436
-0.011544125 -0.12928924 -0.021922577 -0.05151071 -0.06094942 0.07842724 -0.06748756 -0.07811693
-0.053083196 0.00015607843 0.046554 -0.06428625 0.041450124 0.044255897 -0.06107511 -0.044697247
-0.006023995 0.034702953 0.037726775 0.08956237 0.1143567 0.06947458 0.082478665 0.09098919
0.014461517 -0.00060799887 -0.01124726 -0.017185176 -0.1460978 -0.15885484 -0.1581097 -0.10833119
0.11993247 -0.019432606 0.0012116003 0.0850484 0.027475841 0.086722024 0.07947118 0.16931862
-0.07379814 -0.00051116815 0.04893792 -0.07451559 0.08563609 -0.018458914 -0.013851809 -0.03828274
-0.14813296 -0.098429754 -0.034166887 -0.042268876 -0.04033489 0.08035405 0.08231687 0.04760397
-0.09922733 -0.0968106 -0.043828 -0.1274402 0.10019313 0.019371249 0.06823897 -0.01325644
-0.02228096 -0.024176627 -0.07162396 -0.058791336 -0.029377514 0.027544226 0.01738826 -0.02035993
0.057816964 -0.0072479765 0.04996212 -0.057603262 0.14133999 -0.020491038 0.13178693 0.007412678
-0.08802799 -0.06121388 -0.045562208 0.082802445 0.12450325 -0.018802406 0.08658126 -0.00059658266
00000000: ec04 5abd a114 9d3d 3684 9f3b e411 4fbd
00000010: cf9d ae3d ebaa d73d 66d4 ab3d 7274 6bbd
00000020: d3f5 813d 85b3 593d e651 be3d ec12 813d
00000030: 7796 41bd 0acb e23c 51f8 e93c ea56 0fbd
00000040: 4464 f13d 8fcc 38bb 9fe6 053e 7108 f2bc
00000050: ce14 ab3c d5eb 7cbd c687 933d f221 82bc
00000060: 2703 913c 139a e9bd bb05 a4bd 8a13 02be
00000070: 7c1f b23d 5046 293e afc4 a53d 614a d03d
00000080: e004 15bc 60a9 94bd 4230 2a3d e1c4 e33c
00000090: 1f2b 96bd 86a3 873c d964 dabd 4a77 aabd
000000a0: 8b34 3abc a9c3 973c a07d f53d 605d e83b
000000b0: d4ec 943d b67c 0d3c 4af3 79bd 3a31 adbd
000000c0: 1445 123d 0791 0dbd 39ec 883d 6b53 3cbd
000000d0: 80c5 6fbd 5e38 033d b9e4 5a3d cda0 dcbc
000000e0: 55d7 9d3c 206b 8ebd a1ea 913d ba38 5a3d
000000f0: 0256 dbbd 8cd6 bbbd aa6e c0bd 8cf4 61bd
00000100: f844 13bd 82d8 04be 184a 0e3d 5327 b0bc
00000110: 9dc3 3a3b 801c 2e3e 707a 123b bc9c 6e3c
00000120: 4587 a0bc 578a 8cbd 00e5 03bd 0ac7 9ebd
00000130: 9e5d 42bd 4f85 cfbc 50f5 70bd a465 ccbd
00000140: 9105 80bd 1c06 0eba 5e97 acbd 76be a8bd
00000150: 6a37 e93c 2bd7 563d 04fc a63c 96b9 9a3d
00000160: 8958 183d bad1 223e d730 243e 5595 293e
00000170: 19d7 dabb 1e1c 393d ead8 3ebd c011 60bd
00000180: 3bbf c03d 82be c53c 3ae3 873d 7d7a 073e
00000190: 239e 393d 076e 1cbd 9b7c 4fbd b39f 6b3d
000001a0: 6691 d83c f7b5 753d 2c42 1b3d 05e7 573d
000001b0: da05 65bd 4f20 a1bd ca58 25bc a8e9 08bd
000001c0: ba82 0ebd 290b fb3b c5c5 19bd d6f7 683c
000001d0: 8784 85bd 6fe3 99bd fff6 cfbb 9f75 d9bc
000001e0: 3b2b 48bc 9314 39bb 2fcc ab3d 4b08 713d
000001f0: b357 15be 0a64 14be 33a2 e5bd 8b54 d0bd
00000200: 873a 13be cd20 8d3b 4b29 15bd 6610 cabd
00000210: 1ae5 813d 7caf a33d 8b8a 703d aa3a 97bd
00000220: 72ab 96bd 24d1 9dbd 29d6 4cbe 95a9 a0bd
00000230: 0d41 05bd 455d 833c 34d6 a2bb 0f13 17bd
00000240: d17f a4bd 5602 9abc 3d59 6a3d 83c0 aebd
00000250: 7330 9fbd 22f0 eabc 7a60 66bd 843c b63d
00000260: 7392 053c cf6f c13d 34e0 123e 9e94 a9b9
00000270: b11b efbd 690a 98bd 8592 2abe b2d0 1cbe
00000280: bc57 00bd 22ed dabc fbd1 0cbd f296 92bd
00000290: 3420 bc3d 0c90 063d 74bf 01bc 4780 863d
000002a0: 9223 3dbc 6664 04be fa96 b3bc e5fc 52bd
000002b0: 19a6 79bd 769e a03d eb36 8abd c5fb 9fbd
000002c0: c46d 59bd fca8 2339 68af 3e3d 82a8 83bd
000002d0: 9bc7 293d ac45 353d e529 7abd 7614 37bd
000002e0: ef64 c5bb af24 0e3d 6487 1a3d 7a6c b73d
000002f0: d833 ea3d b048 8e3d 93ea a83d 8a58 ba3d
00000300: 00f0 6c3c 1d62 1fba 6d46 38bc edc7 8cbc
00000310: a99a 15be d8aa 22be 82e7 21be bedc ddbd
00000320: 289f f53d 2131 9fbc 8fce 9e3a db2d ae3d
00000330: 0415 e13c 519b b13d c9c1 a23d dc61 2d3e
00000340: 7b23 97bd eaff 05ba 2173 483d a19b 98bd
00000350: f961 af3d 2637 97bc b3f2 62bc 5dce 1cbd
00000360: 2bb0 17be 8a95 c9bd 94f2 0bbd 2122 2dbd
00000370: 3336 25bd aa90 a43d bf95 a83d 61fc 423d
00000380: b337 cbbd a344 c6bd fd84 33bd af7f 02be
00000390: 0e32 cd3d 74b0 9e3c e0c0 8b3d 8a31 59bc
000003a0: 8f86 b6bc 100e c6bc 95af 92bd 2fcf 70bd
000003b0: 1da9 f0bc 6ea4 e13c d371 8e3c dec9 a6bc
000003c0: 7bd1 6c3d 6f80 edbb 14a5 4c3d 66f1 6bbd
000003d0: 6ebb 103e d2dc a7bc 27f3 063e 0de6 f23b
000003e0: 0548 b4bd 68bb 7abd 709f 3abd 5494 a93d
000003f0: 8ffb fe3d 8107 9abc 8451 b13d fc63 1cba

bias f4 [32]
0.04195984 -1.8041492e-05 -0.018950386 0.09323855 -0.08763492 0.07175383 0.0075979405 0.027613256
-0.010902129 -0.009703224 -0.05199237 0.047783177 0.10323203 -0.09060561 -0.070007354 -0.11342519
0.05076492 -0.014054897 -0.14754479 0.0890517 0.09247385 -0.011836003 0.023393517 0.027705276
-0.02211789 -0.076224014 -0.09400454 0.0405495 0.07606236 0.09382222 -0.015945612 0.08448344
00000000: 15de 2b3d cf57 97b7 d73d 9bbc daf3 be3d
00000010: f079 b3bd acf3 923d 25f8 f83b 3235 e23c
00000020: d89e 32bc 45fa 1ebc f4f5 54bd 4bb8 433d
00000030: 516b d33d 6f8f b9bd 0460 8fbd 774b e8bd
00000040: e0ee 4f3d 8346 66bc fb15 17be bd60 b63d
00000050: ee62 bd3d cbeb 41bc c3a3 bf3c 2df6 e23c
00000060: 9430 b5bc 561b 9cbd 7485 c0bd 3c17 263d
00000070: 95c6 9b3d dd25 c03d 5fa0 82bc a705 ad3d

weight f4 [64, 32, 2, 2]
-0.13572323 -0.08947061 -0.1875295 -0.20642608 0.16909786 0.16557461 0.17632855 0.20792165
0.14208983 0.15802747 0.11649424 0.15627834 -0.060262695 -0.22030754 -0.05916818 -0.07303066
-0.077291794 -0.06744353 -0.14688326 -0.010751455 -0.11298278 -0.020833556 -0.12462761 -0.050192207
-0.20423573 -0.07518684 -0.16138278 -0.18001755 -0.090672776 0.04865639 -0.12440879 0.10677089
-0.11592804 -0.11102862 -0.1465314 -0.040037848 0.0257789 0.049159408 0.121490784 0.03680869
-0.1912204 -0.19812796 -0.12750474 -0.0750774 -0.21901031 -0.13624609 -0.08793283 -0.19547202
0.20895414 0.06397114 0.13421091 0.060470607 -0.089634694 -0.117232665 -0.1403058 -0.016038809
-0.18054771 -0.10578471 -0.21953183 -0.14731073 -0.14551456 -0.069032356 -0.02952696 -0.18468036
0.04376391 0.1831722 0.11010104 0.12676933 -0.10011581 -0.1607343 -0.087813854 -0.08668109
-0.156896 -0.10135229 -0.14678086 -0.115568325 0.1274326 0.103121795 0.12602936 0.08815283
0.05887207 0.056198407 0.18881287 0.065064766 -0.17684396 -0.13901424 -0.15539584 -0.15447417
0.12408494 0.098948024 0.13605912 0.07578446 0.08285861 0.07056617 0.018895127 0.1731709
0.08624455 0.19466028 0.18033248 0.21386182 0.101325825 0.21354845 0.1871263 0.050592776
0.102689005 0.08741327 0.08714727 0.06316072 0.09900095 0.2339475 0.22448489 0.061614532
-0.16234164 -0.16809262 -0.2339992 -0.12961219 -0.07196619 -0.21541837 -0.1746093 -0.12310666
-0.12029289 -0.21410228 -0.2183262 -0.06888764 0.12761743 0.17844689 0.1882147 0.074918054
0.04531559 0.020925583 0.030684441 0.051887646 0.050521854 0.034577932 0.001503401 0.091516055
0.13427687 0.053079277 0.11770374 0.021773186 0.051213436 -0.04707274 -0.09478343 -0.021883473
-0.08863622 -0.03918632 -0.057487577 0.0203511 0.0045535383 -0.07753934 0.0265219 -0.036376912
-0.006556892 0.026429363 -0.0020296306 0.044772703 -0.020266965 0.10192767 0.023784261 0.07851322
-0.024064362 -0.036237907 -0.0018935129 -0.06910243 -0.016149845 -0.029326739 0.0488013 0.09736453
-0.012097491 0.058712196 0.0626415 -0.020689351 0.028961059 -0.016139938 -0.03536098 -0.0032549254
0.014588474 -0.09883026 -0.03219009 -0.07752307 -0.111286305 -0.05811258 -0.06450865 0.01804697
-0.02345284 0.03978692 -0.009847719 -0.038593568 -0.06930046 -0.035301987 0.016308013 -0.03862953
-0.108582035 -0.08008456 -0.034357622 0.010959552 -0.055173986 -0.010140996 -0.07680295 0.028075332
-0.059734534 -0.014799611 0.01650032 -0.09422829 -0.029040014 -0.059329394 -0.02234183 -0.02522236
0.04627857 -0.006882396 0.04155472 0.10366781 0.03788094 -0.07241343 -0.08043841 0.0038764768
0.015308052 0.01801428 0.13589156 0.032399178 -0.0012776115 -0.0041784663 -0.028558018 0.029911203
-0.034472853 0.071401 0.0009574902 -0.043506887 -0.04965709 0.046542518 -0.011819789 -0.014952264
0.056163564 0.0225292 -0.0056024273 0.03661787 -0.032909844 -0.07564061 5.319266e-06 -0.076807536
-0.03908245 0.037909877 -0.049565006 0.014813931 0.02350835 0.026131218 -0.04798481 -0.022868196
0.012711789 -0.031345554 0.047979906 0.009645092 0.001374497 0.04715756 -0.096798785 -0.08846674
00000000: 08fb 0abe 5e3c b7bd bc07 40be 5c61 53be
00000010: fd27 2d3e 648c 293e 798f 343e 6ae9 543e
00000020: ff7f 113e f4d1 213e 8894 ee3d 6e07 203e
00000030: 04d6 76bd 4d98 61be 555a 72bd 1991 95bd
00000040: 294b 9ebd d51f 8abd 9168 16be df26 30bc
00000050: 8463 e7bd 22ab aabc c33c ffbd 5896 4dbd
00000060: 2c23 51be 8ffb 99bd 8741 25be 8556 38be
00000070: a6b2 b9bd ec4b 473d 09ca febd b2aa da3d
00000080: ae6b edbd f962 e3bd 540c 16be bafe 23bd
00000090: 462e d33c 605b 493d 29d0 f83d b5c4 163d
000000a0: 48cf 43be 0ee2 4abe 9a90 02be 2ec2 99bd
000000b0: 3d44 60be 1884 0bbe 2116 b4bd d129 48be
000000c0: 13f8 553e 4d03 833d 966e 093e 07b0 773d
000000d0: 6592 b7bd ae17 f0bd 53ac 0fbe d263 83bc
000000e0: 80e1 38be a7a5 d8bd f4cc 60be a0d8 16be
000000f0: c501 15be d660 8dbd 86e2 f1bc d91c 3dbe
00000100: c941 333d 7e91 3b3e a77c e13d d2cf 013e
00000110: 8509 cdbd 8897 24be c0d7 b3bd db85 b1bd
00000120: 58a9 20be ca91 cfbd b94d 16be 16af ecbd
00000130: b17d 023e 8531 d33d d70d 013e 7989 b43d
00000140: d723 713d 4d30 663d 2958 413e ad40 853d
00000150: 9516 35be c059 0ebe 1620 1fbe 7a2e 1ebe
00000160: 3f20 fe3d 43a5 ca3d 1553 0b3e e234 9b3d
00000170: c6b1 a93d ff84 903d f4c9 9a3c b653 313e
00000180: fca0 b03d 0655 473e 14a9 383e 98fe 5a3e
00000190: ea83 cf3d 72ac 5a3e 099e 3f3e 5f3a 4f3d
000001a0: 9d4e d23d ba05 b33d 457a b23d 685a 813d
000001b0: 03c1 ca3d ef8f 6f3e 5edf 653e 855f 7c3d
000001c0: e33c 26be 7920 2cbe 7c9d 6fbe 0fb9 04be
000001d0: 0363 93bd a296 5cbe c8cc 32be 581f fcbd
000001e0: 1e5c f6bd a13d 5bbe e790 5fbe f714 8dbd
000001f0: 25ae 023e c8ba 363e 5bbb 403e a36e 993d
00000200: d79c 393d 216c ab3c f05d fb3c 2488 543d
00000210: 01f0 4e3d 97a1 0d3d c40d c53a c56c bb3d
00000220: e07f 093e a869 593d a90e f13d ae5d b23c
00000230: 2ec5 513d 58cf 40bd d11d c2bd f844 b3bc
00000240: e886 b5bd d681 20bd 1878 6bbd 5ab7 a63c
00000250: d935 953b f2cc 9ebd 7544 d93c f5ff 14bd
00000260: 32db d6bb 6482 d83c 8d03 05bb 9563 373d
00000270: e806 a6bc 74bf d03d 36d7 c23c 8acb a03d
00000280: a022 c5bc 336e 14bd c02f f8ba 9385 8dbd
00000290: ae4c 84bc a13e f0bc dfe3 473d 0e67 c73d
000002a0: 8e34 46bc 337c 703d 304a 803d b77c a9bc
000002b0: be3f ed3c e737 84bc add6 10bd 9650 55bb
000002c0: 7f04 6f3c 8567 cabd c1d9 03bd 6ac4 9ebd
000002d0: 13ea e3bd 7507 6ebd 1c1d 84bd 3dd7 933c
000002e0: 2c20 c0bc 9cf7 223d 5458 21bc 4a14 1ebd
000002f0: 66ed 8dbd d198 10bd 6298 853c 003a 1ebd
00000300: 4260 debd 6003 a4bd 94ba 0cbd b18f 333c
00000310: 1efe 61bd 6c26 26bc dd4a 9dbd 3dfe e53c
00000320: 33ac 74bd 117a 72bc ae2b 873c c3fa c0bd
00000330: 53e5 edbc 6103 73bd 3706 b7bc 1f9f cebc
00000340: 998e 3d3d b985 e1bb 4835 2a3d ca4f d43d
00000350: 0b29 1b3d 7e4d 94bd e5bc a4bd 7d0c 7e3b
00000360: a0ce 7a3c af92 933c 2827 0b3e 00b5 043d
00000370: 8775 a7ba 84eb 88bb 81f2 e9bc 5708 f53c
00000380: 6833 0dbd b03a 923d 1400 7b3a 4734 32bd
00000390: 3c65 4bbd 5ea3 3e3d caa7 41bc 57fa 74bc
000003a0: c40b 663d 288f b83c 9194 b7bb 9ffc 153d
000003b0: 79cc 06bd 77e9 9abd 267c b236 454d 9dbd
000003c0: eb14 20bd 6347 1b3d ad04 4bbd 21b6 723c
000003d0: 9594 c03c 2311 d63c b88b 44bd 1556 bbbc
000003e0: 1c45 503c 3264 00bd 9486 443d 7306 1e3c
000003f0: 7728 b43a 4928 413d 713e c6bd 0d2e b5bd

bias f4 [64]
-0.24923708 0.022932224 -0.054662958 -0.14430954 -0.032499522 -0.096258864 0.0044551576 0.105341986
0.011490867 -0.06315262 0.015398493 0.08751306 -0.18689354 -0.076621115 -0.07281261 -0.08017468
-0.10509685 -0.12980892 -0.09111201 -0.0065606493 -0.15483677 -0.14421566 -0.18282384 -0.047016826
-0.041662052 -0.11549502 0.05737988 0.06453415 -0.06129713 -0.13992418 -0.13555044 0.049763
0.027685126 0.084526025 -0.08544208 -0.1063666 0.025343891 -0.097221985 -0.10587377 -0.1343899
0.03108082 -0.005005506 -0.0731153 0.04351998 -0.19299716 -0.08286328 0.019685358 -0.08702282
-0.12885544 -0.07894597 -0.0908029 -0.21879573 -0.20186226 0.10197349 0.09139541 -0.2575197
0.13910347 -0.16028515 -0.1320251 -0.08840574 0.05063895 0.045288917 -0.056821864 -0.1039906
00000000: 0138 7fbe 5cdc bb3c 44e6 5fbd e1c5 13be
00000010: 381e 05bd 5e23 c5bd 92fc 913b 8abd d73d
00000020: 3044 3c3c 2956 81bd f649 7c3c 0c3a b33d
00000030: 0561 3fbe 88eb 9cbd c71e 95bd 9f32 a4bd
00000040: 043d d7bd a1ec 04be ef98 babd b7fa d6bb
00000050: 888d 1ebe 45ad 13be 2c36 3bbe b794 40bd
00000060: d4a5 2abd a788 ecbd 2a07 6b3d 7b2a 843d
00000070: b312 7bbd 4948 0fbe bccd 0abe 4ad4 4b3d
00000080: ebcb e23c fb1b ad3d 42fc aebd bbd6 d9bd
00000090: fe9d cf3c 521c c7bd 59d4 d8bd 829d 09be
000000a0: 349d fe3c 3a05 a4bb 79bd 95bd 0242 323d
000000b0: 0ca1 45be 39b4 a9bd 3043 a13c 0539 b2bd
000000c0: aef2 03be 6dae a1bd dff6 b9bd fd0b 60be
000000d0: fbb4 4ebe 7ad7 d03d 842d bb3d 9fd9 83be
000000e0: 2471 0e3e ca21 24be 9631 07be 120e b5bd
000000f0: ca6a 4f3d df80 393d 0bbe 68bd 06f9 d4bd

weight f4 [64, 64, 2, 2]
0.100618474 0.10689411 0.08101306 0.105544336 0.041142277 0.052634846 0.049011853 0.07431324
0.094141014 0.02251379 0.096728705 0.069211684 -0.027088197 -0.09083616 -0.09281343 -0.06643624
0.028076764 0.08921703 0.057440266 0.01737476 0.15619509 0.14550097 0.11872375 0.122666106
0.070948206 0.090621956 -0.012218497 0.03800489 0.10036481 0.05621604 0.027840981 0.03975813
0.09730884 0.07936802 0.09904127 0.04783357 0.04312449 0.004543036 0.050808296 0.039652873
0.094158344 0.012534918 0.036115337 0.02336558 -0.0011718904 0.0011928262 -0.0044944943 -0.002007223
-0.04620337 -0.08989249 -0.055916324 -0.09036496 0.051444124 0.002512714 0.009509447 0.060710635
0.011931001 0.05577226 0.049112234 0.03897605 0.021664867 0.004804475 -0.005445992 0.025196075
0.08898872 0.122685164 0.12927103 0.08165444 0.11128097 0.11717595 0.11092126 0.15000893
0.08066156 0.093397796 -0.00042200676 0.02407867 0.06986772 0.071044035 -0.0073551685 0.00035717292
0.14779384 0.116054356 0.17375879 0.19060498 0.10900814 0.22452252 0.21038155 0.12077379
-0.013520439 0.018416192 0.03149818 0.002240607 0.004490726 0.08264892 0.0463295 0.082074024
-0.006445891 -0.0044935867 0.10299863 0.012518649 -0.010147911 0.063000865 0.05013308 0.079058014
0.0053200126 -0.009521122 0.046149597 0.05730431 0.09604871 0.052241825 -0.0007883842 0.07135584
0.10876945 0.17677066 0.07667912 0.10417671 0.09451912 0.029285936 0.1125809 0.054892022
-0.04034017 0.0077682505 0.058754664 0.0303427 0.02225715 -0.01982623 -0.01206971 0.06743172
0.11547051 0.08531759 0.12597923 0.15309924 0.017175775 0.08968691 0.07712102 0.02409637
0.0013025122 0.05235098 0.005797027 0.098450765 0.021055086 0.026531938 0.04617789 0.054221198
0.03229833 -0.010489218 0.026441447 0.015027232 0.15455818 0.11726373 0.17531551 0.15781264
0.060863294 0.15937337 0.105179235 0.12977591 -0.012248784 -0.014461281 0.051077027 -0.034606654
0.08041585 0.08143937 0.12728111 0.11770338 0.1070999 0.12488238 0.14618206 0.08296941
0.06781892 0.041060437 0.0036876595 -0.0029956305 0.06468095 0.047972195 0.097117566 0.012757486
0.12744324 0.093674414 0.11880896 0.18679617 0.022011587 0.045432717 0.027482426 -0.07042251
0.07882113 0.01399226 0.031484343 0.08150234 0.007972144 0.0638209 0.11843073 0.13292068
-0.12849025 -0.03913293 -0.055987936 -0.08268443 0.046291143 0.06455575 0.05028482 0.0026421184
0.050174143 0.06533426 0.03957325 -0.03382065 0.045016434 0.09745584 0.0937098 0.1269311
0.17730911 0.11328484 0.17321612 0.13194363 0.007160877 0.030022766 0.055972453 0.035735086
0.07369665 0.11040337 0.13803989 0.106061295 0.16913103 0.11947475 0.16836084 0.08916588
0.049838006 0.019832121 0.007476016 0.016394217 0.03626735 0.06606932 0.04760305 0.12274345
0.013351335 -0.0071657323 -0.014706294 -0.016664429 0.20251314 0.15378456 0.18573107 0.20497364
0.05415502 0.09887884 -0.0032512897 -0.0028051035 0.01734791 0.08633142 0.105157845 0.006664647
0.014970315 0.05232913 0.028760796 0.09695462 -0.041462567 -0.030827098 -0.028407134 -0.06501971
00000000: 0f11 ce3d 4deb da3d 2dea a53d a127 d83d
00000010: ce84 283d a397 573d a7c0 483d 8a31 983d
00000020: 01cd c03d d76e b83c b319 c63d dbbe 8d3d
00000030: 11e8 ddbc 4f08 babd f814 bebd b90f 88bd
00000040: 3e01 e63c 6bb7 b63d 7c46 6b3d 8355 8e3c
00000050: 9bf1 1f3e 35fe 143e 7025 f33d 5e38 fb3d
00000060: 4b4d 913d 0198 b93d 1730 48bc 04ab 1b3d
00000070: 118c cd3d ca42 663d c512 e43c 6cd9 223d
00000080: db49 c73d b38b a23d 26d6 ca3d 22ed 433d
00000090: 4ea3 303d c0dd 943b 5c1c 503d 0d6b 223d
000000a0: 17d6 c03d 425f 4d3c aded 133d 2c69 bf3c
000000b0: 1e9a 99ba 9b58 9c3a 8d46 93bb 9d8b 03bb
000000c0: bf3f 3dbd 8e19 b8bd 8408 65bd 4411 b9bd
000000d0: 13b7 523d 58ac 243b 83cd 1b3c b7ab 783d
000000e0: 3f7a 433c 7471 643d e929 493d 5aa5 1f3d
000000f0: 857a b13c db6e 9d3b 4b74 b2bb 0068 ce3c
00000100: b83f b63d 5c42 fb3d a05f 043e 713a a73d
00000110: 47e7 e33d f2f9 ef3d b02a e33d f19b 193e
00000120: e331 a53d 5847 bf3d ca40 ddb9 a240 c53c
00000130: cf16 8f3d 897f 913d a003 f1bb f042 bb39
00000140: 4557 173e e8ad ed3d d3ed 313e f42d 433e
00000150: a93f df3d 3be9 653e 436e 573e 4058 f73d
00000160: d584 5dbc 8edd 963c 3c04 013d 26d7 123b
00000170: f126 933b d643 a93d 00c4 3d3d 6d16 a83d
00000180: 0e38 d3bb f03e 93bb f2f0 d23d 051b 4d3c
00000190: 6c43 26bc 9906 813d 5858 4d3d 2be9 a13d
000001a0: 8053 ae3b 7bfe 1bbc 5c07 3d3d edb7 6a3d
000001b0: 30b5 c43d 86fb 553d 91ab 4eba 0323 923d
000001c0: 84c2 de3d 5e03 353e f109 9d3d 995a d53d
000001d0: 3e93 c13d 0fe9 ef3c d190 e63d 75d6 603d
000001e0: bc3b 25bd cf8c fe3b bba8 703d 4191 f83c
000001f0: a054 b63c 9e6a a2bc 08c0 45bc a419 8a3d
00000200: ce7b ec3d fdba ae3d b300 013e 0cc6 1c3e
00000210: 36b4 8c3c c5ad b73d a0f1 9d3d c065 c53c
00000220: 0fb9 aa3a fb6d 563d fdf4 bd3b 8ea0 c93d
00000230: b77b ac3c 8259 d93c 0725 3d3d 0c17 5e3d
00000240: 414b 043d f8da 2bbc bc9b d83c c734 763c
00000250: 8044 1e3e f727 f03d e985 333e a399 213e
00000260: ca4b 793d c632 233e 3668 d73d fae3 043e
00000270: 20af 48bc 02ef 6cbc 2536 513d b5bf 0dbd
00000280: 11b1 a43d afc9 a63d fb55 023e 780e f13d
00000290: 3157 db3d 55c2 ff3d c0b0 153e deeb a93d
000002a0: a5e4 8a3d fd2e 283d a9ac 713b 5752 44bb
000002b0: 7277 843d 7e7e 443d 93e5 c63d c604 513c
000002c0: 7b80 023e 5fd8 bf3d 1d52 f33d 7f47 3f3e
000002d0: a551 b43c a817 3a3d d322 e13c ad39 90bd
000002e0: f96c a13d cb3f 653c baf5 003d b3ea a63d
000002f0: 989d 023c 88b4 823d d08b f23d 5c1c 083e
00000300: f392 03be da49 20bd 9b53 65bd 7456 a9bd
00000310: c89b 3d3d ce35 843d 75f7 4d3d 6427 2d3b
00000320: 6783 4d3d f8cd 853d 8f17 223d 8687 0abd
00000330: 2763 383d ed96 c73d ecea bf3d 3afa 013e
00000340: 8590 353e e201 e83d 915f 313e 3b1c 073e
00000350: caa5 ea3b 4ef2 f53c 5f43 653d f45e 123d
00000360: 45ee 963d 291b e23d 545a 0d3e aa36 d93d
00000370: af30 2d3e 2daf f43d c966 2c3e 9a9c b63d
00000380: f022 4c3d f976 a23c 5ef9 f43b 2a4d 863c
00000390: 138d 143d 5a4f 873d 6afb 423d eb60 fb3d
000003a0: 8fbf 5a3c 85ce eabb abf2 70bc d783 88bc
000003b0: 9b5f 4f3e b379 1d3e 4930 3e3e 9ce4 513e
000003c0: a7d1 5d3d fd80 ca3d 9713 55bb d4d5 37bb
000003d0: 341d 8e3c 87ce b03d ff5c d73d 1c63 da3b
000003e0: 0d46 753c 1257 563d c39b eb3c 2590 c63d
000003f0: a7d4 29bd 1c89 fcbc 14b6 e8bc 0e29 85bd

bias f4 [64]
0.14573799 -0.045974515 0.121653646 0.10138563 0.05922279 0.24734804 -0.045798663 -0.043773517
-0.00013617268 -0.23897937 0.05753585 0.062286388 0.109346315 -0.019816773 -0.084313676 -0.07581486
0.022145338 -0.007090748 -0.2152753 -0.0037293595 -0.02434169 -0.04012986 -0.14723854 -0.13723478
0.1462205 0.0053857565 -0.040619284 -0.12992609 0.06499419 -0.029247675 -0.076771356 0.094996326
0.029923774 -0.057110596 -0.2412356 -0.10794147 -0.04860666 0.012240312 -0.035400137 -0.059409223
-0.07510401 0.12491199 0.03586879 -0.07156759 -0.0070605776 0.007579653 0.07531504 -0.066321984
-0.10227429 0.07166788 -0.028497724 -0.027922915 -0.021214232 0.04721593 -0.13805509 0.14821555
0.022978514 0.002494463 0.0012400225 0.22873679 -0.265719 -0.0068753073 0.032333378 0.04053354
00000000: 573c 153e c64f 3cbd 8c25 f93d 45a3 cf3d
00000010: 9993 723d ce48 7d3e 6197 3bbd dc4b 33bd
00000020: 93c9 0eb9 02b7 74be b6aa 6b3d 0320 7f3d
00000030: f6f0 df3d c956 a2bc a6ac acbd d244 9bbd
00000040: 246a b53c 8159 e8bb 2171 5cbe 4568 74bb
00000050: 3968 c7bc 355f 24bd b3c5 16be 4687 0cbe
00000060: d4ba 153e 007b b03b 6860 26bd 580b 05be
00000070: ad1b 853d d298 efbc 4d3a 9dbd 6f8d c23d
00000080: b422 f53c cdec 69bd 7706 77be 6b10 ddbd
00000090: c717 47bd 978b 483c bcff 10bd 1657 73bd
000000a0: 22d0 99bd dbd1 ff3d 27eb 123d 0792 92bd
000000b0: 6b5c e7bb bd5e f83b c63e 9a3d d2d3 87bd
000000c0: 2f75 d1bd 9cc6 923d 0f74 e9bc 99be e4bc
000000d0: 78c9 adbc 7e65 413d 505e 0dbe d1c5 173e
000000e0: 703d bc3c 257a 233b 4088 a23a fa39 6a3e
000000f0: 520c 88be 424a e1bb 0170 043d 7f06 263d

weight f4 [64, 32, 2, 2]
0.16747464 0.07718277 0.05303202 0.077009015 -0.062402435 -0.018074531 -0.014399203 0.016890658
0.043548767 0.05696347 0.11226911 0.1271015 0.0062219827 0.017143479 -0.014417722 0.030884726
-0.13495839 -0.038724035 -0.015041357 -0.105672956 -0.040316265 0.055501208 0.120176956 0.07189183
0.035541832 0.10129804 -0.036417753 -0.00635938 -0.09711954 -0.14236279 -0.14304234 -0.08833231
-0.17994103 -0.06786818 -0.2080635 -0.09422703 0.016296487 -0.026632661 -0.013782981 0.041953202
0.0071185227 0.03823369 0.106617965 0.1374549 -0.121038884 -0.00027725022 0.028900972 -0.04867672
0.0640008 0.042696483 0.09209951 0.06733182 0.09421086 0.0037756993 0.115606956 0.106704146
-0.103352144 -0.01676899 -0.045664035 -0.13670795 -0.06415728 -0.015247009 -0.1711773 -0.13611178
0.049886905 -0.028549135 0.121581964 -0.028064076 0.10408287 -0.027643139 0.13653041 -0.0072230184
0.13747433 0.10965338 -0.021555837 -0.002700455 0.03731797 -0.018613905 0.035437353 0.039065253
-0.06967379 0.019922199 -0.064670965 -0.13749465 0.06587975 0.15070026 0.0113316225 0.08760054
0.12385365 0.10586803 0.0015197764 -0.009545987 -0.14855967 -0.0059448695 -0.00574616 -0.015527821
0.046765465 0.03878585 0.12321681 -0.0038511069 -0.0020784147 -0.007446774 0.09836308 0.07719718
-0.035709403 -0.096943945 -0.07795533 0.022049332 -0.019108173 0.032895714 -0.13112003 -0.06394837
-0.11052505 -0.10259967 -0.0032086074 0.02557808 -0.01751017 -0.01896574 0.020328263 0.03418848
-0.04266448 0.017567944 0.010490171 -0.029462975 -0.073956214 -0.10325194 -0.12676607 -0.09560472
-0.046043195 0.008617311 -0.00062480586 0.013563201 -0.015667053 0.105700254 -0.05612508 0.07007833
-0.086147666 -0.08269512 -0.056395475 0.016301349 -0.075771615 -0.102210335 0.015748464 -0.010666023
-0.006143834 0.022660388 -0.017667009 -0.014295417 -0.0077924575 0.034027986 0.0061353515 -0.09130512
0.0011228481 -0.093375854 0.020921959 0.014480242 0.104535095 0.02266393 0.09773042 0.043403197
-0.0268838 0.00945484 -0.071415916 -0.01056178 -0.057286758 -0.07609722 -0.06992623 -0.0011338858
-0.04260286 -0.0042102966 -0.09442311 -0.06314286 -0.035060007 -0.023743426 -0.025758455 0.04421607
-0.0732691 -0.10615758 0.038435 -0.06640632 0.0013509152 0.0078321975 0.037303064 -0.037992492
0.01882338 0.07370869 -0.029098041 -0.027143208 0.0149044255 0.021956563 -0.025318252 -0.043512255
-0.017772848 -0.0088644205 -0.11563429 -0.05853035 0.006645028 -0.032554403 -0.118776776 -0.030221786
0.028002959 -0.09707657 -0.08466892 -0.06890082 -0.010659417 -0.05168567 0.08808504 0.07359676
-0.019087726 0.106771074 -0.03774134 0.041737203 0.0053752377 -0.010230166 -0.041488893 -0.0813876
-0.07338082 -0.026135108 0.06528846 -0.04255561 -0.015682118 -0.003366028 -0.013048458 -0.05629582
0.034559447 0.010474253 0.015010033 -0.010942758 0.0025961387 -0.11542956 -0.029045634 0.036902677
0.08470063 0.0057076705 -0.009119456 -0.044014 0.07949769 -0.0032362768 0.014248143 -0.026883986
-0.03250398 -0.037689567 -0.05694444 -0.03801638 0.07367736 0.08889132 -0.04097381 -0.01955583
-0.027912932 -0.012064985 0.03498648 0.042068228 0.057719 -0.010512519 -0.034319025 -0.050054703
00000000: 797e 2b3e 0012 9e3d 1a38 593d e7b6 9d3d
00000010: b299 7fbd 0a11 94bc a2ea 6bbc 475e 8a3c
00000020: 3160 323d 8752 693d 59ed e53d e526 023e
00000030: c6e1 cb3b 7b70 8c3c 4f38 6cbc f701 fd3c
00000040: 8832 0abe 189d 1ebd 0670 76bc 106b d8bd
00000050: ab22 25bd 3c55 633d 561f f63d 063c 933d
00000060: 5094 113d 5975 cf3d c82a 15bd 5962 d0bb
00000070: 9ce6 c6bd 8dc7 11be b179 12be 92e7 b4bd
00000080: 7642 38be 79fe 8abd 990e 55be 1afa c0bd
00000090: 3680 853c bd2c dabc 03d2 61bc 1fd7 2b3d
000000a0: 7f42 e93b ee9a 1c3d 855a da3d fac0 0c3e
000000b0: 3ce3 f7bd e55b 91b9 bbc1 ec3c 3e61 47bd
000000c0: da12 833d 82e2 2e3d ab9e bc3d 44e5 893d
000000d0: a0f1 c03d b971 773b 57c3 ec3d b487 da3d
000000e0: 4aaa d3bd 1f5f 89bc 360a 3bbd 2bfd 0bbe
000000f0: e464 83bd 97ce 79bc 1a49 2fbe e360 0bbe
00000100: 3656 4c3d e0df e9bc f7ff f83d a2e6 e5bc
00000110: 6629 d53d dd73 e2bc a1ce 0b3e 12af ecbb
00000120: 12c6 0c3e f491 e03d de95 b0bc 1efa 30bb
00000130: bada 183d 307c 98bc c226 113d e302 203d
00000140: 22b1 8ebd e133 a33c 3672 84bd 66cb 0cbe
00000150: f6eb 863d 2b51 1a3e 45a8 393c e967 b33d
00000160: fca6 fd3d 56d1 d83d 3c33 c73a c566 1cbc
00000170: 0720 18be 2ecd c2bb 494a bcbb 6768 7ebc
00000180: 258d 3f3d e9dd 1e3d 1859 fc3d da62 7cbb
00000190: 0336 08bb 1104 f4bb 9572 c93d 8e19 9e3d
000001a0: 0644 12bd 8c8a c6bd 0ba7 9fbd cda0 b43c
000001b0: be88 9cbc a8bd 063d 5444 06be 5df7 82bd
000001c0: f55a e2bd c71f d2bd 8047 52bb 1f89 d13c
000001d0: 7d71 8fbc 0a5e 9bbc 7587 a63c 3809 0c3d
000001e0: f3c0 2ebd a6ea 8f3c f7de 2b3c 565c f1bc
000001f0: 5b76 97bd c175 d3bd f7ce 01be 68cc c3bd
00000200: ca97 3cbd 9f2f 0d3c 03ca 23ba 3038 5e3c
00000210: 3158 80bc 6079 d83d 69e3 65bd 3a85 8f3d
00000220: 306e b0bd 0f5c a9bd f1fe 66bd 688a 853c
00000230: 262e 9bbd a753 d1bd ec02 813c 8bc0 2ebc
00000240: 3752 c9bb 47a2 b93c 67ba 90bc 5337 6abc
00000250: df57 ffbb ee60 0b3d 0f0b c93b 2efe babd
00000260: 882c 933a d73b bfbd 8764 ab3c 893e 6d3c
00000270: 7f16 d63d b5a9 b93c e326 c83d 8dc7 313d
00000280: 6a3b dcbc 79e8 1a3c 8242 92bd 510b 2dbc
00000290: 85a5 6abd dcd8 9bbd 7c35 8fbd e59e 94ba
000002a0: 5680 2ebd 87f6 89bb e760 c1bd 0b51 81bd
000002b0: 159b 0fbd 9381 c2bc 6503 d3bc e91b 353d
000002c0: 1c0e 96bd 2569 d9bd 056e 1d3d 0900 88bd
000002d0: 3111 b13a 9e52 003c 19cb 183d 049e 1bbd
000002e0: 7d33 9a3c 95f4 963d 045f eebc 6f5b debc
000002f0: b131 743c 40de b33c 3968 cfbc e839 32bd
00000300: 5d98 91bc 133c 11bc acd1 ecbd 85bd 6fbd
00000310: 89be d93b c457 05bd 3d41 f3bd ae93 f7bc
00000320: 7666 e53c 15d0 c6bd e666 adbd e01b 8dbd
00000330: d6a4 2ebc 5ab4 53bd ee65 b43d e6b9 963d
00000340: dd5d 9cbc cbaa da3d aa96 1abd a1f4 2a3d
00000350: c322 b03b 6d9c 27bc 42f0 29bd 8bae a6bd
00000360: af48 96bd 4b19 d6bc f5b5 853d cb4e 2ebd
00000370: c977 80bc 9498 5cbb 33c9 55bc 7296 66bd
00000380: 358e 0d3d 349c 2b3c a4ec 753c 4149 33bc
00000390: fb23 2a3b 5566 ecbd 1cf1 edbc 4327 173d
000003a0: 8677 ad3d 6907 bb3b c569 15bc 0648 34bd
000003b0: afcf a23d b717 54bb 0b71 693c ce3b dcbc
000003c0: e522 05bd 6060 1abd 933e 69bd 10b7 1bbd
000003d0: 28e4 963d a70c b63d 27d4 27bd 8c33 a0bc
000003e0: a9a9 e4bc 37ac 45bc fc4d 0f3d bc4f 2c3d
000003f0: c26a 6c3d b33c 2cbc 1b92 0cbd 2906 4dbd

bias f4 [32]
0.053443298 -0.11386365 0.12627088 0.12975743 -0.0034924275 0.13107036 0.099400416 -0.1317107
-0.18322252 0.09145181 0.13525027 -0.15297654 0.1418635 0.11762584 0.05823242 0.06639712
0.12140278 -0.02796556 0.14954159 -0.1257923 -0.02448234 0.016988859 -0.035644885 -0.15296964
0.15583771 0.092054404 -0.07977291 -0.11163766 -0.1033697 -0.096425675 -0.17047921 -0.09375546
00000000: 5ce7 5a3d 5831 e9bd 274d 013e 22df 043e
00000010: 36e1 64bb 4f37 063e 7292 cb3d 2bdf 06be
00000020: af9e 3bbe 164b bb3d 0c7f 0a3e e2a5 1cbe
00000030: aa44 113e d1e5 f03d 1e85 6e3d 37fb 873d
00000040: 05a2 f83d 0818 e5bc 6e21 193e b2cf 00be
00000050: 308f c8bc 382c 8b3c 5f00 12bd 13a4 1cbe
00000060: ec93 1f3e 0587 bc3d fb5f a3bd 49a2 e4bd
00000070: 7eb3 d3bd d37a c5bd 1a92 2ebe dd02 c0bd
