output/train_12_12_23_part-5/unet_tgs_salt.pth (torch, 974905 bytes, 36 tensors)

weight f4 [16, 3, 2, 2]
0.14645003 -0.28191718 0.02844414 0.032677185 -0.16907436 0.07167871 -0.25426546 0.10178698
-0.27817777 -0.13138175 -0.23040687 -0.06909555 -0.24909884 0.11707788 -0.19140379 -0.18455015
0.054322258 -0.18900095 -0.22838016 0.28262407 0.03118515 -0.1369382 -0.1241327 -0.17972864
0.0025207314 -0.24379593 0.2775778 -0.15280002 0.11076861 0.08362352 0.12716104 -0.15492377
-0.10476527 0.06121934 -0.04146857 -0.007537596 -0.1123143 -0.04630542 -0.1415787 -0.054458387
-0.057148833 0.003734155 0.21468824 -0.2567839 -0.13921355 0.17778404 0.14012566 0.11901404
-0.121127106 0.15402909 0.20258923 -0.14880295 -0.06164261 -0.14505494 -0.17452933 -0.08843065
-0.21207684 -0.20177568 0.20728806 0.19087665 -0.21306045 0.1711188 0.005155575 0.04708406
0.17591755 -0.16623671 -0.09052571 0.13677402 0.034146063 0.057724245 -0.1606206 -0.25277
0.11209023 0.25111485 -0.12696733 -0.26603392 0.09742511 -0.09447054 -0.1042178 0.06366643
-0.28452873 -0.16728757 -0.19870532 -0.16993198 -0.029453535 -0.16567679 0.15611371 0.13883877
0.25932008 -0.04890489 -0.16540992 0.20349586 0.23970127 0.017833702 0.08550781 -0.030421833
-0.11080942 0.12403355 -0.21805322 -0.089846805 0.18718238 -0.27894253 0.06663563 0.11049899
-0.22403271 -0.04536045 0.09681784 -0.030261928 0.14774036 0.14022556 0.010809745 0.1797917
-0.100027256 0.16271254 0.10621898 -0.18118975 0.02136839 -0.27384597 0.14835714 -0.07196901
-0.081437886 0.07298251 0.034450967 -0.19552217 -0.15069619 0.20853727 -0.11182852 0.24421608
0.09360323 0.26223248 0.2093528 0.28255522 0.17954497 -0.14879787 -0.13746582 0.11214128
0.21877684 0.18625548 -0.0664329 -0.051186625 -0.07682345 0.28225395 -0.16630119 0.24955656
0.16533259 -0.20540348 0.13690345 0.051148627 0.091027424 -0.1833296 -0.26196316 0.0152344005
0.23852928 0.13448808 -0.18900467 0.04343523 -0.17500219 -0.123005226 0.043162398 -0.15319124
0.072217636 0.12415016 -0.2778686 -0.20159777 -0.13516971 0.14987633 -0.11219399 0.07852217
0.26501122 0.09804929 -0.16553155 -0.2803631 -0.15687706 -0.05604375 0.18645139 0.013852715
0.19979201 -0.23141898 0.18685457 -0.02467959 0.076294474 0.20467393 -0.19228412 0.19079363
-0.11304347 0.017703015 0.15890233 0.08274937 -0.099007145 -0.021975733 0.2821707 0.23959921
00000000: fff6 153e 7357 90be af03 e93c 83d8 053d
00000010: d421 2dbe 4acc 923d 152f 82be b175 d03d
00000020: 516d 8ebe f088 06be c7ef 6bbe f881 8dbd
00000030: c413 7fbe 87c6 ef3d 5bff 43be b7fa 3cbe
00000040: 0481 5e3d 7789 41be 7ddc 69be 1ab4 903e
00000050: 0078 ff3c 8739 0cbe 4939 febd c90a 38be
00000060: db32 253b a4a5 79be ad1e 8e3e 9c77 1cbe
00000070: a7da e23d cf42 ab3d 8136 023e 56a4 1ebe
00000080: 2d8f d6bd 21c1 7a3d f2da 29bd f0fd f6bb
00000090: 0a05 e6bd c1aa 3dbd 02fa 10be c20f 5fbd
000000a0: e514 6abd bab8 743b 3cd7 5b3e 2e79 83be
000000b0: ff8d 0ebe 050d 363e 1a7d 0f3e a2bd f33d
000000c0: 7d11 f8bd cdb9 1d3e 8d73 4f3e cd5f 18be
000000d0: f67c 7cbd 4889 14be d1b7 32be 211b b5bd
000000e0: ac2a 59be 499e 4ebe 5243 543e 2b75 433e
000000f0: 852c 5abe c439 2f3e 19f0 a83b 37db 403d
00000100: bb23 343e f539 2abe 8b65 b9bd 7d0e 0c3e
00000110: bedc 0b3d 4270 6c3d ba79 24be 126b 81be
00000120: 908f e53d 2092 803e b903 02be 9935 88be
00000130: d186 c73d c579 c1bd 2470 d5bd 8c63 823d
00000140: c0ad 91be 6f4d 2bbe 6879 4bbe a602 2ebe
00000150: 8a48 f1bc 2da7 29be 46dc 1f3e c02b 0e3e
00000160: 9ac5 843e 7e50 48bd 3861 29be 3861 503e
00000170: 4074 753e fc17 923c b81e af3d 3537 f9bc
00000180: 0df0 e2bd 4d05 fe3d 5849 5fbe 9a01 b8bd
00000190: bdac 3f3e 8ed1 8ebe 4378 883d 4b4d e23d
000001a0: d568 65be e1cb 39bd 6f48 c63d dde7 f7bc
000001b0: 4049 173e 4a97 0f3e 5b1b 313c 511b 383e
000001c0: 17db ccbd 1e9e 263e 5689 d93d ce89 39be
000001d0: c30c af3c 8a35 8cbe efea 173e 7d64 93bd
000001e0: e8c8 a6bd db77 953d 751c 0d3d f736 48be
000001f0: 1a50 1abe cb8a 553e 5a06 e5bd c813 7a3e
00000200: 0db3 bf3d 5643 863e 9560 563e 14ab 903e
00000210: a3da 373e 785e 18be d7c3 0cbe 54aa e53d
00000220: 0907 603e c2b9 3e3e f90d 88bd 11a9 51bd
00000230: 9d55 9dbd 9783 903e dc4a 2abe c18b 7f3e
00000240: f24c 293e 4a55 52be 6b30 0c3e 3981 513d
00000250: 966c ba3d c1ba 3bbe 0920 86be b599 793c
00000260: 0541 743e 3eb7 093e 718a 41be 24e9 313d
00000270: c633 33be 2aea fbbd 0ecb 303d 2ade 1cbe
00000280: d7e6 933d 7042 fe3d cb44 8ebe a56f 4ebe
00000290: ee69 0abe 2e79 193e f6c5 e5bd 3bd0 a03d
000002a0: 8daf 873e 11ce c83d 1a81 29be c18b 8fbe
000002b0: 61a4 20be 228e 65bd 1ded 3e3e 7ff6 623c
000002c0: 4796 4c3e 19f9 6cbe ce56 3f3e da2c cabc
000002d0: 4740 9c3d 0b96 513e 21e6 44be 685f 433e
000002e0: 5683 e7bd ea05 913c 4bb7 223e 8078 a93d
000002f0: 42c4 cabd 7406 b4bc ae78 903e 7f59 753e

bias f4 [16]
-0.17773077 -0.1434619 0.20409589 -0.10158295 -0.112834275 0.08327967 0.19345158 0.28052428
0.17313923 -0.25791162 0.19402102 -0.089339286 -0.28373092 -0.07700496 0.07700433 0.13013415
00000000: 0eff 35be ade7 12be 83fe 503e b90a d0bd
00000010: a815 e7bd 888e aa3d 2c18 463e e1a0 8f3e
00000020: 694b 313e fe0c 84be 72ad 463e 84f7 b6bd
00000030: 2e45 91be c7b4 9dbd 72b4 9d3d e341 053e

weight f4 [16, 16, 2, 2]
-0.0046266764 -0.06332445 -0.0427348 -0.06693244 -0.11659701 -0.10008469 0.06633516 -0.116224065
-0.07989889 -0.01022266 0.027430326 -0.027014183 0.117158785 0.054149494 -0.027443988 -0.021995174
-0.010182664 -0.04358013 0.051849052 0.09256807 -0.10040819 -0.059951637 0.09834853 -0.05959426
0.072423 -0.068592764 0.07316373 0.087803565 -0.05585198 0.012322142 -0.0319857 -0.019359767
0.003944838 0.10622809 -0.05444205 -0.018817198 0.0525886 -0.06051716 0.088212185 -0.0032279927
-0.09402583 0.012629806 -0.09185872 -0.12400907 0.083534725 -0.108162366 0.061879277 0.08090456
0.06314485 0.00011010487 0.111182064 -0.044086426 0.109247476 -0.044467513 -0.11497044 -0.09858309
-0.07751237 -0.09460253 0.030342454 -0.015185888 -0.0496845 -0.08073593 -0.08685922 -0.07368589
0.05992134 -0.022348806 -0.06868881 0.094482526 0.0050423145 -0.09071486 -0.0476135 -0.08077352
0.0621394 0.07732429 -0.05553845 -0.055271734 0.04119627 -0.10473065 -0.0062944554 -0.055855826
0.025954664 -0.00627701 -0.0014670938 -0.015034646 0.06634453 0.003650401 -0.082954414 0.052451834
-0.094412416 0.105250776 0.062047735 -0.055185463 -0.054029487 0.118037514 0.09835204 -0.119677715
-0.101519674 0.10587054 0.11313206 0.049886007 0.10852932 -0.042033873 0.053597607 -0.0965627
-0.1096596 -0.096636936 0.08481423 0.11324978 -0.053445015 0.051470738 -0.10459497 -0.10676119
-0.10461901 0.116325065 -0.0058826054 -0.072969005 0.038758576 0.02477109 0.017128045 -0.019174367
0.027980924 -0.06760133 -0.08926904 -0.094031364 0.00382374 -0.029008543 -0.07541822 -0.121617824
-0.12375373 -0.054211423 0.09478362 0.04662998 0.045997277 0.07056384 -0.013818994 -0.018197939
-0.042852007 0.013239265 -0.038999565 -0.11924227 0.00026946422 -0.025011355 0.11534296 0.040313195
0.063843876 -0.06979062 0.07158752 0.055772454 -0.0081921555 0.054148477 0.09742576 0.10264161
-0.085083775 0.0038821902 7.119871e-05 0.10206458 0.0333609 0.08128594 -0.0067605856 -0.0113802515
-0.10662527 -0.0855722 -0.010381743 -0.017468026 0.08296608 0.087391034 0.076307155 -0.06887948
0.039434325 -0.11340431 0.00016286639 -0.078631654 0.04996673 0.09871642 0.11723953 -0.016554317
-0.08110455 0.07242277 -0.036307916 0.038825884 -0.053267673 0.0013558815 -0.050300773 0.081199765
-0.1037841 -0.09123173 0.10184545 -0.08885521 -0.0011695113 0.048707306 -0.039161563 -0.07738627
0.043333918 0.10178448 -0.113157734 -0.028640732 -0.028897628 0.072959796 0.039610222 -0.041626975
0.009626681 -0.07529754 0.07311977 0.12204311 0.059804015 0.122328274 0.065180294 -0.049497623
0.12168312 -0.050746772 -0.05686699 -0.05787851 -0.049049832 0.095369995 -0.01972154 -0.060547296
0.10780033 -0.119705535 0.108558126 -0.07834233 -0.09633481 0.016204659 0.112791754 -0.02692021
0.08097505 -0.0642592 0.06468379 0.045700427 0.0160685 -0.074133776 -0.099960275 -0.034585364
-0.103424676 -0.017999182 -0.06411805 0.055091374 0.06930782 0.118638575 -0.12159072 -0.09401438
-0.08827987 0.051367234 0.027882297 -0.023198824 -0.09952162 -0.013234699 -0.11338847 -0.10314509
0.07295453 -0.07936059 0.10271212 0.036915593 -0.103061356 0.06845507 -0.02496368 0.05196122
00000000: 609b 97bb 40b0 81bd b00a 2fbd e013 89bd
00000010: 6aca eebd 34f9 ccbd bada 873d e206 eebd
00000020: 07a2 a3bd f27c 27bc 90b5 e03c d94c ddbc
00000030: f2f0 ef3d dccb 5d3d 37d2 e0bc 392f b4bc
00000040: 30d5 26bc 1481 32bd ac5f 543d 5494 bd3d
00000050: cfa2 cdbd d98f 75bd f46a c93d 1c19 74bd
00000060: 8352 943d 5d7a 8cbd ded6 953d 5bd2 b33d
00000070: 0cc5 64bd cfe2 493c 7003 03bd 6098 9ebc
00000080: b343 813b 1d8e d93d a1fe 5ebd 8626 9abc
00000090: 2567 573d d7e0 77bd 97a8 b43d bb8c 53bb
000000a0: 9d90 c0bd 3fed 4e3c 6d20 bcbd 78f8 fdbd
000000b0: 4114 ab3d 3b84 ddbd 2075 7d3d 4ab1 a53d
000000c0: 1652 813d 1ae8 e638 6cb3 e33d f893 34bd
000000d0: 24bd df3d 9123 36bd 9f75 ebbd eee5 c9bd
000000e0: cebe 9ebd f9be c1bd bd90 f83c 3bce 78bc
000000f0: f981 4bbd e158 a5bd 3fe3 b1bd a1e8 96bd
00000100: 1470 753d d814 b7bc b8ac 8cbd 0e80 c13d
00000110: 003a a53b b6c8 b9bd 6006 43bd 966c a5bd
00000120: e285 7e3d 335c 9e3d 497c 63bd 9d64 62bd
00000130: 6cbd 283d 067d d6bd b841 cebb 14c9 64bd
00000140: e09e d43c 60af cdbb 804b c0ba e053 76bc
00000150: a4df 873d 913b 6f3b 01e4 a9bd bcd7 563d
00000160: 4c5b c1bd b88d d73d c425 7e3d 270a 62bd
00000170: 064e 5dbd a7bd f13d cb6c c93d 9719 f5bd
00000180: 8ce9 cfbd a7d2 d83d c8b1 e73d 4555 4c3d
00000190: 9f44 de3d b62b 2cbd 2a89 5b3d aac2 c5bd
000001a0: 3695 e0bd 96e9 c5bd 15b3 ad3d 80ef e73d
000001b0: 29e9 5abd fbd2 523d e335 d6bd 9ca5 dabd
000001c0: 7e42 d6bd d63b ee3d dfc2 c0bb c670 95bd
000001d0: 50c1 1e3d beec ca3c 1d50 8c3c 9013 9dbc
000001e0: 4038 e53c 9172 8abd b0d2 b6bd 8493 c0bd
000001f0: b697 7a3b 53a3 edbc de74 9abd c412 f9bd
00000200: 9872 fdbd cc0c 5ebd ea1d c23d 14ff 3e3d
00000210: a467 3c3d c683 903d 1069 62bc d813 95bc
00000220: 9685 2fbd 81e9 583c 02be 1fbd 4b35 f4bd
00000230: e046 8d39 9de4 ccbc ee38 ec3d 731f 253d
00000240: 94c0 823d 62ee 8ebd 7a9c 923d a871 643d
00000250: 6438 06bc cbca 5d3d 2887 c73d c435 d23d
00000260: 6740 aebd 586c 7e3b 8450 9538 3c07 d13d
00000270: 70a5 083d 3e79 a63d e787 ddbb 3c74 3abc
00000280: 595e dabd 7a40 afbd 3018 2abc 1b19 8fbc
00000290: 1fea a93d 12fa b23d ed46 9c3d af10 8dbd
000002a0: e385 213d 8540 e8bd 1dc7 2a39 a209 a1bd
000002b0: eaa9 4c3d d62b ca3d 471b f03d eb9c 87bc
000002c0: 241a a6bd 6452 943d 9cb7 14bd e407 1f3d
000002d0: 342f 5abd d5b7 b13a 2f08 4ebd 104c a63d
000002e0: c28c d4bd b4d7 babd 5994 d03d b8f9 b5bd
000002f0: 4a4a 99ba 5081 473d e067 20bd b17c 9ebd
00000300: e87e 313d 6274 d03d 3ebf e7bd f89f eabc
00000310: b8ba ecbc f26b 953d 543e 223d 0c81 2abd
00000320: 3ab9 1d3c 9935 9abd d1bf 953d bdf1 f93d
00000330: 0ef5 743d 3f87 fa3d 3f7d 853d 05be 4abd
00000340: 0035 f93d d9db 4fbd 5ced 68bd 0412 6dbd
00000350: 7ae8 48bd 5851 c33d 118f a1bc 7100 78bd
00000360: 6bc6 dc3d 2d28 f5bd b953 de3d f271 a0bd
00000370: 2f4b c5bd a2bf 843c 5dff e63d c687 dcbc
00000380: 3fd6 a53d 549a 83bd ef78 843d 5f30 3b3d
00000390: 16a2 833c 73d3 97bd f9b7 ccbd 62a9 0dbd
000003a0: 51d0 d3bd 0573 93bc 5350 83bd 7ea7 613d
000003b0: 42f1 8d3d c8f8 f23d 8e04 f9bd 9c8a c0bd
000003c0: 14cc b4bd 7366 523d 6a69 e43c 760b bebc
000003d0: fed1 cbbd 5ad6 58bc 3738 e8bd bc3d d3bd
000003e0: 2f69 953d ce87 a2bd bb5a d23d ce34 173d
000003f0: d511 d3bd 2c32 8c3d a280 ccbc 4ad5 543d

bias f4 [16]
0.005813157 0.05873233 -0.043199502 -0.07816246 -0.059957642 -0.034118455 0.0379635 -0.09683372
0.04470659 0.08106989 -0.1108719 0.099895544 0.070795015 0.050394338 0.11180318 -0.013356594
00000000: 4c7c be3b 5091 703d f6f1 30bd a413 a0bd
00000010: 2596 75bd cbbf 0bbd 9d7f 1b3d c250 c6bd
00000020: 421e 373d f807 a63d cf10 e3bd 0996 cc3d
00000030: fafc 903d 4b6a 4e3d 11f9 e43d 9ed5 5abc

weight f4 [32, 16, 2, 2]
-0.007497706 0.1084822 0.09269505 -0.04675993 0.04658461 -0.08337328 -0.022466851 0.03590608
-0.00091503875 -0.100582026 0.108259045 0.02807939 -0.011765064 -0.05245547 -0.059864834 0.09168723
0.09821694 -0.052266 0.03056676 0.08615995 -0.008609683 0.048194516 -0.091567 -0.11166354
-0.0023012373 -0.03695659 -0.11083743 0.09099763 0.036413003 -0.031617258 -0.11583206 -0.09144266
-0.092421226 0.047638133 -0.042482324 -0.081894495 0.11667293 0.005744941 -0.033316378 -0.006933506
0.010227197 0.045649443 0.060245235 -0.0061362777 -0.019918231 0.105582245 0.0650852 -0.0571321
0.025192033 0.04629318 -0.082781926 -0.10474498 0.09110866 -0.045016862 -0.079253316 0.021074465
0.11221224 -0.05643834 0.098085254 -0.07727421 -0.11278112 -0.033184044 -0.05748123 -0.08780821
0.1029468 0.02726093 0.037423193 -0.10365248 -0.06524989 -0.09595245 0.020859241 0.023160264
-0.051212206 0.112094715 -0.11559713 -0.10720609 -0.060486317 0.08084877 0.01209195 0.06554873
0.033842206 -0.044935778 0.0024397671 -0.04671073 -0.053455263 0.075062186 0.015556619 -0.020767957
0.10406354 0.0021240562 -0.09823617 -0.05690658 -0.06608397 0.07656892 -0.08995357 0.06688759
-0.09125866 -0.0013142228 -0.05035281 -0.019050956 -0.08419317 -0.013163924 0.03290254 -0.033995852
-0.05578114 -0.044184312 -0.04170212 0.0074937046 -0.052513495 -0.050053224 -0.048254043 -0.01116395
-0.10248043 0.0735106 0.03166774 0.110961795 -0.10225624 0.06259765 -0.10148771 0.09987052
-0.10910393 0.093999624 0.004335597 -0.049644098 -0.11809707 -0.0032934994 0.031859607 -0.089565665
0.07635848 0.01962611 0.059473366 0.00042690337 -0.0013636202 -0.044253737 0.06173636 0.067644686
0.011677444 -0.0832715 -0.11924887 0.053488076 -0.07443844 -0.007308647 -0.053488225 -0.041092545
-0.08068234 -0.017673314 0.014703885 0.057543457 0.07709418 -0.029727682 0.11039181 0.0077929646
-0.06811702 0.044794023 -0.015952542 -0.07011306 -0.013330102 -0.06277788 0.11726543 -0.022455916
0.030725881 -0.089020506 0.046370476 0.07630968 -0.0990953 -0.10911097 -0.010120675 -0.0492305
0.04316947 -0.044253036 0.060744584 -0.06491265 -0.11058375 0.08477898 -0.108345866 0.0072319955
0.038955316 0.009188846 0.052622035 -0.0065202564 -0.035771146 -0.109218866 0.03547868 -0.03379959
-0.04081668 0.06436324 -0.0018918961 0.113939345 0.06370577 -0.064193875 -0.107117325 0.036432713
-0.02913515 0.1203714 0.028404828 0.022893311 -0.08233434 0.013363938 -0.005964643 0.111997716
0.038853366 0.11765279 -0.025103008 -0.11401406 -0.07368478 0.022102265 -0.04210507 0.016161695
-0.050474703 0.0969458 0.110965244 -0.054166794 0.08984888 -0.015709953 -0.089461304 -0.024279904
0.08067467 -0.061150108 0.031228693 -0.024588188 0.01606969 0.057395376 -0.073856086 -0.08676419
0.10608659 0.03486219 0.05006931 0.0067075198 -0.048328217 0.04174308 0.11616142 0.074731834
-0.06808156 0.04037012 -0.07090594 -0.12192941 0.014451912 0.010927788 -0.010671376 -0.08588675
0.08641271 0.07402034 -0.09563845 -0.009776418 0.0529712 -0.095313095 0.029825246 -0.05523606
-0.07396417 0.040194016 -0.06505092 -0.012491721 0.09574982 -0.10016578 0.085444905 -0.10444658
00000000: 51af f5bb ea2b de3d e7d6 bd3d 5787 3fbd
00000010: 81cf 3e3d 9cbf aabd 670c b8bc 4112 133d
00000020: 36df 6fba f3fd cdbd ebb6 dd3d c006 e63c
00000030: 41c2 40bc 8cdb 56bd d434 75bd 84c6 bb3d
00000040: f725 c93d e014 56bd 2467 fa3c a174 b03d
00000050: a10f 0dbc 9d67 453d 7b87 bbbd dbaf e4bd
00000060: 5bd0 16bb cb5f 17bd bcfe e2bd f75c ba3d
00000070: cd25 153d 1981 01bd 5c39 edbd 4a46 bbbd
00000080: 5747 bdbd 3420 433d f201 2ebd 4db8 a7bd
00000090: 38f2 ee3d 0f40 bc3b c176 08bd 7732 e3bb
000000a0: f98f 273c e9fa 3a3d b5c3 763d d412 c9bb
000000b0: 8f2b a3bc 813b d83d 644b 853d 5903 6abd
000000c0: 865f ce3c eb9d 3d3d 9289 a9bd 8984 d6bd
000000d0: 2d97 ba3d 9a63 38bd 904f a2bd 5ba4 ac3c
000000e0: 88cf e53d e42b 67bd ece0 c83d f141 9ebd
000000f0: caf9 e6bd feeb 07bd 7071 6bbd cad4 b3bd
00000100: c6d5 d23d 5052 df3c 1049 193d c047 d4bd
00000110: bca1 85bd b882 c4bd 00e1 aa3c 98ba bd3c
00000120: e4c3 51bd ea91 e53d 30be ecbd de8e dbbd
00000130: 80c0 77bd 0a94 a53d 501d 463c 6a3e 863d
00000140: 209e 0a3d 940e 38bd 80e4 1f3b c053 3fbd
00000150: e8f3 5abd 34ba 993d 30e1 7e3c 9021 aabc
00000160: 441f d53d c033 0b3b 0c30 c9bd e016 69bd
00000170: 0857 87bd 2ad0 9c3d 9439 b8bd 5cfc 883d
00000180: d2e5 babd 0042 acba c03e 4ebd c010 9cbc
00000190: 786d acbd 80ad 57bc d0c4 063d 3c3f 0bbd
000001a0: c47a 64bd 9cfa 34bd d8cf 2abd c08d f53b
000001b0: 6418 57bd 9c04 4dbd 08a6 45bd 00e9 36bc
000001c0: 42e1 d1bd ba8c 963d 08b6 013d f03f e33d
000001d0: b86b d1bd 3233 803d cad8 cfbd ea88 cc3d
000001e0: e271 dfbd e082 c03d a011 8e3b 9c57 4bbd
000001f0: e0dc f1bd c0d7 57bb 387f 023d 346e b7bd
00000200: d661 9c3d f0c6 a03c 589a 733d 00d2 df39
00000210: 80bb b2ba 6843 35bd 44df 7c3d 4c89 8a3d
00000220: c052 3f3c 408a aabd c038 f4bd 5016 5b3d
00000230: 2e73 98bd 607d efbb 7816 5bbd a850 28bd
00000240: c83c a5bd a0c7 90bc 90e8 703c b0b2 6b3d
00000250: 8ee3 9d3d 7887 f3bc 1a15 e23d 205c ff3b
00000260: f080 8bbd f079 373d e8ae 82bc 7097 8fbd
00000270: 8066 5abc b091 80bd dc28 f03d 78f5 b7bc
00000280: d8b4 fb3c 6250 b6bd f8ee 3d3d 4048 9c3d
00000290: 7af2 cabd 9275 dfbd 30d1 25bc eca5 49bd
000002a0: 78d2 303d ac42 35bd 50cf 783d ecf0 84bd
000002b0: bc79 e2bd 9aa0 ad3d 70e4 ddbd 60fa ec3b
000002c0: 9c8f 1f3d d08c 163c 348a 573d e0a7 d5bb
000002d0: c484 12bd 24ae dfbd 1852 113d 7071 0abd
000002e0: 642f 27bd e0d0 833d 80f9 f7ba 0859 e93d
000002f0: 2c78 823d 1478 83bd 5460 dbbd 783a 153d
00000300: d7ac eebc 4885 f63d 3eb1 e83c c18a bb3c
00000310: e89e a8bd 6bf4 5a3c 0d73 c3bb 0f5f e53d
00000320: b524 1f3d f2f3 f03d d3a4 cdbc 3480 e9bd
00000330: 0ce8 96bd cf0f b53c 5e76 2cbd 8865 843c
00000340: 90be 4ebd 858b c63d bf41 e33d 00de 5dbd
00000350: b102 b83d 29b2 80bc 7d37 b7bd a6e6 c6bc
00000360: c338 a53d 8978 7abd 51d3 ff3c 2b6d c9bc
00000370: 95a4 833c 6a17 6b3d dc41 97bd 6cb1 b1bd
00000380: ed43 d93d a8cb 0e3d 7a15 4d3d c1ca db3b
00000390: cff3 45bd cbfa 2a3d 0ae6 ed3d 010d 993d
000003a0: 586e 8bbd 245b 253d 2237 91bd 20b6 f9bd
000003b0: b6c7 6c3c 770a 333c ffd6 2ebc 64e5 afbd
000003c0: 26f9 b03d fa97 973d 17de c3bd 452d 20bc
000003d0: 54f8 583d 8333 c3bd 1354 f43c 353f 62bd
000003e0: 877a 97bd 7ba2 243d 6b39 85bd 13aa 4cbc
000003f0: 7b18 c43d b723 cdbd bdfd ae3d 17e8 d5bd

bias f4 [32]
0.056145698 -0.10511987 -0.0499679 0.068625055 -0.10627772 0.045747727 -0.0865864 -0.08408415
-0.098886326 -0.100085855 0.0043932637 0.09419399 0.095260166 0.021009857 0.099957414 0.004437505
0.082517415 0.05022167 -0.05322612 -0.05043231 -0.0575286 0.038259335 0.08322834 0.015317032
-0.07526675 0.10371473 -0.067561194 0.0677572 0.06159655 0.015929746 0.053220212 0.09849056
00000000: 08f9 653d 1649 d7bd 24ab 4cbd 4b8b 8c3d
00000010: 22a8 d9bd f861 3b3d 3654 b1bd 5034 acbd
00000020: ea84 cabd d0f9 ccbd 5ef5 8f3b c7e8 c03d
00000030: c317 c33d dd1c ac3c 79b6 cc3d 7d68 913b
00000040: e4fe a83d 3db5 4d3d a203 5abd 1c92 4ebd
00000050: 1ca3 6bbd d2b5 1c3d 9f73 aa3d 4af4 7a3c
00000060: 7425 9abd 6368 d43d 865d 8abd 49c4 8a3d
00000070: aa4c 7c3d 197f 823c 70fd 593d 6bb5 c93d

weight f4 [32, 32, 2, 2]
-0.056473162 -0.012293077 0.05726891 -0.070150755 0.037570607 0.01663201 0.086290695 -0.021846808
0.056766 -0.008800904 0.06756231 0.032401852 0.0470544 -0.065593876 0.019803131 -0.07029291
0.082299605 -0.07951964 -0.03935798 -0.026420932 -0.013537322 -0.0035191495 -0.07284063 0.064037256
0.044731755 0.071791224 0.07792779 -0.08360276 -0.028316632 0.079575785 0.06735823 -0.016439853
-0.08434518 0.0005978952 0.03455088 0.0016062269 -0.08299356 0.04752824 -0.021344585 0.020987201
0.0146091515 -0.079349115 0.029433817 -0.06509354 -0.004447758 0.02114343 0.024615802 0.008171557
0.08468353 -0.013679644 -0.061099928 -0.026384642 -0.07050232 -0.03617121 -0.0845634 0.014161615
0.00046982494 0.069454715 0.031525783 0.058599062 -0.06255512 0.075581916 0.01366215 -0.020375377
-0.06737524 0.03583707 -0.032974776 0.046949618 0.0433154 -0.0621558 -0.0762755 0.06454446
0.06608233 -0.056084156 0.083731525 -0.0066686044 -0.08408961 0.058823764 -0.062011342 0.06143711
0.03107606 -0.07336909 0.031124573 0.05615805 0.07449756 -0.0009076444 0.08199305 -0.015030764
0.015603957 0.08172632 0.02051472 -0.027803862 -0.026079148 0.07237911 -0.008504878 0.076925285
-0.0011491267 -0.017466173 -0.070846505 0.02880745 -0.03797934 0.08010727 0.0093628755 0.045545675
0.07488869 0.038240045 0.034638453 -0.03817777 0.04130871 -0.028253749 0.0043232352 -0.04630961
0.059447926 -0.053158667 -0.051754314 0.002328976 0.0034732467 0.021058444 -0.05968391 -0.057277568
0.06228323 0.07088503 -0.0626855 -0.049281433 -0.031048175 -0.069513746 0.06130402 0.032302897
-0.086877234 -0.05464233 0.08837623 0.047712576 -0.04285953 0.0875422 0.06560217 -0.0001398327
-0.015420752 -0.0820998 0.062470585 -0.063339874 0.07781248 0.060523484 -0.013293526 0.016532252
0.06199052 -0.028935423 -0.025562063 0.04756923 0.021946838 0.05657305 -0.06186629 0.023454715
0.07389335 -0.07965479 0.027021704 -0.0017591462 0.01381768 0.049899526 0.037921224 -0.024683988
0.012974391 0.07302604 -0.024590494 -0.022567298 -0.08499547 -0.07021042 0.001288819 -0.029600564
0.040822938 0.08480377 0.018886711 -0.048464675 0.013967544 -0.05781553 0.022816148 -0.07748707
0.051129606 -0.043648202 -0.07989848 -0.031177435 -0.06913805 -0.057332665 0.0033308119 0.07021523
0.025438374 -0.018415505 0.05378847 0.019386765 0.023388492 -0.023395415 0.072364174 -0.078754835
-0.010141205 0.028970426 -0.01028735 -0.067795545 0.03385658 0.0136980405 0.029364644 -0.0004003595
-0.054246943 0.0017727724 0.05382518 -0.043459665 -0.01663102 0.040354386 0.04519555 -0.07009864
-0.031588018 0.010115634 0.01718327 0.08744905 0.059302688 0.0533803 -0.020960815 0.028755115
-0.026750319 0.050555132 0.019354913 0.03645268 -0.041207276 -0.08207461 0.015781987 -0.06275136
-0.036503784 -0.0107584605 0.030480687 -0.013352589 -0.018240739 -0.058227923 -0.061245482 0.076397344
0.013455031 0.039655708 0.047691256 0.040818606 0.012535447 0.049648877 -0.03289829 0.08117233
-0.028054362 -0.03355607 -0.008229393 -0.06504763 -0.058537807 0.06854322 0.035590943 0.07127558
0.037270337 0.0692458 -0.028536838 0.023372421 -0.0020534229 0.037437305 -0.08476323 0.056671277
00000000: 6750 67bd e768 49bc ce92 6a3d 33ab 8fbd
00000010: a3e3 193d da3f 883c 2db9 b03d 14f8 b2bc
00000020: 7783 683d ab31 10bc 1c5e 8a3d ceb7 043d
00000030: 1dbc 403d 1556 86bd 2d3a a23c bbf5 8fbd
00000040: b28c a83d 31db a2bd d535 21bd b670 d8bc
00000050: a5cb 5dbc 88a1 66bb 782d 95bd f725 833d
00000060: a538 373d 4707 933d 9b98 9f3d ed37 abbd
00000070: 48f8 e7bc a1f8 a23d 1df3 893d dfac 86bc
00000080: 2abd acbd 11bc 1c3a 3985 0d3d 0888 d23a
00000090: 87f8 a9bd f9ac 423d d7da aebc 5aed ab3c
000000a0: 395b 6f3c ca81 a2bd 301f f13c c34f 85bd
000000b0: 80be 91bb fd34 ad3c 14a7 c93c ffe1 053c
000000c0: 8f6e ad3d 9620 60bc eb43 7abd 9b24 d8bc
000000d0: 8563 90bd 4328 14bd 932f adbd 1e06 683c
000000e0: d652 f639 463e 8e3d 2e21 013d 9205 703d
000000f0: e61c 80bd b1ca 9a3d 36d7 5f3c 43ea a6bc
00000100: 08fc 89bd e4c9 123d 8f10 07bd 3e4e 403d
00000110: 7d6b 313d 1597 7ebd 5436 9cbd e32f 843d
00000120: 2c56 873d 80b8 65bd 6f7b ab3d 4f84 dabb
00000130: 2c37 acbd 30f1 703d 9bff 7dbd 7ba5 7b3d
00000140: 3993 fe3c 8942 96bd f6f8 fe3c fc05 663d
00000150: 2d92 983d fcee 6dba f9eb a73d 9843 76bc
00000160: bda7 7f3c 2160 a73d 7c0e a83c edc4 e3bc
00000170: f0a3 d5bc 803b 943d 0b58 0bbc 018b 9d3d
00000180: 4b9e 96ba 3815 8fbc f917 91bd 9afd eb3c
00000190: 3990 1bbd 480f a43d bf66 193c 1a8e 3a3d
000001a0: 3e5f 993d 98a1 1c3d 0de1 0d3d 4b60 1cbd
000001b0: 5233 293d 6874 e7bc eda9 8d3b 25af 3dbd
000001c0: ab7f 733d e7bc 59bd 55fc 53bd bca1 183b
000001d0: 699f 633b c282 ac3c 1e77 74bd e29b 6abd
000001e0: b31c 7f3d 2c2c 913d 4161 80bd 54db 49bd
000001f0: be58 febc 395d 8ebd ed19 7b3d 0b50 043d
00000200: b1ec b1bd a3d0 5fbd 99fe b43d 436e 433d
00000210: 798d 2fbd 5349 b33d 6e5a 863d 0ea0 12b9
00000220: 52a7 7cbc f123 a8bd 28e1 7f3d 56b8 81bd
00000230: 265c 9f3d 79e7 773d 17cd 59bc a56e 873c
00000240: c6e9 7d3d fb09 edbc 8867 d1bc f4d7 423d
00000250: dbc9 b33c 24b9 673d 8267 7dbd 1a24 c03c
00000260: 6655 973d 0d22 a3bd 9f5c dd3c 2793 e6ba
00000270: 8d63 623c 7263 4c3d 4953 1b3d 1336 cabc
00000280: 8a92 543c ad8e 953d 0172 c9bc 0edf b8bc
00000290: 1b12 aebd 7bca 8fbd 97ed a83a e27c f2bc
000002a0: f435 273d 99ad ad3d 4eb8 9a3c e582 46bd
000002b0: 20d8 643c facf 6cbd eee8 ba3c 8ab1 9ebd
000002c0: 476d 513d 75c8 32bd d0a1 a3bd d267 ffbc
000002d0: 4098 8dbd a8d5 6abd c049 5a3b 01cd 8f3d
000002e0: 2364 d03c 1ddc 96bc 4c51 5c3d fed0 9e3c
000002f0: 3999 bf3c bea7 bfbc ab33 943d 374a a1bd
00000300: 4c27 26bc 6353 ed3c 468c 28bc 64d8 8abd
00000310: 32ad 0a3d bf6d 603c 1f8e f03c 58e7 d1b9
00000320: 0b32 5ebd 5f5c e83a cb77 5c3d c302 32bd
00000330: c73d 88bc a44a 253d f81e 393d e08f 8fbd
00000340: 7062 01bd 0bbc 253c eec3 8c3c 7d18 b33d
00000350: 60e7 723d 4da5 5a3d 04b6 abbc d98f eb3c
00000360: 7c23 dbbc e612 4f3d 328e 9e3c 684f 153d
00000370: f6c8 28bd bc16 a8bd 3a49 813c c983 80bd
00000380: fe84 15bd 4144 30bc a2b2 f93c d1c4 5abc
00000390: 9a6d 95bc 6780 6ebd 8bdc 7abd 3676 9c3d
000003a0: 7e72 5c3c 066e 223d e857 433d 6931 273d
000003b0: 7a61 4d3c 9f5c 4b3d 5bc0 06bd ae3d a63d
000003c0: 43d2 e5bc 1772 09bd 93d4 06bc b137 85bd
000003d0: 57c5 6fbd 6360 8c3d cfc7 113d eef8 913d
000003e0: c8a8 183d bed0 8d3d 16c6 e9bc 8577 bf3c
000003f0: b892 06bb dc57 193d 5898 adbd 2420 683d

bias f4 [32]
0.047790036 -0.0045143915 0.06897198 0.029139051 -0.06451301 0.04620911 -0.08011379 0.03263578
0.010134257 -0.059965547 0.055383224 0.066725135 -0.058839582 -0.08719716 -0.013744869 -0.048828155
-0.05115199 0.047986567 -0.0019386887 0.0608105 0.01227121 0.029832225 0.012823507 0.04329934
-0.0014267038 -0.06731325 0.053830825 0.03259371 0.013738288 -0.043620214 -0.08200591 0.03213501
00000000: 7cbf 433d 76ed 93bb 2e41 8d3d 05b5 ee3c
00000010: 661f 84bd c445 3d3d b312 a4bd 18ad 053d
00000020: 280a 263c 6f9e 75bd 85d9 623d 30a7 883d
00000030: c601 71bd 6d94 b2bd 2932 61bc 0800 48bd
00000040: c084 51bd 908d 443d 991b feba 6e14 793d
00000050: 2f0d 493c b662 f43c b019 523c a65a 313d
00000060: 3c00 bbba 87db 89bd b67d 5c3d fb80 053d
00000070: 8e16 613c 1cab 32bd b7f2 a7bd 00a0 033d

weight f4 [64, 32, 2, 2]
-0.027199274 -0.058807574 -0.054000944 -0.062395763 0.041245386 -0.0018414004 -0.0007262544 0.024117587
0.034573942 -0.054559324 -0.014192849 -0.002802382 -0.028189927 -0.06652556 -0.0021705267 0.023871485
0.019335784 -0.032435995 0.027763875 -0.06276884 0.045146998 0.004933112 0.06484716 -0.05298894
0.06967344 0.025519982 -0.021638066 0.060339395 0.039843436 0.03926913 0.007093397 0.030316308
0.02941364 0.061829247 0.015146565 0.08741487 0.0044689695 0.022160688 -0.003035743 -0.07574715
0.008578318 0.018692045 -0.040951952 -0.06805433 -0.01867143 0.03657889 0.07029251 0.024134154
0.021431223 -0.07433446 -0.043661952 0.05772908 0.07565628 0.018044366 -0.06733328 0.03638451
0.03209786 -0.060924433 0.03478936 0.037652053 0.03636081 0.01007013 -0.0659779 -0.07331288
-0.071556196 -0.030000241 -0.058126006 -0.071368724 -0.04238946 0.08505556 -0.06703775 0.06390974
-0.07817826 0.042336278 -0.026280683 0.062101908 0.07451614 -0.05421919 -0.0838824 -0.020336535
0.04205036 0.086151004 0.021176111 0.017629506 -0.075998604 0.04165053 -0.06750647 -0.06662378
0.023736034 0.049404696 0.081273146 0.031170214 -0.081553414 0.05466504 0.04605494 -0.02732793
0.03340441 -0.07151387 -0.06672971 -0.07505937 0.061350185 0.08135736 0.07914253 -0.031843107
-0.016700525 0.08721574 0.01851944 -0.026504043 -0.0457587 -0.08022366 -0.028648091 -0.04716196
0.013233376 -0.009028541 -0.056740057 -0.05161955 0.026744615 -0.0015479714 -0.04446977 -0.021542085
0.06613656 -0.0034083913 -0.043198004 -0.03950026 0.061606042 0.0662027 0.059277654 -0.06720392
0.057719517 0.085701846 -0.07768157 -0.0049944436 -0.035194483 0.050185833 0.08146276 0.082569815
0.021802828 0.07791557 0.024819836 -0.041062642 0.07687854 -0.071885034 0.030117221 -0.00657887
0.0114633525 -0.060604207 -0.051764052 0.00922074 0.053232353 -0.028836811 -0.06812733 -0.0099266255
0.08272932 0.07033443 0.07797833 -0.08240376 -0.05785977 -0.07295635 -0.0878556 -0.014920996
-0.030296924 -0.06592185 0.082096525 0.08572627 -0.04906673 -0.07153641 0.08125434 -0.07065763
0.0056272997 0.06363816 0.019102942 -0.035960827 0.051146887 0.03777599 0.058525704 -0.06979408
0.009294971 0.018358018 -0.0260856 -0.04292336 0.058855753 0.032322187 0.008671472 -0.048302922
-0.014367439 0.08596348 0.008188385 -0.03556449 -0.052709628 0.042580444 -0.064861014 0.0636911
-0.054046504 0.017894424 -0.064710855 -0.0025606845 -0.0786344 0.046559665 -0.06447391 -0.03675496
0.058871906 0.012131159 -0.0063565453 -0.007322509 -0.015469073 -0.011598844 -0.041585356 0.04007319
0.008331789 -0.012888516 -0.017912168 0.07831803 -0.014393233 0.0553447 0.015628051 0.073820055
-0.019912679 0.046141654 -0.021200433 0.08568114 0.023383293 -0.03868851 0.010606149 0.048210863
0.044100177 -0.030317903 0.05026491 0.0143595785 -0.022819357 -0.013309268 -0.03319336 0.029473206
-0.080077685 -0.009665779 -0.03902076 -0.028394626 0.0037619013 0.049699783 -0.06736911 0.0065677646
-0.07657293 0.033958293 -0.035696514 -0.077589534 0.014936464 -0.044572115 -0.039356936 -0.08735324
-0.029346365 -0.036766477 0.035586122 0.07925742 -0.06869504 -0.02772939 -0.06647224 -0.06786952
00000000: 03d1 debc 36e0 70bd 1830 5dbd b392 7fbd
00000010: ecf0 283d 255b f1ba 1c62 3eba 3f92 c53c
00000020: 689d 0d3d 9979 5fbd 2089 68bc 2ba8 37bb
00000030: 90ee e6bc 8e3e 88bd 653f 0ebb 228e c33c
00000040: 1466 9e3c 9bdb 04bd 1171 e33c f38c 80bd
00000050: 0fec 383d f1a5 a13b 96ce 843d ee0a 59bd
00000060: f3b0 8e3d 480f d13c 5042 b1bc 7126 773d
00000070: df32 233d abd8 203d ba6f e83b e859 f83c
00000080: e0f4 f03c aa40 7d3d 4c29 783c 9106 b33d
00000090: 6f70 923b 558a b53c 51f3 46bb 5221 9bbd
000000a0: 138c 0c3c 0f20 993c 3cbd 27bd 1260 8bbd
000000b0: d4f4 98bc bfd3 153d 85f5 8f3d fdb4 c53c
000000c0: 8890 af3c aa3c 98bd e0d6 32bd 5475 6c3d
000000d0: aef1 9a3d c7d1 933c 08e6 89bd ed07 153d
000000e0: 0c79 033d e68b 79bd 4a7f 0e3d 0a39 1a3d
000000f0: 13ef 143d 30fd 243c 6c1f 87bd 1025 96bd
00000100: 0e8c 92bd 11c3 f5bc 8915 6ebd c429 92bd
00000110: 92a0 2dbd 9c31 ae3d 164b 89bd 1ce3 823d
00000120: ec1b a0bd ce68 2d3d 964a d7bc 925e 7e3d
00000130: eb9b 983d f114 5ebd 89ca abbd ce98 a6bc
00000140: 003d 2c3d f06f b03d 8679 ad3c c16b 903c
00000150: 28a5 9bbd bf99 2a3d d540 8abd 0c72 88bd
00000160: 1272 c23c 945c 4a3d 8972 a63d ad58 ff3c
00000170: 7a05 a7bd 73e8 5f3d 1ba4 3c3d d3de dfbc
00000180: 10d3 083d dd75 92bd 96a9 88bd bab8 99bd
00000190: 554a 7b3d b09e a63d 7b15 a23d eb6d 02bd
000001a0: 8acf 88bc 2a9e b23d 15b6 973c 021f d9bc
000001b0: 7a6d 3bbd 4d4c a4bd 67af eabc e62c 41bd
000001c0: cdd0 583c 72ec 13bc 4368 68bd 056f 53bd
000001d0: 8617 db3c 4de5 caba ef25 36bd 0779 b0bc
000001e0: 9b72 873d 515f 5fbb 64f0 30bd 06cb 21bd
000001f0: 9e56 7c3d 4895 873d 20cd 723d 35a2 89bd
00000200: 4d6b 6c3d 7384 af3d 8417 9fbd 6ea8 a3bb
00000210: 1728 10bd a98f 4d3d f3d5 a63d 5d1a a93d
00000220: d89b b23c 3392 9f3d f852 cb3c 4d31 28bd
00000230: 7f72 9d3d 7638 93bd 64b8 f63c 9093 d7bb
00000240: c9d0 3b3c 1e3c 78bd 8b06 54bd 9612 173c
00000250: 2b0a 5a3d 2d3b ecbc 5786 8bbd 49a3 22bc
00000260: fd6d a93d 7f0b 903d 1ab3 9f3d 4dc3 a8bd
00000270: 5efe 6cbd 246a 95bd a3ed b3bd 3177 74bc
00000280: 4131 f8bc 0902 87bd 3922 a83d 4191 af3d
00000290: 32fa 48bd ae81 92bd ad68 a63d f3b4 90bd
000002a0: 3665 b83b b954 823d c67d 9c3c a94b 13bd
000002b0: 667f 513d ffba 1a3d a6b8 6f3d 33f0 8ebd
000002c0: ef49 183c 8e63 963c 78b1 d5bc 68d0 2fbd
000002d0: bb12 713d 4564 043d ca12 0e3c 49d9 45bd
000002e0: 6865 6bbc 9f0d b03d 9328 063c 12ac 11bd
000002f0: 0de6 57bd d568 2e3d dad5 84bd 7b70 823d
00000300: de5f 5dbd 5497 923c 2087 84bd 28d1 27bb
00000310: 130b a1bd 59b5 3e3d e60a 84bd 5e8c 16bd
00000320: ab23 713d c5c1 463c 914a d0bb a8f1 efbb
00000330: ff71 7dbc 1409 3ebc 6855 2abd c923 243d
00000340: 0e82 083c 5b2a 53bc 8abc 92bc 3465 a03d
00000350: 98d1 6bbc 20b1 623d 6606 803c f82e 973d
00000360: ea1f a3bc 08ff 3c3d 88ac adbc 9879 af3d
00000370: 528e bf3c d877 1ebd 6ac5 2d3c c178 453d
00000380: 63a2 343d 405d f8bc 94e2 4d3d 7044 6b3c
00000390: a9ef babc 1e0f 5abc c3f5 07bd cb71 f13c
000003a0: c5ff a3bd 375d 1ebc 3cd4 1fbd d99b e8bc
000003b0: 3b8a 763b 0092 4b3d d1f8 89bd 6736 d73b
000003c0: 45d2 9cbd da17 0b3d 8236 12bd 43e7 9ebd
000003d0: 12b8 743c 4091 36bd bd34 21bd 41e6 b2bd
000003e0: ca67 f0bc 7298 16bd c1c2 113d b751 a23d
000003f0: fcaf 8cbd bf28 e3bc 9922 88bd 2dff 8abd

bias f4 [64]
0.014068455 -0.007252408 0.017973429 -0.054227125 0.05866426 0.059178237 0.062838815 -0.082418635
-0.052124955 0.07483062 0.075833105 0.07673444 0.053581186 -0.04422434 0.07682498 0.009051578
0.035170708 0.07307247 -0.02042295 0.02922319 -0.06645137 -0.016985638 0.07340603 0.015075907
-0.008896588 0.045114215 0.08318462 -0.043999158 0.03849395 0.034045074 0.043432858 -0.05064476
0.016842417 0.074665464 -0.054993913 0.018476576 0.0059769084 -0.08479003 0.046896335 -0.058069855
0.049806193 -0.07665199 -0.06122111 0.059430655 -0.06661437 -0.009708979 -0.00482186 0.07571364
-0.06469739 0.053571057 -0.0015411943 0.050808188 0.010069974 -0.0416245 -0.058640186 -0.004679624
0.016696176 0.012420914 0.026982957 0.07951647 0.057834502 -0.023685073 0.007199392 0.023438888
00000000: 617f 663c 9ca5 edbb 033d 933c 431d 5ebd
00000010: ef49 703d e164 723d a3b1 803d 1acb a8bd
00000020: fa80 55bd cc40 993d 634e 9b3d f226 9d3d
00000030: f277 5b3d 9524 35bd 6a56 9d3d 124d 143c
00000040: 290f 103d 05a7 953d 084e a7bc 7965 ef3c
00000050: a817 88bd 7725 8bbc e755 963d f000 773c
00000060: ffc2 11bc afc9 383d b35c aa3d 7638 34bd
00000070: d5ab 1d3d d972 0b3d a7e6 313d e170 4fbd
00000080: 1cf9 893c 35ea 983d 4c41 61bd 305c 973c
00000090: f1d9 c33b 65a6 adbd 5f16 403d a8da 6dbd
000000a0: 9401 4c3d b8fb 9cbd fdc2 7abd 8f6d 733d
000000b0: 1d6d 88bd 6912 1fbc b200 9ebb c10f 9b3d
000000c0: 1180 84bd 536d 5b3d e601 caba 3f1c 503d
000000d0: 88fc 243c 747e 2abd b130 70bd 8857 99bb
000000e0: 6bc6 883c 1781 4b3c 5d0b dd3c 88d9 a23d
000000f0: dfe3 6c3d 3307 c2bc e1e8 eb3b e902 c03c

weight f4 [64, 64, 2, 2]
-0.010430354 -0.026910787 0.0011544481 0.059031524 -0.037118457 -0.0020654947 -0.026425324 0.059077196
-0.046059728 -0.009415418 0.03715846 -0.047624774 -0.00017086416 -0.05774787 0.0026319996 0.022445895
0.030215107 0.060826965 0.062133 0.0022898552 0.062017675 -0.0074197403 -0.027206076 0.025626345
-0.021346597 -0.005731477 -0.035076786 0.059118956 0.057523213 0.029083349 -0.03607326 -0.036456734
-0.042270504 -0.041184448 -0.019383565 -0.015360348 0.04283937 -0.022802196 0.010662648 -0.00081818877
-0.005210368 -0.009765216 0.030922547 0.040503018 -0.020911805 -0.002125363 -0.042498197 0.008008414
0.047779415 -0.005520047 0.057730686 0.04396516 -0.00070851296 0.016337715 0.015199676 0.0128992945
0.033297528 -0.0101340795 0.008608977 0.010561512 0.053501904 0.036671415 0.026185544 0.017093694
0.061935395 -0.033160657 0.03693145 0.023180977 -0.002731934 -0.031742036 -0.017214851 0.007638618
0.015750736 0.034578502 0.028997667 -0.045623638 0.047639668 -0.006365314 -0.059176154 -0.050805487
0.039217904 -0.037285972 0.03995999 -0.013276255 0.052920237 0.015200637 0.047265667 0.007289751
-0.052503668 -0.04993066 -0.021046542 -0.03554564 -0.061751217 0.0313668 0.009291619 -0.0035976516
0.05186878 0.035289668 0.042466268 -0.01580821 -0.05419621 -0.05574851 0.027677374 -0.038616106
0.037583053 -0.05227434 -0.03346576 -0.02692921 0.047778875 0.0077876076 0.043737352 -0.033710092
-0.044748984 0.042072635 -0.047767825 0.023996374 -0.043772236 -0.060704693 -0.033097435 0.02208847
-0.01328271 -0.01575495 -0.031202165 -0.052966744 0.013407484 0.046820104 0.045936324 -0.041695394
-0.007126309 0.018321767 -0.009522162 0.0014924332 0.047432613 -0.041788485 -0.029638045 -0.04161222
-0.040616445 -0.022040851 0.058812626 -0.042381965 0.05792675 0.061244965 -0.005804754 -0.02788881
-0.04173233 -0.040468644 0.04193856 0.0072953417 0.055813983 0.054468527 -0.040809043 0.03266854
-0.03430693 0.05450033 -0.04527574 0.02819594 0.058541343 -0.058134206 0.003067404 -0.034558244
-0.013726611 0.03967705 -0.0007781128 -0.03080729 -0.05358924 -0.04435695 -0.030172236 0.015663788
0.027057335 -0.02381865 -0.008781239 0.012360081 -0.028951565 0.0073200404 -0.0030472015 -0.00055109273
-0.024430864 0.052924007 0.004947424 -0.0020709857 -0.029993417 -0.038763113 -0.05183625 0.036452692
0.041077197 0.019350396 0.061286252 0.026986795 0.029501313 0.0010558963 0.032994315 -0.055308014
0.009415962 -0.04530569 0.022283241 0.003247127 -0.024365986 0.013095735 0.061329324 0.052602224
-4.2021275e-05 0.050168186 -0.010383368 0.047511615 -0.055362564 0.056313947 -0.002127473 0.010694756
0.02195712 -0.048003715 -0.030388236 0.026943961 0.016369708 0.028919168 -0.0074340254 -0.036065973
0.026440747 -0.030594423 -0.0389513 0.05743275 -0.04306273 0.042792078 -0.05203587 -0.022222683
0.059915498 0.027326867 0.030408543 -0.0005054702 -0.0089468425 0.000110061184 0.030060375 0.017430365
-0.027552167 0.05819725 -0.043878745 0.037521187 -0.023693493 -0.059592456 -0.0061110393 -0.041750778
0.032835864 -0.04803294 0.051672585 -0.019002035 0.0010259226 0.05650048 0.05888272 -0.019861922
-0.019783461 0.01067656 -0.021765657 -0.045351308 0.039204642 -0.057092957 -0.03584846 -0.008513314
00000000: 13e4 2abc 0374 dcbc da50 973a 0acb 713d
00000010: 8609 18bd 405d 07bb ec79 d8bc eefa 713d
00000020: 20a9 3cbd 2043 1abc 7833 183d 3212 43bd
00000030: 002a 33b9 0889 6cbd a07d 2c3b 74e0 b73c
00000040: ac85 f73c b225 793d 2c7f 7e3d 6511 163b
00000050: 3f06 7e3d 4b21 f3bb 47df debc 57ee d13c
00000060: 0fdf aebc 1dcf bbbb adac 0fbd b826 723d
00000070: 769d 6b3d 3440 ee3c 8ec1 13bd a853 15bd
00000080: d623 2dbd 06b1 28bd 48ca 9ebc f8a9 7bbc
00000090: 5678 2f3d accb babc 63b2 2e3c b87b 56ba
000000a0: bcbb aabb 49fe 1fbc 4851 fd3c 7ee6 253d
000000b0: 3c4f abbc ad49 0bbb 9712 2ebd b935 033c
000000c0: 59b4 433d 83e1 b4bb 0377 6c3d d014 343d
000000d0: 80bb 39ba acd6 853c 1008 793c 9057 533c
000000e0: fd62 083d 6909 26bc ab0c 0d3c 310a 2d3c
000000f0: d024 5b3d c434 163d 1183 d63c 1308 8c3c
00000100: f8af 7d3d 78d3 07bd 6f45 173d 08e6 bd3c
00000110: 3f0a 33bb f003 02bd 2906 8dbc 5f4d fa3b
00000120: b007 813c 30a2 0d3d 848c ed3c dadf 3abd
00000130: d021 433d 2094 d0bb b262 72bd 6a19 50bd
00000140: f4a2 203d 2db9 18bd 16ad 233d a684 59bc
00000150: e4c2 583d 180c 793c a599 413d ddde ee3b
00000160: 160e 57bd 1784 4cbd cc69 acbc 4e98 11bd
00000170: d8ee 7cbd 797a 003d e03b 183c 94c6 6bbb
00000180: 5c74 543d e68b 103d 1cf1 2d3d 3880 81bc
00000190: d8fc 5dbd 8d58 64bd a9bb e23c ec2b 1ebd
000001a0: b0f0 193d 9e1d 56bd 6513 09bd a69a dcbc
000001b0: c8b3 433d 302f ff3b f025 333d 9813 0abd
000001c0: b64a 37bd 5b54 2c3d 32a8 43bd 0b94 c43c
000001d0: 844a 33bd 7ca5 78bd 2d91 07bd e1f2 b43c
000001e0: b99f 59bc 8610 81bc af9b ffbc a8f3 58bd
000001f0: 10ab 5b3c 70c6 3f3d ba27 3c3d cac8 2abd
00000200: d083 e9bb 8817 963c d802 1cbc c09d c33a
00000210: b348 423d 672a 2bbd 7ccb f2bc 9371 2abd
00000220: 6e5d 26bd 048f b4bc 82e5 703d b698 2dbd
00000230: 9a44 6d3d 00dc 7a3d ce35 bebb 1377 e4bc
00000240: 85ef 2abd 73c2 25bd c4c7 2b3d c30d ef3b
00000250: 349d 643d 641a 5f3d 6227 27bd 72cf 053d
00000260: 6c85 0cbd bd3b 5f3d 0e73 39bd 2cfb e63c
00000270: 0cc9 6f3d 221e 6ebd 8006 493b f28c 0dbd
00000280: 94e5 60bc 6784 223d 44fa 4bba 925f fcbc
00000290: 6480 5bbd a2af 35bd c42b f7bc 5851 803c
000002a0: 58a7 dd3c 541f c3bc 30df 0fbc f081 4a3c
000002b0: d52b edbc f3dc ef3b 8fb3 47bb 3577 10ba
000002c0: 3c23 c8bc d8c6 583d 001e a23b 60b9 07bb
000002d0: c1b4 f5bc 12c6 1ebd 3f52 54bd 6b4f 153d
000002e0: 9040 283d b984 9e3c 4b07 7b3d 6913 dd3c
000002f0: bdac f13c 0066 8a3a 0c25 073d a88a 62bd
00000300: 6845 1a3c 7692 39bd 588b b63c c0cd 543b
00000310: 2d9b c7bc 7e8f 563c 7534 7b3d 6e75 573d
00000320: 0040 30b8 287d 4d3d 001f 2abc 8a9b 423d
00000330: dbc3 62bd 74a9 663d 136d 0bbb 0f39 2f3c
00000340: 6bdf b33c 8b9f 44bd c0f0 f8bc 95b9 dc3c
00000350: c419 863c e4e7 ec3c 2099 f3bb eab9 13bd
00000360: 449a d83c 28a1 fabc 668b 1fbd 9a3e 6b3d
00000370: 8c62 30bd bf46 2f3d 9023 55bd 580c b6bc
00000380: f469 753d 98dc df3c 561b f93c 8881 04ba
00000390: c795 12bc a6d0 e638 2d41 f63c 20ca 8e3c
000003a0: 15b5 e1bc 3d60 6e3d 33ba 33bd d1af 193d
000003b0: db18 c2bc 3817 74bd 1d3f c8bb dd02 2bbd
000003c0: e67e 063d 30be 44bd a2a6 533d 28aa 9bbc
000003d0: 4078 863a 0c6d 673d 022f 713d 78b5 a2bc
000003e0: ed10 a2bc bdec 2e3c e44d b2bc 4bc2 39bd
000003f0: 0c95 203d 4eda 69bd d6d5 12bd 6d7b 0bbc

bias f4 [64]
0.054931287 0.0035317505 -0.02682168 0.02315865 -0.014677647 0.013845352 -0.04117354 0.007316679
0.0020288455 0.01257295 0.019051224 0.015221109 0.046666995 0.05084781 0.042890336 0.04985412
-0.0045939367 -0.043473303 -0.0620718 0.02280144 0.02203681 -0.04616391 0.050606944 -0.008938856
0.0009733402 0.041248944 -0.020562699 0.040667087 0.057839632 0.009816525 -0.009057811 -0.02594842
-0.04882496 0.061124384 -0.04281171 0.022049367 0.0027921046 0.010078507 0.0054420675 0.01537419
-0.02957893 0.050087154 0.038983595 -0.026390271 -0.042971514 0.036704518 -0.0030305332 0.061346784
0.011217151 0.035208583 0.012303026 -0.0051943315 -0.028978854 0.0046924613 -0.011518159 0.058450732
0.06019747 -0.02862784 0.053832054 0.017251609 0.055614285 -0.05757141 -0.05636573 -0.02154968
00000000: a1ff 603d f174 673b 24b9 dbbc 36b7 bd3c
00000010: 837a 70bc 9ed7 623c 96a5 28bd c1c0 ef3b
00000020: 61f6 043b c6fe 4d3c 5011 9c3c f561 793c
00000030: e425 3f3d cb45 503d c7ad 2f3d d533 4c3d
00000040: bc88 96bb 1011 32bd 003f 7ebd 16ca ba3c
00000050: 8a86 b43c 5e16 3dbd 3a49 4f3d 4874 12bc
00000060: c127 7f3a a7f4 283d 1b73 a8bc 8892 263d
00000070: 40e9 6c3d 7dd5 203c 3767 14bc c891 d4bc
00000080: aefc 47bd 905d 7a3d 555b 2fbd e0a0 b43c
00000090: befb 363b 5220 253c 5f53 b23b 07e4 7b3c
000000a0: 834f f2bc 3028 4d3d 43ad 1f3d 6930 d8bc
000000b0: e602 30bd 7a57 163d e99b 46bb c446 7b3d
000000c0: 24c8 373c e036 103d a292 493c 3635 aabb
000000d0: 1065 edbc 38c3 993b a9b6 3cbc 096a 6f3d
000000e0: 9f91 763d ef84 eabc 007f 5c3d 3f53 8d3c
000000f0: cecb 633d 00d0 6bbd c0df 66bd f488 b0bc

weight f4 [128, 64, 2, 2]
-0.0049680183 0.010738582 0.04206098 -0.0141576305 -0.012336744 0.03511353 -0.045132715 0.010799662
-0.03937391 0.002506439 0.02338197 -0.045691956 0.04259572 -0.0062806183 0.023322525 -0.03342348
0.0045879604 -0.01710668 -0.038678616 0.017577088 -0.03937336 0.060111277 0.057055768 -0.0013204081
0.0029861901 0.059539273 -0.003538862 -0.01397995 -0.034285057 -0.026533047 0.0388767 0.019321397
-0.014734409 -0.04360901 -0.05124171 -0.023634674 -0.011420341 0.04066145 0.0013182878 0.055654332
0.06244977 0.024319833 0.03030817 0.034694847 0.0040913005 -0.0038772337 0.014641517 0.043072462
0.027144536 0.036064316 0.045354053 -0.0007769266 0.047150463 -0.054743934 -0.029056696 -0.022261959
-0.0035005664 0.005826716 0.043082256 0.01308929 0.055854768 0.05491118 -0.006872669 0.0067249886
0.054156072 -0.019384589 0.04755431 -0.022440124 -0.03545313 -0.059365127 -0.0100035565 -0.026786858
0.009522417 0.0040109768 0.038085222 -0.05137668 -0.026687225 -0.027374063 0.0011160441 -0.040390577
0.06113298 0.01872714 0.010867173 -0.033964936 -0.0142595535 0.043871105 0.019819273 -0.034085274
-0.04624637 -0.028223122 -0.023136651 -0.04993098 0.0605152 0.04312889 0.025124207 0.050646666
0.004749873 0.015632622 0.054014955 -0.0137731405 0.045857035 0.011490907 -0.021207394 0.055166308
-0.040137913 0.015656138 -0.0071681677 0.044490367 -0.028961409 0.006093888 -0.032495335 0.029246897
0.042849507 0.0005431397 0.041846644 0.032813597 -0.016764656 0.035112754 0.052191857 0.036567044
-0.051245134 0.040133752 -0.04148444 0.048275143 0.023929467 0.05887696 -0.016190233 0.015620008
0.040611845 0.042421784 -0.018570203 0.018436212 -0.054576777 0.0018198898 -0.053243384 0.014587675
-0.034460872 -0.017021704 -0.042199552 -0.060541913 0.017219596 -0.0059572337 -0.021206347 0.03058745
0.020015597 0.035311382 0.011373343 0.0015191077 -0.0020430456 -0.026889022 0.056830358 -0.060875427
-0.016589746 -0.022489319 0.028112555 0.03142136 0.049916655 0.050471745 -0.009077844 0.033665925
-0.040849656 -0.035390213 0.046820264 0.010212707 -0.054192934 -0.011985817 0.029573154 0.038561497
0.057343718 0.049848214 -0.033144787 -0.033250056 -0.0170589 0.059246633 -0.03228361 0.05474772
0.03828511 0.014529002 0.00040677952 -0.03683074 -0.046148133 -0.028936816 0.051740244 -0.05307354
-0.0107788695 0.0498889 0.0039188713 0.017779185 0.034380786 -0.011843146 0.057831787 0.0154886255
0.024078261 0.033467814 0.05904675 -0.044495426 -0.049082126 0.059356116 -0.05544762 -0.057942025
0.049153276 -0.019261857 0.01890144 0.015429814 -0.057089288 0.0008309278 0.009962298 0.01390191
-0.004964896 0.009604366 -0.025310516 -0.01584302 0.026486259 -0.00023406897 -0.026716843 -0.06216097
-0.029008284 -0.056305416 -0.05475544 0.046041116 0.041486874 -0.013559717 -0.05487081 0.061054915
-0.043530434 -0.0067573236 -0.0130844135 -0.03130401 0.017698979 0.011746411 -0.049995124 -0.052147146
-0.042751588 -0.015516697 0.034742832 0.034286395 0.061483003 -0.052702848 -0.027471274 0.04965773
0.060766727 -0.047285978 0.024106868 -0.044136 0.010374702 -0.05627383 -0.058882155 -0.0317856
0.052524123 -0.06000359 0.049441483 0.0031920816 0.035056185 -0.0024395927 0.049694236 0.057096817
00000000: c2ca a2bb e1f0 2f3c 2248 2c3d 68f5 67bc
00000010: 0e20 4abc 34d3 0f3d 15dd 38bd 11f1 303c
00000020: 8946 21bd 1243 243b 8c8b bf3c 7d27 3bbd
00000030: da78 2e3d a5cd cdbb e10e bf3c 0fe7 08bd
00000040: 9a56 963b 4f23 8cbc 786d 1ebd d3fd 8f3c
00000050: f645 21bd 3e37 763d 4fb3 693d 8b11 adba
00000060: f5b3 433b 74df 733d 41ec 67bb 290c 65bc
00000070: 7d6e 0cbd d55b d9bc 2d3d 1f3d e847 9e3c
00000080: 9768 71bc 5c9f 32bd d4e2 51bd 819d c1bc
00000090: 621c 3bbc 9f8c 263d 66ca ac3a ccf5 633d
000000a0: 54cb 7f3d 633a c73c d748 f83c 2f1c 0e3d
000000b0: 5110 863b 3019 7ebb f9e2 6f3c c06c 303d
000000c0: 385e de3c 2db8 133d 2cc5 393d a9aa 4bba
000000d0: d820 413d 2d3b 60bd 4f08 eebc b65e b6bc
000000e0: c269 65bb 09ee be3b 0577 303d 7674 563c
000000f0: f8c7 643d 8cea 603d 2034 e1bb 4b5d dc3b
00000100: c2d2 5d3d 6ecc 9ebc 4fc8 423d 5ad4 b7bc
00000110: 4d37 11bd d928 73bd f5e5 23bc 1d70 dbbc
00000120: e903 1c3c 836e 833b 40ff 1b3d 5b70 52bd
00000130: 2b9f dabc 923f e0bc 3a48 923a 9770 25bd
00000140: 9366 7a3d a969 993c 3a0c 323c d11e 0bbd
00000150: e7a0 69bc 30b2 333d 075c a23c 009d 0bbd
00000160: d56c 3dbd 2d34 e7bc 1389 bdbc 6d84 4cbd
00000170: c9de 773d eba7 303d 48d1 cd3c e172 4f3d
00000180: d3a4 9b3b fc0f 803c c93e 5d3d bda8 61bc
00000190: 96d4 3b3d 5b44 3c3c 21bb adbc 11f6 613d
000001a0: a767 24bd 4d41 803c f3e2 eabb 883b 363d
000001b0: 7a40 edbc 3daf c73b d419 05bd 3097 ef3c
000001c0: f782 2f3d 7d61 0e3a 6367 2b3d 8d67 063d
000001d0: 0856 89bc 64d2 0f3d 21c7 553d 53c7 153d
000001e0: 6be6 51bd 4a63 243d 97eb 29bd 28bc 453d
000001f0: bb07 c43c f828 713d 61a1 84bc 10eb 7f3c
00000200: 9b58 263d 77c2 2d3d 8a20 98bc 8a07 973c
00000210: e68b 5fbd 5e89 ee3a bc15 5abd 2501 6f3c
00000220: d826 0dbd 1a71 8bbc 70d9 2cbd ccfa 77bd
00000230: 1c10 8d3c e634 c3bb efb8 adbc 8892 fa3c
00000240: c0f7 a33c aba2 103d 4257 3a3c cc1c c73a
00000250: 9ee4 05bb 5e46 dcbc f3c6 683d 8358 79bd
00000260: 38e7 87bc 853b b8bc 4d4c e63c afb3 003d
00000270: 6875 4c3d 76bb 4e3d 3dbb 14bc 48e5 093d
00000280: f851 27bd 54f5 10bd 9bc6 3f3d 3353 273c
00000290: 69f9 5dbd 2960 44bc 6643 f23c a9f2 1d3d
000002a0: 3fe1 6a3d a42d 4c3d d4c2 07bd 3631 08bd
000002b0: 1bbf 8bbc 99ac 723d d23b 04bd 253f 603d
000002c0: d9d0 1c3d 0d0b 6e3c 0645 d539 d4db 16bd
000002d0: d305 3dbd e70c edbc 94ed 533d a463 59bd
000002e0: db99 30bc 4e58 4c3d e069 803b a7a5 913c
000002f0: ded2 0c3d c109 42bc 06e1 6c3d 01c4 7d3c
00000300: c63f c53c 8c15 093d 01db 713d d640 36bd
00000310: 570a 49bd 661f 733d 0b1d 63bd 9e54 6dbd
00000320: f254 493d 0bcb 9dbc 31d7 9a3c 55cd 7c3c
00000330: 75d6 69bd 9fd2 593a e838 233c d6c4 633c
00000340: 91b0 a2bb a15b 1d3c 0058 cfbc 39c9 81bc
00000350: b6f9 d83c 6970 75b9 48dd dabc 809c 7ebd
00000360: c8a2 edbc 82a0 66bd 3e47 60bd 9c95 3c3d
00000370: 24ee 293d 9329 5ebc 37c0 60bd b814 7a3d
00000380: f84c 32bd 8a6c ddbb 0260 56bc a238 00bd
00000390: 73fd 903c 0574 403c b0c7 4cbd 3f98 55bd
000003a0: 4a1c 2fbd bf39 7ebc 804e 0e3d e46f 0c3d
000003b0: 9ad5 7b3d f1de 57bd 700b e1bc e765 4b3d
000003c0: 88e6 783d f1ae 41bd c47b c53c f3c7 34bd
000003d0: a7fa 293c 637f 66bd 6a2e 71bd 9e31 02bd
000003e0: 8923 573d 53c6 75bd 2783 4a3d 3e32 513b
000003f0: 1397 0f3d 93e1 1fbb 2f8c 4b3d 5ade 693d
