output/train_12_12_23_part-5/unet_tgs_salt.pth (torch, 247319 bytes, 26 tensors)

weight f4 [16, 3, 2, 2]
0.2240429 0.22361343 -0.20543179 -0.0038252631 -0.030041637 0.15511577 -0.18254085 -0.22610047
0.18184212 -0.11760636 0.13034116 0.24101713 -0.10758646 -0.08481444 -0.10882195 -0.16436704
0.034847837 -0.099396326 -0.021228852 0.263014 0.26332313 -0.117647894 -0.13075754 -0.09205932
-0.19676496 0.26219767 -0.034759346 -0.07914605 0.00837442 -0.27334887 -0.22361322 0.14637494
-0.06906571 0.06883208 -0.26508877 0.26461336 0.18381685 0.15990412 0.13303019 0.22080545
0.1362354 -0.25300226 0.1363005 0.13929836 -0.008559853 -0.2295665 0.109648906 -0.26288542
0.12663563 -0.018809387 0.11972658 0.16260384 0.27248374 0.11582137 0.29057804 -0.142688
0.062873445 0.022735402 0.16022925 -0.12619342 -0.277415 -0.097116925 -0.06976603 0.24339603
0.13807099 -0.06133611 0.22876723 0.08300371 -0.23133272 -0.27671438 -0.026527472 -0.26144308
0.02052217 0.12156715 -0.12972456 -0.2786882 0.277845 0.009838385 -0.19178474 -0.09326856
-0.23640479 -0.048730515 -0.2676919 -0.12104829 -0.14488563 -0.08859226 -0.1277417 -0.034930006
-0.057551716 -0.19552237 0.2086881 -0.056387153 -0.026842317 0.27630824 0.038773064 0.12218815
-0.25203225 -0.27231976 -0.02112273 0.030267002 -0.22318879 0.2729142 -0.2597958 0.25864437
-0.064343 0.2716926 -0.24468467 0.15319532 -0.210468 0.26145646 0.05791564 -0.2770988
0.12709197 -0.08969543 -0.068201356 0.058344055 -0.21724981 -0.28113022 0.25432637 0.22113888
-0.27290523 -0.09167135 -0.073887765 -0.09318972 0.0198058 0.04417679 0.21467367 0.06129322
0.2100893 0.021290852 -0.25448483 -0.070439376 -0.07317521 0.26525077 0.0062517095 -0.019847402
-0.082820855 -0.1809994 -0.044748213 0.1056732 -0.25417712 -0.0032882865 0.26860723 0.24689527
0.2153842 -0.27674338 0.04741041 -0.1831264 -0.108628534 0.023934772 0.18075606 0.1939354
-0.12214109 -0.023160856 -0.142791 -0.025340412 -0.22872157 0.23365986 -0.23577869 0.23559892
-0.27660638 -0.19781853 0.06914132 -0.12412062 -0.15735216 -0.28702328 -0.039095506 0.04354697
-0.20894031 -0.02421846 -0.2816465 0.05552915 -0.16565716 -0.13835894 -0.24590214 0.21310674
0.088045165 0.22463983 0.053522 -0.09965164 -0.2213492 0.17344004 -0.09404969 -0.2045759
0.076916344 -0.10152019 0.26984885 -0.026509216 0.08860766 -0.259607 0.25885892 0.029024692
00000000: 816b 653e ebfa 643e b65c 52be 44b1 7abb
00000010: e119 f6bc abd6 1e3e fdeb 3abe e286 67be
00000020: d234 3a3e 9adb f0bd 2778 053e 32cd 763e
00000030: 4a56 dcbd 31b3 adbd 0bde debd d54f 28be
00000040: 9bbc 0e3d 4d90 cbbd 21e8 adbc c5a9 863e
00000050: 4ad2 863e 61f1 f0bd 4ee5 05be 9989 bcbd
00000060: c17c 49be c63e 863e d15f 0ebd 5317 a2bd
00000070: dd34 093c 62f4 8bbe ddfa 64be 50e3 153e
00000080: 5372 8dbd d5f7 8c3d b7b9 87be 677b 873e
00000090: 7c3a 3c3e e8bd 233e 1139 083e d31a 623e
000000a0: 4b81 0b3e 8389 81be 5c92 0b3e 3ba4 0e3e
000000b0: a03e 0cbc 7b13 6bbe 9b8f e03d eb98 86be
000000c0: c5ac 013e 2516 9abc 3633 f53d 9f81 263e
000000d0: fd82 8b3e c133 ed3d a5c6 943e ce1c 12be
000000e0: cbc3 803d 983f ba3c 2313 243e d938 01be
000000f0: 5709 8ebe 3de5 c6bd 7ee1 8ebd cf3c 793e
00000100: 7b62 0d3e 933b 7bbd f541 6a3e d9fd a93d
00000110: 7ce2 6cbe 82ad 8dbe 2450 d9bc dedb 85be
00000120: 1c1e a83c 33f8 f83d 84d6 04be 38b0 8ebe
00000130: b341 8e3e 2d31 213c 3863 44be 9603 bfbd
00000140: 1914 72be a699 47bd ea0e 89be 2ae8 f7bd
00000150: e65c 14be dc6f b5bd b8ce 02be c412 0fbd
00000160: 59bb 6bbd 0437 48be 55b2 553e 37f6 66bd
00000170: 6be4 dbbc 4678 8d3e 81d0 1e3d c83d fa3d
00000180: 5f0a 81be 7f6d 8bbe 9309 adbc 81f2 f73c
00000190: 9a8b 64be 69bb 8b3e f503 85be 096d 843e
000001a0: 43c6 83bd 4b1b 8b3e 9e8e 7abe 3cdf 1c3e
000001b0: ec84 57be 9fdd 853e f338 6d3d e5df 8dbe
000001c0: 6624 023e 3db2 b7bd 27ad 8bbd 2dfa 6e3d
000001d0: bc76 5ebe 4df0 8fbe 1137 823e 3b72 623e
000001e0: 3cba 8bbe 30be bbbd 7852 97bd 40da bebd
000001f0: c63f a23c b9f2 343d 6ad3 5b3e 990e 7b3d
00000200: a621 573e 276a ae3c d64b 82be 8542 90bd
00000210: e2dc 95bd f3ce 873e 24db cc3b 0597 a2bc
00000220: fb9d a9bd e857 39be e749 37bd 316b d83d
00000230: 8123 82be 4b80 57bb e386 893e 1dd2 7c3e
00000240: ad8d 5c3e 4fb1 8dbe 6b31 423d 7d85 3bbe
00000250: a378 debd db12 c43c 1e18 393e 0097 463e
00000260: 1c25 fabd d6bb bdbc ce37 12be b296 cfbc
00000270: fd35 6abe 8844 6f3e f86f 71be d840 713e
00000280: 5a9f 8dbe f190 4abe f799 8d3d f432 febd
00000290: ed20 21be b7f4 92be 9c22 20bd 4f5e 323d
000002a0: 73f4 55be cb65 c6bc f833 90be 8972 633d
000002b0: 08a2 29be f7ad 0dbe c5cd 7bbe a738 5a3e
000002c0: 0651 b43d fc07 663e e239 5b3d 2916 ccbd
000002d0: 5da9 62be 449a 313e 209d c0bd 587c 51be
000002e0: 5186 9d3d d1e9 cfbd a129 8a3e db29 d9bc
000002f0: ef77 b53d 35eb 84be 2889 843e 31c5 ed3c

bias f4 [16]
-0.04690575 -0.16949005 0.28000113 -0.23239996 0.07799419 -0.093230076 0.12827456 -0.23322801
0.07924009 -0.07954175 -0.12977265 -0.01971112 0.025550231 -0.22800988 0.17724991 0.17877492
00000000: 3e20 40bd cd8e 2dbe 4f5c 8f3e 41fa 6dbe
00000010: 6bbb 9f3d 69ef bebd 685a 033e 53d3 6ebe
00000020: a148 a23d c9e6 a2bd 1fe3 04be 3779 a1bc
00000030: b84e d13c 6c7b 69be 0081 353e c610 373e

weight f4 [16, 16, 2, 2]
-0.09232947 0.07704535 -0.096568435 -0.04510355 0.09533757 -0.023914486 0.08442955 0.011272371
0.10685844 -0.030822827 0.09423462 0.061648022 0.1116725 -0.045475632 0.048430946 0.10436492
0.0011525113 -0.11154197 -0.08258765 0.11665425 -0.053125367 -0.04938271 0.0105270725 -0.009371567
0.07840056 0.10074879 0.068857625 -0.027845457 -0.02713126 0.042379055 0.04517134 -0.03297347
-0.03278576 0.034193475 -0.015030992 -0.08498978 -0.10623363 0.060380697 -0.01531572 -0.026164118
0.107076384 -0.123290315 0.05679589 0.06477602 0.013629854 0.107216716 0.024567278 -0.09987805
0.04859149 -0.06622698 -0.08069617 -0.015782353 0.04141754 -0.025036395 -0.022776097 0.10806003
-0.005183755 -0.089253545 -0.06306828 0.045036335 0.09947935 -0.09411138 0.053938944 0.0012485153
0.052358348 -0.032366846 -0.108703226 -0.048913456 -0.11021772 0.10494414 0.097224936 0.06343925
-0.033114277 0.02128528 0.019103462 0.09993188 -0.020341707 0.006765628 0.09729889 -0.06866705
0.019039096 -0.123214185 0.045255855 -0.10062252 -0.118910514 -0.085340776 0.08250327 0.023543153
-0.023752518 0.09222968 0.0360454 -0.031220865 0.05139939 0.081987545 -0.08380203 -0.11979539
-0.026235115 -0.0813569 0.004818446 -0.08740886 -0.078163095 0.12122882 -0.037814565 0.0005574786
0.10816358 -0.043934293 0.12002862 -0.0968425 0.06409427 0.06311808 -0.020589411 0.10120106
0.07844902 -0.06326624 -0.0377854 -0.09279423 0.012966171 0.037568763 0.06099151 -0.00051400065
0.11081148 -0.035002578 -0.029069247 -0.017868593 -0.056254085 -0.066443846 -0.09595797 0.013382728
0.049186755 -0.061752137 0.030965418 0.053199176 0.11200455 0.052960694 0.0368585 -0.04920706
-0.11037486 0.049673013 -0.065474965 0.036468986 -0.11849677 0.046664733 -0.11707589 0.114976145
-0.0052366904 -0.05759201 0.0023085426 0.0027058665 0.11015288 0.07859907 -0.05518778 -0.019685542
-0.010467799 0.08971769 -0.11804572 0.036950313 -0.048789043 0.11305813 -0.048586037 -0.034667518
0.07775414 0.05780246 0.1019473 0.05735205 -0.078192726 -0.026024314 0.10628105 -0.10989261
0.12243258 -0.0087223295 0.1047281 -0.047906242 -0.040768385 0.011571138 0.09264448 0.12511957
-0.10559906 -0.033495855 0.11115453 -0.044860233 0.05187826 0.013498753 0.0068774223 -0.09088364
0.09784868 -0.032045644 0.1199134 -0.03357195 0.043955084 -0.097165205 -0.037711173 0.10016528
0.054347582 0.05885809 0.11092701 0.12609231 0.057217613 -0.028012902 0.045562208 -0.10905993
0.028942734 0.085208476 0.046679493 0.0032345105 0.035468258 0.1250709 0.04242223 0.05845445
0.101466544 0.081953816 0.07116001 0.019181563 -0.072897114 0.09965821 -0.0744558 0.0765334
0.11920186 -0.08776867 -0.067282125 0.030386114 0.089346714 -0.04313782 -0.05894448 -0.11480948
-0.018130822 0.108256206 -0.016054468 -0.070502214 -0.0045534233 0.11533352 0.008770651 -0.0063289665
0.112687714 0.06346048 0.06274986 0.0751049 0.07648332 0.10166198 0.095745005 -0.09865098
0.011768627 -0.03884467 0.09115882 0.051238727 0.06386812 0.08510767 0.043735385 -0.046332717
0.070849136 0.004438585 0.009003471 -0.066923745 0.05602851 -0.002418113 -0.10389366 -0.010011001
00000000: 3c17 bdbd f4c9 9d3d acc5 c5bd 80be 38bd
00000010: 5840 c33d 50e8 c3bc 66e9 ac3d c0af 383c
00000020: 99d8 da3d 2780 fcbc 15fe c03d a382 7c3d
00000030: 8db4 e43d a844 3abd 875f 463d 46bd d53d
00000040: dd0f 973a 1e70 e4bd b723 a9bd 6ce8 ee3d
00000050: fc99 59bd 8645 4abd be79 2c3c 338b 19bc
00000060: 7990 a03d 6255 ce3d 3a05 8d3d 281c e4bc
00000070: 6042 debc a995 2d3d 9505 393d 300f 07bd
00000080: 5c4a 06bd 750e 0c3d 8d44 76bc 1f0f aebd
00000090: 0491 d9bd c051 773d c9ee 7abc 2256 d6bc
000000a0: dd4a db3d a27f fcbd cfa2 683d 4aa9 843d
000000b0: c04f 5f3c 7094 db3d 5141 c93c dd8c ccbd
000000c0: df07 473d 03a2 87bd 0944 a5bd fe49 81bc
000000d0: 70a5 293d 2019 cdbc f094 babc 944e dd3d
000000e0: 7ddc a9bb 90ca b6bd f129 81bd 0578 383d
000000f0: d4bb cb3d 78bd c0bd 15ef 5c3d 39a5 a33a
00000100: b575 563d 1993 04bd cc9f debd 7a59 48bd
00000110: d4b9 e1bd f4ec d63d de1d c73d 70ec 813d
00000120: d6a2 07bd 785e ae3c dd7e 9c3c 16a9 cc3d
00000130: a7a3 a6bc 33b2 dd3b a444 c73d 4fa1 8cbd
00000140: e1f7 9b3c b857 fcbd 345e 393d 2e13 cebd
00000150: 5b87 f3bd 25c7 aebd 79f7 a83d 92dd c03c
00000160: a494 c2bc eae2 bc3d 57a4 133d e6c2 ffbc
00000170: 2b88 523d 16e9 a73d 66a0 abbd 4957 f5bd
00000180: 06eb d6bc 729e a6bd 0ee4 9d3b 6b03 b3bd
00000190: f913 a0bd d146 f83d 72e3 1abd c123 123a
000001a0: de84 dd3d 72f4 33bd 91d1 f53d 5c55 c6bd
000001b0: db43 833d 0d44 813d 20ab a8bc 8042 cf3d
000001c0: e1a9 a03d bb91 81bd ddc4 1abd e70a bebd
000001d0: 1070 543c b4e1 193d 3cd2 793d 00be 06ba
000001e0: 21f1 e23d dd5e 0fbd a122 eebc 2861 92bc
000001f0: af6a 66bd b613 88bd 9d85 c4bd 3b43 5b3c
00000200: 0d78 493d cfef 7cbd 30ab fd3c 61e7 593d
00000210: a462 e53d 50ed 583d f0f8 163d 588d 49bd
00000220: 370c e2bd ee75 4b3d bd17 86bd 8160 153d
00000230: 6fae f2bd 8523 3f3d 7cc5 efbd 9d78 eb3d
00000240: 8b98 abbb 99e5 6bbd eb4a 173b e854 313b
00000250: d597 e13d 8df8 a03d 950c 62bd 9343 a1bc
00000260: 2281 2bbc e9bd b73d f4c1 f1bd 3659 173d
00000270: 05d7 47bd 058b e73d 2702 47bd 87ff 0dbd
00000280: 903d 9f3d 46c2 6c3d bfc9 d03d fce9 6a3d
00000290: 8223 a0bd f130 d5bc e1a9 d93d 600f e1bd
000002a0: efbd fa3d 1ae8 0ebc b07b d63d 5639 44bd
000002b0: c0fc 26bd df94 3d3c 64bc bd3d 581f 003e
000002c0: 5244 d8bd f332 09bd fca4 e33d 5dbf 37bd
000002d0: 4c7e 543d e029 5d3c 005c e13b 3421 babd
000002e0: e464 c83d 4b42 03bd 2895 f53d be82 09bd
000002f0: 3f0a 343d 8dfe c6bd 0877 1abd 7423 cd3d
00000300: 929b 5e3d 2e15 713d b32d e33d 581e 013e
00000310: 045d 6a3d 507b e5bc 709f 3a3d d05a dfbd
00000320: 5019 ed3c c881 ae3d ff32 3f3d 15fa 533b
00000330: 2a47 113d 9612 003e efc2 2d3d ef6d 6f3d
00000340: b1cd cf3d 67d7 a73d 57bc 913d a722 9d3c
00000350: 154b 95bd 9b19 cc3d 487c 98bd 8bbd 9c3d
00000360: 1b20 f43d 0fc0 b3bd 36cb 89bd 4dec f83c
00000370: 69fb b63d 48b1 30bd c46f 71bd 3c21 ebbd
00000380: 1787 94bc 6eb5 dd3d a984 83bc 7763 90bd
00000390: e234 95bb fb33 ec3d c7b2 0f3c 3863 cfbb
000003a0: d1c8 e63d 91f7 813d 0083 803d 99d0 993d
000003b0: 49a3 9c3d 2834 d03d f515 c43d 8609 cabd
000003c0: 33d1 403c 971b 1fbd 7ab1 ba3d b3df 513d
000003d0: 4acd 823d ee4c ae3d e023 333d 60c7 3dbd
000003e0: 5a19 913d 8d71 913b 4b83 133c 510f 89bd
000003f0: 277e 653d 3479 1ebb 33c6 d4bd 2e05 24bc

bias f4 [16]
-0.09063241 0.06709629 -0.04773754 -0.014220283 0.07442531 0.116262816 0.005097505 0.088058494
-0.037474163 -0.01613667 0.0052502933 -0.07451461 -0.12129389 0.083308816 -0.124555424 -0.0073873317
00000000: 7c9d b9bd c869 893d 7088 43bd 31fc 68bc
00000010: 4c6c 983d 331b ee3d f908 a73b 0358 b43d
00000020: 827e 19bd 0d31 84bc a70a ac3b 1e9b 98bd
00000030: ee68 f8bd d09d aa3d ea16 ffbd 6e11 f2bb

weight f4 [32, 16, 2, 2]
0.027329963 -0.1122125 -0.011191659 -0.01589696 -0.061147287 0.0767457 -0.015044462 -0.1177342
-0.020832423 0.009786002 -0.07948696 0.0029464585 0.05427466 0.009792511 0.098212145 -0.06330437
0.11561456 -0.015891632 -0.030444453 -0.021064214 0.0156129245 0.034611344 -0.06590608 0.030290857
-0.116485946 0.089426644 0.07233981 0.100618884 -0.039941613 -0.042089768 0.0033689851 -0.045595773
-0.056596745 -0.07730785 0.06264556 -0.01356426 -0.112001695 0.08249222 -0.07381787 -0.025803925
-0.07092716 -0.104352795 0.02871502 0.047507055 -0.08770811 -0.11225858 -0.12852529 0.109680794
-0.12951572 0.036603626 -0.04475727 0.052877184 0.11249802 -0.10845497 0.10751227 0.06482869
-0.06424932 -0.12773584 -0.01625628 0.008853635 0.06256808 0.030283026 0.063649625 0.11712057
-0.012846074 -0.12535745 -0.11302807 0.022579696 -0.10291857 0.06594056 0.0048981924 0.049585372
-0.07891819 -0.075643666 0.075167425 0.019008422 0.044691067 -0.09318677 0.07507318 0.0052174623
-0.0938215 0.025145683 -0.11004999 -0.08000714 -0.067863666 -0.081867866 -0.062314488 0.005804538
0.07844509 -0.03606392 -0.12230417 -0.046468567 0.011306339 -0.094498284 0.12549214 0.06283459
-0.06746282 0.047214516 -0.09922615 0.12375759 0.096300185 -0.0971108 0.111040674 0.00051689986
0.024643572 -0.012246474 0.078352146 -0.029297477 0.04158538 -0.10136858 -0.11204464 0.05139233
0.09819567 -0.04029122 0.11414795 -0.004003855 0.071652226 0.08344251 0.0021173675 -0.10627494
0.113704264 0.06674715 0.032220256 -0.078295775 0.06966655 0.045776937 -0.026956197 0.07529866
-0.020648465 0.08453702 -0.07408966 -0.0048385835 -0.10282581 -0.05847565 -0.047598228 0.06315139
-0.08274133 0.072680876 -0.046106905 -0.11488761 -0.1192977 0.08984258 0.099533334 -0.053655736
-0.109880485 -0.096246555 -0.059730988 0.10811582 -0.07597084 0.018638229 -0.0001069348 0.030627802
0.021662535 -0.098175 0.018726623 -0.015194413 0.05666768 0.10798633 -0.09076815 -0.074692845
-0.076845974 -0.010324422 -0.09581278 -0.083568275 0.06423664 0.095644645 0.010465115 0.054637957
-0.051883727 -0.12218968 -0.0029051397 0.09199345 0.07671017 0.0013464718 0.06934393 -0.058405682
-0.117566116 0.08522583 0.016561652 -0.0908354 -0.08277388 0.108681574 -0.07877923 0.009435896
-0.11574744 -0.049442515 -0.018819502 0.017558575 0.12287942 -0.030826263 0.07444255 0.12412028
-0.08028942 -0.0158848 -0.081776075 0.096183464 -0.036582854 -0.11018928 -0.081612065 0.10770222
0.03088416 -0.050867926 0.01471207 0.093909785 0.017777596 0.047096502 -0.09986188 -0.087061055
0.103388995 0.12077412 -0.01451882 0.11971925 0.08839927 0.039790947 -0.0020852452 -0.061731547
0.08748827 -0.0006368054 -0.07383791 -0.07504491 0.12364594 0.057243023 0.008649148 0.038861513
0.016345082 0.12307861 -0.07713474 -0.045439146 0.077447765 0.05998246 -0.091107935 -0.040779084
-0.0916184 0.04293197 -0.009220498 0.118422434 -0.08479983 0.07184681 -0.025434684 0.009830602
-0.049744297 0.06381674 0.10895976 0.04441138 0.0041719954 -0.06919104 -0.025143221 0.030233238
-0.107549116 -0.0987949 -0.04504203 0.09690514 -0.07821402 0.06620567 0.07087026 -0.061581142
00000000: 16e3 df3c abcf e5bd 385d 37bc 573a 82bc
00000010: 9475 7abd d92c 9d3d 0c7d 76bc a11e f1bd
00000020: c2a8 aabc 7855 203c 0fca a2bd 5f19 413b
00000030: 1b4f 5e3d c570 203c 7323 c93d b9a5 81bd
00000040: 54c7 ec3d 2b2f 82bc a566 f9bc dc8e acbc
00000050: 5acd 7f3c a0c4 0d3d c4f9 86bd 8824 f83c
00000060: 2f90 eebd 5125 b73d e526 943d 4611 ce3d
00000070: d199 23bd 5266 2cbd 31ca 5c3b a2c2 3abd
00000080: fdd1 67bd 9453 9ebd 514c 803d a13c 5ebc
00000090: 2561 e5bd aef1 a83d d32d 97bd c162 d3bc
000000a0: 4242 91bd ebb6 d5bd c33b eb3c c296 423d
000000b0: 4fa0 b3bd d4e7 e5bd 229c 03be 53a0 e03d
000000c0: c59f 04be afed 153d 6653 37bd bf95 583d
000000d0: 5d65 e63d a41d debd 652f dc3d e7c4 843d
000000e0: 2695 83bd 2fcd 02be e42b 85bc d60e 113c
000000f0: b223 803d 1c14 f83c bc5a 823d e9dc ef3d
00000100: 5778 52bc b45d 00be 437b e7bd 0ef9 b83c
00000110: f9c6 d2bd d80b 873d 0481 a03b 081a 4b3d
00000120: dc9f a1bd 11eb 9abd 61f1 993d 8db7 9b3c
00000130: fb0d 373d b5d8 bebd f8bf 993d 3ff7 aa3b
00000140: 7d25 c0bd 52fe cd3c e461 e1bd c9da a3bd
00000150: 1bfc 8abd 57aa a7bd 7a3d 7fbd fe33 be3b
00000160: d2a7 a03d c3b7 13bd 9c7a fabd d355 3ebd
00000170: 393e 393c 5188 c1bd 0381 003e 6caf 803d
00000180: f229 8abd 0264 413d 1437 cbbd 9f74 fd3d
00000190: 0839 c53d 07e2 c6bd 4b69 e33d 9080 073a
000001a0: 51e1 c93c 6fa5 48bc 1777 a03d 4301 f0bc
000001b0: 6e55 2a3d 549a cfbd a977 e5bd c480 523d
000001c0: d01a c93d 6808 25bd 67c6 e93d c532 83bb
000001d0: 67be 923d e8e3 aa3d 88c3 0a3b ada6 d9bd
000001e0: c8dd e83d bbb2 883d 63f9 033d 8959 a0bd
000001f0: 56ad 8e3d 9980 3b3d 3ed3 dcbc 2f36 9a3d
00000200: f826 a9bc bf21 ad3d 52bc 97bd fb8c 9ebb
00000210: 5796 d2bd 2a84 6fbd 5cf6 42bd 8455 813d
00000220: 4974 a9bd b6d9 943d 98da 3cbd 324a ebbd
00000230: 5a52 f4bd 63ff b73d 22d8 cb3d 1ec6 5bbd
00000240: 0509 e1bd ea1c c5bd 7ba8 74bd d46b dd3d
00000250: 9a96 9bbd 33af 983c 2f42 e0b8 28e7 fa3c
00000260: a175 b13c f90f c9bd 9368 993c fdf1 78bc
00000270: 5f1c 683d f027 dd3d a7e4 b9bd 90f8 98bd
00000280: 6c61 9dbd c427 29bc 7e39 c4bd d825 abbd
00000290: 808e 833d 57e1 c33d e075 2b3c 0dcc 5f3d
000002a0: 0884 54bd 953e fabd 2864 3ebb 1067 bc3d
000002b0: 391a 9d3d 197c b03a 3104 8e3d cc3a 6fbd
000002c0: 81c6 f0bd e18a ae3d 4dac 873c e907 babd
000002d0: 5a85 a9bd 7294 de3d 0157 a1bd 0499 1a3c
000002e0: fe0c edbd 3c84 4abd 5b2b 9abc 00d7 8f3c
000002f0: 35a8 fb3d 5c87 fcbc 5675 983d c632 fe3d
00000300: c86e a4bd d720 82bc 377a a7bd d6fb c43d
00000310: e7d7 15bd ebaa e1bd 3a24 a7bd fb92 dc3d
00000320: c700 fd3c e35a 50bd e50a 713c c653 c03d
00000330: 52a2 913c 43e8 403d 6384 ccbd 114d b2bd
00000340: 9cbd d33d 6c58 f73d 58e0 6dbc 5e2f f53d
00000350: ad0a b53d d5fb 223d 9ca8 08bb 38da 7cbd
00000360: 0d2d b33d 49ef 26ba 5538 97bd 25b1 99bd
00000370: 153a fd3d a977 6a3d 28b5 0d3c 402d 1f3d
00000380: 1fe6 853c a310 fc3d d2f8 9dbd 661e 3abd
00000390: ef9c 9e3d 2bb0 753d cc96 babd f807 27bd
000003a0: 6da2 bbbd 6fd9 2f3d 9211 17bc 7687 f23d
000003b0: 89ab adbd 6c24 933d 665c d0bc 8910 213c
000003c0: adc0 4bbd 5ab2 823d 4b26 df3d b5e8 353d
000003d0: 3cb5 883b 08b4 8dbd 28f9 cdbc b2ab f73c
000003e0: b642 dcbd fb54 cabd fe7d 38bd 3476 c63d
000003f0: ac2e a0bd d796 873d 6d24 913d 823c 7cbd

bias f4 [32]
0.0027918206 0.058631442 -0.042190183 0.07121958 0.029735267 -0.05462417 -0.08464415 0.03517256
-0.023636498 -0.12128349 0.046804592 -0.09872953 -0.06067773 0.12398471 -0.04444267 -0.03141042
-0.05623162 -0.10742332 0.11591791 0.048208963 -0.04859112 0.0035471462 -0.10757461 -0.10600049
0.040951636 -0.020591846 -0.04467921 0.04826808 -0.09539774 0.09718089 0.11327105 -0.08025295
00000000: faf6 363b 8627 703d 9dcf 2cbd 92db 913d
00000010: 6097 f33c 98bd 5fbd ea59 adbd 1a11 103d
00000020: 54a1 c1bc 7a63 f8bd 2cb6 3f3d b532 cabd
00000030: 3689 78bd b2eb fd3d 8409 36bd 36a8 00bd
00000040: 2153 66bd c200 dcbd 5f66 ed3d c376 453d
00000050: 7b07 47bd 3d77 683b 1450 dcbd c916 d9bd
00000060: e7bc 273d 3bb0 a8bc 8c01 37bd c0b4 453d
00000070: e45f c3bd c606 c73d a7fa e73d a95b a4bd

weight f4 [32, 32, 2, 2]
0.013724579 0.051265445 -0.0548163 -0.011093708 -0.011685464 0.023283245 -0.011462783 0.052340206
-0.004953856 0.029706893 0.008217604 -0.05344264 0.050495565 0.06599049 -0.04434979 -0.019531066
-0.08052656 -0.07777551 -0.032332532 0.029101545 0.034738496 0.06795868 0.037818167 0.061209425
-0.054177888 0.02369952 0.032386303 0.064069405 -0.03693306 0.05156302 -0.028441304 0.006090199
-0.019924836 -0.020565653 -0.06324993 0.082048394 0.07911882 0.06541067 -0.086486325 0.048557866
-0.090690926 -0.083958335 0.01798175 -0.04489111 0.006243682 -0.011331066 -0.04468149 0.016412772
-0.041787934 0.067394085 -0.08203773 -0.056147847 -0.085239075 -0.024266226 -0.0128435595 -0.03139148
-0.08387683 -0.026172929 0.033586726 0.061464045 -0.011707769 -0.0016249322 -0.03345578 0.01586893
0.005158245 -0.048521135 -0.035591953 0.0027453618 0.038338784 0.051278554 0.065428555 0.039410844
-0.027251055 -0.03347104 -0.027564984 -0.002203564 0.072084434 -0.045564685 -0.06648606 -0.06353566
-0.023311054 -0.0074806646 -0.034482062 -0.06537718 -0.076397136 0.06141336 0.019913156 0.024838623
0.01445935 -0.053293068 -0.006980567 -0.014270405 -0.026728569 -0.0075318934 0.07908407 0.08825144
-0.01566287 0.03972631 0.040763464 0.055448063 -0.064160734 0.07909067 -0.09056716 0.038778003
0.027944688 0.077272885 0.07522036 0.020354737 0.030687641 0.0034500503 -0.07674112 0.06271772
-0.086182 -0.064106405 0.05785241 -0.05207435 0.04787209 -0.03444871 0.043058403 0.073737375
-0.08943632 0.025408665 0.0001914553 -0.08068947 -0.028380115 0.032428015 -0.08074307 0.0017376824
-7.674176e-05 -0.038291223 0.05111399 0.052636117 -0.06881176 0.00082240655 0.013922213 -0.01564285
0.08128627 0.00242446 0.0103144655 -0.004771994 -0.039821636 0.074974634 0.032786835 0.012933113
-0.056309517 0.03306536 0.07509708 -0.07002563 0.022272218 -0.05944817 -0.062809065 0.06478787
0.015648292 0.04056846 -0.018356595 0.023138935 0.06872719 -0.051490445 0.0176344 0.00085679395
-0.031082435 0.08519141 0.06774152 -0.08298247 0.00026934996 -0.039810944 -0.034918 0.01511562
0.021063063 -0.08191843 0.06687991 0.025476618 -0.03939036 -0.021912105 0.016869018 0.06732956
0.07210194 0.0010078737 -0.030937698 0.024864502 -0.078730986 -0.0035485595 0.078882225 0.08755832
-0.04896986 0.07736317 0.06690949 -0.05349553 0.004599574 -0.04767924 0.087226495 -0.018515667
-0.05629681 -0.075978816 -0.027341546 0.04537306 -0.018253168 0.014386858 0.0841474 -0.021164292
0.034006894 -0.025969353 0.044809718 0.0871356 0.03950741 0.083605684 0.08604801 0.014393363
-0.0874744 -0.0827815 -0.018961862 -0.012536179 0.015812883 0.08617936 -0.030616209 0.012657768
-0.027254842 -0.05424117 -0.08424365 -0.07699836 -0.035912123 -0.02171259 0.010739544 -0.046258245
0.06795117 0.030679107 0.040649585 0.032055587 -0.07898151 0.059997987 -0.07707306 -0.07684351
-0.035257693 0.08792258 0.050527055 -0.061362628 -0.01949791 -0.02165873 -0.018685345 0.081636935
0.04784101 -0.014287268 -0.02112697 -0.0425915 0.06870048 -0.025079377 0.07524757 0.02888802
0.0810495 0.08505938 -0.031090382 0.035005767 0.077788636 0.06727411 -0.014234022 -0.067118496
00000000: 0edd 603c b7fb 513d 0e87 60bd 62c2 35bc
00000010: 6374 3fbc 81bc be3c 66ce 3bbc af62 563d
00000020: f553 a2bb df5b f33c 21a3 063c abe6 5abd
00000030: 70d4 4e3d 0626 873d 20a8 35bd 9dff 9fbc
00000040: 1ceb a4bd c448 9fbd 1e6f 04bd 5d66 ee3c
00000050: f449 0e3d ec2d 8b3d 39e7 1a3d bcb6 7a3d
00000060: a2e9 5dbd 7f25 c23c 80a7 043d d236 833d
00000070: 1f47 17bd bf33 533d bdfd e8bc 4b90 c73b
00000080: 6939 a3bc 4d79 a8bc 2e89 81bd fd08 a83d
00000090: 0c09 a23d 08f6 853d be1f b1bd 9de4 463d
000000a0: 2abc b9bd 59f2 abbd 774e 933c bedf 37bd
000000b0: cd97 cc3b efa5 39bc f003 37bd 1474 863c
000000c0: d329 2bbd e905 8a3d 6603 a8bd 49fb 65bd
000000d0: d391 aebd f7c9 c6bc cb6d 52bc 5a94 00bd
000000e0: 9ec7 abbd 9c68 d6bc 3c92 093d b9c1 7b3d
000000f0: f1d1 3fbc adfb d4ba ee08 09bd 8fff 813c
00000100: 7f06 a93b 19be 46bd dec8 11bd 87eb 333b
00000110: 2109 1d3d 7609 523d 68ff 853d 446d 213d
00000120: 9b3d dfbc ee18 09bd f6cf e1bc ab69 10bb
00000130: 01a1 933d 09a2 3abd d829 88bd fc1e 82bd
00000140: d3f6 bebc 5d20 f5bb 103d 0dbd 79e4 85bd
00000150: 1a76 9cbd 938c 7b3d ea20 a33c 5e7a cb3c
00000160: e9e6 6c3c d549 5abd 3dbd e4bb 6bce 69bc
00000170: dff5 dabc 1ace f6bb d4f6 a13d 2cbd b43d
00000180: 6b4f 80bc 0eb8 223d 97f7 263d 821d 633d
00000190: b466 83bd 4afa a13d 467b b9bd afd5 1e3d
000001a0: 42ec e43c 3f41 9e3d 220d 9a3d fabe a63c
000001b0: a664 fb3c 3d1a 623b 732a 9dbd 2672 803d
000001c0: 3080 b0bd 384a 83bd a6f6 6c3d ea4b 55bd
000001d0: 8615 443d 171a 0dbd 025e 303d 9f03 973d
000001e0: 642a b7bd d525 d03c 64c1 4839 8540 a5bd
000001f0: 6a7d e8bc 3dd3 043d 9f5c a5bd f2c2 e33a
00000200: 6bf0 a0b8 42d7 1cbd e75c 513d f898 573d
00000210: 2eed 8cbd c596 573a fe19 643c 6f25 80bc
00000220: 6a79 a63d b0e3 1e3b 01fe 283c 635e 9cbb
00000230: 031c 23bd 4d8c 993d 7d4b 063d 68e5 533c
00000240: cfa4 66bd 8b6f 073d 7fcc 993d 9969 8fbd
00000250: 3a74 b63c ed7f 73bd 0aa2 80bd 81af 843d
00000260: d930 803c 1d2b 263d 9260 96bc dd8d bd3c
00000270: d7c0 8c3d a5e7 52bd 0476 903c 789a 603a
00000280: 97a0 febc d578 ae3d 11bc 8a3d b7f2 a9bd
00000290: 8a37 8d39 cd10 23bd 2d06 0fbd 81a7 773c
000002a0: 728c ac3c dac4 a7bd 56f8 883d 57b4 d03c
000002b0: c957 21bd 0481 b3bc e530 8a3c 15e4 893d
000002c0: 2faa 933d a11a 843a 0e71 fdbc a4b0 cb3c
000002d0: b63d a1bd f38e 68bb 018d a13d c751 b33d
000002e0: 9f94 48bd 9570 9e3d d807 893d 211e 5bbd
000002f0: 06b8 963b 4f4b 43bd cea3 b23d 2bae 97bc
00000300: 7c97 66bd c89a 9bbd 61fb dfbc 1ad9 393d
00000310: ab87 95bc dbb6 6b3c 7955 ac3d bd60 adbc
00000320: d04a 0b3d aebd d4bc 658a 373d 2674 b23d
00000330: 86d2 213d 7539 ab3d f039 b03d 24d2 6b3c
00000340: c725 b3bd 5989 a9bd e855 9bbc 8c64 4dbc
00000350: 058a 813c ce7e b03d d8ce fabc 8762 4f3c
00000360: 8c45 dfbc fd2b 5ebd ef87 acbd 51b1 9dbd
00000370: 9718 13bd 9ade b1bc eaf4 2f3c 4979 3dbd
00000380: fc29 8b3d c052 fb3c 2e80 263d b84c 033d
00000390: 0fc1 a1bd 73c0 753d 7bd8 9dbd 2160 9dbd
000003a0: 5f6a 10bd c110 b43d 75f5 4e3d 6157 7bbd
000003b0: 15ba 9fbc a66d b1bc 0212 99bc 4431 a73d
000003c0: eff4 433d 2515 6abc 7812 adbc 6d74 2ebd
000003d0: d6b2 8c3d 4473 cdbc 661b 9a3d 92a6 ec3c
000003e0: 48fd a53d 9d33 ae3d 42b1 febc 3562 0f3d
000003f0: a64f 9f3d 02c7 893d d135 69bc 6c75 89bd

bias f4 [32]
-0.04438543 -0.012227059 0.07103764 0.009657553 -0.05806219 0.022542031 -0.009697672 -0.036382467
0.06682951 -0.04404197 0.0034046513 0.053209655 0.02646236 0.0008272885 0.0020060712 0.013606957
0.013865117 0.028065188 0.035540495 -0.014083556 0.0016830564 -0.093530744 -0.07941799 -0.058779176
0.013767759 -0.091215715 0.057225835 0.033065002 0.017462403 0.02681647 0.007962814 0.05991044
00000000: 7fcd 35bd 0154 48bc 2f7c 913d b73a 1e3c
00000010: 9ed2 6dbd 11aa b83c fce2 1ebc c805 15bd
00000020: e9dd 883d 5a65 34bd 9220 5f3b 5ef2 593d
00000030: 97c7 d83c 64de 583a 4a78 033b b7ef 5e3c
00000040: 842a 633c f7e8 e53c e992 113d b7be 66bc
00000050: 009a dc3a 0c8d bfbd e6a5 a2bd 6fc2 70bd
00000060: 2b92 613c 4ecf babd a365 6a3d 2b6f 073d
00000070: 500d 8f3c 37ae db3c 7676 023c a664 753d

weight f4 [64, 32, 2, 2]
-0.0690441 -0.05321511 -0.0063947574 0.06408187 -0.0244923 0.016929809 0.05321416 0.010237236
0.043951895 -0.07068072 -0.03769057 0.06531016 -0.023025775 0.040535633 0.055700142 0.008615874
-0.037982564 0.04905338 -0.005258438 0.0121410135 0.052646242 -0.010665812 0.03696547 0.08888279
0.0068592285 -0.0738034 -0.056054763 -0.051575188 -0.07292321 -0.04562141 -0.05025423 0.057039138
0.018234387 0.019671857 -0.073409714 -0.063072644 -0.08327659 -0.021496141 0.061704934 0.06168433
0.010592687 0.025595842 -0.06291716 0.08402298 0.013863979 -0.080623 -0.040586002 -0.07485073
0.032867532 0.05821916 -0.09286774 -0.03851097 0.0042745033 -0.07537681 0.074264854 -0.07925614
0.010856496 0.036780998 -0.060148753 0.030459309 -0.053606782 -0.05689211 -0.042137418 0.051457513
-0.066906415 -0.07483601 0.054975186 -0.048665714 0.049433697 0.011363949 0.07421608 -0.011094173
0.005696656 0.06336031 -0.013512289 -0.057089966 -0.00035169526 0.033296872 -0.05024239 0.00623351
-0.079827495 -0.06932286 -0.057323303 0.017490022 0.035855304 -0.052572086 -0.074123375 0.00036048936
0.06122126 -0.028218566 -0.0810416 -0.07583607 0.010501484 -0.018334566 0.06931816 -0.03175463
0.07396645 -0.01158081 -0.021828767 -0.07498873 -0.058684077 -0.018580869 -0.09142433 -0.092670366
0.05695698 -0.019779488 0.014485734 0.035262376 -0.07030576 -0.09016684 -0.0019629202 -0.053936765
0.041331828 0.048907924 -0.042383607 0.081802644 0.08214005 0.06298107 0.0854966 -0.010589618
0.053861983 -0.058607068 -0.07916318 -0.052572254 0.032981493 0.03065742 -0.08179134 -0.04906665
0.021886146 0.026479408 -0.020959975 0.07736803 0.020538157 0.04705293 -0.07669293 0.042868163
-0.03537934 0.07201483 0.06911198 0.058436796 0.04009221 0.044738796 -0.08123204 0.039022114
-0.031822443 -0.047949053 0.088614956 -0.076381065 -0.042846054 9.068822e-05 0.08743573 -0.06697691
-0.0807732 -0.0428684 0.013593327 0.058350634 0.02264779 0.045848448 -0.06643566 -0.0032783542
-0.033971112 0.03812256 0.075422384 -0.027387267 0.027763067 0.03935962 0.0046991217 -0.05465496
0.01958748 0.043459896 0.026397502 0.052087117 -0.035868227 -0.053953685 -0.0011385715 -0.035631523
-0.050656356 -0.00078989525 0.061044373 0.043687586 -0.04233619 -0.05238962 -0.047412664 -0.055601023
0.01969907 -0.072342336 0.061528884 -0.026421411 -0.0032846178 0.053906478 0.057204433 0.08935212
0.0052920924 -0.044548523 -0.054975584 0.0069128596 -0.08271282 -0.090850584 -0.051924195 -0.057651546
-0.04810813 0.008305112 0.037452668 -0.013952723 0.0060525807 0.05001096 -0.07905757 0.0028010604
0.049809698 0.025393842 0.08575268 -0.060785584 -0.08388007 -0.021579092 -0.0002725677 -0.0605701
0.07221252 -0.052530617 -0.010451604 0.035207674 -0.07759698 0.06836645 -0.008175358 0.032784574
0.092545286 0.06420797 -0.08192438 0.055789746 0.03544405 -0.050480198 -0.041389655 -0.07730842
0.07184116 -0.026242057 -0.024175674 0.063679025 0.029237913 -0.072440945 -0.072960526 -0.07314045
-0.029444017 0.03697496 0.008995309 0.07824586 0.012262875 0.010139153 0.06510842 -0.057393275
-0.05758076 -5.4389307e-05 0.009561653 -0.040232595 -0.031858362 0.08515523 0.062283084 0.058577094
00000000: fe66 8dbd 16f8 59bd 1d8b d1bb 5b3d 833d
00000010: 13a4 c8bc 62b0 8a3c 17f7 593d 14ba 273c
00000020: e706 343d 0ec1 90bd 6d61 1abd 55c1 853d
00000030: 8da0 bcbc b108 263d d525 643d 9829 0d3c
00000040: 9b93 1bbd 32ec 483d fa4e acbb 1aeb 463c
00000050: 96a3 573d a8bf 2ebc 1b69 173d 2e08 b63d
00000060: 61c3 e03b 3d26 97bd ae99 65bd 8140 53bd
00000070: c458 95bd 84dd 3abd 61d7 4dbd dfa1 693d
00000080: 4860 953c e026 a13c d557 96bd 3b2c 81bd
00000090: eb8c aabd ad18 b0bc 50be 7c3d b5a8 7c3d
000000a0: f38c 2d3c 5fae d13c b6da 80bd 3d14 ac3d
000000b0: be25 633c ac1d a5bd 823d 26bd 574b 99bd
000000c0: 1ba0 063d 3777 6e3d 7131 bebd aebd 1dbd
000000d0: 2211 8c3b 285f 9abd 2c18 983d 0b51 a2bd
000000e0: 72df 313c aca7 163d 8a5e 76bd cd85 f93c
000000f0: c992 5bbd b307 69bd 4998 2cbd 1dc5 523d
00000100: 3b06 89bd 9f43 99bd a92d 613d b355 47bd
00000110: fd7a 4a3d db2f 3a3c 9afe 973d 56c4 35bc
00000120: 04ab ba3b 0dc3 813d a662 5dbc 2bd7 69bd
00000130: bd63 b8b9 4d62 083d f7ca 4dbd 7942 cc3b
00000140: 997c a3bd 25f9 8dbd d7cb 6abd 3c47 8f3c
00000150: 03dd 123d d455 57bd ffcd 97bd 1000 bd39
00000160: 25c3 7a3d 9f2a e7bc 23f9 a5bd f14f 9bbd
00000170: 6b0e 2c3c 5f32 96bc aef6 8d3d 2511 02bd
00000180: b97b 973d 70bd 3dbc 3ed2 b2bc b193 99bd
00000190: b75e 70bd e836 98bc ae3c bbbd f6c9 bdbd
000001a0: b94b 693d 9808 a2bc 9255 6d3c 486f 103d
000001b0: 77fc 8fbd 64a9 b8bd 56a4 00bb ccec 5cbd
000001c0: 904b 293d ad53 483d 6f9a 2dbd 2588 a73d
000001d0: 0b39 a83d 38fc 803d d718 af3d 1480 2dbc
000001e0: 629e 5c3d f70d 70bd 4e20 a2bd 0156 57bd
000001f0: 9a17 073d 4525 fb3c 3882 a7bd 1dfa 48bd
00000200: 934a b33c 58eb d83c 41b4 abbc 2173 9e3d
00000210: a33f a83c 93ba 403d 2f11 9dbd 8796 2f3d
00000220: ede9 10bd 837c 933d 958a 8d3d 6c5b 6f3d
00000230: bb37 243d 0740 373d fc5c a6bd a7d5 1f3d
00000240: 4058 02bd 3a66 44bd c27b b53d ad6d 9cbd
00000250: 587f 2fbd de2f be38 8111 b33d 312b 89bd
00000260: 6b6c a5bd c796 2fbd 8cb6 5e3c 1301 6f3d
00000270: dc87 b93c 95cb 3b3d 6b0f 88bd a8d9 56bb
00000280: 4b25 0bbd 6726 1c3d 0d77 9a3d 435b e0bc
00000290: 5f6f e33c 8e37 213d 17fb 993b e1dd 5fbd
000002a0: ec75 a03c 0103 323d 933f d83c 4d59 553d
000002b0: 90ea 12bd 8afe 5cbd 1f3c 95ba 5cf2 11bd
000002c0: 0a7d 4fbd f910 4fba aa09 7a3d c1f1 323d
000002d0: b668 2dbd 8096 56bd c833 42bd e6bd 63bd
000002e0: f25f a13c 3828 94bd b605 7c3d b771 d8bc
000002f0: be42 57bb 0acd 5c3d 324f 6a3d 3ffe b63d
00000300: 4a69 ad3b 8378 36bd 142e 61bd 4585 e23b
00000310: 5765 a9bd df0f babd 77ae 54bd 0724 6cbd
00000320: 080d 45bd 2a12 083c f867 193d f699 64bc
00000330: ba54 c63b 4bd8 4c3d efe8 a1bd ff91 373b
00000340: 4105 4c3d bf06 d03c 1a9f af3d 4efa 78bd
00000350: 50c9 abbd a3c6 b0bc 6be7 8eb9 5a18 78bd
00000360: 28e4 933d 582a 57bd 343d 2bbc ec35 103d
00000370: 2aeb 9ebd b603 8c3d f0f1 05bc 1e49 063d
00000380: 6288 bd3d 787f 833d f8c7 a7bd ca83 643d
00000390: c82d 113d 53c4 4ebd 3388 29bd e053 9ebd
000003a0: 7521 933d 95f9 d6bc 100c c6bc 266a 823d
000003b0: 5984 ef3c eb5b 94bd 546c 95bd a9ca 95bd
000003c0: 9434 f1bc 0e73 173d 0f61 133c 5e3f a03d
000003d0: 3aea 483c b11e 263c 9057 853d 3615 6bbd
000003e0: ced9 6bbd 1320 64b8 7ba8 1c3c efca 24bd
000003f0: ea7d 02bd dd65 ae3d 8c1c 7f3d 89ee 6f3d

bias f4 [64]
0.014956459 -0.022644607 -0.025981855 -0.047226187 -0.050514072 -0.012806962 0.08284041 -0.02308053
0.073465675 -0.016666893 0.09181879 -0.06167602 -0.07726078 0.072482586 0.0217111 -0.021823006
-0.084421925 0.08223313 0.00069763494 0.081911206 0.032897767 0.03188587 0.051910345 -0.02488626
-0.01646251 0.045038834 0.051950544 -0.034677844 -0.00394992 0.06753636 0.020408079 -0.0530275
0.0056665256 -0.086286925 -0.057979207 0.06866513 0.0038428968 5.5558234e-05 0.04875792 0.013969341
-0.032196797 0.054926198 -0.008583196 -0.03159291 0.050550234 0.005012445 0.030454496 -0.073146544
0.03071105 0.05707348 -0.052125335 -0.034162063 0.06736345 -0.07397622 0.040566914 -0.0057538007
-0.07800687 -0.034454502 0.068348914 0.023914576 0.041788228 0.07445803 -0.08174617 -0.078716315
00000000: f00b 753c 2f81 b9bc e6d7 d4bc 3f70 41bd
00000010: d8e7 4ebd 4bd4 51bc 3ca8 a93d 6113 bdbc
00000020: 2c75 963d 0289 88bc 7d0b bc3d ff9f 7cbd
00000030: e63a 9ebd c071 943d 7adb b13c 29c6 b2bc
00000040: 67e5 acbd d869 a83d 7de1 363a 10c1 a73d
00000050: cfbf 063d c29a 023d f19f 543d 45de cbbc
00000060: 63dc 86bc a47a 383d 18ca 543d 5b0a 0ebd
00000070: 556e 81bb 8150 8a3d d82e a73c 5d33 59bd
00000080: 43ae b93b 33b7 b0bd 9b7b 6dbd 4ea0 8c3d
00000090: 1cd9 7b3b 3307 6938 62b6 473d aadf 643c
000000a0: cae0 03bd 4bfa 603d 89a0 0cbc 9167 01bd
000000b0: c30d 4f3d 703f a43b b57b f93c dbcd 95bd
000000c0: bd95 fb3c e2c5 693d 6081 55bd 85ed 0bbd
000000d0: d9f5 893d d880 97bd 7e29 263d 618a bcbb
000000e0: 11c2 9fbd 2a20 0dbd 84fa 8b3d 80e8 c33c
000000f0: 222a 2b3d 747d 983d 896a a7bd 0536 a1bd

weight f4 [64, 64, 2, 2]
-0.043921523 0.008856454 0.054403163 0.036027946 0.031009236 -0.034522913 -0.05177546 0.048206598
0.0012149201 0.052813616 -0.02568284 0.048463605 -0.037204154 -0.0075978935 0.038322434 -0.010691024
-0.061189525 -0.0624901 -0.0022072345 -0.0328599 0.029814553 0.041279357 0.039500378 -0.0011640234
-0.0010899605 -0.06346006 0.030543162 0.008101499 0.013095275 -0.030786745 -0.04151918 -0.052179947
0.008879837 -6.305868e-05 -0.007856223 -0.055552408 -0.060565997 0.045985494 0.0047842893 0.027093802
-0.024210302 -0.03188514 -0.009172794 -0.019286918 -0.0006280914 0.0030497313 -0.025052369 0.0061852485
0.04592123 -0.00648316 -0.025770135 -0.033850662 0.015535811 -0.0635936 -0.052765135 0.0454773
0.03459045 -0.013494278 -0.06588345 2.7870672e-05 -0.060835622 0.016812906 0.047724284 0.020793349
0.040171444 -0.011398636 0.05347562 0.035083346 -0.003893355 -0.028931431 -0.052790035 -0.02284696
-0.013424432 -0.006344727 -0.017597944 0.006171627 -0.052355565 0.036602885 0.0042536724 0.034929905
0.013055488 0.011142472 -0.04636234 0.011855843 0.041653764 -0.016785638 -0.0033531382 -0.05285632
-0.05256179 0.0321128 -0.044582825 -0.024840543 -0.022165835 0.041681573 -0.025378086 0.0035391003
0.048973076 -0.044158697 -0.012691527 0.01215291 0.023688355 0.051907353 -0.005338518 0.028592309
-0.05765549 0.013306092 -0.027280401 0.031979896 0.0015117887 0.009638498 0.046347946 -0.0019174538
-0.024387356 -0.040605024 -0.022243641 0.02262409 -0.06349452 0.0015274674 0.0488235 -0.0032642728
-0.026502032 0.021138625 -0.014615407 0.039482888 -0.0077049583 -0.035105415 0.023633644 -0.048756212
0.014093822 0.028958876 0.044669446 -0.031093918 -0.014768735 -0.004563153 -0.009198524 -0.05516021
0.04518903 -0.0074132457 -0.0075784326 -0.050627828 -0.053168032 0.0038223118 -0.008454312 0.05317289
0.042620763 0.049490616 -0.044995174 -0.043219134 0.024765737 0.040151533 -0.008983681 0.007622664
-0.014570134 -0.047688752 -0.01826169 0.014672568 0.04720652 -0.021907471 -0.049388923 -0.027040258
0.060294516 -0.013005801 0.039191 0.0538857 -0.0023449552 -0.010005037 -0.05513424 -0.027905378
0.02625039 0.015792103 -0.06196653 -0.000298554 0.05783613 -0.038054682 -0.013669677 -0.015008785
-0.016604066 0.045523472 -0.037920833 -0.052087057 -0.051848553 0.017150247 0.00029745355 -0.061075643
0.045532376 0.03192878 -0.033483513 -0.038170177 0.027497083 -0.013471583 0.037420243 0.0015210602
0.020793207 -0.0028301552 -0.034460835 0.047048308 -0.02711523 0.04383943 0.04695791 0.005329059
0.0023979843 0.053454943 0.043849297 0.036690637 0.01037693 -0.05178027 0.014317438 0.033468015
0.022472491 -0.043738253 0.014632937 0.010288594 -0.004251644 0.0005472377 0.00012414157 -0.002507411
-0.041799556 0.03621275 -0.035738885 -0.010295619 0.046054114 0.03129797 0.01065689 -0.06143562
-0.0552255 0.034004547 -0.014659286 -0.04633026 -0.023100752 -0.033671025 0.058298796 -0.015791127
-0.05123329 -0.0010004155 0.020453589 0.027460776 0.024060432 0.03204039 0.04892287 -0.056516446
-0.0003960033 -0.0069514136 -0.027345216 0.05501927 -0.023211151 -0.030000005 -0.005723207 0.026859885
-0.06219399 -0.035740398 -0.020662777 -0.05434061 -0.013233684 -0.05366297 -0.022289075 0.01926592
00000000: 0ee7 33bd a91a 113c dad5 5e3d 0a92 133d
00000010: 1507 fe3c e667 0dbd 8112 54bd 4874 453d
00000020: f43d 9f3a 1753 583d d264 d2bc c681 463d
00000030: 6263 18bd c0f7 f8bb fcf7 1c3d 6829 2fbc
00000040: dea1 7abd 9ef5 7fbd 40a7 10bb 1a98 06bd
00000050: a63d f43c 8b14 293d 26cb 213d 2592 98ba
00000060: 01dd 8eba 59f7 81bd a735 fa3c 26bc 043c
00000070: 908d 563c 7c34 fcbc 0410 2abd a4ba 55bd
00000080: bc7c 113c 5f3e 84b8 63b7 00bc ec8a 63bd
00000090: 0d14 78bd 495b 3c3d 87c5 9c3b d2f3 dd3c
000000a0: af54 c6bc fe99 02bd 7d49 16bc 99ff 9dbc
000000b0: 80a6 24ba 00de 473b a03a cdbc a0ad ca3b
000000c0: e617 3c3d b070 d4bb e41b d3bc fea6 0abd
000000d0: ea89 7e3c 5d3d 82bd 4120 58bd 6846 3a3d
000000e0: b7ae 0d3d 1b17 5dbc e7ed 86bd d0cb e937
000000f0: c62e 79bd 38bb 893c 8a7a 433d d056 aa3c
00000100: d08a 243d 58c1 3abc 4009 5b3d 8eb3 0f3d
00000110: a827 7fbb 9c01 edbc 5d3a 58bd 8c29 bbbc
00000120: 26f2 5bbc 6de7 cfbb 9029 90bc 5c3b ca3b
00000130: ca72 56bd e8ec 153d 6462 8b3b a912 0f3d
00000140: afe6 553c ea8e 363c 70e6 3dbd 023f 423c
00000150: 239d 2a3d 0982 89bc 53c0 5bbb de7f 58bd
00000160: 084b 57bd b688 033d 7b9c 36bd 657e cbbc
00000170: 2095 b5bc 4cba 2a3d b4e5 cfbc 40f0 673b
00000180: fe97 483d c0df 34bd 1ff0 4fbc 001d 473c
00000190: 150e c23c ce9c 543d bcee aebb 6b3a ea3c
000001a0: 2a28 6cbd cb01 5a3c 267b dfbc 5afd 023d
000001b0: 3627 c63a caea 1d3c 58d7 3d3d 1353 fbba
000001c0: fec7 c7bc 7451 26bd 4c38 b6bc 2856 b93c
000001d0: 6a09 82bd 4d35 c83a 26fb 473d 69ed 55bb
000001e0: ca1a d9bc e92a ad3c 7675 6fbc cfb8 213d
000001f0: e079 fcbb b2ca 0fbd 589b c13c 98b4 47bd
00000200: c6e9 663c 2a3b ed3c 4ff7 363d acb8 febc
00000210: 90f8 71bc 8086 95bb 68b5 16bc acef 61bd
00000220: 2218 393d d0ea f2bb 8054 f8bb 205f 4fbd
00000230: b9c6 59bd c07f 7a3b f483 0abc d1cb 593d
00000240: 1c93 2e3d acb6 4a3d dc4c 38bd 8c06 31bd
00000250: 84e1 ca3c ef75 243d 4a30 13bc 8ac7 f93b
00000260: 92b7 6ebc 4855 43bd 8a99 95bc 3665 703c
00000270: a05b 413d 4c77 b3bc 0a4c 4abd 8883 ddbc
00000280: 62f7 763d 4816 55bc be86 203d 40b7 5c3d
00000290: d2ad 19bb 2bec 23bc 71d4 61bd d299 e4bc
000002a0: 0f0b d73c 715e 813c 9ed0 7dbd 3d87 9cb9
000002b0: 94e5 6c3d 3adf 1bbd c8f6 5fbc 68e7 75bc
000002c0: 4005 88bc d276 3a3d e052 1bbd 3d59 55bd
000002d0: 265f 54bd ad7e 8c3c 8af3 9b39 742a 7abd
000002e0: 2880 3a3d c1c7 023d 0226 09bd 5558 1cbd
000002f0: 9041 e13c eab7 5cbc f845 193d 505e c73a
00000300: 8456 aa3c 207a 39bb ce26 0dbd bab5 403d
00000310: c220 debc f990 333d f056 403d 639f ae3b
00000320: 8027 1d3b 92f3 5a3d 529b 333d ec48 163d
00000330: 0004 2a3c 8c17 54bd b093 6a3c c215 093d
00000340: 3b18 b83c e226 33bd fcbe 6f3c 7e91 283c
00000350: 6051 8bbb 8074 0f3a 002c 0239 6053 24bb
00000360: 0336 2bbd d253 143d f062 12bd f5ae 28bc
00000370: 3da3 3c3d 4d32 003d 3d9a 2e3c eba3 7bbd
00000380: 2234 62bd 5a48 0b3d 802d 70bc ccc4 3dbd
00000390: ca3d bdbc a1ea 09bd b8ca 6e3d 655c 81bc
000003a0: 00da 51bd 6020 83ba 498e a73c 6cf5 e03c
000003b0: 621a c53c c93c 033d 5963 483d ca7d 67bd
000003c0: aa9e cfb9 afc8 e3bb 1303 e0bc e35b 613d
000003d0: 5025 bebc 92c2 f5bc bd89 bbbb 4309 dc3c
000003e0: 20bf 7ebd 8664 12bd fc44 a9bc 4294 5ebd
000003f0: 18d2 58bc b4cd 5bbd 9497 b6bc 90d3 9d3c

bias f4 [64]
-0.050595704 -0.019173022 -0.020317549 -0.042855043 -0.057584025 0.03067806 0.018484185 0.012163008
0.00038336558 0.034979876 -0.009057995 0.043025702 -0.04375116 -0.024512421 -0.034485027 0.024593577
0.007773355 -0.060649112 -0.03748852 -0.014253045 0.010266179 -0.015874652 0.013001789 0.034688063
-0.018600961 -0.04119812 -0.01130748 -0.008660553 -0.043936174 -0.040880702 -0.041435543 0.06362227
-0.05910701 -0.04219305 0.042661514 0.02034771 0.032352682 0.044631653 -0.03773407 -0.06618163
0.03247932 0.007724141 0.064985566 -0.035935227 0.006234173 -0.01526885 0.053122994 -0.029436152
0.05040584 -0.05235756 -0.023171693 0.021159526 -0.035283186 -0.033840597 0.0354034 0.057316184
0.019298887 0.0226251 0.02366914 -0.04435327 0.040318627 -0.057071086 -0.0004937679 0.04249419
00000000: 713d 4fbd be10 9dbc fd70 a6bc c588 2fbd
00000010: 3add 6bbd 8e50 fb3c 256c 973c 5a47 473c
00000020: 75fe c839 0f47 0f3d fc67 14bc b83b 303d
00000030: 6b34 33bd 46ce c8bc 2c40 0dbd 7878 c93c
00000040: a1b7 fe3b 346b 78bd 908d 19bd 9b85 69bc
00000050: 7a33 283c 8f0b 82bc 7505 553c 1215 0e3d
00000060: 0b61 98bc 5cbf 28bd 0243 39bc fee4 0dbc
00000070: 6bf6 33bd 8672 27bd 51b8 29bd 654c 823d
00000080: 311a 72bd 9fd2 2cbd d7bd 2e3d 3eb0 a63c
00000090: 3f84 043d aecf 363d 0a8f 1abd 3c8a 87bd
000000a0: 0909 053d ca1a fd3b 2717 853d d130 13bd
000000b0: 0948 cc3b 332a 7abc 7f97 593d 1624 f1bc
000000c0: 5b76 4e3d e174 56bd 90d2 bdbc be56 ad3c
000000d0: 1a85 10bd 709c 0abd 2803 113d 60c4 6a3d
000000e0: b318 9e3c 4658 b93c c9e5 c13c c6ab 35bd
000000f0: 2525 253d 5fc3 69bd 3470 01ba 630e 2e3d

weight f4 [64, 32, 2, 2]
0.04079447 0.07506925 0.0068670176 -0.07598445 -0.07419366 0.015707271 0.03690822 0.03702975
0.020571912 -0.024312984 -0.07357081 -0.0676652 0.020516874 0.073875636 0.07735797 -0.08586218
0.051521033 0.066665 0.031723555 0.076019615 -0.0037694375 0.019375445 0.09145789 -0.06625309
0.025998324 0.089363456 -0.06703492 -0.048946474 0.080630355 0.048786227 0.051475655 -0.00043699567
-0.04468686 0.06834681 -0.053391512 0.074417464 0.03212603 -0.027470166 0.060423277 0.036320593
-0.056265064 -0.010437465 0.08257805 0.07424423 0.06322055 0.002124342 -0.007039063 -0.020813275
-0.049123213 -0.06899191 -0.05803552 0.08199695 -0.0008965476 -0.003054862 -0.070517525 0.03530171
0.07554494 -0.053385828 -0.09216697 -0.03289681 0.07706721 0.0012117298 0.023906477 0.044988368
-0.011325711 0.010738717 -0.07407563 -0.019939011 -0.04014901 0.025771271 -0.049987495 -0.076295555
0.08957756 0.02820406 -0.015069672 -0.06428553 0.088528685 -0.06535183 0.0928152 0.0383547
0.018397247 -0.06775976 -0.07882417 0.081843436 0.05480333 0.04367346 -0.08214496 0.08638586
0.010542041 0.0786701 -0.08605739 0.07983804 0.01286577 0.08324756 0.070585 -0.02180363
-0.047682837 0.0256111 -0.07333064 -0.011749054 -0.0033901208 0.051226407 -0.05105537 0.09279511
0.030036096 0.03338162 -0.020189056 -0.03481419 0.068434894 0.04279375 0.052400097 0.07405902
-0.04210234 -0.04210494 -0.056951515 -0.02288828 -0.07128787 -0.08732207 -0.031909656 -0.0056181354
0.00031081028 -0.04021107 0.020833982 -0.054389514 -0.06349009 -0.0897196 0.06425152 -0.0019247239
0.0029186844 -0.022164136 0.01027084 -0.04689978 -0.06118491 -0.031920403 -0.01807917 0.024641827
0.011907783 0.045590907 -0.020564113 0.00466346 -0.049865335 -0.013068607 -0.061919812 -7.151371e-05
0.021944143 -0.05236645 -0.05609713 -0.031727333 -0.041426912 0.0225454 0.0067260205 -0.01586419
-0.051328123 -0.032962035 0.0031835122 0.01887867 0.08912309 -0.0037394788 -0.05702809 -0.023198318
-0.011286759 0.0015820637 -0.013280747 0.0069902237 -0.08797351 -0.05412235 0.06666863 -0.062225804
0.029223528 0.047463287 0.06005391 -0.020202747 -0.04780325 -0.047124896 0.025088374 -0.008545226
-0.026709378 0.07929847 -0.06271145 -0.07588765 0.028815312 -0.04599535 0.05633537 -0.046018958
-0.014392069 0.06067449 -0.07994707 -0.08531524 -0.082413994 -0.050013974 -0.06309397 -0.031179462
0.04582495 -0.043068286 0.06729918 0.06661308 -0.08540632 0.0014812263 -0.024540061 0.058436036
-0.039723918 0.086273775 0.08186722 -0.079425655 -0.028942255 -0.043404434 0.064098224 0.03060869
-0.07311 0.0696363 0.005159913 -0.07109365 -0.0813276 -0.068757415 -0.02254435 -0.019807883
-0.07093121 0.082758486 -0.09009796 -0.016585013 0.009793521 -0.06854873 0.07192343 -0.0492958
-0.063554466 0.081880845 0.05758351 0.034433424 -0.0040206728 0.085733 -0.009787539 -0.059653603
-0.07967293 0.012093448 -0.028952882 -0.049574096 -0.008526286 -0.01412801 0.0070146695 0.04564166
-0.086333685 -0.010004464 -0.07027648 -0.06634685 -0.054157484 -0.009399121 0.036931936 -0.008863433
0.056209575 -0.082855016 0.028795755 0.04353469 0.03688496 -0.026798109 -0.059349556 -0.0021175388
00000000: 1a18 273d e8bd 993d b804 e13b bc9d 9bbd
00000010: d8f2 97bd 89ac 803c 132d 173d 82ac 173d
00000020: 6d86 a83c 062c c7bc 4bac 96bd 0d94 8abd
00000030: 0113 a83c 1c4c 973d db6d 9e3d 83d8 afbd
00000040: b807 533d a987 883d 8ff0 013d 2cb0 9b3d
00000050: ab08 77bb 41b9 9e3c 464e bb3d b3af 87bd
00000060: 70fa d43c 3004 b73d 9b49 89bd 197c 48bd
00000070: 8721 a53d 11d4 473d 23d8 523d 911c e5b9
00000080: 9209 37bd 6af9 8b3d 0fb1 5abd 2f68 983d
00000090: 9696 033d 1d09 e1bc 667e 773d e7c4 143d
000000a0: 3276 66bd e701 2bbc ae1e a93d 5c0d 983d
000000b0: c779 813d 8b38 0b3b f1a7 e6bb 9a80 aabc
000000c0: 6c35 49bd a14b 8dbd a7b6 6dbd 04ee a73d
000000d0: 4a06 6bba 1434 48bb 7e6b 90bd 8798 103d
000000e0: 4eb7 9a3d 19ab 5abd 09c2 bcbd cebe 06bd
000000f0: 6ad5 9d3d e8d2 9e3a 84d7 c33c b945 383d
00000100: 7a8f 39bc 72f1 2f3c f7b4 97bd 2357 a3bc
00000110: 4a73 24bd 461e d33c b0bf 4cbd d840 9cbd
00000120: 7174 b73d 330c e73c c9e6 76bc 22a8 83bd
00000130: 874e b53d 2ed7 85bd e515 be3d d119 1d3d
00000140: d3b5 963c a1c5 8abd 916e a1bd 889d a73d
00000150: 7579 603d f1e2 323d 9e3b a8bd 12eb b03d
00000160: 86b8 2c3c ca1d a13d db3e b0bd 2082 a33d
00000170: f3ca 523c b27d aa3d de8e 903d 879d b2bc
00000180: 144f 43bd 5fce d13c 602e 96bd 1b7f 40bc
00000190: ca2c 5ebb c8d2 513d 701f 51bd 5d0b be3d
000001a0: 420e f63c 2abb 083d 8563 a5bc 5399 0ebd
000001b0: 9827 8c3d 8048 2f3d 7ca1 563d 41ac 973d
000001c0: 8173 2cbd 3b76 2cbd fe45 69bd 3480 bbbc
000001d0: 60ff 91bd ead5 b2bd b3b3 02bd 5618 b8bb
000001e0: 40f4 a239 5db4 24bd 07ac aa3c 8ac7 5ebd
000001f0: 1807 82bd e9be b7bd 4d96 833d 0447 fcba
00000200: 6647 3f3b 9091 b5bc 0647 283c fc19 40bd
00000210: 079d 7abd f8be 02bd c41a 94bc a8dd c93c
00000220: dd18 433c 88bd 3a3d 1276 a8bc f0cf 983b
00000230: 983f 4cbd b61d 56bc a19f 7dbd a1f9 95b8
00000240: 34c4 b33c 347e 56bd 1bc6 65bd 85f4 01bd
00000250: 44af 29bd 21b1 b83c f365 dc3b 9ef5 81bc
00000260: 703d 52bd 3303 07bd 79a2 503b 71a7 9a3c
00000270: 2b86 b63d 0b12 75bb 4996 69bd 660a bebc
00000280: 19ec 38bc 405d cf3a 7e97 59bc 3f0e e53b
00000290: 752b b4bd 66af 5dbd 9089 883d 7ce0 7ebd
000002a0: 2e66 ef3c dd68 423d 17fb 753d 3b80 a5bc
000002b0: 57cd 43bd 0906 41bd 2286 cd3c 4701 0cbc
000002c0: a0cd dabc 3c67 a23d dc6e 80bd fc6a 9bbd
000002d0: 170e ec3c 9f65 3cbd ebbf 663d 607e 3cbd
000002e0: b6cc 6bbc d085 783d 4abb a3bd c2b9 aebd
000002f0: abc8 a8bd 74db 4cbd 6937 81bd 126c ffbc
00000300: f1b2 3b3d 5f68 30bd 27d4 893d 706c 883d
00000310: 82e9 aebd b525 c23a 3d08 c9bc a05a 6f3d
00000320: 8cb5 22bd 4eb0 b03d 00aa a73d eba9 a2bd
00000330: 4f18 edbc d9c8 31bd ee45 833d 13bf fa3c
00000340: b2ba 95bd 7a9d 8e3d 7d14 a93b 8c99 91bd
00000350: 168f a6bd b0d0 8cbd eeae b8bc 2444 a2bc
00000360: 6244 91bd 487d a93d 4785 b8bd 4bdd 87bc
00000370: 0175 203c 4763 8cbd 974c 933d 65ea 49bd
00000380: d828 82bd 25b1 a73d b0dc 6b3d 100a 0d3d
00000390: d9bf 83bb c894 af3d ea5b 20bc 5657 74bd
000003a0: 902b a3bd 9923 463c 982e edbc 350e 4bbd
000003b0: d6b1 0bbc 2b79 67bc 50db e53b c0f2 3a3d
000003c0: b7cf b0bd c3e9 23bc 1ded 8fbd dbe0 87bd
000003d0: 3dd4 5dbd c5fe 19bc f145 173d ef37 11bc
000003e0: 033c 663d e4af a9bd 13e5 eb3c 6e51 323d
000003f0: af14 173d b587 dbbc 8518 73bd 68c6 0abb

bias f4 [32]
0.06975488 0.035675775 -0.056665007 0.054119587 0.08179276 -0.05674382 -0.063724905 -0.034957338
-0.032565583 -0.054189693 -0.08111138 0.05753471 0.08922816 -0.01003976 0.064847015 0.07584922
0.061082095 0.059284694 -0.023875086 -0.09293336 0.06323576 0.044187162 0.031380028 -0.05909183
0.07252326 -0.08551121 0.065336 -0.04317045 0.018353036 0.05638933 0.06751119 -0.069867276
00000000: a6db 8e3d c320 123d 9119 68bd 80ac 5d3d
00000010: f682 a73d 356c 68bd 3482 82bd 6d2f 0fbd
00000020: 7d63 05bd 03f6 5dbd b91d a6bd 84a9 6b3d
00000030: 41bd b63d ce7d 24bc 83ce 843d d656 9b3d
00000040: 3831 7a3d 82d4 723d af95 c3bc d853 bebd
00000050: c081 813d 99fd 343d 5888 003d 460a 72bd
00000060: 1387 943d 8020 afbd e1ce 853d 7fd3 30bd
00000070: 1b59 963c 80f8 663d 4f43 8a3d 9316 8fbd
