output/multiclass-2/unet_tgs_salt.pth (torch, 246039 bytes, 26 tensors)

weight f4 [16, 3, 2, 2]
00000000: 01aa 00be 8651 09be 0d9f 383e 8af0 cebd
00000010: 9881 1b3d b625 3c3e 0616 7a3d 7338 9a3d
00000020: 7161 66be 055e 303d 573a b0be e809 3abb
00000030: 4693 62bb 573f 58be ed6f 633e 6936 7d3e
00000040: 3d7e 7e3d c749 4c3e 2042 8fbd 8945 9e3e
00000050: 07f9 9f3c 82ee c1bd 5f18 b43d 4b89 d3bb
00000060: 17ea 4ebe c66b 5f3e 5419 393d 7db0 63be
00000070: 94d7 47be 1b95 733d 6ce4 0e3e 82d4 10bc
00000080: f239 80be 3eec 78bd d14e 913e 7d26 833e
00000090: c772 a6bd 7e6a acbd f55a 9cbb 5020 153e
000000a0: 3425 06be b5e2 743e a81d 5a3e 6168 51be
000000b0: a3be 0d3e e9e5 4a3e 3573 143e 9e83 213e
000000c0: a51d 2f3e 9d85 f33d d504 393d 4219 003e
000000d0: 1cc6 a1bb 2391 d3be 248a 3a3e 348d 4dbe
000000e0: ec04 be3c 11a5 0fbe 5ee4 9fbd 6700 4cbc
000000f0: ea01 8f3e 5888 8cbe 2a47 82be 43d8 81be
00000100: 0d6d 823e 54a7 333e 11ea dbbd 0aef 6abd
00000110: b959 b83e e00d 953e 3f6e 4c3d c021 2fbd
00000120: b292 9ebe 6bd2 40be 2f8f 133e 65f8 64be
00000130: 037e 36be 9467 5f3d d055 38be e96e 173e
00000140: b20f 623e 1497 593e 059b 5e3e 1a43 0e3d
00000150: 8ae4 81bc e525 abbd b14e 9b3e 54ad 3ebe
00000160: 8b14 50be a8af 46be bc78 7abe 58fe e7bd
00000170: e5ff fe3d 39e5 fb3d b1d4 a53e edc2 913e
00000180: 337e 3d3d 2501 073e 7000 893d 3115 2d3e
00000190: 2bf9 1e3e 0e54 41be 8ef4 42bd 234d f13d
000001a0: 473a 423e c92b 96bd 0c3b 533e 669e 6c3e
000001b0: a15f ca3d 481c 2bbe 8732 513e 8264 843e
000001c0: d9b2 ddbc a107 44be 97a2 753e 3552 303e
000001d0: fe3f 773d eaac 323e efe7 ebbd 2bb2 89be
000001e0: 608b 70be 603a 82be fa64 74be 9484 6dbe
000001f0: 2d98 683e e5f1 7bbe de2f 993e a357 c13d
00000200: 847a 0a3e 61a1 883e 2512 303e d879 803e
00000210: 1250 3bbe 95ad 2ebe 96be cbbd 1141 5e3e
00000220: 33de f8bd 70ca bb3e f08e 9d3d 4240 933d
00000230: bf22 883e 5be6 03be 0dab 4ebe ecb4 8cbe
00000240: 4da1 20be 3ebf 41bd 8589 ebbd 0599 42be
00000250: 481d 943c 083b 83bc 405d a13c 7706 97be
00000260: 7d4d c33e 51fc 123e 0ff9 aa3e 6532 df3d
00000270: ec8c 0dbe c58d 283e 3641 b8bd c962 71be
00000280: c329 b6be cb4f 4e3d aa2e e8bd d9bf 4e3e
00000290: 7bb1 04be 5406 7f3e 8ac4 0d3e d575 6cbe
000002a0: 7428 8a3e 4643 543d 7bda a63d 255c 53bd
000002b0: 1f2b 1bbe bb9b 8abe 6140 edbd c735 1a3e
000002c0: d420 4d3d 8f7d f8bc 4bda dbbd b0dd 8dbe
000002d0: dc7a f43d 24fc 4dbc b71e 6dbd 9ad8 d33d
000002e0: eb51 8abe c6c3 53be 7ffd ff3d a69b 83be
000002f0: 0aab 64be 5869 69be 987d 013e 2bb0 a0bd
-0.12564851 -0.13410005 0.18029423 -0.10104473 0.037965387 0.1837376 0.06105616 0.07530298
-0.22498108 0.043058414 -0.3441951 -0.0028387252 -0.0034572645 -0.21117912 0.22210665 0.24727787
0.06213211 0.19950019 -0.06995034 0.30912426 0.019527925 -0.0946932 0.08793711 -0.0064555756
-0.20206486 0.21818456 0.04519017 -0.22235294 -0.1951583 0.05946837 0.13954324 -0.008839728
-0.2504421 -0.060772173 0.28380445 0.25615302 -0.08127361 -0.08418749 -0.004771585 0.14563107
-0.1310013 0.23914607 0.21300375 -0.20449974 0.13842253 0.19814266 0.14497073 0.15772864
0.17101152 0.11890719 0.045170624 0.12509635 -0.0049369466 -0.41321668 0.18216759 -0.20073396
0.023195706 -0.14027812 -0.078072295 -0.012451268 0.27931148 -0.27447772 -0.2544492 -0.25360307
0.25473824 0.175443 -0.10738004 -0.05735687 0.36005953 0.29112148 0.049909826 -0.042756796
-0.30971295 -0.18830268 0.14410089 -0.2236038 -0.17821507 0.05454214 -0.18001485 0.14788403
0.220763 0.21249038 0.21738823 0.03473196 -0.015856046 -0.08356837 0.30333474 -0.18620807
-0.20320337 -0.19402945 -0.24460119 -0.11327809 0.12451152 0.1229958 0.32388833 0.2846903
0.04626293 0.1318403 0.066895366 0.16902615 0.15524738 -0.1887972 -0.047596507 0.11782291
0.18967544 -0.0733257 0.20627993 0.23107299 0.09881521 -0.16710007 0.20429431 0.2585793
-0.02706282 -0.19143535 0.23987804 0.1721886 0.060363762 0.17448774 -0.11518847 -0.26893744
-0.23490667 -0.25435162 -0.23866645 -0.23195106 0.227143 -0.24603994 0.29919332 0.094405435
0.13523299 0.26685622 0.17194422 0.2509296 -0.18292263 -0.17058404 -0.09948461 0.21704508
-0.12151756 0.36677885 0.07693279 0.071899906 0.2658901 -0.12880842 -0.20182438 -0.27481782
-0.15686531 -0.047301523 -0.11500839 -0.19003685 0.018080369 -0.01601936 0.019697785 -0.2949712
0.38145056 0.14354064 0.33393142 0.10898284 -0.13823289 0.16460331 -0.08996813 -0.2357284
-0.35578737 0.050369065 -0.113370255 0.20190372 -0.12958328 0.24904758 0.13844505 -0.23091824
0.26983988 0.05182197 0.081471406 -0.051601548 -0.15153168 -0.27071938 -0.11584545 0.15059577
0.050080135 -0.030333309 -0.107349955 -0.27708197 0.11937496 -0.012572322 -0.05789062 0.10344048
-0.27015623 -0.2068015 0.124995224 -0.25704688 -0.22330871 -0.22794092 0.12645566 -0.078461014

bias f4 [16]
00000000: 560c 4c3e 4078 30be d1bc 1fbe a942 6cbe
00000010: fa5a 293e 2f3b 19be b848 5f3e 881d 9b3d
00000020: 4a0f ae3d 1de6 dfbd 8ddc 15be 294f fc3d
00000030: fdfc 1a3d 3110 323e 555f 403e aa54 73be
0.19926581 -0.17233372 -0.15599371 -0.23072304 0.16538611 -0.14963983 0.21805084 0.07573992
0.0849901 -0.109325625 -0.14634915 0.12319786 0.037838925 0.17388989 0.18786366 -0.23762766

weight f4 [16, 16, 2, 2]
00000000: 23ec 9bbb c58f 693c a1fb d83d 8a63 803d
00000010: 2682 253e addf a13d 13f4 943d ed0e 0e3e
00000020: f2c9 653d af3f ca3d 9d4e 9bbd 06c2 44bd
00000030: b00d 683d cc8e e33c a28c 1a3e 1d91 84bd
00000040: bfb4 f0bb ec60 393d 84a4 07bd ade8 9fbd
00000050: 2e92 cebe f15a e9be 03ea 61be 5511 95be
00000060: 85c4 55bc f293 dfbd 2300 7f3d 838a 333c
00000070: c5cf 8abe 2471 62be 796e 2dbe 6a88 70be
00000080: cbad 6b3d c1e8 da3d 52dc fe3d 5907 123c
00000090: e097 9a3b f85c db3d 98f2 adbd e68d 7f3d
000000a0: 86c6 ddbe b077 f6be 2048 f6be 3060 04bf
000000b0: 4629 abbd d402 18be 0f7e a9bd b93b 08be
000000c0: bab9 72be 2921 54be 2cca 27be 8162 1bbe
000000d0: d719 1ebe e4fe 9ebe e30f 72be e6c8 97be
000000e0: cef5 fbbd 29c7 1f3d 4ad3 693d 6b80 b73d
000000f0: c8d4 38bd 1031 d73d 640f fc3d 0000 bd3d
00000100: 1603 383e 301f 3e3b e608 45bc d8fb a33d
00000110: a96e 2c3e 7506 fd3d 22b0 073d 0758 913d
00000120: c6b2 ca3d 4fe5 0d3d 6f6a 0e3e c7ef 363d
00000130: 4791 4e3d 01da b03d aeaf ce3b d118 353d
00000140: 91bd a5bd 852c 3b3e f5f3 123e d611 0abd
00000150: b13d 67bd 881f b63d cfc1 6b3e 2c3b e43e
00000160: e69f b23d a706 febd 3259 f1bd 208d 24be
00000170: df33 7abe 52cb 183c bc97 48be dc7b 85be
00000180: 965a a1bd e416 5c3d 393f 98bc 3039 9b3c
00000190: 6e78 263e 396f 7a3d 5c01 ee3d 1dc1 08bb
000001a0: ea78 ebbd c504 8dbd de27 6fbe 7315 9cbe
000001b0: d835 743e 5f81 78bc 5ea5 033e f338 113d
000001c0: 1f9f 6dbe a628 49bd 2c3b 9fbd 8858 0abd
000001d0: 4f4e e93b cfc0 07be 26e8 13be a71d 6fbe
000001e0: 4032 173e 7703 6dbd 2c6a 3bbd 6378 6d3d
000001f0: a2fa ab3d aa88 84bd 9c4c 01bd faec a5bd
00000200: 128a 02be 86a5 3cbc fc98 43bd f21d 04ba
00000210: a196 9bbc d430 27be 67ba 113d 804f c73c
00000220: 5b56 bd3d 152e 2b3e f1a8 96bb 9238 e3bd
00000230: bb23 b7bd a66e d0bd 75a5 ed3d ee02 dabd
00000240: c9a0 5b3d 0729 c13d 0cdc e139 c8d6 813c
00000250: feb3 c7be a574 6dbe d987 28bd da0b bfbc
00000260: edbf 8bbd 2807 99bc 3cb8 853d 8f72 d3bc
00000270: b963 503e 5102 af3e 26e8 0f3e 1631 493e
00000280: 9547 d43d bb0c e43d f2cb 1c3d e1e6 383d
00000290: 6ec1 e13c add8 1e3d 9ae8 07be 69f3 bebd
000002a0: 43ef 4a3e 43a2 353e 75ca 2f3d e534 143c
000002b0: ff54 20be f94a 2ebe 595e 62be 4c3d 72be
000002c0: c6f6 503d 5146 5a3e bb3a 6e3e 7185 943d
000002d0: ec18 2fbc 7e38 133d c6f9 403d 81a7 5fbe
000002e0: 6128 2b3e 83e7 d63d af83 adbd 9b11 0e3d
000002f0: 10de 1a3d d46d 273d 4cc5 b3bd c0c1 773d
00000300: 4098 293d 31d4 9fbd bf10 b2bd 3816 eabd
00000310: eac9 bfbd b66d e8bc e476 eabd 05fd d5bd
00000320: eb3f 9c3d d2ee b239 8534 b23c 7a95 20bd
00000330: e2f3 2cbe 0d7c 4c3d bad2 c83b 151a 063c
00000340: 7feb e9bc 56b4 a03d eb17 4bbc 80c0 883d
00000350: d0cd 473e 13d8 703e a033 2a3e 354a b33e
00000360: bbea c6bd 8c99 1e3d 552c 3ebd 2afa 0cbd
00000370: 7bd9 2d3e b731 d13d 533d 243e 9493 853d
00000380: 8a74 583d 4889 1dbc 0028 02bd 5cd7 ad3c
00000390: 9aad bb3d df15 30bd 5753 053e e217 2c3c
000003a0: 2040 023e 61b6 223e 7db2 43bd 6c5b 5e3e
000003b0: 0b16 1ebe 9af9 51bd e3d4 14be 8cd2 163b
000003c0: 24f3 30be 76f8 cebc b59d 16be 5502 c7bb
000003d0: 96e5 363e 3239 453e 35e9 583e 911d 683e
000003e0: f02e b93d 4168 3d3e 0e84 293e aa6f 1b3e
000003f0: e0c6 983d c090 193b 20f7 d13b 007d f7bd
-0.0047583743 0.014255469 0.105948694 0.062689856 0.16162929 0.07903991 0.07273116 0.13872881
0.056100793 0.09875428 -0.07583354 -0.048036598 0.05665368 0.027778052 0.1509271 -0.06472991
-0.0073457654 0.045258448 -0.03311588 -0.07808051 -0.403459 -0.45577195 -0.22061925 -0.29114786
-0.013047342 -0.1091689 0.06225599 0.010958317 -0.2711164 -0.22113472 -0.16936673 -0.23489538
0.05753879 0.106889255 0.124443665 0.008912885 0.004717812 0.10711092 -0.08493537 0.062391184
-0.43315524 -0.4813819 -0.48101902 -0.5170927 -0.08357482 -0.14844829 -0.08275997 -0.13304032
-0.23703662 -0.20715775 -0.16385716 -0.15174295 -0.15439545 -0.3105384 -0.23638873 -0.2964546
-0.12302743 0.039008293 0.057086267 0.08960041 -0.0451248 0.10507405 0.12307623 0.092285156
0.17969927 0.0029010288 -0.012026047 0.0800702 0.16839088 0.12354747 0.033126958 0.07096868
0.098973796 0.034642514 0.13907789 0.044662263 0.050431516 0.08635331 0.0063075637 0.04421312
-0.080927975 0.18278702 0.14350875 -0.033708416 -0.056455318 0.08892733 0.23023151 0.44576395
0.087219045 -0.124036126 -0.11784591 -0.1606946 -0.2443385 0.009325819 -0.19589132 -0.2607106
-0.07878606 0.053732768 -0.018584834 0.018948168 0.16256878 0.061141226 0.11621353 -0.0020867058
-0.11497672 -0.06885675 -0.23355052 -0.30485114 0.23848665 -0.015167563 0.12856051 0.0354547
-0.23205231 -0.04911103 -0.07774958 -0.033775836 0.007119931 -0.13257144 -0.14444026 -0.23351155
0.14765263 -0.057864632 -0.04575555 0.057976138 0.08397414 -0.06471379 -0.0315672 -0.0810184
-0.12747982 -0.011514073 -0.04775332 -0.00050398626 -0.018992724 -0.1632722 0.035578158 0.0243299
0.092449866 0.16716798 -0.004597776 -0.11094774 -0.08942362 -0.101773545 0.11603824 -0.1064509
0.053620134 0.094316535 0.00043079292 0.015849486 -0.3900451 -0.23189028 -0.04114518 -0.023321081
-0.06823716 -0.01868017 0.065292805 -0.025811462 0.20350541 0.34181455 0.14053401 0.19647631
0.10365216 0.11135241 0.038280435 0.04514206 0.027558055 0.038780857 -0.13272324 -0.093237706
0.19817834 0.17737679 0.042917687 0.009045814 -0.15657423 -0.17020787 -0.22106303 -0.23656195
0.05101659 0.21315886 0.23264591 0.072520144 -0.010687094 0.035942547 0.047113203 -0.21841241
0.16714622 0.10493376 -0.08472382 0.03468476 0.03780943 0.040876225 -0.08777866 0.06048751
0.041404963 -0.07804144 -0.086946 -0.11430019 -0.09364684 -0.028372627 -0.11448458 -0.1044865
0.07629379 0.0003412874 0.021753559 -0.039205052 -0.16889909 0.04992299 0.006128636 0.008184929
-0.028554676 0.07846896 -0.012395839 0.066773415 0.19512105 0.23519926 0.16621256 0.35017553
-0.0971274 0.038720652 -0.046428997 -0.034418263 0.16977493 0.102145605 0.16039018 0.06522289
0.052845515 -0.00961525 -0.03177643 0.021220855 0.09163971 -0.042989608 0.13020073 0.010503741
0.12719774 0.15889885 -0.04777764 0.21714562 -0.15438096 -0.05126343 -0.14534335 0.002301368
-0.17280251 -0.02526496 -0.14708598 -0.006073276 0.17861018 0.192601 0.21182711 0.22667529
0.09042156 0.18496801 0.16554281 0.15179315 0.074598074 0.0023432225 0.0064076334 -0.12084389

bias f4 [16]
00000000: 3093 80bd 5cd8 8fbd dc7b a13b 7359 abbd
00000010: 19b9 0cbe 8706 c03d 5d8e 17bd 44f8 f53d
00000020: 72d3 b2bd db52 8c3c 2294 013e 4102 003e
00000030: c304 e2bc 0e9b 9dbd 7856 6bbd b383 38bd
-0.06278074 -0.07023689 0.0049280953 -0.083666705 -0.13742484 0.09376245 -0.037001003 0.120102435
-0.08731736 0.017129352 0.12654164 0.1250086 -0.027590161 -0.0769559 -0.05745551 -0.045047473

weight f4 [32, 16, 2, 2]
00000000: 37ef d53c 5b70 bdbc e38d 383e 1a59 0f3d
00000010: c447 6fbd d6e2 bf3d 73ad 773d a19b a43d
00000020: f01d 5b3b 8ede 6b3d 7b48 de3d e4b9 34bc
00000030: 9028 93bc 957f 0e3c e9c1 2cbc ba48 0bbc
00000040: 1d07 043d a07c e23d 95d0 123e a353 903d
00000050: 4f5a 483e 029f b33c f264 603d 1ae7 713d
00000060: 10fe 80bd 81bc aa3c fe6a 7d3d 458e 48bd
00000070: 4ce8 55bd e1ff 273e f896 d5bc 761c 803d
00000080: cc6a a23d 463b e03d f88f 403e d4c6 cd3c
00000090: d2d0 e73d 8b6f 7b3c f4e2 8fbd 58bf 8b3d
000000a0: 59d9 9f3c 0a2c bd3d a38f 44bd 2feb 953b
000000b0: 747c 103e d850 a53d ae89 fabb e1d0 22bd
000000c0: 2eb2 0fbd 4fbc 1b3e 9ce0 de3d ad22 94bd
000000d0: 7281 233e 2982 a43d 8e4d 173e 1af7 2dbb
000000e0: 2061 753d 2b7a 5f3d a2ea 29bd 8810 d23d
000000f0: 5136 033e b231 d33d 1e38 2a3d 4977 353e
00000100: 8f45 16bc 5fa6 eabd 1211 503d f9ac a4bc
00000110: 1295 923d b4c2 24bd ee41 323d dc25 6b3c
00000120: a0b8 1bbe 0db7 9a3b 311b 80bd 6965 aebc
00000130: 6bd9 b8bd b680 95bd e743 3fbe c59b aebc
00000140: cfe6 36bc 409d 063e b79f 393d f56a 8d3c
00000150: 7853 0c3e c65b 333e 657f 123d f338 dc3d
00000160: 8ba4 df3d 75fa b0bd dc91 d8bc a874 33bd
00000170: dbc9 bf3d ce26 033e b351 253e 6fdd 443e
00000180: ed1d 34be 0be6 70be ed31 e2bd eff9 8b3c
00000190: 5f7f f83d e7c0 10be 5c5e afbc 715a 823c
000001a0: 22a5 4c3d 30cf 823d 5950 66bd 1bc1 01be
000001b0: 7b7b e33d e15d ebbc 87b8 ee3d 94bd 193e
000001c0: 0e75 0cbe ec6b 883c de1d 0ebe 1f87 2cbe
000001d0: 4db9 d4bc 5505 88bd 8e95 fcbd abd4 cf3d
000001e0: 9fb2 04be c4e6 02be d785 0fbe 0328 2cbe
000001f0: 0899 babd 5d81 de3d 79b8 94bd 5dcf 193c
00000200: 0ec8 803d 4139 93bc 7ba9 7b3c 8410 113e
00000210: 1f2f 1a3e 3742 89bd db89 1f3e 9b64 dc3d
00000220: 3430 b63d 5e5f 363d 4384 88bd 521c d73d
00000230: 1cb6 093e d71c ff3d 5e9c 8cbd 7b7f 86bd
00000240: 5303 c5bd 5c4d aebd 5a2e d33d af11 123e
00000250: 8c60 14bd 64f6 4abd df62 ddbd 3175 11bd
00000260: d933 d93d 9f66 f33d e22a 0fbe eced 8abd
00000270: f15c 9a3c c1e8 bf3d 6aea ca3d 0a20 d43d
00000280: 12a3 89bd d3c0 123e 8c8b 003e 5cb8 153e
00000290: 0dc9 2f3e 1529 053e a5d7 36bd 84a4 583d
000002a0: a1a9 d2bd 484e a33d 5183 8bbd 1610 3c3d
000002b0: fe4e 333e 072a 553d f1f4 023e 9f7b 163a
000002c0: 59c5 f2bc 3275 53bd 0e52 1abd 3594 923d
000002d0: c869 89bc 0806 903d 03ea b7bc a7e6 913d
000002e0: 23d2 bf3c 214d d13c f401 06bd 5f28 0ebe
000002f0: 6319 a93d 342e ec3d 1f4a 1dbd 1a7d 50bb
00000300: 5a50 da3c 5430 bfbd 9464 353d 4318 3f3d
00000310: e6f1 ee3d a2b9 f4bd 330e b23d 5d17 b73c
00000320: 6a87 b23d 6878 9cbd a423 223d 7402 cbbd
00000330: 1d9b 3b3e d885 383e 7303 263e 52b7 513e
00000340: 7986 0e3d 710f 25be 6317 90bd 8eff d63a
00000350: 607f 1c38 e926 373b f05e 00be 45a0 abbc
00000360: 109b e83c cc2b a73d a357 2b3c aecd 99bd
00000370: cdff 8b3d c9ad a03c dfd7 973c 6f37 c1bd
00000380: 8c47 ac3c 1036 ee3b 0499 b93d cbbf 003e
00000390: 244e e33b 6316 f8bc 4db9 88bd fdee e53d
000003a0: e782 253d bb1a 8b3d c631 993c 1fb5 7dbd
000003b0: 5947 6fbd 2f7a e0bd 96b3 acbc 53a5 d3bc
000003c0: 65bf 1e3d 7e62 c73d c5b3 e53d ee1a 803d
000003d0: b4d1 acbd a952 993c 528b 6fbd 2192 b1bc
000003e0: 52f0 e23c 6da7 5cbd bcbb 99bd 89fd e43d
000003f0: d550 b2bc fe20 893d eef0 8a3c af33 69bd
0.026115043 -0.023124864 0.18022875 0.034997083 -0.05841805 0.093694374 0.06046815 0.08037496
0.0033434592 0.05758529 0.10853668 -0.011030648 -0.017963678 0.00869741 -0.010544279 -0.008501226
0.032233346 0.110589266 0.1433738 0.070472024 0.195657 0.021926407 0.05478377 0.059058286
-0.062984586 0.020841839 0.061869614 -0.048963804 -0.05222349 0.16406204 -0.026072964 0.062554285
0.07930526 0.109488055 0.1880492 0.025119223 0.11319126 0.015346418 -0.0702571 0.06823605
0.01951282 0.092369154 -0.047988545 0.004575155 0.14109975 0.0807206 -0.007645807 -0.039749984
-0.035082035 0.15208553 0.108826846 -0.072331764 0.15967348 0.080326386 0.14775679 -0.002654499
0.05990708 0.054559868 -0.04148353 0.10257059 0.12813689 0.10312213 0.041557424 0.17721285
-0.0091718575 -0.11457514 0.05079753 -0.020102011 0.07157339 -0.040224746 0.043519907 0.014352288
-0.15207148 0.0047215284 -0.06255186 -0.02128859 -0.09025844 -0.0729994 -0.18678246 -0.021314511
-0.0111634275 0.13145924 0.04531833 0.017262915 0.13703716 0.17515478 0.035766024 0.1075305
0.10920056 -0.08641521 -0.026436739 -0.043812424 0.09364673 0.12807772 0.16144447 0.19225095
-0.17589541 -0.23525254 -0.11044679 0.017086951 0.12133669 -0.14136086 -0.021407299 0.015912266
0.04996217 0.06387174 -0.05622897 -0.1267132 0.111075364 -0.028731288 0.116562895 0.15013725
-0.13716528 0.016653024 -0.13878581 -0.1684842 -0.025967265 -0.06641642 -0.12333213 0.10147985
-0.12958764 -0.12783343 -0.140159 -0.16812138 -0.0911122 0.10864518 -0.07261748 0.009387818
0.062881574 -0.017971637 0.0153602315 0.14166456 0.15057038 -0.067020826 0.15579931 0.107613765
0.08895913 0.044524543 -0.06665852 0.105034485 0.13448375 0.12456673 -0.06865762 -0.06567284
-0.09619775 -0.08510849 0.10311575 0.14264558 -0.036224887 -0.049551383 -0.10809874 -0.035512153
0.10605592 0.11884808 -0.13981202 -0.06783661 0.018843146 0.09370566 0.09907992 0.103576735
-0.06720556 0.14331369 0.12553233 0.14621109 0.17166539 0.13003953 -0.04463925 0.05289127
-0.102862604 0.07973915 -0.06812156 0.04591378 0.17510602 0.052042034 0.1278875 0.0005740467
-0.029635118 -0.051625438 -0.03767591 0.071571745 -0.016774073 0.070324 -0.022450453 0.071240716
0.02341563 0.025549473 -0.032716706 -0.13882588 0.08256795 0.1153225 -0.038400766 -0.0031812848
0.026649643 -0.0933539 0.044285372 0.046653997 0.11667232 -0.11949469 0.086941145 0.022350008
0.087172344 -0.07640153 0.03958477 -0.09912577 0.1832089 0.18019807 0.16212253 0.20480087
0.034796212 -0.16119172 -0.07035711 0.0016403066 3.7311926e-05 0.0027946776 -0.12536216 -0.020950446
0.028394252 0.081626505 0.010457906 -0.075099334 0.068358995 0.019614117 0.018535553 -0.09434401
0.02103021 0.0072696283 0.090623885 0.12573163 0.0069368053 -0.030284112 -0.06675968 0.11227224
0.04040804 0.06792208 0.018700492 -0.06194031 -0.05841765 -0.10960805 -0.021081727 -0.025835669
0.038756747 0.09735583 0.11215929 0.062551364 -0.08438435 0.018716173 -0.058482476 -0.021676125
0.027702484 -0.053870607 -0.075065106 0.111811705 -0.02176706 0.06695746 0.016960587 -0.056934055

bias f4 [32]
00000000: c249 bc3d 6f3c 65bd 97d3 b53d 7c33 34be
00000010: fd19 523b a837 6abc f415 5abd a2de efbd
00000020: 2dbd 05bd 6e86 bbbd e18f 31be 54b6 dd3d
00000030: 6da2 f03d 8d5f cbbd 8e19 a03d 2c2e 31bd
00000040: c686 073d b17d 13be 5a24 0cbe 2fc2 40be
00000050: 77e0 873d 42bb b3bd c86d ff3b 0ec8 093c
00000060: 669a 553c 2e07 36be 5107 3ebd c946 7cbd
00000070: 6f9f d2bb 0575 583d fc4b f4bd bddf 5d3d
0.09193756 -0.055965837 0.08878248 -0.17597765 0.0032058947 -0.014295496 -0.053243592 -0.11712386
-0.032651115 -0.091565 -0.17340042 0.10825792 0.1174973 -0.09930334 0.07817374 -0.043256924
0.033087514 -0.14403416 -0.13685742 -0.18824075 0.0663461 -0.08775951 0.0077950694 0.008409513
0.0130373 -0.17776176 -0.046393696 -0.061590943 -0.0064276974 0.052845974 -0.11928555 0.05416845

weight f4 [32, 32, 2, 2]
00000000: ad46 33bd fe9d 43bd e5a9 4b3c 76a3 f4bd
00000010: ec43 843d c90b 323d e6f3 83bc 5b2c e4ba
00000020: 2aff 47bd b52a cbbd 6bf7 2f3d a2ab 943d
00000030: 2056 15bd 2069 4cbd 8be7 7fbd 5d12 6cbd
00000040: 0092 00be 6818 5cbc 993a a4bd d5ec b33c
00000050: 2f94 0bbc e98d 22bd a303 703c b0c4 43bd
00000060: e487 a03d ada7 023d df9c 133c cf1c f83d
00000070: 5de4 be3d 17bc 213e 29bd 0c3e d7d9 f93d
00000080: da43 64bd 96b6 d43b 8bf1 32bc e897 44bd
00000090: f2a6 1bbb 072c 70bd e489 d6bc 6421 0d3d
000000a0: 3200 f2bd feda 083c e345 30bd 0835 04bd
000000b0: 6283 f9bc c903 babc 65ef d7bd 5b52 c0bd
000000c0: 47c7 0bbd f8f6 a13c d0ee e03c 1ae9 443d
000000d0: e38e 05be 0256 d4bc 7040 f2bd c8eb f3bd
000000e0: fa1b 8cbd 3195 47bc cbb8 37bc 5fd7 393b
000000f0: 1e88 3cbd ca2a 3abc d651 723d 8e3a 3bbb
00000100: 0728 24be b4b7 ca3c 5695 2ebe 5637 333d
00000110: f480 12bd a9b4 143e 6f0f e83d 0d96 123e
00000120: ba45 37be 3bac 4cbe 0e17 03be 1396 e2bd
00000130: 813a d53c f64a c93d 438e a23d 49c2 533d
00000140: a8bf 4a3d 1d00 69bd ff40 2c3c 40c7 903d
00000150: 25bb 76bd ee20 79bd c2f8 64bd 78e4 b03c
00000160: 210a 4bbd 2fb4 1e3d 3a0f dfbd 6984 1cbd
00000170: c1ba dabd cb03 d9bd 6b7f da3c 491e f7bd
00000180: ad3b 093d c359 88bb ea36 813d c4d3 96bd
00000190: 8f66 533d 11f6 d8bd b6b2 1bbc 72db d1bd
000001a0: a152 8fbc 2b7f 80bd bcf6 70bd c1ac d2bd
000001b0: 5757 c1bd 9e3e 413d 2034 0abc f13b 9d3d
000001c0: d931 abbd 71e3 d13b b6fe 06be 0b96 9fbd
000001d0: 3df4 183d 7752 263e f65b 123e f0c6 b43d
000001e0: 4315 2ebd f2b0 4cbd e8ba d83c 6c30 c0bc
000001f0: aa61 2c3d 3b00 2c3c 36f8 593d b0c9 743d
00000200: 234b af3d 6e21 69bc c61c 13bc 4898 863d
00000210: 5cbe a6bb 8ec9 06bd 972a 57bd 6e4a 08bd
00000220: 6a82 d9bd 934b debd 5950 4bbd 67c7 b1bd
00000230: b5ea 5dbd 0040 d0bd 99fb 96bd 95fe 653c
00000240: fc79 1cbd ca2b 24be c5d5 28be 7060 1bbd
00000250: 86a3 a53d 9f00 193e a9a2 253e 40d4 9b3d
00000260: c84a f1bd 47cd 0abe 7f0e 2cbe e17b f2bd
00000270: bc97 1dbd e7a4 a5bb 11de bb3c 21cc d8bd
00000280: 0c36 37bc 7ec6 8fbc ecab a13d 5ecb d6bc
00000290: e68e c03d dcef 36bd 7482 a33d 741f b53d
000002a0: 12e2 283e 6bd3 d23d 7d83 b53d 73a7 213e
000002b0: ec1b 0a3d 3fde d2bc 0d5b d93b 2ef7 6e3d
000002c0: bfc1 88bd 6956 9f3b d8d1 573d 9a68 fb3b
000002d0: 99d3 453e 1969 293e 9660 433e 99a1 0d3e
000002e0: 7918 413d 0d44 bcbd 1b95 dbbd 3098 74bd
000002f0: 93b6 723d 2249 5c3d 9991 be3c eae3 9e3d
00000300: 0f5c 53bd 1ab7 4cbc 8419 e83c c4c9 c53c
00000310: 75b9 c4bd 2fe0 173d b05c 1cbc 2c63 a0bd
00000320: eaf2 b53d eed3 593d 927c 43bd c22f e8bc
00000330: f0d1 0b3e 290b 1e3e 2614 1c3e 2b69 793e
00000340: a396 1b3e 421c 1c3d 798a 9abd cf85 49bd
00000350: 17ac 10bc 76d3 a5bd f6e1 2b3d b27d 85bd
00000360: 6825 84bd cedb 2bbc 5a46 5ebc b7f3 263b
00000370: 6d4f 92bd 7ee1 2cbd fe91 ad3d 6f08 a23d
00000380: 00dc b83d 45e2 073d b48b 3bbc 5952 efbd
00000390: a8c5 79bd 1ff5 b53d 5af2 5cbd fb41 e3bd
000003a0: 152e c5bd 7ecc 0ebe 1e3e a4bd 5cc6 88bc
000003b0: 8e04 283e 257d 2c3d 7061 553d 9097 0d3e
000003c0: e163 363c 8344 b2bc ec1e 8c3d bb54 753d
000003d0: 77d0 c9bc be24 ac3c 6cb1 30bc c6d3 21bd
000003e0: 7e9e 2c3d 71ca 32bd 5504 e33c b996 acbc
000003f0: 9f4e 74bd 3584 40bd b23d ebbd 982d 413c
-0.043768574 -0.047758095 0.012430643 -0.1194524 0.064582676 0.04346827 -0.01610751 -0.0017408238
-0.048827328 -0.09920255 0.042960566 0.07259299 -0.03645909 -0.049904943 -0.062476676 -0.0576347
-0.12555695 -0.013433553 -0.08018989 0.021963516 -0.008519216 -0.039686117 0.014649305 -0.047794998
0.07838419 0.03189819 0.009009569 0.1211487 0.093209006 0.15794407 0.13744034 0.12199753
-0.05572877 0.0064914925 -0.010921846 -0.04799643 -0.002375063 -0.058635738 -0.026188798 0.034455672
-0.118164435 0.008352993 -0.0430354 -0.032277137 -0.030458156 -0.022706883 -0.10543708 -0.09390708
-0.034125593 0.019771084 0.027457625 0.048073865 -0.13042788 -0.025919918 -0.11828697 -0.11910206
-0.068412736 -0.012181566 -0.011213492 0.002835713 -0.04602825 -0.011362741 0.059160076 -0.0028568837
-0.16030894 0.0247458 -0.17049155 0.043753944 -0.03576751 0.14522041 0.11331069 0.14315052
-0.17897692 -0.19987576 -0.12801763 -0.11063781 0.026028873 0.09828751 0.079372905 0.051698957
0.049499184 -0.056884874 0.010513543 0.07069254 -0.06023707 -0.06082242 -0.055901296 0.021593317
-0.049570207 0.038746055 -0.10891576 -0.038212214 -0.10680152 -0.105964266 0.026672086 -0.12066323
0.033504177 -0.004161091 0.06309302 -0.0736461 0.05161148 -0.105938084 -0.009503057 -0.10246934
-0.017495455 -0.06274255 -0.058829054 -0.102868564 -0.09440487 0.047178857 -0.008435279 0.076774485
-0.08359117 0.006405287 -0.13183102 -0.0779229 0.0373423 0.16242395 0.14292893 0.08827007
-0.042500746 -0.049973436 0.026456311 -0.02346059 0.042085327 0.010498102 0.053215228 0.059762657
0.08559253 -0.014229162 -0.008979028 0.06572014 -0.0050886106 -0.03290706 -0.05253085 -0.033274107
-0.10620578 -0.108542584 -0.049637172 -0.08680611 -0.054178912 -0.10168457 -0.07372207 0.014037748
-0.03820227 -0.16032329 -0.16487797 -0.037933767 0.0808783 0.14941643 0.16175331 0.07608843
-0.117818415 -0.1355487 -0.16802405 -0.11840034 -0.038474783 -0.0050550583 0.022933038 -0.105858095
-0.011182319 -0.017550703 0.078941196 -0.02622002 0.09402256 -0.04466234 0.07983866 0.0884389
0.16492489 0.10294231 0.0886297 0.15786533 0.033718035 -0.02574074 0.0066331686 0.058341198
-0.06677579 0.004862596 0.052690357 0.0076723816 0.19319 0.16543998 0.19079813 0.13831176
0.04714248 -0.09192667 -0.10721799 -0.05971545 0.059256148 0.053780682 0.023262786 0.07758315
-0.051601466 -0.012494827 0.02833248 0.02414406 -0.096056856 0.037079033 -0.009543583 -0.078314155
0.08884223 0.053180628 -0.04772622 -0.028343085 0.13654304 0.15433945 0.15242061 0.24356525
0.15194182 0.038112886 -0.07545943 -0.049199875 -0.008830092 -0.080969736 0.04196354 -0.06518115
-0.06452447 -0.010489417 -0.013566578 0.0025474855 -0.071440555 -0.042207234 0.084751114 0.07911765
0.09026337 0.03317477 -0.011446882 -0.116856284 -0.060979515 0.08884644 -0.053942062 -0.11096569
-0.0962793 -0.13945195 -0.080196604 -0.016696148 0.16407987 0.042111535 0.052094877 0.13827348
0.011132211 -0.021761185 0.068418354 0.05989526 -0.024635537 0.021013614 -0.010784488 -0.039508604
0.042143337 -0.043650094 0.027712027 -0.021067964 -0.05964529 -0.047001082 -0.11486377 0.011790656

bias f4 [32]
00000000: e475 9dbd 7540 723d 88b8 9b3d 9f5b b5bb
00000010: cd95 f437 3291 a83d f8a4 243d fffe 8f3d
00000020: 498c b0bd 3748 d73c 3053 85bd 0454 ea3c
00000030: 2e67 f33c 8af1 813d 1d21 8d3c 9ff7 fcbc
00000040: cc37 77bd 81d1 9fbd 3fd7 a03d c783 19bd
00000050: 09ac 7cbd 013d 7ebd 4224 96bd 5850 db3c
00000060: a13a 603d cd3c a1bd 38db ab3d 05d4 373d
00000070: ecbb 4bbc ec77 f9bc 7973 53bd 5391 7dbd
-0.076885015 0.059143502 0.07603556 -0.0055346037 2.9156823e-05 0.08230819 0.04019639 0.070310585
-0.08620507 0.026279552 -0.065100074 0.028604515 0.029712286 0.06344898 0.017227704 -0.030879794
-0.060355946 -0.078036316 0.07853555 -0.03747919 -0.061687503 -0.062069897 -0.073311344 0.02677171
0.054743413 -0.07872925 0.08391422 0.044879932 -0.012434941 -0.030452691 -0.051623795 -0.06190617

weight f4 [64, 32, 2, 2]
00000000: f528 2abc 1255 55bc f858 67bd 8a47 783d
00000010: 1a3a 0c3d 8a2b 483d de44 e53c 007a 823d
00000020: f02d 123d e002 4ebd bfa9 8a3c e125 03bd
00000030: 8989 a8bc 44be 87ba 1e60 9b3c 1db5 04bd
00000040: c970 c53c e3b4 35bd 547a 2f3d e9f2 a7bd
00000050: 2fc1 a13d d902 21bd aba2 c33d fcd9 c43c
00000060: 5217 0b3d db5a f9bd b3ba 323d 60d2 e1bd
00000070: fc76 3abd ee37 06bd 94ed 2cbd c971 5a3d
00000080: fd88 c2bc c6b1 47bd dcae 86bc d51f 33bd
00000090: 2778 a3bd 8c7b 123b dcb4 91bd 7f27 d5bb
000000a0: 7dca 20bd 01df 8a3d e78e 33bc 75c8 39bd
000000b0: d36f 07bd 8f80 58bd 51f1 cebb 40d3 14bc
000000c0: 9e1c 2ebb d414 aebb bc5c af3c 1506 f8bc
000000d0: e9e3 913d a87f 5e3b 4531 9fbd b9ba bc3d
000000e0: 5d62 1abd fdaa 373d 12b5 143d 7e13 ee3c
000000f0: b7c7 3b3d f183 c73b fad7 973c 3018 d83d
00000100: b8f6 89bd d6a7 59bd a00a 74bd 719c 7bbd
00000110: 84cf cd3d 42df a73d 77c5 84bd 4113 1f3d
00000120: b321 75bd 9f26 813d ba1e 8d3c cc32 923d
00000130: 878c 34bd 110d 67bd 0d8f c3bb c451 92bc
00000140: 14d5 eabb 7571 b23d 8ab4 d0bd 1208 6cbc
00000150: 5001 26bb 72c9 a4bd f1ed 9b3c 9225 65bd
00000160: 28e8 4d3d f146 cabc 0f5e 7b3d 6a1d f2bc
00000170: 9c65 6a3d e285 723c a4cd b4bc 9caa f53c
00000180: 2345 953c 432e 1cbc 11bc 053d 6a29 b33d
00000190: 09cb 503c e75f b1bd f806 14bd d950 533d
000001a0: 70e2 54bd 6f36 673d b986 47bd 8666 bd3d
000001b0: 838a b53d ad96 12bd ce80 033d 30de 653d
000001c0: cc5b 813d 8752 0abd e50b ec3d 0f45 173c
000001d0: 585d e3bb 4b1c 203d 4719 d8bb 7bfe e4bc
000001e0: fae9 b9bc 870b f93c 0957 ab3c 5ac9 b03d
000001f0: 2929 96bd c8af 783d 1c0f 9abd df7f b9bc
00000200: 2a17 69bd 3b1f e23c 1981 f53b 2735 81bd
00000210: 5302 cb3d 0807 973d b3c0 de3d 6031 353d
00000220: bab8 b83d aaa9 193c 34db 2abc db2e e53b
00000230: 9390 473d 6cfc 983d 7cce 0b3e fc5a a1bc
00000240: 5a74 863c d68b 883c 297d 673d 5700 05bd
00000250: aaf1 cf3d f5d7 3dbd 1c69 ba3d 1c8c 833d
00000260: f383 423d 6b6e d33c 29a4 7cbc 4e1e b2bd
00000270: 2117 f53d f5f4 9dbb 3b96 ed3d 5bb4 28bc
00000280: e951 623c 1a41 ee3d 6c29 043e a82b 333e
00000290: 2abe 8d3d 20fe aabc a259 e03a 7ef5 503d
000002a0: 37be cd3d 18cd 8e3d ceb8 1d3d 705e c03c
000002b0: 33c8 f53c 201c 123c 9b6e 6cbd 0015 bc3c
000002c0: 3143 aa3c ff95 3d3b 4c55 2e3d b46d 85bd
000002d0: 584d ed3d 6b96 9dbb f888 c1bc 4cfd 8bbd
000002e0: eddb b73b bfbf 7a3c 57bc 053d f61a ea3c
000002f0: 51dd ec3c f8d9 33bd 41b4 5f3d 42b1 52bd
00000300: 4cd9 513d e6f5 663c ef57 4e3d 5d4f 323e
00000310: 8dbf 9bbc 5573 713d a250 823d 21e9 dd3d
00000320: 7365 db3d 067d 07bd 5320 1fbc 555b 34bc
00000330: 4619 973d 088b 7a3d f710 a7bd 8be8 9cbc
00000340: f0ed 09bd f792 8a3d 2976 17be b2a6 de3d
00000350: 71d4 f2bd e405 56bd fbeb dfb9 3a44 9c3d
00000360: 6428 123d 98e7 073e fdee db3c 0775 6a3d
00000370: 7261 b4ba 496b 363d 24ec 4c3c 14a6 133e
00000380: 46d7 2a3e 2a27 a23c 9f7d d53c 9320 833c
00000390: c4fe 16bd 5e61 71bc a845 563d 672f 72bd
000003a0: d06d 053e c3a0 103e a7e0 9a3d 4785 4a3d
000003b0: 7dfb 023e e96f 64bc 0f91 0a3e 82c5 3ebd
000003c0: d5e1 fdbc 7595 aabd 0d57 603d 62e7 26bc
000003d0: 3ae0 cf3d f0ab bdbc bf52 a43d a115 8c3a
000003e0: 2437 cf3d dd95 1b3d 0920 b03d 8bd8 273e
000003f0: 862b 57bc d940 cc3c 2d02 d43c b501 bb3a
-0.0103857415 -0.013020771 -0.05648133 0.0606151 0.034235097 0.048869647 0.02798694 0.06370926
0.03568834 -0.05029571 0.016926644 -0.032018546 -0.020573394 -0.0010356386 0.01896673 -0.032399286
0.024101632 -0.04436196 0.04284127 -0.08200628 0.07898175 -0.039309356 0.09552511 0.024029724
0.033957787 -0.121755324 0.04363508 -0.11026454 -0.04552363 -0.032768182 -0.04221876 0.05333117
-0.023746962 -0.048753522 -0.016440801 -0.04373153 -0.079819016 0.0022351472 -0.07114574 -0.0065049524
-0.039255608 0.06780816 -0.010959364 -0.045357186 -0.03306563 -0.052856978 -0.0063153883 -0.009083569
-0.002656735 -0.0053125415 0.021406524 -0.030276338 0.071235485 0.00339506 -0.07773069 0.09215302
-0.037691463 0.0448408 0.036305495 0.029062029 0.04584476 0.0060887267 0.018535603 0.105514884
-0.06736511 -0.053138576 -0.059580445 -0.06142849 0.10049346 0.0819688 -0.06482976 0.03883672
-0.05984659 0.063061945 0.017226566 0.07138595 -0.04407933 -0.056408945 -0.0059679807 -0.017861255
-0.007166514 0.087130465 -0.10190685 -0.014406221 -0.0025330372 -0.08046235 0.019034358 -0.055944033
0.05027023 -0.02469203 0.061369 -0.029555041 0.05722581 0.014802428 -0.022070713 0.02998858
0.018221444 -0.009532514 0.032650057 0.087481335 0.01274372 -0.0866087 -0.03613946 0.051590774
-0.05197376 0.056448396 -0.048712466 0.092480704 0.0886431 -0.035788227 0.03210526 0.056120098
0.06316337 -0.03377011 0.11525706 0.009232773 -0.0069386177 0.039089482 -0.00659481 -0.027953377
-0.022694577 0.030401004 0.020915525 0.08632155 -0.073320694 0.060714513 -0.07522413 -0.022643982
-0.056906857 0.027602782 0.0074921963 -0.06308966 0.09912553 0.07374388 0.10876598 0.04423654
0.09019609 0.00937883 -0.010428239 0.006994111 0.04872186 0.07470021 0.13652986 -0.019696705
0.016412903 0.016668241 0.056515846 -0.032471027 0.10153516 -0.04634853 0.09102079 0.06423208
0.047489118 0.025809487 -0.015419998 -0.086971864 0.11967302 -0.004820461 0.1160092 -0.010296906
0.013813474 0.11633511 0.12906426 0.17497122 0.069210365 -0.02087313 0.0017116556 0.05101537
0.10046046 0.06972712 0.03850632 0.023482531 0.030002689 0.008917838 -0.05772267 0.022959232
0.020783992 0.0028928516 0.042561814 -0.06515065 0.11587018 -0.004809191 -0.023624882 -0.06835422
0.005610934 0.015304505 0.032650318 0.02857731 0.028914126 -0.043909043 0.054615263 -0.051438577
0.05123262 0.014096713 0.05037683 0.17413087 -0.019012237 0.05894788 0.06363036 0.108354814
0.10712709 -0.033078216 -0.009712297 -0.011008103 0.073778674 0.061167747 -0.08157533 -0.019153854
-0.03367418 0.067663126 -0.14791168 0.10871638 -0.11856926 -0.05225171 -0.00042709694 0.07630201
0.03568305 0.1327194 0.026847357 0.057240512 -0.0013761951 0.04453591 0.012507472 0.14418823
0.16683683 0.019794066 0.026060877 0.016006744 -0.036864057 -0.014732687 0.052312523 -0.059127238
0.13030171 0.14123826 0.0756238 0.04944351 0.12791248 -0.013942697 0.13531898 -0.046575077
-0.030991474 -0.08329288 0.054770518 -0.010187002 0.1015019 -0.023153275 0.08023595 0.0010687598
0.10117939 0.037984718 0.0859986 0.16391198 -0.013132935 0.024933266 0.025879944 0.0014267477

bias f4 [64]
00000000: 5edd a9bd d2c9 0d3d ab7e 37bd 7a04 b53b
00000010: 0d0f 033d d847 22bd a342 93bd 90b2 11bc
00000020: 68fc 273d 99d6 eabc 7af1 aabd e6a4 82bc
00000030: 1cee 4b3d a099 423c 28c5 0cbe d91f 69bd
00000040: 1922 8dbc 69cd ff3c 0ae1 433d 3f9b 00be
00000050: 1838 1fbd f1de 17be 22d9 333d 9638 d4bd
00000060: c2d1 003d 0a8d 67bd f7c3 35be ac09 d13c
00000070: 5d29 143c 85ee 8abd 3770 373b 16d5 a7bd
00000080: cb3b 81be 2c79 85bd 1bd0 113d ad91 34bd
00000090: cd2e 5dbd 7950 be3c b667 323c 0294 5ebe
000000a0: bbf7 14be ec52 8dbd 387e 843c fea2 b43b
000000b0: e11a 52bd 4533 0abc d8a2 3bbe ecdb 35be
000000c0: 7c31 31bd df48 c3bc 2da0 1dbe 6eb6 42be
000000d0: 5dd7 c63c f1cc 9ebd 278f f53b fd7e 1bbd
000000e0: 8a41 c1ba fa49 4bbd 30c3 ed3c 9ebc 043d
000000f0: 7bbf 1dbe c648 fbbd 0bee 9a3c 6d7d 37be
-0.082941756 0.0346163 -0.044798534 0.0055242153 0.031996775 -0.039619297 -0.07190444 -0.00889267
0.041012198 -0.028666781 -0.08346839 -0.01594777 0.049787626 0.011877447 -0.13747084 -0.056915138
-0.017228173 0.031225877 0.047822036 -0.12559222 -0.038871855 -0.14831139 0.043908246 -0.103623554
0.03145004 -0.05653099 -0.17750536 0.025517307 0.009043065 -0.06783775 0.002799047 -0.0819494
-0.2524093 -0.06517252 0.035598855 -0.04408424 -0.05399971 0.023231732 0.010888984 -0.21736148
-0.14547627 -0.06900582 0.016173467 0.0055125942 -0.051295165 -0.008435075 -0.18323839 -0.17759675
-0.043260083 -0.023838459 -0.15393133 -0.19014904 0.024272615 -0.07753933 0.0074938717 -0.037962902
-0.0014744264 -0.049631096 0.029023737 0.032406442 -0.15405075 -0.1226974 0.018912336 -0.1791894

weight f4 [64, 64, 2, 2]
00000000: 826b 39bd be7e 6d3d b0de 2dbd 42c9 7cbc
00000010: 3fc3 b53c 39c7 9f3d 8d23 b23c 70c5 78bb
00000020: 4e74 b6bd f427 e1bd 529e aabd 8e7c 86bd
00000030: 859d 3bbc 270c ac3a f33d 0d3d 8bb8 40bd
00000040: 2392 793c ea9c bd3a dcaa d3bc db2e c13c
00000050: 811e 413d 1261 013d 98a2 303d 2f7a e5bc
00000060: c48c 25bd 1b5a b13c 3703 00bd e1fb 483d
00000070: 7e61 9d3c 46c9 89bd 2b62 6a3d 61e6 533d
00000080: 39cd a93d 073e a2ba 6fca f43d e8d7 41bc
00000090: b86c 57bc 6f59 efbc 9e64 38bd 6e80 03bd
000000a0: 7729 2b3c c380 c8bc 9a84 4bbd b91e a8bd
000000b0: 53d9 e3bb c8a8 733c da8f d03c 3746 533d
000000c0: 9fc0 d1bc b8e8 17bd 776c 11bd 5aff 45bd
000000d0: 0b7a 30bd 9fd8 1fbc cbb9 5b3b c47b 78bc
000000e0: b3f0 dd3b 5d46 983c 1424 4abd f6ff 3a3d
000000f0: 7b65 b5bc 7010 663d aed7 123c d053 e13c
00000100: 04df c13d 25e0 903d 3924 b43d c214 84b8
00000110: 3f9c c43d 8de8 383e 1718 f63d fd99 2d3e
00000120: 31d7 a43c 7296 a6bc 09ff 8fbd b99c 413d
00000130: 67e8 d5bd f72c b0bd 806e 0cbe cd7e 34be
00000140: 8de4 9ebc d09e 93bd 1b95 de3a 0cbc 79bd
00000150: d30e 7abd 4d76 10bd fe3f dfbd 51f7 57bd
00000160: dd55 cfbc ed40 0d3d 576f 26bd 4344 793d
00000170: 912f 7a3d 62d3 c93d 44d2 f73c e599 143d
00000180: 842f 1ebd faea 763b fb91 b6bd 4104 91bd
00000190: 50e2 b1bc 8f92 903d edff 2fbb 5823 a13c
000001a0: 7556 5ebd 95c3 90bd 387b 12bd 974c cabd
000001b0: db11 febd 8dd0 e9bd 9f28 7b3d 1a3e ee3d
000001c0: 9123 66bd 5102 763c e855 95bd 21e3 683b
000001d0: 6bff cdbd 9668 f7bc 0848 93bd 07ea b53c
000001e0: eee8 5cba 1d1a 47bd 93a9 6ebc c195 f6bc
000001f0: 1256 f1bd 0247 01be 4485 0cbe f4e1 00be
00000200: cd93 e539 72ea 843d 5dfe 293d bc7a cf3d
00000210: e3f9 5bbd 9d27 6bbc 6c6f 1d3d a951 dc3c
00000220: 46b5 df3c 1655 203d 38c7 2f3d 3650 09bb
00000230: 617f f6bd 262f bdbd 6ce6 c7bd 69ae 57be
00000240: a4ad 103b 76f7 08bb a9ae d0bd e7d1 cabd
00000250: 9838 ffbb be22 ff3c 5421 d43b 185a bebb
00000260: 9b7e 08bd 9d0d 4abd da37 b4bd b3f8 16be
00000270: 1137 59bd b5cc 1abd eb31 14bd d9d5 0bbd
00000280: 84be a6bc ddf4 9db9 23af 6a3d 62f9 13bd
00000290: d47e 7abc 589d 9d3b 8838 00bd 9cc6 f63c
000002a0: edd3 0bbd e66c 65bd dd1a 92bc 1907 58bd
000002b0: a759 8bbc 468d a9bd 557b 28bd 5870 c4bd
000002c0: d91a 653d 14a3 d8bb 31d8 443b 32fa 283d
000002d0: 0559 413e 1147 5c3e d9c4 463e c44a 883e
000002e0: b4a6 90bd 7076 92bd 0d8b 67bd c658 be3a
000002f0: 29eb 243d 1367 293d 5f2b 37bc bf0d 633b
00000300: 12cc 0d3b c559 bd3d 28a1 92bd 4a7b 5e3b
00000310: 938d 213e dba8 b93d 8d70 e53d 31ed 083e
00000320: f696 a4bd 9162 99bd 9fa6 1ebb a865 a7bd
00000330: e428 cb3c fa45 053d 4335 e13c ab74 54bd
00000340: 8239 5bbd 896d 3ebd e1d8 dbbc 3240 36bd
00000350: 99ee ac3c 7ad4 643d 4b72 bebb 0cdc 0d3d
00000360: 004a 97bc a1f5 18bd f281 f4bc 585e e3bc
00000370: 69ee efbc bb0c ecbc 635f cdbd 22e8 aabd
00000380: 9160 133e a713 1f3e 2562 3b3e 8471 3c3e
00000390: 0727 b7bd a380 33bd b1f8 27bd aef5 9fbd
000003a0: 5c66 67bd 3cbc 373d 0939 6dbb e982 b53c
000003b0: 8b7e 07bd 1d92 51bd 1caf 28bd 5711 7cbd
000003c0: f2f4 91bd 46d9 353b b0a6 543d 5d94 bebb
000003d0: 2a48 293c fa26 963d e2c2 d03d bf66 c13d
000003e0: 22f5 7e3d e46f 98bd 35c7 26bd cf27 48bc
000003f0: 03de cfbc 3b13 9dbd 225a 713a 6926 32bd
-0.045268543 0.0579822 -0.0424487 -0.015428843 0.022187827 0.078016706 0.021745468 -0.0037959479
-0.08908902 -0.109939486 -0.083309785 -0.06566726 -0.01145113 0.001312618 0.034482908 -0.047050994
0.015232596 0.001446632 -0.025838308 0.023581913 0.04714823 0.031586714 0.04312381 -0.028012363
-0.040417448 0.021649411 -0.031253066 0.049068335 0.019211527 -0.06727843 0.057222527 0.05173338
0.08291096 -0.0012378105 0.11952674 -0.011831261 -0.013148479 -0.02921745 -0.04501783 -0.032104902
0.010446898 -0.02447546 -0.049687006 -0.08208985 -0.0069533973 0.014871784 0.025459219 0.051580634
-0.025604544 -0.037087172 -0.03550383 -0.048339225 -0.04308514 -0.009756236 0.003352749 -0.015166227
0.0067730783 0.01858824 -0.049350813 0.04565426 -0.022143116 0.05616802 0.008962555 0.027505785
0.09466365 0.07074002 0.087959714 -6.298117e-05 0.09600114 0.18057461 0.120163135 0.16953273
0.020122143 -0.02033541 -0.07031066 0.047268603 -0.10444718 -0.08602326 -0.13714027 -0.17626496
-0.01939609 -0.072080255 0.0016981693 -0.06097035 -0.061049294 -0.03526907 -0.109008774 -0.052726094
-0.025309497 0.034485746 -0.040633526 0.060856115 0.06108052 0.09854771 0.03025163 0.036279578
-0.038619533 0.0037676678 -0.08914562 -0.070808895 -0.02171436 0.07059204 -0.0026855425 0.019670174
-0.05428167 -0.07068554 -0.03576204 -0.098778896 -0.124057494 -0.11416731 0.061318036 0.11632939
-0.056186263 0.015015201 -0.07291776 0.003553577 -0.10058483 -0.030201238 -0.07191473 0.02220632
-0.0008427043 -0.048608888 -0.014566797 -0.030100705 -0.11783995 -0.12624744 -0.13722712 -0.12586194
0.00043788404 0.064900294 0.041502345 0.101308316 -0.053705107 -0.014352706 0.03843634 0.026894407
0.027308118 0.039143644 0.0429146 -0.002095235 -0.12036014 -0.092375085 -0.09760746 -0.21062626
0.0022076154 -0.0020899451 -0.10189564 -0.09903317 -0.007788729 0.031144496 0.0064736996 -0.00580908
-0.033323865 -0.04932939 -0.08799715 -0.14743309 -0.05303103 -0.03779288 -0.036180418 -0.034139488
-0.020354517 -0.0003012781 0.05729593 -0.0361265 -0.015289027 0.0048100166 -0.031303912 0.030124001
-0.034137655 -0.056012057 -0.017835075 -0.052741144 -0.017010523 -0.08278899 -0.041133244 -0.0959174
0.055933807 -0.0066112373 0.0030036087 0.04125423 0.18881615 0.21511485 0.19411029 0.26619542
-0.07063046 -0.071514964 -0.056529094 0.0014522306 0.04026333 0.041358065 -0.011179774 0.0034645644
0.0021636528 0.09245638 -0.07159644 0.0033947998 0.15776663 0.0906541 0.11203108 0.13371731
-0.08036606 -0.07489503 -0.00242082 -0.08173686 0.024799772 0.032537438 0.027491217 -0.051869076
-0.05352164 -0.04649118 -0.026836814 -0.044494815 0.021109866 0.055866696 -0.0058119646 0.03463368
-0.018467903 -0.037343625 -0.029847119 -0.027754948 -0.029288488 -0.028814664 -0.10027959 -0.08345057
0.14392306 0.1553484 0.18299158 0.18402678 -0.08942991 -0.04382385 -0.041008655 -0.078105316
-0.056494102 0.04485725 -0.0036197326 0.02215715 -0.033079665 -0.051164735 -0.041182622 -0.061539974
-0.07126798 0.0027747913 0.051916778 -0.005816026 0.010332147 0.07331653 0.10193421 0.094434254
0.062245496 -0.074432164 -0.040717322 -0.012216522 -0.025374418 -0.076696835 0.0009206851 -0.043493662

bias f4 [64]
00000000: db6d 39bd eb5f 9b3d 5b4d 29bc 6b23 76bb
00000010: ac14 233c a53c 9fbd 565b b93d db44 983d
00000020: 5892 fabc 050c 2c3d 6c18 8dbb cff5 8ebc
00000030: c5b2 93bd c4b8 0fbd eb5a a53d 0ea3 713d
00000040: 1375 43bd e751 153c df28 a4bd fe8c 81bd
00000050: be91 b0bd f9ba 4e3d 1195 663d dca0 123d
00000060: 9d67 293d 3562 083d f3bd 8f3d e083 cebd
00000070: 6b47 a4bd e32e d5bc fc3f 48bd d6c7 b03d
00000080: 8741 98bd 871e 25bd 42ea 833d 6e1d 22bd
00000090: cbf7 413d 74b7 413b 603e 293d 13ae 413b
000000a0: 157e b3bd e6aa f7bc 7fb4 433d ce91 a93d
000000b0: 2cd9 15bd 34be c4bd 50f9 9ebd e669 bebd
000000c0: a9b7 873d dd27 77bd a94a a63d c756 71bd
000000d0: 01bb 853c f12c 8f3c 7a63 a2bd 0e02 363c
000000e0: 9912 3fbc e321 4b3d ae2e 23bd d4e8 cabd
000000f0: abcf a5bd 7599 85bd b15d 403d 5e60 4abb
-0.045270782 0.07586654 -0.010333384 -0.0037557732 0.009953659 -0.07775239 0.09050624 0.07435008
-0.03058736 0.04200365 -0.00430589 -0.017451195 -0.07211832 -0.035088316 0.08073982 0.05899339
-0.047719073 0.009113765 -0.08015608 -0.0632572 -0.08621548 0.05047128 0.056294505 0.03579794
0.04135858 0.033296783 0.07018652 -0.10083747 -0.080214344 -0.026023334 -0.048889145 0.08631866
-0.07434373 -0.040312316 0.064411655 -0.039578848 0.047355454 0.002955881 0.04131925 0.002955322
-0.087642826 -0.030232858 0.047779556 0.08279763 -0.036584064 -0.09606591 -0.07762396 -0.09297542
0.06626827 -0.06034075 0.08119709 -0.058920648 0.016324522 0.017477484 -0.0792913 0.011108888
-0.011662149 0.049592864 -0.03983944 -0.0990769 -0.0809625 -0.0652341 0.04696435 -0.0030880193

weight f4 [64, 32, 2, 2]
00000000: 462c 163d 0f07 623b 9868 e3bd 435c 893c
00000010: 7b3e ce3d ba0c f33d 5237 bb3d 37f7 ae3d
00000020: 12e0 583d 980c b2bd 5062 e03d 9e6c f1bd
00000030: 4d1c 583c bfb0 3b3d c6b0 1b3d dfc7 42bd
00000040: 0ccb d13c 55f5 45bd e6a8 9f3d b727 873b
00000050: dc7c c03d ca0f fa3b a96c aabd ebfc 06bd
00000060: 61b9 ecbd 89c3 ed3d d3fd b8bd f33b db3d
00000070: eb88 cdbc ca57 c63c a97a 143b c4f4 d3bd
00000080: bbb0 b23d 4a53 38bd 9857 a9bd 7f6b 88bd
00000090: 4bdf b6bc c02c e43c a416 583d 1064 963d
000000a0: 0025 0e3c 6151 d1bc c383 ea3d 7a8e 083d
000000b0: ebe6 a13b c87e 5b3d 7058 e63c 364a 6bbd
000000c0: bc88 58bc 6acb e1bd 8ed4 06bd d2aa 9abd
000000d0: b677 abbc 64c9 573d 896c 103d 13fa 083d
000000e0: 8ef8 fe3c 0eb5 fb3c 9ea7 4cbc ce5a 0c3d
000000f0: 1ac2 973d ce83 753d fb2b 9fbc 6914 983d
00000100: afbc c6bd cda5 d43c 8096 403c c11b 8bbd
00000110: f1a6 37bd 7846 babc db3f 1fbc ff23 4bbd
00000120: a410 2a3c 3157 643d d930 eabc de4b a1bd
00000130: 6a7a af3d 1ce7 823d 1654 f53c cc78 36bc
00000140: f7db 863d 8d20 763d a218 9bbd 3827 2a3d
00000150: 21a6 8c3a 6c8c acbd 6ff5 cdbd 23cb c3bd
00000160: 9158 e73d 7321 2c3c 48c5 c63d b7f5 66bc
00000170: d3ec 413d d238 b8bd 863c a23b 6de1 863c
00000180: 1760 bb3c 4dfa a1bd 310c d73a e24f c4bd
00000190: acc8 53bd c5fb 583d 3bc4 d23d 9c97 e13d
000001a0: 9aef ee3d 9dd3 4f3d 68dd 1e3d 612a 00bd
000001b0: dad8 2e3e 9b72 bebb 30f8 64bd 30d5 e6bd
000001c0: 2401 3dbd 9b4a a0bd 64ea 7abd a3d8 07bd
000001d0: 752d 7e3d 48a5 eb3c 5956 84bd 7369 a6bc
000001e0: 9b48 163c 07c6 a83d f522 b5bd 6281 a2bd
000001f0: 1e72 f9bd 1b8b 11bd e2e2 08bc 8ca2 45bd
00000200: f3af a83d c61e 83bd 2079 a43c c07e 453d
00000210: cd6a 173d 8cf2 d63b f8c7 78bd 0b4b 96bd
00000220: 903f 51bd e728 26bc 0ef8 8ebc f92d c33d
00000230: 1484 9c3c ebf0 d53d 9af7 cabc 489d 9d3c
00000240: e68d 77bb 82c3 8dbd 981f 09bd 3409 7e3d
00000250: 308c 9abd d241 9cbd 0f64 d03d cb70 f13c
00000260: d44b 163e c8dd d3bd 537d 833d 5f5a 42bd
00000270: 98a7 7a3c 1e7e afbd bc67 6b3d 1822 193d
00000280: 24ba 82bb 924d 63bd d796 b7bd f3dd 9bbd
00000290: fdad 533d e658 313d a244 5a3d 89e8 46bd
000002a0: 49b9 993d 0b18 6fbd db39 a8bd 76f6 043d
000002b0: dbd9 89bd ae9a 023d e493 ba3b d9a2 293d
000002c0: 3749 813d c057 063e 4b56 e8bc 3daa 9abb
000002d0: 5740 c9bd db9d c1bd 853b 3dbd 25c0 b2bd
000002e0: 9407 1bbd 9208 933d 4695 2c3d 5b92 f53c
000002f0: b0cf de3d 6b85 c63d 3b04 b53d d69d 56bd
00000300: 3474 cb3d 3e98 3b3d 2db9 c03d 3320 09bd
00000310: 4cc2 b5bd 9466 c6bc a79b 0e3d d138 d53c
00000320: 3068 8f3d 2dcd 4a39 efad 973c 11c4 72bd
00000330: 6a49 973d d4c4 f43c 695c 663d 21c0 97bd
00000340: 5bd9 40ba 2ba2 ab3d d5e6 8c3d 6c4d 81bd
00000350: 30a4 63bd ac23 9c3d 3733 acbc 4e28 e53d
00000360: 99e6 813d b520 5a3d 7902 6b3d 8204 cbbc
00000370: 243d cb3c b8b4 393d 8465 f13c df8f 65bc
00000380: 8821 d6bd 5456 4f3d a0d0 26bc 6c0e f83d
00000390: c0b2 a5bd f116 debd 7a46 89bc 759f 88bd
000003a0: bd87 143d 9438 4e3a 0a13 a5bd 1b85 74bd
000003b0: 09d1 73bd 714d 7dbd 9e6f ca3d 277f a03d
000003c0: 4a08 ae3c e080 51bd baa8 b43d 1c3a 1ebd
000003d0: 489e 45bc d56c 903d 2646 7d3d 179a ccbc
000003e0: 9646 023d 2cd2 6bbd 7068 8ebc 6d76 38bc
000003f0: c8fd f93b 41dd 53bc 7949 8ebd 7434 7bbd
0.036663316 0.003448907 -0.11103934 0.016767627 0.10070511 0.11867662 0.09141411 0.08543246
0.052948065 -0.08693808 0.109562516 -0.11788295 0.013190341 0.045822855 0.03801038 -0.047553893
0.025609516 -0.04832967 0.07795887 0.0041246074 0.09398815 0.0076312767 -0.083215065 -0.032956045
-0.11558796 0.11609561 -0.09032788 0.10704794 -0.025089702 0.024211783 0.002265612 -0.1034942
0.08725115 -0.045001306 -0.0826866 -0.06661128 -0.022323271 0.02785337 0.052755967 0.07343304
0.008675814 -0.0255515 0.11450913 0.033339 0.0049408576 0.053587705 0.028118342 -0.05744382
-0.013216194 -0.11025126 -0.03291755 -0.07552113 -0.020931106 0.052682295 0.035259757 0.033441614
0.03112438 0.030725982 -0.012491135 0.034266286 0.07410069 0.059940152 -0.019430151 0.07425768
-0.09703957 0.025957966 0.011754632 -0.06792403 -0.044836942 -0.02273868 -0.009719814 -0.049594875
0.010379944 0.055747215 -0.028587746 -0.07875799 0.085682705 0.06391737 0.029947322 -0.011137199
0.06584924 0.060089637 -0.07573058 0.04154131 0.0010730663 -0.08425221 -0.10056578 -0.0956023
0.112961896 0.010506022 0.09705597 -0.014096669 0.047344994 -0.089952126 0.0049510626 0.016464913
0.022872968 -0.07909069 0.0016406832 -0.09585549 -0.051705047 0.05297448 0.10291334 0.11015245
0.11666794 0.05073892 0.03878537 -0.031290416 0.1707491 -0.005812002 -0.055900753 -0.11271131
-0.046143666 -0.0782673 -0.06125869 -0.033165585 0.06205507 0.028765336 -0.06461782 -0.020313954
0.009172584 0.08240896 -0.08844558 -0.07934834 -0.12179969 -0.035533052 -0.008354874 -0.04825072
0.08236685 -0.06402354 0.020077288 0.04821658 0.036967088 0.0065596756 -0.06073758 -0.07338532
-0.05108601 -0.010141588 -0.017452266 0.09530253 0.019105949 0.10446342 -0.024776269 0.019240037
-0.0037773787 -0.06922056 -0.033477396 0.062020496 -0.0754627 -0.07629742 0.10175335 0.02947273
0.14677364 -0.10345036 0.06420388 -0.047449466 0.0152987465 -0.08568977 0.057471976 0.03738603
-0.003989475 -0.0554939 -0.08964317 -0.07610693 0.0516796 0.04329767 0.05328811 -0.048561607
0.075060435 -0.05837254 -0.0821416 0.032461606 -0.06731006 0.031885795 0.0056938995 0.04141507
0.06312793 0.13119411 -0.02836146 -0.004720001 -0.09826725 -0.09453937 -0.04619934 -0.08728055
-0.037849024 0.07179369 0.042134546 0.029977014 0.10879457 0.09693416 0.088386975 -0.052396618
0.09934273 0.045799486 0.094103195 -0.033477973 -0.0887495 -0.024218835 0.03481641 0.026028069
0.07002294 0.00019340655 0.018515555 -0.059269015 0.073870495 0.029879011 0.056240473 -0.074096926
-0.0007356607 0.083805405 0.06879965 -0.06313595 -0.055576503 0.07623991 -0.021020515 0.11189328
0.06342811 0.053253848 0.057375405 -0.024782423 0.024809428 0.045338362 0.029467352 -0.014011352
-0.10455614 0.05061944 -0.010181576 0.12112126 -0.080907345 -0.108442195 -0.016757239 -0.06671039
0.036262263 0.0007866707 -0.08060272 -0.05969725 -0.059525523 -0.061841432 0.098845705 0.078367524
0.021244187 -0.051148295 0.088212445 -0.038629636 -0.012061663 0.07052008 0.061834477 -0.02497582
0.031805597 -0.057573482 -0.017383784 -0.011258704 0.00762913 -0.012931169 -0.069476075 -0.06132932

bias f4 [32]
00000000: f9a2 fc3d 26df 7e3c 0966 ce3d 6019 383d
00000010: bf78 b63d 60a9 113d 1f61 a43d 6de2 8d3d
00000020: 745d f7bc 17bc 9c3d a8b0 c43d 596d 6abd
00000030: ce17 4fbd bfd5 f9bd 62cd 7abd 3a35 db3d
00000040: c034 203c 3be9 8ebc 16ed 8f3d 3419 02bc
00000050: 436f 463d 51ae 8dbd ff44 15be dd55 9f3d
00000060: 05e3 b33d 2817 b3bd 3872 413d 2e01 463d
00000070: c6b8 fa3c 8c97 b73d 7abd b9bd 91db 84bd
0.12335772 0.015556132 0.100780554 0.044946074 0.08909749 0.03556192 0.08026337 0.06927953
-0.03019593 0.07653063 0.09604007 -0.05723319 -0.05055981 -0.12198972 -0.061231025 0.107035115
0.009778202 -0.017445197 0.070276424 -0.007940579 0.04844595 -0.06918014 -0.14577101 0.07780049
0.08783535 -0.08744651 0.047228068 0.04834097 0.030605685 0.08964452 -0.09069343 -0.064871915
