output/train_14_12_23_part-2/unet_tgs_salt.pth (torch, 247127 bytes, 26 tensors)

weight f4 [16, 3, 2, 2]
00000000: 0c44 acbe baa8 23bf edd2 1abf 31ac 0bbf
00000010: 6bca 22bf 0255 21bf a3d2 07bf 340e 8cbe
00000020: 94a8 34bf 8c90 2cbf 3c9d b4be 7d55 0cbf
00000030: dbf8 79be be63 a6be 8c68 31bf 34ab 38bf
00000040: 3a6d 42bf fb98 28bf 0d92 0abf 78aa 17bf
00000050: 76d9 41bf 7822 02bf 8adc e8be e02a 11bf
00000060: 35e5 e1bd 5997 70be 6d30 4b3e 8079 523d
00000070: 4ea8 eebd 62a4 e53d 423d 783e a4bf 38be
00000080: 2876 973d 9560 cdbd ed1e 98bd c21d 9fbd
00000090: b369 11bf b8eb e3be 68c5 0ebf cab9 dbbe
000000a0: cc56 9cbe 1934 09bf 682e 37bf 4a1a 59bf
000000b0: e32b 45bf b613 15bf 2be6 eebe 7f4e 52bf
000000c0: a1b4 bfbe 4e45 3bbf 51a9 13bf 6d13 01bf
000000d0: 5681 44bf 1d98 d8be c99d d1be d703 a9be
000000e0: ada2 1abf 1a43 35bf 0d50 0fbf e1a0 51bf
000000f0: 9545 51bf ddac 3ebf c295 4cbf e7b8 1ebf
00000100: 47cf 2bbf 2387 22bf ec4d 2bbf 1c93 0cbf
00000110: a96d 52bf 0535 27bf 66ed 44bf 6a5c 1bbf
00000120: 76ee 4fbf 062c 4ebf 7fff d7be c9f8 f8be
00000130: f519 c4be 39a3 abbe 9207 1abf 8f85 f2be
00000140: bf1f 38bf 95b6 00bf 53b5 ddbe 9fc4 c8be
00000150: 6afe c4be 975a 29bf 3202 35bf cf9e b6be
00000160: ac30 04bf ad44 36bf 432f bebe 2b09 28bf
00000170: b220 27bf ae99 e1be 2e92 21bf ff80 1abf
00000180: c519 a3be dddd 39bf 9755 e7be e6da bebe
00000190: ea2a e5be 5aa0 cfbe 1e93 4ebf 986e 04bf
000001a0: 8980 5dbf e1ad 15bf a778 53bf 2b75 5abf
000001b0: bb84 3ebf 637a 9dbe 0671 babe 1d68 81be
000001c0: c2ea e3be d33b 30bf a573 b3be a141 9cbe
000001d0: 67bb 3bbf b136 37bf 40f5 10bf 1196 20bf
000001e0: 3924 1cbf 62d7 04bf 6b95 7dbe f551 b3be
000001f0: cefc 0abf 3d02 94be b2ec 28bf 2424 f7be
00000200: 92b2 adbe 6eae e0be 417e bcbe 0fce e9be
00000210: 3cb5 0bbf b525 3abf ea95 f3be a1a0 4abf
00000220: 29a0 67bf e083 3dbf c613 2bbf 2c9b 60bf
00000230: ea72 25bf da11 1fbf c17c 45bf 2545 75bf
00000240: b932 6ebe 1330 6bbe 3e2d 33bf d88a 37bf
00000250: 7724 c7be 29a8 f4be bd0b d5be 5c7c 34bf
00000260: 8c5b 43bf ff39 9dbe cef4 05bf 431b 9dbe
00000270: ea82 99be 5cc8 afbe c7e4 26bf c297 0bbf
00000280: 2ed0 17be 8e28 a0be f040 44be 2de6 aabe
00000290: 2386 f4be 5a2f cabe 700e 06bf e3a2 97bd
000002a0: 1047 203c ad34 293d 61c1 8dbe b48f 51bd
000002b0: 5d31 88be 9294 7a3d f0e6 7a3d 319c 48be
000002c0: 0e10 c33d ab7d 693e 0b83 2fbb fae1 6ebd
000002d0: 2421 54bf 7cf7 63bf 3710 78bf 6c94 6cbf
000002e0: f30b 8dbf e941 26bf 6cb9 30bf fc3c 72bf
000002f0: 3046 50bf cffb 71bf 087d 45bf a71e 7abf
-0.33645666 -0.6392933 -0.604781 -0.5455962 -0.63590115 -0.63020337 -0.5305578 -0.27354586
-0.7056973 -0.6740806 -0.3527621 -0.54817945 -0.24411337 -0.32497972 -0.6930015 -0.72136235
-0.75947917 -0.6585843 -0.54129106 -0.5924449 -0.75722444 -0.50833845 -0.45480758 -0.5670605
-0.11030046 -0.23495235 0.19842692 0.051385403 -0.11653195 0.11212994 0.24242118 -0.18041855
0.073955834 -0.10028187 -0.074277736 -0.07769348 -0.5680191 -0.44515777 -0.5576997 -0.42915183
-0.3053497 -0.5359512 -0.71555185 -0.8480574 -0.7702009 -0.582332 -0.4665998 -0.82151026
-0.37442496 -0.73152626 -0.5768023 -0.50420266 -0.7675985 -0.42303553 -0.40940693 -0.33010742
-0.60404474 -0.70805514 -0.5598152 -0.81886107 -0.817468 -0.7448252 -0.7991601 -0.6200089
-0.67113155 -0.6348745 -0.66915774 -0.5491197 -0.8219858 -0.65315276 -0.7692474 -0.6068789
-0.8122324 -0.80535924 -0.42187116 -0.48627308 -0.38301054 -0.33522967 -0.601678 -0.47367522
-0.7192344 -0.502786 -0.43302402 -0.3921251 -0.38475353 -0.66153854 -0.70706475 -0.35668036
-0.5163677 -0.7119854 -0.37145433 -0.6563899 -0.65284264 -0.4406256 -0.6311368 -0.6035308
-0.31855598 -0.7260416 -0.45182487 -0.3727638 -0.44759303 -0.40552026 -0.80693233 -0.5173125
-0.86524254 -0.58468443 -0.82605976 -0.85335034 -0.7442128 -0.30757436 -0.36414355 -0.25274745
-0.44515043 -0.68841285 -0.35049167 -0.3051882 -0.7333283 -0.7156783 -0.5662422 -0.62728983
-0.6099277 -0.5189115 -0.2476403 -0.35023466 -0.54292 -0.28907958 -0.6598617 -0.4826976
-0.339253 -0.4388308 -0.36815074 -0.45665023 -0.54573417 -0.72713786 -0.47575313 -0.7915135
-0.9047876 -0.7402935 -0.66827047 -0.87736773 -0.6462847 -0.62136614 -0.77143484 -0.9580863
-0.23261537 -0.22967558 -0.6999091 -0.71696234 -0.38895008 -0.47784546 -0.41610518 -0.7050226
-0.76311564 -0.3070831 -0.5232667 -0.30684862 -0.29982692 -0.3433255 -0.65192837 -0.5452844
-0.14825508 -0.3128094 -0.19165397 -0.33378735 -0.47758588 -0.3948925 -0.5236578 -0.07404115
0.009782568 0.04131 -0.276866 -0.051162437 -0.2660016 0.061176844 0.061255395 -0.19590832
0.095245466 0.22801845 -0.0026780989 -0.058320977 -0.8286307 -0.89049506 -0.9689974 -0.92413974
-1.1019272 -0.6494432 -0.6903293 -0.94624305 -0.813571 -0.94524854 -0.7714391 -0.9770302

bias f4 [16]
00000000: 303e c0be 1e05 a8be ee2e 71be 1d47 38bf
00000010: 415a b0be a4f0 edbe 7c35 54bf 1132 81be
00000020: 13a1 19bf 28c4 27bf 299b efbe b305 e7be
00000030: 054f 34bf 0850 cfbe a174 5ebe 7b69 06bf
-0.37547445 -0.32816404 -0.23553059 -0.7198351 -0.34443858 -0.46472657 -0.8289411 -0.2523351
-0.60011405 -0.65533686 -0.46798065 -0.45121536 -0.70433074 -0.40490746 -0.21724178 -0.525047

weight f4 [16, 16, 2, 2]
00000000: e085 b33e f5cf a33e dc6b 803e a06f 893e
00000010: d600 c63e 832e f83e 1dae a53e 8a8e d23e
00000020: 8840 9abc 50c8 713c 7a55 f0bd be26 bc3d
00000030: c10d 23bf 3a05 11bf 95c2 fcbe eb9d 10bf
00000040: 7b2d 7d3e 37c5 963e 8f03 ef3e aa9d 733e
00000050: aecd 00bf 7fc8 28bf 2516 fdbe 8691 0bbf
00000060: fa97 38bf 018e 00bf 05aa 36bf 5cca 0abf
00000070: 017c c93e 2cef d83e fdc8 e33e a8c5 7c3e
00000080: 63e4 f43e 2f76 003f 82ba f13e f7d2 af3e
00000090: 3e96 be3e 5fcf b13e aba9 b03e 0724 d93e
000000a0: 7608 f23e c521 873e 9099 ac3e fcc5 803e
000000b0: 63a4 8d3e de93 7f3e f2c6 f13e 9052 e63e
000000c0: 38f1 ec3e 7ca9 9a3e 9198 a83e aa3a 813e
000000d0: e223 773f 45a3 5f3f ee78 423f ecb0 6c3f
000000e0: 5d6c 8c3d 5681 f43d b01a 70bd 2814 6a3d
000000f0: 1de8 4ebf 18c6 4fbf 42c7 42bf 5956 60bf
00000100: b4e0 debe 33ff 14bf a5d4 17bf 1f4a 10bf
00000110: 9850 18bf a13c c8be 36d6 0fbf d142 01bf
00000120: 6890 2abd 78df 2ebd 80cb ee3b 88bc f4bd
00000130: fe58 e23e 2acf 1e3f 9b64 0d3f 4fda 073f
00000140: 07ca 5fbe ae95 bebe eb39 d0be 00b6 d5be
00000150: 9a78 fbbe 59f4 9c3e 6ebd b2be ac64 3b3e
00000160: 4439 013f bdfd 043f 1c90 2e3f f8d3 003f
00000170: 1fe6 c8be a103 1ebf 4944 f6be 05a6 14bf
00000180: d7b1 23bf 9ed4 08bf ab1a 21bf 4a44 35bf
00000190: 59a0 0cbf 2838 e4be d92f 19bf 9326 e3be
000001a0: 0e16 20bf e4e6 e4be cf84 10bf 98dc ebbe
000001b0: 7526 88be 8ccd cebe 32e4 9ebe 364a d0be
000001c0: 8441 12bf f590 13bf c561 06bf 736c cbbe
000001d0: e530 58be f77b dfbd c692 fbbd 65d7 6bbc
000001e0: 9feb 9e3d cf90 1f3d 2ea0 f43d 426e 923d
000001f0: 15d1 403f 9077 4c3f b5b4 313f 3837 523f
00000200: 1e41 2b3f b8e2 283f 858d fe3e 7a75 073f
00000210: 1aa8 223f ea03 1f3f 62ea 203f e211 163f
00000220: 80f1 eeba 3001 e03d ca2e 9a3d ca94 b6bd
00000230: 65f6 113f cb19 243f 85e4 263f 6097 293f
00000240: 17d9 0c3f a206 033f 6347 273f d46a 0c3f
00000250: 18dd c73e 689a f93e b0fb 0b3f 7696 133f
00000260: 05ad 1c3f b404 213f 1158 213f bb70 083f
00000270: 7af3 0a3f a828 2a3f af2f 2a3f f0b6 173f
00000280: a651 e43e 6dc9 fd3e 6cb8 da3e 3da3 d63e
00000290: af82 033f 8ffd 063f f827 2b3f fe6c 0a3f
000002a0: b220 043f ea40 f83e 61ad 1d3f 8710 1b3f
000002b0: a2ed 043f 6d92 f23e dea5 2a3f b33a 2f3f
000002c0: da89 233f 3809 f03e 309d 043f 51dd 2a3f
000002d0: 8059 183f 51cc f43e 292f 9d3e f3a2 f93e
000002e0: ffc0 fabd 4b7a 323c bc77 c2bd 809c c93a
000002f0: 055b b0be 47cb cabe 8a0a b0be d02d d6be
00000300: 3a32 02bf 75b6 02bf 3343 23bf 981d 25bf
00000310: cf97 24bf ce30 e2be 9672 18bf 1575 f0be
00000320: 8077 893b 866a a6bd 8409 bd3d 528a febd
00000330: c14a 2cbf 7bfd 02bf c1fc 04bf b6ca 02bf
00000340: 5443 31bf 7037 26bf 067e 18bf 7251 26bf
00000350: 2af0 0dbf 8001 14bf fd3a 18bf defa 0ebf
00000360: fc2e 0dbf 5ce4 38bf decc 38bf f4a6 1ebf
00000370: 73f3 20bf 8490 29bf 9307 0cbf 53dc 0bbf
00000380: d5b1 02bf 314f 06bf b356 17bf b6d7 17bf
00000390: ad2b 25bf 63e7 fcbe 260d 28bf 8b9e ebbe
000003a0: e47a e7be ce44 e7be 2f77 09bf 0bfb 20bf
000003b0: fb65 00bf 970d 22bf c1b8 08bf 1709 21bf
000003c0: bcf6 2ebf 5725 2ebf 5aa5 20bf 573c 0bbf
000003d0: d4a3 efbd c891 92be c729 b5be 7d43 85be
000003e0: d8ed 803d 4090 173e dec5 f73d f8f4 78bd
000003f0: 0384 cdbe 9d6c debe fa1d 7bbe ad40 9ebe
0.35063076 0.31994596 0.2508229 0.26842976 0.38672513 0.48472986 0.323594 0.41124374
-0.018829599 0.014757231 -0.11735053 0.09187077 -0.6369286 -0.566486 -0.49367204 -0.56490964
0.2472438 0.29447338 0.46682402 0.23790613 -0.5031384 -0.6593093 -0.49430957 -0.54518926
-0.721069 -0.5021668 -0.7135318 -0.54215026 0.3935242 0.42369974 0.4448928 0.24684775
0.47830495 0.50180334 0.47212607 0.3434064 0.37224 0.34728524 0.34504446 0.424103
0.4727208 0.26392952 0.3371091 0.2515105 0.2766448 0.2495875 0.47222096 0.44984865
0.46277785 0.3020743 0.329289 0.2524007 0.9653913 0.87358505 0.75965774 0.9245746
0.06856606 0.11938731 -0.0586192 0.05714813 -0.80822927 -0.8116164 -0.76085293 -0.87631756
-0.4353081 -0.58201903 -0.59308845 -0.563631 -0.59497976 -0.39108756 -0.56186235 -0.5049258
-0.041641623 -0.042693585 0.0072874427 -0.11950022 0.4420852 0.6203486 0.55231637 0.5306749
-0.21854411 -0.37223572 -0.40669188 -0.41740417 -0.4911545 0.30655172 -0.34910148 0.18300122
0.50478005 0.51949674 0.68188643 0.5032344 -0.39238068 -0.6172429 -0.48098972 -0.58065826
-0.6394324 -0.5344943 -0.6293132 -0.70807326 -0.5493217 -0.44574094 -0.59838635 -0.44365367
-0.6253365 -0.44707406 -0.5645265 -0.46066737 -0.2659184 -0.40391195 -0.31033474 -0.40681618
-0.5713122 -0.5764306 -0.52492934 -0.39731178 -0.21112402 -0.10912316 -0.12283854 -0.014394616
0.07759785 0.03895646 0.11944614 0.07149936 0.75319034 0.7986994 0.6941636 0.8211551
0.66896236 0.65970945 0.49717346 0.5291363 0.6353775 0.6211535 0.6285764 0.58621037
-0.0018229932 0.109377265 0.075284556 -0.08915098 0.57016593 0.64101857 0.65192443 0.66246605
0.5501875 0.51181996 0.653433 0.54850507 0.3903587 0.48750615 0.5468092 0.5765146
0.61201507 0.628978 0.63025004 0.53297013 0.54277766 0.66468287 0.6647901 0.59263515
0.44593543 0.49567738 0.42718828 0.41921416 0.5137128 0.5273065 0.6685786 0.5407256
0.5161239 0.48487025 0.6159268 0.60572094 0.519251 0.4737734 0.66659343 0.6844894
0.6388222 0.46882033 0.5180235 0.6674395 0.59511566 0.4781213 0.30700043 0.48757133
-0.12243842 0.010893415 -0.09495494 0.0015381724 -0.34444442 -0.39608213 -0.3438304 -0.41831827
-0.5085789 -0.5105966 -0.6377441 -0.6449828 -0.6429414 -0.4417786 -0.59549844 -0.46964327
0.0041951537 -0.081257865 0.092303306 -0.12428726 -0.67301565 -0.5116803 -0.5194817 -0.5109056
-0.6924336 -0.6492834 -0.59567297 -0.64968026 -0.55444586 -0.5781479 -0.5946501 -0.5585154
-0.5514982 -0.7222345 -0.721876 -0.619735 -0.62871474 -0.6623614 -0.5469906 -0.54633063
-0.510526 -0.52464586 -0.5911667 -0.59313524 -0.6451977 -0.49395284 -0.6564506 -0.46019396
-0.45210946 -0.4516968 -0.53697485 -0.6288306 -0.5015561 -0.63301986 -0.5340691 -0.62904495
-0.68345237 -0.68025726 -0.62752306 -0.54388946 -0.117011696 -0.28626847 -0.35383436 -0.26028052
0.06295365 0.14801121 0.12098287 -0.060780495 -0.4013978 -0.4344224 -0.24523154 -0.3090872

bias f4 [16]
00000000: 6d27 603f fdbf d5be edcf 743f ccfe 0fbf
00000010: 5534 b03d 26d0 623f b260 8b3e 3b22 783f
00000020: fd04 c23e 007d c33f dc54 e53e ad40 1bbf
00000030: 2710 5b3f 6667 a4bf 98d7 b1bf b2da 683e
0.8756016 -0.41748038 0.9562977 -0.56248164 0.086037315 0.8859886 0.2722221 0.9692723
0.3789443 1.5272522 0.44791305 -0.6064556 0.8557152 -1.2844055 -1.3893919 0.22739676

weight f4 [32, 16, 2, 2]
00000000: 0ffd e7bc 01b3 d7bd bc7a e8bd 6176 07bd
00000010: 785c 6fbf 4f4d 80bf 663f 7dbf 8e8a 50bf
00000020: f447 72bf 9ab0 5cbf 9ee7 5abf 4301 70bf
00000030: 6dc5 80be e2ed 9bbd 4b07 d7bd ad41 45be
00000040: fb67 643f 83f8 763f 9de3 623f 897d 833f
00000050: b110 b8bd 0e80 16bd 274c 21bd c7af 25be
00000060: bc88 703f 6445 763f 3719 843f 8808 673f
00000070: 3284 71be 33c1 17be a9e6 55be fa41 16be
00000080: ad42 743e 42c5 3d3e 7b02 633e 90c5 113e
00000090: 2769 6bbf 89c5 83bf bc66 76bf 9c0d 7bbf
000000a0: eda2 4f3f 5fdc 803f 4842 7a3f 90de 863f
000000b0: f7ea 25be 042b 5ebe 5ad4 54bd bad9 19be
000000c0: 7c1f 62be 0823 a0bd 5d03 59be 9130 33bd
000000d0: 5b06 5c3f c6b0 553f 0030 543f 90a6 773f
000000e0: a417 6a3f 5ec7 683f bdcd 553f dedc 6a3f
000000f0: 392e 9cbd a14a 42be 408f d0bd 4886 4fbf
00000100: f991 9a3e e741 ca3e a51a 9d3e 8c2f e13e
00000110: 0a9f 21bf 20ed 49bf bfd3 3bbf 0edc 22bf
00000120: 616a 2cbf 6254 45bf 027e 41bf 5396 21bf
00000130: 6b86 3a3f 0b63 463f 050d 423f 984f 403f
00000140: cb00 4a3f a2c6 1f3f 08e6 153f af2b 333f
00000150: 5ea5 f53e c57b 803e e6e8 8d3e 9c63 b13e
00000160: b873 d73e 51f0 923e 198f 983e b8e7 d03e
00000170: e65b dd3e 9f86 943e 11c0 e33e fd50 b53e
00000180: d39c 30bf 9417 16bf 06d6 2bbf 886e 23bf
00000190: 975c 2abf 1a32 15bf 821b 44bf 3129 39bf
000001a0: 1080 8e3e b887 ec3e fddf d13e fe3b d83e
000001b0: 2b7e 3e3f a4cc 243f 9bb5 3d3f 788e 143f
000001c0: b452 ce3e 7342 b43e 6070 7f3e 38ff a33e
000001d0: ab0e 2f3f 9d71 513f e392 183f f262 4a3f
000001e0: 8588 493f 02bb 423f ff38 473f 565c 483f
000001f0: c121 e23e a9bf f53e c996 a93e a578 c53e
00000200: db92 993c b702 b13d 705e fc3d 7517 1fbd
00000210: 34b7 46bf c1b6 21bf 66f9 2dbf b708 31bf
00000220: fefe 41bf 054a 55bf cb82 29bf 1b0c 3cbf
00000230: 2ffc f0bd 2702 3dbe dcd6 75be bffc eabd
00000240: 9314 343f 3ddf 323f 83f6 443f cab0 353f
00000250: 8cc0 0bbd 5936 71bd 1e74 9a3d d636 ff3d
00000260: f01d 703f 4626 7b3f 949c 673f ce0e 873f
00000270: d763 f4bd a5fa f537 7fcc 88bd 0aeb 40bd
00000280: 9f99 6b3e 0e80 213e 2440 743e ab03 c23d
00000290: c56b 4cbf 30ea 3abf d0ac 23bf e1c4 2fbf
000002a0: ea1a 833f f0e7 563f 1acd 5a3f 1f83 5e3f
000002b0: 30fa 7ebe 8629 cabd b112 44be 0e0a 3bbe
000002c0: c0a4 873b 7bf4 7abd 83a0 1e3d 9d43 703d
000002d0: d7c2 573f 6c55 503f 015e 473f b1d3 213f
000002e0: 2c92 423f 1d7d 4c3f 8b4f 423f cec9 403f
000002f0: 29ed 053d 5d0b 483d 002b ddbd a4cb cbbd
00000300: 5867 22be c6e9 583d cbc0 dabd 5a73 a5bd
00000310: c847 5cbf 2bc9 70bf 42b7 42bf 355b 41bf
00000320: 3484 4abf ead8 40bf a51b 5dbf a7e1 5fbf
00000330: 8401 44be 9fe8 06be d70d 2abe ca3a febd
00000340: 531a 713f ed5b 723f f401 603f 1617 6f3f
00000350: ce05 923d 477f 823a baec edbd 0270 0d3d
00000360: df67 8e3f b98b 843f 36e6 8d3f fe70 8e3f
00000370: 6723 08bd 762d e6bd 2a54 1abe b214 a0bc
00000380: 5158 3d3e f5d3 613e 3c7e 6a3e d224 3c3e
00000390: 3cb8 4dbf 1676 53bf 6f67 4fbf d14c 51bf
000003a0: 54f8 913f 892c 773f ca04 773f ccb9 8a3f
000003b0: 6a8f 93be 404d 72be 51a3 96be 9a0d 87be
000003c0: 2b8c 05bd 0779 ccbc 430e 1bbe 4c94 3a3d
000003d0: 7b33 673f bdda 703f 8e2b 3f3f 0b02 573f
000003e0: 2299 5e3f 3f9d 6c3f ebcf 6f3f 5af1 3c3f
000003f0: fa86 3abf 4a60 48bf 33f1 60bf 85b1 5abf
-0.02831891 -0.10532189 -0.11351535 -0.03307188 -0.9350047 -1.0023593 -0.98924863 -0.8146142
-0.9464104 -0.8620697 -0.8550967 -0.93751925 -0.25150624 -0.07613732 -0.10499438 -0.19263335
0.8922116 0.9647295 0.8862856 1.0272685 -0.08987559 -0.036743216 -0.039379265 -0.16180335
0.9395864 0.9619963 1.0320195 0.9024739 -0.23585585 -0.14819793 -0.20888771 -0.14673606
0.2385356 0.18532279 0.22168915 0.1423552 -0.91957325 -1.0294658 -0.9625051 -0.9806764
0.8110798 1.0067252 0.9775739 1.0536671 -0.16202913 -0.21696097 -0.051960327 -0.15024462
-0.22082323 -0.07819182 -0.21192689 -0.04374749 0.859472 0.8347286 0.8288574 0.9673853
0.9144232 0.9092921 0.83517057 0.91743267 -0.07626004 -0.18973781 -0.10183573 -0.8106427
0.30189493 0.39503404 0.3068439 0.43981588 -0.631333 -0.7887745 -0.73369974 -0.63617027
-0.6734982 -0.7708188 -0.755829 -0.6312 0.72861356 0.7749488 0.75801116 0.7512145
0.7890746 0.62412465 0.58554125 0.6998853 0.47977728 0.2509443 0.2771675 0.34646308
0.42080474 0.28698972 0.29796675 0.40801787 0.43234175 0.29008958 0.44482473 0.35413352
-0.68989295 -0.5862973 -0.6712345 -0.6384053 -0.6654753 -0.58279574 -0.76604474 -0.7232848
0.2783208 0.46197295 0.40991202 0.4223327 0.7441127 0.64374757 0.7410523 0.5802989
0.40297472 0.35206947 0.24945211 0.32030654 0.68381757 0.81813985 0.5959913 0.7905723
0.7872394 0.760666 0.77821344 0.78265893 0.44166377 0.47997788 0.33122852 0.38568607
0.018746784 0.08643096 0.123227 -0.03884073 -0.77623296 -0.63169485 -0.67958677 -0.6915392
-0.7577971 -0.8331607 -0.662152 -0.7345597 -0.1176685 -0.18457852 -0.24007744 -0.11473989
0.70343894 0.69871885 0.7693865 0.70972884 -0.034119174 -0.05888972 0.07541679 0.12461631
0.9379568 0.98105276 0.90473294 1.0551393 -0.119331054 2.9322991e-05 -0.066796295 -0.04709915
0.2300782 0.15771505 0.23852593 0.09473356 -0.79851943 -0.7301359 -0.63935566 -0.6865979
1.0242589 0.8394766 0.8546921 0.86918825 -0.24900126 -0.09871201 -0.19147755 -0.18265554
0.004139513 -0.06126831 0.038727295 0.05865823 0.84281677 0.81380343 0.77877814 0.6321364
0.7600429 0.7987841 0.7590262 0.7530793 0.032696877 0.048838962 -0.10799217 -0.09950951
-0.15859735 0.05295732 -0.106813036 -0.08078642 -0.8604703 -0.9405696 -0.7606088 -0.75529796
-0.79107976 -0.75330985 -0.8637031 -0.87453693 -0.19141203 -0.13174675 -0.16606842 -0.12413557
0.9418079 0.9467152 0.8750298 0.933946 0.071300134 0.0009956144 -0.11617418 0.034530647
1.1125449 1.035514 1.108588 1.1128232 -0.033236887 -0.1123914 -0.15071169 -0.019541118
0.18490721 0.22053511 0.22899717 0.18373421 -0.80359244 -0.8260206 -0.810172 -0.8175784
1.1403909 0.9655233 0.9649168 1.0837951 -0.28820354 -0.23662281 -0.29421476 -0.26377565
-0.032604378 -0.024960054 -0.15142159 0.045551583 0.9031293 0.9408377 0.74675834 0.8398749
0.8695241 0.9242744 0.9367663 0.73805773 -0.7286221 -0.78271925 -0.8786804 -0.85427123

bias f4 [32]
00000000: 18ae 65bf 1dce d0be bfc7 74bf b204 73bf
00000010: f585 6b3e e626 5abf 19b1 63bf 384b 823e
00000020: 2289 7ebf 1f40 5bbf 0060 83be 5a4b 0d3d
00000030: 6cca b6bd b002 63bf ba18 cebe 7b9c 65bf
00000040: c761 183f e67b 9dbf 16ca 5bbf baa7 6ebf
00000050: 07bd 20bf 9beb 67bf 1bc2 1dbf 240b 71bf
00000060: c086 80bf 2225 ddbe 6fb0 66bf 3111 73bf
00000070: 8286 80bf 0b46 013e 5797 273f 6734 af3e
-0.8971877 -0.40782252 -0.9561729 -0.9492904 0.2300032 -0.85215604 -0.88942105 0.25448012
-0.99428 -0.85644716 -0.2565918 0.03449569 -0.08925328 -0.88675976 -0.4025324 -0.89691895
0.59524196 -1.2303436 -0.85855234 -0.9322468 -0.6278843 -0.9059388 -0.61624306 -0.94157624
-1.0041122 -0.43192393 -0.90112966 -0.94948107 -1.0041049 0.12624376 0.654653 0.34219667

weight f4 [32, 32, 2, 2]
00000000: a209 eb3d 52fa 043e 491c a43d 7336 3b3d
00000010: bbc5 cc3e 5c18 be3e b2b5 d43e 895e d73e
00000020: 164f a03c 2440 b03d 058e e03c c9a4 603c
00000030: 622d ae3c fa33 873d 52db 9ebd c4ee 12bd
00000040: 2538 3ebd 360b b4bd 8beb 11be bddc 30be
00000050: b316 16bf 0c60 15bf a65c 1cbf 2ba4 39bf
00000060: 1ff5 8fbe 58f7 97be 2ee9 72be 2713 74be
00000070: 28bf 6bbe b7a5 6bbe 17b4 e2bd 1937 5bbe
00000080: 121f 6a3b 205e 3fbd 6b4c c73d 5594 b83d
00000090: b251 f83e 0864 fb3d 4faa e63e 9552 493e
000000a0: 88c2 92be d1bd 72be b2a2 88be c8cf bfbe
000000b0: 37e4 4cbe b613 71be 0732 9dbe 4596 3dbe
000000c0: 5ecd e0bc 17ed c0bd 5ff5 73bd 5824 f9bd
000000d0: 6329 22be 9f16 e4bd 85f1 dbbd bd92 52bd
000000e0: e5ef a03e 7007 d23e f215 e63e b253 a43e
000000f0: ead8 41be b89b 65be 9421 88be e51d 73be
00000100: bb51 23bf 420e 28bf cee6 2ebf cc20 4abf
00000110: 733a ab3d 4551 30bd 2771 f63b edae 9d3d
00000120: b070 dbbe 6faa acbe 45fd 96bd fc31 efbd
00000130: 729b 4fbe 9024 c3bd 7080 25be 6f68 f8bd
00000140: c1f8 d83e 5fef a43e 0ee1 903e 2d29 cb3e
00000150: 40d2 ae3d 6fbc 8f3d e4e9 b53d 9e40 7ebc
00000160: 7af0 08be 9d81 1cbe 9b82 59be f753 91be
00000170: eac1 903d a23b 143e 0e5d 023d 3368 5f3d
00000180: edf6 6b3e 5430 b83d da44 273e 2658 5e3e
00000190: 7f95 57be fa99 aebe 994a 6cbe f580 a0be
000001a0: 9770 aebc 2c12 f2bc 7212 553d 39d6 43bd
000001b0: 100d 79bd ebb1 ccbd 4d5c fbbc 173d 0bbd
000001c0: aede 203d 583d 7d3d 8327 2f3d e5d9 a9bc
000001d0: 82ff 4dbd 4b73 c0bc 7127 83bd 3ccd 61bd
000001e0: bb1e f23d 1637 d83c 5f2b 013d 1e91 143e
000001f0: a05a 00be c438 c33c f164 f1bd 6663 0bbd
00000200: acde 903d 5c75 893c 2c64 463d d3fe 193e
00000210: 9b77 9c3e 6317 ba3e 8bb2 df3e 4606 a93e
00000220: 9d9a 80bd 1fff b23d 16cb b63d a7a0 87bd
00000230: 9773 d43c d3b7 50bd 7833 b03c 61ec 4d3d
00000240: 10c6 1bbe 02aa 50be 5fa3 c2bd 0565 59be
00000250: 9c5e 2fbf b92e 19bf f407 12bf 3af1 28bf
00000260: ff23 44be 7ccb 62be b404 7ebe 19cb 3fbe
00000270: 2749 1fbe d326 02be 6599 e4bd 5e96 8dbd
00000280: 41f6 93bc 96cb edbb 0128 8a3b e078 b6bb
00000290: c15d a43e 6b90 203e a6f9 aa3e 371b 513e
000002a0: ff3d babe 8fd2 71be cf4d 93be 7988 63be
000002b0: b63e 23be 133b 9bbe 1456 7ebe db52 21be
000002c0: 79cc 02bd ff1e 10be ddba ccbd d987 91bd
000002d0: 7382 6fbe 20dd b5bd d4db 3abe adde 4cbe
000002e0: 1a1c cf3e f155 9e3e 9fe7 d73e 631e 953e
000002f0: a82e 95be d087 4dbe a705 56be c500 12be
00000300: f609 4abf 8665 3bbf 61fc 29bf aca6 3abf
00000310: bc43 423d d498 ab3d 317e 0f3d 2d44 883d
00000320: e5b5 b3be acb6 d9be 4e8d 0ebe 35b9 e6bd
00000330: b067 6dbe 5396 ddbd 21d9 f7bd bfc1 14be
00000340: cce3 bd3e f57f c73e 0607 cd3e da41 b93e
00000350: f7ef 9c3c ed5e 6c3c f83c 02bd 90c6 9f3d
00000360: c651 53be 6b22 6cbe 72ff 00be 1dd6 8cbe
00000370: 9372 a53d fef0 083e 7c92 e33d 8f1c b53d
00000380: f4d1 543e 10b1 ce3d 5dbf 943d 3595 913d
00000390: b2a3 85be 27e8 afbe 7f51 7ebe 3b16 b7be
000003a0: ab15 983d 1852 113d 63fb 6b3d 9152 afbd
000003b0: cc3b 82bd 077a f9bd f30c fdbd 506b 97bd
000003c0: a17c 5bbc 6d51 113d 795b 243d f079 323d
000003d0: 02ab a6bd 8c3b 71bd 853a 80bc d47f 8abc
000003e0: 0008 8f3d 0f1e 083e 8c50 6b3d 9dbd e03d
000003f0: 1fdf bd3c e364 07be 1623 073d 84cd 8dbd
0.11476447 0.12986115 0.080132075 0.045706224 0.39994606 0.3712796 0.41544873 0.42064312
0.019568961 0.08605984 0.02741147 0.013711163 0.021261875 0.066017106 -0.07756676 -0.035872236
-0.046440262 -0.08791201 -0.14250009 -0.17271705 -0.58628386 -0.5834968 -0.6107887 -0.72516125
-0.281167 -0.29680896 -0.23721763 -0.23835431 -0.23022139 -0.23012434 -0.11069506 -0.21407737
0.0035724086 -0.046720624 0.097313724 0.09012667 0.4849983 0.12274939 0.4505181 0.19660409
-0.2866404 -0.23705222 -0.26686627 -0.37463212 -0.20008932 -0.23542675 -0.3070223 -0.18514355
-0.027441677 -0.09420221 -0.059560176 -0.12165135 -0.158361 -0.11137127 -0.107394256 -0.05140947
0.31433025 0.410213 0.44938618 0.32095104 -0.18930402 -0.22422683 -0.26588118 -0.23741873
-0.63796586 -0.65646756 -0.6832093 -0.78956294 0.08360758 -0.043046255 0.007520813 0.0769938
-0.4285941 -0.3372378 -0.07372526 -0.11679456 -0.20274141 -0.09528458 -0.16162276 -0.12129294
0.42377284 0.32213876 0.28296703 0.39679852 0.08536196 0.07018363 0.08882502 -0.015518336
-0.13372985 -0.15283819 -0.21241228 -0.28384373 0.07068236 0.14475873 0.031827025 0.05454273
0.23043413 0.08993593 0.16334859 0.21713313 -0.21053122 -0.3410185 -0.23075332 -0.31348386
-0.021293921 -0.02954968 0.052019544 -0.04781172 -0.060803473 -0.09994873 -0.03068366 -0.033993807
0.039274864 0.06182608 0.04276229 -0.020733783 -0.0502925 -0.023492476 -0.06404007 -0.055127367
0.118222676 0.026393455 0.031535503 0.14508483 -0.1253457 0.023830779 -0.11786831 -0.03403034
0.07073721 0.016779594 0.048435375 0.15038614 0.30560002 0.36345968 0.43690905 0.330126
-0.0627949 0.08740067 0.08925454 -0.06622439 0.025934024 -0.05095656 0.021508917 0.050274257
-0.15212274 -0.20377353 -0.09503817 -0.21229942 -0.6850374 -0.5983692 -0.57043386 -0.6599308
-0.19154356 -0.22147936 -0.24806482 -0.1872982 -0.15555249 -0.12710123 -0.1116207 -0.06913446
-0.018061759 -0.0072569354 0.0042161946 -0.0055686086 0.3210278 0.15680091 0.33393592 0.20420538
-0.36375424 -0.23615478 -0.287703 -0.22220029 -0.15941891 -0.30318508 -0.24837524 -0.15754263
-0.03193328 -0.14074324 -0.09996579 -0.07105989 -0.23389606 -0.08880067 -0.1824792 -0.20006819
0.40451127 0.30924943 0.421689 0.29124746 -0.29137158 -0.2007134 -0.20900594 -0.14258106
-0.7892145 -0.7320179 -0.66400725 -0.7291057 0.047427878 0.08378759 0.035032455 0.066536285
-0.35099712 -0.4252218 -0.13921091 -0.11265794 -0.23184085 -0.10819688 -0.12101961 -0.14527033
0.37087858 0.3896481 0.4004442 0.36183053 0.019157393 0.014426929 -0.031796426 0.07801545
-0.20636663 -0.23060004 -0.12597445 -0.27507105 0.08078494 0.13373181 0.11111924 0.08843338
0.20783216 0.10092366 0.07263062 0.07108537 -0.26101452 -0.34356806 -0.24835776 -0.35759148
0.07426008 0.03547868 0.057612788 -0.0856067 -0.063590616 -0.12181478 -0.123559855 -0.07393515
-0.013396413 0.035478044 0.040126298 0.04357332 -0.08138086 -0.05889468 -0.015652904 -0.016906656
0.06983948 0.13292716 0.057449862 0.10973666 0.023177681 -0.13222079 0.032992445 -0.069239646

bias f4 [32]
00000000: 61fe 803d 2ae1 213d 39ef b2be f3e0 bd3e
00000010: 5b61 a33f bed4 57bf 4736 cb3c 8884 a9bf
00000020: 9ed6 77bf 066f c5bf 3394 5dbe 0259 93be
00000030: c3fc d9be 7d15 d73e 3c8c a5bf ae6e 9dbf
00000040: 7e74 a33f a527 51bf 1a50 5e3e b31b abbf
00000050: 2e70 eebe 1c66 a23f bcd1 a7bf 7197 a03f
00000060: ae30 1b3e b8f5 783e f5f3 213e e8f8 78bf
00000070: e401 94bf 07d0 edbe 2d3a 973f b2e3 9fbf
0.06298519 0.039521374 -0.34948137 0.37085685 1.2764086 -0.84308994 0.024806155 -1.324357
-0.96811855 -1.5424507 -0.21638565 -0.28778845 -0.42575654 0.42008582 -1.2933421 -1.2299402
1.2769926 -0.8170112 0.21710244 -1.3367828 -0.4656996 1.2687411 -1.3110881 1.2546216
0.15155289 0.24312484 0.15815718 -0.972548 -1.1563077 -0.46447775 1.1814629 -1.2491362

weight f4 [64, 32, 2, 2]
00000000: 9af6 ea3e 921d e83e aa0e dd3e f2c7 e63e
00000010: 3ff5 bd3e dd06 f63e a557 c93e 0f66 093f
00000020: 7684 0a3f 74da 093f ae2e d93e 37df f73e
00000030: daac bcbe 38e6 ebbe f5c4 01bf eb33 01bf
00000040: 6344 0dbf a4b7 09bf de9c 05bf 0a45 f9be
00000050: e767 c4be c932 85be a3c7 96be f29c d4be
00000060: 086b fb3e 4404 c23e 8d00 083f fd45 d73e
00000070: a299 f53e a840 023f 68e5 fe3e 7a9e f43e
00000080: 5a33 babe 98d2 edbe a1b4 fabe 62cc f1be
00000090: 7c2a 0c3f bfb3 da3e 9936 093f 06a6 cd3e
000000a0: acb9 d93e 39b9 013f 7214 bf3e 777a f73e
000000b0: d230 f8be b876 08bf e534 e3be 55f6 f0be
000000c0: 9a11 cf3e 0070 ce3e 59a0 c63e 008d 093f
000000d0: 8971 e8be 0e86 09bf 1aa9 cdbe b00c f4be
000000e0: 62ea 163f 084c 0d3f f70b 003f cc97 003f
000000f0: f83b ce3e 4619 f53e 3c6f d73e 08d0 d43e
00000100: e3e4 d9be 5b99 c5be aed5 fbbe 7627 c7be
00000110: 7e13 18bf 160c 26bf 1f18 1abf c474 11bf
00000120: 40e9 c0be dbbf bcbe d60b 09bf d2f5 bebe
00000130: ff18 eb3e cf83 023f 0a42 0d3f 3565 e43e
00000140: 6738 00bf 66ae d0be 6c34 c0be e0a7 f4be
00000150: fdc0 cabe d195 e8be 2b77 03bf 73ec d0be
00000160: 232f ee3e 2fbc e73e 811b 0c3f cba8 fb3e
00000170: ca04 06bf b393 cabe 8217 09bf 61ab 05bf
00000180: 9854 cfbe 1bb5 d4be f537 e9be 580d 01bf
00000190: 8f27 073f 3c68 023f 78cc db3e 4ad8 c03e
000001a0: e504 f8be 011a e1be 393f e6be 7e72 f7be
000001b0: fbd0 22bf 5013 f4be 16b7 23bf d4e3 0ebf
000001c0: 5707 ff3e 3ae5 fa3e 1914 fc3e 4dc1 123f
000001d0: 081d c1be 8d4d eabe 7dbf ecbe b308 c7be
000001e0: 12b0 08bf 884b eebe 7bf5 10bf 64ed d0be
000001f0: efdb 003f b500 c83e 43ba d43e e023 fa3e
00000200: 5c1b 083f 996e 023f eafe 073f d4f8 fd3e
00000210: 1fd2 083f 46ca 083f 0ae7 0a3f c6eb f43e
00000220: 1b31 233f 917c 233f 1f51 103f ff70 113f
00000230: de08 00bf b034 24bf b74e 10bf 4e2a 09bf
00000240: ecdd 03bf 18bf 1ebf 88d5 1ebf 73ef 17bf
00000250: 6194 243f 847f f53e 0791 1e3f 9bed 1d3f
00000260: b4b8 213f 35d2 ff3e e92f 073f 29f9 113f
00000270: 04af f23e 25fa 103f c84f 023f c69e 013f
00000280: a466 03bf 24f0 05bf 579e 24bf 4c0d f8be
00000290: cbb3 173f 7bed 013f 1b20 fe3e 8d99 f33e
000002a0: 8ea5 043f 5fd2 fc3e fe7f 1e3f b290 203f
000002b0: 526a 0cbf 08b1 14bf 7dfe 1dbf 6a72 02bf
000002c0: adf2 093f 46bb fd3e ad9f 123f bbb9 1e3f
000002d0: 56a1 00bf 7f44 21bf ad69 20bf 7b2b 13bf
000002e0: 8ec2 fa3e 3b2b 103f 9c8b f43e cb8e 0f3f
000002f0: 8bca 1d3f a464 173f 3019 113f fe1f fa3e
00000300: ac13 0bbf c126 febe 2464 03bf 2d23 19bf
00000310: ff22 1c3f a4fa 0f3f c8a9 023f b6ea 193f
00000320: b17e 0dbf 1f51 24bf 691f 10bf a760 f7be
00000330: 3942 243f 60db 023f 6c03 f13e 1995 123f
00000340: a089 efbe 4675 21bf 4b14 f7be 58be 15bf
00000350: f8a3 0fbf c6ad 04bf fd0a 00bf 5222 02bf
00000360: 105c 0b3f 047b 133f 7cd7 f13e ed9b 073f
00000370: eddc 0bbf 60b8 01bf b59f fcbe fedf 09bf
00000380: 3345 09bf ab19 07bf c932 15bf 3b76 00bf
00000390: 3083 043f 4bd1 223f 46cd 133f c46e f43e
000003a0: 5e39 22bf 3ca9 1fbf 9cfc 07bf 1bac 1bbf
000003b0: cc4c 233f a758 f33e 5dda 233f d514 083f
000003c0: fee8 123f 9cda 163f bae7 1e3f 5118 ff3e
000003d0: de88 f0be fa64 07bf a503 fcbe 7817 0dbf
000003e0: b06d 1bbf 3bf3 05bf 6e8b 04bf 4d48 07bf
000003f0: a8e9 063f 50b8 193f 93b4 f33e ec24 f73e
0.45891267 0.4533506 0.4317525 0.4507442 0.3710117 0.4805211 0.3932468 0.53671354
0.5410837 0.5384896 0.42418426 0.48412487 -0.36850625 -0.4607408 -0.5069116 -0.50469846
-0.55182475 -0.5379584 -0.52192485 -0.48685485 -0.3836052 -0.26015308 -0.29449186 -0.4152599
0.49105096 0.3789388 0.5312584 0.42045584 0.47968775 0.5087991 0.49784398 0.47777158
-0.36367303 -0.46449733 -0.48965934 -0.47226244 0.54752326 0.4271526 0.53598934 0.40165728
0.4252447 0.5067325 0.37320286 0.4833562 -0.48474747 -0.5330615 -0.44376293 -0.47062936
0.40443116 0.40319824 0.3879421 0.53730774 -0.4539912 -0.53720176 -0.40168077 -0.4766593
0.5895139 0.5519414 0.50018257 0.50231624 0.40280128 0.47870845 0.42077053 0.41564965
-0.4255744 -0.38593563 -0.49186462 -0.38897294 -0.5940474 -0.6486219 -0.60193056 -0.56818795
-0.37677956 -0.36865124 -0.53533685 -0.3729692 0.45917508 0.50982374 0.5517889 0.44608465
-0.50086063 -0.40758055 -0.37539995 -0.47784328 -0.39600363 -0.454268 -0.5135371 -0.40805396
0.46520337 0.4526076 0.5472947 0.49152216 -0.5235106 -0.3956581 -0.53551495 -0.5221463
-0.40494227 -0.41544423 -0.45550504 -0.50410986 0.52794737 0.509403 0.42929435 0.37665015
-0.48441234 -0.43965152 -0.4497011 -0.48329538 -0.6360013 -0.47670984 -0.6395124 -0.5581639
0.49810287 0.4900301 0.49234083 0.57326204 -0.37717462 -0.45762292 -0.46239844 -0.38873824
-0.5339366 -0.46542 -0.56624573 -0.40806115 0.5033559 0.3906304 0.41548356 0.48855495
0.5316675 0.5095001 0.53123343 0.49603903 0.5344562 0.53433645 0.5425879 0.4783613
0.63746804 0.6386195 0.5637378 0.56813043 -0.5001353 -0.64142895 -0.5637011 -0.53580177
-0.515105 -0.62010336 -0.6204457 -0.59349746 0.6428891 0.4794885 0.61940044 0.6169068
0.6317246 0.49965063 0.5280748 0.57020813 0.4739915 0.5663169 0.50902987 0.50632894
-0.5132849 -0.5231955 -0.6430411 -0.48447645 0.5925872 0.5075299 0.4963387 0.47578087
0.51815116 0.4937925 0.6191405 0.6272079 -0.5484973 -0.5808263 -0.61716443 -0.5095583
0.5388592 0.4955694 0.57274896 0.6200215 -0.5024618 -0.6299514 -0.6266125 -0.5748822
0.48976558 0.56315964 0.47762764 0.5607726 0.6163718 0.5913794 0.5667906 0.48852533
-0.5432689 -0.49638942 -0.5132468 -0.598193 0.609909 0.5624182 0.51040316 0.60123765
-0.5527144 -0.6418628 -0.5629793 -0.48315927 0.6416355 0.5111599 0.47072923 0.57258755
-0.46784687 -0.6306957 -0.4825767 -0.58493567 -0.5610957 -0.5182766 -0.50016767 -0.5083362
0.5443735 0.5760958 0.47234714 0.529723 -0.5463398 -0.5067196 -0.49340597 -0.5385741
-0.53621215 -0.5277354 -0.58280617 -0.50180405 0.51762676 0.63600606 0.577351 0.47740757
-0.63368785 -0.62367606 -0.53119826 -0.6080949 0.6378906 0.47528574 0.6400507 0.5315679
0.5738677 0.5892732 0.62072337 0.4982324 -0.4697942 -0.52888453 -0.4922153 -0.55113935
-0.60714245 -0.52324265 -0.5177525 -0.528447 0.5270028 0.60046864 0.47598705 0.48270357

bias f4 [64]
00000000: 5d7e 24bf 0e38 1cbf 6b41 29bf cb46 78bf
00000010: 2a49 0fbf c4e1 24bf 4067 48bf 9c06 16bf
00000020: 0f64 2abf caf0 20bf 1c37 3abf 3060 2dbf
00000030: 8614 18bf d7a2 1abf f353 76bf e777 a7be
00000040: 37c7 83bf eb2d 3ebf 89e7 0abf 301b 1dbf
00000050: 61a2 13bf 1660 13bf 83bc 83bf de52 0ebf
00000060: bec6 86bf ddc2 2fbf 82f8 17bf a5d3 1abf
00000070: 9e5c 35bf c133 3dbf 1c61 7ebf ff6c 2fbf
00000080: b0f9 20bf e48d 56bf 7814 13bf 141b 30bf
00000090: f644 35bf 150b 83bf 4beb 28bf 9f03 16bf
000000a0: 34fd 26bf 39e9 19bf 1e52 16bf 75af 23bf
000000b0: 934c 2bbf 61b2 74bf fa19 19bf 5c88 7fbf
000000c0: 752d cfbe 3f63 28bf f9dd 39bf 249a 2abf
000000d0: 49bd 2cbf 8fb7 16bf d2ff 78bf dbec 7bbf
000000e0: a1b6 11bf 42ed 28bf b322 1fbf e45d 81bf
000000f0: ec1f 23bf 1539 1cbf 51f0 35bf 5439 1ebf
-0.64255315 -0.6102303 -0.66115445 -0.9698302 -0.55971014 -0.6440699 -0.78282547 -0.58603835
-0.6655893 -0.62867415 -0.7274034 -0.67724895 -0.59406316 -0.60404724 -0.96221846 -0.32708666
-1.029517 -0.74288815 -0.54259545 -0.6136961 -0.57669646 -0.5756849 -1.0291904 -0.55595195
-1.0529401 -0.6865671 -0.5936357 -0.60479194 -0.7084445 -0.73907095 -0.9936693 -0.6852569
-0.6288099 -0.8381026 -0.5745311 -0.6879132 -0.7080835 -1.0237757 -0.6598403 -0.58599275
-0.6523011 -0.60121495 -0.5871905 -0.639396 -0.6691372 -0.95584685 -0.5980526 -0.9981744
-0.40464368 -0.6577644 -0.7260433 -0.6664145 -0.67476326 -0.5887384 -0.9726535 -0.9840829
-0.56919295 -0.65987027 -0.6216232 -1.0106778 -0.63720584 -0.610246 -0.7106982 -0.61806226

weight f4 [64, 64, 2, 2]
00000000: 7566 d83e bb1d d73e b86c e03e 3177 ea3e
00000010: 2e15 1cbf b413 14bf 5c2f 08bf 6487 1abf
00000020: 8a45 27bf b5d0 2fbf dbb8 20bf d802 2cbf
00000030: 4482 f6be 093c e0be 37ff f8be ad85 c5be
00000040: 026a 0ebf 3194 00bf 3c34 02bf 1f64 1bbf
00000050: 0e91 0cbf 7133 11bf 2b76 03bf 5897 1cbf
00000060: 5223 00bf 3c9d d8be d77d cebe fe46 f1be
00000070: fdbc 17bf ef66 0ebf 18ed 16bf 8804 12bf
00000080: dfdc 1ebf 881b 26bf 90f2 13bf aa0a 27bf
00000090: e5df 0abf 5cb5 0fbf a53c 17bf 06c9 1abf
000000a0: 0d62 783e 9e7e 6c3e 2296 083e 3c9e 713e
000000b0: 224b f33e 75f7 df3e f9e2 eb3e 5002 073f
000000c0: 3411 17bf 515f 0fbf 8a55 0fbf 887d 07bf
000000d0: c137 02bf 8319 1bbf b63f 17bf f892 17bf
000000e0: 6b40 d5be 670a e1be 0b05 d9be d44d c5be
000000f0: b50f 0ebf 5522 03bf bb6f 0cbf 2701 fdbe
00000100: 205a cebe 8f1e c4be e43a debe 78f0 edbe
00000110: edb4 e13e fd85 d83e a9f6 fd3e 47fe e13e
00000120: 2f90 19bf 0ff8 1cbf 6f23 1bbf c9fd 05bf
00000130: 4e34 c53e b054 ba3e df42 e73e e9c2 da3e
00000140: e3b9 823e e4c9 533e 9303 803e df6c 453e
00000150: 8e13 05bf 6d54 f8be e469 03bf 8a84 f5be
00000160: a67c e5be c6de e1be 5a79 ccbe a6ec d2be
00000170: fc73 1bbf 1efe 09bf 6f71 12bf aeca 16bf
00000180: 4d99 bbbe 75b8 d2be 1a00 b3be 6d8d cfbe
00000190: 9f8b e43e 7398 cf3e 94b2 023f 6fdc dd3e
000001a0: cbb0 14bf c89c 10bf a0d2 fdbe 606d 11bf
000001b0: 2c4f e73e 642d ed3e f926 e33e b7b1 bc3e
000001c0: 67bf 043f 926c 083f 6ec2 003f b9b5 073f
000001d0: 6aa3 fe3e cab7 eb3e 74b3 023f 2662 e13e
000001e0: 341e edbe cbca bebe dc65 c0be 16be d6be
000001f0: 1675 f33e e3c0 e93e 7409 043f 6be9 033f
00000200: e2fb 1ebf 7b26 15bf fd4e 1bbf 197c 18bf
00000210: f216 8bbe 9e79 8bbe 1953 94be ee84 88be
00000220: dc2e 1ebf 93f5 1ebf 1e11 25bf 2cb9 15bf
00000230: 6332 cc3e 0f74 e53e 98f9 e83e b49b fd3e
00000240: db31 cc3e b97b d63e f99b e03e 4b7d 043f
00000250: 3326 bfbe 06a3 d2be cbd2 f4be 21ad d1be
00000260: 15c2 15bf 56ed 1fbf 0a3e 2dbf 1ac4 14bf
00000270: b08b 07bf ccea 0cbf a96c 08bf 69f7 00bf
00000280: 5c42 d4be e3bd d5be 177d 06bf 0f10 01bf
00000290: 0f5f 16bf 9c29 16bf f69e 15bf 98d2 0cbf
000002a0: 44cd 0fbf 3c66 0fbf 436a 0abf e36b 15bf
000002b0: 6c6a f63e 0d40 d13e 89ab e13e 13ea ef3e
000002c0: 7831 0fbf d6b4 0fbf be48 12bf c711 28bf
000002d0: 3f46 e4be da0c c0be 5554 c0be 1a57 f6be
000002e0: 8b47 0abf 8783 15bf 43b9 16bf b206 03bf
000002f0: 16f7 dabe 2be9 ddbe 75b3 f3be e097 edbe
00000300: f3ea 0bbf 1d9c 03bf 9879 10bf 0889 16bf
00000310: 168d dc3e 2cd4 f53e b017 ee3e c394 fe3e
00000320: 4d6b 37be 12c8 01be 9c2b 1bbe 6edd d5bd
00000330: f9ba 203d cf4c ae3d 144e 953d 2959 a63c
00000340: d8f0 17bf c44c 18bf 3677 11bf 4465 27bf
00000350: 06fe 15bf 9c3d 0ebf 7c37 14bf 4565 06bf
00000360: 4103 f6be 7873 d0be 67ed d1be 19d6 e2be
00000370: 0c66 c5be 0000 eebe 2d84 d3be ddeb cabe
00000380: b142 13bf 849f 13bf 93a3 23bf ab73 1abf
00000390: c125 29bf df7a 31bf 3a70 3bbf c56a 26bf
000003a0: b24e 2ebf 3c0f 2bbf b48e 17bf f15a 16bf
000003b0: 7b2c d6be 3c88 fcbe 6d1a fcbe 4564 d0be
000003c0: 02bd 02bf 46da 18bf 3653 10bf 37b9 1bbf
000003d0: c26a f7be ea01 f8be 9342 fbbe 8ae1 dbbe
000003e0: b06a e03e 4945 cf3e daca df3e a96f f73e
000003f0: dc0e 10bf e3e0 29bf 7b18 2cbf 39fe 28bf
0.4226567 0.4201487 0.43832946 0.4579406 -0.6096982 -0.57842565 -0.53197265 -0.6036284
-0.65340483 -0.68677837 -0.6278207 -0.6719184 -0.4814626 -0.43795803 -0.48632213 -0.3857855
-0.55630505 -0.5022612 -0.50860953 -0.6069965 -0.54908836 -0.5671912 -0.51352185 -0.6116843
-0.50053895 -0.4230746 -0.40330383 -0.47124475 -0.5927275 -0.55625814 -0.58955526 -0.57038164
-0.6205577 -0.6488576 -0.57791996 -0.6525065 -0.54247886 -0.5613611 -0.5907691 -0.6046299
0.24256153 0.23095176 0.13338521 0.23595518 0.4751826 0.43743482 0.46071604 0.52737904
-0.59010625 -0.56004816 -0.559899 -0.5292592 -0.50866324 -0.605858 -0.5908159 -0.5920863
-0.4165071 -0.4395325 -0.4238666 -0.3853594 -0.5549272 -0.5122426 -0.5485799 -0.49414942
-0.40303135 -0.38304564 -0.43404305 -0.46472526 0.44083348 0.42289725 0.4960225 0.4413931
-0.5998563 -0.6131601 -0.6060094 -0.5234037 0.38516468 0.36392736 0.45168206 0.4272683
0.25532445 0.20682484 0.25002727 0.19279812 -0.51982963 -0.48501912 -0.5133345 -0.47952682
-0.44821662 -0.44115275 -0.39936334 -0.41196173 -0.60723853 -0.5390338 -0.57204336 -0.58903015
-0.36640397 -0.41156355 -0.34961015 -0.40537587 0.44637772 0.40545997 0.5105374 0.4333224
-0.58082265 -0.5648923 -0.49574757 -0.5680752 0.4517759 0.46323693 0.4436567 0.36854336
0.51854557 0.53290665 0.50296676 0.5301166 0.4973405 0.46038657 0.51055074 0.44020194
-0.46312106 -0.37264094 -0.37577713 -0.419419 0.47550267 0.45654973 0.51576924 0.5152804
-0.6210309 -0.5826184 -0.606674 -0.5956436 -0.27165943 -0.27241224 -0.28969648 -0.26663917
-0.6179025 -0.62093467 -0.64479244 -0.58485675 0.39882192 0.44815108 0.45502925 0.49532855
0.39881787 0.41891268 0.43868998 0.5175368 -0.3733383 -0.41140002 -0.47817072 -0.409524
-0.5849927 -0.6247152 -0.6767279 -0.5811173 -0.5294752 -0.5504577 -0.532908 -0.5037752
-0.41456878 -0.41746435 -0.5253462 -0.5041513 -0.587388 -0.5865724 -0.5844568 -0.5500884
-0.56172585 -0.5601537 -0.5406839 -0.5836775 0.48128068 0.4086918 0.44076183 0.46858272
-0.5593486 -0.5613531 -0.57142246 -0.65652126 -0.44584844 -0.37509805 -0.3756434 -0.48113328
-0.54015416 -0.5840382 -0.58876437 -0.5118209 -0.42766637 -0.43341956 -0.47597852 -0.46404934
-0.5465538 -0.51410085 -0.5643554 -0.58802843 0.4307639 0.48013437 0.46502447 0.4972287
-0.17912026 -0.12673977 -0.15153354 -0.10442625 0.03924081 0.08510744 0.07290283 0.020306187
-0.59351873 -0.59492135 -0.56822526 -0.65388894 -0.58590734 -0.5556276 -0.5789716 -0.52498275
-0.48049358 -0.40713096 -0.41001436 -0.4430397 -0.38554418 -0.46484375 -0.4131178 -0.39633074
-0.5752364 -0.57665277 -0.6392147 -0.60332745 -0.6607323 -0.6932811 -0.7321812 -0.6500667
-0.6808883 -0.6682012 -0.5920212 -0.58732516 -0.4183081 -0.4932269 -0.4923891 -0.407015
-0.51069653 -0.5970806 -0.5637697 -0.6082949 -0.48323637 -0.4843896 -0.4907423 -0.4294551
0.43831396 0.40482548 0.4370945 0.48327377 -0.56272674 -0.66358775 -0.67224854 -0.66012913

bias f4 [64]
00000000: 387e 9d3e 714f b73e 336f 923e da19 54be
00000010: 4c63 80be 78c6 a9be 87ec 7ebe d1e2 c2be
00000020: ac9c a43e 4ba4 743e 0158 a73e 19d2 89be
00000030: 4c59 9dbe c4e5 49be 5cd0 843e 6c08 933e
00000040: f133 f83e bf1e 6f3e d862 013f 9d48 8abe
00000050: f036 25be 3d04 073f 8a01 49be 1418 103f
00000060: e267 6dbe 12cf 61be b44e 4a3e 9078 cdbe
00000070: 1022 8fbe eda9 553e 8f10 903e 2fd8 abbe
00000080: 8733 5d3e d24b 4d3e 7336 863e 3ff0 91be
00000090: ef23 803e 7cfc bebe c079 1c3e 10a4 76be
000000a0: 6916 a1be 8e6b 7cbe ade1 7c3e 1295 683e
000000b0: db2e 6c3e 1096 443e fbe8 863e ace2 1cbe
000000c0: 6a91 5fbe a2ae 5ebe eccb 3dbe 1bd1 b63e
000000d0: 793d 95be 6812 643e 25b5 ac3e 3f9c 113e
000000e0: 02f4 b8be 6fff 87be 1df3 37be b46e af3e
000000f0: c01b 813e 4c29 91be a5eb 4c3e 796f c2be
0.3076036 0.35802796 0.28600463 -0.20712987 -0.25075758 -0.33159232 -0.24894916 -0.38063672
0.3215078 0.23890798 0.3268433 -0.26918104 -0.3073219 -0.19716555 0.25940216 0.28717363
0.48477128 0.23351572 0.5054145 -0.27008525 -0.16134238 0.5274084 -0.19629493 0.5628674
-0.2318416 -0.22051647 0.19756585 -0.40131044 -0.27955675 0.20865603 0.28137633 -0.33563372
0.21601687 0.20048454 0.26213416 -0.28503606 0.25027415 -0.37302005 0.15280819 -0.24086022
-0.3146241 -0.24650404 0.24695463 0.22713116 0.23064749 0.1919787 0.26349625 -0.15320843
-0.21832815 -0.21746305 -0.18534821 0.3570641 -0.29148462 0.22272646 0.33731952 0.1421976
-0.36123663 -0.26562068 -0.17963834 0.34264147 0.25216484 -0.2835182 0.20011766 -0.37975672

weight f4 [64, 32, 2, 2]
00000000: 82ac 97bd 35f7 0cbe 6623 61bd 8081 dabd
00000010: 4539 ce3e 7046 c73e 1359 c43e 3189 c53e
00000020: 3703 0ebe 3047 4abe d76b f2bd c805 babb
00000030: a1fb 39be 9daa b9be fe03 f5be 14f7 babe
00000040: 09aa 1a3e 8674 fd3c c1f8 e53c 23d2 463e
00000050: ec63 413d f97a cf3d 2587 813e b5cd c33d
00000060: dbcb 0e3e 8d1e 8b3d bc07 643e 4a50 943d
00000070: 9cc5 2ebc bf20 8ebd 0025 14be 89ab debd
00000080: d2df 6dbb 424d 513e f6a0 043e 7199 253e
00000090: 4b84 86be 9b43 e9be bbb1 efbe 06d3 0cbf
000000a0: 5aa4 5fbe 79dd 84be edc6 6fbc 8f0d 81bd
000000b0: f0af 07be fe6a 06be cccb f2bd 6a4a 25be
000000c0: e1d7 0dbd ee03 26be a892 fdbb d083 81bb
000000d0: 1517 06bf 7136 cebe dfea bcbe ee60 b3be
000000e0: b987 0e3e df2a 273e 7ec6 863c 2245 493d
000000f0: 5f72 933d d3db 3a3e 5c86 483d cea8 0c3e
00000100: 51cb 263e 82a4 b83d 1be2 243e 0e5b 1e3e
00000110: 751c f8be ef64 fdbe 2a0c 00bf 2d14 a7be
00000120: 4b2a b5bc ef4b 1d3e 89b5 673d 0cd2 e73d
00000130: 3baf e13c e85d 8bbd 2783 4abe 24cc c73c
00000140: 3d5f 34be 045a 0abd 668e f0bd d419 01be
00000150: 7847 42bd fd5e 97bd 1228 0b3c 2750 b23c
00000160: 779b e3be 7f98 babe 02c5 efbe 3914 02bf
00000170: 0008 9c3b 7f2b ee3d e3e1 b53d 5e97 023e
00000180: 5001 a43e 33af ae3e a9bc a23e 44fa a13e
00000190: 5e03 c93e 87ef 683e 9883 b63e 033a eb3e
000001a0: a39d a6be 4ca5 69be 3aa1 c6be 61e5 fabe
000001b0: d2d9 e4be 9cda dbbe 6e48 04bf 4f5f f6be
000001c0: c4e7 5fbe d40c 36be feca a2bd e532 adbd
000001d0: a997 a23e 7064 c43e 4b22 c23e 4bdc 2a3e
000001e0: 3841 4abd 2ecf 73be 1ce7 1cbe 6771 a5be
000001f0: 8822 05be b205 04be a004 a73c 12a1 70bd
00000200: 84ab 62be 287b 4bbe 10f0 29be 2d94 83be
00000210: 4487 853e 5895 be3e 8c59 813e 0b94 873e
00000220: 8694 0dbe 7d71 8fbe 3990 d0bd 490e 40be
00000230: 9e14 34be 1aa1 94be b3ab 94be b1d9 d0be
00000240: 9880 aa3d a79f 523e 670c 103e f3f8 3d3e
00000250: d019 7a3d cb48 d43d d2dd 613e f2db 1f3e
00000260: fb56 2c3d 7c33 0e3e 6161 2a3e cf05 4e3d
00000270: b8b5 0abd 2c75 01bd 4d6e a3bd bac2 b5bd
00000280: 00b2 3abc fd38 6d3e db2e a03d d36d 343e
00000290: 02c1 8dbe 4047 b6be 830e d3be bc9f e0be
000002a0: 1122 9cbe 836f 87be ebef 49ba 9811 2fbe
000002b0: fabd 99bd 789b 0fbe 031e 5abe be14 15be
000002c0: 89c6 1abd 5830 dcbd 45dc 4abd ada0 a7bd
000002d0: fa7c a9be 6f68 e7be f81e c6be 5690 a6be
000002e0: 33b7 733d d0b0 5b3e b6b8 2a3e 6410 603e
000002f0: 2bf2 493e 6000 6d3e cfc2 7e3e 6b70 fa3d
00000300: 6078 a43d 06b6 463e d195 353e b31e 413e
00000310: 9188 c7be a328 c6be 5c7e e5be ec0c 8ebe
00000320: 559f 26bd d9f8 483e a630 23bd eb9a 6c3e
00000330: c509 2dbe c6e4 e7bd 4228 31be 7113 7cbd
00000340: ecd0 d9bd 80c8 46be f351 37be 5e42 b1bd
00000350: e98f 3ebe 6ed4 f0bd a4b7 2bbe 8983 29be
00000360: f9c1 bcbe 15c0 9bbe 0e27 e0be b09d f0be
00000370: fb78 043e e485 113e e238 a23d 5d88 cc3d
00000380: 74c0 953e 0610 c63e ef8f cb3e 44fe 9b3e
00000390: 4bd1 533e f147 f73d 18f4 cd3e de7f b13e
000003a0: 9323 b3be a800 98be 861e d1be 62d4 96be
000003b0: 09d0 f1be 5e70 d5be d7d4 c2be 8997 c6be
000003c0: 7e91 a2be 637b 83be af2d 04be 0617 99bd
000003d0: 558c b83e a854 713e 4901 ca3e e100 b43d
000003e0: b430 1dbe 9ea0 b1be 4198 69be 7597 6abe
000003f0: a266 54be b09a 92bd 5fd8 ccbd edcb 38be
-0.0740595 -0.13766177 -0.0549654 -0.106692314 0.40278068 0.38920927 0.38349208 0.3858123
-0.13868414 -0.19753718 -0.11836975 -0.0056769587 -0.18162395 -0.3626298 -0.47854608 -0.3651663
0.15103926 0.030939352 0.028072717 0.19416098 0.047214434 0.10130877 0.2529842 0.0956072
0.13944952 0.067929365 0.22268575 0.072418764 -0.010667231 -0.069398396 -0.1446724 -0.108725615
-0.0036296737 0.20439628 0.12952027 0.16171815 -0.26272807 -0.4555939 -0.46815285 -0.55009496
-0.21840039 -0.2595022 -0.01463483 -0.06301414 -0.13250709 -0.13126752 -0.118552774 -0.16141668
-0.034629706 -0.16212437 -0.00773843 -0.003952481 -0.5237897 -0.4027591 -0.36897942 -0.3503489
0.13918962 0.16324948 0.01645207 0.049138196 0.07199549 0.18247919 0.04895626 0.13736269
0.16288497 0.090157524 0.16101877 0.15464422 -0.4845921 -0.4949107 -0.5001856 -0.3263258
-0.022114893 0.15360998 0.05656961 0.1131936 0.027549377 -0.068050206 -0.19776593 0.024389334
-0.17614456 -0.03377725 -0.1174591 -0.12607509 -0.04743144 -0.073911645 0.00849344 0.021766735
-0.44454548 -0.3644447 -0.46829993 -0.5081211 0.004761696 0.1162939 0.08880975 0.12753054
0.3203225 0.3411804 0.3178456 0.3163625 0.3926038 0.22747622 0.35647273 0.45942697
-0.32542142 -0.22816962 -0.3879488 -0.49003127 -0.44697434 -0.42940223 -0.5167302 -0.4811959
-0.21865755 -0.17778331 -0.07948874 -0.08456973 0.31756333 0.38357878 0.37916788 0.16685598
-0.049378604 -0.23809502 -0.15322536 -0.32313082 -0.13001454 -0.12892798 0.020387948 -0.05874736
-0.2213574 -0.19871199 -0.16595483 -0.25698987 0.26079762 0.37223315 0.2526363 0.26480135
-0.13826188 -0.28016272 -0.10183758 -0.1875545 -0.1758599 -0.2902916 -0.29037246 -0.40791085
0.083253086 0.20568715 0.14067231 0.18551998 0.061059773 0.10365447 0.22057274 0.15611246
0.04207514 0.13886827 0.1663871 0.05029851 -0.033864707 -0.031605884 -0.079800226 -0.08875032
-0.011394978 0.2316627 0.07821437 0.1762002 -0.27686316 -0.35601234 -0.4122201 -0.43871868
-0.3049474 -0.26452264 -0.0007703292 -0.17096555 -0.07506938 -0.1402415 -0.21300511 -0.14558694
-0.037786994 -0.10751408 -0.04952647 -0.08184943 -0.33103162 -0.45196864 -0.38695502 -0.32531995
0.059500884 0.21454167 0.16672024 0.21881253 0.19721286 0.23144674 0.24879001 0.12228473
0.08030772 0.19405374 0.17732932 0.18859367 -0.3897138 -0.38702878 -0.44822967 -0.27744234
-0.040679295 0.19626178 -0.039841317 0.23105972 -0.16898258 -0.11322932 -0.17300513 -0.06154198
-0.10635552 -0.19412422 -0.17902355 -0.08655237 -0.18609585 -0.11759268 -0.16769272 -0.16554083
-0.3686674 -0.30419984 -0.43779796 -0.46995306 0.12936775 0.14211231 0.07921006 0.09986947
0.29248393 0.386841 0.3975825 0.30467427 0.20685308 0.120742686 0.4022529 0.34667867
-0.34988078 -0.29688 -0.408436 -0.2945891 -0.4722903 -0.41687292 -0.3805301 -0.38787487
-0.31751627 -0.25680074 -0.12908052 -0.074750945 0.36044565 0.2356745 0.39454105 0.0878923
-0.1535061 -0.34692854 -0.22811987 -0.22909339 -0.20742276 -0.071584105 -0.10002207 -0.18046542

bias f4 [32]
00000000: cf0c 9dbf c624 0ebf 2189 6bbf 5b14 f03e
00000010: b90a bb3f c1b6 493f 60c0 643f 891b 8abf
00000020: 4489 803f 4f9f 6b3f d4f1 82bf 3464 86bf
00000030: 0a7b 69bf ff5b 873f 208e 8a3f 11dd 9e3f
00000040: 1d61 a53f 697a 803f 7539 4e3f 43d6 7cbf
00000050: 2db9 90bf 2494 9fbf eba4 813f 5ba9 aa3f
00000060: a651 debe bdc4 71bf f6c1 da3e 749a 6e3f
00000070: e455 8cbf c42d d9be 4975 84bf 67cf 89bf
-1.2269534 -0.5552486 -0.9200612 0.4689053 1.4612647 0.78794485 0.8935604 -1.0789653
1.004189 0.9203996 -1.023005 -1.049933 -0.9120337 1.057495 1.0824623 1.2411214
1.2920262 1.0037357 0.8055642 -0.9876444 -1.1306511 -1.2467084 1.0128454 1.3332933
-0.43421668 -0.94440824 0.42726105 0.93204427 -1.0963712 -0.4241773 -1.0348293 -1.0766419
