output/train_14_12_23_part-2/unet_tgs_salt.pth (torch, 247127 bytes, 26 tensors)

weight f4 [16, 3, 2, 2]
0.24486956 -0.22786093 -0.12313502 -0.0068902276 -0.15587363 -0.22941092 -0.007908736 0.2255553
0.08554839 -0.26860124 0.11010398 0.14427556 0.1338343 0.09356533 -0.20260671 -0.28982154
-0.05194583 -0.19691655 0.13011931 0.15853684 0.19674416 -0.17297196 -0.035490666 -0.22820538
-0.22894259 0.12311258 -0.12995648 0.1670262 -0.19060445 -0.095186196 -0.04825005 -0.09751507
-0.12745778 0.06347745 -0.31739292 0.24523251 0.22076353 -0.021940751 -0.33874902 -0.017333992
0.11112825 -0.14608593 0.10555709 -0.14260532 -0.041405622 0.036435623 -0.13231097 -0.21130319
-0.04095013 -0.030947533 -0.021326648 0.09904744 0.070219755 -0.09957596 -0.015622173 -0.43377337
-0.13818856 0.05502947 0.014850377 0.1899851 -0.5328011 -0.09060799 -0.34422085 -0.29306298
-0.46675912 -0.31364062 -0.3188282 -0.56173193 0.23580573 0.28184783 0.025976036 0.2071469
-0.22714964 -0.15713266 0.07151194 -0.25031915 -0.2985327 -0.5593307 -0.19731551 -0.36150384
0.025471589 -0.3090641 -0.29703724 -0.18998066 0.28917992 -0.013338987 0.3154765 0.1209146
-0.5184783 -0.23961203 -0.16317515 -0.6063427 -0.46245793 -0.48209488 -0.12479155 -0.4815375
-0.19382924 -0.2240108 -0.22799444 -0.5059498 -0.46417633 -0.40735522 -0.6329157 -0.5086133
-0.41424733 -0.016417636 -0.152018 -0.45861137 0.118057005 0.1418312 0.018953996 -0.36297432
-0.34461582 -0.42951626 0.07937636 -0.1213504 -0.1755425 -0.15466963 -0.29641813 -0.12893246
-0.44607142 -0.41826746 -0.2785047 -0.17271885 0.102326505 -0.43113258 0.10636541 -0.42642683
0.42532605 0.24721776 0.029187078 0.010674659 -0.041912224 -0.0038875747 -0.21163322 0.016846525
0.24753316 -0.26523674 -0.24042617 0.069986776 -0.037180506 -0.10667514 -0.074577846 0.07338294
-0.29664433 -0.17889203 -0.21042222 0.106073074 -0.27255958 -0.20940343 -0.30205795 -0.16821824
-0.25138018 -0.15059204 -0.38680178 0.06328297 -0.3150963 -0.24493524 0.08723116 -0.40022424
-0.31665662 0.111000545 -0.104920894 -0.100976504 0.08440804 -0.074534334 -0.14176896 -0.28236783
0.010923846 -0.30939236 -0.2620555 0.13814764 0.23093691 -0.31180358 0.19237933 0.049501617
-0.25811496 0.2360754 -0.17490222 0.0036459812 0.06298641 -0.058700964 -0.34321302 -0.27666983
-0.3636758 -0.22384106 0.13852392 -0.12884706 0.014607254 -0.07620477 0.065368846 0.11219592
00000000: 16bf 7a3e 6054 69be 372e fcbd 6bc7 e1bb
00000010: 569d 1fbe b2ea 6abe a593 01bc f8f7 663e
00000020: ff33 af3d 1a86 89be 327e e13d f9bc 133e
00000030: dc0b 093e 2e9f bf3d 2278 4fbe 7d63 94be
00000040: 27c5 54bd 7ea4 49be ff3d 053e 7b57 223e
00000050: 4d77 493e 901f 31be a95e 11bd acae 69be
00000060: ed6f 6abe 7322 fc3d 5013 05be eb08 2b3e
00000070: d02d 43be fbf0 c2bd d8a1 45bd fbb5 c7bd
00000080: 4b84 02be 7700 823d 5381 a2be 3b1e 7b3e
00000090: d60f 623e 17bd b3bc 8370 adbe 0400 8ebc
000000a0: 3597 e33d 8d97 15be 512e d83d 2107 12be
000000b0: f198 29bd 853d 153d 877c 07be dd5f 58be
000000c0: 53bb 27bd ae85 fdbc 39b5 aebc 62d9 ca3d
000000d0: 60cf 8f3d 7bee cbbd 25f4 7fbc 8b17 debe
000000e0: 4d81 0dbe 9566 613d ff4e 733c 748b 423e
000000f0: a765 08bf af90 b9bd b73d b0be 5a0c 96be
00000100: 0dfb eebe 8195 a0be 733d a3be aacd 0fbf
00000110: 0f77 713e 5c4e 903e b2cb d43c 511e 543e
00000120: ea99 68be 62e7 20be da74 923d d529 80be
00000130: 47d9 98be 4c30 0fbf 140d 4abe 0817 b9be
00000140: cba9 d03c a63d 9ebe 4415 98be 4a8a 42be
00000150: 640f 943e c48b 5abc 2386 a13e 13a2 f73d
00000160: feba 04bf db5c 75be 6317 27be 4639 1bbf
00000170: 49c7 ecbe 24d5 f6be b692 ffbd 158c f6be
00000180: 2c7b 46be 1663 65be 6077 69be ed85 01bf
00000190: 85a8 edbe dd90 d0be c306 22bf 7b34 02bf
000001a0: 3a18 d4be 477e 86bc 9baa 1bbe 1ccf eabe
000001b0: dfc7 f13d 333c 113e 6945 9b3c c5d7 b9be
000001c0: 7c71 b0be 8ee9 dbbe 1390 a23d 8f86 f8bd
000001d0: 6ac1 33be b761 1ebe 1ec4 97be df06 04be
000001e0: 7963 e4be 2727 d6be 2b98 8ebe 36dd 30be
000001f0: 8f90 d13d 69bd dcbe 1cd6 d93d 9e54 dabe
00000200: 56c4 d93e a726 7d3e bd19 ef3c c4e4 2e3c
00000210: 27ac 2bbd aec6 7ebb 61b6 58be b901 8a3c
00000220: 5579 7d3e 1ccd 87be 4732 76be 3a55 8f3d
00000230: 964a 18bd 7f78 dabd 45bc 98bd cb49 963d
00000240: c4e1 97be 792f 37be ec78 57be d73c d93d
00000250: ee8c 8bbe da6d 56be 57a7 9abe 6741 2cbe
00000260: e7b4 80be cd34 1abe e20a c6be 809a 813d
00000270: 4d54 a1be 4ed0 7abe 40a6 b23d 31ea ccbe
00000280: d120 a2be 4154 e33d c4e0 d6bd c5cc cebd
00000290: 1fde ac3d 75a5 98bd e22b 11be 8492 90be
000002a0: eef9 323c ad68 9ebe 232c 86be 9376 0d3e
000002b0: ba7a 6c3e b8a4 9fbe 16ff 443e 35c2 4a3d
000002c0: a527 84be c0bd 713e 9119 33be 6af1 6e3b
000002d0: 05ff 803d 6c70 70bd 9eb9 afbe aba7 8dbe
000002e0: b733 babe 9736 65be 37d9 0d3e 7cf0 03be
000002f0: 4453 6f3c 3f11 9cbd 1ae0 853d f9c6 e53d

bias f4 [16]
-0.16661207 -0.0544656 -0.08079148 -0.3066858 -0.4857117 -0.08083496 -0.13168555 -0.19520172
-0.045011062 -0.19024643 -0.17163798 -0.10502412 0.004773839 0.08789322 -0.10292476 -0.018159885
00000000: 5b9c 2abe 5217 5fbd 0176 a5bd ec05 9dbe
00000010: 34af f8be cd8c a5bd 94d8 06be f6e2 47be
00000020: 855d 38bd f6cf 42be dec1 2fbe e316 d7bd
00000030: dd6d 9c3b 5c01 b43d 37ca d2bd 0ac4 94bc

weight f4 [16, 16, 2, 2]
-0.0790742 -0.06682306 -0.013529639 0.12947413 0.07324814 0.0015559504 0.041790318 0.142269
0.029034877 0.023159077 0.007549777 -0.02572951 0.07217248 -0.006695437 0.053882405 0.13813719
0.14726599 0.21996084 0.1751766 0.30998746 0.005243293 0.081666306 0.13073009 -0.008480962
0.07547452 0.26312572 0.11467651 0.17115338 -0.41409913 -0.4625344 -0.4908572 -0.49179524
0.38572648 0.4841116 0.5704641 0.5015981 0.16116072 -0.00016135123 0.20512685 -0.017902754
0.23472504 0.24370767 0.10940109 0.29361194 -0.12068629 -0.078023925 -0.027322069 0.085665315
-0.10783466 -0.004913686 -0.035241574 0.076890044 0.08494251 -0.034839947 0.008342678 0.08777795
-0.049157716 -0.048281364 0.018801859 -0.073937826 0.045904092 0.055248193 -0.0019144674 -0.14978777
-0.046166826 0.017999614 0.101216674 0.105305456 -0.0022769712 0.09061913 -0.059434522 -0.09967694
0.058637444 0.065891154 0.021891164 0.15708953 0.10255558 -0.110090055 -0.04048966 0.0995378
0.0069195367 0.11360469 0.21906418 0.20641002 0.24453244 0.27729192 0.31107038 0.34610575
0.13272019 0.17542472 -0.003117967 0.14852338 0.5728807 0.47886643 0.6093069 0.44059435
0.18555738 0.13191238 0.34516358 0.13273457 -0.09333496 -0.028804952 -0.25809917 -0.049961183
0.121717006 0.2939725 0.16869737 0.1359847 0.025079891 0.00522919 -0.009429842 -0.057191193
-0.051756177 0.13196555 -0.003923037 0.13110393 0.018420773 0.05886182 -0.09055959 -0.11039272
0.07911522 -0.010812323 -0.054075945 0.09571085 0.05706948 0.112782486 -0.01461418 -0.016082246
0.03725658 0.013676571 0.054380734 0.062773876 -0.07276229 -0.14141777 0.024441173 -0.085291356
-0.003119328 -0.11744483 0.08012617 -0.07932954 -0.057004936 0.06850417 -0.14300662 0.018109258
0.17748111 0.13897063 0.08593627 0.0876811 -0.1298805 0.06588973 0.07213372 0.057395745
-0.122970395 0.027718982 -0.16981514 -0.13252977 0.41582322 0.27029982 0.20983306 0.39910588
0.0970462 0.04983881 -0.003509294 -0.012419511 -0.109211616 -0.11272378 -0.049220357 -0.05267052
0.0011539253 -0.11797309 -0.0071502686 -0.14228068 0.022204474 0.014135465 0.04106544 0.12026037
-0.116477616 0.07357512 -0.15977623 0.072490156 0.16940483 0.07598809 0.059333105 0.13977112
-0.17292678 0.05579779 -0.04449392 -0.12809314 -0.04340853 -0.0024758682 0.10722553 0.1177361
-0.15987137 0.014306535 -0.14172608 0.057524934 -0.15797329 0.025585096 -0.084936075 -0.16849501
-0.1358876 0.09153719 -0.0453887 0.012185539 0.0017068204 -0.16069108 0.05219401 -0.13852629
0.15178846 0.29188234 0.26249808 0.22742844 0.14331 0.12790322 0.14258623 0.22796588
-0.12109122 -0.1720768 0.007596885 -0.043369625 0.333891 0.30316713 0.19720796 0.27296004
0.07878731 0.025356427 -0.09126832 0.046272967 -0.117526606 0.011894961 -0.05459044 -0.06882986
0.14678337 0.17854479 0.03329652 0.1719908 0.07382792 0.084385276 -0.10642953 -0.10791503
-0.02008439 -0.01488584 -0.14996865 0.022656647 0.06763352 0.09822922 0.032270566 0.15738374
-0.12930603 0.0052953097 -0.048349082 -0.07007227 -0.042649906 0.12086544 -0.05206555 -0.062973216
00000000: a7f1 a1bd 87da 88bd 6bab 5dbc de94 043e
00000010: 1f03 963d 08f1 cb3a 532c 2b3d f7ae 113e
00000020: 8dda ed3c 1bb8 bd3c 1f64 f73b b1c6 d2bc
00000030: 2acf 933d 6565 dbbb ccb3 5c3d d673 0d3e
00000040: e5cc 163e 6a3d 613e 7f61 333e adb6 9e3e
00000050: eecf ab3b aa40 a73d 1cde 053e bcf3 0abc
00000060: 6392 9a3d 6ab8 863e 85db ea3d d542 2f3e
00000070: cd04 d4be 4fd1 ecbe a351 fbbe 96cc fbbe
00000080: f17d c53e 7add f73e ef09 123f bc68 003f
00000090: 5107 253e 6430 29b9 c60c 523e cca8 92bc
000000a0: c35b 703e 818e 793e ae0d e03d 4e54 963e
000000b0: 602a f7bd 02cb 9fbd 88d2 dfbc 4c71 af3d
000000c0: 6bd8 dcbd fc02 a1bb 7859 10bd 8778 9d3d
000000d0: 57f6 ad3d 55b4 0ebd baaf 083c edc4 b33d
000000e0: 9a59 49bd aec2 45bd 5b06 9a3c b76c 97bd
000000f0: ee05 3c3d ee4b 623d deee faba f761 19be
00000100: 6d19 3dbd ed73 933c b04a cf3d 63aa d73d
00000110: 3d39 15bb 8696 b93d 9d71 73bd 6c23 ccbd
00000120: d12d 703d f1f1 863d 1955 b33c 14dc 203e
00000130: a908 d23d e576 e1bd 7cd8 25bd 79da cb3d
00000140: 48bd e23b 93a9 e83d 5c52 603e 265d 533e
00000150: b666 7a3e 35f9 8d3e 9e44 9f3e c634 b13e
00000160: cde7 073e 8aa2 333e ce56 4cbb 8316 183e
00000170: 4fa8 123f fb2d f53e 89fb 1b3f 9595 e13e
00000180: c102 3e3e 0a14 073e 48b9 b03e 92eb 073e
00000190: 6626 bfbd 5df8 ebbc 9325 84be 19a4 4cbd
000001a0: c446 f93d 9083 963e 01bf 2c3e 933f 0b3e
000001b0: 5874 cd3c a059 ab3b a07f 1abc 5041 6abd
000001c0: 49fe 53bd fa21 073e d28c 80bb 1c40 063e
000001d0: 29e7 963c 1719 713d 4e77 b9bd 9415 e2bd
000001e0: 2907 a23d 2b26 31bc bd7e 5dbd 0d04 c43d
000001f0: b0c1 693d 81fa e63d 5070 6fbc eabe 83bc
00000200: 5b9a 183d b213 603c 55be 5e3d 978f 803d
00000210: 6504 95bd d2cf 10be db38 c83c 3cad aebd
00000220: a46d 4cbb ea86 f0bd 3019 a43d 8777 a2bd
00000230: 027e 69bd ea4b 8c3d 5470 12be de59 943c
00000240: 9cbd 353e 514e 0e3e 5bff af3d 2692 b33d
00000250: 65ff 04be 32f1 863d d8ba 933d cd17 6b3d
00000260: e7d7 fbbd eb12 e33c 05e4 2dbe e2b5 07be
00000270: c8e6 d43e bd64 8a3e 7ade 563e 9b57 cc3e
00000280: 28c0 c63d c823 4c3d 2ffc 65bb 347b 4bbc
00000290: 57aa dfbd badb e6bd 499b 49bd 0bbd 57bd
000002a0: 4f3f 973a e09b f1bd cd4c eabb 07b2 11be
000002b0: 28e6 b53c 7098 673c 3c34 283d 124b f63d
000002c0: d18b eebd 8dae 963d 619c 23be b875 943d
000002d0: 7678 2d3e a59f 9b3d 4507 733d 2920 0f3e
000002e0: b813 31be 398c 643d 423f 36bd d92a 03be
000002f0: 25cd 31bd 2d42 22bb 0f99 db3d a01f f13d
00000300: 52b5 23be f565 6a3c a420 11be 449f 6b3d
00000310: c0c3 21be d697 d13c f7f2 adbd f589 2cbe
00000320: 1e26 0bbe da77 bb3d 80e9 39bd dba5 473c
00000330: 64b7 df3a 348c 24be 63c9 553d d6d9 0dbe
00000340: 6f6e 1b3e 9a71 953e 2666 863e 00e3 683e
00000350: dbbf 123e 10f9 023e 2002 123e e36f 693e
00000360: acfe f7bd e734 30be 4aef f83b 59a4 31bd
00000370: c3f3 aa3e b938 9b3e e2f0 493e 6bc1 8b3e
00000380: 3e5b a13d 48b8 cf3c e3ea babd b988 3d3d
00000390: cab1 f0bd 15e3 423c 3a9a 5fbd abf6 8cbd
000003a0: 614e 163e 72d4 363e ef61 083d 5b1e 303e
000003b0: 1833 973d 30d2 ac3d baf7 d9bd 8e02 ddbd
000003c0: 0588 a4bc bde3 73bc 6291 19be 6f9a b93c
000003d0: 7183 8a3d 672c c93d 242e 043d 3429 213e
000003e0: cd68 04be 4784 ad3b b009 46bd 0d82 8fbd
000003f0: abb1 2ebd 4d88 f73d b042 55bd 1af8 80bd

bias f4 [16]
0.1584195 -0.18949227 -0.03594658 -0.0135264555 0.09514997 0.12675387 0.049214046 -0.07184471
0.24841392 0.22301644 0.33113858 -0.5240916 0.074312806 0.040036373 0.17826584 0.42581213
00000000: b938 223e 430a 42be b93c 13bd 119e 5dbc
00000010: fddd c23d c4cb 013e ab94 493d 5223 93bd
00000020: 3860 7e3e 6c5e 643e ff8a a93e de2a 06bf
00000030: 5031 983d 2efd 233d 528b 363e 0c04 da3e

weight f4 [32, 16, 2, 2]
0.24817991 0.14055789 0.19539717 0.14358877 -0.23125532 -0.28204003 -0.18164188 -0.11245521
-0.14490694 -0.07301412 -0.22572182 -0.1292492 -0.20314805 -0.0837093 -0.08528342 -0.1440323
0.015018169 -0.08139802 -0.09622684 0.02714499 0.24206902 0.4075539 0.2682221 0.40171584
-0.15967807 -0.050388034 -0.16043666 -0.09359229 -0.08203461 -0.19501883 -0.18439013 -0.109440535
0.08735171 0.12688023 0.13653414 0.11013263 -0.10634616 -0.12186051 -0.08213263 -0.044542503
-0.1565628 -0.052412033 -0.1798636 -0.29768226 -0.24464048 -0.24911551 -0.28914925 -0.18663618
-0.085379206 -0.089782946 -0.035331182 -0.12886527 -0.024604566 -0.20509213 -0.18660784 -0.0821039
-0.06937321 -0.07416958 -0.20210676 -0.19176978 -0.21991201 -0.17061529 -0.22091955 -0.21832928
0.08020849 0.19153172 0.1882267 0.09154296 -0.24157318 -0.20412484 -0.13382511 -0.07610757
-0.27094907 -0.20128976 -0.22911122 -0.34233165 -0.23848152 -0.2716474 -0.10969799 -0.26701736
0.1016353 0.022231128 0.054651443 0.1716971 -0.14086199 -0.12353604 -0.16238867 -0.07957534
0.19301325 0.1455826 0.08969186 0.14452507 -0.29900038 -0.090286545 -0.24723475 -0.30275002
-0.23718044 -0.13238502 -0.07565093 -0.20920727 -0.17706169 -0.39377955 -0.2422823 -0.22240482
-0.109828904 -0.1490577 -0.33520162 -0.3415076 0.00066498894 -0.06421415 0.0547813 0.036474973
-0.18211019 -0.19338185 -0.2731575 -0.11531599 -0.13737457 -0.32453117 -0.17220274 -0.25885907
-0.24414904 -0.2474593 -0.21884169 -0.23048708 -0.216606 -0.15749218 -0.25839448 -0.30265167
-0.31461683 -0.3115064 -0.30869097 -0.22071075 -0.1160887 -0.20811932 -0.006353606 -0.06294682
-0.04132328 -0.20824103 -0.21351433 -0.14253668 0.05798979 -0.1530227 0.02145138 -0.05229474
0.11321611 0.12579654 -0.005690302 -0.0020598955 -0.07882752 0.027088357 -0.023068193 -0.039347157
-0.03430284 0.15251693 -0.017041618 -0.037935685 -0.12520054 -0.08734605 -0.11697948 -0.19079484
0.120493166 0.059195124 -0.06691568 -0.037608735 0.02137179 0.15662311 -0.018105846 -0.03350053
0.108281106 0.10703872 0.09849784 0.0039644116 -0.043592107 -0.03421536 -0.2340083 -0.25831804
-0.03298656 0.037980273 -0.083198756 -0.021941455 -0.1563237 -0.07900055 -0.15378384 -0.1205037
0.0035659955 -0.00067844684 -0.046276655 0.14707343 -0.14551502 -0.16344872 -0.21849464 -0.29802233
-0.11317315 -0.12974556 0.0051549883 0.038268134 -0.13303986 -0.0072888765 0.050293576 -0.08842174
-0.085460685 -0.18252888 -0.179398 -0.01674654 -0.02595896 -0.19583018 -0.21872592 -0.1690207
-0.084362336 0.014711663 -0.012538597 -0.065965265 -0.030175848 -0.13839248 -0.084243074 -0.1308073
0.13369712 0.004098706 -0.03283152 0.15986711 -0.013417023 -0.10693594 -0.16500741 -0.032935746
-0.046013366 -0.11623283 0.06418344 -0.12094519 -0.044864662 0.10490076 0.06619056 -0.073899254
-0.07144656 0.021941794 -0.028692678 -0.041699942 -0.033940323 0.053904604 0.13146767 0.16428015
0.1771066 -0.060196865 0.016173506 0.10406459 0.0742966 0.03130635 -0.120570295 0.042386618
0.0956781 0.043537173 0.062729925 -0.03431357 -0.09669712 -0.14984077 0.011161493 -0.12947915
00000000: e022 7e3e 68ee 0f3e 3216 483e ef08 133e
00000010: 32ce 6cbe 8d67 90be 5400 3abe eb4e e6bd
00000020: 7c62 14be 6d88 95bd 9f23 67be e759 04be
00000030: 0b06 50be c86f abbd 13a9 aebd 347d 13be
00000040: c40e 763c 01b4 a6bd 9412 c5bd 2c5f de3c
00000050: f1e0 773e e8aa d03e 6854 893e b3ad cd3e
00000060: a682 23be af63 4ebd 8249 24be 51ad bfbd
00000070: c301 a8bd 04b3 47be c4d0 3cbe 5c22 e0bd
00000080: 74e5 b23d e4ec 013e 9bcf 0b3e 378d e13d
00000090: 04cc d9bd 0192 f9bd 2735 a8bd 3372 36bd
000000a0: 0052 20be 00ae 56bd 2a2e 38be cf69 98be
000000b0: 0983 7abe 2318 7fbe 5f0b 94be 8e1d 3fbe
000000c0: 4bdb aebd 1fe0 b7bd 6eb7 10bd 42f5 03be
000000d0: 848f c9bc ac03 52be 2016 3fbe 1726 a8bd
000000e0: 8b13 8ebd 39e6 97bd 13f5 4ebe 4c5f 44be
000000f0: 9d30 61be c6b5 2ebe bc38 62be b691 5fbe
00000100: 5944 a43d e420 443e 80be 403e e07a bb3d
00000110: f65e 77be 1a06 51be 7309 09be 49de 9bbd
00000120: d6b9 8abe e71e 4ebe 229c 6abe 1846 afbe
00000130: 8034 74be 5e15 8bbe 57a9 e0bd 80b6 88be
00000140: 2b26 d03d 0e1e b63c 31da 5f3d 5dd1 2f3e
00000150: 203e 10be 7700 fdbd 3749 26be 65f8 a2bd
00000160: 44a5 453e 9b13 153e 5eb0 b73d 61fe 133e
00000170: 9416 99be 27e8 b8bd 1b2b 7dbe 0d02 9bbe
00000180: 6edf 72be f08f 07be e0ee 9abd 6e3a 56be
00000190: a94f 35be 799d c9be da18 78be 17be 63be
000001a0: faed e0bd 95a2 18be 8c9f abbe 16da aebe
000001b0: a752 2e3a b582 83bd 5b62 603d c866 153d
000001c0: 187b 3abe e405 46be 4ddb 8bbe ca2a ecbd
000001d0: ebab 0cbe f328 a6be ea55 30be 2d89 84be
000001e0: 3502 7abe f965 7dbe 0918 60be ce04 6cbe
000001f0: f7cd 5dbe a145 21be 484c 84be 29f5 9abe
00000200: 7515 a1be c47d 9fbe be0c 9ebe 0002 62be
00000210: eabf edbd 3b1d 55be e931 d0bb 43ea 80bd
00000220: 9a42 29bd 233d 55be 80a3 5abe 23f5 11be
00000230: b486 6d3d fcb1 1cbe ceba af3c 0233 56bd
00000240: d9dd e73d cfd0 003e b675 babb 50ff 06bb
00000250: 5370 a1bd 67e8 dd3c 82f9 bcbc 7c2a 21bd
00000260: 2281 0cbd 662d 1c3e dd9a 8bbc 7362 1bbd
00000270: 9234 00be 7ce2 b2bd f092 efbd b95f 43be
00000280: 1fc5 f63d 9676 723d 170b 89bd 9e0b 1abd
00000290: e413 af3c cf61 203e b652 94bc da37 09bd
000002a0: 7cc2 dd3d 1e37 db3d 3cb9 c93d e5e7 813b
000002b0: a38d 32bd 6825 0cbd df9f 6fbe 4342 84be
000002c0: ea1c 07bd 3491 1b3d 1c64 aabd 91be b3bc
000002d0: 5213 20be 0acb a1bd 8379 1dbe a5ca f6bd
000002e0: 7ab3 693b ccd9 31ba 978c 3dbd 6b9a 163e
000002f0: e401 15be 1a5f 27be 0fbd 5fbe 6296 98be
00000300: 53c7 e7bd 05dc 04be 2deb a83b 0cbf 1c3d
00000310: 9a3b 08be 87d7 eebb a300 4e3d 7516 b5bd
00000320: 0306 afbd dae8 3abe 1cb4 37be 0a30 89bc
00000330: e3a7 d4bc b587 48be b0f9 5fbe c313 2dbe
00000340: 29c6 acbd 3009 713c b06e 4dbc cc18 87bd
00000350: 5733 f7bc c2b6 0dbe a287 acbd 59f2 05be
00000360: e6e7 083e 704e 863b 587a 06bd 34b4 233e
00000370: 13d3 5bbc 3b01 dbbd b4f7 28be a2e7 06bd
00000380: 8378 3cbd 7a0b eebd 9b72 833d 1db2 f7bd
00000390: 02c4 37bd 36d6 d63d eb8e 873d 7e58 97bd
000003a0: 9352 92bd 47bf b33c e80c ebbc 8fcd 2abd
000003b0: 0205 0bbd 13cb 5c3d 769f 063e 0e39 283e
000003c0: 6f5b 353e fd90 76bd 4d7e 843c d11f d53d
000003d0: d128 983d 163b 003d 8fed f6bd 979d 2d3d
000003e0: e1f2 c33d 0954 323d 8c78 803d 638c 0cbd
000003f0: 2409 c6bd dc6f 19be b2de 363c 2f96 04be

bias f4 [32]
-0.23386455 -0.24924743 -0.22735272 -0.14702049 -0.1284474 0.039241176 0.1559058 0.21315078
-0.07106158 -0.27792323 -0.34807092 0.06435495 -0.28162318 -0.14921626 -0.37839442 -0.013041603
-0.26339355 0.06537756 -0.27531007 -0.24314933 -0.30273703 -0.26321268 0.2769209 -0.3868962
-0.17689829 -0.31411716 -0.16228 -0.3972949 -0.48496374 0.40671244 -0.10472076 -0.26328024
00000000: 307a 6fbe b83a 7fbe 27cf 68be 8a8c 16be
00000010: b787 03be 5bbb 203d c5a5 1f3e 3344 5a3e
00000020: bc88 91bd f44b 8ebe 5a36 b2be 87cc 833d
00000030: ea30 90be 26cc 18be eabc c1be 73ac 55bc
00000040: 85db 86be ace4 853d 71f5 8cbe 23fc 78be
00000050: 5900 9bbe d0c3 86be 94c8 8d3e 4217 c6be
00000060: d324 35be f7d3 a0be ba2c 26be 3d6a cbbe
00000070: 2b4d f8be 9d3c d03e d677 d6bd abcc 86be

weight f4 [32, 32, 2, 2]
0.11808476 0.16437021 0.10171813 0.13463335 0.110617466 0.158062 0.22753109 0.20029956
0.098016106 0.026154622 0.066081405 0.19796036 -0.07818128 -0.04854226 -0.09588339 -0.09601563
0.18172081 0.11573892 0.18836488 0.11659883 0.16252488 0.05938489 0.068338074 0.18973663
0.19381307 0.28173375 0.24876381 0.28685462 -0.1846503 -0.2242178 -0.13837822 -0.26433134
0.027113197 -0.122266 0.00047096857 -0.120299146 0.053406104 -0.07191158 0.06169814 0.021208461
0.12848055 0.13036075 0.15862642 0.012143624 -0.06559004 -0.06490073 -0.020025272 -0.10251415
-0.13065697 -0.049960643 -0.11169559 -0.19196732 0.120445065 0.05904874 0.22039115 0.13136934
0.3526999 0.31866172 0.26558715 0.26753005 0.20681725 0.14927123 0.13323995 0.09831402
-0.11597939 -0.17367843 -0.19026089 -0.142214 0.32101285 0.26167622 0.23278004 0.32477155
0.10832575 0.24511236 0.22899966 0.09698744 -0.17706603 -0.07782628 -0.1380773 -0.11258593
0.004346608 0.010000301 0.14336759 0.011629671 0.081182435 0.007853582 -0.071337245 -0.05959737
-0.39768636 -0.37522206 -0.29792026 -0.3434586 -0.084644504 -0.090048544 -0.09765169 -0.10955473
0.19951147 0.22172724 0.15033604 0.12639944 0.1909259 0.14433546 0.065091364 0.17155732
0.08206472 0.10008967 0.22985046 0.13137767 -0.16535603 -0.1353842 -0.06997442 -0.03444724
0.10165683 0.11047325 0.15597767 0.0445871 0.029716514 -0.014190089 0.0145859895 0.04873181
0.12867908 0.0030284836 0.14175971 0.10958178 0.21819025 0.15772009 0.25588748 0.27003196
-0.110345766 -0.03404608 0.033921357 -0.03266274 0.031203132 0.07955024 0.088253744 -0.0032468988
-0.14017944 -0.16338718 -0.06078552 -0.114052184 0.0014349578 -0.09465112 0.045549456 -0.03805925
0.06938272 0.047599517 0.015960025 0.036644626 0.020951536 -0.078622326 -0.02557743 0.032097008
0.16663398 0.016134689 0.077750966 0.030380946 -0.3444396 -0.33218533 -0.31016806 -0.21832134
-0.042287692 -0.07317183 0.0061157653 -0.018961823 -0.17928863 -0.15083893 -0.21143703 -0.2746963
0.12596263 0.122656465 0.2802107 0.19360602 -0.1963387 -0.24198323 -0.24989061 -0.19012108
-0.13961948 -0.1797395 -0.16375698 -0.14450094 -0.03496043 0.10471332 0.030892337 0.066111274
0.13286397 0.25045675 0.13585393 0.11500189 -0.027575029 0.11585044 0.09841911 0.048189268
-0.22201681 -0.15484077 -0.15912604 -0.08089515 0.056174736 0.028394662 0.021843748 -0.07218027
0.09728751 0.21028735 0.12807624 0.09002054 -0.15563878 -0.055004332 -0.13491535 -0.117546625
0.15927827 0.012779277 0.10302373 0.0747038 -0.18484826 -0.21511498 -0.1785335 -0.30652744
-0.31879565 -0.25095788 -0.2877854 -0.34450918 -0.32038456 -0.29483682 -0.28097114 -0.28841788
-0.27164322 -0.28881532 -0.2970882 -0.2539909 0.10806782 0.12227715 0.17089045 0.15748312
-0.30982903 -0.20364289 -0.14357327 -0.2335628 -0.2356689 -0.25171003 -0.2821576 -0.22428495
0.022218954 0.033364505 0.087101 -0.010723323 -0.22315885 -0.29981515 -0.23216589 -0.24729827
-0.015935339 -0.03175331 0.036828812 -0.10766235 -0.23082992 -0.18919525 -0.21027361 -0.16495275
00000000: 6cd6 f13d aa50 283e 9851 d03d 53dd 093e
00000010: 698b e23d 01db 213e e9fd 683e 541b 4d3e
00000020: abbc c83d 3842 d63c b055 873d 1fb6 4a3e
00000030: 821d a0bd 40d4 46bd 835e c4bd d8a3 c4bd
00000040: 0515 3a3e 8708 ed3d b9e2 403e 5ecb ee3d
00000050: ec6c 263e 923d 733d d5f4 8b3d 524a 423e
00000060: ef76 463e 683f 903e f1bb 7e3e 9cde 923e
00000070: f814 3dbe 5a99 65be 05b3 0dbe 7056 87be
00000080: 7f1c de3c 9966 fabd 55ec f639 665f f6bd
00000090: 5cc0 5a3d 6146 93bd 30b7 7c3d 5ebd ad3c
000000a0: 6890 033e 4a7d 053e f76e 223e 0df6 463c
000000b0: 1254 86bd adea 84bd 0a0c a4bc f0f2 d1bd
000000c0: f1ca 05be 88a3 4cbd a8c0 e4bd 1593 44be
000000d0: e7ab f63d 17dd 713d 38ae 613e af85 063e
000000e0: 1595 b43e a127 a33e 0afb 873e b3f9 883e
000000f0: e7c7 533e 8fda 183e 0e70 083e dc58 c93d
00000100: 9a86 edbd c2d8 31be c0d3 42be 8ca0 11be
00000110: cc5b a43e 6dfa 853e e45d 6e3e 7548 a63e
00000120: e4d9 dd3d bcfe 7a3e e37e 6a3e 5aa1 c63d
00000130: cc50 35be 6263 9fbd 2364 0dbe 7493 e6bd
00000140: fe6d 8e3b 4dd8 233c f4ce 123e 608a 3e3c
00000150: fa42 a63d 4fac 003c 4319 92bd 5f1c 74bd
00000160: 8c9d cbbe 1b1d c0be 0189 98be ced9 afbe
00000170: 195a adbd 5f6b b8bd 9cfd c7bd 3b5e e0bd
00000180: bc4c 4c3e 770c 633e b1f1 193e db6e 013e
00000190: 1482 433e adcc 133e 9f4e 853d b9ac 2f3e
000001a0: 8c11 a83d d0fb cc3d eb5d 6b3e de87 063e
000001b0: 1753 29be 28a2 0abe c04e 8fbd 8d18 0dbd
000001c0: 7531 d03d cd3f e23d 9cb8 1f3e f7a0 363d
000001d0: 0c70 f33c 8c7d 68bc 13fa 6e3c 029b 473d
000001e0: 73c4 033e 8679 463b 7529 113e 6a6c e03d
000001f0: 446d 5f3e 6081 213e af03 833e a141 8a3e
00000200: f6fc e1bd e773 0bbd 1ff1 0a3d 5ec9 05bd
00000210: b69d ff3c 3ceb a23d 61be b43d ecc9 54bb
00000220: 338b 0fbe f84e 27be 3dfa 78bd 3194 e9bd
00000230: 3215 bc3a 72d8 c1bd 1192 3a3d 04e4 1bbd
00000240: 8718 8e3d b6f7 423d 99be 823c ad18 163d
00000250: 8ea2 ab3c be04 a1bd c287 d1bc 2778 033d
00000260: 19a2 2a3e e52c 843c e63b 9f3d 76e1 f83c
00000270: 635a b0be 3214 aabe 59ce 9ebe a18f 5fbe
00000280: dc35 2dbd 1ddb 95bd c266 c83b d355 9bbc
00000290: 7097 37be 8575 1abe f382 58be fea4 8cbe
000002a0: 59fc 003e 5033 fb3d c777 8f3e a840 463e
000002b0: 030d 49be 74ca 77be 53e3 7fbe 1aaf 42be
000002c0: 69f8 0ebe a20d 38be e9af 27be 0ef8 13be
000002d0: ab32 0fbd f073 d63d ed11 fd3c 5965 873d
000002e0: 7e0d 083e de3b 803e 4b1d 0b3e 1c86 eb3d
000002f0: 07e5 e1bc ff42 ed3d f58f c93d 1c62 453d
00000300: 6058 63be 948e 1ebe f0f1 22be 5bac a5bd
00000310: 7b17 663d ec9b e83c a9f1 b23c 40d3 93bd
00000320: ad3e c73d 9155 573e 6b26 033e b05c b83d
00000330: c65f 1fbe 394c 61bd 4027 0abe 49bc f0bd
00000340: d819 233e 2c60 513c 1bfe d23d 4efe 983d
00000350: dd48 3dbe 1a47 5cbe 7cd1 36be 2af1 9cbe
00000360: 2f39 a3be 8d7d 80be 9c58 93be 8263 b0be
00000370: 7209 a4be daf4 96be 73db 8fbe 82ab 93be
00000380: d214 8bbe 9adf 93be f21b 98be 180b 82be
00000390: a952 dd3d 716c fa3d e8fd 2e3e 4143 213e
000003a0: e9a1 9ebe c387 50be df04 13be 162b 6fbe
000003b0: 3053 71be 23e0 80be f676 90be f4aa 65be
000003c0: 8604 b63c 38a9 083d 0262 b23d e0b0 2fbc
000003d0: c183 64be 5f81 99be e5bc 6dbe c23b 7dbe
000003e0: d48a 82bc c20f 02bd cfd9 163d 147e dcbd
000003f0: ae5e 6cbe 66bc 41be f751 57be 60e9 28be

bias f4 [32]
0.18963026 -0.017983593 0.3166914 0.08087614 0.07440224 0.062052984 0.03754337 -0.31055602
-0.06706535 -0.5298108 -0.18798718 0.5219336 0.08897002 -0.50792307 0.48837003 0.101394065
-0.15575944 0.019407017 -0.081474625 -0.58737296 -0.5660558 -0.14250964 -0.7568731 -0.20523651
0.52092075 -0.112747 -0.44667113 -0.166442 -0.30996343 0.5355733 -0.29937512 -0.6278672
00000000: 6f2e 423e 5452 93bc 6025 a23e 64a2 a53d
00000010: 3460 983d 452b 7e3d 14c7 193d 3301 9fbe
00000020: 8f59 89bd aea1 07bf b67f 40be 719d 053f
00000030: ea35 b63d 3f07 02bf a30b fa3e b1a7 cf3d
00000040: 677f 1fbe 77fb 9e3c 2bdc a6bd 135e 16bf
00000050: 08e9 10bf 0cee 11be 6fc2 41bf 8529 52be
00000060: 105b 053f e6e7 e6bd 14b2 e4be c66f 2abe
00000070: 87b3 9ebe 551b 093f b247 99be e8bb 20bf

weight f4 [64, 32, 2, 2]
0.026540205 -0.085508645 -0.036659114 -0.009481555 0.033855017 0.16858448 0.096312515 0.019414358
-0.030372566 0.07560022 0.04232903 0.02738083 0.05609286 0.066775925 0.091988154 -0.01056339
0.045210056 -0.02874702 -0.0018826041 0.054569595 -0.10112645 0.0004740175 0.023487132 -0.016269805
0.022798462 -0.10205511 -0.012495365 0.02535942 0.01657441 -0.024406176 0.098358005 -0.04485968
0.1442128 0.101052314 0.02446322 0.10233402 0.039293926 0.069087 0.102581896 0.071006
0.007817587 -0.036801133 0.038200628 0.018029783 0.005545765 -0.0071478076 -0.029764187 0.043678474
-0.12542832 -0.16433074 -0.15394557 -0.09852183 -0.04469021 0.1016952 0.08408901 0.013909055
-0.03414582 0.03343868 0.017518112 -0.061553173 -0.008782205 0.06840964 0.11240672 -0.032442756
0.010110785 0.033486135 -0.0010913464 0.016884208 0.006724418 -0.07175603 -0.06523879 -0.05240299
0.09386319 0.009287866 0.04878162 0.06368919 -0.02129553 -0.026790544 0.09534197 0.08921871
0.032084186 0.09858097 0.054822754 0.11079423 -0.09422366 -0.06808094 -0.039221387 -0.00025030624
-0.00056333054 0.11346959 -0.02404053 -0.014645573 -0.10059464 -0.11427936 -0.06040698 -0.043085404
-0.09379054 -0.028426122 -0.028600909 -0.10325609 0.059858203 -0.079668626 -0.05915235 0.007977341
-0.015946629 0.07226545 0.12947027 0.041367862 -0.015208136 0.10723692 0.119615234 -0.02380891
0.0778291 0.08019628 0.015149096 -0.054654308 0.039833765 -0.029093826 -0.0887675 0.009613724
0.025462054 0.108741686 -0.05918136 0.09597293 -0.015134677 0.057456743 0.061050568 0.02818363
0.064451195 -0.004346723 0.025340937 -0.062114272 -0.03247018 -0.032802526 0.084517665 -0.011351541
-0.02457813 0.052888673 0.05238095 -0.042904273 -0.011809911 0.0034654387 0.071236365 -0.04120854
0.031224376 0.03380698 -0.04467408 0.020135457 0.08289874 0.09343539 0.012663747 -0.0053690244
-0.03842563 0.048158552 0.08330735 0.020657245 0.027131842 -0.061052147 0.015286227 -0.059487216
-0.04281898 -0.0055817924 0.06867697 -0.048275843 -0.03902227 0.09925243 0.018452311 -0.03358273
-0.028531307 -0.043581385 0.015201306 -0.058255374 0.055140655 0.015498585 -0.04805054 0.00056173606
0.008382116 -0.05840698 -0.1149809 0.0031898434 -0.047973625 0.03289098 -0.029861247 -0.057243507
-0.0862256 -0.041184466 -0.08692094 -0.011094588 0.060234603 0.03593054 0.049712285 -0.020699281
0.021714574 -0.028987065 -0.036664274 0.032289434 0.04089394 0.028101306 -0.08133874 -0.11886916
-0.025224503 0.06762335 -0.0066086105 -0.029009733 -0.015497582 0.11116744 0.10267168 -0.025112586
-0.041175347 -0.028840685 -0.039287966 0.07867085 -0.06311677 0.009643422 0.050213244 -0.004208704
0.080237865 0.04740295 0.0966088 0.12302935 0.036649883 0.058357272 -0.027097551 -0.012339105
0.055166565 0.04969318 -0.010713577 0.057475995 -0.006630626 0.029783456 0.03197895 -0.009819122
0.031042356 -0.0121029625 -0.006209669 -0.054479916 -0.061836828 0.08094294 0.056890666 0.036804166
0.10643016 0.11048527 0.07505521 -0.05037637 -0.12695943 -0.01202425 0.00786018 -0.044656653
0.007875628 0.057271786 -0.011186787 0.030208353 0.0364096 0.028418025 0.104255915 0.09764055
00000000: d86a d93c 281f afbd de27 16bd 8658 1bbc
00000010: 8fab 0a3d 69a1 2c3e 7f3f c53d dc0a 9f3c
00000020: e3cf f8bc 4ad4 9a3d 3461 2d3d c34d e03c
00000030: a0c1 653d d1c1 883d 4964 bc3d 1212 2dbc
00000040: 2e2e 393d df7e ebbc b6c1 f6ba 5e84 5f3d
00000050: 621b cfbd 8d85 f839 1668 c03c 4148 85bc
00000060: d7c3 ba3c 4502 d1bd 5cb9 4cbc 8fbe cf3c
00000070: 0fc7 873c 76ef c7bc ec6f c93d c9be 37bd
00000080: 85ac 133e 84f4 ce3d 1767 c83c 8094 d13d
00000090: abf2 203d 7c7d 8d3d 7516 d23d 986b 913d
000000a0: 5615 003c c9bc 16bd 4378 1c3d 32b3 933c
000000b0: 40b9 b53b 2838 eabb 06d4 f3bc 33e8 323d
000000c0: 4870 00be 5146 28be e8a3 1dbe d0c5 c9bd
000000d0: 150d 37bd 9345 d03d dc36 ac3d cee2 633c
000000e0: 7ddc 0bbd fff6 083d 2582 8f3c 2e1f 7cbd
000000f0: 3de3 0fbc 5a1a 8c3d 7f35 e63d b2e2 04bd
00000100: b5a7 253c c228 093d 820b 8fba c050 8a3c
00000110: 8258 dc3b d3f4 92bd ea9b 85bd 85a4 56bd
00000120: 583b c03d 222c 183c 3ccf 473d 7a6f 823d
00000130: f773 aebc d877 dbbc a742 c33d 4db8 b63d
00000140: b56a 033d d2e4 c93d d38d 603d 16e8 e23d
00000150: 56f8 c0bd 056e 8bbd 9ba6 20bd 893b 83b9
00000160: 79ac 13ba bf62 e83d a5f0 c4bc fcf3 6fbc
00000170: 9004 cebd 4c0b eabd 4f6d 77bd 527a 30bd
00000180: 4115 c0bd e6dd e8bc 744c eabc ee77 d3bd
00000190: e02d 753d 4e29 a3bd bc49 72bd 65b3 023c
000001a0: 81a2 82bc e9ff 933d db93 043e 5971 293d
000001b0: 8c2b 79bc 089f db3d d5f8 f43d e70a c3bc
000001c0: dd64 9f3d f23d a43d ea33 783c 32dd 5fbd
000001d0: bb28 233d 2d56 eebc bccb b5bd e282 1d3c
000001e0: cc95 d03c f6b3 de3d 2768 72bd 758d c43d
000001f0: 70f7 77bc c357 6b3d 2910 7a3d 5be1 e63c
00000200: fdfe 833d f56e 8ebb cc97 cf3c 896b 7ebd
00000210: 74ff 04bd f15b 06bd 9917 ad3d d0fb 39bc
00000220: 1358 c9bc cba1 583d 688d 563d 64bc 2fbd
00000230: 5b7e 41bc 6a1c 633b 5fe4 913d 49ca 28bd
00000240: 43ca ff3c 3079 0a3d 2bfc 36bd 1df3 a43c
00000250: d1c6 a93d 0e5b bf3d 9b7b 4f3c a4ee afbb
00000260: 3264 1dbd e741 453d 0b9d aa3d 6239 a93c
00000270: 9943 de3c d111 7abd 1573 7a3c dea8 73bd
00000280: f462 2fbd 78e7 b6bb 83a6 8c3d e4bc 45bd
00000290: d1d5 1fbd dc44 cb3d 4d29 973c 0b8e 09bd
000002a0: 7dba e9bc 6582 32bd e60e 793c 309d 6ebd
000002b0: 2bdb 613d c7ed 7d3c a5d0 44bd 7841 133a
000002c0: 2555 093c 283c 6fbd 1b7b ebbd b10c 513b
000002d0: fe7f 44bd b1b8 063d 939f f4bc 2b78 6abd
000002e0: 0c97 b0bd 0bb1 28bd 9b03 b2bd 13c6 35bc
000002f0: 8fb8 763d e72b 133d 1c9f 4b3d 8a91 a9bc
00000300: c3e2 b13c 4876 edbc 472d 16bd ed41 043d
00000310: 6780 273d b634 e63c ed94 a6bd ad71 f3bd
00000320: 9ea3 cebc 1c7e 8a3d 0b8d d8bb d2a5 edbc
00000330: 92e9 7dbc c1ab e33d 8845 d23d e9b8 cdbc
00000340: 7ba7 28bd 4d43 ecbc 6bec 20bd 2f1e a13d
00000350: 5d43 81bd 72ff 1d3c 67ac 4d3d 2be9 89bb
00000360: c053 a43d 9829 423d d6da c53d d0f6 fb3d
00000370: 301e 163d 0908 6f3d affb ddbc f529 4abc
00000380: 56f6 613d 138b 4b3d 0088 2fbc f36b 6b3d
00000390: b945 d9bb 6ffc f33c 5cfc 023d 62e0 20bc
000003a0: 8a4c fe3c 814b 46bc 7b7a cbbb 5526 5fbd
000003b0: 9d48 7dbd 6ac5 a53d 3006 693d f7bf 163d
000003c0: 0ef8 d93d 1a46 e23d 8cb6 993d 7457 4ebd
000003d0: a701 02be 5c01 45bc fcc7 003c e5e9 36bd
000003e0: c708 013c d295 6a3d c948 37bc 8277 f73c
000003f0: 3c22 153d ebcc e83c 2084 d53d c5f7 c73d

bias f4 [64]
0.045223337 -0.12778908 -0.092662044 -0.24553593 -0.093888246 -0.2667737 -0.25880694 -0.0007288311
0.03963315 -0.06202593 -0.14289185 -0.0966119 -0.11119416 -0.07179188 -0.05415466 -0.2173462
-0.24785016 -0.13037185 -0.20092823 -0.13816762 -0.2005673 -0.014368205 -0.2192835 -0.02896859
-0.21142226 -0.113718 -0.2589417 -0.2649825 0.058743868 -0.2791615 -0.10354629 0.06377485
-0.050655585 -0.17307493 -0.081363864 -0.07822841 -0.053305335 0.05423257 -0.18114452 -0.42334288
0.023244487 -0.19423442 -0.21444885 0.05016751 -0.26409337 0.028178751 -0.40948522 0.019287061
0.02342897 -0.16179354 -0.29930633 -0.41981927 -0.09404021 -0.18199463 -0.12226029 -0.05588677
-0.13693278 -0.026564084 -0.23070742 -0.26589763 -0.1251147 -0.22509308 -0.24644503 -0.2113735
00000000: 1b3c 393d 24db 02be 99c5 bdbd c56d 7bbe
00000010: 7b48 c0bd 9096 88be 5882 84be 070f 3fba
00000020: 5f56 223d e70e 7ebd 3e52 12be 76dc c5bd
00000030: c4b9 e3bd 9f07 93bd 47d1 5dbd 0190 5ebe
00000040: 6fcc 7dbe 3380 05be 21c0 4dbe d07b 0dbe
00000050: 8461 4dbe 9f68 6bbc db8b 60be 894f edbc
00000060: 147f 58be fce4 e8bd 0294 84be c9ab 87be
00000070: 699d 703d 42ee 8ebe 1410 d4bd 639c 823d
00000080: 3b7c 4fbd 8e3a 31be 19a2 a6bd 3736 a0bd
00000090: b256 5abd f922 5e3d f37d 39be 66c0 d8be
000000a0: 396b be3c 63e5 46be 7b98 5bbe 727c 4d3d
000000b0: 3f37 87be 20d7 e63c 0ca8 d1be e6ff 9d3c
000000c0: 1cee bf3c 35ad 25be ae3e 99be 8df2 d6be
000000d0: 2798 c0bd cd5c 3abe 9a63 fabd 87e9 64bd
000000e0: 1b38 0cbe ec9c d9bc 913e 6cbe bc23 88be
000000f0: 111e 00be cd7e 66be 165c 7cbe 4b72 58be

weight f4 [64, 64, 2, 2]
0.02372769 -0.050442904 -0.08638928 -0.06989799 -0.06307784 0.0107509345 -0.008962227 -0.030710418
-0.017425384 -0.071678415 0.0004473208 -0.03872408 -0.05247547 -0.06440441 -0.045604676 -0.026735872
-0.035027355 0.018097026 -0.021578815 0.03307417 0.055855606 -0.07850385 -0.08114594 0.29046097
-0.13751914 -0.06921141 -0.17038545 -0.1425211 0.005848243 0.036503807 0.021443153 0.0062090857
0.012784837 -0.0804881 -0.05877566 -0.07554393 0.10907225 0.12130005 0.051991306 0.011617754
-0.09411997 0.0056749964 -0.035655487 -0.041190498 0.02320555 0.10233739 0.04824123 0.04769843
-0.06176299 -0.07507486 -0.099976696 -0.05956373 -0.06139734 6.043964e-05 -0.013243475 -0.07135448
-0.0042567113 -0.019241754 -0.04400827 -0.03061301 -0.2588813 -0.18569942 -0.27004543 -0.23702864
-0.2335041 -0.21349582 -0.25379795 -0.20961076 -0.199108 -0.221706 -0.23927017 -0.18516102
0.32158083 0.34026307 0.3809221 0.30708724 -0.2053186 -0.16516922 -0.21127929 -0.18489401
-0.071002126 -0.03934003 -0.0014608367 -0.059251007 -0.04473026 -0.046614274 -0.06757675 0.008501481
-0.05656387 -0.099649645 -0.11374303 -0.015875788 -0.1008682 -0.12625314 -0.08651957 -0.05818875
0.1834963 0.19377542 0.18730523 0.15365535 -0.032874253 0.0001905017 -0.059472695 -0.009276544
-0.22992341 -0.15746185 -0.17808937 -0.23496683 -0.048669964 -0.12427465 -0.016324475 -0.10690064
0.022900878 -0.01926526 -0.030123826 -0.036044322 -0.17249258 -0.14595874 -0.104206875 -0.16147381
-0.04415119 -0.04486544 -0.041912824 0.006868993 -0.058473695 -0.052188337 -0.087920174 -0.022993317
0.0945102 0.13851954 0.15650317 0.097945735 0.31395525 0.33840188 0.43897638 0.37080112
0.09282508 0.007989279 0.024235327 0.073810324 0.0074208607 0.0078073507 -0.008630238 -0.0791046
0.14742947 0.07019258 0.17541943 0.08198982 -0.02552111 0.01979852 -0.054248396 0.0047921925
-0.11891583 -0.14076309 -0.12459262 -0.21016914 -0.083301656 -0.086455494 -0.11472727 -0.059144
-0.04210859 0.0042450787 0.030874794 -0.011809153 -0.12211976 -0.19950426 -0.18360595 -0.2059908
-0.14942001 -0.094163425 -0.13533726 -0.15261655 -0.067819506 0.011604223 -0.025021426 0.0154595
-0.26400137 -0.26373658 -0.21117152 -0.19989087 -0.043771215 -0.06325609 -0.1079024 -0.021110086
-0.075721495 -0.13662532 -0.1344903 -0.15500526 -0.010282716 -0.061240584 0.03035767 0.02858074
-0.02866648 0.017582431 0.04837082 -0.055560708 -0.03638868 -0.0910725 -0.08562215 -0.013251416
0.13658486 0.07242252 0.10650967 0.05246203 0.06846694 0.08832531 0.09499781 0.0052776034
-0.19888349 -0.20969085 -0.16899076 -0.14466119 -0.044111136 -0.07972783 -0.043329086 0.028457157
-0.11040904 -0.007520754 -0.15413204 -0.14778265 0.046137143 0.033727024 0.024449065 0.042662714
-0.08231763 0.012515348 0.008773258 -0.002519983 -0.14985864 -0.18937801 -0.16810986 -0.12503459
-0.0716867 0.04093976 0.0019789874 0.032100696 0.15123382 0.15969324 0.14516933 0.16457123
0.06022488 -0.012737635 -0.04399314 0.027458195 -0.076444864 -0.0055531203 0.017607752 -0.07748108
-0.22417077 -0.21559899 -0.19566183 -0.22389181 0.08378962 0.09156325 0.117759496 0.1299948
00000000: 9360 c23c 389d 4ebd ddec b0bd ad26 8fbd
00000010: f42e 81bd b024 303c 4ed6 12bc 6a94 fbbc
00000020: aebf 8ebc 22cc 92bd 6286 ea39 249d 1ebd
00000030: 85f0 56bd 76e6 83bd f8cb 3abd 3005 dbbc
00000040: d878 0fbd 3740 943c 0ec6 b0bc c878 073d
00000050: d9c8 643d a0c6 a0bd d82f a6bd 4db7 943e
00000060: d1d1 0cbe b6be 8dbd 8679 2ebe 0df1 11be
00000070: 9ea2 bf3b 0485 153d 8da9 af3c 9675 cb3b
00000080: 7e77 513c f2d6 a4bd bfbe 70bd c7b6 9abd
00000090: 4661 df3d 296c f83d d6f4 543d 6458 3e3c
000000a0: f9c1 c0bd 52f5 b93b 7d0b 12bd 5eb7 28bd
000000b0: 9119 be3c 4496 d13d 9998 453d 6e5f 433d
000000c0: 30fb 7cbd d9c0 99bd 95c0 ccbd 19f9 73bd
000000d0: c77b 7bbd 9280 7d38 29fb 58bc 4c22 92bd
000000e0: e27b 8bbb e2a0 9dbc 0442 34bd 23c8 fabc
000000f0: 178c 84be fd27 3ebe 6543 8abe a3b7 72be
00000100: b31b 6fbe a69e 5abe cef1 81be 34a4 56be
00000110: f8e2 4bbe e606 63be 3d03 75be da9a 3dbe
00000120: 3ea6 a43e f636 ae3e 3908 c33e 8a3a 9d3e
00000130: 0a3f 52be 1f22 29be 9959 58be db54 3dbe
00000140: 9069 91bd 0323 21bd 8c79 bfba 2fb1 72bd
00000150: 1437 37bd 9cee 3ebd ae65 8abd cc49 0b3c
00000160: 84af 67bd 1d15 ccbd 1bf2 e8bd f10d 82bc
00000170: fd93 cebd 8148 01be 2c31 b1bd 5457 6ebd
00000180: 74e6 3b3e 106d 463e f1cc 3f3e d457 1d3e
00000190: 27a7 06bd 69c1 4739 a499 73bd a5fc 17bc
000001a0: 0b71 6bbe ae3d 21be 0f5d 36be 259b 70be
000001b0: 285a 47bd b583 febd e8ba 85bc b9ee dabd
000001c0: 9f9a bb3c 2ed2 9dbc 3ec6 f6bc 36a3 13bd
000001d0: e5a1 30be 3576 15be 6a6a d5bd 6459 25be
000001e0: e1d7 34bd d3c4 37bd c8ac 2bbd 4a15 e13b
000001f0: 1d82 6fbd 70c3 55bd 7e0f b4bd 7b5c bcbc
00000200: 908e c13d 11d8 0d3e 5e42 203e c697 c83d
00000210: bebe a03e 0343 ad3e 83c1 e03e a5d9 bd3e
00000220: 131b be3d 77e5 023c 2a89 c63c de29 973d
00000230: b12a f33b ced4 ff3b d765 0dbc 9801 a2bd
00000240: c0f7 163e 21c1 8f3d 27a1 333e 47ea a73d
00000250: a611 d1bc 8130 a23c 9133 5ebd d307 9d3b
00000260: 258a f3bd 3324 10be 6a2a ffbd 9436 57be
00000270: 0f9a aabd 940f b1bd 22f6 eabd fb40 72bd
00000280: 0f7a 2cbd 4d1a 8b3b 23ed fc3c 2d7b 41bc
00000290: ed19 fabd d84a 4cbe 3303 3cbe 41ef 52be
000002a0: 8f01 19be c1d8 c0bd da95 0abe 8347 1cbe
000002b0: f4e4 8abd a41f 3e3c bcf9 ccbc d849 7d3c
000002c0: 302b 87be 7b08 87be 593d 58be 31b0 4cbe
000002d0: 7249 33bd 698c 81bd effb dcbd 0fef acbc
000002e0: df13 9bbd 82e7 0bbe d3b7 09be b3b9 1ebe
000002f0: d678 28bc 68d7 7abd a6b0 f83c 2822 ea3c
00000300: f7d5 eabc 0809 903c 7b20 463d a093 63bd
00000310: 4c0c 15bd 3884 babd aa5a afbd 781c 59bc
00000320: e7dc 0b3e 4252 943d be21 da3d 6de2 563d
00000330: 6538 8c3d e6e3 b43d 368e c23d bfef ac3b
00000340: 1da8 4bbe 33b9 56be ea0b 2dbe 1022 14be
00000350: e1ad 34bd 5848 a3bd d779 31bd fc1e e93c
00000360: 221e e2bd a870 f6bb cad4 1dbe 5654 17be
00000370: 4dfa 3c3d 5925 0a3d 6849 c83c 19bf 2e3d
00000380: 2596 a8bd 2d0d 4d3c b6bd 0f3c 4d26 25bb
00000390: 8b74 19be 4fec 41be fe24 2cbe 1109 00be
000003a0: 7ad0 92bd 73b0 273d e6b1 013b 057c 033d
000003b0: 0add 1a3e a086 233e 45a7 143e 5c85 283e
000003c0: 5dae 763d 83b1 50bc 2732 34bd 02f0 e03c
000003d0: 208f 9cbd f3f6 b5bb 223e 903c 67ae 9ebd
000003e0: 068d 65be fbc5 5cbe 935b 48be e543 65be
000003f0: e499 ab3d 8385 bb3d e42b f13d 5b1d 053e

bias f4 [64]
0.08689623 -0.0013554686 -0.107243575 0.080432825 0.02892295 0.08115174 -0.017025718 -0.011318121
-0.02854974 0.07294153 -0.0074664024 0.019864919 0.0499487 0.042255484 -0.10473437 -0.022783607
-0.088778324 -0.14886722 -0.009206357 -0.17371735 -0.022871416 0.00024482489 -0.042391546 -0.06387111
-0.10437735 0.026236482 -0.034390815 -0.014341711 0.012424731 0.17475209 0.16157593 0.009244002
-0.03258953 -0.020969108 -0.0074031055 -0.007449139 0.18757404 -0.014927809 0.008817068 0.040857706
-0.021830136 0.12178257 -8.164922e-06 0.12064816 0.20865858 -0.0033963465 -0.014867409 0.021158442
-0.04422708 -0.06643901 -0.11150568 -0.01913923 0.030998545 0.020205127 0.019243093 0.022355437
0.1158006 0.08786781 0.058364734 -0.100045085 0.017521905 0.07925249 -0.010577608 -0.021749144
00000000: a7f6 b13d fba9 b1ba 85a2 dbbd f7b9 a43d
00000010: d3ef ec3c e232 a63d 8579 8bbc a46f 39bc
00000020: 25e1 e9bc 5e62 953d b9a8 f4bb c1bb a23c
00000030: 0297 4c3d 1614 2d3d f97e d6bd b0a4 babc
00000040: 69d1 b5bd a670 18be 43d6 16bc f6e2 31be
00000050: d65c bbbc d75b 8039 c2a2 2dbd dbce 82bd
00000060: cbc3 d5bd e4ed d63c 62dd 0cbd 7ff9 6abc
00000070: 1991 4b3c 36f2 323e 2974 253e 2874 173c
00000080: 997c 05bd 68c7 abbc c095 f2bb e817 f4bb
00000090: 6913 403e c593 74bc 7775 103c 695a 273d
000000a0: 1dd5 b2bc 2469 f93d 13fc 08b7 6216 f73d
000000b0: 98aa 553e 3d95 5ebb 6f96 73bc 7854 ad3c
000000c0: 7427 35bd 2d11 88bd 175d e4bd e0c9 9cbc
000000d0: a9f0 fd3c 3985 a53c b1a3 9d3c c022 b73c
000000e0: dd28 ed3d 0af4 b33d dc0f 6f3d 70e4 ccbd
000000f0: 198a 8f3c 214f a23d b44d 2dbc 432b b2bc

weight f4 [64, 32, 2, 2]
-0.11161656 -0.1986129 -0.27818218 -0.16956823 -0.0768306 -0.13283335 -0.07954716 0.021843718
0.27948323 0.39323235 0.26981753 0.4012823 -0.35165966 -0.3752201 -0.37878883 -0.29276738
-0.44604415 -0.33304518 -0.3213961 -0.3774515 0.28132114 0.3773029 0.3420676 0.27017963
-0.013348035 -0.024751376 -0.12943353 -0.080610685 -0.37698865 -0.34804833 -0.28006986 -0.34548402
-0.32513165 -0.31663948 -0.40600935 -0.31621116 -0.3209729 -0.23979932 -0.25343576 -0.28803465
-0.12684281 -0.119967185 -0.11925405 -0.17811652 -0.3734681 -0.36821714 -0.2908237 -0.3720572
-0.432807 -0.5302591 -0.4824745 -0.37661144 -0.3702759 -0.47453788 -0.56324244 -0.41177887
0.149016 0.20512429 0.2976149 0.2258712 -0.7000926 -0.7415515 -0.63916993 -0.7247065
-0.18457815 -0.0775508 -0.091343634 -0.16867968 0.07516081 -0.04854991 -0.001865143 -0.06980304
0.17723793 0.13077803 0.17127664 0.24113925 -0.096232146 -0.056809545 -0.027815094 -0.0129639525
0.35917187 0.2503903 0.22692351 0.34001204 0.26659983 0.31591856 0.3340297 0.30345517
0.23236577 0.13213646 0.21725994 0.17969692 -0.20704249 -0.18201093 -0.12391186 -0.12119295
-0.35947737 -0.36484203 -0.28182194 -0.42201248 -0.1372796 -0.009725515 0.04575662 -0.06336561
0.49751738 0.49364308 0.39325646 0.43849415 0.079220474 0.08324547 0.03917916 0.09544351
0.10970237 0.006493413 0.0053285616 0.064124845 0.3812167 0.38378164 0.30958682 0.34580714
-0.52010757 -0.46961161 -0.43201083 -0.38506573 -0.33597872 -0.39613974 -0.27975854 -0.2726302
-0.078507714 -0.054989394 -0.19527933 -0.037349395 -0.15043299 -0.25871706 -0.28547892 -0.3177397
0.20467386 0.18994191 0.14909282 0.24536179 -0.12819465 -0.21074817 -0.10879984 -0.25972137
-0.15236376 -0.2575381 -0.20709857 -0.26387537 0.21300784 0.20838591 0.21032456 0.19460969
0.22566545 0.28825963 0.1587941 0.25858107 -0.08077941 -0.2043031 -0.19121405 -0.23700869
-0.24702671 -0.19497013 -0.21738231 -0.27570888 -0.10869035 -0.13843551 -0.17531735 -0.035874564
-0.057336666 -0.0649748 -0.1703671 -0.14580022 -0.1682494 -0.2783506 -0.17671852 -0.19797464
-0.19906995 -0.27814034 -0.27435678 -0.2711791 -0.28213435 -0.3551067 -0.25770923 -0.27653056
0.216996 0.1090242 0.083271846 0.12235149 -0.09925891 -0.17372335 -0.21583089 -0.22160691
-0.25473243 -0.17277355 -0.29827443 -0.18968695 -0.0737746 0.023649981 -0.056531467 0.052946705
0.14151561 -0.01180549 0.13905747 0.16498868 -0.21614558 -0.3108851 -0.038284853 -0.03326051
0.10082052 0.10605034 0.13989274 0.00912957 0.03399258 0.11547116 0.051154897 0.13608277
0.12606356 0.25859818 0.102456376 0.2439927 0.06599956 0.067885324 0.13055107 0.16968554
-0.17285483 -0.16170897 -0.036459494 -0.068505794 -0.14586082 -0.011700894 -0.027106976 -0.07443931
0.15598324 0.11727073 0.123308755 0.17161782 0.045750193 -0.02642373 0.062449723 -0.03863932
0.2894246 0.21303242 0.24133465 0.320109 0.28390548 0.19158998 0.28351724 0.29168147
0.08528043 0.09731301 0.11906452 0.1073201 -0.053470995 -0.15123089 -0.016323963 -0.046870988
00000000: 3997 e4bd 2e61 4bbe e56d 8ebe 4ba3 2dbe
00000010: 5d59 9dbd 7705 08be 9fe9 a2bd 99f1 b23c
00000020: 6d18 8f3e c055 c93e 8625 8a3e e074 cd3e
00000030: bc0c b4be d91c c0be 9cf0 c1be 9be5 95be
00000040: e65f e4be e684 aabe 088e a4be 5341 c1be
00000050: 5309 903e d92d c13e 7c23 af3e fc54 8a3e
00000060: b7b1 5abc 66c3 cabc 398a 04be 3717 a5bd
00000070: a804 c1be 6433 b2be 5165 8fbe 48e3 b0be
00000080: a877 a6be 921e a2be 75e0 cfbe 6ee6 a1be
00000090: 8f56 a4be f48d 75be 55c2 81be 4779 93be
000000a0: 15e3 01be 5bb1 f5bd 783b f4bd 2d64 36be
000000b0: 3637 bfbe f586 bcbe d8e6 94be 487e bebe
000000c0: e198 ddbe 0fbf 07bf e606 f7be 37d3 c0be
000000d0: ce94 bdbe a1f6 f2be a830 10bf aed4 d2be
000000e0: a697 183e 1a0c 523e fb60 983e c84a 673e
000000f0: 4539 33bf 52d6 3dbf a4a0 23bf 5d86 39bf
00000100: 0e02 3dbe f4d2 9ebd 5f12 bbbd 5eba 2cbe
00000110: e9ed 993d 45dc 46bd d077 f4ba e5f4 8ebd
00000120: dc7d 353e adea 053e 2563 2f3e 35ed 763e
00000130: 5c15 c5bd 20b1 68bd 7bdc e3bc c266 54bc
00000140: 60e5 b73e 2833 803e a35e 683e 0f16 ae3e
00000150: c67f 883e 14c0 a13e f105 ab3e 7a5e 9b3e
00000160: 4bf1 6d3e c84e 073e 6479 5e3e 7802 383e
00000170: f202 54be 1361 3abe 80c5 fdbd 0234 f8bd
00000180: 6b0d b8be 93cc babe f74a 90be 0512 d8be
00000190: 0693 0cbe c457 1fbc 4b6b 3b3d d4c5 81bd
000001a0: 99ba fe3e c9be fc3e e958 c93e 4e82 e03e
000001b0: 583e a23d 9a7c aa3d 547a 203d e377 c33d
000001c0: a3ab e03d b2c6 d43b 379b ae3b e353 833d
000001d0: d62e c33e 077f c43e 2a82 9e3e a20d b13e
000001e0: c525 05bf ef70 f0be 8630 ddbe 5627 c5be
000001f0: 6705 acbe d4d2 cabe 833c 8fbe 3096 8bbe
00000200: a7c8 a0bd 8f3c 61bd 4ef7 47be aefb 18bd
00000210: 1b0b 1abe 9076 84be 4b2a 92be c7ae a2be
00000220: 0696 513e 2280 423e caab 183e 1f40 7b3e
00000230: 7545 03be 5ece 57be 73d2 debd 33fa 84be
00000240: 3f05 1cbe 09dc 83be a611 54be ac1a 87be
00000250: ba1e 5a3e 1e63 553e 525f 573e c347 473e
00000260: d814 673e c496 933e ec9a 223e bd64 843e
00000270: ad6f a5bd d534 51be 9ecd 43be 68b2 72be
00000280: 92f4 7cbe 40a6 47be 7899 5ebe b729 8dbe
00000290: 0c99 debd 0ac2 0dbe 6486 33be 35f1 12bd
000002a0: dad9 6abd 8211 85bd b774 2ebe a74c 15be
000002b0: 9249 2cbe f883 8ebe b3f5 34be ddb9 4abe
000002c0: fed8 4bbe 6968 8ebe 7e78 8cbe fdd7 8abe
000002d0: ea73 90be 8cd0 b5be 77f2 83be 6a95 8dbe
000002e0: 3334 5e3e 1448 df3d 6e8a aa3d 6b93 fa3d
000002f0: 4148 cbbd 89e4 31be c602 5dbe ecec 62be
00000300: 4a6c 82be 8deb 30be 6db7 98be 4c3d 42be
00000310: 2317 97bd 9bbd c13c 8a8d 67bd a5de 583d
00000320: 78e9 103e d06b 41bc 1565 0e3e cbf2 283e
00000330: 4455 5dbe 552c 9fbe 94d0 1cbd 2c3c 08bd
00000340: fd7a ce3d ec30 d93d 0b40 0f3e 3194 153c
00000350: ce3b 0b3d 257c ec3d cc87 513d 4859 0b3e
00000360: ce16 013e fb66 843e a6d4 d13d 39d9 793e
00000370: c72a 873d 7607 8b3d 2eaf 053e 0cc2 2d3e
00000380: db00 31be 0997 25be 8d56 15bd c44c 8cbd
00000390: 8a5c 15be 1bb5 3fbc 730f debc a373 98bd
000003a0: 12ba 1f3e a32b f03d 4d89 fc3d 95bc 2f3e
000003b0: 8e64 3b3d 9476 d8bc 48cb 7f3d 4344 1ebd
000003c0: 762f 943e 2c25 5a3e 6e20 773e 54e5 a33e
000003d0: 0f5c 913e 2a30 443e 2c29 913e 4657 953e
000003e0: 82a7 ae3d 0b4c c73d 19d8 f33d a4ca db3d
000003f0: 6704 5bbd 45dc 1abe d5b9 85bc cbfb 3fbd

bias f4 [32]
-0.18718076 0.23505688 0.4213084 -0.20959145 -0.09598553 0.4392085 -0.22157168 -0.31925893
-0.29300806 -0.35373753 -0.13960917 -0.40073302 0.07740148 0.0018303077 -0.10271296 0.058091555
0.019927355 0.13453853 0.31000188 -0.09982302 0.3537397 0.35064182 0.20758474 -0.35086834
-0.43506578 -0.28602904 0.3756625 0.09149008 -0.25790375 0.083590925 -0.2728733 -0.36318195
00000000: 50ac 3fbe c0b2 703e bcb5 d73e 249f 56be
00000010: 1094 c4bd f0df e03e b0e3 62be e875 a3be
00000020: 2705 96be 161d b5be b5f5 0ebe e12c cdbe
00000030: ab84 9e3d efe6 ef3a 2c5b d2bd 69f1 6d3d
00000040: b13e a33c 78c4 093e 91b8 9e3e 0370 ccbd
00000050: 5f1d b53e 5387 b33e 1891 543e 04a5 b3be
00000060: f1c0 debe 6672 92be d656 c03e 275f bb3d
00000070: f60b 84be b831 ab3d 0db6 8bbe fcf2 b9be
