output/train_14_12_23_part-2/unet_tgs_salt.pth (torch, 246807 bytes, 26 tensors)

weight f4 [16, 3, 2, 2]
000000 79 f0 76 3e 60 0a 40 3e e9 24 70 bc 9b 85 fc bc
       0.2411517 0.18753958 -0.014657238 -0.030825427
000010 5c 6d 12 3e ea 6e 68 be 15 ba 3f be 91 9a 00 3e
       0.1429953 -0.2269856 -0.18723328 0.12558962
000020 65 2b 67 be 10 d5 14 be 1f a9 ed 3c 99 ea e5 bd
       -0.22575147 -0.14534402 0.029011307 -0.112263866
000030 59 a6 80 be 62 7f 31 3d 54 b5 f7 3d e7 7f d1 3d
       -0.25126913 0.043334372 0.120951325 0.102294736
000040 13 40 bd 3d 64 62 41 be 4b ba 4b be 6f d2 a6 bd
       0.09240737 -0.1888519 -0.19895284 -0.08145606
000050 9c e0 97 3d 30 e3 0c 3e 5a f1 49 3e d7 53 1c 3e
       0.07415888 0.1375854 0.19720975 0.15266357
000060 ee 4e 7b bd 4e 6b 9c 3d fb b2 82 be 01 c3 e8 3d
       -0.06135457 0.07637654 -0.25527176 0.11365319
000070 3a 01 c1 bd bd 52 c2 3d bb 24 1d be a5 98 b0 be
       -0.09424062 0.09488437 -0.15346043 -0.3449146
000080 de 1d b0 bc ad 89 a6 3d 00 e4 56 3e 24 16 e6 bd
       -0.021498617 0.08131728 0.20985413 -0.11234692
000090 86 ac 4a 3e 8d 28 75 3e cd 5a bd 3e 8c c2 98 3e
       0.19792375 0.2394125 0.36983338 0.29835927
0000a0 e6 a1 be 3e 43 3c 58 bd 2e 69 fe 3d 90 91 44 3e
       0.37232894 -0.052791845 0.12422405 0.19196153
0000b0 d4 8c cb be cb 44 31 bf d3 e9 30 bf 0a 9c 03 bf
       -0.3975588 -0.69245595 -0.6910679 -0.5140997
0000c0 05 e2 09 3e 9d c9 01 bb a3 7c aa 3d 15 ea 92 be
       0.13465126 -0.0019804009 0.08324554 -0.28694215
0000d0 ba 5c 50 3e 27 26 5d bd 41 f5 6e be 52 4d 65 3d
       0.20347872 -0.053991463 -0.23335744 0.05598194
0000e0 8b ce a6 bd 0c 29 5a be 6f 3d 8a be e3 b9 4f be
       -0.08144864 -0.2130472 -0.26999995 -0.20285754
0000f0 bf b9 b4 be 19 96 aa bd 9d 15 88 bd 42 27 c6 be
       -0.35297963 -0.0832941 -0.066447474 -0.38701826
000100 cb ef b8 be b5 b7 10 bd 22 06 0b bd 87 96 c3 3d
       -0.36120448 -0.035331447 -0.033941396 0.09550195
000110 66 9b 03 3c 55 b9 4a bd e4 e6 1e be 08 8a ce be
       0.008032655 -0.049493153 -0.15517765 -0.40339684
000120 75 20 88 bd 31 70 17 be bc 05 a6 3d 19 9e 9d be
       -0.06646816 -0.14788891 0.081065625 -0.3078468
000130 31 df f0 bc f9 1a a9 3d 84 77 d5 bb 98 0c 4f 3e
       -0.029403301 0.08257098 -0.0065144915 0.20219648
000140 fd ae 3e be d9 e1 ce bd 29 37 d7 3d b1 32 9e be
       -0.1862144 -0.10101671 0.10508568 -0.3089805
000150 e9 38 5f be 6b 2c cb 3d 3b 14 ab bc 8a fa b1 bd
       -0.21799053 0.099205814 -0.02088367 -0.08690365
000160 5b ca 39 bd 75 ae 5f bc 50 dd 47 bd 6b b2 cc bd
       -0.045358997 -0.013652434 -0.048795044 -0.09994968
000170 fd 2c b7 be 83 ba 0c 3e 66 f2 cc bd 8a 99 69 bc
       -0.3577651 0.13743024 -0.10007171 -0.014257798
000180 6f 4e 4b 3e 52 2a 1f be 85 1c d9 3d 67 92 55 3e
       0.19854139 -0.15543488 0.10601143 0.2085663
000190 4e 52 bb be 62 e9 91 be 99 01 d9 bd 80 ac b9 bd
       -0.3658623 -0.2849837 -0.10596008 -0.09066105
0001a0 ea 3a 17 3e 39 ce b8 be 9e 4f 26 3e 54 d4 01 be
       0.14768568 -0.36094835 0.16241309 -0.12678653
0001b0 40 04 a5 3d 45 2e 31 bd 41 d7 41 3c 50 8b c5 bd
       0.08057451 -0.043257017 0.011831106 -0.096457124
0001c0 21 99 d3 bd 65 2c 3d 3e 80 45 a3 be 71 d0 0b 3e
       -0.103319414 0.18473966 -0.31888962 0.13653733
0001d0 4d 84 20 3e 92 80 56 be 86 8f ad be 95 b5 7a be
       0.15675469 -0.20947483 -0.33898562 -0.2448333
0001e0 1d b8 c6 3d 30 fa 97 3e 2d 35 3e bd af de 40 be
       0.097030856 0.29683065 -0.04643743 -0.18834947
0001f0 a6 78 b0 3d 10 59 ef 3e c7 e3 8b 3d 8e 73 23 bd
       0.08616762 0.46747637 0.068305545 -0.039905123
000200 6a 3c ba be 91 35 a8 be 4b 3d bd be e0 5f 88 be
       -0.36374217 -0.32853368 -0.36960825 -0.26635647
000210 c1 92 91 3e bb f2 8f be db 04 a5 bd 1d 27 19 be
       0.28432277 -0.28114876 -0.08057567 -0.14956327
000220 f6 f3 99 3e 35 58 02 be a7 2f 60 be ea 02 52 be
       0.3006894 -0.12728961 -0.21893178 -0.20508924
000230 ab 3d 16 bd 45 ed 87 bd 4f 8a 90 be 56 c1 77 be
       -0.036679905 -0.066370524 -0.2823052 -0.24194846
000240 ef 15 0b 3e 4d 7f 42 be 13 44 5e bd 8e 24 f8 bd
       0.13582586 -0.18993874 -0.05426414 -0.12116347
000250 4f 48 07 bd 58 ca 67 be 4d ce af bd ce 1c 0d 3e
       -0.033027943 -0.22635782 -0.085842706 0.1378052
000260 44 ae 40 be 03 2c 01 be 31 a3 57 3d 55 cf 37 3e
       -0.18816477 -0.12614445 0.052645866 0.17950185
000270 dd ee 68 3e 11 e2 82 be 1a 4a 00 be 52 de 91 be
       0.22747369 -0.255631 -0.12528268 -0.2848993
000280 46 92 1d be b2 d0 84 bc a0 8f f1 bc 4a af 45 3d
       -0.1538783 -0.016212795 -0.029487431 0.04826287
000290 e0 a4 3e be 6e 62 9a 3c b0 42 8d be 66 51 97 3d
       -0.18617582 0.018845763 -0.2758994 0.073885724
0002a0 0d 5d 74 3e c0 ec 5c be 03 a8 da bd d1 80 0d bd
       0.23863621 -0.21574688 -0.10676577 -0.034546677
0002b0 c1 a6 95 be b8 04 9b bd 22 83 2b 3d a7 83 87 3d
       -0.29228786 -0.075692594 0.041873105 0.066169076
0002c0 b0 49 f9 bd 48 08 9e 3d 58 0d 31 bd 8b f8 b4 3d
       -0.12172258 0.07716423 -0.043225616 0.08836468
0002d0 e0 da d9 bd d9 20 a5 bd ac 49 c9 3d 11 50 b6 bc
       -0.1063745 -0.08062906 0.09828505 -0.022254976
0002e0 a2 0d 14 3d 7a e5 85 be 84 c2 96 be 95 81 bc be
       0.036145814 -0.2615164 -0.2944528 -0.36817613
0002f0 8e d5 12 be a6 0c 00 3e 40 6a 4e be 64 25 00 3e
       -0.14339277 0.12504825 -0.20157719 0.12514263

bias f4 [16]
000000 f4 3d 9b be e9 72 aa be 65 8c 93 be e2 5b 95 3e
       -0.30320704 -0.33290794 -0.2881805 0.29171664
000010 60 20 9d be 4a 2f 94 3d f7 16 16 be 0f 28 15 3d
       -0.30688763 0.07235582 -0.14657198 0.036415156
000020 67 9e 1f be 91 fb 3b bd 7f 71 52 3e b2 cf 36 3d
       -0.1558777 -0.04589421 0.20551108 0.044631667
000030 56 b7 07 be 99 94 b8 bd 14 ad 80 be 64 c5 12 3c
       -0.13253531 -0.09012718 -0.25132048 0.008958194

weight f4 [16, 16, 2, 2]
000000 21 f6 4f bb b9 bd 65 3c 0c 08 9f bd 9f d2 bb bd
       -0.0031732398 0.014022284 -0.07765207 -0.09171032
000010 31 03 32 be 09 4c ab 3c 87 ad e1 3c c0 13 89 bd
       -0.1738403 0.02091028 0.027548565 -0.0669322
000020 67 66 4c 3b 72 9d 16 bd 79 c5 fa bd 2a 8e 96 bc
       0.0031188966 -0.036771245 -0.12244696 -0.018378336
000030 8c 66 0f 3c bd 5d 06 3e 78 c2 38 3e fd 3c 2d 3c
       0.008752476 0.13121696 0.18042934 0.010573623
000040 98 8c 23 be 4b 54 4e bd 81 42 11 be 37 6f 73 bc
       -0.15971601 -0.050373357 -0.14185525 -0.014858059
000050 8b 07 1f 3d 0f 46 93 3d c8 d6 ff 3b 1a ce 7d bd
       0.038825553 0.07191097 0.0078075863 -0.061964132
000060 85 59 1c 3d 22 62 16 be 7c 99 82 3c 61 53 04 3d
       0.03817131 -0.14685872 0.015942328 0.03230608
000070 43 c1 3c bd aa fe 3b 3d 6e b0 3c bd e7 b2 e8 bd
       -0.046082746 0.045897163 -0.046066694 -0.11362248
000080 cb 1c 49 bd 3a 11 34 bc 99 e3 b1 bd 8a 2f 93 3c
       -0.049099725 -0.010990435 -0.08685989 0.017967004
000090 8f 63 b0 bd 75 47 8c bb 11 05 4a 3d a9 f1 96 3c
       -0.08612739 -0.0042809793 0.049321238 0.01842578
0000a0 6c df b7 3c 32 4f 37 3e f6 be 0d 3e 95 43 3d 3e
       0.022445403 0.17901304 0.13842377 0.18482812
0000b0 74 60 6e 3e d8 d3 e6 3d 09 ec 5a 3e fc 65 58 3e
       0.23278981 0.11270875 0.21379103 0.21132654
0000c0 b4 c9 b1 bb df 39 b4 3b c1 58 eb 3d 2e 71 15 bd
       -0.005425656 0.005500063 0.11491538 -0.03648489
0000d0 1b 21 af 3d 68 f6 9e 3d 86 04 19 bc 85 17 8f bc
       0.08551236 0.07761842 -0.009339457 -0.01746727
0000e0 92 c6 32 3e 47 f2 0d bd 33 98 1a bc 75 82 8a bd
       0.17458561 -0.03465488 -0.009435701 -0.06763164
0000f0 da ab d9 3d 92 73 e5 3d 73 51 6f 3d 2b f4 e7 bd
       0.10628481 0.11203684 0.058427285 -0.11325868
000100 e0 d2 5c bd 22 04 0d 3e 2e 35 ee bc 1d 9d 14 bd
       -0.053912044 0.13771108 -0.029078092 -0.036282647
000110 0c a5 ec bd 9d 0e c2 3d 31 a2 6e bc 88 a9 3b 3b
       -0.11554918 0.094754435 -0.014565037 0.0028634984
000120 3a 5a df 3d 52 0c 30 3e c3 cd 34 3e 06 1c 13 bd
       0.10905881 0.171922 0.17656617 -0.035915397
000130 88 af d8 3e 82 02 c7 3e 85 48 f2 3e 59 4c 8f 3e
       0.4232142 0.388691 0.47320953 0.27987936
000140 dd b5 a2 bc 86 97 fc 3c b0 cb 9d bd 51 e9 28 be
       -0.01986211 0.03083397 -0.07704866 -0.16495253
000150 c4 7c 9d 3c 61 5a 60 bd fa 5d 7a bd c1 ef 01 3e
       0.019224532 -0.054773692 -0.06112478 0.12689115
000160 2b 2c 44 3d 8a 6b fc bc a2 80 35 bd 34 c5 55 bd
       0.047893684 -0.030812997 -0.044312127 -0.05219002
000170 a9 b0 2d 3e c5 5c 0b 3d 0a 8a 61 bd 74 a5 82 3d
       0.16961922 0.03402402 -0.055063285 0.06379214
000180 3f 95 bd bc 4d 82 47 bc ca 86 0b 3d 1d 30 44 3e
       -0.023142455 -0.012177062 0.03406409 0.19158979
000190 ad a7 87 3d 4d ca 9f 3d f1 e3 cc bd 32 df 19 3e
       0.066237785 0.07802258 -0.10004414 0.15026549
0001a0 63 92 0f bc 7f 0f 1d 3e 9c 7e 4d 3e 67 9d ca 3d
       -0.008762929 0.15337943 0.20067829 0.09893303
0001b0 b0 95 b9 3d 3e 1c 83 3e f6 10 57 3e 12 c0 0e 3e
       0.09061754 0.25607485 0.21002564 0.13940457
0001c0 1f a5 af bd 98 a0 25 be 1f c6 f4 bd 85 67 3f 3c
       -0.08576416 -0.16174543 -0.11951851 0.011682396
0001d0 c4 ea e0 bd dc e1 c4 3d 29 ce 9e 3d 60 d7 ce bd
       -0.10982278 0.09613392 0.07754166 -0.10099673
0001e0 19 ed b8 bd 3e f4 e2 bd d6 ea e7 bd f9 89 16 be
       -0.09029598 -0.11081742 -0.11324088 -0.1470107
0001f0 bf ef ba 3d 60 95 dc bd 8a dd 2e bd 47 2d 4d 3c
       0.09127759 -0.107706785 -0.042691745 0.012523002
000200 a3 96 76 3d 3c 22 eb 3d a8 9d 17 3e 42 6d 24 bd
       0.060202252 0.11481139 0.14806235 -0.04014326
000210 7c ad ce bc 6d 90 a0 bd 57 73 17 be de 04 2d be
       -0.025229208 -0.07840047 -0.14790092 -0.16896388
000220 80 87 40 bc 4f 47 51 bd 60 d8 60 bd f3 c4 00 be
       -0.011751056 -0.051093396 -0.05489385 -0.1257513
000230 ac c0 de 3e 6c ea b4 3e 20 77 de 3e e5 e4 ce 3e
       0.43506372 0.353351 0.4345026 0.40409008
000240 cd 03 44 bd 06 13 86 bc 91 de 2e bd 1f b1 21 bd
       -0.047855187 -0.016366493 -0.042692725 -0.039475556
000250 98 b4 12 3e 3e 09 bf 3d 4f 67 0e 3e 9b d1 45 3e
       0.14326704 0.09327935 0.13906597 0.1931824
000260 c6 39 bd bd 0c f0 ff bd 59 c6 28 bd c2 53 3e 3d
       -0.09239535 -0.12496957 -0.041204784 0.046466596
000270 4b da b6 bc 8c b2 45 3d d3 09 f9 3d 7f 48 0a 3b
       -0.022320887 0.04826598 0.12160077 0.002110034
000280 85 31 4d 3d 91 66 4a 3c 46 7b 72 bb 2a 53 b8 3d
       0.050096054 0.012353555 -0.0036999746 0.09000237
000290 f9 cc a7 3d e6 d3 f7 bc 14 db 34 3e a0 a0 2e 3e
       0.08193392 -0.030252408 0.17661697 0.17053461
0002a0 ea 0b df 3d ef 76 f7 3d 7e cf 64 3e cf d6 5b 3e
       0.10890944 0.12083232 0.22344777 0.21468662
0002b0 81 82 23 3e c8 61 72 3e 01 3a 60 3e 86 b6 0f 3e
       0.15967752 0.23670113 0.21897127 0.14034471
0002c0 a0 10 7a bd 46 4e 71 bd f5 fd e9 3d c8 a5 01 3d
       -0.06105101 -0.058912538 0.114253916 0.031652242
0002d0 4e 98 3e bd f5 e5 d8 3c fe 8a eb 3c 7b 21 90 3d
       -0.046531968 0.02647684 0.0287528 0.07037636
0002e0 b2 e0 ed 3c 5b 4b 32 3e a9 08 71 bd 11 de 20 3e
       0.029037807 0.17411558 -0.05884615 0.15709712
0002f0 4d 81 11 bd 9f 7c 3a 3d 4a d2 79 3d 8f ff 00 3e
       -0.0355237 0.045529004 0.060991563 0.12597488
000300 bd 6d 9f bd 9f 2c bd bd e9 db a6 3d 60 b8 34 bc
       -0.07784603 -0.092370264 0.08147413 -0.011030287
000310 5e 32 8c 3b 66 3a 1c 3c 93 50 da 3c 6e 8e e4 3c
       0.004278465 0.009535408 0.026649749 0.027899947
000320 87 37 e6 bc c5 b9 13 be df 05 18 be c2 dd 84 3d
       -0.02810265 -0.14426334 -0.1484599 0.064876094
000330 e5 c4 64 3e 6d 7e 82 3e 01 31 f5 3d 39 76 9f 3e
       0.22340734 0.2548708 0.119722374 0.31144884
000340 91 92 0d 3d 97 5e 0d be 9c ba a6 bd 97 52 f7 bd
       0.034563605 -0.13805614 -0.08141062 -0.120763
000350 10 3c 7f bd d7 83 db 3d 7f 8a 95 bd 46 7e 4d 3d
       -0.06231314 0.10718506 -0.07301807 0.05016925
000360 a5 5a 1c be 8e 7a 14 3d 18 c2 2f be 4c c5 1c 3d
       -0.15268953 0.03624969 -0.17163885 0.038274094
000370 ff fe 63 bc 93 34 b7 3b f5 7c aa bc e1 4c 19 3d
       -0.013915776 0.005590984 -0.020811537 0.037426833
000380 8d 9c 6a 3d db b7 16 be 37 93 97 3d 5e 4b bd bc
       0.057278205 -0.14718573 0.07401126 -0.023107227
000390 b2 13 c1 3d 5f 5c 8a 3d 66 c9 e8 bc 67 77 cb 3d
       0.09427585 0.067559 -0.028416347 0.099348836
0003a0 d1 ff 54 3e 5e ea 08 3e b9 01 47 3e d1 67 9d 3d
       0.20800711 0.13370654 0.19434251 0.07685817
0003b0 05 81 1b 3e 79 c7 85 3e e5 15 34 3e 99 15 3b 3d
       0.15185936 0.26128748 0.17586477 0.045674894
0003c0 c1 59 ef 3d d6 82 a5 bc 36 9b ee 3c 6f 08 08 bd
       0.11687041 -0.020203989 0.029126745 -0.033211168
0003d0 9f 36 56 3d 71 18 c8 bd 55 d1 de bd 33 d7 49 bd
       0.052298184 -0.09770287 -0.10879771 -0.049277496
0003e0 93 da fd 3d a2 05 14 3d 1d 06 67 bd e1 2f 8f 3d
       0.12395205 0.036138184 -0.056402314 0.06991554
0003f0 05 56 e3 3d 1a a9 23 3c c8 0f dc bd 83 45 9c bd
       0.11100391 0.009989047 -0.107451975 -0.07630446

bias f4 [16]
000000 39 f3 b5 3d c1 bf 51 bd ce b2 ec 3d 5b d3 34 bd
       0.08884282 -0.05120826 0.11557542 -0.044146877
000010 d8 53 9a bd 4e 8a 12 3e 4f 59 28 3c 8e b0 6f 3d
       -0.07535523 0.14310572 0.010275199 0.058517985
000020 69 14 9c bc 51 bd de bd f1 e7 45 be 99 13 15 3c
       -0.019052701 -0.10875953 -0.1932676 0.009098911
000030 d2 24 f2 bd 00 26 ac bd fc 40 eb bd e1 57 22 be
       -0.11823429 -0.084056854 -0.11487004 -0.15853836

weight f4 [32, 16, 2, 2]
000000 cd 68 25 bd 43 3d 1c 3d c4 58 d6 39 20 d4 1b be
       -0.04038315 0.03814436 0.00040883396 -0.15217638
000010 05 6b 43 3d d3 99 de 3d 64 8c d0 3a 0f bf 7f bd
       0.047709484 0.108691834 0.001591098 -0.062438067
000020 55 68 09 bc b5 ea c8 bd 6a 29 b6 bd 0c b0 6e bd
       -0.008386691 -0.09810392 -0.08894618 -0.05827336
000030 61 93 88 b7 30 e8 d9 bd e6 49 6f bc af 13 04 3d
       -1.6281092e-05 -0.106399894 -0.014605021 0.032245334
000040 f9 a8 37 bc 99 4e ab bd 8c 08 aa bd b9 16 56 3d
       -0.01120972 -0.08364601 -0.083024114 0.052267764
000050 46 78 bd bd b1 e0 da bd 82 3d 9c bd 15 1d 5c 3d
       -0.09251456 -0.10687388 -0.07628919 0.053738672
000060 4c c8 07 bd 05 fd 04 be f0 85 d4 bd 18 29 a3 bd
       -0.033150002 -0.12987144 -0.10377109 -0.079668224
000070 d8 30 23 be f2 ab 7d 3d bd f5 22 be b4 27 4f bd
       -0.15936601 0.061931558 -0.15914054 -0.050574973
000080 70 91 ab bd 52 b6 44 3d 52 23 73 bb f2 7a f1 bd
       -0.083773494 0.048025437 -0.003709991 -0.11791028
000090 5c 97 7c 3d 10 d4 a2 3d 85 88 81 3d 45 ea 79 3d
       0.061667785 0.07950604 0.06324867 0.061014432
0000a0 7c 62 de 3c de 3c e5 3d eb fc 15 3e 5d 67 89 bd
       0.02714657 0.1119325 0.14647262 -0.06709168
0000b0 61 57 5a bc 48 f5 df bc ec e9 c0 bc 6e 17 6d 3d
       -0.013326497 -0.027338639 -0.023549043 0.057883672
0000c0 a3 b3 58 bd 59 04 13 3d 5f bc c8 3d 0a de 07 3e
       -0.05290569 0.035892818 0.09801554 0.13268295
0000d0 a0 de 2a bb 39 e0 98 3d 5d 49 2c 3d ef cb 84 bd
       -0.0026072636 0.07464642 0.042062152 -0.0648421
0000e0 f4 61 f4 3c 81 1e ce bc 7c 6c f2 bc 17 22 89 bd
       0.029831864 -0.02516103 -0.029592745 -0.06695955
0000f0 36 80 27 3e 61 d8 39 bb d7 23 5b 3d 7f 03 ab 3d
       0.16357502 -0.0028357732 0.053500976 0.08350276
000100 8d dd 17 bd 34 75 2f bd 3f 84 0e bc 06 23 20 bc
       -0.03707652 -0.042836383 -0.008698522 -0.009773975
000110 d2 f3 73 bd f3 76 aa bd 41 b3 db bd 0f 2f 86 bb
       -0.059558697 -0.08323469 -0.10727549 -0.0040949653
000120 e6 55 4a bc 1f 5b ee bb 72 fc 01 be eb e0 32 3d
       -0.012349581 -0.007274046 -0.12693956 0.04367153
000130 de 8b 43 bc d4 da d1 3c dc 56 84 3d 4b bf cd bc
       -0.011935202 0.02561704 0.064618796 -0.02511563
000140 e2 00 9f 3d 8e e2 8b bd cd 00 82 3d 8b fc f0 3d
       0.0776384 -0.06830321 0.06347809 0.11766919
000150 0c 19 74 bd 01 94 22 bd 3b ab 32 bd ad 74 b9 bd
       -0.0595942 -0.03969193 -0.04362033 -0.09055457
000160 29 23 59 b8 d8 2b 20 3c 2f db b7 b9 a1 09 3e bd
       -5.1769577e-05 0.009776078 -0.00035067784 -0.0463959
000170 6a b8 f6 bd 15 e2 86 bd f3 c2 db bd fd 1c 04 be
       -0.12046893 -0.065860905 -0.10730543 -0.12901683
000180 00 78 6c 3d 53 31 91 bd 39 90 b3 bc 82 d4 11 3c
       0.05773163 -0.07089486 -0.021919357 0.0089007635
000190 e9 0c 13 3c 80 18 35 3e 44 9f a5 3d de 85 cf 3d
       0.008975246 0.17685127 0.08087018 0.10132955
0001a0 66 05 62 bd 4f 05 f3 bc 6e 57 23 3e 36 6b 1e 3e
       -0.05518093 -0.029665617 0.1595132 0.15470585
0001b0 ff c1 05 3d ee 5e dd bb 8d 14 b1 3d d6 1d 80 3d
       0.032655712 -0.0067557013 0.08646498 0.06255691
0001c0 27 c6 14 bd 7f 54 82 3d 46 40 de ba 3a d7 1a 3e
       -0.036321785 0.063637726 -0.0016956411 0.15121165
0001d0 43 77 0f 3e 41 5a 24 3e f9 7a 3b 3d 57 3c af 3c
       0.14010338 0.16050054 0.045771573 0.021391077
0001e0 dc 3f 35 bd 86 c9 e9 bc f9 00 f8 3d f0 0b cf 3d
       -0.044250354 -0.028538477 0.121095605 0.10109699
0001f0 75 3f 12 3e e9 a1 91 3d 7a a7 0a bd a0 0c 2a 3e
       0.1428202 0.0711096 -0.033851124 0.16606379
000200 4f 5f d5 bd ac c4 9d 3c 91 2b 8b bd f2 3d b8 bd
       -0.10418569 0.01925882 -0.06795419 -0.0899619
000210 fd 1e 94 bc d8 28 7a bd 29 c6 bd bb 07 ab b9 bd
       -0.018081183 -0.061074108 -0.005791445 -0.09065824
000220 47 65 83 bd 9c 64 cd bd 73 37 ed bd b6 e9 01 be
       -0.064158015 -0.10028955 -0.11582842 -0.1268681
000230 20 14 99 be ce 80 9a be d0 e8 85 be 17 b0 93 bd
       -0.29898167 -0.30176395 -0.26154184 -0.07211321
000240 ac 01 67 3d 7a 19 b9 3d eb 21 21 3e 25 f4 25 3e
       0.05639808 0.090380624 0.15735595 0.16206415
000250 8e fa ef 3d e6 fa 8b 3d 8e 37 44 bd 4b 07 4c bc
       0.117177114 0.068349645 -0.047904544 -0.012452911
000260 0c 61 9f 3b 49 ce 14 be 6d 64 29 be f4 8f d6 bd
       0.004863864 -0.14531817 -0.16542216 -0.10476676
000270 a7 96 1a 3d 62 ec db 3d 80 a2 a1 bd 5e ce 24 3c
       0.03774133 0.10738446 -0.078923225 0.010058967
000280 7e ee 01 be 2f 72 94 3b 7a 47 b3 bd 7b 22 20 bc
       -0.12688634 0.0045302133 -0.087538674 -0.009773846
000290 3b 1b 64 3e 47 75 3f 3e 28 3d 02 3e 34 28 66 3e
       0.22276013 0.18697082 0.12718642 0.22476274
0002a0 f8 c4 e6 bd 5e 0e 95 3d f5 9a 9c 3d 73 fe 53 3d
       -0.112680376 0.07278131 0.07646743 0.051756334
0002b0 36 20 d5 3c 3e 46 cf 3d c9 c3 8b bd 43 38 97 3d
       0.026016336 0.101208195 -0.068244524 0.07383778
0002c0 5e f3 c6 3c 4a 1e 20 be 09 cd bd bd 44 8a 3a 3c
       0.024285968 -0.15636554 -0.09267623 0.011385504
0002d0 30 e5 54 3e 55 a2 d3 3d 93 11 2a 3e fe a9 1c 3e
       0.20790553 0.10333697 0.16608267 0.15299222
0002e0 a2 9d 02 be 67 f9 b7 bd 21 8c bf 3d 29 5f bc bd
       -0.12755445 -0.089831166 0.09352899 -0.09197838
0002f0 b4 42 6e 3e 5c 48 6f 3b f2 a8 13 3d 6b 06 27 3e
       0.23267633 0.0036511635 0.03604979 0.16311042
000300 37 e8 38 3c e9 cd 3e 3c 93 14 3d bd eb 78 eb 3b
       0.011285833 0.0116457725 -0.0461622 0.0071860454
000310 ac 5f 93 3d bc b7 4c bd dd e4 98 bd ed 92 85 bd
       0.07195982 -0.04997991 -0.07465527 -0.065221645
000320 b3 b0 8a 3d 0e b1 8c 3c c2 8d 79 bd 76 65 0d bd
       0.06771984 0.01717427 -0.060926206 -0.03452059
000330 b5 94 1f bd 7e 78 27 bb 17 05 b2 bd 7a 7a 6d bc
       -0.038960177 -0.0025553997 -0.08692377 -0.014494533
000340 e8 33 09 3d ed 04 f7 bd 71 34 da bc 97 1b 80 3a
       0.033496767 -0.120614864 -0.026636334 0.0009773847
000350 2e 0f 6c bd bf 0c 70 bc 6a 4d 74 3c 83 f0 c5 3d
       -0.057631664 -0.014651476 0.014911035 0.096650146
000360 46 b8 ba bd 82 9a 04 bd 9d be e6 3d 81 58 35 3d
       -0.091171786 -0.032373913 0.11266825 0.044273857
000370 f9 97 80 bd 6c 6a 12 3d be 06 c2 3d d8 95 aa 3c
       -0.062789865 0.035746023 0.09473942 0.020823404
000380 96 fb a9 bc 2a 08 52 3d 7a 6b e0 bd 27 c1 a8 bc
       -0.020749848 0.051277317 -0.109579995 -0.020599915
000390 f6 a7 b3 bd cb fe 08 3e 55 a7 ac 3d 5f 46 b5 bc
       -0.087722704 0.13378446 0.084303536 -0.022128282
0003a0 94 f8 e6 3d 41 50 4d bd be 12 ab bd 3f 5d 7b 3d
       0.11277881 -0.050125364 -0.08353184 0.061368223
0003b0 7c 53 2d bb 4c ba ad bd 8d 1a 7e 3c e2 44 8b bd
       -0.0026447466 -0.08482799 0.01550926 -0.06800248
0003c0 75 8b a7 bd 86 76 a7 3d 66 1e dd bd 57 a2 8f 3c
       -0.08180896 0.081769034 -0.10796814 0.017533464
0003d0 97 23 84 bd 07 70 a0 bd 99 bf 01 3e 62 61 57 3d
       -0.06452101 -0.078338675 0.12670745 0.052583106
0003e0 b1 16 f0 3d d5 23 9a 3d 1b 54 f3 bd 8e 67 07 3c
       0.11723078 0.07526366 -0.11881276 0.008264435
0003f0 7b 1d fc 3d 95 2f 0b 3c c9 32 bb bd 4d 62 f8 3d
       0.123103105 0.008495231 -0.09140546 0.121281244

bias f4 [32]
000000 9e 64 a6 bd 8e 95 3c bd 11 c9 10 be ab c4 ff bd
       -0.0812466 -0.046041064 -0.14139201 -0.12488683
000010 d1 c6 73 bd 06 1d 18 be 3b 5b 35 be 76 22 05 be
       -0.059515778 -0.14854822 -0.17710583 -0.13001427
000020 6c 17 dc 3d d5 e1 a2 bd 45 98 c9 bd ff f9 ca bd
       0.10746655 -0.0795323 -0.09843496 -0.09910964
000030 e5 13 01 be 8b 58 7e bd 93 87 5b be 9d 1a 6d be
       -0.12605245 -0.06209616 -0.21438436 -0.23154683
000040 9c ef 5c bc 8a cb fc bd 93 7c f4 bd 63 c7 2d be
       -0.013484862 -0.123435095 -0.11937823 -0.16970591
000050 d4 cc 8b 3d 17 d6 4a bd ab a9 bc bc 99 48 e1 bd
       0.06826177 -0.04952058 -0.023030123 -0.11000175
000060 1d ea 73 3d be 76 b8 3d 4b 70 52 be 96 26 99 bd
       0.05954944 0.09007023 -0.20550649 -0.07478063
000070 cf b1 2b 3d 1a e3 ca bd 3b f9 e4 bd c2 ea 7c be
       0.04191762 -0.099065974 -0.111803494 -0.24698928

weight f4 [32, 32, 2, 2]
000000 3f 17 0c 3d 0f dd 9d bd 73 38 cf b9 c2 fd c1 bd
       0.034201857 -0.07708179 -0.00039524175 -0.094722286
000010 b4 b0 da ba 6d 2a 02 bd 96 c7 77 bc d5 4f 25 bc
       -0.0016684742 -0.03177874 -0.015123269 -0.010089834
000020 c0 31 8b 3d 4c cb 6e bc 1e 75 00 3e 7a a7 9a bc
       0.067965984 -0.014574837 0.12544677 -0.018878687
000030 52 de 9f 3d ba 7d 85 bb 05 17 6f bc ad a3 9c 3d
       0.07806076 -0.0040738257 -0.014592891 0.07648406
000040 76 22 8b 3d b6 c7 41 3d 03 48 00 3e 5d 05 e7 3d
       0.06793682 0.0473096 0.1252747 0.1128032
000050 dd 98 c2 3b 0e c7 19 bd ed 4e cc bb 3b 85 70 3d
       0.005938633 -0.03754335 -0.0062349946 0.05872081
000060 cb 2e 93 bc dd 7b 3d 3d 1b 9d f0 bd 08 75 0f bd
       -0.017966649 0.046260703 -0.117487155 -0.03502372
000070 48 df 81 3c 32 33 22 3e 19 55 22 3e 08 1a a6 3d
       0.01585354 0.15839842 0.15852775 0.08110434
000080 80 59 11 be d7 9f 5b bb 8c d8 22 be 67 40 ba bd
       -0.14194298 -0.003351202 -0.15902919 -0.09094315
000090 04 05 22 3d 66 cc 55 bd 9f de 8a bd 9b a2 c6 bd
       0.039555565 -0.052196883 -0.06780743 -0.09698983
0000a0 77 20 a4 bd 71 93 b3 bd cc 3b e7 bd fc b5 ad bc
       -0.08014005 -0.087683566 -0.11290702 -0.021204941
0000b0 21 be 02 bb 72 31 4e 3d 67 15 7a bc cd 86 8b bd
       -0.0019949751 0.050340123 -0.015263892 -0.068128206
0000c0 08 5f 9f bb 1e 8c 31 bd 22 b8 ad 3c 64 9b 6a 3c
       -0.0048636235 -0.043346517 0.021205965 0.014319275
0000d0 fd 8d e6 bc 7c 67 3d bd 2e aa cd ba 6b 0c c1 bd
       -0.028143877 -0.04624127 -0.0015690976 -0.09426197
0000e0 7a ab ba 3d f5 22 80 bc 70 8c 64 3d f1 e5 99 3d
       0.09114738 -0.015641669 0.055797994 0.07514561
0000f0 90 31 09 3c f0 0b 77 3a 3c b2 63 bd 34 3d 1b be
       0.008373633 0.0009424081 -0.0555899 -0.15160066
000100 3f 2c ee 3d 79 96 15 3d 32 a9 ca 3d a0 f7 de 3d
       0.11629533 0.036520455 0.09895553 0.108870745
000110 f6 95 3a 3e 49 33 34 3e ab e0 a2 3d 78 8c a7 3d
       0.18221268 0.17597689 0.07953008 0.08181089
000120 49 e2 bc bc de 49 99 bd c8 c5 68 bd dd c1 72 bc
       -0.02305712 -0.07484792 -0.056829244 -0.014816728
000130 1a 53 cc 3b 60 ba bc 3d d1 c5 ca 3d c9 68 bd 3d
       0.0062354924 0.09215236 0.09901012 0.09248502
000140 7b 9b f4 bc b4 f1 25 be 6a d5 8a bd b6 3f 28 bd
       -0.029859295 -0.16205484 -0.06778987 -0.041076384
000150 6f ef 2c 3c 8b e0 bf bd 28 ef 50 3d f5 3a 55 3d
       0.010555132 -0.09369 0.051009327 0.05205818
000160 88 76 a5 bd 8b c3 93 bd 35 ee 96 3d fe 56 17 bd
       -0.08079249 -0.07215031 0.07369653 -0.036948197
000170 8e dc 3e 3d a6 f3 f8 3c ab 97 61 bd 40 ce b0 3d
       0.046597056 0.030389618 -0.055076282 0.08633089
000180 93 b6 0f 3d 19 17 1c bc 26 7e 94 bd 27 75 07 bd
       0.035086226 -0.009526991 -0.072506234 -0.03307071
000190 02 22 ae bd dc 8b b7 bc 7b 5a 8d 3c c8 b7 f1 bc
       -0.0850258 -0.022405557 0.017255059 -0.029506579
0001a0 94 6f df bc d7 07 b5 bc 99 8d d2 3c 4b ba 92 bd
       -0.027274884 -0.022098465 0.025702285 -0.07164439
0001b0 57 eb a2 3d 81 9c bd bb cb 98 cc 3b 53 8d a9 3d
       0.07955044 -0.005786479 0.0062438003 0.082789086
0001c0 f4 9b 6e 3d bc a5 d2 39 ff 56 03 3d d9 b2 fc 3a
       0.058254197 0.00040177803 0.032065388 0.0019279375
0001d0 f3 70 03 be af 99 b2 bb bb cd 8b bc 55 8b 38 bc
       -0.12836055 -0.0054504494 -0.017065873 -0.011263688
0001e0 16 d3 f2 39 c0 d2 45 bd 02 28 99 3c f6 3d 6b 3d
       0.00046315108 -0.04829669 0.018695835 0.057432137
0001f0 05 5a 09 3d 84 34 73 3d f9 72 0c 3d 2d 70 46 bd
       0.033533115 0.059376255 0.034289334 -0.048446823
000200 9c 33 4a bc 04 5d 8a bd 87 96 44 bc e9 c9 7e bd
       -0.012341406 -0.067560226 -0.011998779 -0.062204275
000210 0d 8d 31 3d 18 db 37 bd 34 c6 46 bd 3c 20 4b 3d
       0.043347407 -0.04488668 -0.048528865 0.049591288
000220 df ee c6 3d 9a 33 bb bc 2b 1b ac 3d a1 ac 2e bd
       0.0971353 -0.022851754 0.084036194 -0.0426451
000230 58 94 ed bc 79 b2 ea bb b5 3e 13 3d 9e 25 6e 3d
       -0.0290014 -0.007162389 0.035948474 0.058141343
000240 a3 70 cc 3c 4a 48 2d 3d 63 92 9d bd 95 11 00 bd
       0.024956053 0.04230527 -0.07693937 -0.031266768
000250 0a 4d 92 bc aa 0e 97 bd ad e9 4a bd ee e7 1a 3a
       -0.017859 -0.07375844 -0.049539257 0.0005909194
000260 3d d7 02 be 5d 39 34 be ed 97 0b be 68 71 f3 bd
       -0.1277742 -0.17600007 -0.13632174 -0.11886865
000270 01 ca c0 3c 3a 5b 03 be 8f 5e c6 3c 21 3f 7d bd
       0.023533823 -0.12827769 0.02421501 -0.061827783
000280 f1 cd 7b 3d 8b bd ae bd 6d 5b 04 3a 86 47 c3 3c
       0.061475698 -0.08532246 0.0005049024 0.023837816
000290 3f 5c 1d bd 62 d5 1b bd eb 6c 9b bd 86 6b 9e bd
       -0.03841805 -0.038045295 -0.07589134 -0.07735352
0002a0 8e eb 1a 3d 7c c7 df 3d 5a f9 be bc 7c fd 2e bd
       0.0378223 0.109267205 -0.02331226 -0.04272221
0002b0 88 2f 40 be 30 9e 9d bc 36 ae 42 be 33 3a 1c bd
       -0.18768132 -0.019240469 -0.19011769 -0.03814144
0002c0 cb ba 5b bd 12 66 4c bd 49 77 d5 bd 5c fb c1 3c
       -0.053644937 -0.04990203 -0.104231425 0.023679428
0002d0 eb 4d 05 3e 16 5c e2 3d b0 6f 0d 3c 2b ff ec 3d
       0.13018005 0.1105272 0.008632585 0.11572107
0002e0 ca 85 be bd b9 71 ec bd 55 9f c8 bd a2 f9 10 3d
       -0.09302862 -0.115451284 -0.09796015 0.03539432
0002f0 de bc fa 3d b7 6d 57 3d b8 de 89 3c 1e 1f be bc
       0.12243055 0.052594867 0.016829833 -0.023208197
000300 5a af c9 bc 36 59 09 be 93 83 06 be 43 c9 c6 bb
       -0.024619747 -0.13412938 -0.13136129 -0.0060664727
000310 7f d1 cd bd 1f 4d 03 be 91 64 aa bd b4 0f 8b bd
       -0.10049724 -0.12822388 -0.08319963 -0.067901045
000320 13 f3 ae 3d 83 74 2e bd b0 66 88 3d 3f 88 93 3d
       0.085424565 -0.042591583 0.06660211 0.07203721
000330 5c d3 09 be 5a fd 13 be f4 cc 1e be 06 cc 84 be
       -0.13459533 -0.14452115 -0.15507871 -0.25936908
000340 28 be 71 bd 65 13 10 bd 81 98 6c 3d 67 bb 9b 3d
       -0.059019238 -0.035174746 0.057762627 0.076041035
000350 01 5d 98 b9 28 4d 24 bc b0 b8 7e 3d 35 f8 9e 3d
       -0.00029060993 -0.010028161 0.06218785 0.077621855
000360 cc 94 a2 bd fb e6 b7 bd 6c 18 0d 3a 5d 05 db 3c
       -0.07938537 -0.08979603 0.0005382362 0.026735956
000370 6b 28 41 be f0 1f f4 bd 7c 23 87 bd 35 16 f8 bd
       -0.18863074 -0.11920154 -0.06598565 -0.12113611
000380 96 a8 c4 3d 1d 5d b8 bb 62 b7 52 bd 9c 27 8b bb
       0.09602468 -0.0056263343 -0.05144442 -0.004246665
000390 48 4f 6c 3d 2e 9d 97 bb da ca 38 3d c5 8f 5f bd
       0.057692796 -0.0046268916 0.04511533 -0.05458047
0003a0 7c b4 d1 bd 6a 03 e9 bd e1 19 92 bd 65 19 00 be
       -0.10239503 -0.11377604 -0.07133842 -0.12509687
0003b0 3d b5 85 bd d7 17 3e bd 2f 5d c5 bd 14 c3 e3 bb
       -0.06528709 -0.046409454 -0.09636914 -0.0069507454
0003c0 30 ac 75 bd 26 34 d8 bd fa b8 c5 bd f3 19 4c bc
       -0.059978664 -0.105568215 -0.09654422 -0.012457359
0003d0 f7 22 e1 3d c6 4b f9 bb 98 36 af bc d0 b8 48 bc
       0.10992997 -0.00760791 -0.021388337 -0.012251094
0003e0 33 9c 0c be 95 ec 9d bd 1b 78 dd bd 22 08 4f bd
       -0.1373146 -0.0771114 -0.10813924 -0.050544865
0003f0 5a db 5b 3d 55 d5 9c bd 44 e5 c4 bc 1c 2c b8 bc
       0.053675987 -0.07657877 -0.024035104 -0.02248197

bias f4 [32]
000000 0a 72 43 3b de 65 65 bd 87 7e ca 3d 80 b9 34 3c
       0.0029822611 -0.05600535 0.098874144 0.011030555
000010 59 47 5f bd a7 c2 2b 3d 35 29 a2 bb b2 6a 96 3d
       -0.0545114 0.04193368 -0.00494876 0.07344569
000020 94 2f bb 3c 52 73 d4 bc ce cf eb bc 3e 44 6a bc
       0.022849835 -0.025933895 -0.028785612 -0.014298497
000030 b2 51 ed 3c 53 a7 45 bd 12 d7 59 bc e8 db d7 bc
       0.02896962 -0.048255276 -0.013295906 -0.026349977
000040 6b 55 f3 bd c2 cc d6 3b 1f 69 40 bd 3f 1f 8c 3b
       -0.118815266 0.0065551708 -0.04697525 0.0042761858
000050 b1 f6 c5 bc 53 6f 2e bd ed 25 d0 bc d7 bc 70 bc
       -0.024165483 -0.042586636 -0.02540871 -0.01469346
000060 e3 6e 8a 3d 42 0e 7a 3c 1e ab 1e 3d c1 50 00 3d
       0.06759431 0.015262188 0.03873741 0.031327013
000070 fc ac 2e bd c4 06 44 3d f9 df 90 3d 59 83 ee bd
       -0.04264544 0.047858015 0.070739694 -0.11646146

weight f4 [64, 32, 2, 2]
000000 9e 1e 83 bd df 26 94 3d 1f 5d 61 3d cd 17 cc 3c
       -0.06402324 0.072339766 0.055020448 0.024913693
000010 7e e4 68 3e 46 d1 42 3e 36 7b a6 3e de 60 9c 3e
       0.22743413 0.19025144 0.32515877 0.30542654
000020 3c 50 25 be d2 bf 00 be 46 9e 34 be 61 ca 26 be
       -0.16143888 -0.12573174 -0.17638502 -0.16288139
000030 c4 6a eb bd f4 34 f3 bd 01 11 93 bd ef 30 0b bd
       -0.11494973 -0.118753344 -0.071809776 -0.033982214
000040 3c 9c 32 bd ff 8b 8b bd ba af 02 be 1a 8a 7c bb
       -0.043606028 -0.068138115 -0.12762347 -0.0038534463
000050 6d b2 4f be 37 f4 20 be ea 63 52 be b6 a6 6b be
       -0.20282908 -0.1571816 -0.20545927 -0.23012814
000060 82 57 5a bd de 8d c4 3d 38 36 a0 bd 09 4f 63 3b
       -0.05330611 0.095973715 -0.078228414 0.003468456
000070 82 f9 7d be 29 ca f5 bd 75 ba db bd d8 56 2b be
       -0.24802211 -0.120014496 -0.10728923 -0.16732347
000080 7b ed 7c bd 49 94 0b bd 28 91 14 3d a7 69 0b 3d
       -0.061749917 -0.034076963 0.036271244 0.034036305
000090 5f ef 39 3e 6c 4f 8e 3e a1 f9 41 3e 33 bd 83 3e
       0.18157719 0.2779497 0.18942882 0.25730285
0000a0 52 52 3a 3d 33 e2 a2 bd 4c 41 04 3d 10 d0 6e 3c
       0.045488663 -0.079533 0.032288834 0.014575973
0000b0 34 e1 ac bd 23 31 24 bd 18 b9 cb bc eb de b5 bc
       -0.084413916 -0.040085923 -0.024868533 -0.022201022
0000c0 7b 42 ea bd fc 44 0e be cd 4b 74 be d2 86 68 be
       -0.114384614 -0.13893503 -0.2385704 -0.2270768
0000d0 37 ea 67 be e9 59 12 be dd 34 0a be 64 9b d5 bd
       -0.2264794 -0.1429211 -0.13496728 -0.10430029
0000e0 bd 53 8e 3e 6c a4 47 3e 84 8b a9 3e af d1 b0 3e
       0.27798262 0.19496316 0.33114254 0.34534976
0000f0 f9 4a aa 3e 03 a9 55 3e d0 85 b3 3e 79 e9 4f 3e
       0.33260325 0.20865254 0.35063028 0.20303907
000100 c3 e4 9d 3e 97 46 b8 3e 60 51 8e 3e 01 a2 97 3e
       0.30838594 0.35991356 0.2779646 0.29615787
000110 e1 80 94 3d 89 98 0b 3e df 9a 72 3c 74 bf 02 3d
       0.07251144 0.13632406 0.014807432 0.031920865
000120 c6 4b 51 3e ce 97 6f 3e 61 28 61 3e 47 1b 48 3e
       0.20439062 0.23397753 0.2198806 0.19541655
000130 ec b7 fd 3d 31 93 07 3d e0 1e 49 bc d0 19 22 3d
       0.12388596 0.033099357 -0.012275428 0.039575398
000140 22 f8 21 3d bd a7 54 bd f4 d9 8e bc 80 fa 08 bd
       0.03954328 -0.05191778 -0.017437913 -0.03344202
000150 ad 9d 59 3e 0f 4a 7e 3e 98 87 62 3e 3b bd b7 3e
       0.21251555 0.24832939 0.22122037 0.3588656
000160 3f e2 9a 3c d1 b9 e3 3b c9 9e 1f 3d 63 96 55 bd
       0.01890671 0.0069496413 0.03896979 -0.052145373
000170 90 83 81 3d 0d e8 9c 3d 1c 7b b3 3d c1 2d 5e 3d
       0.06323922 0.07661448 0.087637156 0.054242853
000180 d7 ed 03 be e1 5c f0 bd f1 65 9e be 57 38 69 be
       -0.12883697 -0.11736465 -0.3093715 -0.22775398
000190 6f e5 03 be 9e 94 1d be 97 a0 d3 bd 5c 8a 95 bd
       -0.1288049 -0.15388724 -0.103333645 -0.073017806
0001a0 ca 86 1b bd 76 c6 ac 3d 4c 51 ef 3b 62 2a 2f bc
       -0.03797034 0.08436291 0.0073033925 -0.010691257
0001b0 dd a5 74 bd 51 d1 5a bd 52 25 63 3d 0f 40 73 3d
       -0.059728492 -0.053422276 0.055455513 0.059387263
0001c0 a0 84 f3 3c 49 71 80 3c 3d 47 cc 3c dd 79 22 3d
       0.029726326 0.015679019 0.024936313 0.039667
0001d0 ee ac 3b be 66 3b 3d be 13 07 2d be 9a b3 13 be
       -0.18327686 -0.1847969 -0.1689723 -0.14423981
0001e0 e7 36 31 be c8 fc 46 bd 0c b5 d4 bd 86 74 4c bd
       -0.173061 -0.048580915 -0.103860945 -0.049915813
0001f0 cc 73 0f 3e 04 42 3b 3e 3f c7 d3 3d 58 c3 87 3d
       0.14009017 0.18286902 0.103407376 0.06629056
000200 6a b9 7f 3d e7 8d 42 bd 71 82 8b 3d 9b 6e 88 bd
       0.062432684 -0.04749861 0.06811989 -0.06661721
000210 a7 20 54 b9 e0 57 1c bc b1 86 b4 3d c7 33 f9 3d
       -0.0002023006 -0.009542435 0.08814753 0.12168079
000220 c1 38 08 be 74 d9 8b bd 01 01 7f bd ed 57 2a bd
       -0.133029 -0.06828585 -0.062256817 -0.04158776
000230 9b 55 f4 bd 6f b9 f9 bd a1 bf ac bd a4 56 03 be
       -0.119303904 -0.12193572 -0.08434988 -0.1282602
000240 39 a8 1f bb 9a 72 47 bd fa f5 87 bd 51 59 e3 bd
       -0.0024361743 -0.048693277 -0.06638713 -0.1110102
000250 f6 76 0c 3d 96 3c b2 bd 8c c4 eb bc 0a f3 e0 bd
       0.034293137 -0.08702962 -0.028780244 -0.10983856
000260 79 4c 7f bb 12 f5 d1 bd fc dd 36 bc 23 ba ac bc
       -0.0038955493 -0.102518216 -0.011161324 -0.02108485
000270 8c a6 75 bb d5 36 53 bd 18 1a 86 bd e7 1a d6 bc
       -0.0037483303 -0.051565964 -0.06547946 -0.026135875
000280 c3 d0 24 3d 37 3e ed 3c 4d 00 47 3d 28 58 50 3d
       0.040238153 0.02896033 0.04858427 0.050865322
000290 e0 40 29 bd ba a3 2b 3d b3 be 40 3d fa ae 8b bc
       -0.041321635 0.04190419 0.047056865 -0.017051209
0002a0 9a 4b 19 3c 82 0d 5c bc 72 72 d9 3d c9 ce fd 3c
       0.009356404 -0.013430955 0.10617532 0.030982392
0002b0 35 ef a4 3d 6c f6 3a bd 61 60 05 bd aa 17 e2 3d
       0.080534376 -0.045645162 -0.032562617 0.1103967
0002c0 61 0f 98 bd 87 50 ac 3c 0a 3e 75 bc db f6 8d 3c
       -0.07424808 0.021034492 -0.014968405 0.017329624
0002d0 26 69 3a 3c a2 7c 02 3e 38 14 01 3e 76 cb 12 3d
       0.011377608 0.12742856 0.12605369 0.035838567
0002e0 d6 ea 23 bd bf 4b db 3d ab bf 4d 3c db a3 a8 bc
       -0.04001888 0.10707807 0.012557904 -0.020585945
0002f0 a6 9e 70 3d 86 7f 5a bd d8 a6 9a bc d4 c8 e6 3d
       0.05874505 -0.053344272 -0.018878385 0.11268774
000300 4a 44 82 3d 38 f9 f9 3d 9f ed 10 bd 50 16 b2 bc
       0.06360681 0.12205738 -0.035382863 -0.021739155
000310 c3 8c b0 3d 55 46 9a 3c 72 d6 16 3d 46 81 44 3c
       0.08620598 0.018832365 0.036825605 0.011993712
000320 77 94 b3 3c a2 62 88 3d a5 a0 f0 bb ab 26 0b 3d
       0.02192138 0.06659438 -0.007343369 0.033972424
000330 a9 1a 6c bd 39 18 76 3d 4e 8e 42 3d 39 44 08 bd
       -0.057642613 0.060081694 0.047498994 -0.033268187
000340 57 30 a9 bd 10 53 95 bd c8 8a 93 3b c3 6d 75 bd
       -0.08261173 -0.072912335 0.004502628 -0.05991913
000350 9a c7 42 3d 79 82 b1 bd 8f 26 0e bc f9 19 4b bc
       0.047553636 -0.08667464 -0.008676185 -0.012396329
000360 96 d8 1c bc 4d 4e 66 3d 26 dd b4 3c 29 a4 80 3c
       -0.0095731225 0.056227017 0.022078108 0.015703278
000370 ac ac 90 3d 08 a4 30 3e 01 1e 24 3e a5 9f b7 3c
       0.070641845 0.17250073 0.1602707 0.022414992
000380 1c a3 26 be 62 48 d8 bd 90 1b 01 be a4 b7 e8 bd
       -0.16273159 -0.10560681 -0.1260817 -0.11363152
000390 79 a6 a6 bd 8e f5 e6 bd 6c 2a 36 be 1b 77 fa bd
       -0.08137221 -0.112773046 -0.1778962 -0.12229749
0003a0 63 be 90 bd 0d d3 8a bd c9 44 6e bd 7a 41 5a bd
       -0.070675634 -0.06778536 -0.058171067 -0.0532851
0003b0 a3 39 40 bd 2f 08 1d be c6 3a 02 be d3 40 44 bd
       -0.046929967 -0.15335153 -0.12717733 -0.047913384
0003c0 bf 61 83 bd 80 d3 97 bd f3 5c 49 bd 5a 6e da bb
       -0.06415128 -0.07413387 -0.04916091 -0.006665987
0003d0 ec 29 5c 3c 50 95 d8 bc fc 2f 61 bd 55 23 d0 bd
       0.013437729 -0.026438385 -0.054977402 -0.10162989
0003e0 5e d2 96 bd 3b cb c7 bc ad 5a 15 be ba a2 fd 3b
       -0.07364343 -0.0243889 -0.14585371 0.007740346
0003f0 68 94 37 3e 58 de 11 3e 65 85 30 3e 29 c8 71 3d
       0.17927706 0.14244974 0.17238386 0.05902878

bias f4 [64]
000000 e8 ae 19 be a8 68 38 be 18 f1 2a be 0b 83 82 bd
       -0.15008128 -0.18008673 -0.16693532 -0.06372651
000010 d6 d4 20 be d3 42 c8 bd 66 60 87 be 4d 15 0c be
       -0.1570619 -0.09778371 -0.26440734 -0.1368
000020 e6 64 a4 3d a3 8e 9e bd 0e 61 51 bd e1 71 97 bd
       0.08027057 -0.077420495 -0.05111795 -0.073947676
000030 f4 af 6b bd d2 4e 08 be 09 b1 19 be 45 68 4f be
       -0.05754085 -0.13311318 -0.1500894 -0.2025462
000040 86 ab 3e bd 57 08 a6 bd 00 40 e6 bd 43 28 56 bd
       -0.046550296 -0.081070594 -0.11242676 -0.05228449
000050 78 44 43 bd ff 72 15 bd 04 0b d6 bd ff 9b d7 bd
       -0.04767272 -0.036486622 -0.1045132 -0.10527801
000060 63 bb 01 be cd fb 2e be d8 f4 c7 bd 02 66 03 be
       -0.12669139 -0.17088242 -0.09763497 -0.12831882
000070 0b db e5 bd b8 36 14 be 28 71 fe bd 89 24 04 bd
       -0.1122342 -0.14473999 -0.124239266 -0.032261405
000080 f1 63 9d bd bf 9e ed bc cf 9a f3 bd d3 55 dd bd
       -0.07685078 -0.02900636 -0.11894762 -0.10807385
000090 55 92 9a 3c b7 76 10 be e2 60 d5 bb 16 33 dd bd
       0.018868605 -0.14107786 -0.0065117935 -0.108007595
0000a0 d2 85 45 be 7e ba 15 be 7e 58 20 be eb b1 07 bd
       -0.1928933 -0.14621922 -0.15658757 -0.03312866
0000b0 05 81 aa bd 70 f2 a9 bc 56 d1 11 be 34 20 b7 bd
       -0.0832539 -0.020745486 -0.14240012 -0.08941689
0000c0 9a 7d b0 bd ba 45 07 be e9 db eb bd 97 78 20 bd
       -0.086177066 -0.13210192 -0.11516554 -0.039177503
0000d0 08 bb e7 bd a6 d4 09 be 55 46 c2 bd 49 d3 a8 bd
       -0.1131497 -0.13460025 -0.09486071 -0.082434244
0000e0 7f bf e2 bd d7 c2 b1 bd c9 31 b2 bd 0a 3d b6 bd
       -0.11071681 -0.08679741 -0.08700902 -0.08898361
0000f0 5c da fc bc 48 a6 d8 bd 10 36 b4 bd 5a 69 87 bd
       -0.03086584 -0.10578591 -0.08799374 -0.06611891

weight f4 [64, 64, 2, 2]
000000 21 45 4f bd 4b 97 28 3d 99 78 47 bd da ae 4b 3d
       -0.050603036 0.04115991 -0.048698995 0.0497273
000010 bc ab 22 bd f2 6c 42 3c a5 52 d8 bb d3 0b 55 bd
       -0.03971456 0.011866795 -0.006601649 -0.05201323
000020 42 18 23 bd 24 27 39 bd 44 82 1a bd bd 4d 76 bd
       -0.039818056 -0.045203343 -0.037721887 -0.06013273
000030 c0 24 49 bd 2d 89 b1 3a 1c 13 6a 3b 80 3b 86 bd
       -0.049107313 0.001354491 0.0035716956 -0.065543175
000040 52 df 1c bc 57 8f 06 3d 08 7f 3e 3d 4c 05 21 bd
       -0.009574728 0.032851543 0.046507865 -0.039311692
000050 8a e6 66 3b 5d 50 30 bd 6d c0 55 3b 3b 25 dd bb
       0.0035232627 -0.04304539 0.0032615915 -0.006748823
000060 51 fa 95 3e b6 3e 72 3e fd 63 6a 3e e1 fa 80 3e
       0.2929254 0.23656735 0.22889705 0.25191405
000070 2b b0 b9 3c 5c 10 85 bd 26 9e 76 bd 52 c5 c4 bc
       0.022667011 -0.06497261 -0.060209416 -0.02401987
000080 ac 3e ee 3c c5 ff 05 3d 9f e5 fd bc 15 51 46 bc
       0.029082619 0.032714624 -0.030993281 -0.012104292
000090 c0 e9 c2 ba 78 6b a5 3c 48 26 bc bc a2 db 2a 3d
       -0.0014870688 0.020192847 -0.022967473 0.041713364
0000a0 89 40 8c bd ea f4 f7 3c 9a de cf 3a e1 d8 d7 bc
       -0.068482466 0.030268151 0.0015859187 -0.026348533
0000b0 fc 6a 9d 3c 25 d5 cd bc 79 f4 98 bc f9 09 41 3d
       0.019216053 -0.02512605 -0.018671261 0.04712865
0000c0 6b c4 76 3d 37 78 cb bb 79 a6 33 3d 8d 98 4b 3d
       0.060245913 -0.006209399 0.043859933 0.04970603
0000d0 74 9a 89 bd 08 cb a2 bd ae 05 b6 bd 5b 5c 07 be
       -0.06718913 -0.079488814 -0.08887802 -0.13218825
0000e0 f3 19 a5 3d 16 b1 e5 3d ce 54 ad 3d b4 7e bc 3d
       0.0806159 0.11215417 0.08463441 0.09203854
0000f0 bc 30 df bd 12 13 dc bc 9b 74 9c bc 78 c9 b1 bb
       -0.10897967 -0.026864562 -0.01909857 -0.0054256283
000100 d0 05 9c bc aa 84 9f 3d fc 3e 64 bc 46 54 ba 3d
       -0.01904574 0.077889755 -0.013931032 0.09098105
000110 d2 c7 d2 bc 2c 3a 38 bc 4c d1 d3 bc 26 5a a9 3d
       -0.025730047 -0.011244338 -0.025856636 0.082691476
000120 e7 e3 8f 3c 60 73 ab bc 04 f4 60 3d 31 af bc 3d
       0.017564727 -0.020929039 0.05492021 0.092131026
000130 44 c8 b5 bd 87 25 37 bd 93 81 ae ba 75 56 b8 bd
       -0.08876088 -0.044713523 -0.0013313763 -0.09000865
000140 90 06 02 bd 6e 5d 4a bd c9 69 7c bd c2 93 88 bd
       -0.03174454 -0.049405508 -0.061624322 -0.066688076
000150 d1 81 dc 3d a5 4f c4 3d 64 57 a6 3d 91 d7 86 bb
       0.10766948 0.095855035 0.08122137 -0.004115053
000160 e8 4c ae bd ff d3 9e bc f1 2c 25 bc 15 0d c7 bd
       -0.085107625 -0.019388197 -0.010081516 -0.09719292
000170 ff 4a a4 3c ed 61 50 bc c9 68 3d bd 03 71 1c bd
       0.020055292 -0.01271866 -0.04624251 -0.038193714
000180 84 9f e4 3c f3 8b 33 bc b9 7f 4d 3c ad cc be 3c
       0.027908094 -0.010958659 0.0125426585 0.023290956
000190 0d b2 05 bd 02 c8 d3 3b 58 93 49 3c 9d c5 cd bd
       -0.032640506 0.006463052 0.012303196 -0.10047457
0001a0 e1 47 01 3d 1b 64 83 3d 1b fb a2 3c 9a 3a 7c 3d
       0.03156269 0.06415578 0.019895127 0.061579324
0001b0 41 36 af 3c e6 70 87 3b 0f a3 0e 3d ad 03 00 bb
       0.021388175 0.0041333316 0.034823474 -0.001953344
0001c0 25 22 3e bd b5 54 e1 3c 5d 25 93 bc 35 c2 0a 3d
       -0.04641928 0.027506212 -0.017962152 0.033876617
0001d0 ee d4 e2 bc 29 55 5c 3d 87 02 8e bc 6a b8 e2 3c
       -0.027689423 0.053792153 -0.01733519 0.027675826
0001e0 e2 69 99 bd b7 59 5f bd 25 33 cb bc a9 21 8a bd
       -0.07490899 -0.054528918 -0.024804661 -0.067447014
0001f0 05 d2 06 bd b0 bf d3 3b 92 88 05 bc 24 12 aa bd
       -0.032915134 0.00646206 -0.008150237 -0.08304241
000200 32 94 14 3d 13 9d 2e 3d 85 ba f8 3c 66 8c 96 bd
       0.036274143 0.042630266 0.030362377 -0.073509976
000210 26 9e f3 3c f5 57 70 bd 57 47 2c 3d 47 4d 9a 3c
       0.029738497 -0.058677632 0.042060222 0.018835677
000220 75 70 2a 3d 24 15 b2 3c b5 64 43 3d 2c 28 bc 3c
       0.041611154 0.021738596 0.047703464 0.022968374
000230 da 15 cb bd 67 06 6a 3c e7 5f c8 bc 5a 78 97 bd
       -0.09916277 0.014283753 -0.024459792 -0.07396002
000240 49 db b0 3c b4 1b bd bc 06 7c 01 3d bb 1e 3d 3c
       0.021588938 -0.023084499 0.03161242 0.011542971
000250 b0 9d f0 3c e6 68 32 3b c0 04 a4 3a da be 19 ba
       0.029372066 0.002722317 0.0012513623 -0.0005864926
000260 c3 2d 08 3d df f9 b1 3d a5 c6 a4 bc 20 03 0c 3c
       0.033246767 0.08690237 -0.020114252 0.008545667
000270 7d 29 4b 3b e1 c8 cd bc c6 a4 28 3c 59 a6 81 3c
       0.003100007 -0.0251202 0.010293191 0.015826391
000280 99 45 57 3d 90 aa 22 3d 5d 7d 5a 3d 51 ec 53 3d
       0.052556608 0.039713442 0.053342212 0.05173904
000290 b3 4a 57 bd a9 7b 5c bd 07 e6 ae 3c a5 96 1b 3d
       -0.052561473 -0.05382887 0.02134992 0.037985463
0002a0 04 6b dd 3d cb 0d 0b 3e 18 d3 bf 3d 49 fa 00 3e
       0.10811427 0.1357948 0.09366435 0.12595476
0002b0 fe f8 14 3d 9e 9d 91 3d 06 f5 83 3d 9e 3a a4 3d
       0.03637027 0.07110141 0.06443219 0.08018993
0002c0 d0 9f 6c 3d 80 7b 0e bb 42 d7 10 3d 64 90 d5 3c
       0.057769597 -0.0021741092 0.035361536 0.026069827
0002d0 2d 78 97 3c 72 67 95 3d ff 0e 05 3d 5b 53 9f 3c
       0.018489921 0.07295121 0.032485005 0.019448927
0002e0 39 b9 76 bd 3a c6 db bc 1a 3e 8b bc 4c e7 a7 bd
       -0.060235236 -0.02682792 -0.016997386 -0.08198413
0002f0 71 c8 43 b8 68 a4 5e 3d 31 31 a9 bc 76 5b f3 3b
       -4.66783e-05 0.05435601 -0.02065334 0.0074266745
000300 50 a1 d7 bc 3c 76 6c bd 9d d8 6d bd 02 e5 a7 bd
       -0.026322037 -0.057729945 -0.058067907 -0.08197977
000310 0d 06 ba 3c b4 66 23 bb 4a e5 43 bb ef 66 e9 bc
       0.022707963 -0.0024933042 -0.0029891306 -0.028491465
000320 6a da 16 3d 92 cc 20 3d 9f 8a e2 3c df b2 d7 3c
       0.03682939 0.039257593 0.02765399 0.02633041
000330 c6 c2 c1 bd 8d e6 55 bd cf 43 f0 bc 0c 51 0f bd
       -0.09460978 -0.052221823 -0.029329209 -0.0349894
000340 16 ea a6 3d ce 11 62 3d 59 55 25 3d 1b dc 12 3d
       0.08150117 0.05519276 0.040364597 0.03585444
000350 1a 68 4f 3d 4e c8 3a bd 2e 79 4d bd b9 88 0e 3d
       0.05063639 -0.04560118 -0.050164394 0.034798358
000360 bb 21 7f bc a0 f3 dc 3c 9e c1 4e bc 38 28 8a 3c
       -0.015572007 0.026971638 -0.012619404 0.01686488
000370 fe 5b 63 3c 62 b7 d3 bb 94 18 92 3d 8b b2 b4 3d
       0.013876913 -0.00646107 0.07133594 0.08823117
000380 6e 29 6f bd fa e5 ce 3a ab 86 6e bc 1c ee ba bd
       -0.05838912 0.0015785091 -0.0145584745 -0.09127447
000390 35 33 5e bb 66 c8 ae bd 7b 85 47 bc cb ee 85 bd
       -0.0033905033 -0.08534317 -0.01217782 -0.06539687
0003a0 70 09 4f bc 8c 20 76 bd 20 49 5a bc c0 c4 64 bd
       -0.012636527 -0.060089633 -0.013323098 -0.055851698
0003b0 5d a0 6b 3c c5 fc 13 3d 10 d6 63 bd a9 fa 13 3c
       0.014381495 0.03612973 -0.055624068 0.00903193
0003c0 95 43 e2 ba 98 e0 1d bc df 13 19 3d f6 79 a6 3d
       -0.0017262573 -0.009636067 0.037372466 0.08128731
0003d0 99 51 1f 3d 63 95 87 3d e8 f1 9e 3d 84 1a 2c bb
       0.038896177 0.0662029 0.07760984 -0.0026260922
0003e0 7c 54 07 bd 3a 8c e2 bc 84 6b 1d 3d 6c 63 14 3d
       -0.033039555 -0.027654756 0.038432613 0.03622763
0003f0 48 91 76 bc e0 c0 d6 bb 08 19 7a bc 9c 1b a6 bc
       -0.015049286 -0.006553754 -0.015264757 -0.020276837

bias f4 [64]
000000 8f da a8 bd 5a fe 51 3b dc 1a 06 bd b3 e5 5d bc
       -0.08244812 0.0032042474 -0.03274046 -0.013543534
000010 fd e0 e0 3d 67 a7 52 3c 9b e7 58 3d 57 55 9a bd
       0.10980413 0.012857295 0.05295525 -0.075358085
000020 b7 19 92 3d a3 9f 03 bd 56 a7 c2 bd cd d3 70 bb
       0.07133811 -0.032134663 -0.09504573 -0.0036747337
000030 62 58 b0 3d 9f 70 62 bd 74 ce 62 3d e9 72 d4 bd
       0.08610608 -0.055283185 0.05537267 -0.1037348
000040 eb 37 9a 3d f6 52 39 bd c4 d8 1a 3e ce 24 c7 bd
       0.07530197 -0.045245133 0.15121752 -0.09723817
000050 64 47 cf bc 99 51 c8 bd ef b7 0b be 8e 63 3b bd
       -0.025302596 -0.097811885 -0.13644384 -0.04574924
000060 d3 eb 1e 3d f4 3e 2a 3e c9 0c 98 3d 36 56 47 bc
       0.03879912 0.16625577 0.074243136 -0.01216655
000070 2b ad f5 3d 13 0e 1a 3d 83 2c e6 bc c2 9d 80 bd
       0.1199592 0.03761108 -0.028097397 -0.0628009
000080 20 b5 27 bd 73 4b ce 3d 45 39 ba bc 2e d3 c1 3d
       -0.04094422 0.100729845 -0.022732386 0.094641075
000090 9c a2 73 3d 94 fe ff 3d 84 61 e0 3d 6b 4f 02 3d
       0.05948125 0.12499729 0.109561 0.03181402
0000a0 3c 0a 31 3d 55 d4 9e bd 54 20 92 3d bb f9 f4 3b
       0.04322265 -0.07755343 0.07135072 0.0074760593
0000b0 2e 2e 92 bd d3 11 df 3d 80 44 a4 3d 7f 4a 92 3c
       -0.07137714 0.108920716 0.08020878 0.017857788
0000c0 df f7 3b 3d 11 22 f3 3d 66 4a 82 3d 8c a5 92 3d
       0.045890685 0.11871732 0.063618466 0.07160482
0000d0 b1 c1 0d 3d 7c 2e 13 be 6b 0c 01 be 02 33 33 bd
       0.034608547 -0.14373201 -0.12602393 -0.043749817
0000e0 fe 68 1c bd 8a ed 78 bd ef fa 24 3e d7 57 11 3d
       -0.038186066 -0.06077341 0.16111349 0.03548416
0000f0 06 47 85 bd 2e 38 87 3d ff b7 84 bd 3a a0 bd bd
       -0.06507687 0.06602512 -0.06480407 -0.092590764
