output/train_14_12_23_part-1/unet_tgs_salt.pth (torch, 247127 bytes, 26 tensors)

weight f4 [16, 3, 2, 2]
0	0xbe4e2e7e	-0.20134923
1	0x3d7a6aa5	0.06113686
2	0xbe94f5b0	-0.29093695
3	0xbdc61539	-0.09672017
4	0xbd0ca3c5	-0.03433587
5	0x3da44445	0.08020834
6	0xbdc82211	-0.09772123
7	0x3d966a6c	0.07344517
8	0xbcca71f1	-0.024712535
9	0xbe884e73	-0.26622352
10	0xbe83fbf5	-0.25778165
11	0xbe9ad7b8	-0.30242705
12	0x3e0c12eb	0.13679092
13	0x3dad8b58	0.08473843
14	0xbe82d0e3	-0.25549993
15	0xbdd801b6	-0.10547201
16	0xbe8a07d8	-0.2695911
17	0x3e0f2b72	0.13981417
18	0x3d7bda7e	0.061487667
19	0xbe408046	-0.18798932
20	0xbea34f5c	-0.31896484
21	0xbe135276	-0.14386925
22	0xbe6f63f6	-0.23377976
23	0xbea8b4e3	-0.32950506
24	0x3e22f7ca	0.15914837
25	0xbb21c7ab	-0.0024685662
26	0x3e652906	0.2237893
27	0x3d86d3ad	0.06583343
28	0xbe969d23	-0.2941676
29	0xbd67233e	-0.056430094
30	0x3e5c0597	0.21486507
31	0xbe991675	-0.29899946
32	0xbe35cb08	-0.17753232
33	0x3dd3c96e	0.10341154
34	0x3e7f6676	0.2494143
35	0x3e7772ac	0.24164838
36	0x3ca913a7	0.020639254
37	0xbdb359c0	-0.08757353
38	0xbd36d1cc	-0.04463367
39	0x3e0781de	0.13233134
40	0x3bd3c3bd	0.006462543
41	0xbce7a6c3	-0.02827776
42	0x3e181c60	0.14854574
43	0xbdb9b04a	-0.090668276
44	0xbd9e0839	-0.07716412
45	0x3dc2cd32	0.09511794
46	0x3b10eaba	0.0022112564
47	0x3e54ade7	0.20769463
48	0x3d0298f8	0.031884164
49	0xbddcb166	-0.107760236
50	0x3e83bb2b	0.25728735
51	0xbe45e83a	-0.19326869
52	0x3d8f2d3f	0.06991052
53	0xbda9d0a2	-0.08291747
54	0x3e492b79	0.1964549
55	0x3db45114	0.08804527
56	0x3e9e7b27	0.30953333
57	0xbe3c028f	-0.18360351
58	0x3e4cc224	0.19995934
59	0xbe6a7ca6	-0.22899112
60	0x3e899b8e	0.2687649
61	0xbdc72732	-0.09724273
62	0x3e3f8728	0.18703902
63	0x3c854470	0.016267985
64	0x3cafe6b7	0.021472318
65	0x3cb638e0	0.022243917
66	0x3e31790a	0.17331329
67	0xbe5af52d	-0.2138259
68	0xbd489f48	-0.048980027
69	0x3b9048e8	0.0044032224
70	0x3e2b5966	0.16733322
71	0x3e99d38c	0.3004421
72	0xbe1df90b	-0.15427034
73	0xbe983eb7	-0.29735348
74	0x3d7890d5	0.060684998
75	0xbe637adf	-0.2221484
76	0xbe687c21	-0.22703601
77	0xbe4b48b8	-0.19851959
78	0xbd74918e	-0.059709124
79	0x3e40b00e	0.1881716
80	0x3ea76321	0.32692817
81	0x3e48572d	0.19564505
82	0x3e1df569	0.15425648
83	0xbdeb2e1d	-0.11483405
84	0xbe09d369	-0.13459553
85	0x3dd6badf	0.104848616
86	0xbe9f6b6c	-0.31136644
87	0x3e35bf23	0.17748694
88	0x3e1b17c4	0.15145785
89	0xbdae2d78	-0.08504766
90	0x3e1b9154	0.15192157
91	0xbea3523a	-0.3189867
92	0xbe32bef0	-0.1745565
93	0xbe67856c	-0.2260949
94	0x3d1a2e18	0.037641615
95	0x3dfc8c31	0.12331427
96	0x3e37a383	0.17933469
97	0x3be295d7	0.006914835
98	0xbd8de577	-0.069285326
99	0x3db8a34a	0.0901552
100	0xbd055ed4	-0.03256114
101	0x3e0c58cd	0.1370575
102	0xbd644910	-0.05573374
103	0xbdb0f7af	-0.08640992
104	0x3d9f6e02	0.07784654
105	0x3e59efae	0.21282837
106	0xbe86afba	-0.26305944
107	0xbba17981	-0.0049278145
108	0x3e701c0d	0.234482
109	0xbe8694ff	-0.2628555
110	0xbeab9c2d	-0.3351759
111	0x3d8ae590	0.06782067
112	0xbb1dc9c4	-0.002407656
113	0xbe5cc0c5	-0.2155791
114	0x3dc0f7d1	0.09422267
115	0xbe4daaeb	-0.20084731
116	0xbea2c090	-0.3178754
117	0xbe12efbb	-0.14349262
118	0xbe7464fd	-0.23866649
119	0x3df866de	0.12128995
120	0x3dbbce7b	0.091702424
121	0xbe67a81d	-0.22622724
122	0x3e0e5fb3	0.13903694
123	0xbce5d961	-0.028057756
124	0x3cf06c2e	0.02934846
125	0xbe1c6a66	-0.15274963
126	0x3ce4e2b2	0.027940128
127	0x3e8c73ac	0.27432
128	0xbe52f4f6	-0.20601258
129	0xbe72f0d5	-0.23724683
130	0xbe5a4c0f	-0.21318077
131	0xbe84ed9b	-0.2596253
132	0xbe8ecca1	-0.27890494
133	0xbdb908e7	-0.09034901
134	0xbc3cc7a5	-0.011522208
135	0x3cdbf0da	0.026848245
136	0x3d7ac5b2	0.061223693
137	0x3d43a6c0	0.047766447
138	0x3e650f86	0.22369203
139	0xbc92372c	-0.017848574
140	0xbde151e4	-0.110019475
141	0x3d35faec	0.04442875
142	0x3e471d7c	0.19444841
143	0xbd8a68d5	-0.067582764
144	0x3e78381d	0.24240156
145	0xbe8b9951	-0.2726541
146	0x3dcae223	0.099064134
147	0xbe973505	-0.29532638
148	0xbd92e2c7	-0.071721606
149	0xbe9daaf6	-0.30794495
150	0xbea04dfc	-0.31309497
151	0xbe8ba8ee	-0.2727732
152	0x3e8135c1	0.25236323
153	0xbd1be0bd	-0.038056124
154	0x3e349826	0.17636165
155	0x3d93fe03	0.07226183
156	0xbe83bbae	-0.25729126
157	0x3e20c2b3	0.15699272
158	0xbd851ccd	-0.06499634
159	0xbd5b86a0	-0.053595185
160	0xbe8c51bc	-0.27406108
161	0xbd3a616b	-0.04550306
162	0x3d9dbc34	0.077019125
163	0xbda91f76	-0.08257954
164	0xbcd88add	-0.026433403
165	0x3db4b799	0.08824081
166	0x3d907bdf	0.070548765
167	0xbe6107dd	-0.21975656
168	0xbe05748c	-0.1303274
169	0x3ba1ea0b	0.00494123
170	0xbdd65f73	-0.10467424
171	0xbcfa8986	-0.030583154
172	0x3de65d39	0.112482496
173	0x3b976fe2	0.004621492
174	0xbe75215d	-0.23938508
175	0xbe948644	-0.29008687
176	0xbd65d90c	-0.056115195
177	0x3c885117	0.01664023
178	0xbd3e046f	-0.046390947
179	0x3e0e4a52	0.13895538
180	0x3e342726	0.17593059
181	0xbea527a7	-0.32256815
182	0x3dd1aca0	0.10238004
183	0x3d277df0	0.040891588
184	0xbe918e84	-0.28429043
185	0x3e2d97e4	0.16952473
186	0x3e59fdb6	0.2128819
187	0xbe5f5f36	-0.21813664
188	0x3d3e2199	0.04641876
189	0x3e29ed82	0.16594508
190	0xbdcbe8b2	-0.099564925
191	0xbda4022c	-0.08008227

bias f4 [16]
0	0x3ccc2606	0.024920475
1	0xbd48eec4	-0.04905583
2	0x3bc7e29f	0.0061000134
3	0xbe96b73f	-0.2943668
4	0x3e41dbc8	0.18931496
5	0xbe71e03b	-0.23620693
6	0x3e4e881d	0.2016911
7	0xbebb28f8	-0.36554694
8	0x3e2423d3	0.16029291
9	0xbdee5ae1	-0.116384275
10	0xba32f0ec	-0.0006826061
11	0x3ddeed28	0.10885078
12	0x3c102e7e	0.008800147
13	0xbde7e204	-0.11322406
14	0xbe676f1c	-0.22600979
15	0x3d898647	0.067150645

weight f4 [16, 16, 2, 2]
0	0xbdfdd4f9	-0.12394137
1	0xbd701a57	-0.05861887
2	0xbc47976f	-0.012182101
3	0xbde87b3f	-0.11351632
4	0x3b4bbbe5	0.0031087336
5	0xbe302483	-0.17201428
6	0xbe173207	-0.14765178
7	0xbe20f1d9	-0.15717258
8	0x3d71162e	0.058859043
9	0x3d95c3d6	0.07312743
10	0xbd9b518e	-0.07583915
11	0x3d87c7dc	0.06629917
12	0x3d0e013f	0.034669157
13	0x3d16f832	0.03685779
14	0xbdc16ea6	-0.09444933
15	0xbd58f349	-0.05296639
16	0xbd8fdf2a	-0.07024987
17	0xbe0174f1	-0.12642266
18	0x3cfe811a	0.03106742
19	0x3d808795	0.0627586
20	0xbcf36015	-0.029708901
21	0x3d917165	0.071017064
22	0xbc047bcc	-0.008086156
23	0xbd8c980e	-0.0686494
24	0x3d061018	0.032730192
25	0xbe2bcc63	-0.16777186
26	0xbe242874	-0.16031057
27	0xbd557372	-0.05211205
28	0xbe43b188	-0.19110692
29	0xbe4717f8	-0.19442737
30	0xbc9e6f8b	-0.019340297
31	0xbaeb3087	-0.001794354
32	0xbdb043c1	-0.08606673
33	0xbe021e07	-0.12706767
34	0xbd8ea38a	-0.06964786
35	0x3d262d46	0.04057052
36	0x3ca0c2bd	0.019624108
37	0x3db0a717	0.0862562
38	0xbdb88ab3	-0.0901083
39	0xbd8a7c4e	-0.067619905
40	0xbe56431d	-0.20924039
41	0xbd3f6ccd	-0.04673462
42	0xbd9c6937	-0.07637256
43	0x3bde0f61	0.0067767357
44	0xbcc70421	-0.024293961
45	0x3ce62aad	0.028096521
46	0x3d40f9e3	0.04711331
47	0xbd8c8b80	-0.06862545
48	0x3c00ba74	0.007856954
49	0x3bcf1c2f	0.0063204984
50	0xbdd23731	-0.10264433
51	0xbcf7d822	-0.030254427
52	0x3cd3f350	0.025872856
53	0xbd8d3c58	-0.06896275
54	0x3c91fc88	0.017820612
55	0xbd06fd8c	-0.032956645
56	0xbd63d290	-0.05562073
57	0xbd2c3c21	-0.04204953
58	0xbcadf929	-0.021236973
59	0xbd3963f1	-0.045261327
60	0xbdd1e7d9	-0.102492996
61	0xbd5aa82f	-0.05338305
62	0x3cc47308	0.023980632
63	0xbc2b26a3	-0.010446223
64	0x3e079207	0.13239299
65	0x3ce03bed	0.027372325
66	0x3dd80fb7	0.10549872
67	0x3e19dada	0.15024891
68	0x3dfdc1a8	0.123904526
69	0x3d109d07	0.035306003
70	0x3cb6b970	0.02230522
71	0x3e08c945	0.13358028
72	0x3d8d3619	0.06895084
73	0xbe105d42	-0.14098075
74	0x3d69eafa	0.057108857
75	0xbd11e4a8	-0.035618454
76	0xbdd5ba6d	-0.104359485
77	0x3cb87045	0.022514472
78	0xbd71879d	-0.05896722
79	0xbe128bde	-0.14311168
80	0x3dcbb4f8	0.099466264
81	0x3c52f51f	0.012875824
82	0xbdb5d84a	-0.088791445
83	0xbcded5c8	-0.027201548
84	0x3dbdb7b1	0.09263552
85	0xbdfaf78e	-0.122542486
86	0xbdfa8f18	-0.12234324
87	0x3d84d747	0.064863734
88	0x3e380007	0.1796876
89	0x3e501fda	0.2032465
90	0x3e9dbdd3	0.30808887
91	0x3e3379c9	0.17526926
92	0x3d2af959	0.041741703
93	0x3e219e61	0.15783073
94	0x3e220e4c	0.15825766
95	0x3b74eb8b	0.003737184
96	0x3cd41b1a	0.02589183
97	0x3bf4c686	0.007469955
98	0x3d1b386d	0.03789561
99	0x3cbffb75	0.023435334
100	0x3cc06a9f	0.02348834
101	0x3c7bad6c	0.015361171
102	0xbdf65615	-0.120281376
103	0xbd4ddea0	-0.05026114
104	0x3e9bfc39	0.30465868
105	0x3e0f836c	0.14014977
106	0x3e8f0a10	0.27937365
107	0x3ea05a14	0.31318724
108	0xbd2831f0	-0.04106325
109	0xbc437d1a	-0.011931682
110	0x3cacc373	0.021089291
111	0xbd09da6e	-0.033655576
112	0x3eac0ab4	0.33601916
113	0x3e6a7383	0.22895627
114	0x3e9a4636	0.30131692
115	0x3e591af7	0.21201693
116	0x3dc7e788	0.09760958
117	0xbd3c03fc	-0.045902237
118	0xbd950882	-0.07277013
119	0x3da69d72	0.08135499
120	0x3db17090	0.08664048
121	0x3d8c8eb4	0.06863156
122	0xbdc8b626	-0.09800367
123	0xbdef51e9	-0.11685545
124	0x3c1e02af	0.0096441945
125	0x3d9acfd0	0.07559168
126	0xbd128b81	-0.035777573
127	0x3e06a9e7	0.1315075
128	0xbc99c299	-0.01876955
129	0xbde0a84e	-0.109696016
130	0x3d69717b	0.05699299
131	0xbcaa6853	-0.020801699
132	0x3a012e6e	0.0004927878
133	0xbe3cb0bd	-0.18426795
134	0xbcb642ac	-0.022248589
135	0xbc578af5	-0.0131556885
136	0x3d85f307	0.065404944
137	0xbdda0db8	-0.10647148
138	0xbdf0cec6	-0.11758189
139	0xbd2e60d6	-0.04257282
140	0x3d96e1f5	0.07367317
141	0x3bdbf995	0.006713102
142	0xbde8237a	-0.113348916
143	0xbcd0212d	-0.025406444
144	0xbe12acfb	-0.143238
145	0xbc6be189	-0.0143970335
146	0x3d60d69e	0.054892175
147	0xbded3434	-0.115822226
148	0xbdb22d4f	-0.08700048
149	0xbe1b8ba4	-0.15189987
150	0xbe16a078	-0.14709651
151	0x3d6056fc	0.054770455
152	0xbd9b8bf6	-0.07595055
153	0xbe0124af	-0.1261165
154	0xbcff2002	-0.031143192
155	0xbcb9f15f	-0.022698103
156	0xbe3caad6	-0.18424544
157	0xbd71ebbb	-0.0590627
158	0xbd000c1d	-0.031261552
159	0xbd58461a	-0.05280123
160	0x3c43fbdc	0.011961903
161	0xbd621b43	-0.05520178
162	0xbdbc4a2c	-0.09193835
163	0xbcec6c4b	-0.028860232
164	0xbd093cde	-0.033505313
165	0xbd851679	-0.06498427
166	0x3ad29a22	0.0016067664
167	0x3e1beddd	0.15227456
168	0xbcf3ab98	-0.029744908
169	0xbc3ab3cc	-0.011395406
170	0xbbadfcd9	-0.005309683
171	0xbe11d086	-0.14239702
172	0xbd8d26da	-0.06892176
173	0xbc03e3d9	-0.008049929
174	0x3d88b2b3	0.06674709
175	0xbd2ff3cc	-0.042957112
176	0xbe176f0b	-0.14788453
177	0x3d389d64	0.045071974
178	0xbd920523	-0.07129886
179	0xbd9777b9	-0.07395882
180	0xbdbe6524	-0.09296635
181	0x3d998dd8	0.07497758
182	0xbdda8b24	-0.1067107
183	0x3d3be068	0.045868307
184	0x3d95f277	0.07321637
185	0x3da07d91	0.0783645
186	0x3d96f915	0.073717274
187	0x3cf1d271	0.029519292
188	0x3c7369be	0.014856754
189	0x3d8e2fad	0.06942687
190	0xbce8ceff	-0.028419016
191	0x3d21a93c	0.039468035
192	0xbe09d9a0	-0.13461924
193	0xbb8e3a60	-0.004340455
194	0xbe117585	-0.14204986
195	0xbbe01e0b	-0.006839519
196	0xbd65b290	-0.056078494
197	0xbe23ffce	-0.1601555
198	0xbdbc670b	-0.091993414
199	0xbe13248c	-0.1436941
200	0xbd121829	-0.035667572
201	0xbcece567	-0.028917981
202	0xbceb0f7f	-0.028693913
203	0xba495e70	-0.0007681614
204	0x3cf71322	0.03016049
205	0x3d9dbf4f	0.07702505
206	0xbdcb5f82	-0.09930326
207	0xbdc5e945	-0.09663633
208	0xbdbf2a88	-0.09334284
209	0x3de2701d	0.1105654
210	0x3cdfd5e3	0.027323669
211	0xbd406643	-0.046972524
212	0xbcfa6b7a	-0.030568827
213	0x3df47577	0.11936467
214	0x3da884aa	0.08228429
215	0x3dbba9d5	0.09163252
216	0xbd65e666	-0.05612793
217	0x3dc0bf5c	0.09411499
218	0x3dbc4591	0.09192956
219	0x3da55f3e	0.08074807
220	0xbdc10bfc	-0.09426114
221	0x3d0bbb5c	0.034114227
222	0x3e03f4c5	0.12886341
223	0x3d55702b	0.052108925
224	0x3d14ab1f	0.036296006
225	0x3d3466c4	0.044043317
226	0x3d9b7a85	0.07591728
227	0xbd429155	-0.04750188
228	0xbd3edec7	-0.046599176
229	0xbdfb2042	-0.12262012
230	0xbdcab21b	-0.09897252
231	0x3d6bdddb	0.057584625
232	0xbda22306	-0.079168364
233	0xbc6c4cdc	-0.014422622
234	0xbd9f23a7	-0.07770472
235	0xbd8d85db	-0.069102965
236	0x3dbbf3b2	0.091773406
237	0xbd7732f9	-0.060351346
238	0x3dc1b6b5	0.09458677
239	0x3b44e483	0.003004343
240	0x3d8665db	0.06562396
241	0xbd033666	-0.0320343
242	0x3d66a0a4	0.056305543
243	0x3d335480	0.043781757
244	0xbd2c9fa4	-0.042144433
245	0x3d98cf24	0.07461384
246	0xbdd64cc0	-0.10463858
247	0x3b234900	0.0024915338
248	0x3c853284	0.01625944
249	0xbc8786c6	-0.016543757
250	0x3de7b08c	0.113129705
251	0x3dfeb202	0.12436296
252	0xbdd06aa1	-0.10176588
253	0x3c3a76a9	0.01138083
254	0x3dbf65be	0.09345578
255	0xbcc2e04a	-0.02378859

bias f4 [16]
0	0xbd9e5ac6	-0.077321574
1	0xbdc3e698	-0.09565467
2	0xbda7bfe6	-0.081908986
3	0x3de395f7	0.11112588
4	0x3e08d967	0.13364182
5	0x3d892fd2	0.06698574
6	0xbda202fd	-0.07910726
7	0xbdbb6926	-0.09150915
8	0xbddae4ae	-0.106881484
9	0x3cf01ea2	0.029311482
10	0xbde7dcd7	-0.11321419
11	0xba080053	-0.00051880366
12	0x3dfd6ef0	0.12374675
13	0x3d25f27d	0.040514458
14	0xbd13bb45	-0.036067266
15	0x3dc1d060	0.094635725

weight f4 [32, 16, 2, 2]
0	0x3e2007d3	0.15627985
1	0xbcab3619	-0.02089982
2	0xbd29d75c	-0.04146515
3	0xbae1d045	-0.0017228207
4	0x3d9702af	0.07373559
5	0xbcda10a2	-0.02661926
6	0x3d13659f	0.035985585
7	0xbd6b33b7	-0.057422366
8	0x3e0ed820	0.13949633
9	0xbc9cf952	-0.019161854
10	0x3da7bd1e	0.08190368
11	0x3d04cb9d	0.032420743
12	0xbd9f7bc7	-0.077872805
13	0xbdf16ae7	-0.11787968
14	0xbd97547d	-0.07389162
15	0xbd489046	-0.048965715
16	0xbdd283d5	-0.10279051
17	0xbdcd314d	-0.10019169
18	0xbd941a72	-0.072316065
19	0xbdc985a3	-0.09839942
20	0x3dae71de	0.08517812
21	0x3c981dae	0.01856884
22	0xbcebd5a6	-0.028788399
23	0x3da1f493	0.07907977
24	0xbd3a4bb2	-0.045482345
25	0xbda64913	-0.081194066
26	0xbd7ebc85	-0.062191505
27	0x3c7ab9ab	0.015303056
28	0x3daac2ad	0.08337913
29	0xbd3c7049	-0.04600552
30	0x3dbc1743	0.09184124
31	0xbd0ecc4b	-0.034862798
32	0x3df93fe9	0.12170393
33	0x3d326f72	0.043563314
34	0xbd33d9ac	-0.04390876
35	0xbbfc58fb	-0.007701037
36	0xbdea0b02	-0.11427881
37	0xbd1ec558	-0.03876242
38	0x3c4a886f	0.01236163
39	0xbe22c172	-0.15894106
40	0xbd7c47c5	-0.061591882
41	0x3e2364fc	0.15956491
42	0x3df4bbf3	0.11949911
43	0x3d992fb2	0.074798
44	0x3dc99fcc	0.09844932
45	0x3db14b59	0.086569495
46	0x3d4b273a	0.049597956
47	0x3cfaad3c	0.030600183
48	0x3d71f6d9	0.059073303
49	0x3c89482a	0.016758043
50	0x3be2bb71	0.0069193174
51	0xbd5944ae	-0.053044014
52	0x3d754f51	0.059890095
53	0xbdc5627c	-0.09637925
54	0x3d386b6e	0.045024328
55	0xbdbe3fd1	-0.09289516
56	0xbc8af574	-0.016962744
57	0x3e245a27	0.16050015
58	0x3e1b4262	0.15162042
59	0x3e1acbf1	0.1511686
60	0x3d8721dc	0.06598255
61	0xbcff1a0a	-0.031140346
62	0x3da12ad7	0.07869499
63	0xbce5b166	-0.028038692
64	0xbd8efa94	-0.06981388
65	0x3b2c9140	0.0026331693
66	0xbd1bd17c	-0.038041577
67	0xbc97ef10	-0.018546611
68	0x3b94bea0	0.004539326
69	0x3d501edc	0.05081068
70	0xbcf44170	-0.02981636
71	0xbd05223c	-0.03250335
72	0xbc2990c0	-0.0103494525
73	0xbbfe4b20	-0.0077604204
74	0x3cd08e50	0.025458485
75	0x3da3f720	0.0800612
76	0xbde267b8	-0.11054939
77	0x3c14c140	0.0090792775
78	0xbd2909e0	-0.041269183
79	0x3ca3db60	0.020002067
80	0x3d6fbf1c	0.058531865
81	0xbd839edc	-0.064267844
82	0xbd9310f6	-0.071809694
83	0xbd91e9c6	-0.07124667
84	0x3d88e9be	0.06685208
85	0xbddfad96	-0.10921781
86	0x3def152c	0.1167396
87	0xbd92c7b6	-0.07166998
88	0xbdf42a0a	-0.11922081
89	0x3dea1994	0.1143066
90	0x3d316f1c	0.043318853
91	0x3dd424fa	0.10358615
92	0xbcd49188	-0.025948301
93	0x3cdffb50	0.027341515
94	0xbdb925c2	-0.09040405
95	0xbdaf0bf2	-0.085472
96	0x3ddbe94a	0.10737856
97	0x3dcdcbe8	0.10048658
98	0xbdc85a1e	-0.097828135
99	0xbcf563c0	-0.029954791
100	0x3d560bb8	0.05225727
101	0xbd0e2d78	-0.03471133
102	0xbcc5cce0	-0.024145544
103	0xbd829c56	-0.06377475
104	0x3b5e0b00	0.0033881068
105	0xbd8e0472	-0.069344416
106	0x3d235e30	0.039884746
107	0x3dbd61fe	0.09247206
108	0x3db4e128	0.08832008
109	0xbd4d1884	-0.050072208
110	0xbd92e4b6	-0.071725294
111	0x3dc5b038	0.09652752
112	0x38f19000	0.000115185976
113	0x3c342b80	0.010996699
114	0xbdfc8a04	-0.12331012
115	0xbde77384	-0.1130133
116	0xbd0db870	-0.03459972
117	0x3d2348a4	0.039864197
118	0xbdd0844c	-0.101814836
119	0x3cb67a08	0.022274986
120	0x3d984466	0.07434921
121	0x3dd2a554	0.1028544
122	0xbdb0c10c	-0.08630571
123	0x3d061660	0.032736182
124	0xbdae463e	-0.085094914
125	0xbdacc274	-0.084355265
126	0x3dad6e60	0.08468318
127	0x3cf70670	0.030154437
128	0xbc4604b0	-0.0120860785
129	0xbdc5895a	-0.09645338
130	0x3da3fe5e	0.08007501
131	0x3c9492a0	0.018136322
132	0xbdaf029f	-0.08545422
133	0x3d310201	0.0432148
134	0x3da2dcda	0.0795228
135	0x3ce1b42a	0.02755173
136	0x3c15321d	0.009106186
137	0x3de5c5ad	0.11219344
138	0xbd2b407b	-0.04180954
139	0xbd9f0ba0	-0.07765889
140	0xbda3cd20	-0.07998109
141	0x3cfc2476	0.030779105
142	0x3ce728b9	0.02821766
143	0xbce64011	-0.028106721
144	0xbde0bf2c	-0.10973963
145	0xbd17b220	-0.037035108
146	0xbdcac8ef	-0.09901606
147	0xbd3c5c50	-0.045986474
148	0xbdaa8759	-0.08326597
149	0xbdea8d28	-0.11452705
150	0x3d15feff	0.036620136
151	0xbd9a1933	-0.075243376
152	0x3d6ed1bd	0.05830549
153	0x3da59ce4	0.08086565
154	0x3c7458d0	0.014913753
155	0xbb21f999	-0.0024715422
156	0x3dc2f3e9	0.095191784
157	0xbdda27cb	-0.10652121
158	0x3d5ce51c	0.053929433
159	0x3d6e2a27	0.05814567
160	0x3dbeaaf0	0.093099475
161	0xbc27bc03	-0.010237697
162	0x3d96b804	0.07359317
163	0xbd8c68e8	-0.06855947
164	0xbdbbf9c7	-0.091785006
165	0x3cf488de	0.02985042
166	0xbd957f4f	-0.07299673
167	0x3ddfba39	0.10924191
168	0xbdc6c826	-0.09706144
169	0x3d27e0be	0.040985815
170	0x3dbd07d1	0.092300065
171	0xbdc30bd8	-0.095237434
172	0xbcc160b5	-0.023605684
173	0x3d2bc79e	0.041938417
174	0x3db093c4	0.08621934
175	0xbdbe7288	-0.09299189
176	0xbd848c0a	-0.06472023
177	0xbdf26d06	-0.11837201
178	0xbcbfbbda	-0.023405004
179	0xbded0f34	-0.115751654
180	0xbc2248df	-0.009905069
181	0xbc27508c	-0.010212075
182	0x3de275e1	0.1105764
183	0xbce4ec03	-0.02794457
184	0x3c6c1c55	0.014411052
185	0x3b1353b1	0.0022480304
186	0x3d9cc81f	0.076553576
187	0x3d8761d6	0.066104576
188	0xbcea1721	-0.028575482
189	0x3d716edb	0.05894361
190	0xbdce4466	-0.1007164
191	0x3d7c1b55	0.061549503
192	0x3e395f26	0.18102702
193	0x3b788b3b	0.0037924785
194	0x3d79a9fe	0.060953133
195	0x3d7f6af1	0.062357847
196	0x3d92c044	0.07165578
197	0x3d00783e	0.031364672
198	0x3d84e2ee	0.06488596
199	0x3d90e11e	0.07074188
200	0xbc3363cc	-0.010949086
201	0xbd8e549d	-0.069497325
202	0x3c15d386	0.009144669
203	0x3e0980b7	0.13428007
204	0xbd8b0a70	-0.067891
205	0xbe0417b1	-0.12899663
206	0xbda126d5	-0.07868735
207	0xbdedb1f2	-0.11606206
208	0xbd8ab371	-0.06772507
209	0x3d8750f5	0.06607238
210	0x3ca21d58	0.019789383
211	0xbd977c9d	-0.07396815
212	0x3c90711e	0.017632063
213	0xbe28f9ea	-0.16501585
214	0xbdbc2123	-0.09186008
215	0x3d2679c8	0.040643483
216	0xbc3c92a7	-0.011509574
217	0xbcdcf643	-0.026972895
218	0x3d6be074	0.057587102
219	0x3dc1142a	0.09427674
220	0xbd82a51f	-0.063791506
221	0x3d57d148	0.05268982
222	0x3e225c61	0.15855552
223	0x3dc58436	0.09644358
224	0x3d245942	0.040124185
225	0x3dc84882	0.09779455
226	0x3db8ae73	0.090176485
227	0xbd6a198e	-0.057153277
228	0xbe193c38	-0.14964378
229	0xbcde1e95	-0.027114192
230	0x3b3e5fb1	0.0029048736
231	0xbd4c5922	-0.04988969
232	0xbcfbfe53	-0.03076092
233	0xbc81827b	-0.015809288
234	0x3d87d868	0.06633073
235	0xbd7e03d4	-0.06201537
236	0x3db3a627	0.087719254
237	0x3df5a0ca	0.11993559
238	0x3db6e26d	0.08929906
239	0x3b8175bb	0.003950802
240	0xbda53894	-0.08067432
241	0x3d0763a4	0.03305401
242	0xbe3a906c	-0.18219155
243	0xbe2764cb	-0.16347043
244	0xbe1d808e	-0.15381071
245	0xbcc1b3cd	-0.023645306
246	0xbd2af5e9	-0.041738424
247	0xbd140350	-0.03613597
248	0x3d436718	0.04770574
249	0x3dfd01e9	0.1235388
250	0x3de3118a	0.1108733
251	0x3dcd7bbd	0.10033367
252	0xbd8e2108	-0.06939894
253	0x3dec5616	0.11539857
254	0x3ca67000	0.020317078
255	0xbd96734f	-0.07346212

bias f4 [32]
0	0xbca1b4e2	-0.019739572
1	0xbd9bad56	-0.076014206
2	0xbd1f9b50	-0.038966477
3	0x3a214b3c	0.00061528734
4	0xbdcfa2d2	-0.101384774
5	0xbddf42f5	-0.10901443
6	0x3cbb1064	0.022834964
7	0x3b69ec8f	0.0035693978
8	0xbe2050e1	-0.15655853
9	0xbdd1dc5e	-0.1024711
10	0x3d282cbd	0.04105829
11	0xbb024121	-0.0019875246
12	0xbd741745	-0.059592504
13	0x3d17793a	0.036980845
14	0x3da8aa4d	0.08235607
15	0x3d9e8eab	0.077420555
16	0xbbae3a73	-0.0053170263
17	0xbcdf4198	-0.027252957
18	0xbda1147f	-0.078652374
19	0x3cc05e21	0.023482384
20	0xbdc1eaf5	-0.094686426
21	0x3d2e0368	0.042483717
22	0xbddeb9b9	-0.108752675
23	0xbdaa3ce5	-0.08312396
24	0xbceb88ef	-0.028751818
25	0xbdd3367b	-0.10313126
26	0xbdf22c6b	-0.11824878
27	0xbce67b76	-0.028135043
28	0x3d8d8eb6	0.069119856
29	0x3dcb48e3	0.099260114
30	0xbe01b67a	-0.12667266
31	0x3c79d6ea	0.015248993

weight f4 [32, 32, 2, 2]
0	0xbc9f3b54	-0.01943747
1	0xbd825a3e	-0.063648686
2	0xbdfd33d7	-0.12363403
3	0xbd8de4e1	-0.06928421
4	0x3cf78eb6	0.030219417
5	0xba73c9f3	-0.0009299807
6	0xbd873b57	-0.06603115
7	0xbd794c2a	-0.06086365
8	0xbd1b4e36	-0.037916385
9	0x3dacb65d	0.084332205
10	0xbd4084a8	-0.04700151
11	0xbcb874de	-0.022516664
12	0x3cdc7368	0.026910499
13	0xbd213ea4	-0.03936638
14	0xbd70a12f	-0.058747467
15	0xbcfe7620	-0.031062186
16	0x3caba398	0.020952031
17	0xbd33620b	-0.043794673
18	0xbd0d13a2	-0.03444255
19	0xbdac1a81	-0.08403493
20	0xbd2bcb29	-0.041941795
21	0xbc6a5240	-0.0143018365
22	0x3d908a92	0.0705768
23	0x3d80b0d2	0.06283726
24	0xbce19ae7	-0.027539684
25	0xbd4fb28e	-0.050707392
26	0x3da9a2f6	0.082830355
27	0xbd8a4d23	-0.06752994
28	0xbbc864e2	-0.006115542
29	0xbdc4c19d	-0.09607241
30	0xbd851233	-0.06497612
31	0xbe07fc6c	-0.13279885
32	0x3c8baa78	0.01704906
33	0x3c62b1d3	0.013836342
34	0xbd14d22a	-0.03633324
35	0x3da67f48	0.08129746
36	0x3dd51721	0.10404802
37	0x3da8ac3d	0.08235977
38	0xbcbc81ea	-0.023011167
39	0x3d9cb002	0.07650758
40	0xbd8fff0c	-0.07031068
41	0xbd7a3505	-0.06108572
42	0xbe13ed21	-0.14445926
43	0xbd0fffb8	-0.03515598
44	0xbcac3485	-0.021021137
45	0x3dbdedec	0.092738956
46	0xbc9aa9ba	-0.01887976
47	0xbd6cb727	-0.057791855
48	0xbde55d63	-0.11199453
49	0x3c0b82de	0.008515088
50	0xbd3ce149	-0.046113286
51	0xbdb7a943	-0.08967831
52	0x3bb04aae	0.0053799963
53	0x3c05b2e0	0.008160323
54	0x3d71dc42	0.059047945
55	0x3cf8580d	0.030315423
56	0xbc6a556d	-0.014302594
57	0x3d285d63	0.041104686
58	0xbd361f68	-0.044463545
59	0x3c465d0c	0.012107145
60	0x3d8f122d	0.06985889
61	0x3d935f53	0.07195916
62	0x3d0381e7	0.032106306
63	0x3b9676f0	0.004591815
64	0xbd88f3b0	-0.06687105
65	0xbde19a0f	-0.110157125
66	0xbcca7d68	-0.024718001
67	0xbdab3634	-0.08359948
68	0xbdb072e2	-0.08615662
69	0xbdfc29a3	-0.12312629
70	0xbd444db8	-0.04792568
71	0xbcee74c2	-0.029108409
72	0xbc8fd149	-0.01755585
73	0x3d7e3f9a	0.062072374
74	0xbcf32fc4	-0.029685862
75	0x3d8d2a0f	0.06892788
76	0xbc8e0f7c	-0.017341368
77	0x3d4567bb	0.04819463
78	0x3d682eb8	0.05668518
79	0x3d52e07d	0.05148362
80	0x3c683131	0.014171884
81	0x3db2f235	0.087376036
82	0x3db9bb05	0.09068874
83	0x3c7ed83c	0.015554484
84	0x3d5a3367	0.053271677
85	0xbd5005ab	-0.050786655
86	0x3dc257d1	0.09489406
87	0x3d9288fa	0.071550325
88	0xbd89b785	-0.06724457
89	0xbc1e7a80	-0.009672761
90	0x3d942b66	0.0723484
91	0x3cf601ff	0.030030249
92	0x3cda8a02	0.026677135
93	0x3dead65e	0.114666685
94	0x3defd09e	0.117097124
95	0xbcc2a027	-0.023758007
96	0xbd0bb862	-0.034111388
97	0xbda5cb61	-0.08095432
98	0xbb7bc958	-0.003841957
99	0x3d232dac	0.039838478
100	0x3c0ed908	0.0087187365
101	0x3cb8e430	0.022569746
102	0x3c16d2a0	0.00920549
103	0x3d62b6f4	0.05535026
104	0x3b5868f5	0.0033021544
105	0x3d1ab29b	0.037767988
106	0x3d94c512	0.07264151
107	0xbca00396	-0.01953296
108	0x3d9bd1ca	0.076083735
109	0x3cc02dc5	0.023459325
110	0x3d8846d8	0.066541374
111	0xbd7377b1	-0.05944032
112	0x3d7147fb	0.058906537
113	0x3d64dceb	0.055874746
114	0x3da42f16	0.080167934
115	0x3da8074b	0.08204516
116	0xbd54a211	-0.05191237
117	0xbc458ae5	-0.012057041
118	0xbcc6dae5	-0.024274299
119	0x3da78264	0.08179167
120	0x3c0b989c	0.008520272
121	0x3dda6066	0.10662918
122	0xbc176af9	-0.009241813
123	0xbd3b4505	-0.04572012
124	0x3d8507d7	0.06495636
125	0xbd542d1d	-0.051800836
126	0x3d0f762d	0.03502481
127	0xba93e67a	-0.0011283897
128	0x3d9aa674	0.0755128
129	0x3d63b899	0.055595968
130	0x3d8f00c0	0.06982565
131	0x3ceab28b	0.028649589
132	0x3ca85250	0.020547062
133	0x3dadf765	0.084944524
134	0xbd1a422e	-0.03766077
135	0x3da6cda7	0.08144694
136	0x3ac4af73	0.0015005901
137	0x3cebd6eb	0.028789004
138	0xbd9c8ad6	-0.07643668
139	0xbd55c7bf	-0.052192446
140	0x3d6e32f5	0.058154065
141	0x3dbd56d2	0.09245075
142	0x3c8b59db	0.01701062
143	0x3d45eea1	0.048323277
144	0x3d61a63a	0.055090167
145	0xbbee77cc	-0.0072774645
146	0x3cd45b4c	0.02592244
147	0x3d6d0f6d	0.05787604
148	0xbd31d3e8	-0.04341498
149	0x3caef0b4	0.02135501
150	0x3b38d0b9	0.002820058
151	0xbcf9ae7c	-0.030478708
152	0xbcce592b	-0.025189003
153	0xbddd74ef	-0.10813319
154	0x3d4c478a	0.049872912
155	0xbd5a2474	-0.05325742
156	0x3c5658e2	0.013082715
157	0x3d77004a	0.06030301
158	0x3dd1a59e	0.10236667
159	0x3df2a7ec	0.11848435
160	0xbde36584	-0.11103347
161	0x3cbab44d	0.022791052
162	0xbc3bb0b8	-0.011455707
163	0xbdb78997	-0.0896179
164	0xbdbe0d70	-0.09279907
165	0xbad8b392	-0.0016533008
166	0x3cc86125	0.024460385
167	0xbdd463a2	-0.10370566
168	0x3d1fc708	0.03900817
169	0xbc90acce	-0.017660525
170	0xbc72ebfc	-0.014826771
171	0x3db06a3f	0.08614015
172	0x3cfa27ea	0.03053661
173	0x3d4b3e85	0.04962017
174	0x3c956c68	0.018240169
175	0xbd5dd33e	-0.054156534
176	0x3d4cb54e	0.049977593
177	0xbd030d62	-0.031995185
178	0xbcb804e2	-0.022463266
179	0x3d7cf2ba	0.06175492
180	0x3d090596	0.033452593
181	0x3d0d1fb0	0.034454048
182	0xbd578447	-0.052616384
183	0x3d81cfc4	0.06338456
184	0x3bd9f611	0.006651648
185	0xbdc8bc39	-0.098015256
186	0xbda8811f	-0.08227753
187	0x3c6c9976	0.014440885
188	0xbc5954c7	-0.013264841
189	0x3c2f8483	0.010712746
190	0x3d065d2f	0.03280371
191	0x3d7e83c1	0.06213737
192	0x3beae5a6	0.0071684895
193	0x3d3aaa25	0.04557242
194	0xbc9b85e1	-0.018984737
195	0x3c0b035f	0.00848469
196	0x3cba92b5	0.022775033
197	0x3dcf5161	0.10122944
198	0x3df9039c	0.121588916
199	0xbc715011	-0.014728562
200	0xbda4743f	-0.08029985
201	0x3d9c701c	0.07638571
202	0x3d0f9180	0.03505087
203	0x3ca538dc	0.020168714
204	0xbd801bb1	-0.06255282
205	0xbc1edde0	-0.009696454
206	0x3d32c9cd	0.043649483
207	0xbda355cb	-0.07975348
208	0xbd0f3e4d	-0.034971524
209	0xbd445917	-0.047936525
210	0xbc8e0b78	-0.017339453
211	0xbd2590b4	-0.040421203
212	0xbcd94be1	-0.02652544
213	0xbdd65bdb	-0.10466739
214	0x3d383f26	0.044982098
215	0x3d2869af	0.041116413
216	0x3cd0086f	0.025394646
217	0x3d8dea5a	0.06929465
218	0x3d4d4c2a	0.050121464
219	0xbd16b8d1	-0.03679735
220	0xbd0c71c5	-0.034288187
221	0xbdc6f481	-0.09714604
222	0xbde5afdc	-0.11215183
223	0xbcb2d3b5	-0.021829465
224	0xbb9c2e6e	-0.004766277
225	0x3d9e6481	0.07734013
226	0xbd2cc354	-0.042178467
227	0xbd0c2f18	-0.0342246
228	0xbcb50677	-0.02209781
229	0x3d6f4353	0.058413815
230	0xbdaed13e	-0.085360035
231	0xbd140462	-0.036136992
232	0xbbbf651e	-0.0058409115
233	0x3d26ae25	0.04069342
234	0x3d449b6a	0.047999777
235	0x3d024d45	0.03181197
236	0xbdd0c003	-0.10192873
237	0xbde7b291	-0.11313356
238	0x3bee921d	0.0072806017
239	0x3ccb3376	0.024804812
240	0xbc9de088	-0.019272104
241	0xbdc06401	-0.09394074
242	0xbd8c3710	-0.0684644
243	0xbd44b930	-0.04802817
244	0xbd84302c	-0.064545006
245	0xbddb5dc1	-0.107112415
246	0xbd900284	-0.0703173
247	0xbd9b9704	-0.07597163
248	0x3bce42a9	0.0062945676
249	0xbd4ec125	-0.050477166
250	0x3c4fc351	0.012680844
251	0x3b80cc83	0.0039306297
252	0x3d265e85	0.040617485
253	0xbd25157c	-0.040303692
254	0xbd9710f6	-0.07376282
255	0xbd0b0139	-0.033936713

bias f4 [32]
0	0xbc854396	-0.016267579
1	0x3d0097c6	0.031394742
2	0xbcb5392a	-0.022121985
3	0xbd711e8a	-0.058867015
4	0x3af0f015	0.0018382097
5	0xbcf33e37	-0.029692752
6	0xbc636c9a	-0.013880873
7	0x3db0fdb7	0.08642142
8	0xbca0a266	-0.019608688
9	0xbc00b0c2	-0.007854642
10	0x3d2e66e5	0.042578597
11	0x3d65ddb5	0.05611964
12	0xbd42185e	-0.04738652
13	0x3d21403f	0.03936791
14	0xbd9b422b	-0.0758098
15	0xbda4dce7	-0.08049946
16	0xbded2666	-0.115795895
17	0xbcd5d5f8	-0.026103005
18	0xbdbc63e5	-0.09198741
19	0x3d72685f	0.059181567
20	0x3caafdc1	0.020872952
21	0xbd6ac48a	-0.05731634
22	0xbd2c0cb1	-0.04200429
23	0x3d8d02f6	0.068853304
24	0xbdabd79b	-0.08390733
25	0x3d37ce47	0.044874456
26	0xbd1abd0f	-0.037777957
27	0xbd093488	-0.033497363
28	0xbcfa066e	-0.030520644
29	0x3b645225	0.0034839
30	0x3d0a5b65	0.033778567
31	0xbddd4dfa	-0.108058885

weight f4 [64, 32, 2, 2]
0	0x3d8dc2a8	0.06921893
1	0x3d5156b3	0.051108073
2	0x3dbe0790	0.09278786
3	0x3d12b4f7	0.035817113
4	0xbc8914e0	-0.016733587
5	0x3caa4062	0.020782653
6	0xbd8f2ef8	-0.069913805
7	0x3c77a64c	0.015115332
8	0x3de5b2a1	0.112157114
9	0x3d89ad4c	0.06722507
10	0xbd71657b	-0.05893467
11	0x3bb7e9bb	0.0056125796
12	0x3d68376e	0.056693487
13	0x3d900fe0	0.07034278
14	0x3d98af98	0.07455367
15	0x3dca7a39	0.09886593
16	0xbd9c4542	-0.076303974
17	0x3c8b1bff	0.016981123
18	0xbc3ab003	-0.0113945035
19	0xbc0b79b9	-0.008512908
20	0xbd421237	-0.047380652
21	0xbd5b8249	-0.053591046
22	0xbc153a09	-0.009108075
23	0x3cf7c2c1	0.030244233
24	0xbd3c51e4	-0.045976534
25	0xbc1e5ca8	-0.009665646
26	0xbb94b5a8	-0.0045382567
27	0xbcefd78f	-0.029277591
28	0xbdd8ad2c	-0.10579905
29	0xbde3f0b6	-0.11129896
30	0x3ccbaeb4	0.024863578
31	0x3d48bb13	0.049006533
32	0x3b9a5fd7	0.004711132
33	0x3d99c4bc	0.07508227
34	0x3ba5b3c3	0.0050568297
35	0x3dd4bd0f	0.103876226
36	0x3d775061	0.06037939
37	0xbb725665	-0.0036977765
38	0x3deaad21	0.11458803
39	0xbc370cfc	-0.011172529
40	0xbd89b802	-0.0672455
41	0xbdabf600	-0.0839653
42	0xbcb96300	-0.022630215
43	0xbc0ef3b4	-0.008725096
44	0x3cd58b58	0.02606742
45	0x3d7f250a	0.062291183
46	0xbcee4433	-0.029085254
47	0x3c3c92b8	0.01150959
48	0xbd612ce0	-0.054974437
49	0xbc3520b3	-0.011055159
50	0x3dd53ee0	0.10412383
51	0x3bae9371	0.005327635
52	0xbd364ec7	-0.04450872
53	0x3cba5c24	0.022749014
54	0xbdd01df9	-0.10161967
55	0xbbfe924a	-0.007768904
56	0x3d941af7	0.07231706
57	0x3d00d195	0.031449873
58	0x3dbfabe8	0.093589604
59	0xbd8174e1	-0.06321121
60	0xbd5a6807	-0.053321864
61	0xbcbd3d14	-0.023100413
62	0xbd1faf3f	-0.038985487
63	0x3c49e1dc	0.0123219155
64	0xbda014c1	-0.078164585
65	0xbd20473b	-0.03913043
66	0xbd11fa99	-0.03563938
67	0xbddafe18	-0.10692996
68	0x3d9d7d3c	0.07689902
69	0x3d3b4286	0.04571774
70	0x3bb5b3f9	0.005545136
71	0xbd452cc7	-0.048138406
72	0x3cbdfb88	0.023191229
73	0x3d2ad945	0.04171111
74	0xbc145e8b	-0.009055744
75	0x3d4e6538	0.0503895
76	0x3b4ab60b	0.003093126
77	0x3c54f98d	0.012998951
78	0xbd957f32	-0.07299651
79	0x3d4a698f	0.049417075
80	0x3ceaabdb	0.0286464
81	0xbda2d260	-0.07950282
82	0xbd3c700e	-0.0460053
83	0xbbe08f5f	-0.0068530287
84	0xbd208b24	-0.039195195
85	0x3db357fc	0.08757016
86	0x3ce20081	0.02758813
87	0xbd52975c	-0.05141388
88	0x3da023c2	0.0781932
89	0x3cfbf590	0.030756742
90	0x3cf355db	0.029704025
91	0x3d2143d1	0.039371315
92	0xbdd8c33c	-0.10584113
93	0xbdb3865b	-0.08765861
94	0xbd0a312f	-0.03373831
95	0xbdadea52	-0.08491959
96	0x3dcdbf71	0.1004628
97	0x3d8fcd73	0.07021608
98	0x3d3459bd	0.044030894
99	0xbcb92e3a	-0.02260505
100	0x3da70309	0.08154876
101	0x3d14f388	0.036365062
102	0xbcbc8769	-0.023013787
103	0x3d8db54e	0.06919347
104	0xbd21d778	-0.039512128
105	0x3d63078d	0.055427123
106	0x3b6d1526	0.0036175936
107	0xbd1bccec	-0.038037226
108	0xbd4df98c	-0.050286815
109	0x3bf3fe3f	0.00744608
110	0x3dcc3bbe	0.099723324
111	0x3d311290	0.043230593
112	0x3ddd86a9	0.108167
113	0x3da57e5a	0.0808074
114	0x3d1bc521	0.038029794
115	0xbd1eb8a6	-0.038750313
116	0x3d4ba65b	0.049719196
117	0xbd2be1d1	-0.041963402
118	0xbd4d3441	-0.05009866
119	0xbb37f440	-0.0028069168
120	0xbd29c760	-0.041449904
121	0x3c30e3d4	0.010796506
122	0xbd9bcdd9	-0.07607622
123	0x3cf58fa0	0.029975712
124	0xbd3b4dfa	-0.04572866
125	0xbd3dad9b	-0.04630814
126	0x3d818ae4	0.063253194
127	0xbd54dda7	-0.051969197
128	0x3cbcb3fd	0.023035044
129	0x3cba8981	0.022770645
130	0x3d8c0a56	0.06837909
131	0x3dadfcf1	0.0849551
132	0xbe026ff3	-0.12738018
133	0xbb40ce74	-0.002941993
134	0xbddf6284	-0.10907462
135	0xbd5885bc	-0.052861914
136	0x3cfef59f	0.03112298
137	0x3ded6ca6	0.11592989
138	0x3e113300	0.14179611
139	0xbd07b237	-0.033128943
140	0x3df11e4e	0.11773358
141	0xbc310972	-0.010805475
142	0x3dc70287	0.09717279
143	0xbcbea4d0	-0.023271948
144	0x3d0be9c8	0.034158498
145	0xbdcb5a7c	-0.09929368
146	0xbd77527c	-0.060381398
147	0x3c75568e	0.0149742495
148	0xbb3f6ab5	-0.002920789
149	0xbc1a8267	-0.009430504
150	0x3d1d7986	0.038445972
151	0x3c975b0d	0.018476034
152	0xbca7af41	-0.02046931
153	0x3d4d9e7f	0.05019998
154	0x3d34241e	0.043979757
155	0xbc97b764	-0.018520065
156	0x3c02f319	0.007992529
157	0x3cf36f7c	0.029716246
158	0xbe0b248d	-0.13588162
159	0xbdc3da6e	-0.095631465
160	0xbd83ea98	-0.064412296
161	0xbd9c8bd1	-0.07643855
162	0x3dae20dd	0.08502362
163	0x3d840f97	0.06448286
164	0x3da6f8e4	0.08152941
165	0xbaba55dc	-0.0014216262
166	0x3dae8d6f	0.0852307
167	0x3b90f57f	0.0044237967
168	0xbdf153e7	-0.11783581
169	0xbdabcc09	-0.08388526
170	0xbc7dfe5a	-0.015502537
171	0x3cd91f23	0.026504105
172	0xbdd65ab7	-0.10466521
173	0xbe0569ab	-0.1302859
174	0xbcec4c99	-0.028845118
175	0x3c692d0c	0.014231931
176	0x3dcea7cc	0.100905985
177	0x3dcd5f60	0.10027957
178	0x3d792994	0.060830668
179	0x3d8e296c	0.06941494
180	0xbd97a4b7	-0.07404464
181	0xbcd97bf3	-0.026548361
182	0xbbb4b758	-0.0055150203
183	0xbd18133f	-0.03712773
184	0x3d2f0baa	0.042735733
185	0x3d53c9e3	0.051706206
186	0x3d3b0bd5	0.04566558
187	0xbc9a240b	-0.018816015
188	0xbcb1fa60	-0.021725833
189	0x3e10f39b	0.14155428
190	0xbc4872d8	-0.012234412
191	0xbd021d77	-0.03176638
192	0x3cf2c495	0.029634753
193	0x3c97908a	0.018501539
194	0x3e032c76	0.12809929
195	0xbc4b8f5c	-0.012424316
196	0xb91ba9d1	-0.00014845213
197	0x3dcdfb2e	0.10057674
198	0xbc25f0d9	-0.010128223
199	0x3d7224d5	0.059117157
200	0x3da9a6b7	0.082837515
201	0xbd47a94c	-0.04874544
202	0x3ddf80b5	0.10913221
203	0xbd1d70ac	-0.03843753
204	0xbd27ca68	-0.040964514
205	0xbdaa9d95	-0.08330838
206	0xbd0c8b3c	-0.03431247
207	0xbdbdc059	-0.09265203
208	0xbdeb84a2	-0.11499907
209	0xbd54733a	-0.0518677
210	0xbcf51481	-0.029917004
211	0xbdade1af	-0.08490311
212	0x3de4c5c1	0.11170531
213	0x3d974df2	0.07387914
214	0x3b81d681	0.0039623384
215	0x3d8d50d0	0.069001794
216	0x3d7b99dc	0.06142603
217	0x3e0f010d	0.13965245
218	0xbcbaa81a	-0.022785235
219	0xbcf22046	-0.029556405
220	0xbdb55457	-0.08853977
221	0xbdf59f0f	-0.11993229
222	0xbda0d207	-0.078525595
223	0xbd258f2b	-0.04041974
224	0x3df7c536	0.12098162
225	0x3e0eecb0	0.13957477
226	0xbc912871	-0.01771948
227	0x3d49f142	0.049302347
228	0x3ca3bbb4	0.019986965
229	0xbda1ed7e	-0.07906626
230	0xbcd1a754	-0.025592484
231	0xbcbb811f	-0.022888718
232	0xbd8e3c4d	-0.06945095
233	0x3d034a1b	0.032053094
234	0xbd914849	-0.070938654
235	0xbd9a0fe5	-0.07522563
236	0x3d4afa5e	0.049555175
237	0xbc7387e1	-0.014863939
238	0x3c956c39	0.018240081
239	0xbc8b7276	-0.017022353
240	0x3cf926db	0.030414036
241	0xbbba02ea	-0.005676617
242	0x3c58242e	0.01319222
243	0xbce1da8c	-0.027570032
244	0xbd91e27e	-0.07123278
245	0xbda05f60	-0.07830691
246	0xbc0d187f	-0.008611797
247	0xbd2ffaba	-0.04296372
248	0xbdcd6a8e	-0.10030089
249	0x3d1b2bc6	0.037883542
250	0xbddbc03a	-0.10730024
251	0xbd4172b6	-0.047228537
252	0x3ddcfc7b	0.10790344
253	0x3c1403e3	0.00903413
254	0x3e08b740	0.13351154
255	0x3d4c9743	0.049948942

bias f4 [64]
0	0x3d383fd1	0.044982735
1	0xbde30e2e	-0.11086689
2	0x3b8d8d96	0.004319857
3	0x3d9145b5	0.07093374
4	0x3d13a257	0.03604349
5	0x3cc956f3	0.024577593
6	0xbcc35fac	-0.02384933
7	0x3c38fb80	0.011290431
8	0x3d31fb38	0.04345247
9	0xbdb1df32	-0.08685149
10	0xbc99dc36	-0.018781763
11	0x3d3f3c41	0.046688322
12	0xbd10a88d	-0.035316993
13	0xbcab73a1	-0.02092916
14	0xbba20762	-0.0049447278
15	0xbb337532	-0.0027383086
16	0xbc3d0c77	-0.011538616
17	0xbcc9ac45	-0.024618277
18	0xbda1ff52	-0.079100266
19	0xbd9387d0	-0.072036386
20	0xbdaacfdf	-0.083404295
21	0x39c79714	0.000380688
22	0xbd65b73c	-0.05608295
23	0xbd90d6b2	-0.070722
24	0x3c4e5c78	0.012595288
25	0xbddf295c	-0.108965605
26	0xbd6eee1c	-0.058332548
27	0xbc6e54d5	-0.014546593
28	0xbbb439d9	-0.00550006
29	0xbcb8b4a8	-0.022547081
30	0xbdc6d033	-0.097076796
31	0xbdb25a5e	-0.087086424
32	0xbd83b57a	-0.06431098
33	0xbe05f00b	-0.1307985
34	0xbc8a1dcb	-0.01685991
35	0xbcf96d2f	-0.03044757
36	0xbc770cba	-0.015078718
37	0xbd4f76ea	-0.050650515
38	0xbd5a001a	-0.053222753
39	0xbdb9c8e0	-0.09071517
40	0xbd66d052	-0.056351013
41	0x3c82db24	0.015973635
42	0xbd14cf7b	-0.03633068
43	0x3d2ae24a	0.041719712
44	0xbc7a9d1f	-0.01529625
45	0x3cba033e	0.022706624
46	0x3caaa98f	0.020832805
47	0xbce64d43	-0.028113013
48	0xbda47a06	-0.080310866
49	0x3d9c752e	0.07639538
50	0xbd0650ec	-0.032792017
51	0xbd6cf6bf	-0.057852503
52	0xbd271188	-0.040788203
53	0xbd35fb66	-0.044429205
54	0xbd908c4e	-0.07058011
55	0xbc9f54fa	-0.0194497
56	0xbdbcecaf	-0.09224831
57	0xbafc2dbd	-0.0019239705
58	0xbdfc9c43	-0.12334492
59	0xbe03e94c	-0.12881964
60	0xbd4566fd	-0.04819392
61	0xbcb5f191	-0.022209914
62	0xbdcc4316	-0.09973733
63	0x3d09a477	0.03360411

weight f4 [64, 64, 2, 2]
0	0xbd06e846	-0.032936357
1	0xbc2991e2	-0.010349723
2	0x3c871e6b	0.016493997
3	0xbd55a812	-0.052162237
4	0x3b6c0938	0.0036016237
5	0x3d68cf56	0.056838356
6	0x3d817ab8	0.06322235
7	0x3ca547a5	0.020175764
8	0xbd5148a6	-0.051094674
9	0xbd50299e	-0.05082094
10	0xbca46481	-0.020067455
11	0xbd9c431a	-0.07629986
12	0x3cf25f14	0.029586352
13	0xbc88c275	-0.016694287
14	0xbd9e05d7	-0.077159576
15	0xbb5a1f67	-0.0033282877
16	0xbd04e49c	-0.03244458
17	0xbd0110ea	-0.03151027
18	0xbcd930aa	-0.026512463
19	0x3c2b86f5	0.010469188
20	0x3cb3cbf3	0.021947837
21	0xbd3d05a3	-0.046147954
22	0xbc5318ae	-0.012884302
23	0x3c270bd5	0.010195692
24	0x3d7d6f58	0.061873764
25	0xbd161cd2	-0.03664858
26	0x3d45efa8	0.048324257
27	0xbadfb980	-0.0017068833
28	0xbd8e9f06	-0.06963925
29	0x3c2d6dec	0.010585289
30	0xbd1ef92f	-0.03881186
31	0xbc3c9fad	-0.011512679
32	0x3c5d62f8	0.0135123655
33	0xba662e87	-0.0008780737
34	0xbd8c50a8	-0.068513215
35	0x3d0bdedb	0.03414808
36	0xbb532460	-0.0032217726
37	0xbd794ac8	-0.060862333
38	0x3c7ceed0	0.015437797
39	0x3cbb4ba4	0.022863217
40	0x3c570bb8	0.013125353
41	0xbd707300	-0.058703423
42	0x3ca3efa8	0.020011738
43	0xbce0a4bc	-0.027422301
44	0xbceba6d8	-0.02876608
45	0xbd98a8af	-0.07454049
46	0xbc201f5f	-0.009773104
47	0xbd582dac	-0.05277793
48	0x3d231d54	0.03982289
49	0x3b16dea0	0.0023020878
50	0x3c84a464	0.016191669
51	0x3c23ee90	0.010005608
52	0xbc41dec0	-0.011832893
53	0xbd8cbe66	-0.06872253
54	0xbdc11680	-0.0942812
55	0xbd335fe9	-0.04379264
56	0x3d445be5	0.0479392
57	0xbbb16c10	-0.0054144934
58	0xbc3e2526	-0.011605537
59	0xbc953725	-0.018214772
60	0x3d06860e	0.03284269
61	0x3d998405	0.07495884
62	0x3c9184fb	0.017763605
63	0x3ded2f37	0.11581271
64	0x3ca4aff2	0.020103429
65	0xbd4da838	-0.050209254
66	0xbd0d2958	-0.034463257
67	0xbce7e5df	-0.028307853
68	0xbd9983bc	-0.074958295
69	0xbd013090	-0.031540453
70	0xbdda3ba8	-0.1065591
71	0xbd8448dd	-0.0645921
72	0xbd0d446a	-0.034489073
73	0x3d4f54f8	0.050618142
74	0xbd23ca7c	-0.039988026
75	0x3d1c2f36	0.03813096
76	0xbdad4c6e	-0.084618434
77	0xbd52b6f1	-0.051443998
78	0xbd8fdc9c	-0.070245
79	0xbd11f880	-0.03563738
80	0xbc3422b6	-0.010994604
81	0xbc2de9f6	-0.010614863
82	0xbc7a01ad	-0.015259189
83	0xbd34cd0b	-0.044140857
84	0x3d5a9200	0.053361893
85	0x3cbd05f9	0.023074137
86	0xbb410e96	-0.0029458157
87	0x3b0e63b4	0.0021726908
88	0x3d51e7b2	0.051246352
89	0xbd03c9da	-0.032174923
90	0xbc0af0bc	-0.008480247
91	0xbd5fc1c8	-0.054628164
92	0x3cad1b78	0.021131262
93	0x3ca42dc4	0.020041354
94	0x3d45e31c	0.04831229
95	0x3d369d4e	0.04458361
96	0xbdbf158b	-0.09330281
97	0xbd30e3f2	-0.043186136
98	0xbd2fa0ff	-0.042878147
99	0x3c5cce89	0.013476976
100	0xbc8df279	-0.017327534
101	0xbd5657c4	-0.052329794
102	0xbd8f1106	-0.06985669
103	0xbd952ecf	-0.07284319
104	0x3ad0a547	0.0015918397
105	0x3b82c05c	0.003990216
106	0xbdd89262	-0.10574795
107	0xbd49f92b	-0.04930989
108	0x3d3e66a5	0.04648461
109	0xbb08ead5	-0.0020891924
110	0x3dca2beb	0.09871658
111	0x3d8ecbf1	0.069724925
112	0x3d499543	0.049214613
113	0x3db01885	0.08598427
114	0x3cba2d66	0.022726726
115	0xbc9ac0cd	-0.018890763
116	0x3d8d4e91	0.06899751
117	0x3d793f9e	0.060851686
118	0x3d9a2cd5	0.07528082
119	0x3d6b8bc4	0.057506338
120	0xbd8ff54b	-0.07029208
121	0xbd287103	-0.0411234
122	0xbc677425	-0.014126812
123	0xbd883b8e	-0.06651984
124	0xbd8e15c3	-0.069377445
125	0x3b2c8bd4	0.0026328461
126	0x3b4b2115	0.003099506
127	0xbc44dc75	-0.012015452
128	0xbd316054	-0.043304756
129	0x3c8ad4d4	0.016947187
130	0x3d7a457a	0.061101414
131	0x3d716a1c	0.058939084
132	0xbdb9d990	-0.090747
133	0xbd92e309	-0.0717221
134	0xbcc7099d	-0.024296576
135	0xbd5c82d8	-0.05383572
136	0xbccc5d66	-0.02494688
137	0x3d76e437	0.060276236
138	0x3d936dee	0.07198702
139	0x3c8f3b97	0.01748447
140	0x3dd43c5d	0.10363076
141	0x3daed06e	0.085358486
142	0x3cbf075e	0.023318943
143	0x3dd52e26	0.10409193
144	0x3d15e9c9	0.036599908
145	0x3dea4226	0.11438398
146	0x3ddd2783	0.10798552
147	0x3d99bc2c	0.07506594
148	0x3cbf007f	0.023315666
149	0x3db1041d	0.08643363
150	0x3dc10523	0.09424808
151	0x3da43fe1	0.080199964
152	0x3c9e2710	0.019305736
153	0x3d1f5680	0.038900852
154	0xbd209b6a	-0.039210714
155	0xbd68e196	-0.05685576
156	0x3d95e745	0.07319502
157	0x3ddb904d	0.107208826
158	0x3d1e7222	0.038683064
159	0x3dd9b61f	0.1063044
160	0xbd54c68b	-0.051947158
161	0xbcd73546	-0.02627052
162	0xbd3a8d61	-0.045544986
163	0xbdd84c0b	-0.10561379
164	0xbc9749a4	-0.018467732
165	0x3bfb68f0	0.0076724216
166	0xbd1f9a72	-0.03896565
167	0x3d09fcf4	0.0336885
168	0xbc8fd9a6	-0.017559838
169	0xbcd8089e	-0.026371296
170	0xbda45b05	-0.08025173
171	0xbd236053	-0.039886784
172	0xbd950b8a	-0.072775915
173	0xbd9bb688	-0.076031744
174	0x3bfd7c40	0.007735759
175	0xbc9a937a	-0.01886915
176	0x3cbebb68	0.023282722
177	0x3d1a0bec	0.037609026
178	0x3d52ee06	0.051496528
179	0x3d22e600	0.039770126
180	0xbc4321c8	-0.01190991
181	0x3d69185e	0.056908004
182	0xbcd9aa00	-0.02657032
183	0xbd24ac48	-0.040203363
184	0x3d9cf690	0.076642156
185	0x3c584c49	0.013201782
186	0x3cc63d20	0.024199069
187	0x3de4b4e9	0.111673184
188	0xbda44f31	-0.08022917
189	0x3bb528ef	0.0055285613
190	0x3cfad1f9	0.0306177
191	0xbd7c9309	-0.06166366
192	0xbbe8f192	-0.0071088756
193	0xbc264669	-0.010148623
194	0xbcc0b19d	-0.023522193
195	0x3c1b112f	0.009464546
196	0x3cc95716	0.024577659
197	0x3c82297b	0.01588892
198	0xbcdbc701	-0.02682829
199	0xbd2baeea	-0.041914858
200	0x3cf1a664	0.029498287
201	0xbd0075de	-0.031362407
202	0xbc9e4104	-0.019318111
203	0xbd15ed70	-0.03660339
204	0x3d4fa81a	0.050697424
205	0x3cf50858	0.029911205
206	0x3ce90fd8	0.028449938
207	0xbab74040	-0.001398094
208	0x3d8c47dd	0.06849644
209	0x3d668311	0.05627734
210	0x3d8c1eca	0.0684181
211	0xbc3f2249	-0.011665889
212	0x3cb747fc	0.022373192
213	0xbd654f4a	-0.05598382
214	0x3d5d29b2	0.053994842
215	0xbd0e89f0	-0.034799516
216	0x3c42ac9b	0.011881973
217	0x3cb37df8	0.021910653
218	0xbb85d310	-0.0040839985
219	0xbbb95780	-0.0056561828
220	0x3c957377	0.018243534
221	0x3dbc32b0	0.091893554
222	0x3cc6850e	0.024233367
223	0x3c155d56	0.009116491
224	0x3c1c8a81	0.009554506
225	0x3d0ca20a	0.03433422
226	0x3ba0a999	0.00490303
227	0x3cee24bf	0.029070256
228	0xbc8491af	-0.016182749
229	0xba1a6220	-0.00058892556
230	0x3d71c473	0.05902524
231	0xbba3ea5e	-0.005002304
232	0x3dc3ca8a	0.09560116
233	0x3d40eec2	0.047102697
234	0x3d983953	0.07432809
235	0x3db3b2e5	0.08774356
236	0xbd55db9d	-0.052211393
237	0xbcd2389d	-0.025661761
238	0xbdb9d04f	-0.09072935
239	0xbdb8f189	-0.09030444
240	0x3d015b08	0.031580955
241	0xbcff7520	-0.03118378
242	0x3cd9859c	0.026552968
243	0x3ca2b028	0.019859388
244	0x3ca49a64	0.02009315
245	0xbbafb440	-0.0053620636
246	0x3d33c366	0.04388752
247	0x3d48fada	0.049067356
248	0xbd1d0f26	-0.038344525
249	0xbd3dd5f3	-0.046346616
250	0xbd091233	-0.03346462
251	0xbd25f235	-0.04051419
252	0xbd4d5769	-0.05013219
253	0xbc0721ce	-0.008247806
254	0xbd25d18b	-0.04048304
255	0x3b75dd7d	0.003751605

bias f4 [64]
0	0x3cb306ea	0.021853883
1	0x3d00f7ea	0.03148643
2	0x3b197754	0.0023417072
3	0x3d3f5775	0.046714265
4	0xbd794d03	-0.06086446
5	0x3d297da8	0.0413796
6	0xbd940c01	-0.07228852
7	0xbce043ad	-0.02737602
8	0xbd0221f3	-0.031770658
9	0x3d12c975	0.035836656
10	0x3d3fb34a	0.046801843
11	0x3d129e48	0.03579548
12	0xbd9627c2	-0.07331802
13	0xbc94467c	-0.018100016
14	0x3d673b1a	0.056452848
15	0x3ca6ef29	0.020377712
16	0xbd5ce0b3	-0.053925227
17	0x3bce4141	0.0062944
18	0x3d339751	0.04384548
19	0x3c7c701e	0.01540759
20	0xbc113b53	-0.008864242
21	0x3ba37445	0.0049882256
22	0x3b19a678	0.002344517
23	0x3b7ca824	0.0038552368
24	0xbc4ef8ab	-0.012632529
25	0xbd810009	-0.06298835
26	0x3b20c9b0	0.0024534278
27	0x3d03ae24	0.032148495
28	0xbd3dcd47	-0.046338346
29	0x3d6389be	0.055551283
30	0x3d0ac725	0.033881325
31	0xbd10985f	-0.035301562
32	0x3d9badf3	0.076015376
33	0x3d38adb4	0.04508753
34	0x3b905715	0.0044049122
35	0x3d8470eb	0.0646685
36	0xbd344707	-0.04401305
37	0x3c735dbc	0.014853891
38	0xbd4c828f	-0.049929198
39	0xbd9b4aaf	-0.07582604
40	0xbd111176	-0.035417043
41	0x3ce36916	0.02776007
42	0xbca11798	-0.01966457
43	0xbc424b67	-0.011858798
44	0x3d6c0b87	0.05762818
45	0x3c973e5c	0.018462352
46	0xbd3025d5	-0.04300483
47	0x3d7f44da	0.06232152
48	0x3d3afb05	0.045649547
49	0x3cd861e9	0.026413875
50	0xbd050a5b	-0.03248058
51	0x3d0b58da	0.034020282
52	0xbc8d02e5	-0.017213294
53	0x3d191258	0.03737101
54	0x3d071960	0.032983184
55	0x3d74418a	0.059632815
56	0xbcd3251d	-0.025774533
57	0xbd365770	-0.04451698
58	0x3c966859	0.018360304
59	0xbb885685	-0.0041607046
60	0x3dccf17d	0.10006998
61	0x3d2d4f81	0.04231215
62	0x3cf224ba	0.029558528
63	0xbd5096b6	-0.05092498
