output/train_16_12_23_part-4/unet_tgs_salt.pth (torch, 975865 bytes, 36 tensors)

weight f4 [16, 3, 2, 2]
-0.1540917 0.03154246 -0.10811312 0.2510307 0.21343544 -0.1951465 0.26354054 0.1368263
0.20104027 -0.22549775 0.030538648 -0.019590905 0.28916606 -0.15681313 0.2997723 0.23167615
-0.15248916 0.29711226 -0.15877298 -0.038104538 -0.3110338 -0.29869005 -0.30878642 0.22371523
0.017592456 0.12309209 -0.20049058 -0.22757266 0.038826708 -0.28129938 0.1106047 -0.22337686
0.1919238 0.27943647 -0.220739 -0.17832948 0.25987124 0.31002423 -0.13899668 0.10634799
-0.14034797 -0.1024223 0.002369929 -0.14722842 0.08357695 0.100494266 0.15837891 0.023766404
-0.27250868 -0.15576221 -0.15338531 0.19974583 -0.18387902 0.108901754 -0.23184271 -0.16991049
0.005631913 -0.16316119 -0.04135507 0.1526298 0.103795215 -0.06424711 -0.17228107 0.04732558
0.18906789 -0.053641953 -0.28159025 0.21756017 0.05846502 0.3181437 0.22755858 -0.082104
0.251264 -0.027644608 -0.21855806 -0.12219622 -0.09652478 0.21160515 0.11653249 0.20379798
0.20612814 -0.12385119 0.030128123 0.26091447 -0.20980737 0.30379796 0.3172488 -0.061884917
0.085759275 0.027694639 -0.021542758 0.019963989 -0.15653144 -0.15452863 0.29843587 -0.22672062
-0.13348249 0.01154159 0.2086959 -0.15851581 -0.27016518 0.15909503 0.17554809 -0.023672227
0.044514585 -0.051653303 -0.21039055 0.27802172 0.25309554 0.020371458 -0.020214807 -0.0100153005
0.06421279 0.15100129 0.060865033 -0.1222408 -0.045101292 0.32155365 0.018062474 0.15158057
-0.2134148 0.17851639 0.13245995 0.0674748 0.2285029 -0.10200313 -0.10381064 0.182992
-0.11868651 -0.3042563 -0.2468453 0.1886564 -0.015956437 -0.046713907 0.15107498 0.04913551
-0.26035374 -0.099685796 0.046792015 -0.02124221 0.15296242 -0.17232853 0.1830425 0.15700047
-0.006129414 -0.07501856 0.289005 0.22598952 -0.193707 -0.105959095 -0.040911667 0.13424735
-0.08904808 -0.136762 0.19683623 0.20762433 0.13625835 0.21771096 0.0977022 -0.006593424
-0.14702286 0.10441255 0.31016427 0.31595835 -0.22158766 -0.033786025 -0.346268 -0.32223195
0.31278032 -0.09427849 0.091808565 0.119399756 0.18721534 -0.23490277 -0.24947439 0.04629131
-0.052685723 0.16991334 0.26058915 -0.16468248 0.22264835 -0.01907731 0.17018597 0.27365953
0.1844211 0.06311404 0.05503929 0.145382 -0.017639171 0.28251475 0.30051422 -0.019567816
00000000: 37ca 1dbe ab32 013d 696a ddbd 1987 803e
00000010: d28e 5a3e 7cd4 47be c9ee 863e 321c 0c3e
00000020: 80dd 4d3e e2e8 66be 302c fa3c 1b7d a0bc
00000030: 930d 943e 9f93 20be c17b 993e 833c 6d3e
00000040: 1e26 1cbe 191f 983e 6295 22be 8113 1cbd
00000050: d23f 9fbe e7ed 98be 4119 9ebe 9b15 653e
00000060: 0e1e 903c b517 fc3d 674d 4dbe cf08 69be
00000070: c108 1f3d 7906 90be b884 e23d e7bc 64be
00000080: ac87 443e 4c12 8f3e 6809 62be 019c 36be
00000090: d80d 853e 7fbb 9e3e 2555 0ebe facc d93d
000000a0: 61b7 0fbe c8c2 d1bd d050 1b3b 0cc3 16be
000000b0: 642a ab3d f0cf cd3d 152e 223e c3b1 c23c
000000c0: 4286 8bbe 2180 1fbe 0a11 1dbe 2c8a 4c3e
000000d0: c84a 3cbe e207 df3d 2d68 6dbe 04fd 2dbe
000000e0: e98b b83b ba13 27be ef63 29bd fc4a 1c3e
000000f0: 9692 d43d fd93 83bd 736a 30be 78d8 413d
00000100: 039b 413e aab7 5bbd 992c 90be 18c8 5e3e
00000110: 0479 6f3d bbe3 a23e 1e05 693e 2426 a8bd
00000120: ada5 803e f276 e2bc afcd 5fbe 0342 fabd
00000130: c9ae c5bd 05af 583e 96a8 ee3d 6bb0 503e
00000140: 4113 533e b1a5 fdbd 41cf f63c 9596 853e
00000150: bed7 56be 688b 9b3e 6f6e a23e 0a7b 7dbd
00000160: 8fa2 af3d dedf e23c 707a b0bc 858b a33c
00000170: c749 20be c13c 1ebe 96cc 983e 7329 68be
00000180: a2af 08be f018 3d3c 61b4 553e f851 22be
00000190: 1753 8abe cfe9 223e e1c2 333e 42ec c1bc
000001a0: ed54 363d 6a92 53bd 9f70 57be dd58 8e3e
000001b0: bd95 813e 0be2 a63c 8699 a5bc 3717 24bc
000001c0: ff81 833d 15a0 1a3e 9d4d 793d 6259 fabd
000001d0: 22bc 38bd aea2 a43e c1f7 933c f037 1b3e
000001e0: 6989 5abe 00cd 363e 95a3 073e 3a30 8a3d
000001f0: aafc 693e 04e7 d0bd ac9a d4bd 4162 3b3e
00000200: ea11 f3bd 7bc7 9bbe 04c5 7cbe 252f 413e
00000210: 13b7 82bc 1557 3fbd 66b3 1a3e 5142 493d
00000220: 164d 85be 1128 ccbd fca8 3f3d 2504 aebc
00000230: 2ea2 1c3e e476 30be 7e6f 3b3e bbc4 203e
00000240: 40d9 c8bb 55a3 99bd 77f8 933e cc69 673e
00000250: 215b 46be 1501 d9bd fe92 27bd 2378 093e
00000260: d75e b6bd 560b 0cbe 708f 493e 799b 543e
00000270: 4f87 0b3e 9fef 5e3e 1718 c83d a60d d8bb
00000280: 298d 16be 3fd6 d53d dacd 9e3e 4bc5 a13e
00000290: e0e7 62be 3763 0abd 0a4a b1be 96fb a4be
000002a0: be24 a03e 1515 c1bd 2106 bc3d dc87 f43d
000002b0: 61b5 3f3e 5a8a 70be 3776 7fbe f59b 3d3d
000002c0: fccc 57bd c3fd 2d3e f16b 853e 86a2 28be
000002d0: eefd 633e 0548 9cbc 3b45 2e3e 1a1d 8c3e
000002e0: e3d8 3c3e ef41 813d e170 613d 05df 143e
000002f0: 0680 90bc c6a5 903e 00dd 993e af4c a0bc

bias f4 [16]
-0.22017577 0.0537338 -0.28854287 -0.14361121 0.19560927 0.1247621 0.18901476 -0.17713152
-0.22165848 0.13307807 0.066957965 0.2675914 0.060956407 0.029241933 -0.17904672 0.2980348
00000000: c275 61be f917 5c3d e4bb 93be d10e 13be
00000010: cc4d 483e 4683 ff3d 168d 413e f761 35be
00000020: 71fa 62be 9e45 083e 4221 893d bd01 893e
00000030: 6dad 793d c78c ef3c 0658 37be 0498 983e

weight f4 [16, 16, 2, 2]
-0.104084976 -0.057629347 -0.19024442 -0.21815202 0.28919384 0.1807559 0.21915445 0.2394251
-0.055379495 0.11417997 0.053066447 -0.03142859 -0.20523356 -0.1992835 -0.2648519 -0.09635571
-0.05747494 -0.09007131 0.06081619 -0.090665564 -0.047832 -0.06499512 0.07761956 -0.07550446
-0.107598074 -0.010165866 -0.016510596 0.07124268 0.05491226 -0.07166695 -0.11334406 -0.06764446
-0.07716169 -0.015602294 0.080904685 0.11853816 -0.08559802 0.051381707 0.05084269 0.053802077
0.19117603 0.18349749 0.20624623 0.13803545 -0.05721734 -0.039953426 0.09678885 0.028483432
-0.05543767 0.07626589 -0.09828345 -0.020436976 0.37957212 0.38538462 0.30369896 0.18401234
-0.24898131 -0.10369838 -0.09657334 -0.09041111 -0.11240736 -0.008960074 0.09310713 -0.07738649
-0.10871127 -0.16740791 -0.11350478 -0.102937944 -0.0132272495 0.07623638 0.0539984 0.0011446831
-0.121437535 0.049666062 -0.10148817 0.037379548 0.04545373 -0.08510676 -0.10192864 -0.12793355
-0.025727509 0.03489869 -0.0103746625 -0.009544599 -0.054323927 0.04899795 -0.01497136 -0.05021316
-0.06114169 0.047624607 0.13237041 -0.07943045 -0.013680966 -0.0648319 -0.08865768 -0.08185643
0.042226344 -0.044732 0.0715037 0.06862525 -0.040002193 0.09538636 0.04855249 -0.049258877
0.054420024 0.044875592 -0.099140674 0.04626873 -0.053815015 0.04599768 -0.11033598 -0.11222021
-0.03344352 0.09628389 0.11566898 0.06184179 0.006542567 -0.10919498 0.04985863 -0.08791298
-0.076675825 0.037925735 0.054589506 -0.12427287 0.09759648 0.09765303 0.025451692 0.08982326
-0.071755216 -0.068968825 -0.021147601 -0.06378078 -0.33432645 -0.30694664 -0.35778812 -0.17534478
-0.0718558 0.102547035 0.10388698 0.07252589 0.0564815 0.15695763 0.16889966 0.06566642
0.18173076 0.07561652 0.14776154 0.066029765 6.428048e-07 0.09746823 0.028113443 0.1042093
-0.010498692 0.12325458 0.14729482 0.1422756 -0.0038944243 -0.04576856 -0.114641525 -0.045346197
-0.121749 0.060564734 -0.09840219 -0.111933745 0.09805237 -0.056130365 -0.06358777 0.11525033
-0.15373394 -0.19649756 -0.09084362 -0.110145435 -0.028024903 0.13281614 -0.07447715 0.1311984
0.092554025 0.12176897 0.014536728 -0.037158865 -0.25642794 -0.36933 -0.20008291 -0.25989977
0.05534944 -0.02395266 -0.026641935 0.08261629 0.08925567 0.045597985 -0.02839811 -0.06586144
0.104913406 -0.10876646 0.100776315 0.03193678 0.08793058 0.06681323 0.105641164 -0.08527429
-0.021942168 0.08894515 0.109375134 -0.110964 -0.13519274 0.050706934 -0.012026229 0.08464777
-0.24139366 -0.009339557 -0.08883937 -0.027612513 0.020330785 0.061125413 -0.07883505 -0.00036907315
0.008981844 0.11281086 0.004350185 -0.016568918 0.12602045 -0.09109676 0.07765185 -0.004284138
-0.02465585 0.010267282 0.030082405 -0.08628485 -0.10819012 -0.0074688243 -0.0021519084 -0.106835656
0.01827799 0.06629436 0.0475521 -0.05172508 0.022417592 -0.12283609 0.015433603 0.050226696
0.019529866 0.003650735 -0.06287798 -0.12325469 0.13751434 0.12786292 0.12580355 0.067776635
0.042853225 0.106856585 -0.029039562 0.114250295 0.09663395 -0.059485164 0.11369025 -0.029549371
00000000: 812a d5bd c00c 6cbd 6fcf 42be 3e63 5fbe
00000010: 3711 943e 1318 393e 066a 603e da2b 753e
00000020: 9cd5 62bd 30d7 e93d 345c 593d 44bb 00bd
00000030: bf28 52be f910 4cbe ab9a 87be 2456 c5bd
00000040: d86a 6bbd 4f77 b8bd 661a 793d deae b9bd
00000050: 7deb 43bd 291c 85bd 01f7 9e3d 15a2 9abd
00000060: 615c dcbd bc8e 26bc 3b41 87bc afe7 913d
00000070: aeeb 603d 1fc6 92bd ee20 e8bd 2e89 8abd
00000080: f306 9ebd c4a0 7fbc 5bb1 a53d 23c4 f23d
00000090: 044e afbd a075 523d 6d40 503d 915f 5c3d
000000a0: a6c3 433e c4e6 3b3e 3632 533e 2a59 0d3e
000000b0: bb5c 6abd 34a6 23bd 3c39 c63d 1656 e93c
000000c0: 9c12 63bd 4a31 9c3d d548 c9bd 726b a7bc
000000d0: 4757 c23e 2251 c53e 6e7e 9b3e bb6d 3c3e
000000e0: f5f4 7ebe d15f d4bd 3ec8 c5bd 7629 b9bd
000000f0: d435 e6bd 46cd 12bc f3ae be3d cf7c 9ebd
00000100: 04a4 debd fb6c 2bbe 3275 e8bd 21d1 d2bd
00000110: 1bb7 58bc d221 9c3d 6d2d 5d3d 3109 963a
00000120: 3eb4 f8bd a46e 4b3d 08d9 cfbd 4c1b 193d
00000130: b12d 3a3d 744c aebd f6bf d0bd 0301 03be
00000140: 7fc2 d2bc eef1 0e3d 7dfa 29bc f360 1cbc
00000150: c482 5ebd 13b2 483d 6f4a 75bc 51ac 4dbd
00000160: b56f 7abd 0512 433d 1c8c 073e 6fac a2bd
00000170: 2126 60bc 96c6 84bd 2892 b5bd 58a4 a7bd
00000180: 88f5 2c3d e738 37bd 8870 923d 658b 8c3d
00000190: 57d9 23bd ed59 c33d fade 463d adc3 49bd
000001a0: 88e7 5e3d 78cf 373d 440a cbbd 4884 3d3d
000001b0: 226d 5cbd 1068 3c3d d5f7 e1bd b6d3 e5bd
000001c0: 13fc 08bd 7d30 c53d dce3 ec3d d14d 7d3d
000001d0: 0863 d63b 9ea1 dfbd 9038 4c3d b80b b4bd
000001e0: 3708 9dbd 0458 1b3d 3f99 5f3d c682 febd
000001f0: aae0 c73d 50fe c73d 1180 d03c 42f5 b73d
00000200: 66f4 92bd 873f 8dbd bc3d adbc 7f9f 82bd
00000210: d62c abbe 1c28 9dbe 0130 b7be 958d 33be
00000220: 2229 93bd 2e04 d23d b2c2 d43d 7488 943d
00000230: 2559 673d 80b9 203e 08f4 2c3e 1e7c 863d
00000240: a117 3a3e d6dc 9a3d cd4e 173e 9d3a 873d
00000250: 368d 2c35 6c9d c73d 2a4e e63c af6b d53d
00000260: b502 2cbc e66c fc3d 74d4 163e b2b0 113e
00000270: 9939 7fbb d077 3bbd 2dc9 eabd efbc 39bd
00000280: 8a57 f9bd ba12 783d 1687 c9bd 853d e5bd
00000290: aecf c83d f4e8 65bd 4e3a 82bd 5d08 ec3d
000002a0: 6e6c 1dbe a836 49be 380c babd ee93 e1bd
000002b0: 7b94 e5bc f400 083e 7a87 98bd e058 063e
000002c0: f78c bd3d 0262 f93d 752b 6e3c e533 18bd
000002d0: 864a 83be d218 bdbe 89e2 4cbe 9511 85be
000002e0: 18b6 623d 5e38 c4bc 3040 dabc bb32 a93d
000002f0: adcb b63d f4c4 3a3d 27a3 e8bc 5de2 86bd
00000300: d7dc d63d f3c0 debd d063 ce3d 24d0 023d
00000310: f314 b43d 60d5 883d 655a d83d 49a4 aebd
00000320: 10c0 b3bc e028 b63d 1200 e03d 1841 e3bd
00000330: f76f 0abe 13b2 4f3d a909 45bc cf5b ad3d
00000340: e62f 77be f104 19bc 6af1 b5bd a333 e2bc
00000350: bf8c a63c a45e 7a3d 4574 a1bd 2980 c1b9
00000360: 9628 133c 6109 e73d ff8b 8e3b 8abb 87bc
00000370: 810b 013e f090 babd ef07 9f3d f461 8cbb
00000380: 11fb c9bc 1a38 283c 606f f63c 1db6 b0bd
00000390: c892 ddbd 0abd f4bb 0807 0dbb a7cc dabd
000003a0: b9bb 953c 56c5 873d fec5 423d addd 53bd
000003b0: 19a5 b73c 7d91 fbbd 39dd 7c3c 82ba 4d3d
000003c0: 19fd 9f3c 2b41 6f3b 2cc6 80bd f46c fcbd
000003d0: 8fd0 0c3e 7fee 023e a5d2 003e 7ace 8a3d
000003e0: dd86 2f3d a0d7 da3d 60e4 edbc 0ffc e93d
000003f0: 05e8 c53d b7a6 73bd 6fd6 e83d 8611 f2bc

bias f4 [16]
-0.011851837 0.09672582 -0.04052979 0.057095952 -0.0171504 -0.08868931 -0.048681803 0.019594843
0.0012622373 -0.07007704 0.058290053 0.023547579 -0.13342462 0.07708813 0.063389555 -0.059656724
00000000: 352e 42bc 3018 c63d 9102 26bd 72dd 693d
00000010: ff7e 8cbc bea2 b5bd 9266 47bd 5d85 a03c
00000020: a871 a53a 8d84 8fbd 8dc1 6e3d dae6 c03c
00000030: 77a0 08be 62e0 9d3d 62d2 813d 9c5a 74bd

weight f4 [32, 16, 2, 2]
0.1007562 -0.013271403 0.051357854 -0.017340776 -0.00035232535 0.06817981 -0.010132952 -0.020270515
-0.13520513 -0.06992272 0.09723823 -0.023907352 0.034394857 -0.07675593 -0.03720361 -0.008231097
0.14193493 0.024896786 0.039538063 -0.030593744 -0.048195615 -0.03622706 0.104638964 0.10241141
0.031285666 0.0042995056 0.1350783 0.00028268993 0.005449762 0.09651607 0.013246182 -0.027252074
0.17802517 0.17913187 0.040194944 0.14038129 0.046129417 -0.05666686 0.079532646 -0.12602794
0.011902496 0.08965254 -0.04053459 -0.0183145 -0.13172348 -0.12834665 -0.0805715 0.013023247
0.100404926 -0.03695596 0.15293315 0.02281207 -0.0069847233 -0.018347606 0.0781888 -0.047992144
0.14592077 0.12661843 -0.061399594 -0.03208077 -0.043887112 0.04845721 0.119168065 0.0944472
-0.04262285 0.060208384 0.059003226 0.05835227 0.091446124 -0.07700344 0.074910395 0.01766301
0.022901913 0.02916997 0.007969737 0.090653166 -0.044122357 -0.031899408 0.12538993 0.11479652
-0.06848748 0.024334434 -0.103712685 -0.005741783 -0.11087599 0.06922326 0.0026967055 0.086797684
-0.068746135 0.047388803 0.064579144 -0.078224406 -0.091889426 -0.10497459 -0.024518449 0.12775275
0.097612806 0.04653335 -0.024204992 -0.06075946 -0.016375288 0.043460965 0.035786774 0.04687165
0.045986567 -0.08283973 -0.071564876 0.07302462 0.014722435 -0.10804257 -0.07078053 0.067972995
-0.027238324 -0.07380348 -0.06695319 0.106311925 0.01483158 0.022420296 -0.03374967 -0.035125274
-0.0067061535 0.08589364 -0.042459574 0.124714784 -0.0004150761 0.06546842 -0.10445568 -0.08216547
0.11537608 -0.010203183 -0.11788206 -0.08761129 -0.110983506 0.10963503 -0.010040612 -0.005438081
-0.04691546 0.004479418 -0.020366864 0.05691811 -0.0814989 0.07214698 -0.033045292 -0.10592946
0.11973941 -0.017464386 -0.09893339 0.12637694 0.16476402 0.12385891 0.04006603 0.17065364
0.08088251 -0.0051977923 0.07967222 0.016924974 0.060942806 0.07128282 0.0653931 0.08779305
-0.025320763 -0.04282349 -0.11696228 0.04217542 0.038169805 -0.0065132794 -0.013456433 0.09477658
-0.07298472 0.027793644 -0.07642583 -0.056127295 0.019043006 -0.07960518 -0.08236364 0.11221356
-0.12664777 0.048938885 -0.082547575 -0.06352255 -0.018440932 0.0017765337 0.110332586 0.026269311
-0.094037265 0.08949862 0.052209243 0.11137769 -0.10752388 -0.108463965 0.13623582 0.0019334895
-0.058779817 0.014814421 0.018554045 0.031088384 -0.04526172 0.118071474 -0.090081535 -0.06165636
0.09945895 -0.06427358 0.1389535 0.07915689 -0.07045547 -0.09260583 0.07955507 -0.12008085
-0.11453978 0.07886288 0.08534859 0.07085274 0.025085546 -0.051061396 0.122468024 0.07244458
-0.06556805 -0.002908111 -0.11455589 -0.01666885 0.04638836 0.043419152 -0.053834446 0.0863217
0.01530978 -0.10074012 -0.060499493 -0.040444583 0.048097927 -0.09274755 -0.05358714 -0.0774337
0.13418193 0.13133466 0.014596566 -0.03078796 0.055080373 0.14216657 0.08774186 0.049987767
-0.005405731 -0.03270348 -0.13079584 -0.040934175 0.12945798 0.10382309 0.14011121 -0.048195302
0.017080577 -0.0060456945 -0.104017325 0.062198818 -0.009051245 0.059333403 0.014956974 0.12306401
00000000: 4459 ce3d 4c70 59bc 9d5c 523d 3e0e 8ebc
00000010: 4fb8 b8b9 dba1 8b3d ae04 26bc 5a0e a6bc
00000020: 3773 0abe a533 8fbd d624 c73d 5ad9 c3bc
00000030: 9fe1 0c3d 3732 9dbd d062 18bd b9db 06bc
00000040: 6457 113e 58f4 cb3c aaf2 213d bb9f fabc
00000050: c468 45bd d362 14bd f44c d63d 13bd d13d
00000060: 6625 003d dee2 8c3b f751 0a3e 0036 9439
00000070: eb93 b23b 38aa c53d 8406 593c be3f dfbc
00000080: 3b4c 363e 586e 373e 74a3 243d 1dc0 0f3e
00000090: 33f2 3c3d 821b 68bd 03e2 a23d 780d 01be
000000a0: b002 433c c09b b73d 9907 26bd 4a08 96bc
000000b0: 85e2 06be 4e6d 03be ac02 a5bd 755f 553c
000000c0: 19a1 cd3d 225f 17bd 829a 1c3e 61e0 ba3c
000000d0: 1be0 e4bb b84d 96bc 7321 a03d 6993 44bd
000000e0: 416c 153e 43a8 013e 247e 7bbd 2067 03bd
000000f0: f9c2 33bd 117b 463d 630e f43d 896d c13d
00000100: 4c95 2ebd 119d 763d 5ead 713d ca02 6f3d
00000110: 1b48 bb3d fbb3 9dbd 9f6a 993d 04b2 903c
00000120: cb9c bb3c dcf5 ee3c 8093 023c 5ea8 b93d
00000130: a5b9 34bd f4a8 02bd 3866 003e 701a eb3d
00000140: 2a43 8cbd 0259 c73c 5167 d4bd 9125 bcbb
00000150: f312 e3bd edc4 8d3d 36bb 303b fcc2 b13d
00000160: c6ca 8cbd c31a 423d 1242 843d 1e34 a0bd
00000170: 8630 bcbd ebfc d6bd eada c8bc 9ed1 023e
00000180: 39e9 c73d c199 3e3d 8c49 c6bc e9de 78bd
00000190: 7825 86bc 2004 323d 2795 123d 7dfc 3f3d
000001a0: 695c 3c3d e0a7 a9bd 9b90 92bd ef8d 953d
000001b0: 5e36 713c 6c45 ddbd 62f5 90bd 6d35 8b3d
000001c0: e822 dfbc 4726 97bd c11e 89bd 11ba d93d
000001d0: 2800 733c c5aa b73c 183d 0abd 85df 0fbd
000001e0: 4bbf dbbb 01e9 af3d 17ea 2dbd 776a ff3d
000001f0: 929e d9b9 4f14 863d dcec d5bd 5f46 a8bd
00000200: 4b4a ec3d 402b 27bc 266c f1bd 8c6d b3bd
00000210: 524b e3bd 5588 e03d 6181 24bc ee31 b2bb
00000220: 6d2a 40bd 15c8 923b 69d8 a6bc f722 693d
00000230: e5e8 a6bd ccc1 933d 805a 07bd 8bf1 d8bd
00000240: f039 f53d 7911 8fbc 979d cabd f568 013e
00000250: e6b7 283e bda9 fd3d 471c 243d d4bf 2e3e
00000260: bba5 a53d 3e52 aabb 302b a33d 3ea6 8a3c
00000270: 2a9f 793d bafc 913d d1ec 853d d8cc b33d
00000280: 7d6d cfbc af67 2fbd eb89 efbd 22c0 2c3d
00000290: f157 1c3d 596d d5bb 5f78 5cbc 391a c23d
000002a0: 0379 95bd 7faf e33c 2585 9cbd bce5 65bd
000002b0: 1400 9c3c 0a08 a3bd 45ae a8bd 39d0 e53d
000002c0: f4af 01be 2474 483d b40e a9bd 1c18 82bd
000002d0: 7011 97bc 94da e83a 0df6 e13d bd32 d73c
000002e0: 9c96 c0bd 0d4b b73d 5cd9 553d fd19 e43d
000002f0: 7b35 dcbd 5b22 debd 6781 0b3e 246d fd3a
00000300: 1bc3 70bd 2fb8 723c a7fe 973c 11ad fe3c
00000310: 5a64 39bd 75cf f13d ab7c b8bd 618b 7cbd
00000320: 22b1 cb3d dea1 83bd d449 0e3e 021d a23d
00000330: f54a 90bd 20a8 bdbd c5ed a23d f3ec f5bd
00000340: d593 eabd dd82 a13d 3ecb ae3d 3e1b 913d
00000350: 3480 cd3c c125 51bd 84d0 fa3d d35d 943d
00000360: 8b48 86bd 0296 3ebb 479c eabd 1d8d 88bc
00000370: b901 3e3d 48d8 313d 8281 5cbd 6ec9 b03d
00000380: dfd5 7a3c d650 cebd 51ce 77bd 38a9 25bd
00000390: 5502 453d 6df2 bdbd 307e 5bbd 8f95 9ebd
000003a0: fd66 093e 987c 063e 6f26 6f3c 0837 fcbc
000003b0: f59b 613d 1d94 113e 01b2 b33d f9bf 4c3d
000003c0: 8f22 b1bb 16f4 05bd 58ef 05be 98aa 27bd
000003d0: a290 043e 33a1 d43d 5079 0f3e 7068 45bd
000003e0: 91ec 8b3c f61a c6bb 0907 d5bd 30c4 7e3d
000003f0: ac4b 14bc 9507 733d 190e 753c fc08 fc3d

bias f4 [32]
0.019084398 0.022607507 0.0741583 -0.07143004 -0.06209943 -0.061254255 0.028918872 -0.09821695
-0.04343505 0.12645325 0.07165157 0.10583035 0.12613311 -0.13471644 0.060136747 -0.04701923
0.026582872 -0.06301016 -0.086835034 0.09289526 -0.036662675 0.012471906 -0.06964891 0.0576625
-0.13840573 0.0436512 0.09388198 -0.095928766 0.08749497 0.007166029 -0.114818506 0.06975309
00000000: e256 9c3c 6133 b93c 4fe0 973d ea49 92bd
00000010: f95b 7ebd bee5 7abd 45e7 ec3c f825 c9bd
00000020: f3e8 31bd f67c 013e 0fbe 923d 95bd d83d
00000030: 0a29 013e 1bf3 09be f351 763d 3c97 40bd
00000040: 53c4 d93c 790b 81bd 91d6 b1bd df3f be3d
00000050: 9a2b 16bd f756 4c3c 16a4 8ebd 832f 6c3d
00000060: 3bba 0dbe 9acb 323d 3245 c03d 4d76 c4bd
00000070: 9030 b33d 02d1 ea3b f725 ebbd b5da 8e3d

weight f4 [32, 32, 2, 2]
-0.09305607 -0.10326286 0.006208506 0.0044471878 0.022768717 0.063128024 0.049339585 -0.046661843
0.024104994 -0.026805107 -0.058187738 0.0014821808 0.007226967 0.04828265 0.049792204 0.070370175
-0.10405896 -0.020196196 0.048326958 0.034920767 -0.0766694 0.012297018 0.0116889365 0.029077133
0.07690821 0.014186023 0.0537186 -0.030562714 0.057872016 -0.012814154 0.0072036386 0.071482375
-0.040367145 0.07597778 0.09950975 0.12070432 0.08943097 0.07069285 0.105649434 0.09239172
0.0809437 -0.07786898 0.06216874 -0.04498538 -0.028556935 0.04127667 -0.005416825 -0.0026201801
-0.0466942 -0.056537293 0.068296656 -0.007166183 -0.1011935 -0.097231776 -0.011803215 0.015981253
-0.016419962 0.011335537 0.036458198 0.08795489 -0.042889874 -0.069798514 0.05038129 -0.01319901
0.017158704 0.0065762145 0.016379211 0.072895266 -0.061144397 -0.01788114 0.036779944 -0.0075395014
0.041329853 0.043069392 -0.052167933 -0.021669045 -0.022187196 0.03626608 -0.042866953 -0.0349124
-0.071300894 0.019076703 0.0059385556 0.042985413 0.056897163 0.09677543 0.01743555 0.066374846
0.12697785 -0.02203699 -0.023813153 0.06342962 0.047933917 0.047269337 -0.049390804 -0.07326293
-0.033100046 -0.04489253 -0.15954733 -0.057301603 0.08531574 -0.01735904 0.12829484 0.11909465
0.046473242 0.007962344 0.0777674 0.014599678 0.013604747 -0.030275516 0.010817453 -0.021781484
-0.031037986 -0.07544447 0.053861707 0.09194356 -0.062322736 0.030424789 -0.04726087 0.025968153
0.046405654 -0.01263188 -0.040895697 0.0797276 0.0005365545 -0.044835977 -0.011925251 0.08292905
-0.031320006 0.07342525 -0.03891999 0.10207401 -0.013111229 -0.03067175 0.021950858 0.062208876
0.0841328 0.09673875 -0.05023505 -0.06127136 -0.06501001 -0.038791165 -0.006013103 0.016342727
0.09140679 -0.015080545 0.09240693 -0.037361033 -0.047262646 0.06314629 0.07205735 -0.03193272
0.016850807 -0.037112214 -0.009277097 0.05221752 -0.022324242 -0.008400045 0.05546439 0.052448932
-0.09935723 0.026222467 -0.04837642 -0.07052887 -0.03399303 -0.06134377 -0.08442878 -0.032581955
-0.09786326 -0.02814389 0.013060868 0.0020320832 0.056557152 0.048421346 -0.019383973 -0.020039486
-0.07730245 -0.029246962 -0.08480196 -0.029066602 0.10140336 0.057479993 0.002838631 0.0011223913
-0.079146735 -0.06461911 -0.06095058 0.015974734 0.03812973 -0.045915633 0.00096242887 -0.053530123
-0.0946371 0.061190613 0.041663025 0.029957084 0.0036602016 0.04431788 -0.01345648 0.030374719
-0.012965546 -0.0815644 -0.04399273 -0.040912174 0.020558672 0.019471161 0.079963416 0.020754099
-0.03864954 0.031430747 0.05922345 0.07987421 -0.12069747 -0.03418983 0.03243897 -0.08290836
-0.09801321 0.009356587 -0.03369647 -0.020722132 -0.011847451 0.024300657 0.0027324476 -0.032162115
0.16221555 0.08860593 0.09834052 0.13708177 0.01669606 0.005661565 0.031899314 -0.048097827
0.079689205 -0.034697372 -0.024337808 -0.0064719464 0.07979401 -0.078503616 0.045683224 0.017472519
-0.06982693 -0.058987055 0.0005451043 -0.039583478 0.06014642 -0.007869779 0.03183508 0.05967189
0.020232664 0.007521483 -0.06803492 0.018922413 -0.08112536 0.045446686 -0.024569316 0.07983023
00000000: 2e94 bebd 7a7b d3bd b970 cb3b b7b9 913b
00000010: 7685 ba3c 4449 813d 4e18 4a3d 7d20 3fbd
00000020: d677 c53c 6296 dbbc 4456 6ebd bc45 c23a
00000030: 31d0 ec3b 07c4 453d e9f2 4b3d 3d1e 903d
00000040: dd1c d5bd 7e72 a5bc 7df2 453d 1409 0f3d
00000050: d904 9dbd 6f79 493c f482 3f3c 2b33 ee3c
00000060: 0d82 9d3d 7e6c 683c 0908 5c3d a85e fabc
00000070: 350b 6d3d 75f2 51bc 800c ec3b 5a65 923d
00000080: 0558 25bd 3d9a 9b3d c5cb cb3d d433 f73d
00000090: 9627 b73d 6ac7 903d bb5e d83d df37 bd3d
000000a0: d0c5 a53d c679 9fbd a6a4 7e3d 9742 38bd
000000b0: 3cf0 e9bc ba11 293d 9f7f b1bb 54b7 2bbb
000000c0: 6b42 3fbd a693 67bd 1edf 8b3d 4dd2 eabb
000000d0: 8a3e cfbd 7421 c7bd 4662 41bc 1eeb 823c
000000e0: 2883 86bc b0b8 393c 3155 153d b221 b43d
000000f0: 4bad 2fbd 86f2 8ebd 9d5c 4e3d a940 58bc
00000100: 6990 8c3c 497d d73b b22d 863c 1d4a 953d
00000110: 8c72 7abd 787b 92bc 91a6 163d ec0d f7bb
00000120: 7e49 293d 8869 303d 0bae 55bd 4883 b1bc
00000130: ecc1 b5bc be8b 143d 4295 2fbd 4e00 0fbd
00000140: 3406 92bd bf46 9c3c 3798 c23b 7911 303d
00000150: 000d 693d 3232 c63d 00d5 8e3c 89ef 873d
00000160: 7b06 023e eb86 b4bc cd13 c3bc 63e7 813d
00000170: 5b56 443d 7e9d 413d 034e 4abd e00a 96bd
00000180: ea93 07bd 3be1 37bd 6060 23be 16b5 6abd
00000190: 05ba ae3d 8c34 8ebc b95f 033e e5e7 f33d
000001a0: ba5a 3e3d 7e74 023c 8444 9f3d 7d33 6f3c
000001b0: 72e6 5e3c 5c04 f8bc b03b 313c 156f b2bc
000001c0: 6043 febc a182 9abd 189e 5c3d e84c bc3d
000001d0: 2046 7fbd 683d f93c 9d94 41bd 2abb d43c
000001e0: db13 3e3d f2f5 4ebc 3f82 27bd 3948 a33d
000001f0: 90a7 0c3a eea5 37bd 2162 43bc b5d6 a93d
00000200: 6849 00bd fa5f 963d 916a 1fbd 2e0c d13d
00000210: 7bd0 56bc 5243 fbbc 49d2 b33c bcce 7e3d
00000220: d14d ac3d f71e c63d 45c3 4dbd adf7 7abd
00000230: f823 85bd 7ce3 1ebd 9009 c5bb 2fe1 853c
00000240: 7c33 bb3d 6414 77bc d83f bd3d e207 19bd
00000250: 7a96 41bd d852 813d ce92 933d e2cb 02bd
00000260: b40a 8a3c fa02 18bd f7fe 17bc 0ae2 553d
00000270: 54e1 b6bc 58a0 09bc a12e 633d b1d4 563d
00000280: ce7b cbbd 80d0 d63c 5a26 46bd 7171 90bd
00000290: 473c 0bbd 9b43 7bbd ffe8 acbd a874 05bd
000002a0: 886c c8bd 048e e6bc 40fd 553c b32c 053b
000002b0: 79a8 673d 7655 463d 23cb 9ebc d929 a4bc
000002c0: bf50 9ebd 5397 efbc a6ac adbd 151d eebc
000002d0: 91ac cf3d 2470 6b3d 5308 3a3b 341d 933a
000002e0: af17 a2bd 0657 84bd 51a7 79bd 72dd 823c
000002f0: eb2d 1c3d 0812 3cbd 824b 7c3a 6742 5bbd
00000300: 19d1 c1bd 02a3 7a3d d9a6 2a3d 8f68 f53c
00000310: fedf 6f3b aa86 353d 9178 5cbc 67d4 f83c
00000320: 716d 54bc 3c0b a7bd b931 34bd 8693 27bd
00000330: a96a a83c fc81 9f3c dcc3 a33d 8004 aa3c
00000340: fb4e 1ebd 87bd 003d 4a94 723d 1795 a33d
00000350: 3c30 f7bd a30a 0cbd bade 043d dccb a9bd
00000360: 26bb c8bd 5f4c 193c 4f05 0abd 76c1 a9bc
00000370: d01b 42bc 2c12 c73c dd12 333b 6cbc 03bd
00000380: d51b 263e 0777 b53d c166 c93d 2a5f 0c3e
00000390: 2dc6 883c a684 b93b dba8 023d 3a02 45bd
000003a0: 1834 a33d d51e 0ebd 1560 c7bc 9f12 d4bb
000003b0: 0b6b a33d 81c6 a0bd 551e 3b3d 8722 8f3c
000003c0: 6c01 8fbd 699c 71bd 55e5 0e3a 4922 22bd
000003d0: 185c 763d 3ff0 00bc 8065 023d 836a 743d
000003e0: f9be a53c c676 f63b e455 8bbd 2d03 9b3c
000003f0: 0e25 a6bd 4e26 3a3d 9745 c9bc 087e a33d

bias f4 [32]
0.090494074 0.039019477 0.02271056 0.01703186 -0.046053257 -0.07143011 0.012562927 -0.055579565
-0.019007895 -0.033763316 0.08321649 0.0136749325 -0.034815818 -0.068767056 -0.08208555 -0.062923044
0.052709557 0.049524616 0.0014702559 -0.03394384 -0.089957856 0.08405867 -0.073483475 0.07618627
-0.06680818 0.043582946 0.061070863 -0.08179618 -0.046673805 0.032792952 -0.08356578 0.030499177
00000000: f554 b93d e3d2 1f3d 7f0b ba3c 6686 8b3c
00000010: 57a2 3cbd f349 92bd bcd4 4d3c 66a7 63bd
00000020: 72b6 9bbc 674b 0abd 686d aa3d d30c 603c
00000030: 089b 0ebd bed5 8cbd 781c a8bd ccdd 80bd
00000040: fae5 573d 53da 4a3d 9ab5 c03a b208 0bbd
00000050: d33b b8bd f426 ac3d 817e 96bd 8c07 9c3d
00000060: bad2 88bd 0884 323d 7125 7a3d c184 a7bd
00000070: 082d 3fbd e751 063d 8924 abbd 69d9 f93c

weight f4 [64, 32, 2, 2]
0.07206137 0.018762225 -0.05983146 0.06634694 -0.028129598 -0.08349562 0.022254292 0.009654949
-0.036292393 0.032866422 0.016373148 -0.033902086 -0.077679455 0.016845888 -0.07648165 -0.061328057
-0.04120016 -0.014985999 0.013672643 0.08687463 0.054007743 0.02177557 0.03728264 0.015155345
0.02276237 0.04144353 0.004503112 0.07832866 0.051763177 0.035564527 0.06650786 -0.0034365964
-0.040020693 -0.039495222 0.004715992 -0.062820986 -0.005471131 -0.07853759 0.02871228 -0.05147196
0.031541668 0.019751895 0.03195894 0.07141587 0.020977031 -0.06527288 0.012157173 0.035216946
-0.049045835 0.07411412 -0.038720407 -0.044303916 -0.041496668 0.08405058 -0.054082744 0.0111179855
0.038958855 0.079112895 0.055764146 0.0882618 0.02387368 0.024117567 0.0726042 0.005347607
-0.04114864 0.025874348 0.0027560005 -0.08180714 0.08655028 -0.030950058 0.047455322 0.020304324
-0.06413594 -0.05051996 -0.04903285 -0.0574851 -0.08239218 -0.0829627 -0.057834476 0.066825464
0.007753975 0.034816805 -0.060468696 0.08813161 0.029301144 -0.07775312 0.07841692 -0.039828304
0.07244194 0.08883825 6.337506e-05 0.032383338 0.0023761238 0.017708484 0.07441082 -0.07247526
0.0055715675 0.022069946 -0.056625996 -0.01564327 -0.019464444 0.02061932 0.051130775 -0.004054826
0.039513044 -0.026429523 -0.00016582833 -0.07262134 0.05644275 -0.0135505255 -0.012704167 -0.06791977
-0.039562397 -0.06816004 0.053745065 -0.07940379 -0.049515396 0.037728406 -0.06825975 0.067899294
-0.0426064 0.030870931 0.018347263 -0.08427979 0.007338111 0.0032418775 0.02609902 -0.03783913
-0.00246225 0.0025802678 0.009420452 -0.07127804 0.045689493 -0.09250499 -0.055705506 -0.091324285
0.0152496025 0.018789744 -0.007976598 -0.08367294 -0.06496191 0.021378556 -0.039536387 0.008705865
0.034243654 -0.02383658 -0.05382471 0.0011788682 0.027528893 0.031772014 -0.029436823 -0.005099523
-0.0009107883 -0.02930878 -0.07278323 0.018402535 0.024785185 0.05884994 -0.091385975 0.06316065
-0.083432585 0.033736728 -0.08680396 0.07085899 -0.04990867 0.036144838 0.03031127 0.068728626
-0.013926987 0.024762992 0.03178469 -0.043645803 0.0025951387 0.07461363 0.05136629 0.08168105
0.012797879 0.0012715781 -0.09740057 -0.037836913 -0.015334337 -0.043200925 0.015972117 0.04595511
-0.032104343 -0.022590427 0.016029505 -0.038019497 -0.004353788 -0.060735952 -0.05540093 -0.04123544
-0.017256288 -0.017761318 0.05124266 -0.033746496 0.016304541 0.07607641 0.047588922 0.031712774
0.061121665 0.06654151 0.007867702 0.038972158 0.06196175 -0.05344981 0.05765654 0.03779852
-0.055301912 -0.04034147 0.057228856 0.036039308 -0.07687265 0.0064535076 -0.0476785 -0.049330518
0.01926202 -0.044108648 -0.038949188 0.07225635 -0.02247794 -0.013584705 0.058504134 0.07268802
-0.06288899 0.022238353 -0.026059542 0.031442393 -0.082651995 -0.074984476 0.009827605 -0.05963177
0.07536454 -0.056036897 0.024285778 0.019910455 -8.1472426e-05 0.04705825 -0.014667776 0.0329944
0.03548745 0.049436472 0.070789 -0.082771584 -0.017197113 -0.008477856 -0.0162279 0.06988399
0.032729756 0.062800236 0.06782444 -0.017442359 0.036416553 0.028077696 0.010318901 0.07438193
00000000: e994 933d 3db3 993c d511 75bd e8e0 873d
00000010: 0b70 e6bc c0ff aabd a24e b63c cb2f 1e3c
00000020: 55a7 14bd f19e 063d fb20 863c eadc 0abd
00000030: 6816 9fbd 6300 8a3c 69a2 9cbd 2133 7bbd
00000040: 80c1 28bd d687 75bc 3903 603c 53eb b13d
00000050: 3937 5d3d ae62 b23c aeb5 183d 204e 783c
00000060: 2678 ba3c b1c0 293d d78e 933b c76a a03d
00000070: a005 543d 1cac 113d 4635 883d 8538 61bb
00000080: bdec 23bd bec5 21bd 9c88 9a3b 4aa8 80bd
00000090: 2c47 b3bb 51d8 a0bd 0436 eb3c 43d4 52bd
000000a0: d631 013d bace a13c 61e7 023d 7c42 923d
000000b0: 06d8 ab3c caad 85bd e12e 473c a53f 103d
000000c0: 49e4 48bd 25c9 973d 4a99 1ebd 0678 35bd
000000d0: 69f8 29bd b622 ac3d de85 5dbd 3628 363c
000000e0: 5293 1f3d f105 a23d f268 643d 9ac2 b43d
000000f0: bc92 c33c 3492 c53c 83b1 943d fb3a af3b
00000100: 7a8b 28bd 71f6 d33c 049e 343b 808a a7bd
00000110: 4641 b13d fa8a fdbc 8360 423d 4155 a63c
00000120: b459 83bd 04ee 4ebd abd6 48bd 7f75 6bbd
00000130: 3bbd a8bd 59e8 a9bd d8e3 6cbd cadb 883d
00000140: 0f15 fe3b 119c 0e3d 06ae 77bd 587e b43d
00000150: f408 f03c 073d 9fbd 0d99 a03d 0123 23bd
00000160: 715c 943d d4f0 b53d 3ae8 8438 64a4 043d
00000170: beb8 1b3b 6211 913c b364 983d e96d 94bd
00000180: b291 b63b 08cc b43c a9f0 67bd 5126 80bc
00000190: e673 9fbc d9e9 a83c 816e 513d 59de 84bb
000001a0: 6ed8 213d ba82 d8bc 34e2 2db9 7fba 94bd
000001b0: 8330 673d 0603 5ebc 2325 50bc 8519 8bbd
000001c0: 2e0c 22bd 7e97 8bbd c923 5c3d 749e a2bd
000001d0: a8d0 4abd 1a89 1a3d c5cb 8bbd c90e 8b3d
000001e0: 0c84 2ebd 09e5 fc3c 004d 963c e29a acbd
000001f0: 8974 f03b ae75 543b 9dcd d53c 34fd 1abd
00000200: b35d 21bb b619 293b 3d58 1a3c 39fa 91bd
00000210: e824 3b3d 4273 bdbd 752b 64bd 3a08 bbbd
00000220: 78d9 793c f3ec 993c 47b0 02bc b85c abbd
00000230: c00a 85bd 1522 af3c e8f0 21bd 0ba3 0e3c
00000240: 1343 0c3d ee44 c3bc 4d77 5cbd 4184 9a3a
00000250: 4684 e13c 5f23 023d 7e25 f1bc e619 a7bb
00000260: f8c1 6eba f718 f0bc 600f 95bd eac0 963c
00000270: 4d0a cb3c a20c 713d 9228 bbbd 5f5a 813d
00000280: b4de aabd 862f 0a3d 46c6 b1bd 851e 913d
00000290: 096d 4cbd 9c0c 143d 574f f83c 98c1 8c3d
000002a0: 042e 64bc c2db ca3c aa30 023d f1c5 32bd
000002b0: 3413 2a3b 08cf 983d 7565 523d 6548 a73d
000002c0: 32ae 513c 15ab a63a f379 c7bd e1fa 1abd
000002d0: df3c 7bbc 74f3 30bd f5d7 823c 6d3b 3c3d
000002e0: d87f 03bd 8f0f b9bc 4f50 833c 55ba 1bbd
000002f0: 39aa 8ebb 43c6 78bd 16ec 62bd 7ee6 28bd
00000300: 0f5d 8dbc 2f80 91bc d3e3 513d c439 0abd
00000310: 1a91 853c f3cd 9b3d 9aec 423d 41e5 013d
00000320: b65a 7a3d ea46 883d 89e7 003c 45a1 1f3d
00000330: 9bcb 7d3d 30ee 5abd 4429 6c3d 9fd2 1a3d
00000340: 4284 62bd 193d 25bd ce68 6a3d f49d 133d
00000350: 686f 9dbd f277 d33b 884a 43bd cc0e 4abd
00000360: 62cb 9d3c 45ab 34bd 2f89 1fbd 23fb 933d
00000370: a823 b8bc 6292 5ebc 08a2 6f3d 75dd 943d
00000380: f1cb 80bd 352d b63c d27a d5bc bdc9 003d
00000390: 7345 a9bd 7691 99bd f703 213c 7140 74bd
000003a0: b958 9a3d f286 65bd f8f2 c63c 401b a33c
000003b0: 2ddc aab8 27c0 403d 1d51 70bc 2325 073d
000003c0: 4a5b 113d e67d 4a3d d3f9 903d 2684 a9bd
000003d0: f6e0 8cbc b5e6 0abc 5ff0 84bc 561f 8f3d
000003e0: a30f 063d 699d 803d 8ae7 8a3d 47e3 8ebc
000003f0: 8629 153d 3203 e63c 9c10 293c 8e55 983d

bias f4 [64]
-0.086371265 -0.078767814 -0.07859893 0.06087717 -0.05497319 0.074222095 -0.054884385 0.04549191
0.029336764 0.04540815 -0.042037413 -0.060169663 -0.0022978745 0.0008642208 -0.0075823045 -0.06635871
0.09244908 -0.057260856 0.07513493 -0.08813935 -0.021995647 -0.08546324 0.03991577 -0.02209949
0.07703098 -0.072849244 0.07181185 0.065901406 -0.025740976 0.0452747 0.027914826 0.03967551
-0.07322068 -0.04544911 0.015184449 0.030663274 0.0869865 -0.05818784 0.039458048 0.08996371
-0.07883742 0.07823371 0.04417952 0.012754758 -0.010674937 0.05904165 0.039587874 -0.07015303
-0.086166635 -0.05345909 -0.04531785 0.048736118 0.07044427 0.036346734 0.07789634 0.015520636
0.03560206 -0.07889356 -0.03747614 -0.014013673 0.078168124 -0.07429018 -0.063234225 0.082796104
00000000: 6be3 b0bd 0551 a1bd 7af8 a0bd 575a 793d
00000010: 912b 61bd c101 983d 73ce 60bd ba55 3a3d
00000020: a753 f03c e5fd 393d 6c2f 2cbd 7774 76bd
00000030: f097 16bb e08c 623a fb74 f8bb 13e7 87bd
00000040: f155 bd3d 5c8a 6abd 58e0 993d 6782 b4bd
00000050: 3730 b4bc 5a07 afbd b87e 233d fd09 b5bc
00000060: 6bc2 9d3d fc31 95bd 1712 933d 51f7 863d
00000070: bdde d2bc f771 393d a2ad e43c ca82 223d
00000080: b9f4 95bd d928 3abd 32c8 783c 8c31 fb3c
00000090: fa25 b23d 5f56 6ebd c39e 213d e53e b83d
000000a0: 8375 a1bd ff38 a03d 96f5 343d 55f9 503c
000000b0: eee5 2ebc a8d5 713d e526 223d 64ac 8fbd
000000c0: 2278 b0bd ebf7 5abd 369f 39bd 869f 473d
000000d0: 1645 903d 50e0 143d 1e88 9f3d 444a 7e3c
000000e0: 77d3 113d f292 a1bd 9580 19bd 9b99 65bc
000000f0: 9c16 a03d 7325 98bd f280 81bd 0191 a93d

weight f4 [64, 64, 2, 2]
-0.024256868 -0.019291745 -0.049504224 0.048096795 0.028349048 -0.038922936 0.048471674 0.027107079
-0.009636417 0.0418851 0.047436215 0.017746784 0.03251989 0.022371115 -0.02628613 0.038552538
0.057076015 -0.01673356 0.047089417 0.042458385 -0.011390318 -0.065818384 0.009622207 -0.02190772
-0.06451878 0.029593177 -0.065652065 0.023219144 -0.0007276239 -0.054281797 0.04651131 -0.04366133
-0.035646435 -0.0068551907 -0.018095572 0.04078792 -0.059049696 -0.030411515 -0.047565505 -0.055175573
-0.0609583 0.05214282 0.0077291834 -0.023611479 -0.028461855 -0.0655506 -0.06311298 0.03251629
0.036063913 0.00871761 0.027807431 -0.025552252 0.006159781 -0.0143015385 -0.028415482 0.05283905
0.03944478 -0.049022045 0.057084084 0.04913146 0.04722887 -0.065465465 -0.0024493588 -0.019192962
0.015901586 -0.07131545 -0.05416314 0.0054768454 -0.019878702 0.0023600478 -0.056631282 -0.06797197
0.00040199893 -0.029233806 -0.031074874 -0.026781159 -0.03442584 -0.04394287 0.005641484 0.025873387
-0.0076146633 -0.051205795 -0.034412958 -0.027381992 -0.045674372 0.046408005 -0.05401762 0.008361108
-0.008686354 -0.06857867 -0.035166524 -0.016075473 0.02827628 0.003649111 -0.013821469 0.011339368
-0.0027827364 0.02565432 -0.035275802 -0.058195952 -0.04043937 0.05567439 0.058948684 0.044895675
-0.041418616 -0.047330346 -0.059888475 0.04794421 0.0373529 -0.051862385 0.029382892 -0.050470702
0.037867058 -0.04417115 -0.05652697 0.0067620263 -0.025886478 -0.030230688 0.014681437 -0.06460247
-0.035407957 -0.047634065 -0.021154448 -0.060087558 0.015994245 -0.059282508 0.041673914 -0.06438815
0.018305518 0.038983062 0.050028533 0.017271062 -0.04895621 -0.0041281977 -0.004908107 0.023771206
-0.052747216 0.03007212 -0.0163822 0.00637495 -0.03945779 -0.03713322 -0.06093743 -0.039432883
0.048173 0.043432087 -0.06594466 -0.03218213 -0.0039054097 0.0147572365 -0.0061142724 0.010579895
0.047127835 -0.0196484 -0.020407552 -0.013291805 -0.015108373 -0.0022789205 -0.005246123 0.014350391
-0.047557518 0.05395521 0.055751637 -0.019394951 -0.059936676 -0.046896618 0.0064120665 0.007317028
-0.057097867 0.020880993 -0.050623003 -0.0014653951 -0.03544102 -0.022661543 0.054438718 0.018036883
0.05474829 0.03354985 -0.06484561 -0.01721494 0.008499163 -0.011149115 0.03358864 0.013332611
-0.012394766 0.0054847375 -0.021679537 0.029947838 -0.036809847 0.009205569 -0.057078913 0.050563063
0.053406056 0.050200794 0.023019187 0.045547236 0.023872253 -0.07219281 0.0042715436 -0.057919938
0.02506209 0.021693157 -0.006457211 0.008884774 -0.01501246 0.023896778 0.049756907 0.036491442
-0.0350018 0.04381178 0.028454028 -0.06877718 0.041859783 -0.004463235 -0.01175571 0.017183226
0.03199455 0.041719697 0.039649222 -0.0057587544 -0.050246686 0.050440256 0.03660953 0.020351112
-0.013156223 -0.066701174 -0.007792577 -0.06070286 -0.012815353 0.05016467 0.043972205 0.050224423
0.006671957 -0.010847895 -0.037884537 -0.0476502 -0.06120656 -0.050291166 -0.032510582 -0.036141276
-0.005988853 -0.022329045 0.010969994 0.021563033 -0.016265174 0.0063214386 0.017261906 0.0018120226
0.057760436 0.043472324 -0.060477078 0.04820193 -0.035330717 -0.06555132 -0.0044780956 0.04950341
00000000: 57b6 c6bc b909 9ebc f1c4 4abd 2501 453d
00000010: 433c e83c a86d 1fbd 3c8a 463d aa0f de3c
00000020: 10e2 1dbc b68f 2b3d 7a4c 423d b461 913c
00000030: 9433 053d a143 b73c 0356 d7bc 44e9 1d3d
00000040: 8ac8 693d d214 89bc d5e0 403d d8e8 2d3d
00000050: 759e 3abc cacb 86bd 76a6 1d3c d277 b3bc
00000060: 6c22 84bd 646d f23c 9774 86bd 1336 be3c
00000070: 03be 3eba 9756 5ebd a582 3e3d 39d6 32bd
00000080: ff01 12bd 82a1 e0bb 2a3d 94bc 3c11 273d
00000090: 18de 71bd 9221 f9bc 0cd4 42bd c8ff 61bd
000000a0: 69af 79bd b693 553d 1745 fd3b dc6c c1bc
000000b0: d628 e9bc 653f 86bd 6141 81bd cd2f 053d
000000c0: c1b7 133d 4ed4 0e3c 69cc e33c f552 d1bc
000000d0: fdd7 c93b 0051 6abc 96c7 e8bc c26d 583d
000000e0: da90 213d 57cb 48bd 00d1 693d 123e 493d
000000f0: 0f73 413d c212 86bd 6c85 20bb 8f3a 9dbc
00000100: 0b44 823c d60d 92bd 2bda 5dbd 1c77 b33b
00000110: a9d8 a2bc 08ab 1a3b 34f6 67bd e334 8bbd
00000120: 62c3 d239 bc7b efbc bc90 febc 2964 dbbc
00000130: 1c02 0dbd 70fd 33bd 33dc b83b 6df4 d33c
00000140: 6d84 f9bb 2bbd 51bd 9af4 0cbd 3350 e0bc
00000150: 0d15 3bbd 5216 3e3d 9441 5dbd 07fd 083c
00000160: 3651 0ebc f972 8cbd c60a 10bd b6b0 83bc
00000170: a8a3 e73c ec25 6f3b 7173 62bc c2c8 393c
00000180: 925e 36bb 0229 d23c 5c7d 10bd e15e 6ebd
00000190: c1a3 25bd d40a 643d 2d74 713d 87e4 373d
000001a0: 91a6 29bd 77dd 41bd 9e4d 75bd 2661 443d
000001b0: 5bff 183d a76d 54bd 64b4 f03c 5eba 4ebd
000001c0: 7d1a 1b3d cfec 34bd d388 67bd fd93 dd3b
000001d0: e10f d4bc 59a6 f7bc 698a 703c 4d4e 84bd
000001e0: ef07 11bd f01b 43bd 184c adbc 5f1e 76bd
000001f0: 5d06 833c 37d2 72bd 44b2 2a3d efdd 83bd
00000200: 74f5 953c b4ac 1f3d b8ea 4c3d 0b7c 8d3c
00000210: 4f86 48bd d545 87bb 30d4 a0bb d5bb c23c
00000220: 770d 58bd ce59 f63c f733 86bc f5e4 d03b
00000230: 7e9e 21bd 0119 18bd 8799 79bd 6084 21bd
00000240: 0d51 453d d8e5 313d fe0d 87bd 69d1 03bd
00000250: e7f1 7fbb 56c8 713c 3c5a c8bb 4c57 2d3c
00000260: 1e09 413d aef5 a0bc bd2d a7bc dfc5 59bc
00000270: 1c89 77bc f159 15bb abe7 abbb e71d 6b3c
00000280: accb 42bd 2300 5d3d d45b 643d 29e2 9ebc
00000290: 2980 75bd ab16 40bd 501c d23b aec3 ef3b
000002a0: 74df 69bd 9e0e ab3c 115a 4fbd 8012 c0ba
000002b0: 9a2a 11bd b3a4 b9bc 22fb 5e3d 16c2 933c
000002c0: be3f 603d 916b 093d c6cd 84bd 5906 8dbc
000002d0: 1340 0b3c c7aa 36bc 3e94 093d 0671 5a3c
000002e0: 6b13 4bbc 50b9 b33b 4999 b1bc 2b55 f53c
000002f0: ecc5 16bd f4d2 163c 94cb 69bd 371b 4f3d
00000300: 4fc0 5a3d 599f 4d3d bc92 bc3c bd8f 3a3d
00000310: be8f c33c d3d9 93bd 4ef8 8b3b 753d 6dbd
00000320: 034f cd3c d9b5 b13c 0397 d3bb 7191 113c
00000330: d2f6 75bc 2dc3 c33c e6cd 4b3d 0d78 153d
00000340: 0c5e 0fbd fb73 333d 6c18 e93c 0ddb 8cbd
00000350: 2a75 2b3d 5440 92bb 059b 40bc d6c3 8c3c
00000360: b80c 033d 46e2 2a3d 3967 223d efb3 bcbb
00000370: 78cf 4dbd 719a 4e3d e0f3 153d 60b7 a63c
00000380: 338d 57bc a09a 88bd e058 ffbb 90a3 78bd
00000390: 7df7 51bc 7879 4d3d 331c 343d 20b8 4d3d
000003a0: 6fa0 da3b 5fbb 31bc d12c 1bbd db2c 43bd
000003b0: bbb3 7abd 1cfe 4dbd d129 05bd e008 14bd
000003c0: 243e c4bb 67eb b6bc 7dbb 333c f5a4 b03c
000003d0: 8b3e 85bc 1224 cf3b d768 8d3c 6481 ed3a
000003e0: 3596 6c3d 0910 323d d0b6 77bd 636f 453d
000003f0: f1b6 10bd c53f 86bd fdbc 92bb 16c4 4a3d

bias f4 [64]
-0.056146383 0.035100773 0.014728883 0.0002427509 -0.0314733 0.060170125 0.024596555 -0.031199835
-0.062433552 0.013823325 0.012089761 -0.019436713 -0.011603234 0.056209996 -0.032747727 -0.059712227
-0.054883365 0.051346574 -0.03394986 -0.025251236 0.033933327 0.033038948 -0.027989732 0.013379646
-0.007447474 0.02265566 0.032418028 -0.04097935 0.02882897 0.009954895 -0.05950012 -0.031230576
-0.021624207 -0.03263876 -0.007938414 -0.0334943 0.06381633 0.054744482 0.042391535 0.055160813
0.056703616 0.04238743 -0.059879888 -0.032786787 -0.052234776 0.0073854253 0.054034345 -0.02453169
0.016966041 0.05321112 -0.054852273 0.056411702 0.022166103 0.047450088 -0.024991054 -0.018164257
0.06740074 0.011184518 -0.069120005 -0.018018687 -0.053017173 0.010563272 0.022113305 0.040947683
00000000: c0f9 65bd d4c5 0f3d 6a51 713c f38a 7e39
00000010: 26ea 00bd f374 763d b77e c93c cc96 ffbc
00000020: 53ba 7fbd 3a7b 623c 2214 463c be39 9fbc
00000030: 7e1b 3ebc 743c 663d 7b22 06bd cf94 74bd
00000040: 61cd 60bd c950 523d 020f 0bbd aedb cebc
00000050: acfd 0a3d d953 073d b94a e5bc 4e36 5b3c
00000060: f109 f4bb 5d98 b93c c4c8 043d f7d9 27bd
00000070: bb2a ec3c db19 233c 66b6 73bd 44d7 ffbc
00000080: 4025 b1bc 38b0 05bd 1f10 02bc 5231 09bd
00000090: 23b2 823d c03b 603d bfa2 2d3d 4ef0 613d
000000a0: 0d42 683d 719e 2d3d 9d44 75bd 704b 06bd
000000b0: 22f4 55bd 7001 f23b 1e53 5d3d aff6 c8bc
000000c0: 5efc 8a3c e7f3 593d c7ac 60bd f50f 673d
000000d0: b095 b53c 065b 423d 0aba ccbc 35cd 94bc
000000e0: 6609 8a3d 453f 373c ca8e 8dbd ed9b 93bc
000000f0: 8928 59bd 9311 2d3c f626 b53c c2b8 273d

weight f4 [128, 64, 2, 2]
-0.008938232 -0.0607399 -0.017567385 -0.024851186 -0.028237877 -0.0031526685 -0.0223676 0.060428917
-0.0041231536 -0.028252274 -0.045631845 -0.02344659 -0.019103928 0.0042923973 -0.051430974 0.026834214
-0.0014076344 -0.055682648 -0.04756586 -0.020223029 -0.00038527144 -0.009882753 0.030983891 0.02788358
0.02876705 0.009472631 0.05735299 -0.04291138 -0.0027003195 1.0036349e-05 -0.05105959 0.032137662
-0.030390153 -0.06420841 -0.004599696 -0.06849111 0.009657041 -0.046154514 0.050471846 0.04680888
-0.037554942 0.008961044 0.06184866 0.059679072 -0.026869467 -0.026935494 -0.04043482 0.013861871
-0.065466195 0.0014729708 0.05043702 0.0033407938 0.057145294 -0.012605402 0.047486912 -0.030767526
0.007469605 -0.008494378 0.0147598665 0.038184047 0.007162122 -0.068211965 -0.024534393 0.043977566
-0.0087924 -0.051379442 -0.06733868 0.041169547 0.016663978 0.027535414 -0.017233813 -0.053392757
0.009507583 -0.020782068 -0.011849255 0.026778039 -0.042460203 0.0030970667 -0.040626854 -0.025872994
-0.049650934 -0.045272756 0.03156053 0.0068820203 0.047435246 0.060099818 0.0535447 0.061128378
-0.036066018 -0.015057498 -0.004050161 -0.052980453 0.06673078 0.0052641015 0.03739274 0.04515397
-0.04748451 0.025483651 -0.038470197 0.015221485 0.045633357 0.04373427 0.03893734 -0.02746799
0.019842114 0.02230773 0.070510544 0.026126122 -0.035127837 0.014491626 -0.021863282 -0.027811773
0.020248342 0.030997625 0.034552354 0.029444132 -0.026285263 -0.027986137 0.021794187 -0.024953451
0.033206888 -0.031333975 0.014016494 0.0035690083 0.0033986599 -3.4216602e-05 -0.057910256 -0.053707685
0.060255997 0.021895189 -0.029223146 0.042389885 0.031978026 -0.02421055 0.028982196 0.050041433
0.028875634 -0.021959487 -0.033871036 -0.03644879 -0.058077894 0.04654762 0.012321508 -0.010642818
-0.012260965 0.05676682 0.009248954 0.049598195 0.07071988 0.008935941 0.019196149 -0.047754545
-0.022344109 -0.006731181 0.016596803 0.009480336 -0.05675723 0.048746213 -0.005946386 0.053963
-0.04285937 0.049777288 -0.04049343 -0.039505407 0.03802954 -0.025410755 -0.02562142 -0.04523442
0.021827707 0.009944557 0.046698343 -0.06063165 -0.07035189 -0.018097645 0.01970973 0.027718354
-0.024415184 0.005456519 -0.03534762 -0.056791827 6.188792e-05 0.061048064 -0.03777828 -0.011673375
0.026751563 0.029707067 0.05077355 0.024401225 0.01743705 -0.045674544 -0.055009212 -0.059843335
-0.053844526 -0.05556463 0.034882635 -0.06458821 -0.032305352 0.06413979 -0.02172651 0.06664545
0.051060382 -0.005197821 0.044356413 -0.04097123 0.033876535 -0.02950547 -0.016405787 0.040200613
-0.004592738 0.058432505 -0.0013108643 0.064492695 -0.03731554 0.003534936 -0.059750818 -0.028085455
-0.02409349 -0.0010773431 -0.036185414 0.024652988 0.037673537 -0.030987825 -0.06641166 0.032567177
0.06465361 -0.0018197983 0.030651588 0.035373896 0.0011309887 -0.010425756 0.0028835956 0.045119647
-0.000610463 -0.034915935 -0.048262015 -0.06616101 -0.01330652 -0.028118093 -0.0444556 0.03827374
0.026796564 -0.04323979 -0.019556072 -0.038066313 0.020863347 -0.047631435 0.015284808 0.02787181
0.04175235 -0.047057923 -0.050505582 -0.008078438 0.047995128 -0.018397043 -0.05652499 -0.0210202
00000000: aa71 12bc 67ca 78bd 7ae9 8fbc b794 cbbc
00000010: 1f53 e7bc 009d 4ebb 423c b7bc 5084 773d
00000020: 851b 87bb 5071 e7bc 75e8 3abd 1013 c0bc
00000030: d77f 9cbc 3da7 8c3b 49a9 52bd 6dd3 db3c
00000040: 5f80 b8ba 7d13 64bd 6bd4 42bd c4aa a5bc
00000050: 42fe c9b9 45eb 21bc eed1 fd3c 1b6c e43c
00000060: e0a8 eb3c 1833 1b3c f8ea 6a3d d8c3 2fbd
00000070: d8f7 30bb ca61 2837 dc23 51bd c8a2 033d
00000080: c5f4 f8bc b37f 83bd 0cb9 96bb 1145 8cbd
00000090: 9138 1e3c 840c 3dbd 91bb 4e3d abba 3f3d
000000a0: 36d3 19bd 58d1 123c 0555 7d3d 0b72 743d
000000b0: 5b1d dcbc d3a7 dcbc fb9e 25bd e71c 633c
000000c0: 2413 86bd b310 c13a 0c97 4e3d 38f1 5a3b
000000d0: 2f11 6a3d e386 4ebc a381 423d 2e0c fcbc
000000e0: 97c3 f43b 012c 0bbc 5ed3 713c e066 1c3d
000000f0: 3cb0 ea3b b7b2 8bbd 5afc c8bc d221 343d
00000100: 000e 10bc 4073 52bd dde8 89bd 66a1 283d
00000110: e582 883c f391 e13c ed2d 8dbc 5db2 5abd
00000120: b2c5 1b3c 283f aabc 6123 42bc 9e5d db3c
00000130: c0ea 2dbd 28f8 4a3b 5868 26bd 9af3 d3bc
00000140: c75e 4bbd ed6f 39bd 9d45 013d 9282 e13b
00000150: 764b 423d 3a2b 763d b051 5b3d c061 7a3d
00000160: f6b9 13bd b9b3 76bc 37b7 84bb 0802 59bd
00000170: 26aa 883d 7c7e ac3b 2129 193d 5ff3 383d
00000180: 1e7f 42bd 17c3 d03c ed92 1dbd 8963 793c
00000190: 0bea 3a3d b522 333d c37c 1f3d 8d04 e1bc
000001a0: ee8b a23c b3be b63c d567 903d 7306 d63c
000001b0: 35e2 0fbd 496e 6d3c a01a b3bc 84d5 e3bc
000001c0: dadf a53c bbee fd3c c586 0d3d d234 f13c
000001d0: 3154 d7bc 2f43 e5bc b989 b23c 2e6b ccbc
000001e0: f203 083d 0e58 00bd 70a5 653c 06e6 693b
000001f0: 0dbc 5e3b cc83 0fb8 4e33 6dbd 97fc 5bbd
00000200: fece 763d 8a5d b33c 6165 efbc 04a1 2d3d
00000210: 64fb 023d 3455 c6bc 126c ed3c 3ff8 4c3d
00000220: 988c ec3c 62e4 b3bc 5bbc 0abd 544b 15bd
00000230: 16e3 6dbd b8a8 3e3d 26e0 493c 375f 2ebc
00000240: 37e2 48bc 5384 683d ed88 173c 7a27 4b3d
00000250: 96d5 903d 0e68 123c 3e41 9d3c 459a 43bd
00000260: fe0a b7bc 3d91 dcbb 05f6 873c 6953 1b3c
00000270: 457a 68bd 1caa 473d e7d9 c2bb 4f08 5d3d
00000280: 4f8d 2fbd 45e3 4b3d 70dc 25bd 6cd0 21bd
00000290: ddc4 1b3d 372a d0bc 03e4 d1bc ba47 39bd
000002a0: 05d0 b23c 7fee 223c c346 3f3d e558 78bd
000002b0: a714 90bd 8341 94bc 4d76 a13c 9a11 e33c
000002c0: 5a02 c8bc 99cc b23b aac8 10bd 8c9e 68bd
000002d0: d3c9 8138 890d 7a3d 66bd 1abd af41 3fbc
000002e0: 1826 db3c 3c5c f33c edf7 4f3d 14e5 c73c
000002f0: 25d8 8e3c 3b15 3bbd 5751 61bd 491e 75bd
00000300: 148c 5cbd bd97 63bd 18e1 0e3d d346 84bd
00000310: 9e52 04bd b95b 833d cbfb b1bc 697d 883d
00000320: b124 513d 7c52 aabb 12af 353d 73d1 27bd
00000330: 1fc2 0a3d 75b5 f1bc 6e65 86bc 66a9 243d
00000340: ae7e 96bb ec56 6f3d 4fd1 abba bf14 843d
00000350: 2ed8 18bd 63aa 673b 46bd 74bd 7813 e6bc
00000360: b65f c5bc a335 8dba 2837 14bd 10f5 c93c
00000370: 914f 1a3d 2eda fdbc d602 88bd 2965 053d
00000380: 1d69 843d 4c86 eeba 0a19 fb3c 38e4 103d
00000390: af3d 943a cad0 2abc b5fa 3c3b 61cf 383d
000003a0: 7a07 20ba 0304 0fbd 64ae 45bd 6c7f 87bd
000003b0: 9703 5abc ea57 e6bc 1317 36bd edc4 1c3d
000003c0: 7884 db3c 351c 31bd 0e34 a0bc 6ceb 1bbd
000003d0: 9ce9 aa3c 2e19 43bd 226d 7a3c 6c53 e43c
000003e0: 8304 2b3d cfbf 40bd f1de 4ebd 6d5b 04bc
000003f0: 8a96 443d 65b5 96bc bf86 67bd 8e32 acbc
