output/train_17_12_23_part-6/unet_tgs_salt.pth (torch, 247319 bytes, 26 tensors)

weight f4 [16, 3, 2, 2]
000000 e9 48 b2 be f7 b7 95 3d a4 cb c0 be cd 36 cb bd
       -0.3482125 0.07310479 -0.37655365 -0.09922562
000010 ae fd 1e 3e cc 32 0c be bf b7 39 bd fe 96 0b 3d
       0.15526459 -0.13691252 -0.04534125 0.034079544
000020 0a 45 03 3e 4a d8 89 3d 00 1c 3b bd df 94 5f be
       0.12819305 0.06730707 -0.045681 -0.21834134
000030 dc 23 ca bd 04 ff 10 be ce d6 07 3d dd d0 27 3d
       -0.09870121 -0.1415978 0.033163838 0.040970672
000040 2c 4a fb bd e4 df 97 bd 18 a1 9d be 3b d3 95 be
       -0.122700065 -0.074157506 -0.30786967 -0.2926272
000050 99 0e c8 3d 04 da d4 3d 8f 04 18 bd 10 d9 a9 bc
       0.09768409 0.10393146 -0.037113722 -0.020733386
000060 4e 1c 7b be c2 78 83 bd e4 4f b6 be 5e 72 c7 bd
       -0.24522516 -0.06419517 -0.35607827 -0.09738611
000070 2c 8e 71 bc 58 c4 d0 3c 0c dc f4 bc 58 8c ca be
       -0.014743369 0.025484249 -0.029890083 -0.395602
000080 e1 0e 42 be a7 df 4d be 6c 9b 83 3e ed 90 50 3e
       -0.18950988 -0.20104848 0.25704515 0.20367785
000090 91 dd 2a bf fe 3e 6a bf a1 a8 02 bf f8 64 06 bf
       -0.66744334 -0.9150237 -0.5103856 -0.52497816
0000a0 d2 3b 55 3e b1 b5 08 3f 55 a7 3f 3e 66 f0 0f 3f
       0.20823601 0.5340224 0.18716176 0.56226194
0000b0 0a 75 28 bf 04 9c 2c bf 3d 66 9d be 18 51 5e bf
       -0.6580359 -0.6742556 -0.30742064 -0.8684249
0000c0 e7 b4 8c be e9 0c 8e bc be c9 76 bd cc 18 54 3e
       -0.27481768 -0.01734014 -0.06025099 0.20712584
0000d0 62 7c e4 3d af 0a 33 be f9 88 8b be 07 d1 92 be
       0.11156537 -0.17484544 -0.2725294 -0.286751
0000e0 ff 28 8a be 4d 3a 06 be dc 00 d9 3c 82 87 7e be
       -0.26984403 -0.13108177 0.026489668 -0.2485638
0000f0 50 6d 08 3d a8 a5 8a be 19 9e 8a be bf 33 37 3e
       0.033307374 -0.2707951 -0.27073744 0.17890833
000100 56 16 48 3d b7 f6 27 3d f3 7d 18 3e 7c 69 83 bd
       0.048849426 0.04100677 0.14891796 -0.06416604
000110 1b e8 c3 3d 38 b9 91 3d b8 fa 5d bd ab 63 13 be
       0.09565755 0.07115406 -0.054194182 -0.14393489
000120 cf 46 90 bd d0 3b 3e be 12 4c 77 be 02 91 3f be
       -0.07044756 -0.18577504 -0.24150112 -0.1870766
000130 09 bb 17 3e 28 a9 67 3d 57 41 5a be c4 bf 40 be
       0.14817442 0.056557804 -0.21313988 -0.18823153
000140 bb f7 a8 3e c2 60 25 3f 68 9b e3 3e 5d 23 f5 3e
       0.33001503 0.64600766 0.44454503 0.47878543
000150 4e 50 b6 be 09 49 07 bf 23 5c c0 be 67 f6 db be
       -0.35608143 -0.5284582 -0.37570295 -0.42961428
000160 0a 53 2f bd 5c 82 05 3e d2 29 1c be 6a 38 19 be
       -0.0428038 0.1303801 -0.15250328 -0.14962927
000170 47 e5 0e be e4 27 aa bd 9a 32 0d 3e 86 27 64 bd
       -0.1395465 -0.0830839 0.13788834 -0.055701755
000180 4e 18 2e be 97 ed e7 be 86 b0 8c bd 6d e4 99 3d
       -0.17001459 -0.45298454 -0.06869607 0.07514272
000190 b3 d5 ae be 66 69 e1 be 95 04 54 be 24 53 f5 be
       -0.34147415 -0.44025725 -0.20704873 -0.47914994
0001a0 b5 e1 33 be 2e ec ba 3e 8e 48 8a 3e 8a 60 9b 3c
       -0.17566569 0.36508316 0.2700848 0.018966932
0001b0 94 60 ac be 10 86 bc bc ba b6 11 be 1e 12 27 be
       -0.33667433 -0.023013145 -0.14229861 -0.16315505
0001c0 4e fe a0 be 62 cd 9b be a2 97 2f be 5c 39 54 be
       -0.3144402 -0.30430132 -0.17147687 -0.20725006
0001d0 ce f0 87 be 96 0a c1 be 9c f3 08 bf e0 37 af be
       -0.26550907 -0.3770339 -0.5349672 -0.34222317
0001e0 eb bc c6 bd e2 db f6 bd ce f5 ba be 21 87 9a 3d
       -0.09704002 -0.12053658 -0.3651566 0.07545305
0001f0 e3 81 9d be 2f c5 a0 be 2f 47 2b be 20 1f 03 be
       -0.30763158 -0.3140044 -0.16726373 -0.12804842
000200 a5 78 f4 3d ea f7 d0 3d 2c 5f 3d be 71 43 96 be
       0.119370736 0.10203536 -0.18493336 -0.2934833
000210 94 54 47 3d da 8a 24 be ce 35 5f 3e b1 e5 68 3e
       0.048664644 -0.16068593 0.21797869 0.2274387
000220 f1 71 0a bf f2 0d 5c bf 8c d8 05 bf 23 c5 9a be
       -0.5408011 -0.8595878 -0.5228355 -0.30228528
000230 f7 ae fa bd 9e d3 1c be 32 c0 03 3e 78 aa 11 3f
       -0.12240403 -0.153151 0.12866285 0.5690074
000240 ec 43 34 3d 78 80 c9 3c 31 30 d4 be 60 1e de bd
       0.044010088 0.024597391 -0.41443017 -0.10845637
000250 bb 6c bb be 7e c1 fe be 11 7e d2 be 6e 75 c2 be
       -0.36606392 -0.49756998 -0.41111806 -0.37980217
000260 6b 88 84 3e 36 e1 63 be 44 91 f1 bc ea e5 44 3e
       0.2588533 -0.2225388 -0.029488213 0.1922833
000270 5c 96 ec 3d 6b b7 a2 bd 98 4e cc be 7a eb 29 be
       0.11552116 -0.079451405 -0.39903712 -0.16593733
000280 bb 0c 24 3f d3 cd 2a 3f 5a f9 f7 3e 5e 1f ce 3e
       0.64081925 0.6672031 0.48432428 0.40258306
000290 eb ff e2 be 4d 96 23 bf 6c f8 20 bf d6 8e 26 bf
       -0.44335875 -0.63901216 -0.6287906 -0.650617
0002a0 95 86 6f be f6 cf a3 be 72 0a 88 be f9 40 83 3e
       -0.23391183 -0.319946 -0.2657047 0.25635508
0002b0 73 6d fb 3d 76 8f 2d 3e f2 46 4f 3d 7d 1e 0a 3d
       0.12276735 0.16949257 0.050604768 0.033720482
0002c0 15 01 31 be 89 34 8a be 8b ec fc 3d e2 05 20 bd
       -0.17285569 -0.26993206 0.123498045 -0.03906811
0002d0 32 4a d5 bd c5 e6 23 be 51 12 66 3d 27 77 8e be
       -0.10414542 -0.16006 0.05616981 -0.2782528
0002e0 2a fe 06 bc 4e 5b 00 be b8 14 16 be 06 fd 4c 3e
       -0.008239308 -0.1253483 -0.14656341 0.20018396
0002f0 8d 25 68 3d 19 23 44 be 3b e0 84 be e5 e2 6d be
       0.056676436 -0.19154014 -0.25952324 -0.23231085

bias f4 [16]
000000 f5 52 51 be 66 d8 e3 bd ec 7d 03 be 61 fe 9c 3e
       -0.20441802 -0.11125259 -0.12841004 0.30662826
000010 0d a8 13 be 79 43 ea bd f3 1e ca be c3 53 36 3e
       -0.14419575 -0.11438651 -0.39476737 0.1780539
000020 c7 8c 50 3e 74 80 aa 3c a5 10 49 be 8e c0 39 3f
       0.20366202 0.020813204 -0.19635256 0.7255944
000030 fd 7d 75 3e fd fa 9f 3e fb 22 16 be 54 1b 76 be
       0.23973842 0.31246176 -0.14661781 -0.24033862

weight f4 [16, 16, 2, 2]
000000 6a 3f 8f 3c 28 d0 04 be 6d 19 0d be ff de c7 bc
       0.017486293 -0.1297003 -0.1377923 -0.024398325
000010 8c 08 ce bd ea 1c c3 bc 72 18 d0 bd 9b ef 85 bd
       -0.10060224 -0.023817498 -0.101609126 -0.06539842
000020 41 d7 1a 3e ba c0 1c 3d cf 45 de 3d 76 b3 01 3e
       0.15121175 0.038269736 0.10853159 0.12666115
000030 4a 6a 23 3e 20 41 21 3c 33 2f 1a 3d 7f 74 d8 3d
       0.15958515 0.009842187 0.03764267 0.10569095
000040 40 ea 57 bb 6e be f7 bd dc e0 e0 bd 00 e4 63 bc
       -0.003294602 -0.120968685 -0.109803885 -0.01390934
000050 f7 21 0f 3d 03 32 a5 bd 0c f0 8d bd 5c f8 fb 3d
       0.0349445 -0.080661796 -0.06930551 0.1230323
000060 28 32 2b be a8 4d 13 bd cb 35 a3 bc a7 46 81 3e
       -0.16718352 -0.03596273 -0.019923111 0.25249216
000070 0a 07 c8 bd 4c 8a 1a 3d a6 86 21 3d db 45 ed bd
       -0.097669676 0.037729546 0.03943505 -0.115855895
000080 66 ef ce 3d 32 1f c0 3d 74 26 09 be cf a0 fc bd
       0.101042554 0.0938095 -0.13393575 -0.12335359
000090 1d 9b a8 bc 38 4d 52 3d 70 84 9f 3d d9 2a 2f 3d
       -0.020581776 0.051343173 0.07788932 0.042765472
0000a0 c7 23 f9 bd fc 89 32 3d 28 7e 67 3c 53 ef fa bd
       -0.12165027 0.043588623 0.014129199 -0.12252679
0000b0 12 53 de 3d 7f f9 90 3e 50 7d 8b be 1c 51 57 be
       0.10855688 0.2831535 -0.27244043 -0.21027035
0000c0 fb af 9c 3d 24 74 d5 bc 27 5e 54 bd 83 57 9c 3c
       0.07650753 -0.026056357 -0.051847603 0.019084698
0000d0 ba 8e 1d 3d 33 ac 14 be 7a 19 47 3e 52 22 14 3c
       0.038466193 -0.14518814 0.19443312 0.009041386
0000e0 e0 3e 66 be 68 5f 55 bd 16 9e 83 bd d7 a9 38 bd
       -0.22484922 -0.05209294 -0.06426637 -0.045083847
0000f0 dc b5 bc 3d 9c 12 55 bd 64 96 3f 3d fa d6 fa bd
       0.092143744 -0.0520197 0.046774283 -0.12248035
000100 f3 a3 5a be 2a 1a 45 be 36 e5 f4 bd db 13 18 be
       -0.21351604 -0.19248262 -0.11957781 -0.14851324
000110 f8 d2 54 bd 01 c0 a8 bd 38 7d ae bc ef a0 b5 bd
       -0.051959008 -0.08239747 -0.021299943 -0.08868586
000120 62 ef b1 3c f1 d6 41 bc 43 bc 29 be fb 1f 73 bd
       0.021720592 -0.011831031 -0.16575722 -0.05935667
000130 2f 6a bf 3e 80 ad e7 3e ce a9 98 3e 9d cf ea 3e
       0.373857 0.45249557 0.2981705 0.4586152
000140 08 41 fb bd 90 e6 44 bc e8 b4 89 bc 1c 7f a5 3d
       -0.12268263 -0.012017861 -0.016809896 0.08080885
000150 ba 9b 24 bd a4 6f 08 be 2e 9c 90 3c cc 8f 9b bc
       -0.040187575 -0.13323838 0.017652597 -0.018989466
000160 14 93 8a be 02 a8 a6 be ee 0c e5 bd 11 87 27 be
       -0.27065337 -0.32550055 -0.11184107 -0.16360117
000170 b7 d5 99 3e 55 50 38 3e b0 e7 b3 3d 68 20 37 3e
       0.30045864 0.17999394 0.08784425 0.17883456
000180 a0 c2 d5 3c 3a db 43 be ba f3 4b be 44 c1 8f be
       0.026093781 -0.19126597 -0.19917193 -0.28077137
000190 6c 9f b3 3e 16 f9 2f 3e 0f a4 73 3e eb df 34 3e
       0.35082567 0.17184862 0.23793052 0.17663543
0001a0 be 92 50 bd d3 9f 41 be 8d 40 4e 3d a0 8d f9 3c
       -0.050921194 -0.18908624 0.05035453 0.03046304
0001b0 56 21 c0 be dd 66 00 bf af eb 43 bf 91 69 5d bf
       -0.37525433 -0.50156957 -0.765315 -0.86489207
0001c0 4f 81 9d bd 7a 4e bf bd 6a a5 97 bd d2 90 0a be
       -0.07690679 -0.0934114 -0.07404597 -0.13531807
0001d0 f2 e7 19 3f ea e4 fe 3e 2b 9d ef 3e d0 5d e7 3e
       0.60119545 0.49784023 0.46799597 0.4518876
0001e0 7e 12 86 3d ec 62 af 3d 7a f2 4e 3c 72 a3 e4 bd
       0.06546496 0.0856379 0.012631053 -0.11163987
0001f0 c4 fb 1d bd b0 7a b7 bd 68 23 eb 3c f4 02 84 3d
       -0.03857018 -0.08958948 0.028703406 0.06445876
000200 4e 4e e1 3d 26 f2 87 3d 2e 39 8d 3d 74 29 ef bd
       0.110012636 0.06637983 0.06895672 -0.116778284
000210 dd 1e cc bd fa a5 58 3d 5a c4 88 3d 4f 12 80 3d
       -0.09966824 0.052892663 0.06678076 0.06253492
000220 25 10 be bd ee 23 2f bb 40 2c ae 3d ff 07 86 3c
       -0.09280423 -0.0026724297 0.08504534 0.016361235
000230 26 be a5 3d d4 73 5a be f4 65 86 3c 36 7b 15 be
       0.080929086 -0.21333247 0.016406037 -0.14597782
000240 92 24 dd bd 00 fa 3a 3d 88 4d a8 3c 04 27 d3 3d
       -0.10797991 0.045648575 0.020544782 0.10310176
000250 9b 94 23 3d 43 a8 1c bd 25 dc f2 bc e8 8a 88 bd
       0.039936643 -0.038246404 -0.029645989 -0.06667119
000260 53 8b 28 3c d3 85 52 3d 49 cd c1 bd d5 07 b0 3d
       0.010287124 0.051397156 -0.09462983 0.08595244
000270 b0 8a a6 bd a0 b4 01 bd 1b 72 05 bd af 81 92 bd
       -0.08131921 -0.031666398 -0.032579523 -0.071536414
000280 50 69 1a be 51 f2 78 bd 1c 3b d1 bd 7a a0 23 bc
       -0.15079236 -0.060777966 -0.10216352 -0.009986991
000290 d5 90 c0 3d f2 4a 5e bc b9 7e 9e bc 6e 13 9b bd
       0.094026245 -0.013567673 -0.019347535 -0.07572065
0002a0 d6 5d 26 be a7 2e 30 be 2e aa eb bd 36 ba 42 bd
       -0.16246733 -0.17205296 -0.115070686 -0.047540866
0002b0 74 3e 3a 3e 5a 42 ba 3e 3e 4c d3 be 47 07 37 be
       0.18187886 0.36378747 -0.41269106 -0.1787387
0002c0 3e f1 b7 39 93 43 96 bd 9b 74 35 bd 69 70 67 3c
       0.0003508422 -0.073371075 -0.044300657 0.014125922
0002d0 e6 a8 09 3e 2e 1d 8f be 2c ee ac 3e 4b a2 59 be
       0.13443336 -0.2795195 0.3377546 -0.21253316
0002e0 87 ca 16 3e b0 60 68 3d e2 ee be bd c2 75 75 3d
       0.14725696 0.056732833 -0.09322907 0.059926756
0002f0 82 5d 94 bd 80 a5 fe 3a a0 32 01 3c 20 18 e5 bc
       -0.07244398 0.0019427985 0.007885605 -0.027965605
000300 98 27 f9 3d 20 f2 17 3d 84 48 22 3e c6 cc 2e 3e
       0.12165755 0.037096143 0.15847975 0.17070302
000310 1e 34 f6 bd c4 27 0d be 6a 6e f8 bd 54 4a 4a 3d
       -0.12021659 -0.137847 -0.12130435 0.04938729
000320 6d 6b 72 bd e2 a9 9f 3c 3d b3 a9 bd 44 29 a9 bc
       -0.05918448 0.019490186 -0.0828614 -0.02064956
000330 23 77 6f be 00 23 f1 3e 21 e6 2d bf 43 c5 5a 3e
       -0.23385291 0.47097015 -0.67929274 0.21364312
000340 3c ea ea 3d b8 1b 26 3d a0 8a 4a bc 28 3b 31 bd
       0.11470458 0.04055378 -0.012362152 -0.043269306
000350 7e 96 2a bd e6 29 20 bd 48 4a 9a 3d f9 35 da bd
       -0.041647427 -0.039102457 0.07533699 -0.10654826
000360 0a 04 1c be af d0 8d be d8 fe d8 3d 11 ab 9b 3e
       -0.15235916 -0.27698275 0.105954826 0.3040395
000370 7e dc 05 3e 87 85 f8 3d 50 cb 04 3e 44 3f 83 bb
       0.13072392 0.12134843 0.12968183 -0.0040053446
000380 b5 64 bf bb d3 52 49 3d b9 22 00 3e 8e d3 b9 3d
       -0.0058408626 0.049151253 0.12513246 0.09073554
000390 84 47 d6 bd 80 5f 12 3e 33 12 09 3d db b1 18 3e
       -0.10462859 0.14294243 0.03346462 0.14911596
0003a0 76 8b 38 3e e2 c2 3f 3d c2 46 81 bd 53 b7 2c bd
       0.1802195 0.046816714 -0.06312324 -0.04216702
0003b0 81 25 ed be ca 7d d2 be 9b ab fa 3e 6a 72 fb 3e
       -0.46317676 -0.41111594 0.4895905 0.49110729
0003c0 5f 0b 55 3e 74 2e 12 bd f3 d7 6d 3d 9a 45 5e 3e
       0.20805119 -0.035688832 0.058067273 0.21706238
0003d0 c6 a7 f7 be e6 84 64 3f 1f 58 88 bf 1e c1 fc 3e
       -0.48370188 0.89265287 -1.0651892 0.49366087
0003e0 80 90 fe bb 6a 64 a3 bd e0 b0 61 3d 2c 53 70 bd
       -0.0077686906 -0.07978137 0.05510032 -0.05867307
0003f0 14 52 68 3d bc 43 03 bd 36 4b e6 bd f0 2e 14 3d
       0.0567189 -0.03204702 -0.11244814 0.036177576

bias f4 [16]
000000 c8 8c 51 bc 16 a8 ef bc b2 c3 4b b9 ab 2a 9f 3c
       -0.0127899125 -0.029254954 -0.00019432491 0.019429525
000010 8b 71 2f be cf f1 71 3e 8f 8a 07 3d 72 67 4c bc
       -0.17133157 0.23627399 0.033091124 -0.012475835
000020 22 09 93 bb 38 01 d7 bd 12 e1 8a be 8d 63 09 3e
       -0.0044871727 -0.10498279 -0.2712484 0.13416882
000030 c8 83 20 be 5a 21 18 bc ec 87 8d 3c 7e 7d 04 bc
       -0.1567527 -0.009285295 0.017276727 -0.00808656

weight f4 [32, 16, 2, 2]
000000 f5 4e 3e 3c 10 3c 68 bd 76 af f4 3d 5a 16 9e 3d
       0.0116155045 -0.056697905 0.11947529 0.07719107
000010 7c 6c 97 3c d4 36 ae 3d d3 90 10 3c 20 e1 b3 3d
       0.018484347 0.085065514 0.008823591 0.087831736
000020 c6 e4 bf 3c 63 9c d6 3c ff a6 cb 3c d4 e1 01 bd
       0.023424517 0.026197618 0.024859903 -0.031709507
000030 b4 d8 78 3c e2 40 2a be 7e 46 d4 bd b3 2b 2b be
       0.015188385 -0.16626313 -0.10365008 -0.16715889
000040 8a c7 d7 3c 4d a7 bc bd 13 e4 06 3d 17 05 dc 3c
       0.026340265 -0.092115976 0.032932352 0.026857896
000050 e1 b8 7c bd 83 6d 41 3d ae 56 1e be 86 82 09 3d
       -0.06169975 0.04722358 -0.15462753 0.033571742
000060 1b 24 a1 bd a2 b1 96 3d 04 7a 94 3d a1 23 76 3d
       -0.07868215 0.073580995 0.07249835 0.060092572
000070 db 51 50 bd 47 5a a7 3d 7f 35 ed 3d 0b 24 a5 3d
       -0.050859313 0.08171516 0.11582469 0.08063515
000080 d4 6b 90 3d d0 3c 38 3d a6 15 2f bd ca 43 84 bd
       0.070518166 0.04497987 -0.042745255 -0.06458242
000090 b7 d7 92 3d b1 e3 70 3d 55 30 4e bd 52 87 6a 3c
       0.071700506 0.058810893 -0.05033906 0.014314489
0000a0 56 20 57 3d b3 17 de 3d c0 fd 55 bd a3 b5 db bd
       0.052521072 0.10844364 -0.052243948 -0.10728004
0000b0 5a 5a 2d bc 3b c6 83 bc 5d f1 ba bd c6 e8 48 bd
       -0.0105806235 -0.016085735 -0.09128068 -0.049050115
0000c0 af 5d ca 3d 21 98 92 3d 15 6c 9b 3d b3 56 ee 3d
       0.0988115 0.071579225 0.075889744 0.1163763
0000d0 55 24 64 bd ce 12 a6 3d bf 63 98 bd 3a a0 ae bc
       -0.05569871 0.081090555 -0.074409 -0.021316636
0000e0 94 82 8c 3d f5 d0 0e be 18 ff ab 3c 6b 72 90 bd
       0.06860843 -0.13946898 0.020995662 -0.070530735
0000f0 c3 05 1c 3d 2f d3 64 bd 9a 69 03 3d ba 40 e0 bd
       0.038091432 -0.055865463 0.03208313 -0.109498456
000100 11 f3 c1 3d fc a1 81 3c bf 1e 15 3b 5f 2a 50 bd
       0.09470189 0.01582431 0.0022753922 -0.05082166
000110 a3 24 27 be 9c 41 06 be 42 fb d7 bd ae 6c 85 bb
       -0.1632257 -0.13110965 -0.105459705 -0.0040717935
000120 3e df bd bc 7d 41 f3 bd 06 57 22 bd 74 51 7d bd
       -0.02317774 -0.11877725 -0.039633773 -0.061845258
000130 8a 5f 70 bd 8c 6b e6 3d 44 5e 38 3d 7b 19 b1 bd
       -0.058684863 0.11250982 0.045011774 -0.08647438
000140 9a 7a db bd db ba ed bc 47 9f cf bd 6d de 1f be
       -0.10716744 -0.029019764 -0.101378016 -0.15612192
000150 46 4a 31 bd 17 97 69 3c 8e 4d 84 bd 6d 73 8b 3d
       -0.043283723 0.014257214 -0.06460105 0.06809125
000160 a1 04 9f 3d 8e c2 e1 3d 5f f4 88 bd ef c1 ce 3d
       0.07764555 0.110234365 -0.06687235 0.10095584
000170 57 d5 20 3e dc cb 34 3d 7d f5 31 3d b7 d6 a9 bd
       0.15706383 0.044139728 0.043447006 -0.08292907
000180 57 1f 70 3d 5c 6a 0e be 29 82 90 3d 08 53 68 bd
       0.058623638 -0.1390776 0.07056076 -0.05671981
000190 7f a4 08 3e 94 d4 0a 3e 40 28 ae bc 87 98 25 bd
       0.13344 0.13557655 -0.021259427 -0.040428665
0001a0 95 bc a7 bd 9b 09 45 be 2a 43 8e bd 9d f8 53 be
       -0.08190266 -0.19241945 -0.06946404 -0.20700307
0001b0 41 82 d6 bd 08 6f 67 bd bf c5 24 be 35 de 1c be
       -0.10474063 -0.056502372 -0.16091059 -0.1531914
0001c0 71 69 01 3e 9f cc b4 bd ef 8b b8 bd 7a a8 83 bd
       0.12637879 -0.08828091 -0.09011065 -0.06428619
0001d0 e2 a9 53 be 9d 6c 60 be f3 94 b2 3c 96 cc 9d bd
       -0.20670274 -0.21916433 0.02179954 -0.07705037
0001e0 42 4b 92 3c d6 27 d0 3c 32 91 2f 3e 00 10 9f 3d
       0.017858151 0.02540962 0.17145231 0.07766724
0001f0 ea fc 88 bd 5e 84 14 bd 1b 24 83 bd dd 2c 42 be
       -0.066888645 -0.036259048 -0.06403371 -0.18962426
000200 5e eb ac 3d 92 b4 81 3d d1 bd 3f bc 7b 78 07 3e
       0.0844333 0.06333269 -0.011702971 0.13229553
000210 9f 90 ec bd 9c af 8c 3d c7 63 e5 bd fa fd d3 3d
       -0.11551022 0.06869432 -0.11200672 0.103511766
000220 1f 6e 59 bd ab 84 9f 3d 33 08 bb bd 9d c7 9f 3d
       -0.053083535 0.07788976 -0.09132423 0.07801745
000230 5a 1d 66 3d 4e 98 e0 bd 60 e2 91 bd 01 6e 03 be
       0.056180336 -0.1096655 -0.07123256 -0.12834932
000240 5f 29 94 bd 6b 15 b4 bc 11 0e f9 b9 e1 0d e6 bd
       -0.072344534 -0.02198287 -0.0004750346 -0.11233116
000250 f7 69 1c be be 2f 49 bd 31 ee b1 3d fa d8 af bc
       -0.15274797 -0.049117796 0.086880095 -0.021465767
000260 98 0c b4 bc aa b5 eb bd be 2d 74 3c 1b 72 05 be
       -0.021978661 -0.11509259 0.014903484 -0.13031809
000270 1c 5b f9 3c c7 13 13 3d f3 49 75 3d b1 0d 76 bc
       0.030438952 0.035907533 0.059884977 -0.015017913
000280 c6 5f df bd 2c 28 0e be 5c df 47 3d 6b c6 62 3d
       -0.10906939 -0.13882512 0.048796996 0.055365007
000290 48 86 93 bd 40 c9 11 bd bb 2a b2 3d 69 4c b3 bd
       -0.072033465 -0.035592318 0.086995564 -0.087548085
0002a0 ce f5 96 3d 83 77 e3 bd f7 dc bb 3d 54 ad 59 3d
       0.07371102 -0.111067794 0.09173005 0.053143814
0002b0 3a 0d 01 bc 17 19 13 be dd 4e 88 3b 96 c0 6d bd
       -0.007876689 -0.1436504 0.004159792 -0.058044992
0002c0 73 88 8a bd 0e 05 77 bc d2 d0 70 bd a8 ec 9d 3c
       -0.06764307 -0.015076889 -0.058792897 0.019277886
0002d0 e2 40 e4 3c eb 39 79 3d b3 6e ab bc 43 f7 b0 bd
       0.02786297 0.06084625 -0.020926809 -0.086409114
0002e0 86 d0 cf 3d 9d e7 69 3d a7 7f e5 3d 03 19 0e 3c
       0.101471946 0.05710565 0.112059884 0.008672955
0002f0 e1 7f b9 bc c5 1c 85 3d f8 6a db bd d9 a3 0b bd
       -0.022643985 0.06499628 -0.10713762 -0.034091804
000300 8e 78 f9 3d 9b 80 a9 3d 03 6c c0 3d 65 81 d9 bc
       0.12181197 0.08276483 0.093956016 -0.026550958
000310 c9 cd 5a 3d 0d e6 84 bd 75 d7 a1 3d 33 db 61 bd
       0.05341891 -0.06489191 0.07902423 -0.055140685
000320 a7 f4 07 3d d2 bb 2c 3d 32 90 63 3d 15 ea 85 bc
       0.033192303 0.042171307 0.055557437 -0.01634697
000330 60 da b6 bd b8 6a 80 3d d3 c0 f4 bd 27 ab 85 bd
       -0.089283705 0.06270355 -0.11950841 -0.06526785
000340 2c f6 1e bc 17 eb 35 3d 1d a1 8e 3d 30 55 73 bb
       -0.009702247 0.044413652 0.06964324 -0.0037129633
000350 81 fa a8 bd 40 8c 0f bc da f0 b2 bd bb 32 a8 3d
       -0.08250905 -0.008761466 -0.08737345 0.08212801
000360 25 4a 85 bc 0e e9 88 3d db 0c ad bb 69 ca ec bd
       -0.016270706 0.06685077 -0.0052810735 -0.11562044
000370 87 ba 2e b9 65 08 64 bd 22 cb 1c bd 5b 5e 92 bd
       -0.0001666342 -0.05567207 -0.03827966 -0.07146903
000380 e8 8f fa bd dc 6a fc bd f2 6e 88 bd 39 73 4d bd
       -0.12234479 -0.12325069 -0.06661786 -0.050158713
000390 ec 65 f5 3d 8d f5 5e 3d b8 09 13 3c 09 f8 e4 3b
       0.11982331 0.054433394 0.008974485 0.006987576
0003a0 8f 22 a4 3d ef 61 e1 bd 0c 54 b4 bc bf c5 72 bd
       0.08014404 -0.110050075 -0.022012733 -0.059270617
0003b0 42 26 c6 3d 1d b6 65 3d 25 5c 17 bd b0 cc 31 bd
       0.09675266 0.05608188 -0.03695311 -0.043408096
0003c0 7d 4b 00 3c 8d db 19 3d 58 de a4 bd d4 57 ea bb
       0.007830498 0.037562896 -0.08050221 -0.007151583
0003d0 dc b1 9f 3d 61 12 bb 3d e9 98 3e bd 98 16 27 bd
       0.07797596 0.09134365 -0.046532545 -0.04079303
0003e0 e4 11 a0 bd ee 73 0b 3d e1 bd 73 bd 3a e6 b6 bd
       -0.07815912 0.034046106 -0.059507255 -0.08930631
0003f0 26 50 df bd 23 41 a4 bd 49 9c 43 3d 13 c6 a6 3d
       -0.10903959 -0.08020236 0.047756467 0.081432484

bias f4 [32]
000000 7e 06 99 bc 66 20 61 3c 35 32 c5 3c 80 db 59 3d
       -0.018679854 0.013740635 0.024071792 0.053187847
000010 13 f1 50 be 11 28 2b be c8 57 05 be a6 b3 3c be
       -0.20404463 -0.16714503 -0.13021767 -0.18427905
000020 c2 ec 9d be 39 b6 56 3d ad 1d 72 bd 71 d7 e5 bc
       -0.30844694 0.052419875 -0.059110332 -0.028056832
000030 3a 11 95 3d 67 87 56 bd 50 99 16 3c 5b 0c 45 be
       0.07278676 -0.052375223 0.009191826 -0.19242994
000040 99 bf 50 bd 75 34 a1 3d 15 ce ac 3d 9c 6c 89 3d
       -0.05096397 0.078713335 0.084377445 0.06710169
000050 b3 3e ee bc af 0f eb bd a8 74 66 3d 56 45 6e be
       -0.029082632 -0.11477601 0.056263596 -0.23268637
000060 e5 ce 23 3e 3c 5e 7a be c2 66 06 be 20 7d 97 bd
       0.15996893 -0.2445001 -0.13125136 -0.073969126
000070 e9 c0 8b bd 20 cb bd be 92 68 8a bd 59 90 21 bd
       -0.06823904 -0.37069035 -0.067582265 -0.0394443

weight f4 [32, 32, 2, 2]
000000 6c f1 df 3c f6 c0 e4 ba 21 c4 b7 bd 66 18 d2 3c
       0.027336799 -0.0017452526 -0.089729555 0.0256464
000010 05 a4 07 3a 9c a8 95 3c 97 ea 92 3d 9f 32 3e 3d
       0.0005174282 0.018268876 0.07173651 0.046434995
000020 4a b3 ab 3d 55 53 97 bd e5 b2 22 3c 0b 26 b9 bb
       0.08383806 -0.07388941 0.009930347 -0.005650287
000030 d5 d5 66 3c 02 6e 12 3d 85 5f 97 bd a5 11 d1 3c
       0.0140890675 0.035749443 -0.07391266 0.025521109
000040 dd 6f d6 3b 61 63 9c 3d 95 45 18 3e 90 be 0d 3e
       0.006544097 0.076361425 0.14870293 0.13842225
000050 a8 28 a6 3c 7b dc de bd 11 b6 e7 bd ab 47 b5 bc
       0.020283058 -0.10881897 -0.11314023 -0.0221289
000060 27 c0 fa 3d 20 36 cd 3d 45 7e 34 3c 8e 82 8c 3d
       0.122436814 0.10020089 0.011016433 0.06860839
000070 0e 3e a0 3d 4f ec ca bd 6c f3 5b 3c 5c f4 b7 3b
       0.07824336 -0.099083535 0.0134247355 0.0056138467
000080 f2 3a fa bc 77 77 a4 bd da c0 95 3d e4 14 6c 3d
       -0.030545685 -0.080305986 0.07312174 0.05763711
000090 2a a3 2a ba 29 8e 9b 3d 2d 6f 57 3b fc 3d 66 bd
       -0.00065092987 0.07595474 0.0032872662 -0.056211457
0000a0 0e c1 bb 3d 50 1b ad 3d e3 b3 9c 3d 91 28 99 3d
       0.09167682 0.08452475 0.07651498 0.074784406
0000b0 0e 54 69 3d 21 6a 03 3a cf c9 10 bd 29 74 be 3c
       0.056964926 0.0005013068 -0.03534871 0.023248749
0000c0 00 16 87 bd 90 e0 b3 3d c6 44 a1 bc 5e 35 a9 bc
       -0.06595993 0.08783066 -0.019686114 -0.02065533
0000d0 96 bd 20 3d 40 f9 9e 3c e7 bd 5d 3d c1 1c 31 ba
       0.039243303 0.019405961 0.054136183 -0.0006756299
0000e0 8f 8e 0f 3d 45 6b 8d bd 51 6c cf bd 8c ec d7 3b
       0.035048064 -0.06905226 -0.101280816 0.006589478
0000f0 22 d3 ec 3c 87 fa 02 3e 09 1a c8 3d 7a 33 c7 bb
       0.02890927 0.12790881 0.09770591 -0.0060791345
000100 db c9 93 3d 37 3d 00 3e 6b 9e ce 3d 37 ab af 3d
       0.07216235 0.12523352 0.100888096 0.085775785
000110 d6 23 4b bd c8 83 a6 bb d1 22 83 bd b2 fb 92 3d
       -0.049594723 -0.0050816275 -0.06403125 0.07176913
000120 14 14 e5 bc 59 ff 56 3d dc 79 27 3d 70 09 a5 bd
       -0.027963676 0.052489612 0.0408877 -0.08058441
000130 a1 9d 8d 3d 2f 73 f7 bc 11 75 2e bd 46 b2 39 3d
       0.06914831 -0.030206291 -0.042592112 0.04533603
000140 c6 7e 8a bd be 7c 62 bd c7 ce 5d 3d 01 a1 69 3d
       -0.06762461 -0.055294745 0.054152276 0.05703831
000150 12 bc 46 3e ef 2f 8e 3d e7 e1 1b 3d cf b7 a2 3d
       0.1940768 0.06942736 0.038057234 0.07945215
000160 e8 0e 34 3c d1 6b 9b 3d 21 64 ed bc 61 d1 2b 3d
       0.010989882 0.07588924 -0.02897841 0.041947726
000170 aa 4a 21 bd de 9a 0d bd 20 94 b0 3c 8b bd 21 bd
       -0.039377846 -0.03457152 0.021555007 -0.039487403
000180 d9 38 23 3d 96 2d 4b 3e ef 2a 16 3e 1a 85 d3 3d
       0.039849136 0.19841608 0.14664815 0.103281215
000190 3e 2d e2 bc af 0c b1 3b 4f 23 d8 3d ee 52 56 3d
       -0.027609464 0.0054031233 0.105536096 0.05232518
0001a0 9e 10 7c 3c 30 39 64 3d fe ec ad b9 e2 03 93 bd
       0.015384821 0.0557186 -0.00033173704 -0.07178475
0001b0 ba 0f c4 3a d9 9d d1 bd 02 8c 86 3b 5b 7c ca bd
       0.00149583 -0.10235185 0.0041060457 -0.09887
0001c0 a8 ef 18 3e 06 66 50 bb 0f d1 02 3d e8 f5 0f 3e
       0.14935172 -0.0031799092 0.031937655 0.1405865
0001d0 ba 6d 8c bd e4 ab c0 3c d3 d4 52 be 3e ce b5 3b
       -0.06856866 0.023519464 -0.20588998 0.0055482676
0001e0 f8 07 50 3e 2b b0 1a 3e 5e 3a 8b 3d c5 d0 68 3c
       0.2031554 0.15106265 0.06798242 0.014209931
0001f0 56 ef 49 3d 11 3c bd bc e5 9c 54 3d 31 51 59 bd
       0.049300514 -0.023099931 0.05190744 -0.053055946
000200 b5 30 08 3d 03 74 31 bd 9f e1 a3 3d e7 53 86 3d
       0.033249576 -0.043323528 0.08002018 0.06558972
000210 88 34 bf bd 74 3f 85 bb 55 8c db bd c2 f6 d9 39
       -0.093361914 -0.004066402 -0.107201256 0.00041573314
000220 2a 58 25 ba 7c 1e 99 bd 60 5e 14 bd bb 87 a0 bd
       -0.0006307388 -0.074765176 -0.036222816 -0.078383885
000230 b0 fd 73 3d e0 68 a7 3d cd 03 a7 3d 07 fb c4 bc
       0.059568107 0.081743 0.08155022 -0.02404548
000240 fb 22 10 be 84 7c cc bd c6 0c ff bc ee 4c 36 be
       -0.14075844 -0.09984687 -0.03113402 -0.17802784
000250 87 dd 9e bc 9f a0 b2 3d 31 da 62 3d 62 7a cb 3d
       -0.019392742 0.08722042 0.055383865 0.09935452
000260 2b 82 06 be 22 b6 35 bd 92 07 c9 bd 3d 83 cc bd
       -0.13135593 -0.04436315 -0.09815897 -0.09985969
000270 00 29 c6 bc 89 02 85 bd 93 95 a6 bc 76 62 43 bd
       -0.024189472 -0.06494624 -0.020334994 -0.04770132
000280 2f 77 dc 3d fd d0 d9 3d 19 a9 e9 3d 79 67 a4 bc
       0.1076492 0.106355645 0.11409206 -0.02006887
000290 0c fd 99 bd c0 b7 89 bd d4 c1 49 bd 19 a3 9f bd
       -0.07518968 -0.06724501 -0.049257115 -0.0779478
0002a0 c6 f8 bd bc c1 e6 39 bd d0 29 6f bd 67 20 e1 bd
       -0.023189913 -0.04538608 -0.058389485 -0.109925084
0002b0 36 6e 24 bd 64 27 31 3d d9 9e 6c 3d a0 84 dd 3d
       -0.040144168 0.043250456 0.057768676 0.10816312
0002c0 27 2d 70 3d 7b 0c a1 bd 6d fc c9 3c be 75 cf bc
       0.05863681 -0.078637086 0.024656499 -0.025324699
0002d0 e7 94 af 3b 18 4a 7f 3d f2 82 11 3d 27 2a 66 bd
       0.0053583267 0.06232652 0.03552527 -0.056192543
0002e0 2c 09 4e b7 c1 63 15 3c 3d cc 59 bd 72 29 54 bc
       -1.2280692e-05 0.0091180215 -0.053173292 -0.012949334
0002f0 53 08 8f 3d f5 69 32 3e 96 90 ec 3d c7 37 cf 3d
       0.069840096 0.17423232 0.11551015 0.101180606
000300 f9 fa fd bd 98 a2 55 be b2 fc 11 bd 14 3f fa bd
       -0.12401385 -0.20862806 -0.03564138 -0.122190624
000310 d5 f8 9a 3d 61 51 a5 3d 1d ca 9f 3d b8 d5 2c 3d
       0.07566992 0.080721624 0.07802222 0.042196006
000320 67 97 65 bb d7 be f6 3c f6 38 62 3d e8 e1 50 bd
       -0.003503287 0.030120296 0.055230103 -0.05099669
000330 a3 79 37 3d 6e 9c 81 bd eb 19 37 3d 37 ca 75 bc
       0.044793736 -0.06328665 0.04470245 -0.015001825
000340 62 7c 53 bc 5e d5 cc 3d 62 b4 10 3e 20 45 80 3b
       -0.012908073 0.10001634 0.1413131 0.0039144903
000350 dd 3a 52 bd da 88 bc 3c 84 c4 22 3d a5 7f c1 bd
       -0.051325668 0.023014475 0.039738193 -0.094481744
000360 99 19 91 3d 2a 8e 81 bd d5 6e aa bd dc 34 f4 bc
       0.070849605 -0.06325944 -0.08321921 -0.029810362
000370 d7 c7 97 3b 64 45 f9 bc 37 f4 88 3b ba 5e b0 3c
       0.004631977 -0.030428596 0.0041795033 0.021529544
000380 cf 4b 0b be fa 64 62 be 1e a2 1d bc b0 8e 13 be
       -0.13603137 -0.22108832 -0.009621171 -0.144099
000390 5e 3e f0 bd 9e 55 dd bd 89 64 a9 bd eb 11 92 bd
       -0.117306456 -0.10807346 -0.08271129 -0.07132324
0003a0 c6 0f d8 3b 8b f9 58 3d 84 b4 2a bd a0 c6 9e bd
       0.006593677 0.052972358 -0.04167606 -0.077527285
0003b0 2d 56 d5 3d 29 f3 a7 3c c5 5a b5 bc b8 a9 da 3d
       0.10416827 0.02050169 -0.022138009 0.106769025
0003c0 f6 ef f9 3c c7 cc 3e 3c c8 6c ab bc 18 7e 61 bd
       0.03050993 0.011645502 -0.020925894 -0.055051893
0003d0 9e d3 b2 3c 05 65 00 3d 6e ef 03 3e 05 cb f2 3c
       0.021829423 0.03134634 0.12884304 0.029637823
0003e0 71 3a 45 be dc 7c 2b be bf f3 41 bd d0 da 8d bd
       -0.19260575 -0.16746849 -0.047351595 -0.06926501
0003f0 17 31 fe bc 98 19 c4 bd 70 df 1a 3d bc 32 c0 bc
       -0.031029267 -0.09575194 0.037810743 -0.023461692

bias f4 [32]
000000 80 d1 1a 3c 92 fb f4 bc a9 07 a7 bd 5a f2 ee 3c
       0.009449363 -0.029905114 -0.08155758 0.029168297
000010 27 31 92 bd 04 a1 2e bc 60 2a 69 bd aa 6c 85 bc
       -0.07138281 -0.010658506 -0.056925178 -0.016287167
000020 c1 e5 28 bd 3d 6f a4 3d 0f 36 39 3b 88 7a a3 3d
       -0.041234735 0.080290295 0.0028260981 0.07982355
000030 c2 1c 2b bc 66 e4 67 3c 3b e1 3b bd c4 38 76 bc
       -0.010443868 0.0141535755 -0.045869093 -0.015028182
000040 db 47 84 bd 03 bf cb bd 3d 90 2c bc 90 00 87 3d
       -0.06459018 -0.09948542 -0.010532436 0.06591904
000050 a8 f0 f6 3b bb 44 29 bd 31 13 b4 3c 7b 22 84 bc
       0.0075360127 -0.041325312 0.021981807 -0.016129723
000060 b1 a2 85 bd 89 28 94 bd dc 3d 3b bd bb f2 c2 bc
       -0.065251715 -0.07234294 -0.04571329 -0.023797384
000070 f7 6e aa 3d b9 24 83 3d d3 08 cb bc e3 55 96 3d
       0.08321946 0.06403489 -0.024784481 0.073406

weight f4 [64, 32, 2, 2]
000000 38 18 96 3c ef d5 3e bd 52 b8 62 bc 0e 25 b4 bc
       0.018322095 -0.04659074 -0.013837891 -0.021990325
000010 45 1e 13 b9 c1 6c bf 3d 45 eb 25 bd 60 d7 8f 3d
       -0.00014030289 0.09346915 -0.040507574 0.070235014
000020 ed ba b1 3d f1 5c 21 bd 27 5c 5c 3d 80 85 62 3d
       0.086782314 -0.039395276 0.05379882 0.055303097
000030 02 b3 80 3c 7d 5e 2a 3c fb 4e 20 3d 5b a1 1d 3a
       0.015710358 0.010398504 0.03913782 0.00060131185
000040 b0 47 1b bd 7a 4c a6 3d 32 3c 9c 3d a8 3e 69 3d
       -0.037910163 0.081200555 0.07628669 0.05694452
000050 45 a0 8c 3d 84 ac 1e bd b2 29 ba 3d e5 0e d0 3c
       0.068665065 -0.038738742 0.09089984 0.025397727
000060 c5 da 9d bc 1e a9 29 3d 66 5a 12 bd e6 f0 ee 3d
       -0.019269357 0.04142105 -0.035730742 0.116670415
000070 a6 30 a0 3c ec 19 b9 3d 39 39 1f 3d 20 46 a6 3d
       0.019554447 0.09038147 0.03887293 0.08118844
000080 44 60 b4 3c e6 44 b6 bb 12 de b1 bd e5 88 1d ba
       0.02201856 -0.0055624126 -0.08684935 -0.00060094736
000090 47 a6 bb bd 68 3b b3 bc 6e e0 ac 3c 13 10 18 3c
       -0.09162574 -0.021878913 0.02110311 0.009281176
0000a0 4f fe 59 3d 7a 8c 2e bd b6 b4 3f 3d 71 ca a6 bd
       0.053221043 -0.042614438 0.0468032 -0.081440814
0000b0 8c b1 ef bd aa db 3b 3d 70 9d 19 3d ab ed 2e 3d
       -0.11703786 0.045863785 0.03750366 0.042707127
0000c0 5b f5 9e bc c6 d4 58 bc 19 b1 d2 bd 35 f8 8f bd
       -0.019404104 -0.013234323 -0.10287685 -0.070297636
0000d0 70 80 a3 3d e4 69 cf 3d b1 4c 94 3d c4 8f 21 3c
       0.07983482 0.10127619 0.0724119 0.009860937
0000e0 26 19 a0 3d b7 12 4a bd 1d 98 66 bd 94 f4 d8 3d
       0.07817297 -0.049334254 -0.05629741 0.105935246
0000f0 57 08 fb 3c bf c5 b9 bd 43 b2 d0 bd 42 e9 0f bd
       0.030643625 -0.0907092 -0.10190251 -0.03513456
000100 03 8b 57 bd 29 48 da 3d d4 15 be 3d 47 ad d8 3d
       -0.052622806 0.10658295 0.09281507 0.10579925
000110 4e 4e 41 3d 66 6f 2a 3d 1e bf 88 3d 23 d1 af 3d
       0.047193818 0.041610144 0.06677078 0.085848115
000120 fe df ab 3d 52 72 3d 3d 2d 47 1a bd 45 90 01 3d
       0.083923325 0.046251602 -0.037665535 0.031631727
000130 6f 53 37 bd 4f 88 16 bd 1f 86 fc 3c 4c f7 aa bd
       -0.044757303 -0.036751088 0.030825673 -0.083479494
000140 8c 5f 1f bd 57 91 cc bc 41 89 13 3c 20 3f f0 bc
       -0.03890948 -0.024971647 0.009004892 -0.029326975
000150 6b 90 c2 bc aa 54 00 3e 68 ac 90 3d ea d9 a7 3c
       -0.023750504 0.12532297 0.07064134 0.020489652
000160 d5 67 3d 3c 7f 4a 74 bd 04 eb e7 bd 63 ed d7 bc
       0.0115604 -0.059641358 -0.113241225 -0.026358312
000170 f2 2e 4a 3d 16 fd 5f 3d dd 39 0b 3a 12 fa 47 bc
       0.049361177 0.05468472 0.00053110515 -0.0122056175
000180 cc b6 d5 bd e3 87 63 ba 97 15 ad bd 2c 9e d8 3c
       -0.10435256 -0.00086796115 -0.084513836 0.02644261
000190 a2 de db 3c 42 75 b2 3d ae 6e 90 bb bb fc 98 bc
       0.026839558 0.087137714 -0.0044077253 -0.018675199
0001a0 e9 17 37 bd 68 a9 77 bc ab 13 83 3d ea fb 93 bc
       -0.044700537 -0.015116073 0.06400236 -0.018064458
0001b0 0c aa 1b 3d 71 2d c3 3a 8e 53 63 3d 57 33 84 bc
       0.038003966 0.0014890862 0.055499606 -0.016137762
0001c0 2e c2 9a bd 75 50 ca bd 51 21 5e bd f4 da 8d 3c
       -0.07556568 -0.09878627 -0.05423099 0.017316319
0001d0 85 44 98 bd f1 f0 62 bd 96 43 90 38 f6 6f 2e 3d
       -0.07434944 -0.05540556 6.879044e-05 0.042587243
0001e0 fe d4 b9 3d 5f 48 cc 3d 1c 50 97 3d 0a 86 99 bc
       0.09073828 0.09974741 0.073883265 -0.018740673
0001f0 a4 94 8b bd a9 3c f1 3c 88 ee dd bd f5 25 a6 bd
       -0.0681546 0.02944787 -0.10836512 -0.081127085
000200 55 4a 4e 3d 53 d1 95 bd e2 f3 7d bd 78 43 a9 bd
       0.050363857 -0.07315316 -0.062000163 -0.08264822
000210 2e 5b cc bc a6 55 ae bc 38 7e c5 3d 6c 0c 8f 3d
       -0.024945822 -0.021281075 0.09643215 0.06984791
000220 91 61 6c 3d f1 d1 d0 3c e7 f0 32 bd a0 21 5a bc
       0.057710234 0.025490733 -0.043686774 -0.013313681
000230 32 0f 06 3c eb 76 08 3d 3e 0b 58 3d 42 89 da bc
       0.008182334 0.033316534 0.052745096 -0.026676778
000240 9f 12 32 3d bd cc da ba ee c0 99 3d 40 0d 94 3d
       0.04347479 -0.0016693097 0.075075015 0.0722909
000250 2b ec 37 bd a0 a7 e4 3d b6 66 1e bb 75 d0 38 3d
       -0.04490296 0.111647844 -0.0024170107 0.045120675
000260 40 32 f0 3d 58 c0 f1 3a 68 92 5c bb 99 17 8c 3d
       0.117283344 0.0018444164 -0.00336566 0.068404384
000270 e5 3a ef 3c c3 47 8e 3c fb 38 3f bd e5 c0 54 3d
       0.029202888 0.017368203 -0.0466852 0.05194177
000280 cf 89 3f 3d b8 f4 30 bb 8c cb d7 3c 6a 93 08 bd
       0.046762284 -0.0027001332 0.026342176 -0.03334371
000290 cf 3b bd bd 5d 00 b0 3c b5 15 28 3c 05 35 88 3b
       -0.09239923 0.021484548 0.010259082 0.004156711
0002a0 57 f2 f3 bd 56 ab f4 bd 93 2c 5e bd f7 ca 05 be
       -0.11911457 -0.11946742 -0.054241728 -0.13065706
0002b0 04 48 15 bc be 86 b4 3c d3 28 9c 3c d5 33 8e bc
       -0.009111408 0.022036906 0.019062435 -0.0173587
0002c0 96 77 e0 bd 79 7a 29 3d a9 f4 c3 bc 54 aa 6e bd
       -0.10960309 0.041376565 -0.023920374 -0.058267906
0002d0 0e b8 12 bd 3c fa 6a 3c 23 bb 4f 3d 03 ac 7c bd
       -0.03582006 0.014341887 0.050715577 -0.06168748
0002e0 85 9e 55 3d 71 77 53 3c df 6d 9b 3d 61 d4 05 bd
       0.05215313 0.012906895 0.075893156 -0.032673243
0002f0 18 c9 c3 b9 a3 87 27 bd f9 70 58 bd 01 9c 3f ba
       -0.00037343125 -0.040900838 -0.052842114 -0.0007309318
000300 c0 82 2f 3c f3 d6 e3 bc 84 66 42 bc cc 45 9a bb
       0.010712326 -0.027812457 -0.011865262 -0.0047080275
000310 3c 14 1f 3b 3e 46 93 3d 18 24 6b bd c2 bc 97 3d
       0.0024273535 0.07191132 -0.05740747 0.074090496
000320 18 9b 96 3b e8 0b 61 bd 9d 6f a3 3d 9c 04 cd bc
       0.0045961253 -0.054942995 0.07980273 -0.025026612
000330 ba 5f f2 bb df 3b 57 bd 69 cb a8 bc 2a 19 67 bc
       -0.0073966654 -0.052547332 -0.020604806 -0.014105121
000340 40 01 e7 3d 6b 94 99 3d 67 b1 1e bd 87 13 4f 3d
       0.11279535 0.074990116 -0.038743403 0.050555732
000350 bd 4f 13 3d cc b9 df 3b 98 5a 91 3d f4 79 ec 3d
       0.035964716 0.0068275686 0.070973575 0.11546698
000360 58 5a da bd b6 b2 1f 3b c9 e1 37 bd c2 f2 9b bd
       -0.10661763 0.0024367995 -0.04489306 -0.07614662
000370 47 b2 87 3b cd b8 0d 3d 98 83 ae 3c 8a 8f 0f 3d
       0.0041411254 0.034600068 0.021302983 0.035049
000380 d8 cf 1f bd 40 8f e3 bc 2f 31 42 bd f6 29 48 bd
       -0.039016575 -0.027778268 -0.047410186 -0.048868142
000390 df 2d bf 3d 7c 25 e7 3d 93 fe 80 3d fe 45 fd 3d
       0.09334921 0.112864465 0.06298556 0.123668656
0003a0 28 16 8d bc 09 55 6f ba f0 19 0c 3a 1f 06 31 bc
       -0.017222479 -0.00091297977 0.0005344441 -0.010804682
0003b0 f8 34 b4 3d b7 c4 8a 3d 9f e8 11 bd 0d a2 6f bd
       0.087991655 0.06775802 -0.035622235 -0.058504153
0003c0 02 2b ef ba 5e 13 ac 3c 83 61 11 3c 0a 25 2a bd
       -0.001824707 0.021005329 0.008873346 -0.04153923
0003d0 bb f7 10 bd d4 72 9d bc 2d 91 13 3d f3 fa e4 bd
       -0.035392504 -0.019219793 0.036027122 -0.11180677
0003e0 1f f5 3c 3d 74 f1 5d 3d 8a f4 db 3d b9 35 c7 3d
       0.046132203 0.054185346 0.107400015 0.09727044
0003f0 ce 48 6e 3d c1 ea 65 bc ca de 0e bd fe b7 d5 3b
       0.0581749 -0.0140330205 -0.034880437 0.0065221777

bias f4 [64]
000000 83 4d 6a bb 20 d3 87 bd 7c 3c b0 bb b3 05 e2 bd
       -0.0035751767 -0.06632066 -0.005378304 -0.11036243
000010 02 ba df 3c ea 84 38 3d 66 30 e3 bd 43 86 bd bd
       0.027310375 0.04504863 -0.11093216 -0.09254124
000020 93 c3 20 be e3 2e 1b bd ce 63 1c 3d 95 ee 08 be
       -0.15699606 -0.03788651 0.03818112 -0.13372262
000030 ad 10 e5 bd 4e 63 c8 bd c7 6e db 3b b0 fb f5 bd
       -0.11184821 -0.09784566 0.0066965553 -0.12010896
000040 af 87 40 be 5c 5c 23 bd f4 46 26 be a6 39 13 be
       -0.18801759 -0.039883003 -0.16238004 -0.1437746
000050 2c 57 0f be 09 ad 1f be 2f 6d bf bd 44 40 12 be
       -0.13998097 -0.15593351 -0.09346997 -0.14282328
000060 ac 9f 0b be 97 80 ae bd 9e 2c fe bc c8 22 13 3d
       -0.13635129 -0.0852062 -0.031027135 0.03592184
000070 26 c3 d6 3b db eb c0 bd 1f a7 34 be 78 e1 b6 3d
       0.006554025 -0.09419986 -0.17641877 0.089297235
000080 d7 81 ce 3d ba 42 24 3b c3 34 2c be 2c f7 15 3d
       0.10083359 0.0025064186 -0.16817002 0.036612675
000090 56 89 a3 bd 43 39 4e 3d ad 4d c4 bd 66 69 68 bd
       -0.07985179 0.050347578 -0.09585128 -0.05674114
0000a0 ba 63 08 be 17 f3 ac bb c9 fe 5a 3c a3 ac 9a bc
       -0.13319293 -0.005278002 0.01336641 -0.018881148
0000b0 00 de 19 be e3 58 c7 bc 27 6d 66 be 0d bc 94 bd
       -0.15026093 -0.024334377 -0.22502576 -0.0726243
0000c0 72 2d bb 3c 46 6a 2d 3d a3 8b df bc 50 15 04 be
       0.022848818 0.04233768 -0.027288264 -0.12898755
0000d0 22 59 41 be 28 d4 07 be ec 1d 0f be fc 81 ed bc
       -0.18881658 -0.13264525 -0.13976258 -0.028992645
0000e0 dc df de bd df 1a 63 bd 2f 24 27 be 16 6b 07 bd
       -0.108825415 -0.05544555 -0.16322397 -0.03306111
0000f0 ea 21 6a be e5 3d 21 be b3 b7 16 be 0a b5 ee bc
       -0.228645 -0.15746267 -0.14718513 -0.02913906

weight f4 [64, 64, 2, 2]
000000 c5 53 49 bc 4d 2c 32 bc c4 1f 55 bc c3 9d a8 bd
       -0.012288039 -0.01087482 -0.013008062 -0.08233216
000010 8a 84 9c bc df bc 14 3d 67 90 8e bc e4 60 3a 3c
       -0.019106168 0.036312934 -0.01740284 0.01137564
000020 5c 47 2b 3d 5d 0c 46 3d 52 ba 29 3d 92 66 84 3d
       0.0418161 0.048351634 0.041437455 0.06464876
000030 18 2b b5 3d 8b 45 ca 3d 36 65 dc 3d 65 13 83 3d
       0.0884611 0.098765455 0.10761492 0.064001836
000040 c3 94 50 3b 9f e1 06 3d 44 84 ca bc d8 67 91 bd
       0.003182695 0.032930013 -0.024721272 -0.07099885
000050 e4 f6 98 bc 31 15 e6 bb 58 56 bb bc d2 36 22 bd
       -0.018672414 -0.007021569 -0.02286832 -0.039603062
000060 b3 08 81 3d 2c 03 b2 3d 1b b2 d5 3c 90 b9 61 bb
       0.06300487 0.08692011 0.026085904 -0.003444288
000070 f9 a0 16 bd fe fc 1a bd f1 ad a3 bd 8b 34 a1 bd
       -0.03677461 -0.03783893 -0.07992161 -0.0787135
000080 fe 09 6f 3d d3 83 0d 3b 0b 71 13 3d 48 80 06 3c
       0.05835914 0.0021593466 0.035996478 0.008209296
000090 9b c8 6f bd d2 f9 80 bd 2f 35 74 bc e3 af 1e bd
       -0.05854092 -0.062976494 -0.014905258 -0.038741957
0000a0 37 16 5a bd 2a a0 d2 3c f3 d4 f1 bb b9 f8 83 bd
       -0.053243842 0.025711138 -0.007380122 -0.064439245
0000b0 1b 4c 64 3c fe 46 38 bd f2 07 65 3b 2e 71 6e 3d
       0.013934161 -0.04498958 0.0034947363 0.058213405
0000c0 53 46 8f 3d c7 b2 8d 3c cb 84 4e 3d f5 f9 31 3d
       0.06995835 0.017297162 0.05041961 0.04345127
0000d0 08 9c bf bd 5e 4b 9e bd 17 ba 87 bd 8d 8b 0c bd
       -0.093559325 -0.07729219 -0.06627291 -0.034312773
0000e0 57 55 8d bd b5 d8 41 3b 8e f1 0b 3d 7f 0a a0 3c
       -0.06901043 0.002957863 0.03416591 0.019536255
0000f0 67 76 4c bc 5a 5b 1c 3c d0 cc 96 bd de 45 3e bd
       -0.012479401 0.009543264 -0.07363284 -0.04645335
000100 1c 21 f7 bc 86 d4 76 3d df d9 91 3d f6 97 96 3d
       -0.030167155 0.060261272 0.07121634 0.07353203
000110 01 1e 7c bc 6b 4c ab 3d c7 42 56 3d ee bb 50 3c
       -0.015388013 0.08364185 0.052309778 0.012740118
000120 86 b1 0e 3d 1a 06 fb bc df c9 bb 3c 2b a9 52 bd
       0.03483727 -0.030642558 0.022923408 -0.051430862
000130 c5 dd 05 3d ea aa c1 3d 9a 6c d0 3d 80 33 89 bb
       0.0326822 0.094564274 0.10176964 -0.0041870475
000140 42 e1 81 bd 2e 9d 96 bc c9 f8 f0 ba 54 d3 28 bd
       -0.06341793 -0.018385496 -0.0018384691 -0.041217163
000150 c7 64 41 3c e9 c1 27 bd e4 56 80 3b dd 4d 37 bd
       0.011803812 -0.04095641 0.003916608 -0.04475199
000160 35 0a 5b bd 62 b3 ff bc bb 42 08 3d d9 74 32 bd
       -0.05347653 -0.031213466 0.033266764 -0.043568466
000170 a9 f8 9a bd b4 30 2d bd 99 23 d1 bb d0 71 7d bd
       -0.075669594 -0.042282775 -0.0063824174 -0.06187612
000180 c0 eb 77 3d fb 48 02 bd 78 5b 1d 3b 1b f0 66 3d
       0.060527563 -0.03180788 0.0024010818 0.056381326
000190 a5 94 72 3d 93 bc 97 bc d3 ff 39 bd 1b 15 ce 3c
       0.05922379 -0.018522536 -0.04540999 0.025156548
0001a0 ca 03 3a bc 92 c6 a5 bc 30 f0 92 bc ce cf 39 3a
       -0.011353442 -0.020236287 -0.017936796 0.0007088155
0001b0 b4 16 d3 3c f0 51 a3 bd 76 45 89 3c f1 09 7d bd
       0.025767662 -0.07974613 0.016756754 -0.06177706
0001c0 59 77 21 3c 07 4c e9 3c 25 8d 6d 3c 1c 0c 9c bb
       0.009855115 0.028478635 0.0144989835 -0.0047621857
0001d0 be e0 9a 3c c6 1c 02 3c 6e 79 8c bd f5 61 a0 bd
       0.018905994 0.00794143 -0.068590984 -0.07831184
0001e0 f1 e6 ba bd f8 4e a3 bd 8e 30 5e bd ba ea 73 bc
       -0.0912608 -0.079740465 -0.054245524 -0.014887506
0001f0 58 9f d7 bb af 05 19 3a cf a6 a3 bb f5 6c 88 bc
       -0.0065802746 0.0005837334 -0.0049942504 -0.016653517
000200 62 f3 1b bd fa 3e da bb d0 18 39 bd c7 a7 52 bd
       -0.038073905 -0.0066603394 -0.04518968 -0.051429536
000210 b8 85 90 3c e4 59 43 bd 8b 95 27 bc 60 17 e0 bc
       0.017641887 -0.04769315 -0.010228525 -0.027354896
000220 b7 3e ce bc 65 e7 c7 3b 9d 94 f7 bc b8 95 b6 3b
       -0.02517639 0.0061005824 -0.030222232 0.005572047
000230 69 93 9c bd 04 c2 94 bd 0e 3a 04 3d d0 bb 33 bd
       -0.07645304 -0.07263568 0.032281928 -0.043880284
000240 1b 92 84 bc 30 cc f7 bc 8f bc ab bc f5 d3 4c 3d
       -0.01618295 -0.030248731 -0.020963935 0.050006825
000250 6f 81 a8 3c 9f 28 04 bd 88 5c 3b 3b 06 3b 29 3d
       0.020569531 -0.0322653 0.0028589088 0.041316055
000260 dd ed 34 bd f0 17 98 bc 70 dc 5e bd 25 bb 34 3d
       -0.044172157 -0.018566102 -0.054409444 0.044123787
000270 81 97 ad bc b1 32 c3 3c e9 7c cf bc 83 31 a9 3c
       -0.021190407 0.023827882 -0.025328116 0.020653492
000280 60 fe 7c bc 05 f8 0f 3d d3 0e e6 3c c9 fb 67 3d
       -0.015441507 0.03514864 0.02808324 0.056636605
000290 66 ce d5 bd dd e7 b0 bc 28 39 07 be 47 d6 e8 bd
       -0.10439758 -0.021594936 -0.13205397 -0.11368995
0002a0 7b 37 97 bd 94 d2 ac bd f9 df c6 bc ec 44 b5 bc
       -0.07383629 -0.08438602 -0.02427672 -0.022127591
0002b0 f5 55 8c bd 59 ee a0 bd a7 b7 c9 bd c4 4c 61 bc
       -0.068523325 -0.07857961 -0.09849482 -0.0137512125
0002c0 b0 8f bb b9 7d 9d e0 3d 48 ca 89 bc 1e b7 bb 3d
       -0.00035774475 0.109675385 -0.016820088 0.09165786
0002d0 5b 5b 51 bd 30 a7 42 bd cf 42 1a be 58 ed da bd
       -0.051112514 -0.047522724 -0.15064548 -0.10689801
0002e0 55 d5 2a bc fc 95 21 bb 21 a6 5f bc 84 62 74 3c
       -0.010426839 -0.0024656048 -0.013650448 0.014916066
0002f0 79 cd 48 bd 4b 9e 79 bd da 37 90 bd 34 2f 33 bd
       -0.04902408 -0.060941976 -0.07041903 -0.04374619
000300 11 02 b8 bb f0 a9 0c bd 2b 55 ed 3c c8 53 fa bc
       -0.0056154807 -0.034341753 0.028971275 -0.030557528
000310 09 9b ad 3c b3 50 2d bd fb 55 65 bc 10 99 88 bd
       0.02119209 -0.04231329 -0.01399755 -0.06669819
000320 07 61 b9 bd 89 bb 79 3c 44 44 ec 3c e7 ef 10 bd
       -0.090517096 0.015242466 0.028841145 -0.03538504
000330 f4 6a 51 bc db cf 17 bc 46 6f ce 3c d5 40 83 bb
       -0.012781847 -0.009265865 0.025199544 -0.0040055313
000340 a1 2d 44 3d 7a 3b 4a 3b d9 ab ab bc 2a 57 ea bc
       0.047895078 0.0030858205 -0.020955967 -0.028606016
000350 13 9b 08 3d 06 b6 8d bc 08 8d 1c bd 77 af db 3c
       0.033351015 -0.01729871 -0.038220435 0.026817067
000360 d1 dc 01 bd 04 90 3d 3d 37 09 27 3d 43 bf 86 3d
       -0.031704728 0.046279922 0.040780272 0.06579449
000370 0f 32 ad bd a9 0d a1 bc e8 9b 9c bc 87 a5 18 bd
       -0.084568135 -0.019659834 -0.01911731 -0.037267234
000380 ba a9 fe bc c1 5f 16 bd 9e 70 75 bd 17 9b 07 bd
       -0.031086791 -0.03671241 -0.059921853 -0.03310689
000390 f1 5f 62 bd ee c6 90 bc 75 f4 85 b9 8e 00 05 bd
       -0.055267278 -0.017672982 -0.00025549871 -0.032471232
0003a0 f6 a6 c5 3c ee b2 cd 3d bc 2e 84 bc 59 2b 3a 3d
       0.024127465 0.10043894 -0.016135566 0.045451496
0003b0 dd 9a bb bd be 83 82 bd 81 8c 4e bd 22 5b a8 bd
       -0.09160397 -0.06372784 -0.050426964 -0.08220507
0003c0 40 d3 33 bb 4b 21 76 3c 87 0b e1 bb b6 ee 6c 3d
       -0.0027439147 0.015022586 -0.0068678292 0.05784484
0003d0 d7 10 e8 bd bf 20 b1 bd ff d8 00 be 6d a1 fc bd
       -0.11331337 -0.08648824 -0.12582777 -0.12335477
0003e0 0b cf 65 3c a5 4f 7e 3c d2 fc 55 3b 55 88 15 3d
       0.014026414 0.015521918 0.0032651913 0.03650697
0003f0 6a fd 52 bd 83 43 76 bd 5a e7 08 3c a2 01 97 bb
       -0.051511206 -0.060122978 0.00835594 -0.004608349

bias f4 [64]
000000 68 78 4e bc fd b8 55 bd 55 ce 04 bc 97 c0 15 bc
       -0.012601949 -0.05217837 -0.008105834 -0.009140155
000010 fc 4f 06 3d fc b1 7e bd 1c d2 0a bd 12 8c 3c 3d
       0.032791123 -0.062181458 -0.033891782 0.04603202
000020 f2 2c 68 3d d9 16 b2 3c 76 c1 96 3b 19 cf c7 bc
       0.05668349 0.02173941 0.004600699 -0.024390744
000030 43 3e f1 bc c9 a5 65 bb fd 45 41 3d 19 fb 68 3d
       -0.029448634 -0.0035041443 0.047185887 0.05688009
000040 fa c1 f4 3d 50 7d 8c 3c ba 63 c8 bc c9 e2 68 3c
       0.119510606 0.017149597 -0.024461616 0.014214226
000050 ea 61 8d bc df a8 20 3d 60 ff 2f bd c3 07 89 bc
       -0.017258603 0.039223548 -0.042968154 -0.016727334
000060 77 78 cf bc 99 b0 58 bd d2 a9 3b 3d a2 27 2e 3c
       -0.025325997 -0.05290279 0.04581625 0.010629566
000070 e0 eb ef bc 91 eb 81 3c 7d 5d b6 bd f3 df a9 3c
       -0.029287279 0.015859397 -0.0890455 0.02073667
000080 f2 c2 b6 3d aa e0 71 bc c5 b7 01 3d 54 fd 61 3d
       0.089239016 -0.014763037 0.031669397 0.055173233
000090 1b d2 6e 3c 6a 4f df 38 ed 07 1c 3c 7e a4 9d bd
       0.01457646 0.00010648261 0.009523374 -0.0769739
0000a0 06 ac 80 b9 99 c7 45 3c d3 ef 94 3c 6d 9d 0c 3c
       -0.0002454223 0.012071514 0.018180763 0.008582455
0000b0 68 d2 f1 3c 41 9f 58 3c 31 63 94 3a 61 11 94 bc
       0.029519275 0.013221563 0.0011321065 -0.018074693
0000c0 c6 40 f9 bb d8 72 2a 3c ea b7 9f bd 87 f1 08 bc
       -0.0076065985 0.010403357 -0.07798751 -0.008358366
0000d0 d5 ab a8 bd 79 c5 64 bd 94 5a 16 3d 8d be 00 be
       -0.08235899 -0.055852387 0.036707476 -0.1257269
0000e0 8c c4 ac bd fd 2c f4 bc 70 09 87 bd 15 58 93 bb
       -0.08435926 -0.029806608 -0.06593597 -0.004496584
0000f0 00 59 0f bd cf e7 aa bb ad c1 d8 bc 91 23 18 3d
       -0.034996986 -0.005215622 -0.02645954 0.037143294
