output/train_12_12_23_part-6/unet_tgs_salt.pth (torch, 247319 bytes, 26 tensors)

weight f4 [16, 3, 2, 2]
000000 81 0b 2d 3d d6 b5 92 3e d3 22 30 3e 8e dc 80 3e
       0.0422473 0.28654355 0.17200784 0.2516827
000010 1d cd ff be bb 2d 42 be 08 22 c9 be 67 a2 ee be
       -0.49961177 -0.18962757 -0.39283776 -0.46608278
000020 d9 6d d4 be f0 51 43 be 71 d3 27 bf 6e 47 27 bf
       -0.41490057 -0.19074225 -0.6555701 -0.6534337
000030 1f 8d a0 be b9 1c bf bd a3 28 12 be 99 88 0f be
       -0.31357667 -0.0933165 -0.14273314 -0.14016952
000040 0b eb a5 bd c9 72 01 be be 1a 56 be 20 24 a7 3d
       -0.081014715 -0.12641443 -0.20908639 0.08161187
000050 4b ec 70 3e cf 8d 58 bd f1 c5 12 3e 60 60 7d 3d
       0.23527639 -0.052869614 0.14333321 0.06185949
000060 75 bc 15 3e 55 1a 79 be 78 38 5a 3e ad a8 c8 3d
       0.14622672 -0.24326451 0.21310604 0.09797797
000070 ec b3 46 3d c1 78 43 3d dc a3 a4 be ca 09 9a 3c
       0.04851143 0.04772258 -0.32156265 0.018803496
000080 96 62 7d be 4f 01 56 3e ee f4 40 3d 99 7f 7c be
       -0.24744639 0.20898937 0.047108583 -0.2465805
000090 5c 21 44 be a2 f0 4b 3e 74 76 24 3e f2 79 71 3d
       -0.1915335 0.19916013 0.16060811 0.058954187
0000a0 60 0d b6 bc b5 04 87 be 6a ab 93 be 8c ea 14 be
       -0.022223175 -0.2637078 -0.28841716 -0.14542598
0000b0 70 c3 03 bd 86 06 9b be 2a 39 c9 be e7 e1 84 3d
       -0.032168806 -0.30278414 -0.39301425 0.064884
0000c0 1a 26 76 3d 82 ab 90 be c3 41 13 be 2b 29 c6 3b
       0.06009493 -0.2825585 -0.14380555 0.006047388
0000d0 44 32 a2 bd 02 f4 ee bc 3b 24 53 3e f6 f3 2f be
       -0.07919744 -0.029169086 0.2061929 -0.17182907
0000e0 ae 7e 3b be 5e 66 29 3c f4 88 24 be 54 5b 78 3e
       -0.18310043 0.010339348 -0.16067868 0.24253589
0000f0 ba 06 b0 3d f0 5c 91 3b 9c dd ed bd a0 d3 1c bd
       0.08595033 0.004436128 -0.11614534 -0.03828776
000100 9e 57 0e be c3 79 ae be fb 3d 8f 3d a4 96 e3 be
       -0.13900611 -0.34077272 0.06994244 -0.44450867
000110 a7 d6 6f 3e 04 a3 18 3d 15 29 5f be 12 0c 3d bd
       0.23421727 0.03726484 -0.21793015 -0.04615409
000120 b0 a8 09 3e 32 b2 de 3d 82 14 63 39 4a 17 8e be
       0.13443255 0.10873832 0.00021656047 -0.27752143
000130 45 01 a0 3d 03 65 fa 3c 01 57 aa bd cd a0 a2 be
       0.07812742 0.030565744 -0.08317376 -0.31763306
000140 7d 7f 10 3b 2a f8 b6 be 13 c4 e4 be ef 0f 03 bf
       0.0022048645 -0.3573621 -0.44680843 -0.5119619
000150 ce d8 2c 3e 76 65 b0 be dd 48 de 3d c2 aa 80 bc
       0.1687958 -0.3445241 0.10853741 -0.015706424
000160 c9 b9 9f be bb 61 42 be 5b 7e a2 bd 43 9c fe bb
       -0.3119643 -0.18982594 -0.07934257 -0.0077700927
000170 c0 46 b0 be be 32 ec 3a 1f 28 c0 3d ad 1b fe 3d
       -0.34428978 0.0018020493 0.093826525 0.124076225
000180 ff 89 36 be 50 c3 8f be 8b 3a 31 bd bc cf b7 be
       -0.17826079 -0.280787 -0.04326872 -0.35900676
000190 ca a5 7d bb d1 55 61 be ed 3c 87 be 2e 65 10 be
       -0.0038703554 -0.22005393 -0.2641367 -0.14101097
0001a0 0a 89 2a 3b de 35 ba bc 53 48 07 be 2e 2b e9 bd
       0.0026021623 -0.022730764 -0.13211183 -0.11385189
0001b0 a2 41 04 3f b3 59 e9 3e e2 45 20 3f 52 8a ca 3e
       0.5166265 0.45576248 0.6260663 0.39558655
0001c0 0d 2e 60 bf 22 ca 64 bf ea 60 5e bf 32 f6 0f bf
       -0.8757027 -0.8937093 -0.8686663 -0.5623504
0001d0 e3 51 99 3e d4 d0 37 3d 49 26 64 3e 19 ea 9d 3d
       0.29945287 0.04487689 0.2228023 0.07710666
0001e0 c9 15 c4 be dd f1 a5 be 63 7c 90 be 2b 19 43 bf
       -0.3829787 -0.3241109 -0.282199 -0.7621028
0001f0 94 50 8f 3e d9 91 1e 3f ab 39 de 3e 3a b6 1b 3e
       0.27991164 0.61941296 0.43403372 0.15206233
000200 9f 1b 22 3e 1c db 8d be 2b ea ce be 10 fa 4e bf
       0.15830849 -0.2770623 -0.4041303 -0.80850315
000210 06 64 82 bd 65 da 80 be 84 65 98 bd 30 51 69 3e
       -0.06366734 -0.25166622 -0.074412376 0.22784877
000220 9b 93 19 3f b7 0e 3c 3f 92 ff 09 3f 3f c2 46 3f
       0.59990853 0.73459953 0.53905594 0.77640146
000230 de 13 39 bf 13 60 46 bf d9 0f 33 bf b5 b4 69 bf
       -0.7229594 -0.7749035 -0.69946057 -0.9129136
000240 2e 17 04 3e 5a 47 11 3d 9f 1f 50 be 9c 87 4f be
       0.12899467 0.035468437 -0.20324562 -0.20266575
000250 ad d6 3f bd f9 55 66 3e 2b cf 57 3e 18 1d 59 be
       -0.04683559 0.22493733 0.21075122 -0.21202505
000260 15 19 81 bd c8 33 0c 3e e3 28 73 be e3 d1 3f be
       -0.06303612 0.13691628 -0.23746066 -0.18732409
000270 e0 32 ab be e8 b6 21 bf a4 22 d3 be 39 a6 bb bd
       -0.33437252 -0.6316972 -0.41237366 -0.09162564
000280 56 ae f9 bd db a4 d2 bd c5 88 1e bf f5 40 8d be
       -0.12191455 -0.1028535 -0.61927444 -0.2758862
000290 30 99 96 3e c5 d5 1c 3f 47 7c eb 3e 15 69 12 3f
       0.29413748 0.61263686 0.45993254 0.5719159
0002a0 dc 70 ca 3d 77 59 c2 bb 08 5f 9d bd 9c a7 c2 3d
       0.098848075 -0.005931075 -0.076841414 0.09504625
0002b0 52 26 97 3d b5 b6 d1 bc c0 bd c7 be 6a 51 d5 bd
       0.07380356 -0.025599817 -0.39011955 -0.10415919
0002c0 61 1f 9e 3c 9a 1c d3 bd 4b 45 03 bd 20 5b 47 be
       0.019302072 -0.1030819 -0.032048505 -0.19468355
0002d0 7f fa 47 be 8e 5c 4a 3d a9 a1 b3 bd 08 2e 1f bd
       -0.1952915 0.049404673 -0.087710686 -0.03886226
0002e0 67 76 f3 bb 10 92 00 be b4 2b 42 3e 53 ee 88 be
       -0.007429886 -0.12555718 0.18961984 -0.26744327
0002f0 0c 84 75 be 70 07 8d be a4 9c 87 be 77 9a 1d be
       -0.23976153 -0.27544737 -0.26486695 -0.15390955

bias f4 [16]
000000 a0 d9 b5 be f1 7d 99 be 87 e1 59 be 63 f0 18 be
       -0.35517597 -0.29978898 -0.21277438 -0.1493545
000010 8d a9 44 be 48 4c 93 3b c0 59 2d be 0d 96 33 be
       -0.19205303 0.0044951774 -0.16928768 -0.17537709
000020 d8 74 af bc 98 48 92 3e 8f a9 ec 3e bb e5 bf 3e
       -0.02141802 0.2857101 0.46223113 0.37479958
000030 f4 43 6f be 4f 85 8f 3e 74 53 26 bd 8f 26 e9 bd
       -0.23365766 0.28031394 -0.04060693 -0.113843076

weight f4 [16, 16, 2, 2]
000000 bd 23 ae bc 0c 51 ff bd 30 cc 08 3e a2 23 13 3b
       -0.021257276 -0.1246663 0.13359141 0.0022451659
000010 e0 27 33 bd 39 d7 e4 ba 4b 7b 86 bd e5 0b 99 3c
       -0.0437392 -0.0017459161 -0.06566485 0.01868243
000020 fc 01 f5 bc 97 20 ce 3c 17 66 e8 bd 86 7e aa 3c
       -0.029908173 0.025162024 -0.11347597 0.020812284
000030 68 3a a0 3c c6 1e 1e 3e f1 a9 b4 3d 37 c5 3f bc
       0.0195591 0.15441427 0.08821476 -0.0117047345
000040 28 01 9f 3d a9 0a b4 bd 55 7d b0 3d 81 9b f9 bc
       0.077638924 -0.08791096 0.08617655 -0.030469658
000050 61 da 90 3d 56 25 62 3e ac e0 92 3a 9b 28 b4 3c
       0.070729025 0.22084555 0.0011205873 0.021992018
000060 7d f4 b4 3d 4f 39 46 3d b9 79 1a 3e b0 f3 27 3e
       0.08835695 0.048394497 0.15085496 0.16401553
000070 0b bb 98 bc 19 02 db bd 7b 63 e3 bb ec 6b 0a 3d
       -0.018643877 -0.106937595 -0.006939349 0.03379433
000080 6e b3 23 3e bf e8 16 3e f0 09 0f 3e b2 71 05 3e
       0.15986416 0.14737223 0.13968635 0.13031653
000090 4e 6b 1b bb 4e 67 57 3d 52 c5 dc 3d b0 39 b4 3d
       -0.0023715082 0.052588753 0.10779823 0.088000655
0000a0 99 0c 70 3e 85 12 76 3e b4 5d f5 3d ee e7 6f 3e
       0.23442306 0.24030502 0.11980763 0.23428318
0000b0 9a d8 a8 3e 33 d3 09 3f 96 e5 91 3e d8 71 d4 3e
       0.32977754 0.5383789 0.28495473 0.41493106
0000c0 60 d4 8b 3d 1e b4 dc bd c8 08 33 bd 60 96 1f 3c
       0.06827617 -0.10776542 -0.043709546 0.009740442
0000d0 73 a1 0d 3e ef ec ce 3d 4f ed a5 3d a0 48 64 3d
       0.13831119 0.10103785 0.08101904 0.055733323
0000e0 ad fc 9c 3d 06 45 f6 3d 37 96 60 3d f8 dc 56 bd
       0.076653816 0.12024884 0.054830756 -0.052456826
0000f0 38 69 fa bc 7c 06 8d bd b2 b3 89 3d f2 79 c9 bd
       -0.03056775 -0.068860024 0.06723727 -0.09837712
000100 1b 21 89 be 99 70 7c bd 69 75 b8 bd 36 da ca bd
       -0.2678307 -0.06163082 -0.09006769 -0.09904902
000110 c1 a6 bc bd de ec e7 bc 72 37 02 be bb 7b 83 3d
       -0.09211493 -0.02831119 -0.12716463 0.06420084
000120 02 9a c3 bd 4b 40 9b 3d 51 eb ad bd 34 fb a2 3d
       -0.09550859 0.07580622 -0.08492149 0.079580694
000130 c4 dc 2c 3d 3e 5d cc 3c 76 dd 92 bd 97 fc 01 be
       0.042202726 0.024946805 -0.071711466 -0.12694012
000140 58 44 07 bb 35 21 83 3d a2 7e 3e bc eb 0b 8f 3d
       -0.0020640101 0.06402818 -0.011626871 0.06984695
000150 bb 8f 3e 3d 2c 42 73 bd 5d 4a 08 3c ac 13 b0 3c
       0.04652379 -0.05938928 0.008318511 0.021493755
000160 da 31 30 3b 91 4a 21 bb 9c be 9a 3c a2 fa 66 bd
       0.0026885183 -0.0024611095 0.018889718 -0.056391366
000170 ae a7 25 3d 9b 30 ab bd f5 9e b7 bc 8d db 0a bd
       0.040443115 -0.0835888 -0.022414664 -0.033900786
000180 6b 63 2d be 2f c1 16 bd bb 6f ec 3c 46 c9 27 be
       -0.16932456 -0.036805328 0.028861871 -0.16385373
000190 99 06 e4 bd a3 cd 18 be 69 e4 fd 3d be 59 dd 3d
       -0.11134071 -0.14922194 0.123970814 0.108081326
0001a0 ab c7 2c be a8 e5 ec 3c 50 e3 87 bd 27 c1 21 be
       -0.16873042 0.028918102 -0.06635153 -0.15796338
0001b0 1d d0 8a be 1f 18 16 3e 03 19 f1 bd 11 cd 8f 3e
       -0.27111903 0.14657639 -0.11772349 0.2808614
0001c0 98 52 fd bc 5e aa cd 3d 6e 8d 84 3d f0 c6 49 3c
       -0.030923173 0.100422606 0.06472288 0.012315497
0001d0 42 50 cc 3d 46 6f b6 bd 70 ca e9 bd d2 18 91 bc
       0.099762455 -0.089079425 -0.11415565 -0.01771203
0001e0 e1 43 11 bc 67 bd a8 bd b9 0a ee 3c ac 54 58 bc
       -0.008866281 -0.08239251 0.029057847 -0.013203781
0001f0 68 9f ff bc 4c ba cb 3d 86 22 91 bd 0c 1e 7b 3d
       -0.03120394 0.09947643 -0.07086663 0.06130795
000200 fe 51 ae bb 89 3b 14 bd ce 6f 7b 3c b4 8d 4c 3d
       -0.005319833 -0.03618959 0.0153464805 0.049939826
000210 ab 8f d3 bb fd 75 b0 bd d6 e8 c3 bb 53 1d c9 3b
       -0.0064563355 -0.086162545 -0.005978684 0.006137529
000220 ec 10 45 bd 87 c0 d7 bd a3 f0 f6 3a 09 48 90 3d
       -0.04811184 -0.105347686 0.0018840026 0.070449896
000230 da 20 cf bc 7c e9 b1 3d 1f 82 9b bb 5a 20 58 bd
       -0.02528422 0.08687112 -0.0047457363 -0.052765228
000240 e0 9f 64 bd 92 80 0e 3d a0 49 25 3c 3b f1 ff bc
       -0.05581653 0.034790583 0.010088354 -0.031242957
000250 73 fd 6a 3e 5c 24 de 3d d1 35 90 3d 3c d2 4b 3e
       0.22948246 0.10846779 0.07041515 0.19904417
000260 af 29 ad 3d 68 0a 7d bd d4 c2 65 3d 0f 6d 84 bc
       0.08455216 -0.061777502 0.056094006 -0.016165284
000270 06 f5 65 bd 62 f1 53 3c 7d f1 4e 3d 12 27 36 bd
       -0.056141876 0.012935968 0.05052327 -0.044470854
000280 ce 2e 32 bd 73 3e 98 bd e1 87 de 3d 07 27 89 bd
       -0.043501668 -0.07433786 0.108657606 -0.06696897
000290 00 2f fa bd d7 76 58 3d ee 72 a3 3b 6d d4 ae 3e
       -0.12215996 0.05284771 0.004988066 0.34146443
0002a0 3e 21 06 be 3f 79 0a bd 2f 16 57 bc 63 f5 8b 3d
       -0.13098618 -0.033807036 -0.013127848 0.06833913
0002b0 21 01 22 be c1 94 8f bd 73 71 8c 3d 0a e0 8f 3d
       -0.15820743 -0.070107944 0.06857576 0.07025154
0002c0 40 3f d9 3c 00 f5 5c ba 5c 58 02 bd ee ba c1 3d
       0.026519418 -0.0008428842 -0.031822547 0.09459482
0002d0 0a c5 7d be a7 74 c9 be a8 49 65 be 71 47 4c be
       -0.24782196 -0.3934681 -0.22391379 -0.19949128
0002e0 bc 6c 49 bc 88 72 fe 3d 98 e2 95 3c 91 3d 45 3e
       -0.012293991 0.12424189 0.018296525 0.19261767
0002f0 1e 81 8a 3d a0 11 3c 3c c0 b9 0e 3b 18 38 4d 3d
       0.067629084 0.0114788115 0.0021778196 0.050102323
000300 67 0a ed bd cf ab d5 3b f6 ce a7 3d 36 02 96 bc
       -0.1157425 0.0065207253 0.081937715 -0.018311601
000310 e1 bb f3 3d e2 ae 98 bd 54 9d 3b 3d ce 8e c6 3d
       0.119010694 -0.07455231 0.045804337 0.096952066
000320 52 e7 f6 bc 5a b6 6a 3d 86 e0 7d 3b c9 de 91 3d
       -0.030139599 0.05730281 0.0038738563 0.07122571
000330 25 db c5 bd 15 7d 07 3e a9 78 eb bd d9 a5 13 3d
       -0.09660939 0.13231309 -0.114976235 0.036046837
000340 64 ec ba 3d e0 04 92 bd 43 70 73 3d 10 7e b2 3d
       0.09127119 -0.07129836 0.059433233 0.08715451
000350 45 c7 65 be e6 ba 02 be 86 f1 ef bd 22 92 ea bd
       -0.22439297 -0.12766609 -0.11715989 -0.11453654
000360 e7 0c 0a 3e 95 73 1c 3e f4 1d 05 3e d9 2d 2f 3e
       0.13481484 0.15278466 0.12999707 0.17107333
000370 32 76 f7 bb 73 1d 27 bc 69 96 c8 bc f0 35 10 3d
       -0.007551932 -0.010199892 -0.024485784 0.03520769
000380 19 6b 81 3c 2d 6f b8 3d b0 01 b7 bd bc 1f 04 3e
       0.015798138 0.0900558 -0.08935869 0.1290273
000390 27 31 f4 3d 2e b2 4f 3e ce cb 73 3d ce 85 3e 3e
       0.119234376 0.20282814 0.059520535 0.1860573
0003a0 a8 0e 2f 3b 47 95 55 3e 33 11 d7 3d 6e 63 9a 3e
       0.0026711617 0.20857726 0.10501327 0.30153984
0003b0 3a 92 ad 3d 7b 1d 38 3e 60 45 01 3d 01 d5 c5 3d
       0.08475156 0.17979996 0.0315603 0.09659768
0003c0 50 16 2f bc 9c ed 6b 3d 54 4d 6f 3d 60 d3 b7 3c
       -0.010686472 0.05759965 0.058423355 0.022439659
0003d0 49 05 d7 bd 84 e9 44 be 31 8e 1e 3d de 30 1a be
       -0.10499055 -0.19229704 0.038709823 -0.15057704
0003e0 91 85 70 3c be d4 e2 bc 13 d6 55 3d 57 68 82 bd
       0.014680282 -0.027689334 0.05220611 -0.063675575
0003f0 4c 0c 50 bd 00 1e e1 ba 80 b7 92 3c 3e f9 92 bd
       -0.050792977 -0.0017175078 0.017909765 -0.071764454

bias f4 [16]
000000 d5 62 d8 bd 1e 97 20 3c 6b c4 5d 3d dc 38 9b be
       -0.10565726 0.009801654 0.054142397 -0.30316818
000010 d0 6d 40 bc 64 d7 3a 3d 98 a2 cd 3d 82 8d 4b bc
       -0.011744931 0.04561557 0.10040778 -0.012423875
000020 d2 06 45 bd eb 2b 80 bc 24 77 4b bc 03 dc 6d be
       -0.048102207 -0.015645942 -0.012418542 -0.23228459
000030 11 8e 80 3c 03 7f 43 bc 60 fc 10 3b 58 c4 d5 3d
       0.015692743 -0.011932137 0.0022123083 0.1043784

weight f4 [32, 16, 2, 2]
000000 71 c7 79 3c b4 dc 08 3e b6 da 0b 3e d4 df be 3c
       0.015245304 0.13365442 0.1365765 0.023300089
000010 1a 76 68 be 34 a5 73 be 53 0c 05 be 7b 8c 39 be
       -0.22701302 -0.23793489 -0.12992983 -0.18119995
000020 5e 26 08 be ef be cd bd ed 0e 9f bd 52 86 04 be
       -0.13295886 -0.10046183 -0.07766519 -0.12941864
000030 ad 5d 7b 3e 60 9b 04 3e 35 3c 8b 3e 75 51 b2 3d
       0.24547453 0.12949896 0.27194372 0.08706943
000040 27 2f 16 3e e6 2a 26 3d 98 94 fb 3d 0a de c6 3d
       0.14666425 0.040568255 0.122842014 0.09710319
000050 f7 a9 83 3e 1e 4c 6d 3e 49 27 fe 3d 46 20 2f 3e
       0.2571561 0.23173568 0.12409837 0.17102155
000060 7c c0 4a be 90 8c bb bd 27 39 74 be 8c 9f fc bd
       -0.1979999 -0.091576695 -0.23849927 -0.12335119
000070 3c 6a ec 3d d7 cd 7d bd 63 72 5d bd 33 6d 01 3d
       0.115437 -0.061963882 -0.054064166 0.03159828
000080 0b 55 e2 3d 1b 30 3d 3e cf 78 9e 3e f2 2f 6b 3e
       0.11051377 0.18475382 0.30951545 0.22967508
000090 9c 5b 51 bd 5b f2 77 be f0 ca 5f be 5a ec 33 be
       -0.051112756 -0.24213545 -0.21854758 -0.1757063
0000a0 b6 f9 4a 3c 36 8e 80 3e 5e 09 5c 3d 6b 57 5e 3e
       0.012388637 0.25108498 0.05371987 0.21713035
0000b0 38 9a 4a 3e 0e 4c 2f 3e 9d f3 72 3d 87 82 2c 3e
       0.19785392 0.17118856 0.05931436 0.16846667
0000c0 62 e7 d4 bd 94 50 a0 bd ad 8b 16 be 64 db 98 3d
       -0.10395695 -0.07827869 -0.1470172 0.074637204
0000d0 1b c2 c3 bc b1 e6 10 be 63 42 80 be 97 5e 28 be
       -0.023896268 -0.14150502 -0.2505065 -0.16442333
0000e0 72 fa 41 be 64 0b 4c be 78 d2 bf bd 4e c5 97 bd
       -0.18943194 -0.1992622 -0.093663156 -0.0741068
0000f0 61 0f 76 3c 00 31 95 3c 69 b7 e8 bd b2 54 82 3c
       0.015018315 0.018211842 -0.11363108 0.015909526
000100 1e dc 1b be 38 1d 9f be 50 46 41 be 10 28 0c be
       -0.15220687 -0.3107698 -0.18874478 -0.13687158
000110 b9 91 4d 3e fd a9 3a 3e f8 da 35 3d 39 80 38 3e
       0.2007512 0.18228908 0.044398278 0.18017663
000120 99 02 d5 3d f7 de 4e 3a 2f ae f3 3d 8c c4 c3 3d
       0.10400886 0.0007891501 0.11898457 0.09558973
000130 c5 23 82 be c2 9e 80 be 04 25 76 be 09 c2 9c be
       -0.25417915 -0.25121123 -0.24037558 -0.30616787
000140 e1 42 ba bd 2a 0d f6 bd d0 b9 ee bc af 5b dd bd
       -0.090947874 -0.120142296 -0.029141337 -0.10808503
000150 c4 b2 56 be 34 2e e7 bd c1 be f4 bd 5a 09 84 bd
       -0.20966631 -0.112881094 -0.11950446 -0.06447096
000160 a7 d5 1e 3e 8c cb 92 3e 2c 96 42 3e 03 ec 5a 3e
       0.1551119 0.2867092 0.19002599 0.21379094
000170 6b 81 51 3e 3b c2 64 3e e7 6b 42 3e 52 ec c3 3e
       0.20459525 0.22339718 0.18986474 0.38266236
000180 ae 36 93 bd cd c9 67 ba 33 e2 13 3d 66 a1 3f bd
       -0.07188164 -0.00088420213 0.036104392 -0.04678478
000190 b5 72 4c 3e d7 8f 6f 3e ce 4b 9b 3e d2 ae 86 3e
       0.19965632 0.23394714 0.30331272 0.26305252
0001a0 d6 f4 84 bd 19 bc 2c be 07 d6 b2 bd c3 44 76 be
       -0.06492011 -0.16868629 -0.08732229 -0.24049668
0001b0 29 0f 8c be ac 95 cb be 55 fa be be d1 d2 d2 be
       -0.27355316 -0.39762628 -0.37300363 -0.41176465
0001c0 1a d2 5a be b0 08 cb bd e0 0a 9c be 51 c5 17 be
       -0.2136921 -0.099137664 -0.30477047 -0.14821364
0001d0 c8 6b bf 3e 15 7a 99 3e 74 34 85 3e f5 c0 13 3e
       0.37386918 0.29975954 0.2601658 0.14429076
0001e0 1b b2 8f bd 3c 6c 1b be 80 98 ec bd 8f b6 70 be
       -0.07016393 -0.15178007 -0.115525246 -0.2350714
0001f0 3b 24 7c 3e 64 63 8d 3e aa af 49 3e ea 84 46 3e
       0.24623196 0.27614892 0.19695917 0.1938664
000200 7a d2 85 3d c2 65 92 3d 00 54 26 3e f6 d4 0f 3d
       0.06534286 0.07148315 0.16242981 0.035115205
000210 d4 11 92 bc bb 86 ac bd 36 8d 24 be ca 50 d3 bc
       -0.017830767 -0.08424135 -0.16069493 -0.02579536
000220 e7 6a 77 3c 97 a3 32 3e b3 05 1f 3d 24 c5 bb bc
       0.015101171 0.17445217 0.038823795 -0.022921152
000230 e0 c1 81 3e d0 f5 7f 3e b0 82 87 3e 05 a1 a1 3e
       0.25343227 0.24996114 0.26466894 0.3156816
000240 13 5f 46 bd 97 5b 8d bd c3 d9 1f 3c 95 49 05 bd
       -0.048430514 -0.06902235 0.009756508 -0.032540876
000250 a6 cc 1f 3e 12 2c 18 3e 08 35 a2 3d 02 a4 8a 3e
       0.15605411 0.14860561 0.07920271 0.27078253
000260 c1 df ef bd 2f fe 59 be 73 4b 56 bc 99 1f b6 3c
       -0.117125995 -0.2128837 -0.013079512 0.022231864
000270 f1 cb 26 be ff 1b 6f be f7 c1 87 be 1f f4 30 be
       -0.16288735 -0.23350523 -0.2651517 -0.17280625
000280 2e d9 b5 be 51 ee 68 be e5 84 93 be 3d 38 d2 be
       -0.35517257 -0.2274716 -0.28812328 -0.4105853
000290 21 06 d6 bd fd a1 82 be e6 06 08 be 64 81 6c be
       -0.10450388 -0.25514212 -0.13283882 -0.23096234
0002a0 2c 06 0a 3d 87 13 ad 3d 1a 91 c0 3d ea 58 4e 3d
       0.033697292 0.0845099 0.09402676 0.050377764
0002b0 41 f4 41 3e 00 18 82 3d f1 83 42 3e 49 87 41 3c
       0.18940832 0.06352234 0.18995644 0.01181204
0002c0 66 36 a3 3e 61 0c bb 3e 0d 8b d1 3e a1 6f cc 3e
       0.3187744 0.36532882 0.409264 0.39928916
0002d0 b1 cc 42 be 20 3f a0 bd 65 ca 63 be f1 93 d0 bd
       -0.19023396 -0.0782454 -0.22245176 -0.101844676
0002e0 b6 59 8e 3e 10 52 85 3e 22 3b af 3e 9a 4b 9a 3e
       0.2780282 0.2603917 0.34224802 0.30135804
0002f0 10 ca 9b bd bc 2b de 3c ba bf d8 bc b4 65 d7 bc
       -0.076069 0.027120464 -0.02645861 -0.026293613
000300 66 5b dd 3d 7e 90 c9 3c e1 25 59 3d c5 ec 50 bd
       0.108084485 0.024605032 0.05301464 -0.05100705
000310 8b d7 3f 3d 81 34 a6 3d fa 61 8a 3d 2e 38 97 3c
       0.046836417 0.08115483 0.06756969 0.018459406
000320 f7 56 11 bd 65 63 d8 3d 2a c9 b7 bc 08 9d 91 bd
       -0.035483327 0.10565833 -0.02243479 -0.071100295
000330 cb 20 1e 3e f8 e9 30 3a 4b cc 83 bc 94 dd 32 bc
       0.15442197 0.0006748731 -0.016088625 -0.010917086
000340 20 9e ec bd 0f 5a 8a bc 62 7a 1c be 76 77 b4 bd
       -0.115535975 -0.016888646 -0.1528106 -0.08811848
000350 02 be 19 bc 2b ef 40 3d 1e 74 7e 3c 80 c5 2a 3c
       -0.00938368 0.04710309 0.015530614 0.010423064
000360 6c 42 e8 bd 09 3f bb 3d 7e 2a b2 bc 8e fe fa ba
       -0.11340794 0.091428824 -0.021748777 -0.001914935
000370 77 59 e0 3d 77 45 91 3c 5c fd 43 bd 78 07 85 bc
       0.10954564 0.017733319 -0.047849044 -0.016238913
000380 1d ed 9e 3d d2 ed 22 bd 45 3d 3a 3e 32 5d 29 3e
       0.077600695 -0.039777584 0.18187435 0.16539457
000390 14 36 04 bd b7 e8 17 3d a4 bc 19 3d 3e 34 4b 3d
       -0.032278135 0.03708717 0.037533417 0.04961037
0003a0 e8 27 88 bd 25 94 77 bd 9c a2 0e 3e fb ec 22 3e
       -0.066482365 -0.060444016 0.13929218 0.15910713
0003b0 78 65 eb 3b 0e c2 05 3e 52 03 27 3e 9d 7d 22 3e
       0.007183727 0.13062307 0.1630986 0.1586823
0003c0 46 0f e2 3d e1 ed e1 3d c6 5a ad 3d 68 76 db 3c
       0.110380694 0.110317 0.08464579 0.026789859
0003d0 c7 ed 7d 3d 9e b0 00 be f8 ec b4 3a 21 21 90 3d
       0.06199434 -0.12567374 0.0013803532 0.07037569
0003e0 26 3e 7f bd 94 bd 4e bc 84 88 55 bc 86 46 a5 3a
       -0.06231513 -0.012618441 -0.013033036 0.0012609519
0003f0 59 8e d9 bd 31 cd 3e bd 8a 4d 10 be 5d 67 4a 3d
       -0.10622854 -0.046582405 -0.14092079 0.04941498

bias f4 [32]
000000 80 4a 79 be 18 ce c2 3e 5b 26 85 be c6 ad dc bb
       -0.24344826 0.38047862 -0.26005825 -0.0067345826
000010 3b f7 44 be f0 d1 0c bd 0d 35 8f 3d 92 af 48 3e
       -0.19234936 -0.0343799 0.069925405 0.19598225
000020 a6 b6 28 3d 33 8f 29 bd 74 a1 83 3d be be c5 3b
       0.041189812 -0.04139633 0.06427279 0.006034701
000030 44 3f ba bd 07 6c cd bd dd 40 69 be b9 4b 92 3d
       -0.09094098 -0.1003037 -0.2277865 0.07143349
000040 c4 3c a7 3c ff e7 2e 3e 90 7f a2 3c 18 2b ce be
       0.020414717 0.17080687 0.019836217 -0.40267253
000050 d5 5f bd bd 1d 31 05 be e7 3b 78 be 5a e8 91 3e
       -0.09246794 -0.13007016 -0.24241601 0.28497583
000060 e1 5b 17 3d 0d d4 03 be 5b 75 0c be f9 3f bf bd
       0.036952857 -0.1287386 -0.13716643 -0.09338374
000070 9d 28 5f 3d 4a 80 1b be 80 4a 71 3e 05 bd 7c be
       0.05448209 -0.15185657 0.23563576 -0.2468148

weight f4 [32, 32, 2, 2]
000000 57 d3 91 3d ff 2e 0d 3e 26 72 38 3d f1 ed d5 3d
       0.07120388 0.13787459 0.045030735 0.10445774
000010 13 00 65 be 96 26 49 be de db 13 be e6 1e 8f be
       -0.2236331 -0.19643626 -0.14439341 -0.2795326
000020 76 95 26 be 49 30 31 be 60 ab 95 bd b1 db ed bd
       -0.16267952 -0.17303576 -0.07308078 -0.116141684
000030 99 11 7b bd 70 09 d9 3b f2 99 3c 3d 76 39 98 bc
       -0.06129608 0.0066234395 0.04604525 -0.018582087
000040 c5 c7 de 3b f3 39 84 3c 4f 3c ec 3c 3a b7 28 3d
       0.0067987167 0.016140914 0.028837351 0.041190363
000050 71 c9 a4 bd 05 8b 88 bd 3b 7c 82 bb 2a 96 b5 bb
       -0.080462344 -0.06667141 -0.0039820946 -0.0055415826
000060 dd 78 65 3a 70 87 8a bc 0b bb c6 bd cd 3c 58 3d
       0.0008753667 -0.016910285 -0.09703644 0.05279236
000070 63 91 52 be bf 05 4d be 27 fd 06 be 56 e8 30 be
       -0.20563273 -0.20021723 -0.13182507 -0.17276129
000080 02 3e c1 bb 6f c0 dd bd b9 bd a2 3a e1 a2 6a bc
       -0.0058972845 -0.108277194 0.0012416161 -0.01432106
000090 94 51 14 be ec 24 28 be c4 49 ed bd b8 d6 ba bd
       -0.14484245 -0.16420335 -0.11586335 -0.091229856
0000a0 0c 87 a8 bd 46 ac 72 3c d0 c0 29 bd 0a a9 cf bc
       -0.08228883 0.014811581 -0.041443646 -0.025349159
0000b0 37 7d 46 bd c9 b2 18 bc 9a 4d f5 3c 75 09 f1 bd
       -0.048459258 -0.009319969 0.02994423 -0.11769382
0000c0 1f 88 44 be 56 7f f1 bd 02 5b 9b bd 99 d5 11 be
       -0.19192551 -0.117918655 -0.07585718 -0.14241637
0000d0 db 6b d4 bd 7a 6e ef bd 4f 6f 29 bd 36 f7 14 bd
       -0.10372134 -0.116909936 -0.041365918 -0.03636857
0000e0 cf 9d 10 3e a5 6a ef bc 99 de b6 bc 7c 0d 2e 3d
       0.14122699 -0.029225657 -0.02232294 0.04249333
0000f0 04 f3 87 bd 9a 84 84 bd fc 4e 5e bc f3 85 9e bd
       -0.066381484 -0.06470604 -0.013568636 -0.077403925
000100 6f 19 14 bd 2e b7 e1 bd e5 af 0f be fc d0 b7 bd
       -0.036157068 -0.11021267 -0.14031942 -0.089754075
000110 48 1f 8b be d7 17 75 be 52 b4 1c be 54 dc 52 be
       -0.27172303 -0.23934875 -0.15303162 -0.20591861
000120 f5 7e 43 3d a8 16 8d 3d 1e 7d 4b bd ec 50 d4 bc
       0.047728498 0.06889087 -0.049679868 -0.025917493
000130 e8 98 35 3e 3d a1 ef 3c b4 f9 e1 3d 2a 1c 89 3d
       0.1773411 0.02925169 0.11033955 0.06694825
000140 33 de f7 bd a0 0c 6c be 88 2d 73 be b5 ac 3f be
       -0.12102928 -0.23051691 -0.23747838 -0.18718226
000150 57 c6 fd 3c 65 d2 5e 3d 5a 20 c4 3c 1b 4d 04 3d
       0.030978365 0.054399867 0.023941208 0.032300096
000160 e5 0d 82 be 2c 60 23 be c4 a3 13 be 26 9d 14 be
       -0.25401226 -0.15954655 -0.1441794 -0.14513072
000170 77 86 1d be 5b fc 3a be 5f 41 e8 bd 72 95 2a be
       -0.15383326 -0.18260328 -0.113405935 -0.16658571
000180 af 76 b2 bd 71 37 57 bd 88 44 a9 bc b1 52 d6 bd
       -0.08714043 -0.052543107 -0.020662561 -0.10464991
000190 af 61 fa 3d a8 b2 0a bb b8 92 a5 3d f5 be 1b 3e
       0.12225663 -0.0021163616 0.08084625 0.15209563
0001a0 e1 d8 c0 bd cd 73 a5 bc 83 f9 a9 3b bd 48 24 bd
       -0.09416366 -0.02019682 0.005187215 -0.04010843
0001b0 58 9d 98 3d e2 66 94 bd 34 97 3c 3d 24 3d 73 3c
       0.07451886 -0.07246186 0.046042636 0.01484612
0001c0 65 7c 2b bd b7 4c 78 3d 16 0e 51 3c 66 67 95 bd
       -0.04186668 0.060620036 0.012759706 -0.07295112
0001d0 e8 34 cc bd 03 a3 2b be f9 f6 46 be 99 a3 a6 bd
       -0.099710286 -0.16761403 -0.1943015 -0.081366725
0001e0 db 0f 64 be 3e cb 7f be ec 21 fc bd 23 22 d9 bd
       -0.22271673 -0.24979874 -0.123111576 -0.10602214
0001f0 28 37 46 be 87 ee 2a be 55 25 48 bd 56 bd 01 be
       -0.19356978 -0.16692553 -0.048863728 -0.12669882
000200 60 c4 bb bd 8b 6e 1c be 5b 4a 12 be 8b fb f2 bd
       -0.09168315 -0.15276544 -0.14286177 -0.11864384
000210 e1 95 a8 be 6b 2d bf be 81 8a ab be 0e 3b d6 be
       -0.3292685 -0.3733934 -0.33504108 -0.4184193
000220 59 79 4c be 7b 4d 97 be fe 67 a3 be 6e 67 83 be
       -0.19968165 -0.295513 -0.31915277 -0.25664848
000230 dc 6c c8 3c 46 ff ed 3b 58 3b 4b bd 66 3c 6f 3d
       0.02446597 0.007263097 -0.04961714 0.05840721
000240 7b 89 5e 3d 4d 72 77 bd dc 8c 95 bd 0b e9 a8 3c
       0.05433033 -0.06041174 -0.073022574 0.020618936
000250 90 11 2f 3c 51 be 6c bc cc f8 1f 3d c7 de 2f 3d
       0.01068534 -0.014449672 0.03905563 0.042937066
000260 9d b0 ec bb 04 b2 95 3c 4e 52 97 bd 10 e7 25 bd
       -0.0072232024 0.018273361 -0.07388745 -0.04050356
000270 37 e5 f0 bd a8 a8 0a be d8 c0 d4 bd 0a a0 55 be
       -0.11762469 -0.135409 -0.103883445 -0.20861831
000280 31 c2 60 bd f2 60 a1 3d 14 9b 9d 3d c1 dc 89 bc
       -0.054872695 0.07879819 0.076955944 -0.016828896
000290 7c cd a0 3d ce 89 5b 3b 74 87 ee 3b d6 d3 b5 3c
       0.07851693 0.0033498886 0.007279331 0.022195738
0002a0 50 d5 58 3d fb ad d6 bd 25 3e 84 bd c3 a1 a1 bd
       0.052937806 -0.10482403 -0.06457166 -0.07892182
0002b0 86 a4 a5 3c 5f 8c 41 3d 0e 13 6b 3d ff b9 22 bc
       0.020220052 0.04725301 0.05739122 -0.00993204
0002c0 d3 15 11 bc 2b ac ee bd cb f0 e7 bc f1 66 95 bd
       -0.008855301 -0.11653932 -0.028313061 -0.07295025
0002d0 e6 18 3c 3c 94 97 26 3c 2d 05 b5 3d 65 65 bb 3d
       0.011480546 0.010167975 0.08838878 0.09150199
0002e0 81 82 19 3d 88 98 14 3d 10 0e 51 3d e6 0a 83 3c
       0.037477974 0.036278278 0.0510388 0.015996408
0002f0 20 a6 c9 bb ed 7b 2f 3d 0f db dd bb 0e d1 4f bd
       -0.006153837 0.042842794 -0.0067704986 -0.05073648
000300 7c 8e d9 bd 77 9a 34 be 0f 7f 34 be a7 92 ea bd
       -0.1062288 -0.17637049 -0.17626594 -0.11453753
000310 be 38 59 be 0e 35 24 be 99 db 49 be 0c b2 62 be
       -0.21213052 -0.16035864 -0.19712676 -0.22138232
000320 89 97 53 bd 2a c6 34 3d 80 55 4b 3c b2 7f 9c bd
       -0.051658187 0.044134296 0.0124105215 -0.076415434
000330 8d 9f 78 be 29 0b 4e be fc b4 4d be b6 5d 80 be
       -0.24279614 -0.20121445 -0.20088571 -0.25071496
000340 4d 20 7c bd 2e 34 69 be cb b5 ce bd ee bd 74 bd
       -0.061554242 -0.22773811 -0.10093268 -0.059751444
000350 53 be 6d 3d 5f 77 b8 bc bf 6f 9b 3d c0 47 0f bd
       0.058042835 -0.022517858 0.07589673 -0.034980536
000360 44 b1 e2 3d 3a c3 92 bd 35 7e d7 3c b1 be 40 3d
       0.11068967 -0.07166143 0.026305297 0.047056857
000370 c1 45 c6 be 4f 80 a5 be 1f c9 81 be cc 71 a2 be
       -0.38725093 -0.32324454 -0.25348756 -0.31727445
000380 5b 64 3f bd 20 44 97 bc 8c 1b 4a 3d f5 92 20 bd
       -0.046726566 -0.018465102 0.049342677 -0.03920265
000390 79 5a f2 bd e1 ee df bc 21 dd 42 be d4 a5 eb bd
       -0.118336625 -0.027335586 -0.19029666 -0.115062386
0003a0 89 19 19 3c 33 ba ba 3d 03 02 2b 3d a9 5f b6 3c
       0.009344467 0.09117546 0.041749965 0.022262411
0003b0 61 e5 87 bd 7d 7a a6 bd b0 77 fb 3c e3 f5 a4 bc
       -0.066355474 -0.081288315 0.03069672 -0.02013678
0003c0 dd 6c 80 3d 37 12 43 bd 71 c8 5c 3d 23 0e 23 3d
       0.06270764 -0.047624793 0.053902093 0.039808404
0003d0 af e8 74 be 0f ba 3b be d4 04 80 be 85 8f 71 be
       -0.23916887 -0.18332694 -0.25003684 -0.23589905
0003e0 15 93 8e bd 7b c0 e0 bd 96 3b 0c be 67 b2 16 be
       -0.069616474 -0.10974213 -0.13694605 -0.14716493
0003f0 76 b2 48 bd 66 01 6c 3d bb 80 5e bd 49 63 b3 bd
       -0.04899832 0.05761852 -0.054321986 -0.087591715

bias f4 [32]
000000 0c 80 36 be bf 41 b1 be bc 8c 53 3e cf c2 b2 3e
       -0.17822284 -0.34620473 0.20659155 0.34914252
000010 f6 e8 4a 3d a4 b1 84 be 3a 6c 26 3d 4f 08 3b be
       0.049538575 -0.2591678 0.040630557 -0.18264888
000020 f6 82 52 3e 42 a3 f3 3c 68 dd 36 be ef 72 0f be
       0.2055777 0.029740933 -0.17857897 -0.14008687
000030 a2 ae 84 3e e4 09 76 be 7d b0 a8 3e 41 da a1 bb
       0.25914484 -0.2402721 0.3294715 -0.004939348
000040 54 8a 4a 3e 3d b8 87 be b9 0f 88 3d 10 33 3b 3c
       0.1977933 -0.2650775 0.06643624 0.0114257485
000050 be 08 b0 bd 30 5a 8a be c6 cf 08 3e 0b 13 8e be
       -0.085954174 -0.27021933 0.1336051 -0.27748904
000060 81 bb ab 3b d1 37 5f be 51 50 87 3e 52 4b 15 be
       0.005240858 -0.21798636 0.26428464 -0.14579514
000070 fe 79 98 3e ef d6 bf 3d 1f b2 3a bd 7d 2a 1f be
       0.29780573 0.09367167 -0.045580026 -0.15543552

weight f4 [64, 32, 2, 2]
000000 e8 8a be 3e 4d d9 ab 3e 8c 3f 9d 3e 90 b1 af 3e
       0.37215352 0.33564225 0.30712545 0.34315157
000010 94 56 35 3e ca 48 61 3e 15 8d 53 3e fa ca 0a 3e
       0.17708808 0.22000423 0.20659287 0.13553992
000020 c1 52 81 bd 55 11 f8 3c 9d e8 4e 3c d1 c4 6c bc
       -0.06314612 0.030281702 0.0126287015 -0.014451222
000030 73 d9 8c bd ff 8c a6 bd dd 10 9c bd f0 2c 04 be
       -0.06877413 -0.081323616 -0.07620404 -0.12907767
000040 98 0a 73 3e 3b 78 39 3e e1 2a 69 3e 08 02 d6 3d
       0.2373451 0.1811227 0.22770263 0.10449606
000050 2d b0 c4 3e 79 13 77 3e e6 64 7b 3e b1 d5 87 3e
       0.3841566 0.24128522 0.24550208 0.2653022
000060 9e 46 4d be c1 24 da bd 54 8a 9e bd e7 d1 72 be
       -0.2004647 -0.106515415 -0.07741228 -0.23712884
000070 bf 4d fa 3d 9a 7b 59 3e 4b b9 fc 3d b0 48 1b 3e
       0.1222186 0.21238557 0.12340029 0.15164447
000080 e6 46 39 bd 6b 8e c2 bc 20 b8 d6 3c 88 ec a2 bc
       -0.04523363 -0.02374955 0.026210845 -0.019888178
000090 c8 9b d1 3d 89 4f 32 3e f4 55 96 3d a0 c6 1b 3d
       0.10234791 0.17413153 0.07340613 0.03803122
0000a0 15 cd 16 3e 12 71 02 3e e5 a3 93 3e 1a ad 4b 3e
       0.1472667 0.12738445 0.2883598 0.19890252
0000b0 ce bd 40 3e 50 df 28 3e d8 57 2c 3e 57 27 4b 3e
       0.18822405 0.16491437 0.16830385 0.19839226
0000c0 28 26 89 be e6 12 84 be 76 0f c7 be 04 05 9e be
       -0.26786923 -0.25795668 -0.38878983 -0.30863202
0000d0 c5 b0 b0 3e 88 17 a0 3e 0e d3 bf 3e fd 3f d2 3e
       0.34509864 0.31267953 0.3746571 0.41064444
0000e0 14 89 25 be da 6a 83 be 11 c5 0b be 61 71 45 be
       -0.16165572 -0.2566746 -0.13649394 -0.19281532
0000f0 e9 15 f5 bc ba 93 03 be cb ea e1 bd 4a 58 bb 3b
       -0.029917674 -0.12849322 -0.11031111 0.005717312
000100 5e 4a a3 be 06 0b ca be 98 87 7e be f9 35 86 be
       -0.31892675 -0.39461535 -0.24856412 -0.26213053
000110 1b 4c e7 3e 50 b4 b3 3e 66 5b c0 3e ba a2 c2 3e
       0.4517525 0.35098505 0.3756973 0.38014776
000120 a1 c6 67 be 2e 80 81 be 31 b8 20 be c4 75 fe bd
       -0.22634365 -0.25293106 -0.15695263 -0.12424806
000130 fe 14 3d be 48 48 64 be 8d 9a d8 bd 1d e8 5c be
       -0.18465039 -0.22293198 -0.10576353 -0.21572919
000140 f0 2e cb bc 25 5b f7 3b 0a a7 ab 3d b6 d1 66 bd
       -0.024802655 0.007548707 0.083814695 -0.05635234
000150 99 d3 35 be cb d2 2d bb ed d0 84 bd d7 5e 06 bd
       -0.177565 -0.0026523347 -0.06485162 -0.03280529
000160 e0 6f 32 be 21 7d b5 bd ef d3 33 be fd 88 fb bd
       -0.1742549 -0.08861757 -0.17561315 -0.12281988
000170 c8 39 c8 3e 13 af d5 3e 9a ec ba 3e ec b9 c8 3e
       0.39106584 0.41735134 0.36508638 0.39204347
000180 23 d6 47 3e a7 75 ba 3d 34 4f 3d 3e d1 11 78 3d
       0.1951528 0.09104472 0.18487245 0.060563866
000190 b8 d8 5a 3e e0 e6 df 3d a5 27 5a 3e 59 46 b8 3d
       0.21371734 0.10932708 0.21304186 0.08997793
0001a0 1f 3e 99 3e 2e 73 6c 3e 11 3f 9e 3e aa a8 5a 3e
       0.29930207 0.23090813 0.3090749 0.21353403
0001b0 1c 58 4c 3d fe 2c 07 3e 99 20 be 3d e8 ad 05 3d
       0.049888715 0.13200757 0.09283561 0.032636553
0001c0 e8 88 23 be f4 75 46 be f1 4a 20 be bf 81 2c bd
       -0.15970194 -0.19380933 -0.15653588 -0.042115923
0001d0 a4 8d b2 3d 0e 87 ad bb 8f 44 a7 3d ba 33 f6 3d
       0.08718422 -0.005295641 0.081673734 0.12021585
0001e0 3d 3e 36 3e b2 87 8b 3e 8e 96 63 3e 42 4a 78 3e
       0.1779718 0.27251965 0.22225401 0.24247077
0001f0 32 71 9b 3d 54 dd 70 3e e7 e0 42 3e 52 99 6c 3e
       0.0758995 0.2352193 0.19031106 0.23105362
000200 4b 44 0e 3d 90 d3 80 bd f0 4c c6 3b 53 34 60 bc
       0.034733098 -0.06290352 0.006051652 -0.01368435
000210 54 7f 2a 3d 41 9e f2 bc d5 06 b2 3d cc 6e e0 3d
       0.041625336 -0.029616477 0.08692709 0.10958633
000220 bf 58 ff 3c 4c ef 86 3d b0 95 92 bd 1f 3f db bc
       0.031170247 0.06588611 -0.07157457 -0.026763497
000230 cc 62 bb 3c 33 3b e8 bd 09 dd 4a bd 8a df a4 bc
       0.022874258 -0.11339416 -0.0495272 -0.020126123
000240 06 f4 c1 3d 24 50 18 3d bf 57 86 bc ee 33 85 3d
       0.09470372 0.037185803 -0.016399262 0.065040454
000250 c6 0f 54 bb 43 28 dd bc 20 71 8d 3d 30 55 85 3d
       -0.0032358035 -0.026996737 0.069063425 0.06510389
000260 26 aa 14 3d 99 df 32 bc 42 2f d6 bd 34 07 b3 bd
       0.03629508 -0.010917568 -0.104582325 -0.08741608
000270 27 bf 9a bd 34 b9 95 3d 53 66 6c 3d 34 80 0f 3d
       -0.07555991 0.07310715 0.05771477 0.035034373
000280 87 8d 89 bc e9 80 37 3c 17 b2 5b bd 3e 3f 3f bd
       -0.016791118 0.011200168 -0.053636637 -0.04669117
000290 ea 34 ac bc 07 15 d1 3c 23 49 ac bc 4f 4b 8d 3c
       -0.021021325 0.025522722 -0.021030968 0.017247824
0002a0 bc 8d 05 bd 13 46 9f 3c 70 6a fe bc da 44 89 bd
       -0.03260587 0.019442594 -0.031056613 -0.067025855
0002b0 2b 33 89 bd 4b 36 8a bd f0 01 a4 bc 4e c5 d8 bc
       -0.06699213 -0.06748637 -0.020020455 -0.02646127
0002c0 af 73 ad 3c ed 42 91 bd 3d 84 3f 3d f1 9c e8 3c
       0.021173326 -0.07092843 0.04675697 0.028395148
0002d0 9a 45 ba bd 49 df 4d 3d 12 c2 3a bc 70 61 a5 bd
       -0.09095307 0.05026177 -0.011398809 -0.08075225
0002e0 9a 4d ca bc 62 35 00 3d 1b 4a 69 3d fc 4f 4f 3b
       -0.024695206 0.03130091 0.056955438 0.0031633368
0002f0 81 ee b7 3b 60 19 1b 3d e1 26 97 bc fc 5a 1d 3d
       0.0056131487 0.037865996 -0.018451156 0.038416848
000300 23 0f 29 bd 85 73 32 bd 3d 18 0e 3c d0 2f 49 bd
       -0.0412742 -0.0435672 0.008672771 -0.049117863
000310 e3 c1 ac bd c4 3c 81 bd 5a 27 0e bd 30 97 eb 3c
       -0.084354185 -0.06310418 -0.034705497 0.028758615
000320 77 9a 3b bd 71 72 0d bc 44 dc f5 3c e1 6a 6e 3c
       -0.045801606 -0.008633242 0.030012257 0.014551849
000330 75 2c 6a bc 1d e8 5f bd 4f c2 c2 bd ed 67 37 3d
       -0.014292826 -0.05466472 -0.09509718 0.044776846
000340 d8 6c f5 3c 2c 55 d2 3c 63 e0 1a bc 76 02 04 bd
       0.029959127 0.025675379 -0.009452912 -0.03222891
000350 80 ac 53 bd fc 1c 94 bd 30 60 9f bd 98 02 11 bd
       -0.05167818 -0.07232091 -0.07782018 -0.035402864
000360 96 1a a1 ba 63 8f 1c 3c 1c 11 1d bd 19 03 aa bc
       -0.0012291248 0.00955567 -0.038346395 -0.02075343
000370 63 43 82 3d 88 6c 55 bd 65 46 39 bd 5f ea 81 3c
       0.06360509 -0.052105457 -0.04523315 0.015858827
000380 f1 a2 35 3d be 51 3e bc 17 6e cb 3c 84 1c 12 3d
       0.044344846 -0.011616169 0.024832768 0.035671726
000390 f1 cb 1f bc 5f 97 0b bd c2 c9 9f 3c 2c 9b 5c bd
       -0.009753213 -0.034079906 0.019505385 -0.05385892
0003a0 e2 1a 5e bd 02 c2 18 3c b7 4a 5f bd d8 69 54 bc
       -0.054224856 0.009323599 -0.054514613 -0.012964688
0003b0 fd 99 a1 3d d4 f1 12 bb 88 26 12 bd 81 0e 25 3d
       0.07890699 -0.0022421973 -0.035681278 0.040297035
0003c0 81 3a d0 bd 9d 58 83 bd 3e 37 3b 3d 61 c6 b1 bd
       -0.10167409 -0.06413386 0.04570698 -0.08680416
0003d0 2d 30 11 bd c8 05 57 3d 35 64 e0 3d fc ae 63 3d
       -0.035446335 0.052495748 0.10956613 0.0555868
0003e0 5e 89 f8 3c 93 42 11 3c 60 b7 58 bd d4 82 d2 bc
       0.03033894 0.00886597 -0.052909255 -0.02569715
0003f0 00 e0 e3 bc ee 02 52 bb 06 81 95 3d 29 7d 80 bd
       -0.027816772 -0.0032045203 0.073 -0.062738724

bias f4 [64]
000000 c5 44 9d bd 24 5f de bd a0 bb fe 3c b6 7a 9c be
       -0.07679132 -0.108579904 0.031095326 -0.3056237
000010 01 23 c6 bd 7b 57 27 3d 83 cd 11 be 8f 9d 42 bd
       -0.09674645 0.040854912 -0.14238553 -0.04751354
000020 1c f7 55 bd 47 82 3e be b7 50 46 be 7e 19 61 be
       -0.052237615 -0.18604384 -0.19366728 -0.21982381
000030 00 1e 95 be b7 04 f4 bd 77 e9 a9 3c a2 97 3e be
       -0.2912445 -0.11914962 0.020741208 -0.18612531
000040 c7 c8 a4 be 76 ac 0b be 44 b4 c1 bd 50 14 8d be
       -0.3218443 -0.13640007 -0.09458211 -0.2755456
000050 69 1b e2 bd 58 9f df bd 8d 36 ce bd 5a 5b 49 bd
       -0.11040384 -0.10919064 -0.100689985 -0.049159385
000060 85 47 f0 be f5 d3 83 be 2a 44 98 3b 03 36 85 be
       -0.46929565 -0.25747648 0.0046467977 -0.2601777
000070 06 e8 bc be 16 e1 24 be 5f d9 bb bd b2 72 8a be
       -0.3689577 -0.16101488 -0.091723196 -0.2704063
000080 2d d9 80 be 1e e3 c9 be 1b 3d ab bd 03 69 83 3c
       -0.25165692 -0.3943109 -0.08361264 0.016041284
000090 f7 8a 7b bd 76 b0 df bc c8 54 d0 be ed 9c 57 bc
       -0.061411824 -0.027305823 -0.40689683 -0.013159973
0000a0 be 19 db 3c a0 02 14 be 76 33 64 be b5 98 1d be
       0.026745673 -0.14454126 -0.22285256 -0.15390284
0000b0 64 39 82 be f7 84 2f 3d 4c 03 2c 3c 2b 16 5f 3c
       -0.2543441 0.042851415 0.010498833 0.013616125
0000c0 93 4d f9 bb 20 ca a8 be 1a 0d 41 be 26 d4 ac bd
       -0.0076081245 -0.3296671 -0.18852654 -0.084389016
0000d0 5a a1 62 be 54 d0 58 3c 42 fd cd bd 9b d8 59 3d
       -0.22131863 0.013233263 -0.10058071 0.053185087
0000e0 e7 49 6e bd 5a 96 1c be 66 87 34 bd d4 50 da bc
       -0.058175948 -0.1529173 -0.04407444 -0.02664987
0000f0 c4 f4 b8 bd 0a 20 49 be 7e e5 37 be 83 bb 95 bd
       -0.0903106 -0.19641128 -0.17958638 -0.07311156

weight f4 [64, 64, 2, 2]
000000 a4 65 db bd 93 d5 b8 bd 93 d1 d6 bc e1 00 e6 bd
       -0.10712746 -0.09025111 -0.02622298 -0.112306364
000010 b9 b9 eb 3c ea 8c d3 3c 4c 71 72 3d 6a cd 8e 3d
       0.028775083 0.025824029 0.05919008 0.069727734
000020 2a 65 50 3d e1 91 ed 3c 29 af 95 3d f6 b1 a5 bb
       0.050877728 0.029000225 0.073088 -0.005056615
000030 a0 a3 16 be ea 45 27 be 57 a1 d0 bd e1 bf 69 bd
       -0.14710855 -0.16335264 -0.10187023 -0.057067756
000040 96 3d 4f 3d a1 1f 4f 3d 83 68 f0 3c 6c ba af 3c
       0.050595842 0.050567273 0.02934671 0.021451198
000050 93 70 6e bc e8 b9 48 3d 0b e5 1d 3d 62 6a d3 bc
       -0.014553207 0.04900542 0.03854851 -0.025807563
000060 4c 69 c6 3d 5e 7b 6d 3d 72 e1 bb 3d 5b 95 04 3d
       0.096880525 0.05797898 0.0917386 0.032369
000070 12 44 f9 3d 66 40 2e 3e 03 bf 42 3e 2c 8e 28 3e
       0.121711865 0.17016754 0.19018178 0.16460484
000080 e8 ce 2e 3d 09 c8 46 3c 99 fb 0c bd 5d 86 83 3d
       0.04267779 0.012132653 -0.03441963 0.06422112
000090 70 35 35 3e 0b f3 a4 3d 6a 90 ef 3d 53 b0 d5 3d
       0.17696166 0.08054169 0.11697467 0.10434022
0000a0 e9 ba 5f bc 6c 26 2e bd e5 5e 13 bd a3 bf 7a bd
       -0.013655403 -0.04251711 -0.03597917 -0.061217915
0000b0 0f e6 22 be db de 21 be 42 30 72 bd 16 91 4a bd
       -0.15908073 -0.15807669 -0.059128053 -0.04945477
0000c0 4b b5 61 3d c3 64 c9 3d 6e 32 ae 3d bd b9 92 3d
       0.055104535 0.09833672 0.085057124 0.07164333
0000d0 75 83 ea 3d 51 f4 12 3e be 70 64 3e 5e 7d 47 3e
       0.11450855 0.14351012 0.22308633 0.19481418
0000e0 6a ff cd 3d 8f cf d5 3a 38 ae 06 3c 2a 92 28 3d
       0.10058482 0.0016312468 0.008220248 0.041155018
0000f0 50 b9 ae bd 3d 93 ec 3b c8 34 c0 bc 90 a2 24 bd
       -0.08531439 0.0072197006 -0.023462668 -0.040194094
000100 19 02 c1 3d 92 d1 4d 3e aa 7f 01 3e d5 9d eb 3d
       0.09424228 0.20099476 0.12646356 0.115047134
000110 bd 46 f4 3d 3d b2 54 3e 13 81 29 3e a5 c8 11 3e
       0.11927555 0.20771118 0.16553144 0.14236696
000120 01 ca fa 3c 2b 12 74 3d 42 6f dd 3d 9e f5 0e 3e
       0.030613901 0.05958764 0.10812236 0.13960883
000130 f0 55 a3 be 64 18 8a be 8e a0 46 be fa 59 83 be
       -0.31901503 -0.26971734 -0.19397184 -0.25654584
000140 3d cc 81 be e8 31 2e be ab ec 31 be f0 97 39 be
       -0.25351134 -0.17011225 -0.17375438 -0.18124366
000150 37 1f 83 bc 15 d0 8d 3d 2d 05 38 bc 4c ae 1a 3c
       -0.016006095 0.06924454 -0.011231703 0.00944097
000160 23 b0 70 3d 9f 82 07 bd c2 c1 ac bc ce da d9 3c
       0.058761727 -0.033083554 -0.021088485 0.026593592
000170 c5 68 a8 bc 6c f2 c1 bc 92 ef ea bc 0a 66 1f 3d
       -0.02055777 -0.023675166 -0.02867869 0.03891567
000180 e5 d7 dd 3e 3a 3c b0 3e e6 dc a9 3e 67 ad d7 3e
       0.43328777 0.3442095 0.33176345 0.42124483
000190 f2 3f 47 3d 3f b1 36 bd b7 04 49 bc 7a 8e 94 bb
       0.048644967 -0.04460263 -0.0122691905 -0.004533586
0001a0 f9 63 31 3d 24 cb 37 3c 95 20 a4 3d 07 58 95 3d
       0.043308232 0.011217866 0.08014027 0.072921805
0001b0 c7 ea 43 3e 4d 81 60 3e d3 d9 85 3e 03 b1 88 3e
       0.19132529 0.21924324 0.2614275 0.2669755
0001c0 0d d0 08 3e 5d 39 01 3e c0 ad e5 3d a0 36 18 3e
       0.13360615 0.12619539 0.11214781 0.14864588
0001d0 ce 94 2f 3e 88 cd ef 3d bf b5 30 3e 0a 43 1e 3e
       0.17146608 0.11709124 0.1725683 0.15455261
0001e0 41 6d c0 bd f6 84 e7 bc 65 b7 98 bb 13 30 cd bc
       -0.093958385 -0.028261643 -0.004660534 -0.025047338
0001f0 81 4c 02 3c e0 50 e1 3c 62 fd 09 bd 14 1e ef 3c
       0.00795281 0.027504385 -0.03368891 0.029189147
000200 66 ca de 3c 89 fb 88 3c 3f 53 6e 3d 44 86 5e 3d
       0.02719612 0.016721504 0.05818486 0.054327264
000210 87 96 45 3e 7e 83 2c 3e 4e 60 2a 3e 58 69 1a 3e
       0.19295703 0.16847035 0.166383 0.15079248
000220 8d 77 04 3e 9d fa cd 3d 95 b4 d8 3c 24 a0 15 3e
       0.1293623 0.10057566 0.026453296 0.1461187
000230 48 6f c5 3d cc 6b 5c 3c 6d 12 c2 3c 48 da e8 bb
       0.09640366 0.013453435 0.023690427 -0.0071060993
000240 2c 96 68 3d f2 5d e4 3c 52 bf 1d 3d ce fc 29 3d
       0.05678384 0.027876828 0.038512535 0.04150086
000250 6d 5d 7c 3e d0 db 9d 3e 44 6a a3 3e 1c c6 66 3e
       0.24645014 0.30831766 0.31917012 0.2253651
000260 89 1d 13 3e 83 69 c9 3d c6 84 fd 3d 10 4a 17 3e
       0.14366736 0.09834578 0.1237884 0.14774346
000270 03 6b 80 bc e2 f3 01 3d 39 0e 1d 3a 3b 00 c8 3a
       -0.015676027 0.031726725 0.0005991194 0.0015258858
000280 10 bb 9e bc cd 90 f9 3c 29 c2 25 3d c2 97 aa 3c
       -0.019376308 0.030464554 0.04046837 0.020824317
000290 65 49 a6 bd b9 0f 9b bd 6b cd c0 bd b7 a4 92 bd
       -0.08119468 -0.07571358 -0.0941418 -0.07160323
0002a0 68 fc 19 3e 1f 67 cd 3d aa 5d 0d 3e 77 07 2e 3e
       0.15037692 0.100294344 0.13805261 0.16995035
0002b0 50 37 f8 3d 24 79 ec 3d 20 ba 55 3e a5 87 f3 3d
       0.12119925 0.11546543 0.20871782 0.118911065
0002c0 ec 3d 5b 3e f0 27 4e 3e 7b 04 33 3e 22 f7 d6 3d
       0.2141034 0.20132422 0.17482178 0.104963556
0002d0 80 9f 6f 3e 0a a1 91 3e 9e 43 51 3e ca 78 91 3e
       0.23400688 0.28443176 0.2043595 0.28412467
0002e0 37 75 02 3e e9 b1 df 3d 8e 6b 69 3e 7f bb 1d 3e
       0.12740026 0.109226055 0.22794935 0.15403555
0002f0 6a c7 17 bc 81 81 7d b7 75 1e c5 3d 51 2b 81 3d
       -0.009263853 -1.5110128e-05 0.0962495 0.0630709
000300 04 8b 83 3d 0c ec 96 3d 0b 73 b9 3d 2f 03 87 bc
       0.064229995 0.07369241 0.09055146 -0.01648101
000310 3d f6 46 3e 6b 60 4e 3e c9 73 6a 3e e5 67 50 3e
       0.1942987 0.20153968 0.22895731 0.20352133
000320 6a d5 2b bc e3 fa 3f 3d 3e 4c 2d 3d 48 00 33 bd
       -0.010487894 0.046870124 0.04230904 -0.04370144
000330 17 50 a5 bc ca 38 01 3d ce e2 24 3c 49 7c 45 3c
       -0.020179791 0.0315483 0.01006384 0.012053558
000340 30 44 c0 3d 9c e9 15 3e da fd d8 3c 23 49 f8 3d
       0.09388006 0.14639896 0.026488233 0.12123325
000350 a9 94 9e 3c 72 14 96 3d 68 2a 40 3d 85 85 89 3d
       0.019357996 0.073281184 0.04691544 0.0671492
000360 4b 38 43 bd 7b 2f 33 3c ee a5 25 bd a1 c0 c6 bc
       -0.047661107 0.010936613 -0.040441446 -0.024261774
000370 0e 9a 47 3e 85 b6 1d 3e 28 60 28 3e 4b ba 58 3e
       0.19492361 0.15401657 0.1644293 0.21164815
000380 a8 48 4a 3c 6f e0 fc bb 02 be 9f 3d 3c 2e 88 3c
       0.012346424 -0.0077171843 0.07799913 0.016623609
000390 db ab 0d 3e 77 33 6d 3e 93 ba 20 3e e5 3e 7a 3e
       0.13835089 0.23164164 0.15696172 0.24438055
0003a0 80 40 b7 3d b7 88 85 bc 29 05 99 3d 13 91 7b 3c
       0.08947849 -0.016300542 0.07471687 0.015354413
0003b0 e7 80 16 3d 25 de a6 3c 23 66 38 3b 39 4d 15 bb
       0.036744025 0.020369599 0.002813705 -0.0022781624
0003c0 d1 3b 03 3d 3e 5c e2 3c ec 46 31 3d ce 32 1d bd
       0.032039467 0.027631875 0.043280527 -0.03837853
0003d0 b4 92 61 bd be 69 e7 3b 78 41 0f 3d 55 27 72 bd
       -0.055071548 0.007062166 0.034974545 -0.05911954
0003e0 d0 e3 43 bc 7e ad 74 3d 67 19 cd 3c 7b 73 d1 3b
       -0.01195617 0.059735768 0.025036527 0.00639194
0003f0 c7 8b 7f bc a1 4c ce bd fd be 94 bd d2 6c c3 bd
       -0.01559729 -0.100732096 -0.072629906 -0.0954224

bias f4 [64]
000000 21 2d a6 3e d9 2a 04 3d 7b d0 85 3b 25 4d df 3d
       0.32456306 0.032267425 0.0040836907 0.10903386
000010 94 2c f0 3d 79 b8 38 be 9e a2 0c 3e 88 7c 0e 3e
       0.117272526 -0.1803912 0.13733909 0.13914692
000020 62 26 c1 3d 46 76 f1 3d e7 3c 28 be 6c 12 ff 3d
       0.09431149 0.11790137 -0.16429482 0.124546856
000030 2c 2e ae 3e 16 f9 0f 3e c5 46 0f be 3b 0d ef bd
       0.340196 0.14059862 -0.1399184 -0.116724454
000040 eb 4b 96 3d 09 20 0f be 61 2a b1 be fe 40 fe bd
       0.07338699 -0.13977064 -0.34602645 -0.1241474
000050 04 08 4e 3c 2b 78 ce 3d 49 02 1f 3e f6 3d 18 3e
       0.012575153 0.10081514 0.15528215 0.14867386
000060 2c 34 ce 3d 6f ca c6 be ee c5 8f 3d a0 ac 88 bd
       0.10068545 -0.3882632 0.07020174 -0.066735506
000070 c8 74 8b 3e 0f c5 c4 be 96 90 e6 bd 92 be 70 3b
       0.27237535 -0.38431594 -0.11258046 0.0036734683
000080 90 94 98 bd cf 21 c3 bd 43 1f 42 be c0 1c ae 3d
       -0.07450211 -0.09527933 -0.18957238 0.085015774
000090 5a 99 26 3e 16 51 67 be bc 19 8b 3e 4a 88 8d be
       0.16269436 -0.22589526 0.2716807 -0.27643043
0000a0 82 0a f2 bd 76 11 4e 3d 70 db 30 be c1 e8 b5 be
       -0.118184105 0.05030962 -0.17271209 -0.3552914
0000b0 47 1b aa be 7d e0 97 be 34 74 a1 3d 27 0f e0 3d
       -0.33223936 -0.29663458 0.07883492 0.1094039
0000c0 54 7a 13 3e a6 63 b8 3e 88 0e 68 3e 10 0a d1 3d
       0.14402133 0.36013526 0.22661793 0.102069974
0000d0 66 40 9a bd ed 9e cd 3d 2e 85 12 be 3d 1b 90 bd
       -0.07531814 0.10040078 -0.14308617 -0.07036445
0000e0 0f ef e9 3d 38 96 e1 3e 02 60 db 3d e0 b0 9c 3e
       0.1142255 0.4405992 0.107116714 0.30603695
0000f0 1f 19 01 3e 35 13 3a 3e af ae 1f 3e 07 f9 e0 3d
       0.12607239 0.1817139 0.1559398 0.10984998
