output/binaire-1-2/unet_tgs_salt.pth (torch, 245847 bytes, 26 tensors)

weight f4 [16, 3, 2, 2]
0	0xbcaede5d	-0.021346265
1	0xbd95e599	-0.07319183
2	0x3dfb083e	0.122574314
3	0x3e8a3653	0.2699457
4	0xbde4c38e	-0.111701116
5	0xbe60f0e2	-0.2196689
6	0xbd97a3b7	-0.07404273
7	0xbe622720	-0.22085238
8	0xbe83f932	-0.25776058
9	0x3e334dd4	0.17510158
10	0x3e4bb5c1	0.19893552
11	0xbd1e08f3	-0.038582753
12	0x3da5c9a6	0.08095102
13	0xbe49ded2	-0.19713905
14	0x3d46ad0f	0.048504885
15	0xbd4b6c05	-0.049663562
16	0x3e7f6f06	0.24944696
17	0xbe6d2847	-0.23159896
18	0xbcb985d7	-0.022646828
19	0x3d79a581	0.060948852
20	0xbe43b940	-0.19113636
21	0x3d7b7d4a	0.06139878
22	0xbe3da317	-0.18519245
23	0x3e5d12a7	0.21589147
24	0xbdea3c35	-0.11437265
25	0x3d3c4275	0.045961816
26	0xbe596d70	-0.21233153
27	0x3e931168	0.28724217
28	0xbe44f01a	-0.19232216
29	0xbe042c1b	-0.1290745
30	0x3e69ebd9	0.22843875
31	0x3e16ae51	0.14714934
32	0xbe899843	-0.2687398
33	0xbc89d5de	-0.016825613
34	0x3e4864f4	0.1956976
35	0xbe2b06bd	-0.16701789
36	0xbe0c4fa7	-0.1370226
37	0xbd7ddd5e	-0.06197869
38	0x3da7acca	0.08187254
39	0x3b90cb29	0.00441875
40	0x3e44fb71	0.19236542
41	0xbe07b797	-0.13253628
42	0xbdbabdcd	-0.09118233
43	0x3e8221fc	0.25416553
44	0x3e590e99	0.21196975
45	0xbe1d3e42	-0.1535578
46	0x3e7b3563	0.24532084
47	0x3e8a359c	0.26994026
48	0xbe53ae52	-0.20671967
49	0x3e1e646b	0.15467994
50	0xbe50d4ee	-0.20393726
51	0xbd72f489	-0.05931524
52	0xba9ecb3b	-0.0012115011
53	0xbe011ac0	-0.1260786
54	0xbd99b262	-0.07504727
55	0xbe6f72f2	-0.23383692
56	0xbdefbfd1	-0.11706508
57	0x3daab82b	0.083359085
58	0xbe92a1ea	-0.28639156
59	0xbe8107bd	-0.25201216
60	0xbe76cd58	-0.2410177
61	0xbc70ec81	-0.014704824
62	0x3c0f6f66	0.008754587
63	0xbe57a6e3	-0.21059756
64	0x3d1c9d32	0.03823585
65	0xbe8dca5e	-0.27693456
66	0x3d48998f	0.04897457
67	0xbe0c8fa6	-0.13726673
68	0x3e24e7bb	0.16104023
69	0x3d515bb3	0.05111284
70	0xbb4dcbbd	-0.0031401955
71	0xbe42d7fa	-0.19027701
72	0xbe35fc4d	-0.17772026
73	0xbe4c4189	-0.19946875
74	0xbdb78e27	-0.0896266
75	0x3dff32f7	0.12460893
76	0xbe503bff	-0.20335387
77	0x3e71fcaf	0.23631547
78	0x3dd8f886	0.10594277
79	0x3b63a3bc	0.0034735044
80	0xbc887ed0	-0.016662031
81	0xbe1cd187	-0.15314303
82	0x3e3aa724	0.18227822
83	0x3e892861	0.2678862
84	0x3e4cc619	0.19997443
85	0x3e819ffc	0.2531737
86	0x3e75f600	0.24019623
87	0x3d14edc9	0.036359582
88	0xbe0c2187	-0.13684665
89	0x3e6041d5	0.21900113
90	0xbdde53d9	-0.108558364
91	0x3df604ab	0.12012609
92	0xbe8e8dcf	-0.27842566
93	0xbe572619	-0.21010627
94	0xbd968810	-0.073501706
95	0x3e42447d	0.18971439
96	0x3d2a6646	0.04160144
97	0xbdde9f4c	-0.10870227
98	0x3dc98c56	0.0984122
99	0xbdec2535	-0.11530534
100	0x3d16b0ae	0.03678959
101	0x3d61a98e	0.05509334
102	0x3e92b8a7	0.28656504
103	0xbe15e188	-0.14636815
104	0xbd575cb6	-0.05257865
105	0xbe483a40	-0.1955347
106	0x3dce9bda	0.1008832
107	0x3e6bd745	0.23031338
108	0x3e526f4b	0.20550267
109	0x3dc9a702	0.09846307
110	0x3e61a851	0.22036864
111	0xbdfe4492	-0.124154225
112	0xbdae5d13	-0.08513846
113	0x3e03a1e7	0.1285473
114	0xbd8a9be7	-0.06768017
115	0x3e12e962	0.14346841
116	0xbdbf84ac	-0.09351477
117	0x3e62db35	0.22153933
118	0x3e78eb75	0.2430857
119	0xbdbdc836	-0.09266703
120	0xbe291fde	-0.16516063
121	0x3db90bb8	0.09035438
122	0xbe2c6ef8	-0.16839206
123	0x3d20bb87	0.03924134
124	0x3d3c434a	0.04596261
125	0x3d6af88c	0.05736594
126	0x3d9f158b	0.07767781
127	0xbd3bfc5f	-0.045894977
128	0x3c90d1db	0.017678192
129	0xbdbfca52	-0.093647614
130	0xbe21b9f6	-0.15793595
131	0x3debdb73	0.11516466
132	0xbe4785f6	-0.19484696
133	0x3df66323	0.120306276
134	0x3de64e02	0.112453476
135	0xbe648732	-0.22317198
136	0xbdb82398	-0.08991164
137	0x3adff96a	0.0017087881
138	0x3e412f74	0.18865758
139	0x3dea18e7	0.11430531
140	0xbdb34059	-0.08752508
141	0x3d8cba0f	0.06871425
142	0x3e44f7e0	0.19235182
143	0xbe77ed93	-0.24211721
144	0xbe4cab75	-0.1998728
145	0x3e661ab0	0.22471118
146	0x3e90259e	0.281537
147	0x3e041e41	0.12902166
148	0x3e9c3455	0.30508676
149	0x3e83d25e	0.25746435
150	0xbd684eed	-0.056715894
151	0xbe436881	-0.19082834
152	0x3ce37fd5	0.027770916
153	0xbe521460	-0.20515585
154	0xbe07613c	-0.13220686
155	0xbe18a1ae	-0.14905426
156	0x3d7ffa84	0.06249477
157	0x3e468619	0.19387092
158	0x3e82dfe8	0.25561452
159	0xbdafe38e	-0.085883245
160	0x3de4d9d3	0.11174359
161	0xbe5f69f5	-0.21817763
162	0xbe112d4b	-0.14177434
163	0xbd305700	-0.04305172
164	0xbe2867fd	-0.16445918
165	0x3e308fb0	0.17242312
166	0xbe9afe05	-0.30271927
167	0xbd6f1570	-0.058370054
168	0x3e52ac89	0.2057363
169	0xbdef9c86	-0.11699776
170	0xbe458c82	-0.1929188
171	0x3e072b56	0.13200125
172	0x3ba7006e	0.005096487
173	0xbe1c4aff	-0.15262984
174	0x3e2cb67b	0.16866486
175	0x3d9a6097	0.07537954
176	0x3e6354d4	0.22200328
177	0x3d195d6d	0.037442613
178	0xbc381a76	-0.0112367775
179	0x3e5e368e	0.21700498
180	0x3e16f271	0.14740922
181	0xbe8048ed	-0.25055638
182	0xbd272869	-0.040810023
183	0x3d236016	0.039886557
184	0x3d229f22	0.039702542
185	0xbd06beae	-0.03289669
186	0x3db4961f	0.08817696
187	0x3cd53d00	0.026030064
188	0xbe97c291	-0.2964063
189	0xbe48db64	-0.19614941
190	0xbe231671	-0.1592653
191	0x3dff1d6a	0.12456782

bias f4 [16]
0	0x3e88526b	0.2662538
1	0xbe32e228	-0.17469084
2	0x3e09138a	0.1338636
3	0x3cece916	0.028919738
4	0xbe2fd7c8	-0.17172158
5	0xbd4d2fee	-0.050094537
6	0xbcfaca4f	-0.030614046
7	0x3e84d693	0.25944957
8	0xbe3f411b	-0.1867718
9	0x3e961b39	0.29317644
10	0x3e315428	0.1731726
11	0x3d182a87	0.037149932
12	0xbd98d78d	-0.07462988
13	0x3e07711a	0.13226739
14	0x3d03cf8d	0.032180358
15	0xbdcd84a8	-0.10035068

weight f4 [16, 16, 2, 2]
0	0xbc9e4f86	-0.01932503
1	0xbdf9c403	-0.121955894
2	0x3cebc252	0.028779183
3	0xbc8f554a	-0.017496724
4	0x3dcb93aa	0.09940274
5	0x3d801ee1	0.0625589
6	0xbd1e75fe	-0.038686745
7	0x3da8376b	0.08213695
8	0x3dd0f6cc	0.10203323
9	0x3e1080d5	0.14111646
10	0xbdcf619a	-0.10126038
11	0x3e0a42a7	0.13501988
12	0xbd6ac854	-0.057319954
13	0x3d6f36b3	0.058401775
14	0xbe0d6d20	-0.13811159
15	0xbdf9edc0	-0.1220355
16	0x3c709b10	0.014685407
17	0xbdcb6e22	-0.099331155
18	0xbdb3d3d8	-0.0878064
19	0x3d3d4b24	0.046214238
20	0xbcc4ffd9	-0.024047779
21	0xbc95908b	-0.0182574
22	0x3cfadb61	0.030622186
23	0x3c20ee64	0.009822462
24	0xba7d4dab	-0.00096627575
25	0xbdcf4dbc	-0.101222485
26	0x3e16a2e3	0.14710574
27	0x3d2069a0	0.03916323
28	0x3d814e71	0.0631379
29	0xbd8c9c1d	-0.06865714
30	0xbdf7619e	-0.12079166
31	0xbc984182	-0.018585924
32	0xbe0977d1	-0.13424613
33	0x3dd7c0ed	0.105348445
34	0x3d88ecc8	0.066857874
35	0x3d2f88ce	0.042855076
36	0xbe01ef5a	-0.12688962
37	0x3da1419e	0.078738436
38	0xbdef2706	-0.11677365
39	0xbe06a56b	-0.1314904
40	0x3d0a274f	0.033728894
41	0xbd293396	-0.04130896
42	0xbd9c1ca2	-0.07622649
43	0xbbd8ce9e	-0.0066164276
44	0x3db0ea33	0.0863842
45	0xbcd6de9e	-0.026229199
46	0x3df17445	0.11789755
47	0x3e0aa0e4	0.13537937
48	0x3dcb3d96	0.09923856
49	0x3d5043ca	0.0508459
50	0x3e28bdfa	0.1647872
51	0xbcf95044	-0.030433781
52	0xbcb8b9b6	-0.022549491
53	0xbd5866cd	-0.052832413
54	0xbbd75c19	-0.006572258
55	0xbd504f5a	-0.050856926
56	0xbdbe09de	-0.09279226
57	0xbca146c7	-0.01968707
58	0xbd3b6107	-0.04574683
59	0xbde44eb5	-0.11147825
60	0xbc4a5847	-0.0123501485
61	0xbde1bce1	-0.11022354
62	0xbd91741c	-0.07102224
63	0xbd162003	-0.036651623
64	0xbe07afb3	-0.13250618
65	0x3ddb81ab	0.107180916
66	0xbc1c72f9	-0.009548896
67	0x3d76ded7	0.06027111
68	0x3dd85cd5	0.10564581
69	0x3dafcb79	0.08583731
70	0x3def7aa4	0.11693314
71	0xbde2c877	-0.11073392
72	0xbd757ddc	-0.059934482
73	0xbdd68cc2	-0.10476066
74	0x3e0f8aed	0.1401784
75	0x3e040fa0	0.12896585
76	0xbd26cc51	-0.040722195
77	0xbd9e00d0	-0.07714999
78	0x3c41db3d	0.011832056
79	0xbdff60da	-0.12469645
80	0xbd249aac	-0.04018657
81	0xbd66c988	-0.05634454
82	0xbda98a02	-0.08278276
83	0x3cd47d00	0.02593851
84	0xbd339b3c	-0.043849215
85	0xbc0c1106	-0.008548981
86	0xbd9a7bc9	-0.075431414
87	0x3dc3b310	0.09555638
88	0x3ddf0bde	0.10890935
89	0x3bd0cc16	0.006371985
90	0x3df89d30	0.12139356
91	0xbda30bdd	-0.07961247
92	0x3cd6ab8f	0.026204852
93	0x3b77bc1b	0.0037801329
94	0xbcfcc312	-0.030854736
95	0xbc818325	-0.015809605
96	0x3db6977c	0.08915612
97	0xbdc148e6	-0.094377324
98	0x3d68181f	0.05666363
99	0xbd85cc30	-0.06533086
100	0x3d0cc864	0.034370795
101	0x3de2e2c2	0.11078407
102	0x3def7a32	0.11693229
103	0xbd8ed4eb	-0.06974205
104	0xbdafc73c	-0.08582923
105	0xbccfc870	-0.02536413
106	0x3c227265	0.009914969
107	0xbdb7096f	-0.08937346
108	0xbd9b59e2	-0.07585503
109	0xbd645f85	-0.055755157
110	0x3df42764	0.11921576
111	0x3e0a70cf	0.13519596
112	0x3d4000f7	0.04687592
113	0xba8ea21c	-0.0010882053
114	0x3e08ec85	0.13371475
115	0x3dfdaf4c	0.12386951
116	0xbd89cc7f	-0.06728458
117	0xbd4737ae	-0.048637085
118	0xbc2087b9	-0.009797984
119	0x3da3ae9e	0.0799229
120	0x3dafb713	0.085798405
121	0xbda06c9b	-0.07833215
122	0xbd4da537	-0.05020639
123	0xbdb10cc2	-0.086450115
124	0xbd97e8a4	-0.074174196
125	0x3db74889	0.08949382
126	0x3d8c2c8d	0.06844435
127	0x3d813eb0	0.06310785
128	0xbcc371c4	-0.023857959
129	0x3bffbe87	0.007804695
130	0xbc4dad1e	-0.012553481
131	0xbdeb461d	-0.114879824
132	0x3d647c02	0.055782326
133	0x3d738b6f	0.059459146
134	0x3dcdbecc	0.10046157
135	0x3dfdbbe4	0.12389353
136	0x3d848967	0.0647152
137	0xbae973f3	-0.0017811045
138	0x3d103567	0.03520718
139	0xbd9179b6	-0.07103293
140	0x3df82cd3	0.121179245
141	0xbd056e7f	-0.03257608
142	0x3dd36ca9	0.1032346
143	0x3d42a8ae	0.047524147
144	0x3d7c6a00	0.061624527
145	0x3cf18c78	0.029485926
146	0x3d37b034	0.044845775
147	0xbddcea7a	-0.1078691
148	0x3d3922af	0.045199092
149	0x3d0ca5fe	0.03433799
150	0xbd6ded6e	-0.05808776
151	0x3d372325	0.04471125
152	0x3cfa2509	0.030535238
153	0xbd29d2af	-0.04146069
154	0xbcee9a42	-0.02912629
155	0x3caf6858	0.02141206
156	0xbd8bdede	-0.06829618
157	0x3cb0d91a	0.021587897
158	0xbdce25c9	-0.10065801
159	0x3d88fb29	0.0668853
160	0x3e16d9d6	0.14731535
161	0x3dcc1018	0.09964007
162	0xbd94b514	-0.072611004
163	0x3da16efd	0.078824975
164	0xbdc920bb	-0.09820696
165	0xbca21841	-0.019786956
166	0x3de1c536	0.11023943
167	0x3e013c40	0.1262064
168	0x3d1a6cd6	0.03770145
169	0xbc7203cf	-0.014771416
170	0x3c7105fd	0.0147109
171	0xbc3272ac	-0.010891598
172	0x3d454772	0.04816384
173	0x3d7beaf5	0.06150337
174	0xbdfccb02	-0.12343408
175	0xbbb8fb3f	-0.0056451852
176	0xbe034db7	-0.12822615
177	0x3cf48e07	0.02985288
178	0x3c895ad0	0.016766936
179	0xbd82e17f	-0.06390666
180	0xbb2a8d04	-0.0026023993
181	0x3d507874	0.050896123
182	0x3d910ced	0.070825435
183	0xbe12b8b2	-0.14328268
184	0xbc543034	-0.012950946
185	0xbcaf3dac	-0.021391712
186	0x3de246cf	0.11048662
187	0x3dbe536b	0.092932545
188	0x39c837cd	0.00038188547
189	0x3dbbb2c2	0.09164955
190	0xbcc11f5f	-0.02357453
191	0x3de3602f	0.1110233
192	0xbd030c11	-0.03199393
193	0x3c25028c	0.010071408
194	0xbd9bfcca	-0.07616575
195	0xbd7a0afd	-0.061045635
196	0xbcf818ef	-0.030285327
197	0x3d4c97c9	0.04994944
198	0x3d078b72	0.03309197
199	0xbb0a704d	-0.0021124065
200	0xbdb64659	-0.089001365
201	0xbd94e030	-0.07269323
202	0x3dedfc6a	0.1162041
203	0x3dce9f45	0.10088972
204	0xbdea4354	-0.11438623
205	0xbca5e2ad	-0.020249689
206	0xbd13f906	-0.03612616
207	0x3c3ae688	0.011407502
208	0x3cbd0eb0	0.023078293
209	0x3da43504	0.080179244
210	0xbdc6206c	-0.09674153
211	0xbc85a020	-0.016311705
212	0xbd83562e	-0.06412922
213	0xbd18b714	-0.037283972
214	0xbd3723a0	-0.04471171
215	0xbd3b7063	-0.045761477
216	0xbb31091c	-0.0027013486
217	0x3d2e4e3d	0.042555083
218	0xbd81453d	-0.06312034
219	0xbd8a7209	-0.06760032
220	0xbdb402df	-0.0878961
221	0x3ba2e295	0.0049708583
222	0x3bbaaa0a	0.0056965398
223	0xbd09f465	-0.03368034
224	0xbcd2abc5	-0.025716672
225	0x3cfa8cd2	0.030584726
226	0xbd90cf60	-0.07070804
227	0x3dd2e302	0.102972046
228	0x3dd1782e	0.102280006
229	0xbd1e9d40	-0.038724184
230	0xb9d9f707	-0.00041573515
231	0x3dd65c06	0.10466771
232	0x3db6ac0c	0.08919534
233	0xbbd556e8	-0.006510604
234	0xbd8e36c5	-0.0694404
235	0xbbccdcdc	-0.0062519144
236	0x3d75db1b	0.06002341
237	0xbd811f16	-0.06304757
238	0xbd0d0ac2	-0.034434088
239	0x3d675797	0.056480017
240	0x3e1d0d2b	0.15337054
241	0xbcde0e84	-0.027106531
242	0x3e4005b3	0.18752174
243	0x3e349440	0.17634678
244	0x3db5591b	0.08854886
245	0x3dd069c2	0.10176422
246	0xbca485a4	-0.020083256
247	0x3e1109a0	0.14163828
248	0xbcba41d0	-0.02273646
249	0xbd014291	-0.031557623
250	0xbd5e07e5	-0.054206748
251	0xbdcab37c	-0.09897515
252	0xbd8090c7	-0.06277614
253	0xbd8a9253	-0.067661904
254	0xbdd0b13c	-0.10190055
255	0x3e01ce2c	0.12676305

bias f4 [16]
0	0xbdf85a84	-0.121266395
1	0x3c465675	0.012105574
2	0xbd436d9c	-0.047711954
3	0x3d03aa5a	0.03214488
4	0xbcbdf6fa	-0.023189057
5	0xbc45f910	-0.012083307
6	0xbddbb6b1	-0.10728205
7	0xbdac46ea	-0.08411963
8	0xbdbc0dd1	-0.09182323
9	0xbd5dfce8	-0.05419627
10	0x3d860fd7	0.0654599
11	0x3da236fe	0.07920645
12	0x3b9d6c4c	0.0048041698
13	0xbd0cb372	-0.03435082
14	0x3d075488	0.0330396
15	0x3cc16087	0.023605598

weight f4 [32, 16, 2, 2]
0	0x3d85096b	0.06495937
1	0x3dda9950	0.10673773
2	0xbdd16a4f	-0.10225355
3	0x3dde3ba3	0.108512186
4	0xbd5b1241	-0.053484205
5	0x3d43f808	0.047843963
6	0xbcbdd8ce	-0.02317467
7	0xbd397d98	-0.04528579
8	0x3cddc9e7	0.027073814
9	0xbc42866e	-0.011872871
10	0x3d9955ba	0.07487054
11	0x3d88c1bf	0.06677579
12	0x3da8bc74	0.082390696
13	0x3d673d84	0.05645515
14	0x3dcbaf8c	0.09945592
15	0xbc8323a1	-0.0160082
16	0xbdf02915	-0.11726586
17	0xbdd6e9ed	-0.104938366
18	0xbddedfee	-0.10882555
19	0x3d879c27	0.066215806
20	0xbdf63a01	-0.12022782
21	0x3a197917	0.00058545306
22	0x3dace333	0.08441772
23	0x3dcc8947	0.09987121
24	0x3c523bf1	0.012831674
25	0x3d0fa486	0.03506901
26	0x3c1aed24	0.009455953
27	0xbdb54fd8	-0.088531196
28	0x3cef823a	0.029236902
29	0xbdd73c7d	-0.10509584
30	0xbe06753b	-0.13130657
31	0x3d8f78a9	0.07005436
32	0x3e0a2105	0.13489158
33	0x3d647123	0.055771958
34	0xbc1b7458	-0.009488188
35	0xbb9984be	-0.0046850136
36	0x3def5dd0	0.11687815
37	0xbdc6728e	-0.09689818
38	0x3cea7a6b	0.028622827
39	0xbcbd60dd	-0.023117477
40	0xbb258107	-0.0025253908
41	0xbd87a6bc	-0.06623599
42	0xbc67f9a0	-0.014158636
43	0xbca495d1	-0.02009097
44	0xbcb2f77b	-0.021846524
45	0x3dfe22a9	0.12408955
46	0xbda51038	-0.08059734
47	0x3dc4f1eb	0.09616455
48	0x3d459fff	0.048248287
49	0x3d90a0ee	0.07061945
50	0xbd8a418f	-0.067507856
51	0xbd445f49	-0.047942434
52	0x3da5066d	0.08057866
53	0xbdb3a986	-0.087725684
54	0xbd0d0142	-0.034425028
55	0xbd885f05	-0.066587485
56	0x3d792125	0.060822625
57	0xbdf02836	-0.1172642
58	0x3cb31c16	0.021863978
59	0x3d8423f6	0.064521715
60	0x3dadb41b	0.08481618
61	0x3dee9503	0.116495155
62	0xbde2d478	-0.110756814
63	0x3db22c09	0.08699805
64	0xbd94a348	-0.07257706
65	0x3d931f5a	0.07183714
66	0xbdbdc833	-0.092667006
67	0x3d8f0778	0.069838464
68	0xbd1bef6d	-0.03807013
69	0xbdb5e55d	-0.08881638
70	0xbca806ed	-0.020511115
71	0x3d863a8a	0.06554134
72	0x3d9c35b1	0.07627428
73	0x3d9454e7	0.07242756
74	0x3dce1421	0.10062433
75	0xbdfb3085	-0.12265114
76	0x3dfc1aab	0.12309774
77	0xbdb20f81	-0.086943634
78	0x3d3e061c	0.046392545
79	0xbdbd003b	-0.092285596
80	0xbded53bf	-0.11588239
81	0x3db9ebba	0.090781644
82	0xbc15bacd	-0.009138775
83	0x3da44665	0.08021239
84	0xbd842005	-0.0645142
85	0xbde68b6f	-0.112570636
86	0xbd1ab16a	-0.03776685
87	0xbddcca38	-0.10780758
88	0xbd83c75a	-0.06434508
89	0xbddf84d7	-0.10914009
90	0x3d334189	0.04376367
91	0xbd9fe1d8	-0.07806748
92	0x3c938dfc	0.01801204
93	0x3d834f69	0.06411631
94	0xbdfc63aa	-0.12323697
95	0xbb0afeaf	-0.0021208932
96	0x3dcbb2ec	0.09946236
97	0xbc46f27e	-0.012142776
98	0x3da5afc7	0.080901675
99	0x3d24665b	0.040136676
100	0x3db21f3c	0.08697364
101	0x3d65cf7a	0.05610607
102	0x3dadfb25	0.08495168
103	0x3df6d385	0.12052063
104	0x3d87a473	0.06623163
105	0xbb00fa3b	-0.00196804
106	0x3deaacd6	0.11458747
107	0x3c84cae3	0.016210025
108	0x3d5a8ff5	0.053359944
109	0xbbadc07d	-0.0053024874
110	0x3bde9ff5	0.0067939707
111	0xbd21808a	-0.039429225
112	0xbc18624f	-0.009300782
113	0x3de25afe	0.11052512
114	0x3dd7aaec	0.10530648
115	0x3d0ec3b4	0.034854606
116	0xbd070e53	-0.032972645
117	0x3d0c45f4	0.0342464
118	0xbc8eff2f	-0.017455665
119	0x3c5ec3f4	0.013596524
120	0xbde86b42	-0.11348583
121	0xbd83a4a2	-0.064278856
122	0xbdd09bbd	-0.10185955
123	0xbdec5ae7	-0.11540776
124	0x3d59905b	0.053116184
125	0xbbbb5fe5	-0.0057182186
126	0x3d77823d	0.06042694
127	0xbdc2408d	-0.09484968
128	0xbdd24dd8	-0.10268754
129	0xbd34b304	-0.044116035
130	0xbd73de07	-0.059537914
131	0xbc5ca072	-0.0134659875
132	0x3e1cfafc	0.15330118
133	0x3d55dd8b	0.052213233
134	0xbce6fd1a	-0.02819686
135	0x3cc7efa2	0.024406258
136	0x3cb17f84	0.02166725
137	0x3cc06535	0.02348576
138	0x3c5869b6	0.013208797
139	0x3db63b00	0.08897972
140	0xbd0d001f	-0.034423944
141	0x3ce3a868	0.027790263
142	0x3dde5b15	0.10857216
143	0x3dd7fce1	0.1054628
144	0xbd760d23	-0.060071122
145	0xbdd50689	-0.10401637
146	0xbdb24299	-0.08704109
147	0x3db1d383	0.08682921
148	0xbd067e4a	-0.032835282
149	0xbc736530	-0.014855668
150	0xbdcc3ad7	-0.0997216
151	0xbd0031c4	-0.03129746
152	0x3cf8c516	0.030367415
153	0xbc8c5e63	-0.01713485
154	0xbdbf02bf	-0.09326696
155	0xbe053398	-0.13007963
156	0xbc421970	-0.011846885
157	0x3cafc656	0.021456879
158	0xbe041bdb	-0.12901251
159	0xbb0e575e	-0.0021719555
160	0xbd5a937c	-0.05336331
161	0x3df9e4fb	0.12201878
162	0x3d1c41be	0.038148634
163	0x3ceda3ca	0.029008765
164	0x3d626e71	0.055281106
165	0x3de7ae9d	0.11312602
166	0x3d05d031	0.03266925
167	0x3d05e864	0.032692328
168	0x3e08cb10	0.13358712
169	0x3e05a7dc	0.13052315
170	0x3de2b6da	0.110700324
171	0xbd78debd	-0.060759295
172	0x3d09e124	0.033661976
173	0xbdd2ad9e	-0.10287021
174	0x3defccf0	0.117090106
175	0xbdb272cf	-0.08713304
176	0x3d19dde8	0.037565142
177	0x3da43961	0.08018757
178	0x3df2f817	0.11863726
179	0xbd844e3b	-0.06460234
180	0xbcf6201d	-0.03004461
181	0xbde788c5	-0.113053836
182	0xbdefa193	-0.1170074
183	0x3cb7faee	0.02245852
184	0x3d51c445	0.051212568
185	0x3cd05a3d	0.025433654
186	0xbdea34cd	-0.11435852
187	0x3d2001b2	0.039064117
188	0x3d89028f	0.06689941
189	0xbbdcdf88	-0.006740514
190	0x3da2bffe	0.07946776
191	0x3d07b45e	0.033130996
192	0xbe0aca8f	-0.13553832
193	0xbb72fda6	-0.0037077456
194	0x3cbf3675	0.023341397
195	0x3b118895	0.0022206653
196	0x3ba28e7a	0.004960832
197	0xbd8f5785	-0.06999115
198	0xbc7fcd02	-0.0156128425
199	0xbc2f87c0	-0.010713518
200	0x3e1d10ff	0.15338515
201	0x3dd04059	0.10168523
202	0x3dc6a846	0.09700064
203	0x3d781ba0	0.06057322
204	0x3b048e1f	0.0020226312
205	0xbd60d43d	-0.054889906
206	0x3d103afa	0.035212494
207	0x3cbd350d	0.023096586
208	0x3e25a8e1	0.16177703
209	0xbd15fcc2	-0.036618
210	0x3d91c1db	0.07117053
211	0x3df97b82	0.1218176
212	0x3d7637c1	0.060111765
213	0xbceb06b6	-0.028689723
214	0xbadfb5db	-0.0017067747
215	0xbd53febf	-0.051756617
216	0x3d3bcc33	0.045849036
217	0x3d46680e	0.048439078
218	0xbdfba9a9	-0.122882195
219	0x3c81060a	0.01574995
220	0x3de28818	0.11061114
221	0x3d447af7	0.04796883
222	0x3e18f020	0.1493535
223	0x3cda47a9	0.026645498
224	0xbdbce4bb	-0.092233144
225	0x3b214599	0.0024608134
226	0xbc98c6cd	-0.018649483
227	0xbd33e475	-0.043919045
228	0xbb5b1cd7	-0.0033433938
229	0xbdb2d2fe	-0.0873165
230	0x3d9c080f	0.076187246
231	0x3d9905c1	0.074718006
232	0x3d103747	0.035208967
233	0xbc5a125c	-0.013310041
234	0x3d365df2	0.044523187
235	0x3da62f84	0.08114532
236	0xbd38ea20	-0.045145154
237	0x3c83762b	0.016047558
238	0xbdcfb1bc	-0.10141322
239	0xbd7079c9	-0.058709893
240	0x3d4424b2	0.047886558
241	0xbdb8d728	-0.09025413
242	0x3df2851d	0.118417956
243	0xbc6e2432	-0.014534997
244	0xbb4bb2d3	-0.003108193
245	0x3d32baca	0.043635167
246	0x3de9223b	0.11383482
247	0x3dbb1bdc	0.09136173
248	0xbd1645c2	-0.03668762
249	0x3cf3afd8	0.029746935
250	0xbce61774	-0.028087355
251	0x3d9823af	0.07428681
252	0xbddfeb4e	-0.10933553
253	0x3c3d687e	0.011560557
254	0x3d225fb3	0.039642047
255	0xbce726b9	-0.028216707

bias f4 [32]
0	0x3de2cc4a	0.11074121
1	0xbc83c05b	-0.016082933
2	0x3d2d3b70	0.042293012
3	0xbd82a695	-0.06379429
4	0x3c8d1307	0.017220987
5	0xbd98835d	-0.074469306
6	0xbcd00e0d	-0.025397325
7	0x3c9698fd	0.018383497
8	0x3ccbf92f	0.024899093
9	0xbddc0432	-0.10742988
10	0x3d82c6b1	0.06385554
11	0xbd8fd8a2	-0.07023741
12	0x3ddc3d1b	0.107538424
13	0xbd2626f8	-0.040564507
14	0x3d02076e	0.031745367
15	0x3d722a2d	0.059122253
16	0x3bd87a98	0.006606411
17	0xbd1a0278	-0.03760001
18	0xbda78a39	-0.08180661
19	0xbddc6248	-0.10760933
20	0x3cb21658	0.02173917
21	0x3d7e429c	0.062075242
22	0x3d9e0971	0.077166446
23	0xbdaa6f01	-0.083219536
24	0xbd8c5d26	-0.06853704
25	0x3dc0d850	0.09416258
26	0xbddea532	-0.10871352
27	0xbdb9ce2c	-0.09072527
28	0x3db1cc3a	0.08681531
29	0xbde92062	-0.1138313
30	0x3c17f715	0.009275218
31	0x3db8faad	0.090321876

weight f4 [32, 32, 2, 2]
0	0xbd4a6963	-0.04941691
1	0xbc1ee25d	-0.009697524
2	0xbc2a6915	-0.01040103
3	0xbd00ac97	-0.031414595
4	0x3dae41a5	0.085086145
5	0x3d416c1c	0.04722224
6	0x3db3012e	0.087404594
7	0xbd803693	-0.06260409
8	0xbd75c855	-0.060005505
9	0xbc5d91fe	-0.013523577
10	0x3d1a7aa9	0.037714634
11	0x3d0b577c	0.03401898
12	0xbc9bcd58	-0.019018814
13	0xbcd9b269	-0.02657433
14	0xbd8c929b	-0.068639
15	0xbde328fb	-0.11091801
16	0x3d32c21e	0.043642156
17	0x3c753b3d	0.014967737
18	0x3c885ec0	0.016646743
19	0xbd96e9e5	-0.073688306
20	0xbd977fcd	-0.07397423
21	0xbdaabf60	-0.08337283
22	0x3d0810ed	0.033219267
23	0x3d676c80	0.056499958
24	0xbc8ba631	-0.01704702
25	0x3d9aad1a	0.07552548
26	0xbd0cdea2	-0.034392007
27	0xbcf13635	-0.029444793
28	0x3d47714d	0.048692036
29	0x3da8dfcd	0.082458116
30	0xbcaeb402	-0.021326069
31	0x3bd43244	0.0064757187
32	0xbd3fa9d0	-0.046792805
33	0xbdfde3d4	-0.123969704
34	0x3d410308	0.04712203
35	0xbdd822ec	-0.10553536
36	0x3c8614bb	0.016367307
37	0x3d08e3ee	0.033420496
38	0xbc90748c	-0.017633699
39	0xbc2227bf	-0.0098971715
40	0xbd82fb54	-0.06395593
41	0xbde3bed3	-0.11120381
42	0xbe041e4b	-0.12902181
43	0x3bcf6a8d	0.0063298405
44	0x3da68e36	0.08132593
45	0xbc8d4ec4	-0.017249472
46	0xbd9c63a1	-0.0763619
47	0x3d2f74ae	0.042835884
48	0xbd41b8bd	-0.04729532
49	0xbc97ebe8	-0.018545106
50	0xbc0a3dad	-0.008437556
51	0xbbee0316	-0.0072635515
52	0xbd4260fd	-0.047455776
53	0x3c0f27a9	0.008737483
54	0x3d5f9c35	0.05459233
55	0xbd23137c	-0.039813504
56	0x3c121d94	0.008918185
57	0xbcd4e802	-0.025989536
58	0x3dca0690	0.09864533
59	0x3c13f574	0.009030689
60	0xbc92d095	-0.017921725
61	0xbd2d2162	-0.042268164
62	0x3da5a991	0.08088983
63	0x3d895c25	0.06707028
64	0x3d770c48	0.060314447
65	0x3c1da30d	0.009621394
66	0xbd223322	-0.039599545
67	0xbc792068	-0.01520548
68	0x3d3aa1bb	0.045564394
69	0x3d429b2b	0.04751126
70	0xbdbab479	-0.09116454
71	0xbd04c243	-0.032411825
72	0x3d3251d4	0.04353507
73	0xbcf9a2a1	-0.030473055
74	0xbc2362dd	-0.009972301
75	0xbd8e73ca	-0.06955679
76	0x3d8f8f57	0.07009762
77	0xbb4a1a1e	-0.003083832
78	0x3cb5f306	0.02221061
79	0x3ca0a83f	0.019611476
80	0x3c611823	0.013738665
81	0xbd3fee88	-0.04685834
82	0x3b5a2da7	0.003329137
83	0x3d24180f	0.040062007
84	0x3c64b849	0.013959953
85	0x3da3b2e5	0.07993106
86	0xbd9be4d0	-0.07612002
87	0x3d6150a0	0.05500853
88	0x3bd26df2	0.006421798
89	0xbd9c207b	-0.07623383
90	0xbdb6262a	-0.08893998
91	0x3b99f25c	0.004698081
92	0x3cdb2bf9	0.026754366
93	0x3dc07207	0.09396749
94	0xbd3fd92e	-0.046837978
95	0x3d2d99e1	0.04238308
96	0x3ba38f6a	0.0049914615
97	0xbc866f5f	-0.016410528
98	0x3b35bfa0	0.0027732626
99	0x3d8faa8e	0.070149526
100	0x3dab7e1a	0.08373661
101	0xbd477c23	-0.04870237
102	0xbd8b10a4	-0.06790283
103	0xb933d911	-0.00017151634
104	0xbb0b7296	-0.0021278015
105	0xbd934021	-0.07189966
106	0x3b8d4214	0.0043108556
107	0xbb411a0a	-0.0029464983
108	0xbd7a25d8	-0.061071247
109	0xbdb41579	-0.08793158
110	0x3d5221c4	0.051301733
111	0x3d856656	0.0651366
112	0xbc8c988a	-0.01716258
113	0x3cfa0017	0.030517621
114	0xbc268b9d	-0.010165122
115	0xbd6d68c1	-0.05796123
116	0xbd96a7c6	-0.07356219
117	0x3c75c752	0.015001135
118	0x3d76f53e	0.060292475
119	0xbd331fd2	-0.043731518
120	0x3d7ddb4e	0.061976723
121	0x3c9b0619	0.018923806
122	0xbd96bc40	-0.073601246
123	0xbc02c498	-0.007981442
124	0xbc4ea2a1	-0.012612016
125	0x3dcc7489	0.09983165
126	0xbc89e168	-0.016831115
127	0x3de0cb60	0.10976291
128	0xbc58e6e3	-0.013238641
129	0x3d1ccc62	0.038280852
130	0x3dc0ecd8	0.09420174
131	0x3ce17d20	0.027525485
132	0x3d64b68f	0.055838164
133	0x3d921dca	0.07134588
134	0x3d9652ec	0.07340035
135	0x3d8073a7	0.06272059
136	0xbd2256ff	-0.039633747
137	0xbbfb1507	-0.0076624188
138	0x3d6f485b	0.058418613
139	0x3d0086f1	0.03137869
140	0x3ac47d91	0.0014991035
141	0xbce99b6c	-0.028516494
142	0xbd3ac5ba	-0.045598723
143	0xbd217250	-0.039415658
144	0x3da9a922	0.08284213
145	0xbcd617d6	-0.026134413
146	0xbd2c3af1	-0.0420484
147	0x3a840421	0.0010072031
148	0xbcd4d2c1	-0.025979402
149	0x3d3c5af6	0.045985185
150	0xbc57afd3	-0.013164478
151	0xbcead8e0	-0.028667867
152	0x3d7e06bc	0.06201814
153	0xbc5e53c7	-0.013569779
154	0x3d80a9fa	0.062824205
155	0x3dca3418	0.09873217
156	0x3d89bde9	0.067256756
157	0x3d6855da	0.0567225
158	0xbda39acf	-0.07988512
159	0xbdc5f908	-0.096666396
160	0xbcb79409	-0.022409456
161	0x3d587229	0.052843247
162	0x3debe620	0.11518502
163	0x3ca44d7a	0.020056475
164	0x3d0f25f2	0.034948297
165	0xbd33501a	-0.043777563
166	0xbd66ee33	-0.05637951
167	0xbc164cdf	-0.009173601
168	0x3d743652	0.059622116
169	0x3d69a035	0.05703755
170	0x3cbdab3f	0.023152946
171	0xbc91dcdb	-0.017805507
172	0x3d5a2c55	0.053264935
173	0xbd79b73f	-0.060965773
174	0x3da15d7a	0.07879157
175	0x3db0c199	0.08630676
176	0x3d64264c	0.055700585
177	0xbc1e5a0b	-0.009665023
178	0xbd5047ab	-0.050849598
179	0x3cb90f62	0.022590343
180	0x3cf9c07c	0.030487292
181	0xbd0ba24c	-0.034090325
182	0xbcd818ad	-0.026378954
183	0xbd7737e3	-0.060356032
184	0xbde7cd95	-0.113185085
185	0xbd94063b	-0.07227751
186	0x3b8aa114	0.004230628
187	0xbc19760c	-0.0093665235
188	0x3d652d0f	0.055951174
189	0x3d5c3496	0.053761087
190	0xbd27580d	-0.040855456
191	0x3d916e1c	0.0710108
192	0xbce89010	-0.028389007
193	0x3dc40ae7	0.09572392
194	0xbcd21c3a	-0.025648225
195	0xbb310952	-0.0027013612
196	0x3c5d35cc	0.013501596
197	0x3c05e7f7	0.0081729805
198	0xbbf15099	-0.0073643443
199	0x3dd318c8	0.10307461
200	0xbd03303e	-0.03202843
201	0xbd3cff58	-0.046141952
202	0xbd2e9369	-0.04262105
203	0x3c7e1542	0.015507998
204	0x3af9baf0	0.0019052904
205	0xbda1db3e	-0.07903145
206	0xbbb2d92a	-0.005458017
207	0x3c9d6e53	0.019217646
208	0x3dd1e3d7	0.10248535
209	0xbc9349ed	-0.017979586
210	0xbd37a265	-0.044832606
211	0x3dcd7a24	0.10033062
212	0xbca630e7	-0.02028699
213	0x3d941787	0.0723105
214	0x3cb1c984	0.021702535
215	0xbc6a1693	-0.014287609
216	0x3dc6f9be	0.09715603
217	0xbd7568ec	-0.059914514
218	0x3dbd71eb	0.09250244
219	0x3d0d01b5	0.034425456
220	0xbd4901df	-0.04907405
221	0xbdc1b86d	-0.094590046
222	0xbd083210	-0.03325087
223	0xbdd866f0	-0.10566509
224	0xbda9f9a5	-0.08299569
225	0xbc0903f1	-0.008362756
226	0xbaefb971	-0.0018289519
227	0xbda7927a	-0.08182235
228	0x39c49b0d	0.00037499555
229	0x3d41b90e	0.047295623
230	0x3d6bea6c	0.05759661
231	0xbcd344c2	-0.025789622
232	0xbd09d259	-0.03364787
233	0x3d3b6b70	0.045756757
234	0x3d00af7c	0.031417355
235	0x3ccdd08a	0.025123853
236	0xbd14c375	-0.036319215
237	0x3d9ead2a	0.07747872
238	0x3cfdb3fa	0.030969609
239	0xbd132c13	-0.035930704
240	0x3d0e1901	0.034691814
241	0x3dabe718	0.08393687
242	0xbd728079	-0.059204552
243	0x3d73b8ec	0.059502527
244	0xbd8c9e3f	-0.068661205
245	0xbd843e8e	-0.06457244
246	0xbd91c06c	-0.0711678
247	0x3d0c654c	0.03427629
248	0x3d8b25f6	0.0679435
249	0xbcad673a	-0.021167386
250	0x3ce50e44	0.027960904
251	0xbca032a7	-0.019555403
252	0xbbc0a0d7	-0.0058785486
253	0xbd15e539	-0.036595557
254	0x3ba1deb3	0.004939878
255	0xbc6383e3	-0.013886425

bias f4 [32]
0	0xbd015008	-0.031570464
1	0xbd17a31c	-0.037020788
2	0xbd8c0f91	-0.068389066
3	0x3d322c7e	0.043499462
4	0x3da99bce	0.082816705
5	0xbd227966	-0.039666556
6	0x3cb5edfa	0.022208203
7	0xbcdd5286	-0.02701689
8	0xbdb13d63	-0.08654287
9	0x3d07537e	0.03303861
10	0x3d34f3fb	0.04417799
11	0xbd34e613	-0.04416473
12	0x3a164bf0	0.00057333615
13	0xbda5c0b6	-0.08093397
14	0x3d9be499	0.07611961
15	0xbdb6fff1	-0.08935536
16	0xbc98abb6	-0.018636566
17	0xbcffd77d	-0.031230683
18	0x3da54c32	0.08071174
19	0xbd4d1749	-0.050071035
20	0x3c0f1013	0.00873186
21	0xbc47f428	-0.0122042075
22	0x3cef6211	0.029221566
23	0x3da567cf	0.080764405
24	0xbcbd2703	-0.023089891
25	0xbd88874c	-0.06666431
26	0x3d03ada3	0.032148015
27	0xbc8dd075	-0.017311314
28	0x3db54c4e	0.088524446
29	0x3dc05b75	0.09392444
30	0xbd8bc79f	-0.06825184
31	0x3c9eaccf	0.019369511

weight f4 [64, 32, 2, 2]
0	0x3d7fa3f4	0.062412217
1	0x3b1b7ad3	0.0023724332
2	0x3cf76bef	0.030202834
3	0x3d504a36	0.050852023
4	0xbd1af164	-0.037827864
5	0x3d7db916	0.06194409
6	0xbc22d856	-0.009939274
7	0x3d4df4ad	0.05028217
8	0xbd6541aa	-0.055970825
9	0xbcdf626b	-0.027268609
10	0xbda4bb3e	-0.08043526
11	0x3bb07f5a	0.0053862752
12	0x3dd04791	0.101699
13	0xbc7dc15a	-0.015487993
14	0x3d2a02f1	0.04150671
15	0x3dc73912	0.09727682
16	0xbcee75f6	-0.029108983
17	0x3d7d989c	0.061913118
18	0xbced4c28	-0.028966978
19	0x3db56d87	0.08858781
20	0x3d9edab2	0.077565566
21	0x3d18fde4	0.037351504
22	0xbd4c263e	-0.049841158
23	0x3c049134	0.00809126
24	0xbdb60a61	-0.08888698
25	0x3d408036	0.04699727
26	0x3c96f3d7	0.018426819
27	0xbd9ba264	-0.07599333
28	0x3c9b3c85	0.018949756
29	0x3c859a36	0.016308885
30	0xbb8f7e51	-0.0043790718
31	0xbd98dd01	-0.07464028
32	0xbda1f067	-0.07907181
33	0xbd751ee1	-0.0598439
34	0x3d251671	0.040304605
35	0xbd2383eb	-0.03992073
36	0xbc956e6c	-0.01824113
37	0x3e02dc1a	0.12779275
38	0x3d868822	0.06568934
39	0x3df53fa7	0.11975031
40	0x3a539bb8	0.0008072215
41	0xbcbd67df	-0.023120819
42	0x3d97f370	0.07419479
43	0x3de6dc78	0.1127252
44	0xbce9335c	-0.028466873
45	0x3d1e22f9	0.03860757
46	0x3d0bb5d2	0.034108944
47	0xba9bb10b	-0.0011878324
48	0x3d54a50a	0.051915206
49	0xbada55f5	-0.0016657697
50	0x3cbc3610	0.022974998
51	0xbc9c5a8a	-0.019086141
52	0x3d1ba724	0.038001195
53	0xbdc65d66	-0.09685783
54	0xbb4ac045	-0.0030937355
55	0x3c64f85c	0.013975229
56	0x3a74372e	0.0009316084
57	0x3d372eb2	0.044722266
58	0xbd1aad4d	-0.03776293
59	0x3cd95946	0.026531827
60	0x3b901921	0.004397527
61	0xbd3cbbde	-0.0460776
62	0xbdbf00c3	-0.09326317
63	0xbc710d41	-0.014712633
64	0xbdb160e0	-0.086610556
65	0xbdcefc5d	-0.10106728
66	0x3d8eb46e	0.06968008
67	0xbd2c62fd	-0.04208659
68	0x3d37036a	0.04468099
69	0xbd8532f8	-0.06503862
70	0x3c1e9606	0.009679323
71	0x3ca41e95	0.020034114
72	0x3d92ca7a	0.071675256
73	0xbc93a37e	-0.018022295
74	0x3d9cea68	0.07661897
75	0xbd360e3f	-0.04444718
76	0xbd81c610	-0.063366055
77	0x3d7e8a8b	0.062143844
78	0xbdb392a1	-0.087682016
79	0x3c5ef04f	0.013607099
80	0x3bc00e9a	0.0058611156
81	0x3d060efc	0.032729134
82	0xbdb30054	-0.08740297
83	0x3d413e9e	0.047178857
84	0x3dca2f1a	0.09872265
85	0x3cd74050	0.026275784
86	0x3dd58a06	0.104267165
87	0x3da358d7	0.07975929
88	0xbda8eecf	-0.08248674
89	0xbd9f5fd1	-0.077819474
90	0xbdb3e2c9	-0.0878349
91	0xbdbcab5b	-0.09212371
92	0xbd69a2c5	-0.057039995
93	0x3dd45e04	0.103694946
94	0x3d569115	0.052384455
95	0xbbad014f	-0.005279697
96	0x3dc5a53a	0.09650655
97	0x3d54f47d	0.051990975
98	0xbc5dbc02	-0.013533594
99	0x3d97573c	0.073896855
100	0xbd8f3260	-0.0699203
101	0xbdc5e0fa	-0.096620515
102	0xbcc90238	-0.02453719
103	0xbd5ddb61	-0.054164294
104	0xbb63b6eb	-0.0034746479
105	0x3d3ae05e	0.04562413
106	0x3dec4848	0.11537224
107	0x3c499832	0.012304353
108	0xbd845615	-0.06461731
109	0x3d52e43b	0.05148719
110	0x3d343b36	0.04400178
111	0x3d9e061f	0.07716011
112	0xbd9a4450	-0.07532561
113	0xbd96eb3e	-0.07369088
114	0x3d971cfa	0.07378574
115	0xbd9a1798	-0.075240314
116	0x3d3b7844	0.04576899
117	0xbcc12e25	-0.023581574
118	0xbd8b7d93	-0.06811061
119	0xbd059968	-0.032617003
120	0xbdbfd0bf	-0.09365987
121	0xbda7a83f	-0.08186387
122	0xbda12861	-0.0786903
123	0xbdad6052	-0.08465637
124	0x3c8851bf	0.016640542
125	0xbd3e28ff	-0.046425816
126	0x3ccf8c6f	0.025335519
127	0x3d5d6133	0.054047775
128	0xbb76dde7	-0.0037668885
129	0x3d3d26b5	0.046179492
130	0x3b0fec12	0.0021960777
131	0xbd6b44d5	-0.05743869
132	0xbb796427	-0.003805408
133	0xbd27fdd2	-0.041013546
134	0xbd6ecb42	-0.05829931
135	0xbd34d127	-0.044144776
136	0x3cb77ff0	0.022399873
137	0x3d854cd9	0.06508798
138	0x3d197fdf	0.037475463
139	0xbd0a5c3f	-0.03377938
140	0xbd8d88c7	-0.06910854
141	0xbd33b718	-0.043875784
142	0xbbc0ab01	-0.0058797603
143	0xbd912dd1	-0.07088817
144	0xbd72bfa8	-0.05926481
145	0x3d0c346d	0.034229685
146	0xbcab7cfb	-0.020933619
147	0xbd816129	-0.0631736
148	0x3d53bfb0	0.05169648
149	0xbdb04ad4	-0.08608022
150	0x3d8663ba	0.0656199
151	0x3b2667f5	0.0025391553
152	0x3d3c8fc9	0.04603556
153	0xbcefc650	-0.029269367
154	0x3ce44c7d	0.027868504
155	0xbc014483	-0.00788987
156	0xbcc10dec	-0.023566209
157	0xbcb8f713	-0.022578752
158	0x3dab66ab	0.08369192
159	0x3bcca34e	0.0062450534
160	0x3d995ae0	0.07488036
161	0x3d98eabd	0.07466648
162	0x3dae4649	0.085094996
163	0x3d931a2a	0.07182725
164	0x3d13c49e	0.03607618
165	0x3cf869c7	0.030323876
166	0x3d019fd6	0.031646572
167	0xbd85f5d7	-0.06541031
168	0xbd8a716f	-0.06759917
169	0x3cb6ef7f	0.022330998
170	0x3d8c9ac2	0.06865455
171	0xbd0cf91b	-0.034417253
172	0xbcc36d34	-0.023855783
173	0xbd623791	-0.055228774
174	0x3d26e090	0.040741503
175	0xbd50019d	-0.05078279
176	0x3d9eeb67	0.07759743
177	0x3c82b591	0.015955718
178	0xbd03734e	-0.032092385
179	0x3bda8acd	0.0066693784
180	0x3d6a57eb	0.05721275
181	0x3d2614e2	0.04054726
182	0xbd9954bf	-0.07486867
183	0x3c805fb9	0.015670644
184	0xbc163356	-0.009167513
185	0x3da7b857	0.08189457
186	0x3d0998cb	0.03359298
187	0xbd61d983	-0.055139076
188	0x3d3765f8	0.04477498
189	0xbd0bab2a	-0.03409878
190	0x3d815eda	0.063169196
191	0x3d46f6ca	0.0485752
192	0xbd87ed19	-0.0663702
193	0x3c5dc1bd	0.01353496
194	0x3d151c17	0.03640374
195	0x3c44ffa0	0.012023836
196	0x3d022674	0.031774953
197	0x3d75d15f	0.060014125
198	0x3c9d0ce1	0.01917118
199	0x3cb23535	0.021753887
200	0x3d9db0a6	0.07699709
201	0x3b0f3126	0.0021849363
202	0xbcf74cde	-0.03018802
203	0xbd351e19	-0.044218156
204	0xbda291d2	-0.07937969
205	0x3d305670	0.043051183
206	0x3d826d84	0.06368545
207	0xbd29e435	-0.0414774
208	0x3cc4207d	0.023941273
209	0xbd6ab811	-0.057304446
210	0x3cd981c4	0.026551135
211	0xbc3dddbc	-0.01158851
212	0x3d21e93a	0.039529063
213	0xbd0a7125	-0.03379931
214	0xbd97a416	-0.07404344
215	0x3d131c6d	0.03591578
216	0x3ca488ab	0.0200847
217	0xbd7334d7	-0.059376564
218	0xbcac08fa	-0.021000374
219	0xbd94c427	-0.072639756
220	0x3d373977	0.044732537
221	0x39bbfd2f	0.00035856056
222	0x3dad0eec	0.08450112
223	0x3da998ea	0.08281119
224	0xbcc7ac3b	-0.024374118
225	0xbd8031ae	-0.06259476
226	0x3a636bfe	0.0008675455
227	0x3c393387	0.011303789
228	0xbd8cc3cd	-0.068732835
229	0x3cfbf42f	0.030756084
230	0xbce60ad3	-0.028081333
231	0xbd0ef3d5	-0.034900505
232	0x3d11045c	0.035404548
233	0x3d5f84fc	0.054570183
234	0x3d7b9b0e	0.06142717
235	0x3bbf22bd	0.0058329985
236	0x3c16ad36	0.00919657
237	0x3a2ae951	0.0006519752
238	0x3cec4a7a	0.028844107
239	0x3c849de4	0.01618857
240	0xbbe721e6	-0.0070536016
241	0xbd1991c0	-0.037492514
242	0xbd034bb6	-0.032054625
243	0x3dac8493	0.08423724
244	0x3d8bec2d	0.06832156
245	0x3c4e76d9	0.012601578
246	0xbb979558	-0.0046259575
247	0xbd3487aa	-0.04407469
248	0xbd3041b6	-0.043031417
249	0x3d6627e1	0.056190375
250	0x3b8644e4	0.004097568
251	0xbceab498	-0.028650567
252	0x3b8c870e	0.0042885607
253	0xbd364124	-0.044495717
254	0xbd3a8e02	-0.045545585
255	0x3d873a1f	0.066028826

bias f4 [64]
0	0x3d1bddb9	0.038053248
1	0xbd865a91	-0.06560243
2	0xbc46c356	-0.012131533
3	0xbd635817	-0.05550393
4	0x3c5c8440	0.013459265
5	0xbd811228	-0.06302291
6	0xbd1571c8	-0.036485463
7	0x3d2a88d7	0.041634407
8	0xbc8c1f83	-0.01710487
9	0x3db42502	0.08796121
10	0x3cc0322d	0.023461426
11	0xbc432bf2	-0.011912333
12	0x3ba8c698	0.0051506273
13	0x3d9a96f9	0.07548327
14	0xbd2ce486	-0.042210124
15	0x3cb4df57	0.022079153
16	0x3d494cf3	0.04914565
17	0xbd865cef	-0.065606944
18	0xbbce5b52	-0.0062975073
19	0x3d875fda	0.06610079
20	0x3d8a0b4a	0.067404345
21	0x3d4361ab	0.047700565
22	0x3d96a559	0.07355756
23	0x3d2d69bc	0.042337164
24	0x3b9e45e9	0.0048301113
25	0xbc838254	-0.016053356
26	0xbcb2af3a	-0.02181207
27	0xbdb35071	-0.08755577
28	0xbc4e5fea	-0.01259611
29	0xbd90e504	-0.07074931
30	0x3da6c96c	0.08143887
31	0x3db32083	0.087464355
32	0x3a8642e0	0.0010243319
33	0x3d0b9052	0.03407318
34	0xbd7254b3	-0.059162807
35	0x3da2625e	0.07928918
36	0xbd741471	-0.059589807
37	0xbdaeba23	-0.085315965
38	0xbd8512d4	-0.06497732
39	0x3db56be5	0.0885847
40	0xbdb8285b	-0.08992072
41	0x3c526557	0.012841544
42	0xbae28b7c	-0.0017284001
43	0x3d9f53be	0.077796444
44	0x3da044de	0.078256354
45	0x3d17abbc	0.037029013
46	0xbd74e181	-0.05978537
47	0x3cd99c27	0.026563717
48	0xbd2148c7	-0.039376047
49	0x3db1f656	0.08689563
50	0x3c3a9672	0.011388408
51	0x3daa281b	0.08308431
52	0x3c2bb8f1	0.010481105
53	0x3dc196b9	0.09452576
54	0x3d7c7c5d	0.06164204
55	0xbcfbc3d5	-0.030733028
56	0x3cdfed49	0.027334826
57	0x3d6eaf3a	0.058272578
58	0x3ba62730	0.0050705895
59	0x3cec9b49	0.02888264
60	0xbd708305	-0.0587187
61	0x3cf8b580	0.030359983
62	0x3d90e163	0.07074239
63	0x3d7fa707	0.06241515

weight f4 [64, 64, 2, 2]
0	0xbc27832e	-0.010224147
1	0x3dab529b	0.08365365
2	0x3bae750f	0.005324013
3	0xbcba45fe	-0.022738453
4	0x3d0cc17f	0.03436422
5	0x3d216918	0.039406866
6	0xbd0dc41c	-0.034610853
7	0xbd44968e	-0.047995143
8	0x3d5ef76d	0.054435182
9	0xbd6d8d65	-0.057996172
10	0xbc84b1d6	-0.01619808
11	0xbc0337e5	-0.008008932
12	0xbd50d906	-0.05098822
13	0xbd1c3f20	-0.03814614
14	0x3b59dd00	0.0033243299
15	0x3d060130	0.032715976
16	0xbd903802	-0.07041933
17	0xba881505	-0.0010382241
18	0xbd7a53b8	-0.061114997
19	0xbbcbb606	-0.0062167672
20	0xbcb93f83	-0.022613293
21	0x3d956b27	0.07295828
22	0x3d98be12	0.07458128
23	0x3ca5cd51	0.020239504
24	0x3d227829	0.039665375
25	0xbc3ded40	-0.011592209
26	0xbd6bf0b3	-0.057602596
27	0xbcfb458f	-0.030672817
28	0x3cf2d6ca	0.029643435
29	0x3ce3825a	0.027772117
30	0x3d3f2b44	0.04667212
31	0x3dab2ea7	0.083585076
32	0x3d293bb3	0.0413167
33	0x3d30b006	0.04313662
34	0x3d68d9fe	0.05684852
35	0xbd3097d7	-0.043113556
36	0xbacfb755	-0.0015847484
37	0x3d4e04a7	0.050297406
38	0xbc4df9db	-0.012571777
39	0x3d85a06f	0.06524741
40	0x3ab89e54	0.0014085271
41	0xbc968fd7	-0.018379135
42	0x3d95adb8	0.07308525
43	0x3cffc9f6	0.031224232
44	0x3cd1247b	0.02553009
45	0x3d892fd6	0.06698577
46	0xbc062cca	-0.0081893895
47	0x3d3f5e20	0.046720624
48	0x3d5942fb	0.053042393
49	0x3d89eae3	0.06734254
50	0x3d66928e	0.05629211
51	0x3cc499dc	0.023999147
52	0x3d881d91	0.06646264
53	0x3d366894	0.044533327
54	0xbd39b041	-0.045334104
55	0xbd15cc2a	-0.03657166
56	0xbc3fc13e	-0.011703787
57	0x3bcb1eec	0.0061987545
58	0xbce28879	-0.027652966
59	0x3d0d6385	0.034518737
60	0x3da92d67	0.08260613
61	0x3d5efb95	0.054439146
62	0xbd129ba2	-0.035792954
63	0x3cdcbc46	0.026945245
64	0xbab93ef7	-0.0014133145
65	0x3d81b26c	0.063328594
66	0xbc91c100	-0.017792225
67	0x3d86adb1	0.06576098
68	0xbd1ff7ec	-0.039054796
69	0x3d3ac0e6	0.04559412
70	0xbc0e3333	-0.008679199
71	0x3d7c4da5	0.061597485
72	0x3d95ab4e	0.073080644
73	0x3db11258	0.08646077
74	0x3ceac1af	0.028656809
75	0x3da0867c	0.07838151
76	0x3c96d17d	0.018410439
77	0x3d4570b2	0.048203178
78	0x3cf407cb	0.029788872
79	0x3d87af48	0.06625229
80	0x3d71cf9f	0.059035894
81	0xbc931f23	-0.017959183
82	0xbbbcf961	-0.005767033
83	0xbc18e7db	-0.009332622
84	0x3b594924	0.0033155167
85	0x3d23abc1	0.03995872
86	0x3d14b069	0.03630105
87	0x3d1efc0c	0.03881459
88	0x3d81189b	0.06303521
89	0x3b7fd619	0.0039037524
90	0xba12b284	-0.0005596059
91	0xbc973f57	-0.01846282
92	0x3d4159d5	0.04720481
93	0x3d8df79a	0.06931992
94	0x3c783d68	0.015151359
95	0x3c583739	0.01319676
96	0x3c82755d	0.015925104
97	0x3c579155	0.013157208
98	0x3cbad0ac	0.02280458
99	0x3c3b40d6	0.011429032
100	0xbc229606	-0.009923464
101	0xbc4c2b55	-0.012461503
102	0x3a4aaec7	0.00077317323
103	0xbd2f36f9	-0.042777035
104	0x3d6e1858	0.058128685
105	0x3d42aae7	0.047526266
106	0xbd089df2	-0.033353753
107	0x3d497861	0.049187068
108	0xbd8b92b0	-0.06815088
109	0x3cf6ead0	0.030141264
110	0xbdb332c8	-0.0874992
111	0x3cc19591	0.02363089
112	0xbbe6d463	-0.0070443614
113	0xbcb51b83	-0.022107845
114	0xbd161654	-0.036642388
115	0x3d43822f	0.047731575
116	0xbd61a7ec	-0.055091783
117	0xbb8f9900	-0.0043822527
118	0xbd64ac0e	-0.055828147
119	0x3d01fcd6	0.031735264
120	0xbc27ebcf	-0.010249092
121	0x3c63e1b7	0.013908795
122	0x3c9bc875	0.019016484
123	0xbcc41405	-0.023935327
124	0x3d30a8d6	0.043129764
125	0x3c956b32	0.018239591
126	0x3c284802	0.010271074
127	0x3cc694d3	0.024240887
128	0x3c720f72	0.01477419
129	0xbc3edacc	-0.011648845
130	0x3d389833	0.045067023
131	0x3dd0a838	0.10188335
132	0xbd204725	-0.03913035
133	0x3d47854b	0.048711102
134	0x3ce99f2f	0.028518287
135	0xbc523166	-0.01282916
136	0xbd4657b5	-0.048423488
137	0xbc55e880	-0.013055921
138	0x3cc66547	0.024218215
139	0x3c5b04cf	0.013367846
140	0xbb5902f0	-0.0033113323
141	0x3c9eb933	0.01937542
142	0x3cc8ba4b	0.024502894
143	0x3cbf2539	0.023333179
144	0x3b6dc4e6	0.003628069
145	0x3d70593f	0.05867886
146	0x3b83489d	0.004006459
147	0x3d2f3c58	0.042782158
148	0xbc1d9698	-0.009618424
149	0xbbfd4960	-0.0077296942
150	0x3d569674	0.052389577
151	0xbc84561c	-0.016154341
152	0x3c30d0aa	0.010791937
153	0x3d32d4dc	0.04366003
154	0x3d70bfb3	0.05877657
155	0xbd3b36ac	-0.045706436
156	0x3c8ed0b1	0.017433496
157	0x3d3bb610	0.045827925
158	0xbbbbd380	-0.005732
159	0x3cb57fcf	0.02215567
160	0x3ceef7d3	0.029170906
161	0x3da15541	0.07877589
162	0xbce195d9	-0.027537273
163	0x3d9001d5	0.070315994
164	0x3cc1d469	0.023660855
165	0x3d0eb00f	0.03483587
166	0xbc13fde6	-0.009032702
167	0xba808ce6	-0.0009807616
168	0x3d2cd50a	0.042195357
169	0x3d6bb4b2	0.05754537
170	0x3c4c23b0	0.01245968
171	0x3c8cccac	0.017187439
172	0x3d8ec20c	0.06970605
173	0xbb33e2c1	-0.0027448388
174	0x3d7930af	0.060837444
175	0xbac6bb9e	-0.0015162115
176	0x3d473191	0.048631255
177	0xbcb6c22f	-0.02230939
178	0xbd268e7e	-0.040663235
179	0x3d214b8d	0.03937869
180	0xbd05b8b7	-0.03264686
181	0x3b90a7d5	0.0044145384
182	0x3cbaaa04	0.022786148
183	0xbd49cf03	-0.049269687
184	0x3d8b37d8	0.06797761
185	0x3d4c3cac	0.04986255
186	0xbc85d173	-0.016335225
187	0xbd2c5102	-0.042069443
188	0x3d5ec7c5	0.054389734
189	0x3d8f1295	0.06985966
190	0x3d5b4b63	0.05353869
191	0x3d8a413a	0.06750722
192	0xbd45f79b	-0.048331838
193	0xbcd0494f	-0.025425581
194	0xbbdc8804	-0.0067300815
195	0xbd1bf490	-0.03807503
196	0x3d65b760	0.056083083
197	0x3d844ab9	0.06459565
198	0x3d1de740	0.038550615
199	0x3d53fa8e	0.05175262
200	0x3ca4ddb8	0.020125255
201	0x3d1b852d	0.037968803
202	0x3d410e6b	0.04713289
203	0x3ccabbfa	0.024747837
204	0x3d47da78	0.048792332
205	0x3d76ec00	0.06028366
206	0xbced227e	-0.028947111
207	0x3cfef67e	0.031123396
208	0x3dabd66e	0.083905086
209	0x3d2edb86	0.042689823
210	0x3c13dab7	0.009024314
211	0xbcc15cae	-0.023603763
212	0x3d9b11fe	0.07571791
213	0xbd2537fa	-0.040336587
214	0xbcafb6c3	-0.021449452
215	0xbcfec520	-0.031099856
216	0xbd322174	-0.043488935
217	0x3d3a7182	0.045518406
218	0x3c068520	0.00821045
219	0xbd1d9c92	-0.038479395
220	0xbd6cec9c	-0.057842836
221	0x3d7c46f4	0.061591104
222	0x3cd3e688	0.025866762
223	0xbc5d2028	-0.013496436
224	0x3d595c3d	0.05306648
225	0x3c2451c7	0.010029263
226	0x3d56c2d0	0.05243188
227	0x3c026695	0.007959028
228	0x3cf62a2f	0.030049412
229	0x3d8615c2	0.06547119
230	0xbd349538	-0.04408762
231	0x3c05e332	0.008171843
232	0xbcf8a7f1	-0.030353518
233	0xbceeb645	-0.029139647
234	0x3d9f7086	0.07785134
235	0x3c0c0753	0.008546668
236	0x3da73b2f	0.08165585
237	0x3d1fa513	0.038975786
238	0x3d0f78d2	0.035027333
239	0x3d718e7b	0.05897377
240	0xbd28a4b7	-0.04117271
241	0x3d93c4f4	0.072153
242	0xbcbbe73f	-0.022937415
243	0xbb15fad3	-0.0022885099
244	0x3d629b00	0.0553236
245	0xbd13751a	-0.03600035
246	0x3ce12f46	0.027488362
247	0x3d555c8f	0.052090224
248	0x3d3e5a68	0.046472937
249	0xbc86377f	-0.016383884
250	0x3d92a4c1	0.071603306
251	0x3d1250ed	0.035721708
252	0x3d1109c4	0.035409704
253	0xbcfe80a2	-0.031067196
254	0x3c3ebb71	0.011641369
255	0x3cf48a86	0.02985121

bias f4 [64]
0	0x3d71be69	0.05901948
1	0x3c655c1e	0.013999013
2	0xbcc1e00c	-0.023666404
3	0xbd4c2dcb	-0.04984836
4	0x3cf22c25	0.029562065
5	0x3c43385d	0.0119152935
6	0xbd0df798	-0.034659952
7	0x3d60da56	0.05489572
8	0xbd00b17e	-0.03141927
9	0xbc558249	-0.013031551
10	0x3c92f942	0.017941121
11	0xbd0e93ef	-0.03480905
12	0x3d21ca61	0.039499644
13	0xbbac25f0	-0.005253546
14	0x3d3df38c	0.046374843
15	0xbb236bc6	-0.0024936064
16	0x3beb9c24	0.0071902443
17	0xbd4de7f0	-0.05027002
18	0x3d4dd06c	0.050247595
19	0xbcada04b	-0.021194598
20	0x3d7574ba	0.059925772
21	0xbd461429	-0.04835907
22	0x3d02f4a4	0.03197159
23	0xbca33836	-0.019924264
24	0x3c346c49	0.011012145
25	0xbd2570b4	-0.040390685
26	0xbc0c59d9	-0.008566343
27	0xbd04acf6	-0.03239151
28	0x3d580958	0.052743286
29	0xbd0d78c2	-0.03453899
30	0xbd05efe0	-0.032699466
31	0x3d60cac5	0.054880876
32	0x3d478d96	0.04871901
33	0x3cbf5bae	0.023359146
34	0xbd625b06	-0.055262588
35	0xbcca835d	-0.024720842
36	0x3cd678ab	0.026180586
37	0xbcb04bd9	-0.021520542
38	0x3d4b4de9	0.049634848
39	0x3c3a2f15	0.011363764
40	0x3c397193	0.011318582
41	0xbd1651bf	-0.036699053
42	0x3c873d5f	0.016508756
43	0x3d040647	0.03223255
44	0xbd2bdae2	-0.04195679
45	0x3cfed71f	0.031108437
46	0xbd096bbd	-0.033550013
47	0xbd33c300	-0.04388714
48	0xbab4ff08	-0.0013808915
49	0xbcc933af	-0.024560777
50	0x3d11d453	0.03560288
51	0x3c472139	0.012153917
52	0x3d1036e9	0.035208616
53	0xbd4a15fb	-0.04933737
54	0xbc0874d3	-0.008328634
55	0xba7cf27b	-0.00096491695
56	0xbb9d36c4	-0.0047977883
57	0xbd5222b1	-0.051302616
58	0xbca19e94	-0.019728936
59	0x3cdb154e	0.026743557
60	0x3d7c2585	0.06155922
61	0x3b1e4381	0.0024149122
62	0xbd4b2f61	-0.04960573
63	0x3d5000f2	0.05078215
